project/onnx_models/BiLSTM/Apple.onnx (onnx, 547707 bytes, 7 tensors)

fc.weight f4 [1, 128]
000000 d9 72 b9 3e 4d 71 ca 3e 45 98 b7 3e 11 3f c5 3e
       0.36220434 0.39539567 0.3585836 0.38524678
000010 42 9f b5 be 6f f3 c2 3e 72 2c c2 be eb 14 d3 3e
       -0.35473067 0.3807635 -0.37924534 0.41226897
000020 91 24 cd be e6 b8 bb 3e dd 38 b3 be a9 9a ae 3e
       -0.4006696 0.36664504 -0.3500432 0.3410237
000030 2d d9 b4 3e 3b 2f ca be 8f f4 d7 3e 35 54 ad be
       0.35321942 -0.3948916 0.4217877 -0.33853307
000040 01 7e cd be 76 44 d4 3e 0b 8f bb 3e 12 23 c8 3e
       -0.40135196 0.41458482 0.3663257 0.39089257
000050 c1 b5 af 3e 40 5a ba be 86 2f d8 be 84 dc c9 be
       0.34318355 -0.3639698 -0.42223758 -0.39426053
000060 5a b4 d8 3e c5 6b bb be 64 b3 ac be e0 06 d2 be
       0.42325097 -0.3660566 -0.33730614 -0.4102087
000070 72 0f be 3e 6f 31 a8 be 84 45 c4 3e 55 16 d0 3e
       0.3712116 -0.32850215 0.38334286 0.40642038
000080 07 c3 bf 3e 21 f4 bf be 05 18 c0 3e ff a9 bb be
       0.37453482 -0.37490943 0.37518325 -0.36653134
000090 95 c8 d4 3e 9c 42 ce 3e 21 d4 be be c4 8f d3 3e
       0.41559282 0.40285194 -0.37271217 0.41320622
0000a0 21 c7 ba 3e aa 26 d0 3e 91 d3 c2 3e d6 4a d5 3e
       0.36480048 0.40654498 0.38052037 0.41658658
0000b0 27 79 ba be 87 43 cf be b7 22 c4 be ff 80 a7 be
       -0.36420557 -0.40481207 -0.38307735 -0.32715604
0000c0 41 6a b9 3e 49 c3 ac 3e ef f9 d7 3e d7 34 c1 3e
       0.36213878 0.3374274 0.42182872 0.37735626
0000d0 38 77 a7 3e 5c 50 c8 3e 65 3b cc be 57 be c5 3e
       0.32708144 0.3912381 -0.39889064 0.3862178
0000e0 19 e6 b5 be 22 56 ae 3e ef 50 b1 be f6 02 a3 3e
       -0.35527113 0.3405009 -0.3463206 0.31838197
0000f0 0f 26 b4 3e 9c 76 d9 3e b5 e7 b1 3e 73 fa d8 3e
       0.35185286 0.42473304 0.3474709 0.42378578
000100 74 71 d5 be 38 1f da 3e f9 25 da 3e 6a 46 de be
       -0.4168812 0.42601943 0.42607096 -0.43413097
000110 70 d0 ec be c3 17 eb 3e 35 37 eb 3e 6a 9d e0 3e
       -0.46252775 0.45916566 0.45940557 0.43870097
000120 be bc e4 3e 1c e2 e3 be 82 61 cb be 04 53 d4 3e
       0.4467525 -0.44508445 -0.3972283 0.41469586
000130 4b d8 e8 3e d0 0b eb be 0e 69 e6 be 49 d7 d2 be
       0.45477518 -0.4590745 -0.45002025 -0.41179875
000140 fc 82 e3 3e 3e c5 e8 3e 03 d4 d1 3e 13 1b f7 3e
       0.4443587 0.45462984 0.40982065 0.48262843
000150 d0 cc da 3e 16 5e c4 3e b0 b2 ca 3e bf b8 e6 be
       0.42734385 0.38353032 0.39589453 -0.45062825
000160 1a 97 ec be 35 e5 d7 3e 91 19 db be be 73 dc be
       -0.4620903 0.4216706 -0.42792943 -0.43057054
000170 ab 46 d7 3e 9d 7e e8 be e5 64 d4 3e 09 aa e6 be
       0.42046103 -0.45409098 0.41483226 -0.45051602
000180 64 41 ca be 86 37 ed be a2 f0 ce be 1d e6 ca be
       -0.39503014 -0.46331424 -0.40417963 -0.39628688
000190 b2 0e f3 be bf 5d f0 be 46 4b e9 be 3e cd cb be
       -0.4747215 -0.46946523 -0.45565242 -0.39805025
0001a0 b0 dc ed be ac 34 ec 3e f0 6a c1 3e 0d 70 f5 3e
       -0.46457434 0.46133935 0.377769 0.4793705
0001b0 bf e0 d3 3e 8f bd cb 3e c4 1c da 3e f1 2a d1 be
       0.41382405 0.3979306 0.4260007 -0.40853074
0001c0 31 25 cb 3e d1 d7 f5 3e 47 6f cd 3e f4 c2 d3 be
       0.39676812 0.48016217 0.4012396 -0.41359675
0001d0 c7 66 c6 be e7 ae dd be f2 29 e5 be cf 1d ea be
       -0.38750288 -0.43297502 -0.44758564 -0.45725867
0001e0 e2 e2 f3 3e 66 6e e3 3e d3 80 d6 3e c1 d2 e5 be
       0.47634035 0.44420165 0.4189516 -0.44887355
0001f0 01 28 f2 3e 69 1c d8 3e 61 a6 d4 3e ae d8 c4 3e
       0.47296146 0.42209175 0.41533187 0.38446563

onnx::LSTM_350 f4 [2, 512]
000000 20 e4 c6 3b 58 ae 78 bd b6 25 fc 3d 94 01 23 3d
       0.006069675 -0.060713142 0.1231188 0.039796427
000010 e0 de f1 3c 00 4c ae bb 1c 89 26 3d e6 4e ed bd
       0.02952522 -0.0053191185 0.0406581 -0.11587314
000020 c0 69 df bc 28 c8 9d bd 24 00 46 bd 04 c7 3c 3d
       -0.027272105 -0.077041924 -0.048339978 0.046088234
000030 30 d1 20 3c b8 f7 b3 bc b8 86 86 3c fc 6a dd 3d
       0.009815499 -0.021968707 0.01642166 0.10811421
000040 88 3b 50 bd 24 17 0a 3d 70 96 19 3d 20 a5 4d bd
       -0.050838023 0.033713475 0.037496984 -0.050206304
000050 ae 17 fe 3d ce d5 a1 3d a6 d0 e1 bd 52 81 da bd
       0.1240686 0.07902108 -0.11026125 -0.10669197
000060 86 fd d5 3d 00 a2 e5 3d ea 60 ca 3d a8 50 8b 3c
       0.104487464 0.1121254 0.09881766 0.017006233
000070 a0 5f f2 3b 58 2e 9b 3d 2e 5f bd bd 70 ea f0 3c
       0.0073966533 0.07577199 -0.0924667 0.029408664
000080 7e e5 ad 3d f8 46 9c bd c2 40 a7 bd 50 75 b2 3c
       0.08491038 -0.07630724 -0.081666484 0.021784455
000090 a2 49 a7 bd 7a 5b d4 bd 28 37 96 3d 38 3c f4 3d
       -0.08168341 -0.1036901 0.07334739 0.11925548
0000a0 b4 3a 3a 3d 00 f2 05 3c 60 2b 3f 3d 1c d9 b5 bd
       0.04546614 0.008175373 0.046672225 -0.08879301
0000b0 d8 3e ff 3c a8 18 99 3d a4 5c 21 3d 98 2c b3 3d
       0.031157896 0.07475406 0.03939499 0.0874874
0000c0 60 8f cf bc 5e b0 f3 bd 08 df a2 3d 1a 91 ed bd
       -0.025336921 -0.11898874 0.07952696 -0.115999416
0000d0 56 eb db 3d 74 3a 6d 3d 48 3a 00 3d 2c 1e 75 3d
       0.10738246 0.057917073 0.03130558 0.059843227
0000e0 1c 25 aa bd 90 05 f2 bc 50 f8 8b 3d ac bc 34 3d
       -0.08307859 -0.029543668 0.06834471 0.044125244
0000f0 ea d0 85 bd 9e 57 e4 3d 78 83 f7 bc 16 00 f9 3d
       -0.06533988 0.11149524 -0.030214056 0.121582195
000100 40 4b 46 3c a0 e0 38 bc b4 0f 59 bd b8 bc b1 3d
       0.012102902 -0.0112840235 -0.05299349 0.08678573
000110 00 3c 6e 3b 4c 9f 88 3d 10 0f ca 3d 00 dc 63 bb
       0.003635168 0.066710085 0.09866154 -0.0034768581
000120 e0 90 f9 3c 80 ab 8a 3d 9c be 19 3d bc 02 8a bd
       0.03046459 0.06770992 0.037535295 -0.06738803
000130 1e 60 8e bd ae 7c 80 bd 6a 38 a7 bd 68 29 ec bc
       -0.06951927 -0.06273781 -0.08165057 -0.028828338
000140 14 6b c7 3d 60 05 81 bc 12 fe c9 bd 4a 23 f2 3d
       0.097372204 -0.015749633 -0.09862913 0.11823137
000150 60 fe a6 3b 00 d1 5e 3a 9c c3 09 3d a0 b8 e4 3b
       0.005096242 0.00084997714 0.033633813 0.006980017
000160 3e 69 ae bd b2 0c c9 3d 62 63 86 bd 72 44 9f bd
       -0.08516167 0.098168746 -0.065619245 -0.07776727
000170 4a a0 80 bd be b3 f1 3d 60 a5 06 3d 40 a3 71 3c
       -0.06280573 0.11801861 0.032872558 0.0147483945
000180 10 a7 e5 3c 36 a1 e1 bd 44 c0 af bd f4 22 2e bd
       0.028033763 -0.11017077 -0.08581594 -0.042513803
000190 42 3b c3 bd 80 67 4b 3d 0e 5c c3 3d 3c b8 34 3d
       -0.09532787 0.049659252 0.095390424 0.044121012
0001a0 1c c3 8c bd a0 6a 09 3d ca b4 91 3d da 2b d7 3d
       -0.06873152 0.03354895 0.07114561 0.10506411
0001b0 20 a9 87 3b 90 8b ac 3c 44 a0 35 3d 40 1d d6 bc
       0.0041400343 0.021062642 0.044342294 -0.026136994
0001c0 3c d4 70 bd cc c7 e9 3d 04 39 1a bd 34 a0 87 3d
       -0.058796152 0.11415061 -0.03765203 0.06622353
0001d0 a8 de 4a bd d8 a6 57 3d f8 9d b9 bd 6c 58 85 3d
       -0.049528748 0.05264935 -0.09063333 0.06511006
0001e0 e8 0f c5 3d 48 f9 8c bd 12 50 a2 3d dc ae 0c bd
       0.096221745 -0.06883484 0.079254285 -0.034346446
0001f0 40 41 39 bc cc 74 36 bd 9a 5f b3 bd 88 3e a5 bd
       -0.011307061 -0.04454498 -0.08758469 -0.080685675
000200 52 51 f1 3d 34 41 bd 3d 18 17 b0 bd d0 eb 44 bd
       0.11783089 0.09240952 -0.08598155 -0.04807645
000210 ae 5f be 3d 18 b6 c0 3d d8 a1 33 bd c8 dd cc 3c
       0.09295593 0.094097316 -0.043855518 0.025008097
000220 c6 48 e8 3d 54 e4 9f 3d 64 5e 17 bd 54 74 78 bd
       0.113420054 0.07807222 -0.036955252 -0.060657814
000230 60 55 04 3c 36 d9 d3 bd a8 69 88 3c cc f5 f3 3d
       0.008076996 -0.10344164 0.016651943 0.119121164
000240 b0 f5 61 bd 44 07 4a bd 98 ac 82 bc 80 fa cf 3d
       -0.055165946 -0.049323335 -0.01595144 0.10155201
000250 04 4b 13 bd fc 46 de 3d 14 6e 37 3d d0 3a 9c 3d
       -0.035960212 0.10853383 0.044782713 0.07628405
000260 04 4a 71 3d 40 7f f9 3b 18 c5 7b bd fa 73 df bd
       0.058908477 0.0076140463 -0.06146726 -0.10910793
000270 e0 fc 6c bc 80 19 d1 bc 88 89 be 3c 08 79 44 3d
       -0.014464587 -0.025524855 0.02325894 0.047966987
000280 c4 14 c6 bd d8 a8 86 bc 58 44 6d bd 08 d9 bc bc
       -0.096719295 -0.016437933 -0.057926506 -0.023052707
000290 6e 0b 9e bd c4 5e b2 bd 34 f2 4b 3d 28 18 d4 3c
       -0.07717024 -0.08709481 0.04979153 0.025890425
0002a0 08 01 dc bc d0 37 6d bc 8c 14 24 3d 80 ca 55 3c
       -0.02685596 -0.014478639 0.040058658 0.013048768
0002b0 24 d7 21 bd 60 c4 06 bd dc 20 15 3d 9a 03 ba 3d
       -0.039511815 -0.03290212 0.03640829 0.09082718
0002c0 62 dd 86 bd ec e9 d2 bd ce 5c 9f bd 36 ed b8 bd
       -0.06585194 -0.10298523 -0.07781373 -0.090296194
0002d0 00 5f a9 bb e0 77 7b bd 00 6d 9d 3d ec 3f f0 3d
       -0.0051687956 -0.06139362 0.07686806 0.11730942
0002e0 ba 16 99 bd 5c cb f4 bd 50 a8 f6 bc a0 78 51 bc
       -0.07475038 -0.1195285 -0.030109555 -0.012785107
0002f0 6e f5 f1 bd ec 34 15 3d cc e3 d8 3d c4 2a da 3d
       -0.1181439 0.036427423 0.10590324 0.10652688
000300 14 59 16 3d b0 5f 1c bd aa 45 cf bd 46 c6 c5 3d
       0.036706045 -0.038177192 -0.10120709 0.09656958
000310 bc cf fd 3d 12 ef 9e 3d b0 a4 0b bc c0 5a 63 bb
       0.12393138 0.07760443 -0.008523151 -0.0034691542
000320 5a 52 e4 3d 98 79 9e bd 0c f5 e2 3d 2e 0a f5 bd
       0.1114852 -0.07738036 0.11081895 -0.11964832
000330 10 c8 16 bc 7a e1 96 bd ce cd f1 bd ba 67 a5 3d
       -0.009202972 -0.07367225 -0.11806832 0.08076425
000340 50 15 b0 3c 60 60 64 3d 50 65 9c 3d b6 e6 96 bd
       0.021494538 0.055755973 0.07636511 -0.07368223
000350 d0 13 ac bd 7c 8a 2e bd 50 83 ad bd 70 33 32 bd
       -0.084022164 -0.042612538 -0.084723115 -0.043506086
000360 e0 4b a9 bb dc c3 60 bd 7e 55 d4 bd 40 ea a3 bd
       -0.0051665157 -0.054874286 -0.10367869 -0.08003664
000370 58 2a 9f 3c d4 6c 6a bd 30 32 8d 3c 4c 5f 0b 3d
       0.01942937 -0.057232693 0.017235845 0.03402643
000380 c0 a7 ab bb c0 56 55 3c 50 f7 02 3c 80 5d f1 bc
       -0.005238503 0.013021171 0.007993534 -0.02946353
000390 00 8c 56 b9 40 46 e1 bd 80 83 8a 3a 54 f7 5b 3d
       -0.00020460784 -0.10999727 0.0010567755 0.053702667
0003a0 6e e1 92 bd 00 43 c0 3c 40 6e d9 bd 10 dc 8d 3c
       -0.071719036 0.023469448 -0.10616732 0.017316848
0003b0 de 93 a1 bd 88 63 d9 bc a0 2c 28 3d 6a 2d c9 3d
       -0.078895316 -0.026536718 0.041058183 0.09823115
0003c0 00 78 fd 3d 76 05 de bd d8 5a c5 bd e0 81 9b 3b
       0.12376404 -0.10840885 -0.09636468 0.004745707
0003d0 e0 4e c0 3d 1c 35 f5 3d 6c e2 9c bd f2 69 9c bd
       0.09390044 0.119730204 -0.07660374 -0.07637395
0003e0 42 ed ea 3d 78 bd 40 bd 10 b8 18 3d d0 72 91 3d
       0.114710346 -0.04705569 0.03728491 0.07101977
0003f0 5e 91 e1 bd c6 25 cc bd 00 b5 9a bd f6 0c cc 3d
       -0.11014055 -0.09968142 -0.07554054 0.099634096

onnx::LSTM_351 f4 [2, 256, 5]
000000 e4 e2 a9 3d b4 05 4e bd f4 54 f7 3d bc 1a 13 3d
       0.08295229 -0.050298408 0.120767504 0.035914168
000010 10 9e df bd 18 7d 35 bd e0 dc d4 3b 00 21 a1 bb
       -0.1091882 -0.04430875 0.006496057 -0.004917264
000020 1e 97 ce 3d ae 41 96 bd 0a 22 d7 3d f8 24 fe 3c
       0.10087417 -0.07336746 0.10504539 0.031023487
000030 e4 5d 35 3d 64 bc ba bd 9a 2d d6 bd c8 37 e3 3c
       0.044278994 -0.09117964 -0.104579166 0.02773656
000040 00 dc d7 b9 b4 67 7b bd f0 1f e7 3d 84 df e1 3d
       -0.00041171908 -0.061378196 0.112853885 0.1102896
000050 a0 c8 ea 3b 44 09 98 bd 44 01 d1 bd e4 31 a4 bd
       0.0071650296 -0.07423642 -0.102053195 -0.080173284
000060 54 04 19 bd 60 71 fd bc 30 18 49 bd 44 ba d7 3d
       -0.037357643 -0.03093785 -0.049095333 0.10533574
000070 f6 5b f6 3d 2c de b6 bd 46 87 ac 3d 6e 6e fe 3d
       0.12029259 -0.08929095 0.08424239 0.124234065
000080 52 65 b7 3d bc dc 7b 3d 92 09 ce bd 74 de eb 3d
       0.08954872 0.061489806 -0.10060419 0.11517039
000090 e8 52 de 3d c8 90 2e bd 98 90 b3 3d 9c 4f 5a 3d
       0.10855657 -0.042618543 0.087678134 0.053298578
0000a0 42 2f 91 3d 88 09 d0 3c 90 97 bd 3c cc 46 05 3d
       0.07089092 0.02539517 0.02314356 0.03253822
0000b0 dc 8b 39 bd b4 f8 1a 3d 44 07 9f 3d c0 aa 54 bd
       -0.045299396 0.037834838 0.07765058 -0.051920652
0000c0 f0 49 03 3d 0a 7d d3 bd 42 fa b0 bd 30 2e 57 3c
       0.032052934 -0.10326584 -0.08641483 0.013133571
0000d0 2c 45 26 3d b2 d2 ed bd 10 de 6e 3d 38 56 fc bd
       0.04059331 -0.116124526 0.058317244 -0.123211324
0000e0 e4 17 e6 3d 00 4f 80 bc d6 d2 f7 bd 66 d2 98 bd
       0.112350255 -0.01566267 -0.12100761 -0.07462005
0000f0 80 3d 3a 3b 8a 22 a2 bd e0 19 88 bd 84 9a 1f 3d
       0.0028418005 -0.07916744 -0.0664556 0.038965717
000100 f4 c9 81 3d 44 be 2f bd 00 88 9c 39 be 51 d7 3d
       0.063373476 -0.04290606 0.00029855967 0.10513638
000110 50 ab 87 bd 9c 51 37 3d 1a 15 88 bd 1e 4a e8 bd
       -0.06624472 0.044755563 -0.0664465 -0.11342262
000120 50 0a e2 3c 24 d7 38 3d b8 c4 fc 3c c0 5d 5e bb
       0.027592808 0.04512705 0.030855522 -0.003393039
000130 44 c9 0d bd 24 55 6d 3d a0 62 f4 bb 82 e1 e3 bd
       -0.03461577 0.057942525 -0.007458046 -0.111269966
000140 50 8a 55 bc b4 23 98 3d a6 b8 fe 3d a4 e4 8d 3d
       -0.013033465 0.07428685 0.12437563 0.06928375
000150 18 66 7f bd 24 19 db bd 7a f5 ae 3d ac 67 b8 bd
       -0.062353224 -0.106981546 0.08542915 -0.09004149
000160 80 da 5d 3c 00 da c9 3a 90 03 ff bc a0 f7 0e 3c
       0.013540864 0.0015400052 -0.031129628 0.008726031
000170 78 50 cc bc 04 0e 8d 3d 34 40 c7 bd 40 88 d4 3c
       -0.024940714 0.06887439 -0.09729043 0.025943875
000180 00 ef 7e ba aa 60 dc bd 98 ec dc bd f4 10 39 bd
       -0.0009724945 -0.10760625 -0.10787314 -0.045182183
000190 ea a5 8e bd dc 38 86 bd a4 26 ce 3d 06 1c 99 bd
       -0.06965239 -0.06553814 0.10065964 -0.07476048
0001a0 80 38 5c 3d 54 d3 fd 3d 84 0b 01 3d 02 54 9a 3d
       0.05376482 0.12393823 0.031505123 0.075355545
0001b0 90 2c 36 3d 40 9c 31 bd 48 63 e8 3c 18 64 76 bd
       0.04447609 -0.043361902 0.028367653 -0.06015405
0001c0 80 a6 b5 3d 08 5b f5 bc 16 71 b4 3d e0 32 f6 bb
       0.08869648 -0.029950634 0.08810632 -0.007513389
0001d0 a8 67 18 3d c0 14 31 bb 9c ba ba 3d d8 95 e9 3c
       0.03720823 -0.0027020425 0.09117624 0.028513834
0001e0 72 f4 a2 3d 1e 13 f8 3d fc e5 87 3d a0 75 59 3c
       0.079567805 0.12113021 0.06635663 0.013272673
0001f0 b0 df a5 bc e0 6c f0 bc 40 3c 16 bc e8 35 33 bd
       -0.020248264 -0.02934879 -0.009169638 -0.04375258
000200 e8 b3 b1 bd f0 c1 fe 3d d8 97 2b 3d 90 1d 5a 3c
       -0.086768925 0.124393344 0.041892856 0.013312712
000210 78 13 7c 3d 74 8a b2 3d a0 84 f9 3d e0 be 97 bc
       0.061542004 0.08717814 0.12183499 -0.018523633
000220 94 60 1f 3d 50 ff b6 3c 08 c6 9a 3c 92 94 f9 bd
       0.038910463 0.02233854 0.018893257 -0.12186541
000230 ec 65 61 3d 70 0e fd 3d 5e 2e b8 3d 00 72 02 3a
       0.05502884 0.12356269 0.08993219 0.0004976094
000240 7e 93 b6 bd 9a 2a dd 3d 00 28 0e bc bc b5 8a 3d
       -0.08914851 0.10799141 -0.008676529 0.06772944
000250 00 00 25 39 fc 4e 62 bd b0 a0 e4 3d 4a de e2 bd
       0.00015735626 -0.055251107 0.11163461 -0.110775545
000260 44 cc 30 bd c0 f0 66 bc 00 02 1d bc 20 dc b8 bd
       -0.043163553 -0.014095485 -0.009582996 -0.090263605
000270 6e e4 df 3d ba 9d cd 3d 7c ba b6 3d 3e 30 c1 bd
       0.109322414 0.100398496 0.08922288 -0.094330296
000280 b0 52 4d bc 20 74 bb 3c 68 20 b9 bd b2 af ce 3d
       -0.012531921 0.022882521 -0.09039384 0.10092105
000290 88 60 74 3d b0 d6 1c bc 64 ba 69 bd b8 0a d9 3c
       0.059662372 -0.00957267 -0.05706252 0.026494369
0002a0 66 df 8c bd c8 21 5b 3d b0 92 2a 3c 5a 28 bc bd
       -0.06878547 0.053499013 0.01041095 -0.09187384
0002b0 a0 18 fe bb 80 a0 75 3c 50 21 a3 3d 78 10 52 bd
       -0.0077544004 0.014991879 0.07965338 -0.051285237
0002c0 c0 09 e3 bc 98 0d 70 bd a8 4a 1d bd b8 f9 97 bc
       -0.02771461 -0.058606714 -0.038401276 -0.018551692
0002d0 18 a9 0c 3d 00 cd 45 3d 3c b9 66 bd 6e bf e6 3d
       0.034340948 0.048291206 -0.056328997 0.11266981
0002e0 ae 7a fd 3d 48 63 63 3d 40 5e c6 bb 50 bd 3a 3c
       0.12376915 0.055514604 -0.006053716 0.011397675
0002f0 20 1a 60 bc a0 11 cf 3c 94 5b bf bd 18 83 e7 3d
       -0.013678104 0.025276959 -0.09343639 0.11304301
000300 e0 b3 d5 bb 14 84 4d bd 30 a9 e8 bd 80 54 f6 3b
       -0.006521687 -0.050174788 -0.11360395 0.0075173974
000310 88 4b a9 bc c0 16 43 3b 9c 8c 30 bd fc b0 06 bd
       -0.020665899 0.0029768199 -0.043102846 -0.03288363
000320 1a e5 f0 3d 8c 0f 97 bd 9e 0a b2 bd a8 95 c7 bd
       0.11762448 -0.07376012 -0.08693431 -0.097453415
000330 54 a8 78 3d ae 6a ad 3d aa 2f a7 3d dc af 1b bd
       0.060707405 0.08467613 0.08163388 -0.03800951
000340 40 aa 34 bd 68 35 d6 3c d8 9d e5 bd 1a ba bf bd
       -0.044107676 0.026148513 -0.11211747 -0.09361668
000350 40 81 4d bd fa 43 96 bd 8e 2d f1 bd 68 7b 33 bd
       -0.05017209 -0.07337184 -0.11776267 -0.04381886
000360 84 ed 24 bd 64 2d 9a 3d 50 ff 4e bd 98 82 a1 bd
       -0.040265575 0.07528189 -0.050536454 -0.07886237
000370 58 22 2e bd 34 d2 e6 bd 7c c2 11 3d b6 e0 a1 3d
       -0.04251322 -0.11270562 0.035585865 0.07904188
000380 cc f6 1e bd 40 44 e9 bc 60 e4 9f bc 88 e0 b8 3c
       -0.038809583 -0.028474927 -0.019518077 0.022568002
000390 10 90 86 bc 3c 2e 45 bd 00 e1 56 3d f0 b1 7d 3d
       -0.016426116 -0.048139796 0.05246067 0.061937273
0003a0 f2 56 8a bd 28 80 fc 3d 0c e1 1e bd 20 de 55 3d
       -0.06754865 0.12329131 -0.03878884 0.052213788
0003b0 8a d5 86 3d 84 8b 0c bd 50 d8 86 3c 40 e1 f6 3d
       0.06583698 -0.03431274 0.016460568 0.12054682
0003c0 b2 9c cf 3d 40 a8 da bd 20 2f 76 3c 54 9d 68 bd
       0.10137309 -0.106766224 0.015025884 -0.056790665
0003d0 78 37 cc 3c 6a 21 db 3d 08 fa 1d bd 00 5d 2b ba
       0.024928793 0.106997326 -0.038568527 -0.00065369904
0003e0 84 31 d8 3d 50 45 47 bd 0a a5 81 3d d8 61 c0 bd
       0.10556319 -0.048650086 0.06330307 -0.09393662
0003f0 60 c8 7e 3d 60 e5 ae bd 30 55 93 3c c8 75 b5 3c
       0.06220281 -0.085398436 0.017984957 0.022150889

onnx::LSTM_352 f4 [2, 256, 64]
000000 1a f2 de bd fc 9c d0 3d 78 f7 1a 3d 9c 93 5b 3d
       -0.10886021 0.101861924 0.03783366 0.05360757
000010 d0 9c 3a bc d4 74 05 bd 44 54 98 3d 9c 6f 39 3d
       -0.011389926 -0.03258212 0.074379474 0.045272455
000020 c0 e8 1f bc 74 05 48 bd 60 b4 37 bc 1c 19 10 bd
       -0.009760082 -0.048833326 -0.011212438 -0.035180196
000030 74 9a 6b 3d 34 2b e6 bd 80 72 34 bb 7e c9 aa 3d
       0.057520345 -0.11238709 -0.0027534068 0.08339213
000040 70 19 f3 3c fc bf 69 bd 00 a0 dd ba 00 39 80 3d
       0.029675215 -0.057067856 -0.0016908646 0.06260872
000050 2e 21 c2 bd a8 45 84 bd e0 eb 79 3d f2 8e b9 bd
       -0.09478985 -0.064585984 0.061015964 -0.09060468
000060 b2 61 9d 3d 00 92 f5 bd 20 68 e4 3b c0 b0 a4 3b
       0.076846495 -0.11990738 0.0069704205 0.005025953
000070 40 70 0a 3d 00 f5 9e ba 76 f1 c8 3d 50 7e e1 bd
       0.033798456 -0.0012127459 0.0981168 -0.1101042
000080 c6 12 89 bd 3e 24 97 3d e0 0a e4 bd 40 b9 e7 3d
       -0.06693034 0.073799595 -0.11134887 0.113146305
000090 70 4e cb 3d d0 d9 ae 3c c8 ca 57 bd 28 26 32 3d
       0.0992707 0.021344095 -0.05268362 0.04349342
0000a0 a6 0d 88 3d 4c b0 08 3d cc 71 98 3d 0c 28 17 3d
       0.06643228 0.033371255 0.0744358 0.036903426
0000b0 d4 da f4 3d 26 1d 82 bd 16 63 db bd 64 a2 d8 3d
       0.11955801 -0.06353216 -0.107122585 0.105778486
0000c0 a8 d1 53 3d 60 13 86 bc 9a 44 e4 bd 68 ec 3a 3d
       0.051713616 -0.01636666 -0.11145897 0.04563561
0000d0 e8 31 e2 3c e8 54 49 3d 6c 3c 6f bd 48 3d a0 bd
       0.027611688 0.04915324 -0.058407232 -0.078241885
0000e0 02 20 b9 bd d0 50 6c bd f6 36 b6 3d c0 65 73 3c
       -0.09039308 -0.057694256 0.08897202 0.014855802
0000f0 78 53 c4 bd 20 98 9c 3d f0 20 ef bd f4 f5 92 bd
       -0.09586233 0.07646203 -0.11676204 -0.07175818
000100 a0 f4 c7 3c 00 59 13 bd e0 f8 bf 3c ac 41 71 3d
       0.024408638 -0.03597355 0.023434103 0.05890052
000110 a0 19 bb 3d 02 71 fd bd 00 1e eb bb a0 f2 7e bd
       0.09135747 -0.1237507 -0.007175207 -0.062243104
000120 5e 73 e9 3d a0 a3 b5 3c ca 55 ee 3d 3a f2 d7 3d
       0.11398958 0.022172749 0.11637457 0.10544248
000130 76 3f b8 bd 0c 49 97 bd c0 97 f1 3c 18 6e 63 bd
       -0.08996479 -0.073869795 0.029491305 -0.055524915
000140 8e ae 8f 3d 78 3b 99 bd 70 e0 ad bc dc 56 20 3d
       0.070157155 -0.07482046 -0.021225184 0.039145336
000150 38 03 a6 bc 2e 20 bf 3d 40 4f e9 bd d0 35 cd bc
       -0.020265207 0.0933231 -0.11392069 -0.025050074
000160 80 93 8d 3a 00 d2 4f 3b c4 1c fa bd f0 f7 f5 3c
       0.0010801405 0.0031710863 -0.12212518 0.030025452
000170 9c b5 17 bd c8 b1 46 3d ec 6a 64 3d c0 4b 08 bb
       -0.03703843 0.04850939 0.05576603 -0.0020797104
000180 a0 cb 83 3d cc e8 36 3d c8 76 46 bd de cd ce bd
       0.06435323 0.044655606 -0.048453122 -0.1009786
000190 d0 ce a2 3c b0 6f ba bc 5e f7 a3 bd 9c 4c ad bd
       0.019874007 -0.022758335 -0.08006166 -0.08461878
0001a0 ce df 80 bd 00 2b fd 3b 38 78 2d bd 80 dd 8f 3b
       -0.06292687 0.0077260733 -0.042350978 0.0043904185
0001b0 6a 49 d4 bd de f0 b2 3d a0 8f ac 3d 40 30 67 3b
       -0.10365565 0.08737348 0.08425832 0.0035276562
0001c0 2a 33 ff 3d 3e 9d 9b 3d 00 55 6d bc 8c 46 6c bd
       0.12460931 0.07598351 -0.014485598 -0.057684466
0001d0 f0 f8 cc bc d0 bd 12 bd a8 3d 66 bd 4a c6 8e bd
       -0.025021046 -0.03582555 -0.056211144 -0.069714144
0001e0 9c 7b 77 3d 90 c7 5c 3d bc 85 af bd 70 cd 11 bc
       0.060420617 0.053901255 -0.0857043 -0.008899078
0001f0 2c 86 a9 3d c0 1f e9 3b c0 7c 70 3d 78 b3 88 3c
       0.082775444 0.0071143806 0.05871272 0.01668714
000200 e8 cf e0 3d 5c 42 ac bd a4 20 b0 3d 16 ce f8 bd
       0.10977155 -0.084110945 0.08599976 -0.12148683
000210 d2 ee ba 3d a8 81 52 bd 70 ee 8d bc 00 98 4b 3c
       0.091275826 -0.05139318 -0.01732561 0.012426376
000220 80 a7 d7 3d 6a 5c f5 bd 74 d3 bd bd 7c cc 07 3d
       0.10529995 -0.11980517 -0.09268847 0.033153996
000230 ba f2 b4 bd e0 87 5b bd 5c 09 85 3d d0 c4 5b bc
       -0.08835359 -0.053596377 0.06495926 -0.013413623
000240 a2 ce f3 bd 58 52 d2 3d 56 a0 d4 bd 00 ae 19 bb
       -0.119046465 0.10269612 -0.10382144 -0.002344966
000250 20 e8 ed bb 34 c0 03 bd f8 d4 e5 3d d6 85 f9 bd
       -0.0072603375 -0.03216572 0.11222261 -0.1218373
000260 24 6d 43 bd 1a a0 a3 3d f0 0f f5 3d f0 33 84 3d
       -0.047711506 0.07989521 0.119659305 0.06455219
000270 40 a0 02 3b 80 5b 4d bc d2 c7 d9 bd 70 d3 a2 3c
       0.0019931942 -0.012534022 -0.10633816 0.019876212
000280 e0 ed cb 3c a6 c1 f3 bd b0 15 1f 3c 54 98 ae 3d
       0.024893701 -0.1190217 0.009709761 0.08525148
000290 44 f2 e7 bd 62 84 b3 3d c0 0c c7 3d 14 55 47 3d
       -0.113255054 0.087654844 0.09719229 0.04866512
0002a0 82 82 df bd ce 29 9c 3d c0 2c 70 3d ec 75 81 3d
       -0.10913564 0.07625161 0.058636427 0.0632132
0002b0 10 31 62 bc 6c 10 4a bd 2c 23 15 bd 6a 90 ff bd
       -0.013805643 -0.049332067 -0.036410496 -0.12478717
0002c0 3e 1e bc 3d 7a fe c4 3d 90 b2 93 bd f0 fc 23 bc
       0.09185456 0.0961885 -0.072117925 -0.0100090355
0002d0 18 26 84 3d 1c d1 9f 3d e0 8f bb 3c 60 77 e0 3c
       0.06452578 0.07803556 0.022895753 0.027400672
0002e0 72 01 c2 bd 3c 7c 50 bd ac 9a 81 bd f8 9b af 3c
       -0.09472932 -0.05089973 -0.063283294 0.021436676
0002f0 7a 3d dc bd d0 4a 97 3c ae f3 b8 3d e8 23 d1 bc
       -0.10753913 0.01846829 0.09030853 -0.025529817
000300 78 ee 24 3d 76 68 c9 3d e2 bd 9a 3d 84 47 69 3d
       0.040266484 0.098343775 0.075557485 0.05695297
000310 ac c0 58 3d e8 08 49 3d 70 f9 04 bd a4 2c bd 3d
       0.05291812 0.04908076 -0.032464445 0.0923703
000320 c0 70 1d bb ac 9f d8 3d 32 e9 b6 bd f0 37 cc 3d
       -0.0024023503 0.1057733 -0.08931197 0.09971607
000330 1a 21 fd bd 78 20 f2 bc ea ac 88 3d ec dc a9 3d
       -0.12359829 -0.029556498 0.06673606 0.08294091
000340 94 1e 02 3d 04 12 94 3d 5c 26 f6 3d a4 22 73 3d
       0.031767443 0.07229999 0.12019035 0.059359208
000350 c6 be fc 3d ac 8c df 3d 30 9b ac bd d8 17 d0 3d
       0.12341075 0.10915503 -0.08428037 0.10160798
000360 ee 66 89 bd 30 24 58 3d 4c 1a 13 bd 44 e1 b3 bd
       -0.067090854 0.052768886 -0.03591375 -0.087832004
000370 f0 e1 90 bc a8 09 cc 3d 00 27 e1 bd 42 46 f8 bd
       -0.01768586 0.09962779 -0.10993767 -0.121227756
000380 c0 3f c3 bc 00 58 a0 b8 ce 6d 82 bd 86 a1 c4 3d
       -0.02383411 -7.645786e-05 -0.063686 0.09601121
000390 06 4b db 3d 0c e3 9f bd e4 0a 06 bd 92 35 ac bd
       0.10707669 -0.07806978 -0.03272523 -0.08408655
0003a0 90 e8 ec 3c 1a 73 d4 3d 60 7d bd 3d e0 1f de 3d
       0.028919488 0.103735164 0.09252429 0.108459234
0003b0 e4 bf b8 bd c8 de 8a bc e8 4d 97 bc 70 cb fb 3d
       -0.09020975 -0.016951934 -0.018469766 0.12294662
0003c0 c8 5c 63 3d 48 25 da 3d d2 db c7 bd 6c c3 66 bd
       0.055508405 0.10651642 -0.09758724 -0.056338713
0003d0 38 4e b7 bd 08 7a e8 bd c8 7d 68 3d 68 b1 73 bd
       -0.08950466 -0.113514006 0.05676058 -0.05949536
0003e0 90 6f f3 3d 40 e3 10 bc 40 d1 07 bb 80 6f 3a bb
       0.11886513 -0.008843243 -0.0020724088 -0.0028447807
0003f0 38 7d 3d bd a0 c9 0f 3c fa 68 df 3d 18 1b 96 bc
       -0.046261996 0.0087760985 0.109086946 -0.018323466

onnx::LSTM_393 f4 [2, 512]
000000 96 d6 3b bd f7 47 70 3d 8e c2 27 3c f3 90 ab ba
       -0.045858942 0.05866238 0.010239257 -0.0013089463
000010 bf 67 f1 3d 07 f2 0e 3d e1 f6 b3 3d 6d e1 13 3e
       0.11787366 0.034898784 0.08787323 0.14441462
000020 ca 44 49 3d 50 04 96 bd a5 b3 d6 3d 08 68 96 bd
       0.049137868 -0.07325041 0.10483483 -0.07344061
000030 69 ce 56 bd 02 d6 c2 3c 1e 46 84 bc c1 91 a6 bd
       -0.05244294 0.023783688 -0.016146716 -0.08133269
000040 5b 46 93 bd a0 fb 16 3c 20 67 09 3d b8 34 70 bd
       -0.071911536 0.0092152655 0.033545613 -0.058644027
000050 01 9c 2a bd c5 c8 12 3e c1 bd a9 bd 21 9f 9f 3d
       -0.041652683 0.143344 -0.08288146 0.07794023
000060 5c 5a fe 3c 84 02 98 bc 63 2e b9 bd 6c 7d b1 bd
       0.031048946 -0.018555887 -0.09042051 -0.086665004
000070 f9 5c ca 3d b3 93 3e 3c 34 33 66 3d b1 79 47 bd
       0.098810144 0.011631894 0.056201175 -0.04870004
000080 bf 28 b4 3d 85 a0 f3 3d 86 c8 04 3e ec 65 bc 3d
       0.08796834 0.11895851 0.12967119 0.091991276
000090 e2 a9 63 3d a5 01 8c 3c 34 9d 30 3d 0f 87 11 3e
       0.055581935 0.017090628 0.04311867 0.14211677
0000a0 df f1 b3 bd 72 94 11 3b 27 bc c3 3d dc f2 bd 3d
       -0.087863676 0.0022213724 0.095573716 0.092748374
0000b0 d8 6f 17 3d 6e d3 b8 3d 79 91 fd 3d 9a a0 e7 3d
       0.036971897 0.09024702 0.12381262 0.11309929
0000c0 16 1a f8 3d 44 0f 30 bd 25 7b 0b 3d ae e4 6b bd
       0.121143505 -0.04298331 0.034052987 -0.057591133
0000d0 52 a8 37 bd 77 1b 01 3d 0b 44 83 bc 73 c1 91 3d
       -0.044838257 0.031520333 -0.016023656 0.07116976
0000e0 b8 32 c1 3d 38 d5 16 3e 10 4f 0c 3e c9 93 2b bd
       0.09433502 0.14729774 0.13702035 -0.041888986
0000f0 16 5f 96 bc 9f c8 b8 3d 98 28 e9 bc da 77 e9 3d
       -0.018355887 0.090226404 -0.02846174 0.11399813
000100 ae fd 23 3e 12 94 ca 3c 03 15 18 3b d7 d1 0b bd
       0.1601474 0.024728809 0.0023205883 -0.034135666
000110 24 c8 54 3c 83 fe de 3d ec 98 28 3e a9 19 23 3e
       0.01298717 0.10888388 0.16464585 0.15927757
000120 44 9c 94 3d 30 eb 19 3e 61 e5 2b 3e 4b 25 b6 3c
       0.07256368 0.15031123 0.1678672 0.02223458
000130 13 d9 50 3e cd 9f 8e 3d b1 83 7e bd 5a 2f 57 bd
       0.20395307 0.06964073 -0.06213731 -0.052535392
000140 6f ac cf 3d 8b a3 dc 3d d2 c2 a2 3d d7 e5 7a bd
       0.10140311 0.10773381 0.07947315 -0.06125435
000150 59 e3 32 bd a4 ff 1c bd 49 df aa bc 1e 84 91 3d
       -0.043673847 -0.038329735 -0.020858424 0.071052775
000160 05 e6 94 3d b4 e7 df bc b7 90 1f 3e 00 e8 d5 3c
       0.07270435 -0.027332164 0.15582548 0.026111603
000170 57 d5 1a 3e 48 b2 3f bd 92 6c e1 3d c6 33 12 3e
       0.15120445 -0.04680088 0.11007036 0.14277562
000180 12 3d 07 bd 20 71 23 bd b5 a4 29 3e 54 6e ff 3d
       -0.033017226 -0.039902806 0.16566737 0.12472215
000190 3e 93 90 3c 10 d5 77 bd 19 b3 c0 bc d8 12 cb 3d
       0.017648336 -0.060505927 -0.0235229 0.099157035
0001a0 8d 7f a1 3c 91 71 31 3c 8b 10 3c 3e 97 cf 34 bc
       0.019714141 0.010830299 0.18365686 -0.011035821
0001b0 35 eb 1f 3e 42 5f d8 bc 3a 26 11 3e c9 a8 c1 3d
       0.15617068 -0.02641261 0.14174739 0.09456021
0001c0 1a 37 67 bd 02 a9 d6 3c 19 5d 2c 3e d2 06 1c 3d
       -0.056449033 0.026203636 0.16832389 0.03809244
0001d0 e1 13 1c 3e 1e d2 c3 3d e3 3f 34 3e 1d d4 d5 3d
       0.15241958 0.09561561 0.17602496 0.10440848
0001e0 e7 44 8d 3d 5e 72 0b 3e 80 c8 94 3d c6 f2 47 3e
       0.06897908 0.13617846 0.07264805 0.19526204
0001f0 f0 fa 38 3e 8c 9c a1 3d c5 c2 03 bd 82 b2 cb 3c
       0.18064475 0.07891187 -0.03216817 0.024865393
000200 dd b1 64 3d 10 6b cd bc 9d 63 94 3d a1 68 a2 bd
       0.055833686 -0.025075465 0.07245562 -0.07930113
000210 e5 d1 31 bd 06 1d 08 3e cb 16 cc ba be 33 a6 bd
       -0.04341306 0.13292322 -0.0015570758 -0.08115338
000220 7c f3 f6 ba 0b 46 d9 3c ec 03 be 3d c6 1a ae 3d
       -0.0018840875 0.026522657 0.09278092 0.085012004
000230 65 1a 14 3d f5 82 89 3c 35 6d f2 3d e6 f1 69 3b
       0.036157984 0.016786078 0.11837236 0.0035697161
000240 71 ff f2 3d b9 08 7f 3d f8 5f e1 3d 99 30 65 bc
       0.11865128 0.062264178 0.11004633 -0.013988637
000250 d9 ec f0 3d 8f 56 13 3d e4 73 c1 3d df fc 60 bc
       0.11763925 0.03597122 0.094459325 -0.013732164
000260 ff b1 93 bc 2f e6 d9 3c 58 67 de 3d 95 28 9e 3d
       -0.018029211 0.026599018 0.10859555 0.07722584
000270 7f 28 94 3d c7 66 00 bd 5c 41 ba 3d ae 65 ca 3d
       0.072342865 -0.031348016 0.090944976 0.09882675
000280 c8 3d 15 3e 4e 74 3d 3d ac 4a f8 3d c5 9d 24 3c
       0.14574349 0.046253495 0.121236175 0.010047381
000290 35 f5 a7 bd 31 41 c0 bd c1 2d ce 3c 56 6b bb bc
       -0.082010664 -0.09387434 0.025168302 -0.02287833
0002a0 33 1b 81 bc 14 9f 7b bd 9c 3c 52 3d e4 97 fc 3d
       -0.01576004 -0.061431006 0.051327333 0.12333658
0002b0 c0 f8 a5 3d a5 8f 86 3d 0e 21 0f bd 91 62 d3 3d
       0.08104086 0.06570367 -0.034943633 0.103215344
0002c0 dc e2 7c bd 58 08 3f 3d 1a 29 bc 3d 15 d1 97 3d
       -0.061739787 0.046638817 0.09187527 0.07412926
0002d0 b3 95 0a bc 0c a0 4a bd 2d ff bb bd 68 2a 03 3e
       -0.008458543 -0.04946904 -0.0917953 0.12809145
0002e0 4a f0 0c bc 79 91 d4 3d 20 16 84 3d 7c e7 02 3e
       -0.008602211 0.10379309 0.064495325 0.12783617
0002f0 e7 95 01 3e 9e cb 21 bd 6f d8 a1 3d e6 c9 51 bd
       0.1265484 -0.039500825 0.079026096 -0.051217936
000300 6c d8 7b 3c 33 d9 a3 3d 6d 81 fc 3d d8 01 af 3d
       0.015371423 0.08000412 0.123293735 0.085452735
000310 e2 35 e7 bd 03 0f dd 3d d0 1a 4f bd 26 8d bc 3d
       -0.11289574 0.10793879 -0.05056268 0.092066094
000320 23 a2 79 3c 43 b1 60 bd 45 b1 bc bd 11 a3 b6 bd
       0.01523641 -0.05485655 -0.09213499 -0.08917821
000330 ce 83 46 bd 3d 33 10 bd 42 2c ea 3d 5d 25 e7 bc
       -0.048465542 -0.035205115 0.11434223 -0.028216058
000340 3f 72 97 3a fb 6f 98 bc c4 b5 af 3d e2 47 33 3d
       0.0011554434 -0.018608084 0.08579591 0.043769725
000350 96 ab c8 bd 7b fe b4 bc f6 3c aa bd bc 7a 84 3d
       -0.097983524 -0.022094002 -0.083124086 0.06468722
000360 6c 2a 16 3e 43 c0 ba bd b9 68 20 bd ad fb 25 bc
       0.1466462 -0.09118702 -0.03916237 -0.010130805
000370 b9 6e 1e 3e 15 fc ac bd bf 94 2e 3d f5 28 aa bb
       0.15471925 -0.08446518 0.042622324 -0.0051928707
000380 1b 50 0d 3d ba cd 6c bd 73 4c 0c 3e 60 fd 83 3d
       0.034500223 -0.057813384 0.13701038 0.06444812
000390 34 3c 7d bc 68 c1 88 bd 4b e8 af 3d 05 a4 6e 3d
       -0.015456248 -0.06677514 0.08589228 0.05826189
0003a0 d9 c0 e3 bc 4e b4 24 3d cf 6e f9 3c ee 21 6c 3d
       -0.027801918 0.040211014 0.030448345 0.057649545
0003b0 d1 2e c2 3d 46 d8 e6 bd 48 c9 12 be 1f de 61 3d
       0.09481586 -0.1127172 -0.14334595 0.05514347
0003c0 fe fc 68 bd 56 fc 8f 3d cd 0e 8d bd 44 d4 0f 3e
       -0.056881897 0.07030551 -0.06887589 0.14045817
0003d0 1c 11 ac 3d b9 40 4a bd f7 0f 99 3d ce 8b 5c bd
       0.08401701 -0.04937813 0.07473748 -0.053844266
0003e0 6e 84 04 be b3 d1 08 3e 93 52 92 bd c7 ba b3 bb
       -0.12941143 0.13361244 -0.07144656 -0.005484912
0003f0 8a 90 8a bd 6c 8c a2 3d 45 c4 8e 3d 2d 36 b8 3d
       -0.0676585 0.079369396 0.06971029 0.08994708

onnx::LSTM_394 f4 [2, 256, 128]
000000 7a c2 f7 3d f0 79 f4 bc 30 59 b8 3d a6 90 ca bd
       0.1209764 -0.0298433 0.09001386 -0.09890871
000010 dc 83 ee bd 34 14 4e bd 1c bd 54 3d 97 69 7b bc
       -0.11646244 -0.050312236 0.05193816 -0.015344999
000020 40 06 dd 3b ae ad d0 3d 30 6e 30 bd 20 fe 7d bd
       0.00674513 0.10189377 -0.043073833 -0.06200993
000030 62 73 e3 bd d0 59 c0 bd f4 f0 88 3d 10 3d 37 3d
       -0.11105992 -0.093921304 0.06686583 0.044735968
000040 8e 19 a9 3d bf c6 70 3d 70 1f b6 3c b4 7c 3f 3d
       0.08256827 0.05878329 0.022231787 0.046749786
000050 70 25 d0 bc 80 7e ed 3b 67 7b 87 3d 31 36 7a 3d
       -0.025408477 0.007247746 0.06615334 0.061086837
000060 1c 15 ac 3d 90 90 92 bc 20 8f ad bc 6c 63 f4 bd
       0.08402464 -0.017891198 -0.021186411 -0.11933026
000070 be ec c2 3d 74 59 a1 3d 4a 4d e0 bd 48 b8 56 3d
       0.09517811 0.0787839 -0.10952242 0.052421838
000080 18 5c 83 3d 50 c2 a6 bc c0 8b 6d bc a0 47 2e 3c
       0.0641405 -0.020356327 -0.014498651 0.010637194
000090 f0 05 d2 bc c8 71 bf 3d 28 9a 95 bc e0 47 e7 bd
       -0.025637597 0.09347874 -0.018261984 -0.11293006
0000a0 7c 32 08 bd 46 c0 b2 bd a8 ff 52 3d c0 0c 86 3d
       -0.03325127 -0.087280795 0.051513344 0.065454006
0000b0 ca da c6 3d 08 30 9a 3c 20 b4 ba 3c 5c 8d ea 3d
       0.097096995 0.018821731 0.022790968 0.114527434
0000c0 84 b4 c8 bd 34 5a e1 3d 76 b5 d2 bd c4 eb 26 3d
       -0.098000556 0.11003533 -0.10288517 0.040752187
0000d0 8c 13 63 3d 20 1a 52 3d ba f5 ea 3d 06 19 16 3d
       0.055438563 0.051294446 0.1147265 0.036644958
0000e0 1c df 1e bd 40 00 76 bd 5c ef 9c bd 54 99 4b bd
       -0.038786992 -0.060058832 -0.07662842 -0.049706772
0000f0 44 08 fd 3d e2 0c 27 3d d6 d7 88 3d 04 26 6b bd
       0.12355092 0.04078377 0.066817924 -0.0574093
000100 64 59 de bd 5e a3 d0 3d c8 e1 fc 3d 82 bb c4 bd
       -0.10856894 0.1018741 0.12347752 -0.09606077
000110 da 75 d8 bd e0 69 ea 3d 50 81 24 bc 90 10 6e 3d
       -0.105693534 0.11445975 -0.010040596 0.058121264
000120 14 3c eb 3d eb 5c 39 bb ca 1c 81 bd a7 9b b5 bd
       0.11486068 -0.0028284143 -0.06304319 -0.08867579
000130 9e 61 ee 3d 00 11 1e bc 1a 17 ec 3d 97 ae 86 bd
       0.11639713 -0.009647608 0.11527844 -0.06576269
000140 d0 f5 53 bd c0 4d 98 bb 12 f1 ab bd 00 d4 57 3c
       -0.051748097 -0.0046479404 -0.0839559 0.013173103
000150 42 90 c5 3d 0e 8f 7e bd 2c f2 08 bd 78 9e e1 3d
       0.096466556 -0.062148146 -0.033434078 0.11016554
000160 70 b5 15 bc 64 ab 01 3d ff b7 9a 3d 3c 60 a6 bd
       -0.009137496 0.03165759 0.07554626 -0.08123824
000170 1e 8d a0 3d d0 70 81 bd 6e 62 ab 3d 38 51 cf 3c
       0.07839416 -0.063203454 0.08368383 0.025307283
000180 a0 ec 89 bd f8 d4 d2 3c fe cd bc bd 46 13 37 bc
       -0.06734586 0.025736317 -0.092189774 -0.011174029
000190 f8 b1 d9 3c a8 10 91 bd 2a 7c 34 bd c0 e1 7b 3b
       0.02657412 -0.07083255 -0.044063725 0.0038434118
0001a0 4a 72 c8 bd f6 84 eb bd 46 42 f1 bd 68 6c 41 bd
       -0.09787424 -0.1149997 -0.11780219 -0.047222525
0001b0 54 15 f2 3d ac bc fe bd 64 80 be bd 42 77 bc 3d
       0.11820474 -0.1243833 -0.09301832 0.09202434
0001c0 0a 98 d1 bd dc 34 58 3d ea fe 8f bd 8e bf 12 3e
       -0.10234077 0.052784786 -0.07031043 0.14330885
0001d0 42 7a da 3d 97 d1 a4 3d 90 57 53 3c 96 10 be 3d
       0.1066785 0.080477886 0.0128992945 0.09280507
0001e0 4c 26 bc 3d 10 c3 10 be 7e 71 0c 3d 40 b0 95 bb
       0.09186992 -0.1413691 0.034287922 -0.00456813
0001f0 88 2d 41 3d 0c 1e a5 bd 1c f2 96 3d b1 45 b2 bc
       0.047162563 -0.080623716 0.073703974 -0.021761747
000200 1c db 9e 3d 28 32 b8 3d c0 42 fa 3c cc a8 d5 3d
       0.077566355 0.089939415 0.030549407 0.10432586
000210 12 c1 e2 3d 80 7a ea bc 20 c5 9e bd f0 54 1e bd
       0.110719815 -0.028622866 -0.07752442 -0.03865522
000220 64 1e 03 3d 98 98 46 bd 12 95 a0 bd 3c 4d bc bd
       0.032011405 -0.04848537 -0.07840933 -0.09194419
000230 80 61 fa 3c 1b e9 ae 3d 3b cd 11 3e a0 6b 90 bd
       0.03056407 0.08540555 0.14238445 -0.07051778
000240 10 e8 45 bd 58 ad 66 bd f6 f8 d5 3d cc 17 4a 3d
       -0.048317015 -0.056317657 0.10447876 0.0493391
000250 56 68 6a 3c 48 70 ca bc 14 49 01 3e d6 f1 80 3c
       0.014307102 -0.024711743 0.12625533 0.015740316
000260 14 42 9b 3d 66 9c fa bd d5 91 0b be b0 b9 e0 bc
       0.07580963 -0.12236862 -0.1362985 -0.027432293
000270 14 63 a7 3d c8 17 dc 3c fa 0e c8 bd e0 75 41 3c
       0.081731945 0.026866809 -0.097684816 0.011807889
000280 75 24 ad 3d 30 01 63 3d 9c 8e 57 bd 22 62 86 bd
       0.08454219 0.055421054 -0.052626237 -0.06561686
000290 e0 47 9e 3d 2d 3e 07 3d d0 f9 56 3d 10 68 a4 bc
       0.07728553 0.03301828 0.052484334 -0.020069152
0002a0 20 0e 12 3d a9 66 a7 bd a8 98 15 3d 90 e8 b2 bc
       0.035658002 -0.08173878 0.036522537 -0.02183941
0002b0 dc d4 6b 3d 02 ce b4 bd 04 8e 76 bd 56 37 55 3c
       0.057576045 -0.08828355 -0.06019403 0.013013681
0002c0 a1 cf dc bd 40 6a 6a bb 9c af 0c bd 80 b8 c8 ba
       -0.107817896 -0.0035768896 -0.03434716 -0.0015313774
0002d0 f8 c0 60 bd f6 1e e2 bd 78 d6 6a bd 1e 53 30 3d
       -0.05487153 -0.110410616 -0.05733344 0.043048017
0002e0 08 fc df bc c8 32 4e 3d e0 9e 6f 3c c4 82 47 3d
       -0.027341858 0.050341398 0.014625281 0.048708692
0002f0 5c e3 00 bd 13 9c 00 3e ef 6c 32 bd 24 96 aa 3d
       -0.031466827 0.12559538 -0.04356092 0.08329418
000300 ee df af 3d 64 fe 49 bd 58 bf 37 3d c0 13 cc 3c
       0.08587633 -0.04931487 0.044860214 0.024911761
000310 54 27 b0 3d 10 d1 81 3d 2c ab e7 bd e0 5b 1f be
       0.08601251 0.06338704 -0.11311945 -0.15562391
000320 0c e7 93 bd 1d c2 ee 3c 9c 3c 69 bd 96 46 85 bc
       -0.07221803 0.029145295 -0.056942567 -0.01626901
000330 b0 ea 28 3c 70 d2 8f bc d4 04 fd bd 54 e0 5a bd
       0.01030986 -0.0175564 -0.123544365 -0.053436592
000340 f0 09 00 3c 6c 50 07 3d 88 f0 be bc d0 82 37 bc
       0.007814869 0.03303568 -0.023308054 -0.011200622
000350 44 35 17 bd 5d 13 0b 3d e4 af 9c bd c9 de 3e 3d
       -0.036916032 0.033954013 -0.07650736 0.046599183
000360 dc d8 ed 3d c4 42 fa 3d 50 8e 65 bd 3c 78 14 3d
       0.11613628 0.12219766 -0.056043923 0.036247477
000370 58 a6 de bc 22 b0 f6 3d 50 a6 83 bc 60 a2 05 3c
       -0.027178928 0.120453134 -0.016070515 0.008156389
000380 1a 9a 85 bd 98 fa 02 bd 40 ec e2 3b 29 9a 9a 3d
       -0.06523533 -0.031977266 0.006925136 0.07548935
000390 48 91 f7 3d be 42 e8 3d 2b 19 8f bd b6 47 89 bd
       0.12088257 0.11340855 -0.06987222 -0.06703131
0003a0 aa 31 90 bd 80 6d c0 bd f6 4b b3 3d c8 33 11 bd
       -0.07040723 -0.093958855 0.08754723 -0.035449773
0003b0 74 c5 d6 3d 58 20 6c bd e7 74 94 3d b0 d7 ee 3d
       0.1048688 -0.057648033 0.0724886 0.11662233
0003c0 80 ef c1 3d fe 04 96 bd c4 b8 e3 bd 6f 6a db 3d
       0.09469509 -0.07325171 -0.111192256 0.1071366
0003d0 00 ca d2 bb 00 bc 43 3d 4e b3 9c bd 20 6b f8 bc
       -0.0064327717 0.047786713 -0.07651387 -0.030324519
0003e0 3c ec f7 3d d2 e8 b7 bd d7 87 cc bb 90 36 ae 3c
       0.12105605 -0.08979954 -0.0062417793 0.021266252
0003f0 cc 25 fc bd b0 39 5d 3c 58 9d df bb 29 4f 7e 3d
       -0.12311897 0.013502523 -0.0068241768 0.06208721

onnx::LSTM_395 f4 [2, 256, 64]
000000 23 1a 7e 3d af 6f c0 3d d5 7b 08 bd a8 77 02 3e
       0.062036645 0.09396302 -0.03332122 0.12740958
000010 03 db bb 3d a9 ea d2 3d b2 9d 6b bd ad ec 9d 3d
       0.091726325 0.10298664 -0.057523437 0.07711158
000020 74 ee 93 3d c2 b8 7a b9 6e 42 99 bd 16 aa b9 bd
       0.07223216 -0.00023910686 -0.074833736 -0.090656444
000030 ff c5 2e 3d b4 0f 72 bd f9 35 e8 3b 40 20 71 3a
       0.042669293 -0.059097007 0.007086512 0.0009198226
000040 d9 42 a9 3c 5a 90 c3 bc 87 55 56 bd 63 23 3f 3c
       0.020661758 -0.023872543 -0.05232766 0.011666152
000050 00 23 99 3d d5 df d1 bd 74 0f bb 3d f4 59 18 be
       0.07477379 -0.10247771 0.09133807 -0.14878064
000060 ac 3f b0 bd 2a eb 83 bd f2 cb f8 bd ab ef 1b be
       -0.086058944 -0.06441338 -0.121482745 -0.15228145
000070 14 a0 9f bc 8f d7 28 3d c1 12 68 bc 9f 97 fc 3c
       -0.01948551 0.041221198 -0.0141646275 0.030834017
000080 fd f4 bc 3c d1 19 ce bd 9f 3f 94 3c 64 60 32 3b
       0.023066038 -0.10063518 0.018096743 0.0027218098
000090 d3 aa 04 3e 63 c6 6b bd 78 98 e0 bd 17 27 dc 3d
       0.1295579 -0.057562243 -0.10966581 0.10749643
0000a0 19 7a 9f bb 65 e0 4b bd 1b de 70 3c 17 06 99 bc
       -0.00486685 -0.049774546 0.014701392 -0.018679662
0000b0 6b 75 b6 bd 9d 2f bb 3d 98 76 d9 bd db b9 e7 bd
       -0.089091145 0.09139941 -0.10618323 -0.11314746
0000c0 7b 47 e6 3d cf c5 bc bd c8 5e ba bc cf 3d 0d bd
       0.112441026 -0.092174165 -0.022750273 -0.034482773
0000d0 46 d9 00 3e 9e 35 7f bd 29 a8 e2 bd 46 c6 aa 3d
       0.12582883 -0.062306993 -0.1106723 0.08338599
0000e0 05 cf 88 3d 95 4a 99 bd 3b db 09 3d b4 22 a7 3d
       0.06680111 -0.074849285 0.03365634 0.08160916
0000f0 d8 c4 76 bd f3 a2 44 bd ad d2 20 bd 8b 08 bc 3d
       -0.06024632 -0.048006963 -0.039263416 0.09181317
000100 8f 54 2c bd 97 ed 9a bc d3 af 0c 3d f4 bf 08 3e
       -0.04207283 -0.01891212 0.034347367 0.13354474
000110 58 20 b4 3d 8b 84 c1 bd a3 43 a8 3c 30 75 30 3c
       0.087952316 -0.09449109 0.020540064 0.010770127
000120 50 57 cb bd ac 9f d6 3d fe 63 9a bd 7c 30 bd 3d
       -0.09928763 0.10479674 -0.07538603 0.09237763
000130 f3 2d d9 3d 7f bc 14 3d 04 2b ba bb ef cb 19 ba
       0.10604467 0.036312576 -0.0056813974 -0.0005866875
000140 22 94 6e 3d 35 ba 37 3c 9a f5 38 bd 74 b6 fc bc
       0.05824674 0.011213829 -0.0451561 -0.03084872
000150 15 50 6e 3d 99 f8 49 bc 2d a3 31 bd 5f 96 b6 bd
       0.05818184 -0.012327337 -0.043368507 -0.089154
000160 cc e3 80 bd 79 c4 01 bc 72 26 cc 3d 48 1e a4 3d
       -0.06293449 -0.007920378 0.0996827 0.08013588
000170 bc 26 0a be 68 75 1a be 62 86 26 bd 74 61 6e bc
       -0.13491338 -0.1508385 -0.0406555 -0.014549602
000180 59 f5 94 3d f5 03 84 3d 9b 4b 95 bd 04 b4 11 3d
       0.07273359 0.06446067 -0.07289811 0.035572067
000190 38 6b b8 ba 83 09 49 bd cf 1f b2 3d ef 92 12 3e
       -0.001407004 -0.049081337 0.08697473 0.14313863
0001a0 03 5a c1 bd ef e2 99 3d ba a2 bf bc d4 c0 0c 3e
       -0.094409965 0.07513987 -0.023393024 0.13745433
0001b0 ce 5c b4 bd 0a cb e3 bd b6 e3 95 3b da 0d d7 bc
       -0.088067636 -0.11122711 0.0045742644 -0.026251722
0001c0 86 3f 16 bb 3b b9 27 3d 1b e1 58 3d 46 c5 bc ba
       -0.0022926047 0.040948134 0.052949052 -0.0014402054
0001d0 3b 08 a4 3d ac ba c7 bd 41 a0 80 3d 7d 8c dd 3c
       0.08009382 -0.09752402 0.06280566 0.02704453
0001e0 aa 99 5a bd 87 bb b7 3d fa 23 ee bd f7 ac cd 3d
       -0.0533692 0.08971315 -0.11627956 0.10042756
0001f0 8f a7 26 3d 89 fc 19 bd b0 b2 84 bd 06 3f 61 3d
       0.04068714 -0.037594352 -0.064793944 0.054991744
000200 98 73 fd 3b 9e 4c 9a 3d 78 01 86 bd 15 f4 7d bc
       0.007734727 0.07534145 -0.06543249 -0.015500088
000210 cd 70 b7 3b 9b 9f 46 3d f6 e7 c4 bd f7 b9 ab 3d
       0.0055981637 0.048492055 -0.096145555 0.08385079
000220 51 8c 1a bd 70 bb f8 bc ab 03 5d 3d 8a 70 7c 3d
       -0.037731472 -0.030362815 0.053958576 0.061630763
000230 28 fe 8e 3d c4 0c 4a bd a3 f4 91 bd 6f e3 a4 bd
       0.0698207 -0.04932858 -0.07126739 -0.08051192
000240 53 29 c0 bd 8c 9b e9 3d 66 6b 22 3d e5 9c eb 3d
       -0.09382882 0.11406621 0.039653204 0.11504535
000250 9e 25 1c 3d c8 6c 40 3d 91 42 30 3d 22 fd b7 bd
       0.038121812 0.046978742 0.043032233 -0.08983828
000260 44 7d 94 3c 96 d3 d8 3d 49 b2 a9 bd a3 52 8b 3d
       0.018126138 0.10587232 -0.08285958 0.06802871
000270 ac 44 23 bd ff b1 ac 3d 8d 17 0f 3e a1 3d 5c 3d
       -0.039860412 0.084323876 0.13973828 0.05376971
000280 76 0b 97 bc fa 3d cd bd 3a bc 87 bd 5a 3c c9 3d
       -0.018438082 -0.10021587 -0.06627698 0.09825964
000290 da 7a 15 3e f6 b9 e3 3c 42 13 9b bd a6 c9 81 3d
       0.14597645 0.027798634 -0.075720325 0.063372895
0002a0 82 e5 0a 3e 8e 5e 0c 3d 95 f0 15 3e 5f 2d d8 3d
       0.13564113 0.034269862 0.14642556 0.10555529
0002b0 40 87 bc 3c b7 de 62 3c 39 22 cd bd 3e 76 dd bd
       0.023013711 0.013847045 -0.10016293 -0.108135685
0002c0 8c a0 7b 3c 05 8b f7 3d 94 e3 b9 bd 07 71 97 3d
       0.015358102 0.12087063 -0.0907661 0.07394605
0002d0 ce 64 a3 3c 8b e3 41 bd 7e 7a 0f be e3 ca 92 bd
       0.019945528 -0.047336143 -0.14011571 -0.07167604
0002e0 8c d2 d8 bd a6 89 ae bd 56 df 7c 3d d9 da ec 3c
       -0.10587034 -0.08522348 0.061736427 0.028912948
0002f0 19 8e bf 3d f4 03 0b 3e 99 56 40 bd e2 00 01 3e
       0.09353275 0.13575727 -0.046957586 0.12597993
000300 fd ee 00 bd 38 83 06 3e ab ad 16 bd 95 30 04 3e
       -0.031477917 0.13135993 -0.036786716 0.12909158
000310 d0 27 db bd d1 8d f3 bd d9 c8 dd 3c 00 b0 1c 3d
       -0.10700953 -0.11892284 0.02707331 0.038253784
000320 df 99 23 3d 87 ee ba bd 3f 2c a6 3d 5f a3 a4 3a
       0.039941665 -0.09127527 0.08113908 0.0012560895
000330 e7 d5 56 3d 34 f3 76 3d 70 a2 03 3d 52 fe 35 3d
       0.052450087 0.06029053 0.032137334 0.044431992
000340 c7 cc 2d bd f2 9d c0 3d 5e 87 b2 bc f7 1f b5 3d
       -0.04243162 0.09405126 -0.021793064 0.088439874
000350 79 c2 b1 bd 41 71 8e bc 12 1e 8d bc 48 b3 95 3d
       -0.08679671 -0.017387988 -0.017226253 0.07309586
000360 b1 b5 9a 3c 67 57 a1 bd 6f 2a e2 3d c7 60 c8 bd
       0.018885465 -0.07877999 0.1104325 -0.09784084
000370 a4 67 c7 bd d8 48 eb bd f7 f2 7d 3c 5b b0 d5 3d
       -0.09736565 -0.11488503 0.015499822 0.10434028
000380 0f d6 bd bc 7e bc bf 3d 58 7f 54 bd 8c 8b d8 bd
       -0.02317336 0.09362124 -0.051879257 -0.105734915
000390 53 a3 0f 3e 62 b0 d2 bc d9 ae db 3d b7 eb e0 3c
       0.14027147 -0.025718872 0.10726709 0.027456148
0003a0 c9 44 27 3d 43 33 b0 3d 51 4c 6e 3d ce f9 a5 b9
       0.040837083 0.086035274 0.05817825 -0.0003165737
0003b0 cb ae ec bd c2 b2 aa bd d4 83 be 3c dd 68 9c bd
       -0.115567766 -0.083348766 0.02325622 -0.076371886
0003c0 cc 52 6a bd 31 9e ea 3d 53 2c 7f bd ca 3e 02 3e
       -0.057207868 0.11455954 -0.06229813 0.12719265
0003d0 61 af 30 3d f4 8e c1 3d 00 48 22 bc fb a3 a0 bd
       0.043136004 0.09451094 -0.009904861 -0.07843777
0003e0 91 2a ca bd 91 b3 99 3d 81 5a b3 bc 0b 7c ad 3c
       -0.098714 0.07504953 -0.021893742 0.021177312
0003f0 66 dd df 3d fe 65 68 3d ad 2a 15 3e 76 62 84 3a
       0.109309 0.056737892 0.14567061 0.0010100144
