project/onnx_models/GRU/Apple.onnx (onnx, 171941 bytes, 9 tensors)

gru.weight_ih_l0 f4 [192, 5]
000000 62 25 fc bd 50 0d d9 3d 9e 2f ff bd 20 af 96 bb
       -0.12311818 0.10598242 -0.12460254 -0.0045985132
000010 ac 7e d7 3d b0 ef a9 bd 40 89 19 bd f8 7f bb bd
       0.105222076 -0.0829767 -0.037484407 -0.091552675
000020 c2 b7 cb 3d 78 ba 9e 3c 54 6a a2 bd 60 61 5f 3d
       0.099471584 0.019376025 -0.07930437 0.054536223
000030 ec dd f6 3d 38 aa c0 bd 46 7d e4 3d e8 6f 36 bd
       0.12054047 -0.09407467 0.111567065 -0.044540316
000040 c0 78 41 bd 00 72 8f 3a 24 a4 14 bd aa e3 cc 3d
       -0.047234297 0.0010944009 -0.03628935 0.10004361
000050 ae 55 ca bd c8 90 b5 3d cc ac 63 bd 10 eb 25 3d
       -0.09879623 0.088655055 -0.055584714 0.040507376
000060 ac 4f d4 bd 3e 00 ee bd 50 6a f4 bd 96 67 83 bd
       -0.10366759 -0.1162114 -0.1193434 -0.06416242
000070 48 8a 35 bd ee d0 b0 3d 68 bb ad bd 76 b2 89 bd
       -0.04432133 0.086336 -0.084830105 -0.06723492
000080 fe 36 d4 3d cc 1c 06 bd 40 f5 12 bd e0 23 e1 3b
       0.103620514 -0.032742307 -0.03587842 0.0068707317
000090 62 3a 8b 3d fa 38 9f bd b0 0a b8 bd c6 4f a1 3d
       0.06798245 -0.07774539 -0.089864135 0.07876544
0000a0 d2 7c c3 3d 4c 72 56 bd 00 1f 13 3d 36 f9 d4 bd
       0.09545292 -0.052355096 0.035918236 -0.10399096
0000b0 16 5b e2 bd 14 df ef bd 00 48 97 ba 60 b6 8e 3d
       -0.110525295 -0.11712471 -0.0011541843 0.06968379
0000c0 b0 00 24 3d d6 26 f5 bd e2 9f fd 3d 20 e0 e8 bc
       0.04003972 -0.11970298 0.12384011 -0.028427184
0000d0 c2 39 a6 bd c0 99 6a bc 46 be 97 3d 3c 38 6d bd
       -0.08116485 -0.014318883 0.07409339 -0.057914957
0000e0 c0 69 40 3d 46 d3 97 bd 80 65 a1 3b 78 ec 95 3d
       0.04697585 -0.07413344 0.00492543 0.073204935
0000f0 0c c8 44 3d ba 6c b0 3d 20 bf bb bd 3c 1d 9f 3d
       0.048042342 0.08614488 -0.091673136 0.07769248
000100 a0 f5 42 bd 74 de 96 bd 52 19 f5 3d 66 53 ca bd
       -0.047597528 -0.07366648 0.1196772 -0.09879188
000110 46 d2 88 bd bc d8 43 bd e0 18 73 3d 90 71 b8 bd
       -0.066807315 -0.047814116 0.059349895 -0.09006035
000120 0c 52 a2 bd 46 bc d0 bd 08 eb 12 3d 28 a3 9d bd
       -0.079258054 -0.1019216 0.035868675 -0.07697135
000130 58 5a a6 3c e0 94 22 bd a8 6d 89 bc 40 6e e5 3c
       0.020306751 -0.03969276 -0.016775921 0.028006673
000140 90 4e 5c bc d0 2d 69 3d 32 15 c2 bd 00 cb e4 3a
       -0.013446465 0.056928456 -0.09476699 0.0017455518
000150 70 b0 86 bc 58 82 b5 3d c0 d6 ec bb b4 36 75 bd
       -0.016441554 0.08862752 -0.0072277486 -0.059866622
000160 d2 a7 d1 3d 1c 2f 7c bd c2 33 96 bd 6e 04 cc 3d
       0.10237087 -0.061568365 -0.07334091 0.099617824
000170 6a d6 d4 bd de 2e 9e 3d c0 be 76 3d 40 76 80 3b
       -0.10392459 0.07723783 0.060240507 0.0039203465
000180 d8 bd ef bc 54 a6 5c 3d d0 c3 c9 3c e2 5a f4 bd
       -0.02926533 0.05386956 0.024629503 -0.11931397
000190 92 79 f7 3d 0e 2f a6 bd f4 d8 31 bd 6a 91 8f bd
       0.120837346 -0.08114444 -0.043419793 -0.070101574
0001a0 e6 16 89 bd d6 4f 89 bd 10 f3 64 bc fc f8 ff 3d
       -0.06693821 -0.067046806 -0.013973966 0.12498662
0001b0 48 eb 84 bd a4 7d 81 3d 5e 56 ca 3d f6 6d ba bd
       -0.06490189 0.06322792 0.098797545 -0.09103005
0001c0 44 5b 04 3d d4 3b 1a 3d 1e d1 86 3d 7a 4b ee bd
       0.0323136 0.037654713 0.06582855 -0.1163549
0001d0 e4 3e d1 3d 58 9c db bd 36 e3 ab 3d 5e c8 b8 bd
       0.102170736 -0.107231796 0.083929464 -0.09022592
0001e0 90 b7 a8 bd da ae eb 3d ea 26 bc 3d 50 1a 5f 3d
       -0.08238137 0.1150796 0.0918711 0.054468453
0001f0 50 fa 26 bc 08 87 b9 3d 94 44 b3 bd 00 41 95 bb
       -0.010191515 0.09058958 -0.087533146 -0.0045548677
000200 42 1b d0 bd 1a 3b ca 3d b8 6f 55 3d 8a ac f2 3d
       -0.10161449 0.09874554 0.052108496 0.118493155
000210 7e 97 a3 3d ba 9f f8 bd fa ef 81 bd 26 01 99 bd
       0.07987879 -0.121398404 -0.063446 -0.07470922
000220 68 4e 81 bd ac 84 a9 3d 64 0c a2 3d f0 fe d8 3c
       -0.06313783 0.08277258 0.079125196 0.026488751
000230 7a 8a e1 3d b0 50 0d 3d 00 1a a5 39 78 1a 31 3d
       0.110127404 0.034500778 0.00031490624 0.043238133
000240 88 1d 98 3d 80 9f d3 3b d0 86 73 3d 00 fe 22 bc
       0.07427508 0.006458223 0.05945474 -0.009948254
000250 00 9b d1 3d b8 47 10 3d a8 6e a0 bd 88 e4 98 bc
       0.10234642 0.035224646 -0.07833606 -0.01866366
000260 68 72 d8 3d 60 e3 11 3d cc a3 91 3d 30 c8 9c bc
       0.10568696 0.035617232 0.0711132 -0.019138426
000270 20 15 86 bd cc 7e 66 3d 00 41 f5 ba 0e 7d a5 bd
       -0.06546998 0.056273267 -0.0018711388 -0.08080493
000280 74 2f 4d 3d 30 24 f9 3c 58 96 72 3d 26 0d f3 3d
       0.050094083 0.030412763 0.05922541 0.11867742
000290 ba 95 8f 3d 4c 5a 0e bd 0e a7 ca 3d 1e 64 d5 bd
       0.0701098 -0.034754083 0.098951444 -0.104194865
0002a0 b8 23 61 3d 80 0b ff 3d e4 16 38 3d fe 99 c6 bd
       0.054965705 0.12453365 0.044943705 -0.096973404
0002b0 00 9d 07 3c 84 f1 13 3d e2 d8 bf 3d 60 6e f6 bc
       0.008277178 0.036119 0.09367539 -0.030081928
0002c0 b8 5b 15 3d aa 10 a4 bd 60 10 66 bd 1c f6 d8 bd
       0.036464423 -0.08010991 -0.05616796 -0.10593817
0002d0 30 14 a5 bd 70 a2 ef 3d be 54 c8 bd de 79 82 bd
       -0.08060491 0.11700904 -0.09781788 -0.063709006
0002e0 08 10 f4 bd a4 52 d6 bd 82 43 d1 3d b0 26 83 3d
       -0.1191712 -0.10464981 0.10217954 0.064038634
0002f0 54 3c e7 3d 30 b3 42 bc 56 86 e6 3d 40 16 97 bb
       0.112908036 -0.011883542 0.11256091 -0.0046108067
000300 80 fc 41 3d a2 ff 93 bd fc f9 ed bd b0 a8 d2 bd
       0.047359943 -0.072264925 -0.11619946 -0.10286081
000310 72 e6 e6 bd 9c ad 84 3d 44 37 72 bd fa f3 ab bd
       -0.11274423 0.06478426 -0.059134737 -0.08396144
000320 de d8 b4 bd 24 d3 2f 3d f0 9b 7d 3d c4 e7 ac bd
       -0.08830427 0.04292597 0.06191629 -0.08442643
000330 b4 de 18 bd 28 87 b5 3c 1c 75 ac bd b8 d6 f8 bd
       -0.03732176 0.022159174 -0.08420774 -0.12150329
000340 a0 5d cf 3d ac e4 bc bd 7c e0 9a 3d 32 90 ca bd
       0.101252794 -0.09223303 0.07562348 -0.09890784
000350 38 ec fc bd dc 94 51 bd 08 bd 38 bd fa e1 fc 3d
       -0.12349743 -0.051167354 -0.04510215 0.12347789
000360 d8 83 60 bd 68 74 cf 3c 04 4d 6a 3d d0 e2 17 bd
       -0.054813236 0.025324062 0.057202354 -0.03708154
000370 f0 b4 14 bd e8 ca 00 3d ce 0b f7 3d 32 ae b2 3d
       -0.036305368 0.031443506 0.120627984 0.08724631
000380 d0 c2 11 bd be 0c 84 3d 92 0c c3 3d a8 f0 cb bc
       -0.03558618 0.06447743 0.09523882 -0.024895027
000390 80 15 cc ba de e4 fd bd a6 da d6 bd 9a 57 a3 3d
       -0.0015570372 -0.123971686 -0.10490923 0.07975693
0003a0 2a e2 8a bd 70 4d e2 3d 92 98 86 bd de 6b cb 3d
       -0.067814186 0.11049926 -0.06572069 0.099326834
0003b0 26 9e 96 3d a4 8a 4c bd e4 82 6d bd 20 ce 8c 3b
       0.07354383 -0.049936906 -0.057986155 0.004297033
0003c0 fe b7 db bd 28 f4 97 3d 80 59 fe ba 76 73 dc 3d
       -0.10728453 0.07419616 -0.0019405335 0.1076421
0003d0 80 7b a3 3d 3c 81 90 bd 30 3c 93 bc 0a 77 c8 3d
       0.0798254 -0.070558995 -0.017973036 0.0978833
0003e0 f8 29 90 bc e4 e7 18 3d 20 5d f1 bc 70 d0 44 bd
       -0.017598137 0.037330523 -0.02946335 -0.048050344
0003f0 28 63 b8 3c c4 b1 b9 3d 80 10 2b 3c e0 7d 9f bb
       0.022508219 0.09067109 0.010440946 -0.0048673004

gru.weight_hh_l0 f4 [192, 64]
000000 d6 6f d0 bd 50 51 10 bd 00 e2 de bb 20 a1 d7 bb
       -0.10177581 -0.035233796 -0.0068018436 -0.006580487
000010 4c c1 16 bd f8 e0 9d 3c 9c 37 76 bd 60 df db 3b
       -0.036805436 0.019272313 -0.060111627 0.006709978
000020 38 b8 e1 3c d8 e4 8d 3d f6 a2 90 bd 88 d4 55 bd
       0.027553663 0.06928414 -0.07062332 -0.05220464
000030 60 b0 fa 3c 10 2a 07 3c f4 6b 9c bd 58 eb 9f 3c
       0.03060168 0.008249775 -0.07637778 0.0195214
000040 b8 22 f3 3c a2 33 f3 3d 6c a8 2c 3d e0 23 a3 3c
       0.029679641 0.118750826 0.042152807 0.019914567
000050 80 3e 3c 3d b8 8a bb 3c 22 aa d0 bd c0 37 4f 3c
       0.045958042 0.022893295 -0.101887 0.012647569
000060 88 2a 40 bd ec a4 04 3d 4a a3 dd bd 00 55 34 bd
       -0.04691556 0.032383844 -0.108221605 -0.044026375
000070 e8 d6 2e bd dc fc 42 3d 30 a7 21 bc a0 80 f4 bd
       -0.04268542 0.047604427 -0.009866521 -0.11938596
000080 30 79 31 3d 66 e2 ff 3d ce 5e fb 3d 08 29 92 bd
       0.043328464 0.12494354 0.12273942 -0.07136732
000090 10 8b 73 3c 64 cb 0b 3d 6e 28 be 3d b8 ba 45 bd
       0.014864698 0.034129515 0.09285055 -0.048273772
0000a0 40 01 06 bc 18 94 79 bd a0 ab c8 3b 48 8b 8e bd
       -0.008179009 -0.06093225 0.006123975 -0.069601595
0000b0 30 51 55 3d 00 83 94 bb 22 f8 e2 bd 24 a1 a3 3d
       0.05207938 -0.004532218 -0.11082484 0.079897195
0000c0 78 b5 9b 3d 14 f6 b1 3d 28 c9 9d bd d6 11 ad 3d
       0.07602972 0.08689514 -0.07704383 0.084506676
0000d0 7a f9 89 3d 10 7f 36 bd d2 0e bb 3d b2 be d8 bd
       0.06737037 -0.04455477 0.09133686 -0.10583247
0000e0 6c 07 3e bd e8 84 32 bd a4 3c c0 3d f0 6c 18 bc
       -0.046393797 -0.04358378 0.09386566 -0.0093033165
0000f0 b8 24 92 bc 0e b3 c1 bd 90 af 86 bd f4 3e ee bd
       -0.017839774 -0.0945798 -0.06576455 -0.11633101
000100 ae f7 89 bd bc 52 c4 bd 62 2c 8d 3d 08 1c c6 3d
       -0.06736694 -0.09586093 0.06893231 0.09673315
000110 b4 fb 4e bd 00 61 00 3a 1c eb 05 bd 40 0d 19 3b
       -0.05053301 0.00048972666 -0.03269492 0.0023353845
000120 84 56 0d bd 82 68 f7 bd f0 1d 0f bc d2 4e 9c 3d
       -0.034506336 -0.1208048 -0.008735165 0.07632221
000130 52 2a d1 3d 94 b6 be bd 70 bd 14 3d 18 1f 8b 3d
       0.1021315 -0.09312168 0.036313474 0.0679304
000140 96 8c dd bd b8 8e 41 3d 34 80 6c bd 68 24 0e bd
       -0.1081783 0.047255248 -0.05773945 -0.03470269
000150 e8 9f c2 bd fe c9 9f 3d 80 c4 52 3d e4 97 a2 bd
       -0.09503156 0.07802199 0.05145693 -0.07939127
000160 0c 9a aa 3d 8c 94 10 bd 90 f0 5e bd 08 60 48 3d
       0.08330163 -0.035297915 -0.054428637 0.048919708
000170 50 57 d0 bc d0 ea 69 bc 60 ae 23 bd 16 a8 9a bd
       -0.025432259 -0.014277175 -0.03996122 -0.07551591
000180 f8 0e 4f 3d 28 5e 94 bd 5e f2 96 3d ba 17 d6 bd
       0.050551385 -0.072445214 0.073704466 -0.10453744
000190 f0 36 c1 3c ec 46 5b bd b2 85 ef bd 06 26 eb 3d
       0.023585767 -0.053534433 -0.11695422 0.11481862
0001a0 ac a1 d8 bd f8 56 84 bc 14 20 14 3d 60 8b a7 3b
       -0.105777115 -0.016154751 0.036163405 0.0051130503
0001b0 6a a2 93 bd 6c 25 60 bd e8 73 ee 3c 00 16 12 3d
       -0.072087124 -0.05472319 0.029108003 0.035665512
0001c0 70 4b 0e 3c b6 87 cd bd a0 7d 0b 3d 3e ff e8 3d
       0.008684978 -0.100356504 0.034055352 0.113768086
0001d0 88 f0 cb bd 6e 97 f2 3d 5c 2e 88 3d 92 21 f8 3d
       -0.09957987 0.11845289 0.06649467 0.12115778
0001e0 c8 f3 f2 3d 04 9c a8 3d 5e ac ba 3d 6a bd f3 bd
       0.11862904 0.082328826 0.09114908 -0.11901362
0001f0 3c df b2 3d 94 9d ff 3d 98 64 aa bc a0 31 fb bb
       0.08733985 0.124812275 -0.02079992 -0.007665828
000200 24 65 2b bd 26 a0 f9 3d 60 43 1c bc d6 1e b9 3d
       -0.041844502 0.12188749 -0.009537548 0.090390846
000210 54 18 6a 3d 4e 2f 8b bd 68 a3 e6 bd 50 d6 01 3d
       0.057152107 -0.06796132 -0.11261636 0.031698525
000220 f2 f9 d4 3d 50 41 63 3d 44 3b 09 3d b0 ce ed bd
       0.10399236 0.05548221 0.033503786 -0.11611688
000230 34 b3 57 3d ce 93 f3 3d 20 02 ba bb 0c 6f a7 3d
       0.052661136 0.11893426 -0.005676523 0.081754774
000240 e0 63 95 3c 30 d7 c8 bd 30 1c d9 bc 80 72 cc ba
       0.0182361 -0.09806669 -0.026502699 -0.0015598089
000250 00 8a 38 bc 80 c2 6e bd d8 b3 f4 bc 10 60 4e 3d
       -0.0112633705 -0.05829096 -0.029870912 0.05038458
000260 3c 0b db bd b4 d6 1b bd 54 14 a9 bd c0 e0 30 3b
       -0.10695502 -0.038046554 -0.082558304 0.002698943
000270 8c db 2a 3d b2 51 b7 bd d6 29 bc 3d 60 eb a4 3b
       0.041713282 -0.08951129 0.09187667 0.0050329417
000280 10 f8 6f bc 5e ba c6 3d c0 86 f1 3b c0 57 3f 3c
       -0.014646545 0.097035155 0.0073708 0.011678636
000290 1e b5 ff bd 84 df ad 3d 6c 2c 16 bd 88 15 f6 bc
       -0.12485717 0.08489898 -0.036663458 -0.030039564
0002a0 6c 8b 22 3d c2 f8 dc bd 74 2d 2f bd 44 d4 1d bd
       0.039683744 -0.10789634 -0.042767957 -0.03853251
0002b0 00 1c a9 3c 94 8d ce bd 94 0c d4 3d e0 5f 55 3d
       0.020643234 -0.10085598 0.103539616 0.052093387
0002c0 88 5f a7 bd d4 5c d0 3d 00 72 b7 3b 78 2e cd 3c
       -0.08172518 0.101739556 0.0055983067 0.025046572
0002d0 b8 f9 b9 bd d0 40 cb bc 26 5c c7 bd f4 6c 90 bd
       -0.09080833 -0.024811178 -0.09734373 -0.07052031
0002e0 04 81 c6 bd e4 4c c4 bd 52 39 87 bd 20 f1 dd bb
       -0.096925765 -0.09584978 -0.0660273 -0.006773129
0002f0 b6 91 d5 bd c4 04 5d 3d 80 8b 98 3d f0 9a a5 3d
       -0.10428183 0.053959623 0.074484825 0.080861926
000300 76 da 8e 3d 90 e7 4e 3d 3c be e2 3d f0 79 da bd
       0.06975262 0.050513804 0.110714406 -0.10667789
000310 a0 d2 62 3d 76 18 cc bd 98 eb 5b bd 48 99 39 3d
       0.05537665 -0.09965603 -0.053691477 0.045312196
000320 bc 59 81 bd 50 42 51 bc ae a7 e8 3d 1e 61 fd 3d
       -0.063159436 -0.012772158 0.11360107 0.12372039
000330 00 d8 cc bc dc e0 90 bd 3c 85 f0 bd fc d3 bb 3d
       -0.02500534 -0.070741385 -0.117441624 0.09171292
000340 c8 c0 a3 3c e8 a0 20 3d 00 30 9e 38 52 59 ca bd
       0.019989386 0.039215952 7.542968e-05 -0.09880318
000350 78 45 57 bd 28 34 90 bc a0 a1 4b 3c d4 41 6a 3d
       -0.052556485 -0.017602995 0.012428671 0.057191685
000360 8c c4 db bd 0c 1d b4 bd 10 27 86 3d b0 99 e4 bd
       -0.10730848 -0.08794603 0.06550419 -0.11162126
000370 08 b9 06 bd 40 f1 66 bc 14 19 28 3d b0 f8 04 bd
       -0.032891303 -0.014095604 0.04103954 -0.03246373
000380 58 4c d4 bd 5e f9 96 3d 50 ee 86 bc a8 f6 39 3d
       -0.10366124 0.07371782 -0.016471058 0.045401245
000390 54 a9 7e 3d 40 18 bc 3b 40 1b 64 bd 38 8a b1 bd
       0.062173203 0.0057401955 -0.05569005 -0.08668941
0003a0 ae 52 de bd 48 52 aa bd 14 7a ef 3d 8e c8 e1 3d
       -0.10855614 -0.08316475 0.116932064 0.11024581
0003b0 84 91 63 bd e8 a7 23 bd 18 1f 95 bc f0 88 fe 3c
       -0.055558696 -0.03995505 -0.018203303 0.031071156
0003c0 90 1a 72 3d a0 8e a5 3b ea 23 a3 bd e0 b5 5f bc
       0.059107363 0.0050524026 -0.079658344 -0.013654202
0003d0 3c df c9 3d c6 b6 a5 bd dc 8f 88 bd f6 46 8c bd
       0.09857032 -0.08091502 -0.06668064 -0.06849472
0003e0 f0 1d bc 3d 70 e3 fc 3d 76 63 f0 bd bc c2 a8 bd
       0.091853976 0.12348068 -0.11737721 -0.08240268
0003f0 16 b2 dd 3d c4 09 db 3d d8 0f dd 3c 16 a4 9b 3d
       0.10824983 0.10695222 0.026985094 0.07599656

gru.bias_ih_l0 f4 [192]
000000 80 ff 48 bb 94 63 c3 3d 24 26 8d 3d b6 5a a7 bd
       -0.0030669868 0.095404774 0.0689204 -0.081715986
000010 30 c2 0b 3c 28 f4 57 bd ac 8d 12 bd 0a a4 95 bd
       0.008530185 -0.05272308 -0.03577964 -0.073066786
000020 72 0d e0 bd a4 f5 c9 bd e4 2e e8 bd 00 a4 95 bc
       -0.109400645 -0.09861305 -0.11337069 -0.018266678
000030 58 fe 91 bd cc 80 80 3d f0 c7 13 3d 3e 4f d9 3d
       -0.0712859 0.06274566 0.036079347 0.106108174
000040 80 cd 6d 3d 40 b1 d2 bb a4 24 a9 bd 8a 92 d1 3d
       0.05805731 -0.0064298213 -0.08258942 0.10233028
000050 90 63 56 3d ea 5f c8 bd 2c 13 d0 bd f8 34 9c bc
       0.052341044 -0.09783919 -0.10159907 -0.019068226
000060 24 4c 8f 3d 4e b3 b6 bd 88 80 89 bc 58 1e 05 3d
       0.069969445 -0.089209184 -0.016784921 0.03249964
000070 54 6a 2c 3d 50 cc dd 3d 18 55 b6 bc 10 9e 15 3c
       0.04209359 0.10829985 -0.022257373 0.009131923
000080 64 ec 69 bd 20 c6 ea 3c b8 27 bd 3c 70 94 5b 3d
       -0.057110205 0.028658926 0.023090228 0.053608358
000090 7e 61 e3 3d 4a 02 8c 3d d4 7b bf 3d 80 ce a9 3c
       0.111025795 0.06836374 0.0934979 0.02072835
0000a0 84 73 b7 3d 68 a2 45 3d bc db 4a 3d 6a 5d 97 3d
       0.0895758 0.048250586 0.04952596 0.07390864
0000b0 fa 18 a8 3d 54 12 02 3d 52 3c 8a bd 34 ad ef 3d
       0.08207889 0.03175576 -0.067497864 0.11702958
0000c0 30 ec 59 bd 82 fb c5 3d 50 68 0c 3c 00 89 8a bd
       -0.05320376 0.09667112 0.008569792 -0.06764412
0000d0 a2 87 ca 3d 80 80 ac 3d 48 5b ce 3d a0 15 e5 3d
       0.09889151 0.08422947 0.10076004 0.11185765
0000e0 e8 da b3 3d b8 37 63 bd 10 e4 89 bd 46 47 f1 bd
       0.087819874 -0.05547306 -0.067329526 -0.117811725
0000f0 dc 91 8d bd a8 34 c0 bd c4 83 74 3d d0 a5 25 3c
       -0.06912586 -0.093850434 0.059695974 0.010110334
000100 d2 a8 8e 3d a0 62 3f bd 64 af 78 bd 70 6d 13 bc
       0.06965794 -0.046724916 -0.06071414 -0.00899826
000110 90 de 97 3c b0 13 83 bd f0 e9 b3 3c 60 69 cd bd
       0.018538743 -0.064002395 0.021962136 -0.10029864
000120 80 a8 f7 bc fc 43 03 3d 5a b0 a2 3d 48 c1 9a bd
       -0.030231714 0.032047257 0.07943793 -0.07556397
000130 30 5b b8 bc ba 21 cf 3d 0a 4c b9 bd 24 48 02 3d
       -0.02250442 0.10113855 -0.090477064 0.03180708
000140 20 de 16 3d f0 b3 dd 3c 38 c6 ac bc b2 5b c2 3d
       0.03683293 0.02706334 -0.021090612 0.09490146
000150 f0 d4 96 bc 40 cf 82 bd d2 c2 d3 bd ac 05 01 bd
       -0.018412083 -0.06387186 -0.103398934 -0.03149955
000160 10 bb 76 3d 4c 95 23 bd c0 e9 60 bb 60 cb 04 3c
       0.06023699 -0.039937302 -0.0034319013 0.008105129
000170 56 f0 d4 3d 40 9e 74 3d ca 71 ae bd 00 70 58 bb
       0.10397403 0.05972123 -0.08517797 -0.0033025742
000180 f8 95 91 bc 5e 2b 96 bd 70 6d 63 3c 5c 86 44 bd
       -0.017771706 -0.073324904 0.013881072 -0.047979698
000190 88 25 8d 3d ce 87 d8 3d 6c bf 87 bd f0 c6 58 3d
       0.06891924 0.10572778 -0.06628308 0.052924097
0001a0 0c 3f cb bd 2a 1b dd 3d a0 96 35 3c 60 aa f3 bc
       -0.099241346 0.10796197 0.011083275 -0.029744327
0001b0 b0 21 bf 3c 12 12 99 3d 80 7f 7a 3c 74 92 be bd
       0.023331493 0.0747415 0.015289187 -0.093052775
0001c0 b0 34 46 3c b4 28 e9 3d 92 71 ef 3d b8 ef c2 3c
       0.012097523 0.11384717 0.11691584 0.023795947
0001d0 6e 65 e8 3d 60 12 e7 3d f0 16 34 bd 00 99 d8 3a
       0.11347471 0.11282802 -0.043967187 0.001652509
0001e0 00 c7 1a bc 3c 0e e2 bd c0 c1 79 bc 3e bc 8a bd
       -0.009446859 -0.11037871 -0.0152439475 -0.067741856
0001f0 4a ef 87 3d 12 cc cd 3d 78 eb a2 3c 04 17 e2 bd
       0.06637438 0.10048689 0.01988767 -0.11039546
000200 a4 cd 55 bd 8e a3 f6 bd 60 9f 8d 3b e8 c0 ab bd
       -0.052198067 -0.12042914 0.0043219775 -0.08386403
000210 56 88 b6 3d 62 0f ac bd 4c df 62 bd e4 11 36 bd
       0.08912723 -0.084013715 -0.055388734 -0.044450656
000220 10 49 eb 3c 90 11 5c 3d f8 2e 52 bd f0 13 48 3c
       0.028721362 0.053727686 -0.051314324 0.012211785
000230 76 33 af bd 6a c8 d8 3d f0 fe 59 bd 26 3a b3 bd
       -0.08554737 0.10585101 -0.053221643 -0.08751325
000240 1e 8b f4 3d c4 b3 38 bd 0c c2 68 bd 30 fe 03 3d
       0.11940597 -0.045093313 -0.056825683 0.032224834
000250 8a d0 85 bd f2 f4 ca bd 12 89 94 3d 50 5a d5 3d
       -0.06533916 -0.09910001 0.072527066 0.10417616
000260 74 ef ca bd 9c 2f 20 bd 70 24 25 bc 46 c4 f3 bd
       -0.09908953 -0.039107904 -0.010079488 -0.119026706
000270 e8 a6 a1 3c 40 8c 92 3b f0 fe 99 bd 20 4d b4 bb
       0.019732907 0.0044722855 -0.075193286 -0.005502358
000280 e2 0b be bd a0 94 8d 3c 88 f1 29 3d e2 6f d2 bd
       -0.0927961 0.017282784 0.041490108 -0.10275246
000290 b2 1d c8 bd 56 80 c5 bd 4c b8 6a bd 10 62 66 bc
       -0.09771289 -0.09643619 -0.057304665 -0.014061466
0002a0 9a 8b e3 3d 38 22 07 3d 64 4b dc 3d 08 f8 99 3c
       0.11110611 0.032991618 0.10756567 0.018795028
0002b0 44 ed 1e bd 6c af 1f 3d e2 7c b4 3d c4 7c f5 bd
       -0.038800493 0.038985655 0.08812882 -0.11986688
0002c0 80 62 0b bc 2c 3b fc bd cc 2d a6 3d a0 19 8a bb
       -0.008507371 -0.12315974 0.08114204 -0.0042144805
0002d0 ae 4d 9e bd 70 a6 98 3d 24 4f bd bd e0 84 fc bc
       -0.0772966 0.074536204 -0.092436105 -0.030825078
0002e0 c8 20 9d 3c 94 01 26 3d fc 54 1c 3d 2a 6d f7 bd
       0.01918067 0.04052885 0.038166985 -0.12081368
0002f0 3e 20 a6 bd 80 b0 ef bd 5c 3c 2d 3d 00 54 a6 39
       -0.081116185 -0.117035866 0.04229389 0.00031724572

gru.bias_hh_l0 f4 [192]
000000 c8 7d 42 bd c8 3b 18 3d 38 35 2c bd b8 4c e3 bd
       -0.047483236 0.037166387 -0.04204294 -0.11098617
000010 70 41 92 bd ba bf d6 3d 76 91 be bd 7c 9b 5d 3d
       -0.071413875 0.10485788 -0.09305088 0.05410336
000020 32 da d4 3d 50 b4 1f 3d 40 68 da bb 60 ea e3 bb
       0.1039318 0.03899032 -0.0066652596 -0.00695543
000030 8c 32 e7 3d ec 5a b8 bd 58 33 41 3d e2 da df bd
       0.11288938 -0.09001717 0.047168106 -0.109304205
000040 aa c0 d3 bd 10 4e d0 3d d8 3b 9c bd 68 26 45 3d
       -0.10339482 0.10171139 -0.07628602 0.04813233
000050 08 99 6c bd fe 83 b0 3d 60 2b d7 bd f0 22 8b bd
       -0.05776313 0.086189255 -0.1050632 -0.06793773
000060 e8 6e ef 3c 08 5c 96 bd 34 09 bd bd 70 d5 ef bc
       0.029227689 -0.07341772 -0.09230271 -0.02927658
000070 40 74 a4 3c d2 8e 91 3d 4e 75 b4 3d 70 12 e6 bc
       0.020074964 0.07107319 0.088114366 -0.028084964
000080 90 2b 90 bc 04 59 f9 3d 00 bc 70 3d 18 e4 3d 3d
       -0.017598897 0.121751815 0.05877304 0.046360105
000090 6c a9 68 3d 18 4c 39 3d 80 5c 77 3d 56 47 f6 bd
       0.0568022 0.045238584 0.06039095 -0.12025325
0000a0 a0 19 b0 3c 40 22 71 bb 60 39 74 3d b4 6d 13 bd
       0.021496594 -0.0036794096 0.05962503 -0.035993293
0000b0 60 87 72 3d e6 86 e4 3d 20 14 39 3c 64 ef 5a bd
       0.059211135 0.11158542 0.011296302 -0.053450957
0000c0 18 c3 ae 3d 86 a2 a8 bd c6 f5 85 3d dc 59 89 bd
       0.08533305 -0.08234124 0.06541018 -0.067065924
0000d0 fe f5 f2 3d 9c b7 76 3d b2 92 d1 3d 50 41 40 3c
       0.118633255 0.060233697 0.10233058 0.011734322
0000e0 20 d0 cd 3d b0 d4 38 3c 54 32 9d bd 44 8a f6 3d
       0.10049462 0.011281177 -0.07675615 0.12038091
0000f0 00 32 91 3a 7c 64 e5 bd 5c 81 15 bd 38 3c a1 3c
       0.0011077523 -0.112008065 -0.03650032 0.019682035
000100 34 e8 36 3d b0 b9 ec bc f4 85 c0 bd 88 73 e1 3d
       0.04465504 -0.028897136 -0.094005495 0.11008364
000110 6c 7d 0c bd 1c 91 67 3d e0 a6 96 bd fc 49 27 3d
       -0.0342993 0.05653487 -0.07356048 0.04084204
000120 b0 76 8b 3c 66 27 a6 bd a8 13 ef 3d 20 a3 fd 3d
       0.017024368 -0.081129834 0.11673671 0.12384629
000130 c8 ae fa 3c fc de 0d 3d 80 98 84 3d 1c 7c 04 bd
       0.03060092 0.034636483 0.064743996 -0.032344922
000140 b0 7d 9a 3c 60 e4 c1 bc 10 6b 89 bd f8 e7 97 3c
       0.01885876 -0.023668468 -0.06709874 0.018543229
000150 20 a3 f2 3d 00 83 51 3a 30 65 2f 3c d0 dc ee bc
       0.1184752 0.0007992238 0.010705277 -0.029158026
000160 98 80 ce 3d 80 f8 1a 3b 80 ac 87 bc 04 1f 11 bd
       0.10083121 0.0023646653 -0.016561747 -0.03542997
000170 b0 40 e7 bc 2a 5b d0 bd 90 94 f5 bd 58 47 c5 bc
       -0.028229088 -0.10173638 -0.11991227 -0.02408187
000180 c8 d2 f2 3c bc b3 fb 3d 60 d2 9e bc ca 77 ea bd
       0.029641524 0.12290141 -0.019387424 -0.11448629
000190 88 2c c1 bc 46 b2 da 3d 56 6d 9f bd 40 da f8 3b
       -0.023580804 0.10678534 -0.07784526 0.007594377
0001a0 18 60 b1 3c 90 9c f8 3d f0 37 db 3d 70 2c 85 3c
       0.021652266 0.12139237 0.107040286 0.016256541
0001b0 54 91 09 3d ce e3 d7 bd 48 11 0d 3d 30 ff 66 bd
       0.03358586 -0.10541497 0.03444031 -0.05639571
0001c0 e0 66 92 bb b0 e7 7b bc 14 d9 e9 3d fc a5 7b 3d
       -0.00446783 -0.015375063 0.114183575 0.061437592
0001d0 2a bd 83 3d 6c 5a 62 3d 44 37 47 3d f0 28 34 3c
       0.064325646 0.055262014 0.04863669 0.010996088
0001e0 cc 73 06 3d 10 ef dd bd c0 4d d5 bd da f4 b6 3d
       0.032825276 -0.10836613 -0.1041522 0.089334205
0001f0 5a f4 d5 3d 70 1f 7c bd ac af fb bd d6 59 a5 bd
       0.10446997 -0.06155342 -0.12289366 -0.080737755
000200 e8 d8 b3 bd 20 55 6f 3c c8 60 43 3d 9c 9d 39 3d
       -0.08781606 0.014607698 0.04769972 0.045316324
000210 30 18 79 3d c0 ee 7b bd d8 20 e1 bd 78 2f f5 3c
       0.060814083 -0.061506987 -0.109925926 0.029929861
000220 02 f4 ff bd 70 7a a6 3d c0 3e 75 3b c0 a6 6d bd
       -0.12497713 0.08128822 0.0037421435 -0.058020353
000230 46 08 d8 3d 00 b5 22 ba 60 97 40 bd 40 4e 2c bb
       0.10548453 -0.00062067807 -0.047019362 -0.0026291758
000240 ec 83 93 3d 8c 9b bb 3d 90 2e 15 3d 98 3c 75 bd
       0.072028965 0.091605276 0.03642136 -0.05987224
000250 78 3e c0 bd e6 cf 94 bd d0 5d 17 3d d0 e8 64 bc
       -0.09386915 -0.07266216 0.0369547 -0.013971522
000260 32 f4 b1 bd e0 89 8a bd 50 85 c3 bd ae de 94 bd
       -0.08689155 -0.06764579 -0.09546912 -0.07269035
000270 b0 5e 72 bc c2 a7 de bd 08 af d4 3d 36 3e b2 bd
       -0.014793083 -0.10871841 0.10384947 -0.08703272
000280 ac e2 4e 3d 94 c4 d8 bd 42 1f a1 bd ea a0 ff 3d
       0.05050914 -0.10584369 -0.0786729 0.12481864
000290 92 d0 fc bd 40 e9 2d bc 0c 7d 59 bd 18 ff d9 bc
       -0.12344469 -0.010614693 -0.05309777 -0.026610896
0002a0 80 96 f9 bd 00 e2 2a 3a c0 62 e3 bb 56 91 87 3d
       -0.12186909 0.0006518662 -0.006939262 0.066195175
0002b0 70 a2 05 3c 86 71 cd bd 84 d6 67 bd 78 14 c3 bc
       0.008156404 -0.100314185 -0.056601062 -0.023813471
0002c0 1c 28 0b 3d b0 7a 4e 3c 80 fa 28 bd 50 3f 86 3d
       0.0339738 0.012602493 -0.04125452 0.06555045
0002d0 1c 04 4e 3d b0 13 6f 3d d8 65 dc bd 16 a4 ed bd
       0.050296888 0.058368385 -0.10761613 -0.116035625
0002e0 f8 7b 81 3d aa 5c 95 3d aa 8f 98 3d aa fa 9c bd
       0.06322473 0.07293065 0.07449277 -0.07664998
0002f0 f0 d7 47 3d f0 50 f0 3d 40 98 83 3d 8e b5 b5 bd
       0.04878992 0.117341876 0.06425524 -0.088725194

gru.weight_ih_l1 f4 [192, 64]
000000 e2 13 f2 bd 60 2b 49 3c 94 49 d0 bc 01 cf 31 bd
       -0.118201986 0.012278408 -0.02542571 -0.043410305
000010 a5 6f 09 be 48 76 8d bd 30 38 ee bc 02 8e fe 3d
       -0.13421495 -0.06907326 -0.029079527 0.124294296
000020 b8 24 0e 3d 6d 6b 29 3d 3c b8 06 bd d3 c9 c4 3d
       0.034702986 0.041362215 -0.032890543 0.096088074
000030 0c aa d0 bd b8 1a 1e bd 00 1c a3 bd 76 10 a9 3d
       -0.10188684 -0.0385997 -0.07964325 0.08255093
000040 10 6a 43 3c 54 cc 29 bd 88 9f 17 be 40 c8 83 bc
       0.011927143 -0.041454628 -0.1480695 -0.016086698
000050 75 2c 2b bd 8c 88 04 be b1 0b 92 bd 08 c0 e7 3d
       -0.041790444 -0.12942713 -0.07131136 0.11315924
000060 6c a9 d0 bd 50 8c 4b bc 80 b9 82 bc d9 ff 1c bc
       -0.10188565 -0.01242359 -0.015957594 -0.009582483
000070 ab 1a c2 3d 50 63 21 3e 6c 73 e9 bd d9 b9 c5 3d
       0.09477743 0.15760541 -0.11398968 0.09654588
000080 c0 92 bd 3c e7 d6 a6 3d c9 3a 0d 3e 50 29 a6 bc
       0.023141265 0.08146458 0.13791956 -0.020283371
000090 e8 87 a1 bc 40 0c c0 bb 14 e3 41 3d 4a c7 8a bd
       -0.019718125 -0.0058608353 0.0473357 -0.067762926
0000a0 72 99 ab 3d 48 f8 48 3d 02 49 12 3e 41 52 a0 3d
       0.08378877 0.049064904 0.14285663 0.07828189
0000b0 57 ca f2 bc 2a 6f d1 3d 56 e3 0b be 16 c0 1d be
       -0.029637499 0.10226281 -0.1366094 -0.15405306
0000c0 e2 8f 8a 3d ea 0f a5 3c f8 07 ec 3d 68 82 8b bd
       0.06765725 0.02014919 0.115249574 -0.068119824
0000d0 27 e2 d0 bd 56 ff a5 bd b4 96 e6 3b 02 48 9b bc
       -0.10199385 -0.08105342 0.007037008 -0.018955234
0000e0 c5 f9 b0 bd 08 16 c1 3c fa e1 15 3e d7 d3 2a bc
       -0.0864139 0.023570076 0.14636984 -0.010426483
0000f0 95 d0 2e bd 29 54 9d bd dd 8b 2e bd de 15 96 bd
       -0.042679388 -0.07682068 -0.042613853 -0.073283896
000100 f4 e6 86 3d 52 ed e4 bd c3 9f c5 3d d0 a9 67 bd
       0.065870196 -0.11178078 0.09649613 -0.05655843
000110 40 7d 0c 3d ae b1 95 bd 70 05 99 3c 78 dd ab 3c
       0.034299135 -0.0730928 0.01867935 0.020979628
000120 54 05 d1 3d 54 92 84 3d 40 1a fc bd 4e 8a 52 3d
       0.102060944 0.064732224 -0.12309694 0.05140143
000130 06 db e0 3d d7 28 a2 bc 5c e4 8f bd 38 da 78 bd
       0.109792754 -0.019794865 -0.07025978 -0.060754985
000140 3e 85 e4 bd 94 03 3b 3d 19 79 f1 bd 98 8c f5 3d
       -0.111582264 0.04565771 -0.11790676 0.11989707
000150 6c a9 18 be 02 43 06 3d 42 f6 a7 bd dc 9b d3 bd
       -0.1490838 0.032778747 -0.08201267 -0.10332462
000160 70 0d 1b bd 64 6f 3f bd 00 41 a1 3b 8e fe ad bd
       -0.037854612 -0.04673709 0.0049210787 -0.08495818
000170 bf 8c ea 3d b6 06 11 3d 58 72 a8 3d a2 2c 07 bd
       0.114526264 0.03540679 0.08224934 -0.03300155
000180 5c b3 7b 3c 89 63 04 3e a6 bd 7f 3d 7e 84 bd bd
       0.015362587 0.12928595 0.062436722 -0.092537865
000190 8c 37 ef bd 80 25 38 3b fd 79 b7 3d 00 45 3c bc
       -0.116805166 0.0028098524 0.08958814 -0.01149106
0001a0 d8 9e ad 3c 00 61 dc bb 25 ae 13 3e 93 69 91 bd
       0.021193907 -0.0067254305 0.144219 -0.07100215
0001b0 98 03 39 3d 90 b4 96 bc 11 68 9c 3d c1 15 fa 3c
       0.045169443 -0.018396646 0.076370366 0.030527951
0001c0 ee 1d c6 3d ae 58 32 bd fe 72 e0 bd 10 10 e9 bd
       0.096736774 -0.043541603 -0.10959433 -0.11380017
0001d0 5e bd 19 be 90 79 93 bd 6e b7 32 bd b3 31 c6 3c
       -0.15013644 -0.072009206 -0.043631963 0.02419362
0001e0 da b6 28 be 20 5a f2 3c 3e 71 03 3d 4e 8b 1f bb
       -0.16476002 0.02958399 0.032090418 -0.0024344507
0001f0 83 ca 97 bd ff f2 e9 bd 36 21 1f 3e e8 9a 55 3d
       -0.07411673 -0.11423301 0.15540013 0.052149683
000200 7a 78 b9 bd c2 be d9 3d bb cf 91 bc a8 a4 97 bd
       -0.09056182 0.10632087 -0.017799249 -0.074044526
000210 98 a9 bb bd e0 9a 20 3c 9e 1d c2 bd 40 61 99 bb
       -0.09163207 0.00980255 -0.09478305 -0.0046807826
000220 10 4e 98 bd 7a 67 f2 bb aa ee e8 bd 40 cf 85 3d
       -0.07436764 -0.0073975893 -0.113736466 0.065336704
000230 bc 48 5e 3d 2c cb ba 3d 66 8c 98 3d c4 00 36 bd
       0.054268584 0.09120783 0.07448654 -0.044434324
000240 84 41 11 bd 48 84 60 bd bc 81 b7 3d 0c 80 8c bd
       -0.03546287 -0.054813653 0.08960292 -0.068603605
000250 69 55 07 bd d8 c4 82 3d fa dc 28 bc c6 b3 a5 3d
       -0.033040438 0.06385201 -0.010306591 0.0809093
000260 52 e7 aa 3d f8 8f a7 3c 40 47 83 bb 36 44 b3 bd
       0.08344902 0.020454392 -0.0040062964 -0.087532446
000270 2d 7f 38 3d 37 49 29 3d b0 9a 04 bd ca c5 e4 3d
       0.04504316 0.04132959 -0.032374084 0.11170538
000280 42 0b e3 3c 00 04 c8 bd ac a5 97 3d 84 a1 1d 3d
       0.02771533 -0.09766388 0.07404646 0.03848411
000290 02 6f a4 3d 34 99 02 3d 85 d3 f6 3b 6e a8 aa 3d
       0.080289856 0.031884387 0.0075325393 0.08332907
0002a0 6e d7 a6 3d d2 1a e1 bd db b8 67 bd 6a 56 43 3d
       0.08146559 -0.10991444 -0.056572776 0.047689833
0002b0 28 12 bc bd 68 4d 22 3d e2 c6 df bc cd 59 06 3e
       -0.091831505 0.0396246 -0.027316514 0.13120194
0002c0 c0 cf b7 bd fe 15 14 3d 00 1e a7 bc 64 19 64 3d
       -0.08975172 0.036153786 -0.020400047 0.055688277
0002d0 3b cf de 3d ee be ea bd 92 6a 3f 3d 64 62 b6 bd
       0.1087937 -0.11462198 0.046732493 -0.08905485
0002e0 be e4 b1 3d b6 cd dc bd 8e d0 0a 3d 5f 4d a3 3c
       0.08686207 -0.10781424 0.0338903 0.019934354
0002f0 e5 c6 07 be 08 78 fc bb 42 c1 3a 3d e0 a4 04 bd
       -0.13259466 -0.0077047385 0.04559446 -0.0323838
000300 00 a9 f8 ba a2 52 87 bd 72 33 15 3e b7 ca 3f bc
       -0.0018971264 -0.06607558 0.14570406 -0.011706046
000310 06 60 83 3d f8 1d 72 3d 98 60 d2 bd 6c 3c 2b bd
       0.064147994 0.05911061 -0.1027233 -0.04180567
000320 44 40 89 bd e5 3c 06 3e 00 2a d1 3d c4 9d d5 3d
       -0.06701711 0.13109167 0.10213089 0.10430482
000330 e0 77 f6 3c ce be a1 3c 4c 67 42 bd e6 1f 89 bd
       0.030086458 0.019744303 -0.047461793 -0.06695537
000340 80 1e ee 3b da 4c ef bd 70 cd 23 3d c4 5f d8 3d
       0.0072668195 -0.1168458 0.039990842 0.10565141
000350 7a e6 b2 3b ac 86 e1 bc 21 26 14 bc a4 7f 40 bd
       0.005459604 -0.027530037 -0.009042294 -0.046996728
000360 3e 44 f1 bd 6e d4 c2 bd c0 8a 22 bb a8 9b 9e bd
       -0.11780594 -0.09513174 -0.002480194 -0.07744533
000370 78 c6 a8 bd dc c9 dd 3c 58 27 d4 3d 70 23 2d 3d
       -0.0824098 0.027073793 0.10359067 0.042270124
000380 af b5 2b 3c cc 84 29 ba 30 ae 5f bd 34 41 4c bd
       0.010480328 -0.00064666267 -0.054609478 -0.04986687
000390 94 f7 f4 3d a0 d1 80 bc c8 94 4d bd fa 1a d9 3d
       0.11961284 -0.015724957 -0.050190717 0.106008485
0003a0 ac 54 81 bd 44 8c 5e 3d 8e 03 c4 3d 3e ca 58 3d
       -0.06314978 0.054332986 0.095709905 0.05292725
0003b0 36 7b b1 bd a4 61 3f bd 4c 19 25 3d 80 c2 21 be
       -0.08666079 -0.046723977 0.040307328 -0.15796852
0003c0 78 2e cb bd 94 d4 05 be 74 6a 50 3d e0 68 90 3d
       -0.099209726 -0.13069373 0.05088277 0.07051253
0003d0 3a 3c a5 bd 0e 6f f4 3d 40 6a e4 3b 42 da 81 3d
       -0.08068128 0.119352445 0.006970674 0.063404575
0003e0 b6 ba 15 be 48 d7 df bc 48 0f ab 3d 0e 79 a2 bc
       -0.14622006 -0.027324334 0.08352524 -0.019833114
0003f0 f0 4f 12 3e 4a e2 0b be fc 23 b7 3b ec f9 4f 3d
       0.14288306 -0.13660541 0.0055890065 0.050775453

gru.weight_hh_l1 f4 [192, 64]
000000 17 32 44 3d ae 9d 19 3d 23 60 86 bd 51 91 80 bb
       0.047899332 0.03750389 -0.065613054 -0.003923573
000010 31 35 0d 3e 50 69 ad bd ce 51 e2 bd 83 7e 82 bc
       0.13789822 -0.084673524 -0.11050759 -0.015929466
000020 14 b1 f1 3d 7b 58 8e 3c 66 d6 5e bd 50 db 89 3d
       0.11801353 0.017376175 -0.054403685 0.06731284
000030 32 b2 fe 3c 0f 19 0d be 5d 59 35 3c 47 83 ec bd
       0.03109083 -0.1377909 0.011068669 -0.11548477
000040 50 2f 0b be 3f d1 96 3b 04 e2 83 3d a9 88 04 3d
       -0.13592267 0.004602581 0.064395934 0.03235689
000050 7c 2c 8a 3d 27 0f f7 3d 02 6f 28 3d 25 d6 f4 bd
       0.06746766 0.12063437 0.04112149 -0.11954907
000060 9a 27 e9 3d df 81 01 be 1d e8 c4 bd 0a 3b 3e 3d
       0.113845065 -0.12647198 -0.096145846 0.046443023
000070 a0 8b f2 3a 62 e5 8b 3c dd 23 8e 3c 7b 5b 88 3d
       0.0018504746 0.017077152 0.017351085 0.066580735
000080 f1 cb c8 3d 97 99 28 3e 1f 35 c4 3c df be 2a bd
       0.09804524 0.1646484 0.023951111 -0.041685935
000090 d1 c9 d9 3c 24 7e 34 bd d6 4f 01 3e 66 e7 dc bd
       0.026585491 -0.04406561 0.12628111 -0.10786323
0000a0 0a 4d 17 be ec dc 20 be 19 9a cd 3b 4e a3 7b bc
       -0.14775482 -0.15709275 0.0062744734 -0.015358759
0000b0 8d f5 b8 3c e2 8b 03 3d f4 9e fb bc fa 7e c3 3d
       0.022578025 0.032115825 -0.030715443 0.09545703
0000c0 66 89 1b bd a7 88 36 bc eb 66 cb 3c 9f bb 1e be
       -0.03797283 -0.011140979 0.024829349 -0.1550126
0000d0 91 f5 a4 bd f7 4d 06 3b 82 3c 32 bd 1c ea 1e 3d
       -0.080546506 0.0020493248 -0.043514736 0.038797483
0000e0 d4 c8 23 3d 5a 09 dd 3a e0 09 46 bc 45 7b 84 3d
       0.039986446 0.0016863749 -0.012087315 0.06468824
0000f0 7f 6e c5 3d 66 00 57 bd ee 02 12 3d 15 15 00 3d
       0.09640216 -0.052490614 0.035647325 0.031270105
000100 b2 e0 88 3c 98 2d d4 bd 98 fc b4 bd 48 ab 2e bd
       0.016708706 -0.10360259 -0.08837241 -0.042643815
000110 17 74 2b 3e a9 38 97 3d 09 2b 5d 3d 74 ae a5 3d
       0.16743504 0.07383854 0.05399612 0.08089915
000120 ea f3 ed 3a f8 fb 95 bd a0 f6 90 bd 48 1d 9a 3c
       0.0018154357 -0.0732345 -0.0707829 0.01881279
000130 66 86 46 3b 87 15 90 3d 1f 6c 9a 3d 2a e9 85 bd
       0.003029251 0.07035356 0.07540154 -0.06538613
000140 16 5a c9 bd a7 ee 0c 3d 51 8f 80 3d 3a b3 2d 3e
       -0.09831636 0.034407284 0.062773354 0.16962901
000150 20 9c b3 3d f3 b5 8f 3d 30 fb 85 bd ee e8 29 bd
       0.08770013 0.07017126 -0.06542051 -0.041481905
000160 1e 01 bf bb 46 5b a1 bd e9 e6 5e 3d 0c 36 4e bd
       -0.0058289906 -0.07878737 0.05441943 -0.050344512
000170 eb 3f bb 3d 51 ce 67 3d 1d 24 30 3d 36 73 f0 bb
       0.09143051 0.056593243 0.04300319 -0.007337953
000180 d5 8e 1f 3e d3 af a2 bc 43 06 27 3e fd 4d f1 3c
       0.1558183 -0.01985923 0.16310982 0.029456133
000190 7f e8 14 be 39 38 96 bd 5f 4e 8d bc 27 9b 5c 3d
       -0.14541815 -0.07334942 -0.017249284 0.053858902
0001a0 a8 30 ba bc 06 1c 03 be 5f 9a 46 bd cd f3 2a 3e
       -0.02272828 -0.12803659 -0.048487063 0.16694565
0001b0 c7 0a c3 bd 4c 7a 01 bd 09 b8 f9 bb 03 a1 f1 bc
       -0.0952354 -0.031610772 -0.0076208157 -0.029495722
0001c0 4e c3 02 bd ce aa 54 3d d5 7a 93 3d a6 5d 74 3d
       -0.03192454 0.051920705 0.07201163 0.059659623
0001d0 eb 9b 3a bd 98 c2 24 bd e2 a9 57 bd 1f 74 4e bc
       -0.04555885 -0.04022464 -0.052652247 -0.012600928
0001e0 4c 01 07 3d 91 17 86 3d 94 08 27 3d 81 aa d4 bb
       0.03296022 0.06547464 0.040779665 -0.006490052
0001f0 3d 36 05 3e f6 47 c8 3d 8d ff 1b 3c 32 16 ec 3d
       0.13008972 0.097793505 0.009521377 0.11527671
000200 f5 28 01 be cc c5 d2 3d 03 95 d3 bd d1 e3 e2 3d
       -0.1261328 0.10291633 -0.10331156 0.11078609
000210 e0 c7 b8 3d c9 d4 8a 3d 53 64 0e be d6 f2 cc 3d
       0.09022498 0.06778867 -0.13905458 0.10007255
000220 03 58 12 bd 7a e2 5c bd cc f9 80 bd 29 d9 c9 bd
       -0.035728466 -0.053926922 -0.06297645 -0.09855873
000230 71 22 0e 3d 9a 4a c8 3d 77 95 1f 3d df da f8 bd
       0.034700815 0.09779854 0.0389609 -0.12151121
000240 e9 b0 5e bd 40 dd 45 bd 89 02 78 bd 95 a0 ed 3d
       -0.054367933 -0.048306704 -0.060549293 0.11602894
000250 d0 6b 60 3d 2a 35 6b bd 07 ef 38 3e 42 8f 97 3d
       0.054790318 -0.057423748 0.18059932 0.07400371
000260 26 e8 78 3c 33 ca 56 bd 17 ef e2 3c cf ca 9c bd
       0.015192067 -0.052438926 0.027701898 -0.0765587
000270 b2 58 19 3c 76 1d 87 bd 0f 7c 8d 3c 12 c4 d1 bd
       0.0093595255 -0.06597416 0.01727107 -0.102424756
000280 d6 4a 0d 3d 83 ff 02 3e e9 4c d3 bd e8 9f 1b 3d
       0.034495197 0.12792782 -0.10317404 0.037994295
000290 13 3f 1c 3d 1d 4a a9 3d d9 43 b7 3d ec a2 cc bd
       0.03814609 0.08266089 0.08948488 -0.099920124
0002a0 7b 9a 1d be 7f a0 e1 3d b5 35 de 3d 00 88 7c bd
       -0.15390961 0.1101694 0.108500876 -0.061653137
0002b0 a7 72 9c bd b8 27 cc 3b e3 c8 5c bc 56 ae cd bd
       -0.07639056 0.006230321 -0.0134756295 -0.100430176
0002c0 42 a5 d8 bc bf ff 68 3d b5 8e db bd 72 3e 5b bc
       -0.026445989 0.056884523 -0.107205786 -0.013381587
0002d0 19 77 7a bd a3 75 cf bd 29 da b2 bd 90 78 90 3a
       -0.061148737 -0.10129859 -0.08733017 0.0011022259
0002e0 c1 45 94 3d ea 4a b3 bd e8 78 97 3d b7 56 1b be
       0.07239867 -0.08754523 0.07396108 -0.15169798
0002f0 07 81 12 3e 11 18 25 3d 38 eb 69 3e f5 eb 43 3d
       0.14307033 0.040306155 0.22843635 0.047832448
000300 24 81 0e 3e b4 42 81 3d 79 fe 27 be 75 eb 0e 3e
       0.1391645 0.06311551 -0.16405667 0.13957007
000310 25 75 8d 3d ce d0 bf 3c df 47 8f bd 00 0d e2 3d
       0.06907109 0.023414996 -0.0699613 0.11037636
000320 2a 22 2e bb ee 58 33 3d 27 bc 32 bd 06 ae f7 bc
       -0.0026570656 0.04378598 -0.043636467 -0.030234348
000330 82 e4 36 bd df 9d 9e 3d a2 eb 79 3d 46 60 8d 3d
       -0.044651516 0.07744955 0.061015733 0.06903128
000340 c7 27 24 be db 79 7a 3d 2a 14 35 bd d7 ca a1 bd
       -0.16030799 0.061151367 -0.044208683 -0.07900017
000350 77 b2 ce 3d 18 a8 9b 3d 8b 1e 21 3d 54 99 12 3d
       0.10092633 0.07600421 0.03933577 0.035790756
000360 fa 33 32 bb b4 2a 8e bd 8d 62 25 be b5 7a fc bd
       -0.0027191625 -0.06941739 -0.16150875 -0.12328092
000370 15 33 0a 3e fb 89 fe bc 77 4d 96 bd 14 15 22 bc
       0.13496049 -0.031071654 -0.07338994 -0.009892721
000380 fa 43 e8 3d 49 6e 73 3d 3c a3 44 bd 92 c7 ae 3d
       0.113410905 0.059431348 -0.048007235 0.08534159
000390 79 8b 05 bd 35 4a cf 3c a4 c0 e6 3d 5f 86 b8 bd
       -0.032603715 0.02530394 0.11267212 -0.09010004
0003a0 de 54 a2 3d 00 a3 24 be 99 9a e3 3d 77 cf 5e bd
       0.079263434 -0.16077805 0.111134715 -0.054397073
0003b0 4b 12 a7 bd 19 93 6f bc 4f cf 98 bd ef 85 13 3e
       -0.08157786 -0.014622473 -0.07461416 0.1440656
0003c0 71 4d 84 bc 6c 95 47 bd dc 16 5b 3d f9 57 71 bd
       -0.016150208 -0.048726484 0.053488597 -0.058921788
0003d0 b4 70 32 3d 43 85 7f 3c ee d3 ec bd 34 60 e5 bd
       0.043564513 0.015595737 -0.1156386 -0.1119999
0003e0 c3 2b a9 3d 00 c0 89 bd f1 db 29 3d 24 8d 9f 3d
       0.082603 -0.06726074 0.041469518 0.07790592
0003f0 fb 68 a8 bd fe 49 7c 3c e0 bb da 3d cd 9d bf 3d
       -0.082231484 0.0153985005 0.106803656 0.0935627

gru.bias_ih_l1 f4 [192]
000000 da 71 20 3e 81 01 8f bd bd bc 8f bc 80 e8 ae 3d
       0.15668431 -0.06982709 -0.017546052 0.085404396
000010 01 38 ac 3c 1d 1e ed 3d 61 8f c5 3c ed 97 80 3c
       0.021022798 0.11578009 0.02411622 0.015697444
000020 17 28 ee bb 32 8c de 3d 23 a4 c8 bc 18 bb a7 3d
       -0.0072679627 0.10866584 -0.024492329 0.08189982
000030 1c 98 8e 3d fa bb 56 bd 15 9b d1 3d a4 22 a0 3c
       0.06962606 -0.052425362 0.10234658 0.019547768
000040 4e 6a bf 3d aa d0 08 3e 39 1a 07 3e 38 35 ec 3d
       0.09346448 0.13360849 0.13193597 0.11533588
000050 4f 9a e9 3d 58 c0 32 bd 4f 34 b8 bc 0f 3d 81 bd
       0.11406385 -0.043640465 -0.02248588 -0.06310474
000060 98 a7 0e 3e d5 ab 80 3c 70 ed d6 3b ff fa 20 3e
       0.1393112 0.015706936 0.0065590665 0.15720747
000070 5b 8a b6 bd a5 09 18 3e e5 d6 60 bc aa f7 32 3c
       -0.08913108 0.14847429 -0.01372311 0.0109233055
000080 35 5e c9 b9 73 18 5c 3c bc 61 45 3d 6a 75 4e bd
       -0.00038407897 0.0134335635 0.04818891 -0.050404944
000090 37 48 b6 3d 46 1b 25 3e 12 8d b3 3c 6c af 18 bd
       0.08900493 0.16123685 0.021917854 -0.03727667
0000a0 d3 b0 d4 3d 37 a5 26 3d 23 59 49 bd 57 88 1a 3e
       0.10385289 0.040684905 -0.049157273 0.15091072
0000b0 73 cc 70 bd f3 93 47 bd a6 0d 38 bd be ab 21 3e
       -0.058788728 -0.04872508 -0.04493489 0.1578817
0000c0 16 43 17 3e e9 d2 24 3d 26 89 1e 3d eb da 9c bc
       0.14771685 0.040240202 0.038705014 -0.019147357
0000d0 db 8c 81 bd 94 dd f4 3d 97 9a a4 bd 03 be e0 3c
       -0.06325694 0.11956325 -0.08037298 0.027434355
0000e0 65 39 b7 3d 1f 63 8c bd 1d c3 dc bb 61 af bb bd
       0.08946494 -0.06854843 -0.0067371265 -0.0916431
0000f0 c8 15 de 3c f0 a6 a5 3d fd b9 c3 3d 58 78 07 3e
       0.027109995 0.080884814 0.09556959 0.13229501
000100 67 20 c3 bd e8 fd b6 bd 7a 57 00 3d eb c0 dc bd
       -0.09527665 -0.089351475 0.031333424 -0.10778984
000110 44 65 43 3d 69 6f ed bb 83 b1 bd bd 71 c5 54 3d
       0.047703996 -0.007245947 -0.09262373 0.051946107
000120 4f 91 eb bd 47 bb c3 3d 85 3e 58 bd 98 58 9e 3d
       -0.11502325 0.09557205 -0.052794 0.07731742
000130 a3 2e be 3d 92 32 09 be 34 44 bd 3d 3c de c2 3d
       0.09286239 -0.13398197 0.09241524 0.09515044
000140 85 b4 63 bd f0 2b a5 bb f8 4c 1e b9 3b 5b 7f 3c
       -0.05559208 -0.005040638 -0.00015096727 0.015585716
000150 19 77 0c 3c ea 29 36 bd 47 2c e3 bd 28 c3 c5 bd
       0.008573317 -0.044473566 -0.110924296 -0.09656364
000160 98 47 ea 3d ac 55 07 be 7b 10 e6 bd d6 b1 00 be
       0.11439437 -0.13216275 -0.11233612 -0.12567839
000170 48 2c 05 be 99 d2 5c 3d c2 45 dc 3d a3 07 8d bd
       -0.13005173 0.05391178 0.10755493 -0.06886222
000180 48 02 bf 3d 61 7f 1c 3d d4 d8 8e bd a3 48 30 3c
       0.09326607 0.038207415 -0.069749504 0.010759505
000190 6a cf 5f bc fa 2f b8 bd 2f af 9b 3c fc de 10 bb
       -0.013660291 -0.08993526 0.019004432 -0.0022105565
0001a0 0a bf 1f 3d 5a 3a e2 3d 43 8c ba bc 02 c5 70 3d
       0.03900055 0.11046286 -0.02277196 0.05878163
0001b0 ea 8e 12 bc a2 07 07 bd 19 c8 5f b9 d2 4c f7 bd
       -0.008945206 -0.032966264 -0.0002134148 -0.12075199
0001c0 4e bf cb 3d f3 d3 ec bb ec 0b ef 3b 9a b1 c9 3d
       0.09948598 -0.0072274148 0.0072951224 0.09848328
0001d0 c2 1c a6 bc 40 12 f7 3c 9f a7 63 3d 7e e7 eb 3d
       -0.020277385 0.03016007 0.055579778 0.11518763
0001e0 16 80 7f bd fd 1d fd bd 42 22 9f bc 08 e0 87 ba
       -0.06237801 -0.123592354 -0.019425515 -0.0010366449
0001f0 ef 00 dc 3d 74 4e 6f bd 48 04 d7 bb e0 b5 48 bc
       0.107423656 -0.058424428 -0.0065617897 -0.012250394
000200 94 6b 51 3d c6 9a 05 be 7a 70 21 bd 58 2b 40 3d
       0.051127985 -0.13047323 -0.039413907 0.046916336
000210 bf 77 60 3d 73 cf 6c bc b7 5b 02 bc 4d 2c fb 3d
       0.0548017 -0.014453757 -0.007956437 0.12264309
000220 1b 99 e4 3c 5f 06 c6 3c d4 62 eb 3d 6c 7e 11 be
       0.027905038 0.02417296 0.11493459 -0.14208382
000230 32 ca d1 3d 55 56 e7 bd 21 f6 bb 3c 50 97 11 be
       0.10243644 -0.112957634 0.022944512 -0.14217877
000240 3d 69 1c 3d f7 be 82 3d 8c 2e 13 3d c1 f7 2f 3d
       0.0381863 0.0638408 0.035933062 0.042960886
000250 5b 79 50 3d ec 4c 8c 3d 10 78 77 bd bc ca 95 bd
       0.050896984 0.06850609 -0.060417235 -0.07314059
000260 53 a2 2b 3e a0 d9 53 bd de 40 35 bd 49 c5 9d bc
       0.1676114 -0.051721215 -0.044251315 -0.019259112
000270 f8 df 21 bc e3 a9 20 bd 7b da 7c bc 25 90 11 3e
       -0.0098800585 -0.039224517 -0.015432949 0.14215143
000280 e6 bd 22 3c 17 ae 9b bc d5 84 a5 bc 80 04 fb bd
       0.009932971 -0.019003911 -0.02020494 -0.12256718
000290 1d 2a f7 bd ef 91 09 3e 1c 8d 6f bd 71 67 f1 3c
       -0.12068579 0.13434575 -0.05848418 0.02946827
0002a0 59 6e 6d bd 45 52 9a bd 4a e9 2a 3e 36 1f 02 bc
       -0.057966564 -0.07535223 0.16690555 -0.007942012
0002b0 a7 af 75 3c ef f8 12 3d 16 0a 15 bd af d2 e0 3d
       0.014995492 0.035881933 -0.03638657 0.10977685
0002c0 18 cd 1b 3e b0 11 3e bd 62 85 27 3d 61 ad 24 be
       0.15214956 -0.046403587 0.04089869 -0.16081764
0002d0 36 dc 4e 3d f2 71 35 3d 61 62 09 3d 9a df e4 bc
       0.05050298 0.04429812 0.033541087 -0.027938653
0002e0 5d 19 a6 bd d9 e9 c9 3b 7d 04 e1 bd 3f a6 38 bd
       -0.081103064 0.00616191 -0.10987184 -0.04508042
0002f0 39 06 93 bd 56 03 a8 3c fb 94 8e 3d e7 27 b8 3d
       -0.07178921 0.020509403 0.069620095 0.08991986

gru.bias_hh_l1 f4 [192]
000000 a5 9a b3 bd 01 c7 dd 3d 14 b2 ab ba 02 ca c0 3d
       -0.087697305 0.108289726 -0.0013099336 0.0941353
000010 db 41 d3 bd a5 b0 1b 3e 2b 29 6b 3d 09 fe 30 3d
       -0.10315295 0.15204103 0.057412308 0.043211017
000020 1c 8c 57 bb a2 df 95 3b dc 32 92 3d 17 2d 9a bd
       -0.0032889908 0.0045737782 0.07138607 -0.075281315
000030 da e8 48 3d 0e 70 9b bd c8 f1 9e bd f2 fd dc bb
       0.04905019 -0.07589732 -0.0776096 -0.00674414
000040 14 68 7e bd 46 90 a1 bb ba d5 57 bd a1 cb 77 bd
       -0.062110975 -0.004930529 -0.05269406 -0.06049693
000050 51 06 5e 3d 8f 93 2a bc 85 88 95 bd 61 5b c8 3c
       0.054205243 -0.010411157 -0.0730143 0.024457635
000060 30 22 d4 3d 36 2d ec 3b 17 c9 9a 3c 0e d9 3e 3c
       0.10358083 0.007207538 0.018894715 0.01164843
000070 d6 2d a6 3b 53 15 ad 3c d1 0d 7a bb 98 10 99 bc
       0.005071382 0.021128332 -0.0038155208 -0.01868467
000080 f6 19 08 bd 8c fb da 3d 05 74 a1 3d 82 be 02 3d
       -0.033227883 0.1069251 0.07883457 0.031919964
000090 cc e2 29 bd 18 d2 00 3d bc 28 34 3d 7d da 45 3d
       -0.041476056 0.03145036 0.04398416 0.04830407
0000a0 c5 92 85 3d cc fc 9a bd d7 97 02 3e f8 4d c2 3d
       0.06522135 -0.075677484 0.12753235 0.094875276
0000b0 23 14 1f 3d 26 dd a8 3d c2 65 a6 bd df 8b 17 bd
       0.038837563 0.08245306 -0.081248775 -0.036998626
0000c0 af ad 1a 3e db 73 81 3d 44 b3 e5 3d bf a6 d9 bd
       0.15105318 0.06320926 0.11215833 -0.106275074
0000d0 7a f3 ad 3d dc 10 99 3d ff e3 c0 bc 09 ed 80 3d
       0.08493705 0.07473919 -0.023546217 0.06295211
0000e0 24 19 22 3e ed 19 6d 3c 79 8e 81 3c 3e d8 ca 3d
       0.15829903 0.014471513 0.015815007 0.09904526
0000f0 3e 8d bf 3c 48 f8 a6 3d f2 ff be bc 40 e5 0e 3d
       0.02338278 0.08152825 -0.023315404 0.0348866
000100 b1 00 08 be 4b af c0 3d 54 55 9f bd 83 1a c1 3d
       -0.13281514 0.094084345 -0.07779947 0.09428885
000110 7d 08 b5 bd 52 5f 17 3d d8 8d 44 3d ee 54 53 bd
       -0.0883951 0.03695614 0.047986835 -0.051594667
000120 7d b0 0b bd 71 a9 e5 3c 6e ed 99 bd ca e6 b6 3d
       -0.03410386 0.028034898 -0.07515989 0.08930738
000130 ff cd b8 3d 49 b3 03 3d 7f 9e bc bc 90 3f cd 3d
       0.09023666 0.0321534 -0.023024796 0.10021889
000140 7d 48 c2 38 d4 cd f6 bd df a4 7e 3d d3 69 6f bd
       9.264143e-05 -0.12050977 0.062168952 -0.05845053
000150 93 8b ed 3d 3e df 2b bd d1 5c 61 3d ab 07 c6 3c
       0.11598887 -0.041960947 0.055020157 0.024173578
000160 a1 43 65 3b 59 fe a1 bd 84 b2 bf bd b2 51 68 3d
       0.0034982937 -0.07909841 -0.09360221 0.056718536
000170 75 e4 87 bd ce a1 e9 3d 8b cb 43 bd 33 e4 b8 3d
       -0.066353716 0.11407815 -0.047801536 0.090279005
000180 42 1e 86 bd cc 69 4c bd 55 e0 15 3d a4 e0 c4 3d
       -0.0654874 -0.049905583 0.036590893 0.09613159
000190 2a 84 f1 bd 07 e1 a0 3c 8c b9 cf 3d a8 fa 14 3d
       -0.117927864 0.019638551 0.10142812 0.036371857
0001a0 fb cc ff bd 87 94 a7 bc 8b f1 3f bd f4 22 f8 bd
       -0.12490269 -0.020456566 -0.046861213 -0.12116042
0001b0 a5 6f d1 bd f8 2a e8 3c 5d 08 cb 3d 72 35 b6 3d
       -0.10226373 0.028340802 0.099137045 0.08896913
0001c0 7b c7 b6 bd c1 ef f9 bd 06 43 02 be 4c 69 47 3d
       -0.08924767 -0.122039326 -0.1272088 0.048684403
0001d0 22 72 81 bc 22 b1 a5 3d 77 7d 98 3d bc e9 db bd
       -0.015801493 0.08090426 0.074458055 -0.10737941
0001e0 58 ac 9e 3d c7 32 a3 3b b4 fc 31 3d cf 76 80 3d
       0.07747716 0.0049804184 0.043453887 0.06272661
0001f0 2a 24 2e 3c 81 62 a8 bd 18 0c 2f 3d ae e8 fe bd
       0.010628739 -0.08221913 0.042736143 -0.12446724
000200 3d 46 2f bd 74 0b 1f be b2 55 3d bd fa 4f 04 3e
       -0.042791594 -0.15531713 -0.046224304 0.12921134
000210 bd 11 44 3c 0e ad d9 3d 84 7d 26 bc a1 d4 55 3d
       0.01196712 0.10628711 -0.010161761 0.05220473
000220 cb f4 06 3e 07 21 17 be cf 7b ff 3d b7 40 a1 3d
       0.13179319 -0.14758693 0.124747865 0.078736715
000230 72 5d bb 3c 8c 29 8c bd d6 dd 04 3e f3 0b c3 bd
       0.022871707 -0.06843862 0.12975249 -0.095237635
000240 8c 92 d4 bd 8c 1e bb bd 57 62 8f 3d 0b 0c 05 bd
       -0.10379514 -0.09136686 0.07001179 -0.03248219
000250 12 84 c0 3d 29 f5 a7 3d 81 80 1d bd 56 ef a6 3d
       0.094001904 0.082010575 -0.03845263 0.081511185
000260 81 43 8d bd a8 3c 01 be 5a a5 9d 3d e8 57 af bd
       -0.06897641 -0.12620795 0.07697554 -0.08561689
000270 fd 72 15 3e c8 10 97 bd 93 da ce 3d a7 d4 14 3e
       0.14594646 -0.07376248 0.101002835 0.14534245
000280 15 54 8d bd b9 6b af 3d 0d af 1e 3e f1 3b af bc
       -0.06900803 0.08565468 0.15496464 -0.021390887
000290 56 8a 98 3d 67 cd 93 3d 2f 45 e3 3d cf 00 68 bd
       0.074482605 0.07216912 0.1109718 -0.056641396
0002a0 bd 45 26 be 46 13 8f 3d 4d e0 7a bd 96 ae 9b bd
       -0.1623754 0.06986098 -0.061249066 -0.07601659
0002b0 be 51 09 3d 73 ee 9e 3d 52 6e c7 bd 92 97 0f 3e
       0.03352522 0.07760324 -0.09737839 0.14022663
0002c0 a9 67 c7 3d 9c 38 a1 3d 47 f8 33 bd 9d 4a 95 bd
       0.097365685 0.078721255 -0.043937948 -0.07289622
0002d0 7d 14 72 3d 7b 64 d5 bd b7 cc 4b bd a9 81 0b bd
       0.05910157 -0.10419556 -0.04975578 -0.0340592
0002e0 ab 99 10 3e 18 3f 5a bd 18 e8 20 3d a3 f6 b2 3b
       0.1412112 -0.053282827 0.03928384 0.0054615303
0002f0 6b 2e 98 3d 2d f7 e8 3c 1f 55 01 3e 3a bb f5 bc
       0.074307285 0.028438175 0.12630127 -0.029996503
