project/onnx_models/GRU/Apple.onnx (onnx, 17125 bytes, 4 tensors)

fc.weight f4 [1, 32]
00000000: 77f0 b6be 8ccc f53e 9b64 cc3e 6229 df3d
00000010: b59c 7b3e f444 20be fc14 b33e 01d3 89bd
00000020: 2a4f b8be c872 f2bc 946f d6be 190b d23e
00000030: 2047 4f3c 240d 913e 5e5d d3be d4c0 0ebd
00000040: ba52 32be 6861 c03e 58db 14bf e76f cdbe
00000050: 8802 0abe c3bf 793e 8790 ca3e 51eb b73e
00000060: 060d a33d 518c 0a3f fb1f f4be 2d53 053f
00000070: a1bc 203e e656 f13d 7122 283e 7963 863e
-0.35730335 0.4800762 0.39920506 0.10896565 0.24571498 -0.15651304 0.34976947 -0.06729699
-0.35997897 -0.029595748 -0.41882002 0.41024092 0.012651235 0.28330338 -0.4128217 -0.034851864
-0.1741437 0.37574315 -0.5814719 -0.40124437 -0.13477528 0.24389558 0.3956339 0.3592172
0.079614684 0.54120356 -0.4768065 0.5208004 0.15696956 0.11784153 0.16419388 0.26247767

onnx::GRU_105 f4 [1, 96, 5]
00000000: d1f0 c1bd ef42 1c3e 7882 28be 7b97 043e
00000010: ff3f 33be b6d2 0fbe 0b39 033e 93ca 2a3e
00000020: abbe 2cbe 0d97 debd 9018 db3c eb85 ddbd
00000030: 47c3 2a3e 04ba dabd b11e b1bd f036 3fbc
00000040: 39b9 c9bd 2868 49bd e64f a03d e853 de3c
00000050: 9c82 29bd 8fc1 20be 9dff c5bd 1c75 5d3d
00000060: a934 e9bd 785c 03bd 4729 8dbd 33c6 2fbe
00000070: 0aab ce3d aa18 b93d ddc7 013e 0007 2e3b
00000080: 86b8 863d 49f7 203e f0e8 4bbc 0c25 233d
00000090: 9072 3fbc 9800 f0bc 60ae 34bd 8857 d33c
000000a0: b646 56bd f841 34bd 9487 0d3d fe9b df3d
000000b0: a63c 0abe d9fb 233e bcee 8c3d e0e9 633d
000000c0: d1c2 343e d5e1 213e 90a5 e23c b2d8 de3d
000000d0: 40ed 1bbc 4331 2a3e 08d7 9dbc 40e7 6c3d
000000e0: ea6b a73d b01a 89bc b2d9 32be ca8c fbbd
000000f0: 307e c03c ab3d f5bd a088 4dbc 9319 9ebd
00000100: fab7 b63d 9991 193e 5ade f33d 633a 2c3e
00000110: 302e 183d 3c72 1abd bcca 2abd 5f0e 333e
00000120: 7ccf 473d 257d 2d3e 080f 1bbe faee 8e3d
00000130: 4880 833d 523e be3d b094 45bd 5a8e fb3d
00000140: 0c73 65bd a058 b6bc 66f8 ebbd 180f de3c
00000150: 1a1d 823d c8a3 0abd f528 95bd bc86 023d
00000160: 6a42 23be e0df bdbc 4922 073e 625c fa3d
00000170: 9f40 293e b614 55bd d416 0ebe cae0 92bd
00000180: 3383 04be 4004 01be f81e 433d 703a a4bc
00000190: 88ab f83c d8cb 653d 56f7 0dbe 234a a2bd
000001a0: 90d4 533c fdfb 2b3e 869a d73d 3d28 91bd
000001b0: de16 b73d 7524 fdbd 2c14 153d 1bc3 cebd
000001c0: 9525 33be b2cb e53d 64db ccbd cc07 71bd
000001d0: e6e6 7bbd ea41 bc3d 4014 a3bb 26df 2dbe
000001e0: a269 27be 990f 0d3e 4cc6 153d 13f9 083e
000001f0: 3517 0e3e b5f6 90bd caa3 b13d f0ff 3fbc
00000200: 082c fd3c 14c1 a3bd 2f13 2c3e 3bd3 c5bd
00000210: 2ec1 0cbe 17e0 9bbd 803e d9bd c80e 873d
00000220: 73e1 2abe 271f 053e 724e a93d af49 97bd
00000230: 00dc f63c 6dbc 233e f812 f5bc 2050 683d
00000240: 8a47 b63d 48ea 2a3d c6d9 16be aee0 74bd
00000250: 10df f8bd 2029 103c c409 d9bd eed0 95bd
00000260: 06fe b73d a661 b03d 0086 583c 02d4 ef3d
00000270: 9c2b 1ebd fd1b bdbd 808a be3a fc4d 31be
00000280: 7cfe 2abd 2001 34bd 108e 65bc 9989 163e
00000290: 224b e33d 506d 1dbc a691 f33d affc 82bd
000002a0: 5c65 95bd 41bf 123e 02d0 cb3d da30 dc3d
000002b0: 7439 febd bc49 1b3d c76b 013e 3476 443d
000002c0: 0864 d7bd e892 c23c d2d1 d23d 9cce 2bbd
000002d0: 3e93 c73d a444 633d 936f a1bd 2d73 0cbe
000002e0: 6b15 e2bd 3d5c 25be 500f c2bd 886e 523d
000002f0: f09e 4b3d 3605 e0bd e6e0 10be 95e3 1cbe
00000300: 6253 b23d 5416 02be 3e5b ca3d 506c 7b3d
00000310: 376c 32be a0eb e83c 40c7 fdbc 26a3 c9bd
00000320: 64c8 05be 1041 c23c 80d1 2abc 7200 b93d
00000330: d5e1 93bd 709e bf3c 5e0e 7bbd c014 0b3d
00000340: 6a88 fc3d f5f3 003e 5039 d43c edb6 13be
00000350: 9c7c 5e3d d85b 433d 61ab 2b3e 9264 f03d
00000360: 2635 cdbd 6ef4 a8bd 0662 ca3d 3178 283e
00000370: 185c b6bd 296e 033e 78bf 433d 0ff8 28be
00000380: 1dda 8ebd b0bb a83c 04ba 4d3d 1dfe 233e
00000390: d483 9cbd 562f 963d dee8 eebd 5f6f 2bbe
000003a0: 013f c5bd 404e 17bc c308 b3bd 0038 c4ba
000003b0: eae1 cb3d 772c cfbd 6c22 0bbe c4bb 7b3d
000003c0: a0c4 2dbc 290e 2bbe e8ff 16bd 6526 0dbe
000003d0: 0018 173c 13d2 0e3e ae44 10be 24db 9fbd
000003e0: 0855 413d 9276 b73d 1745 0bbe 892f 2cbe
000003f0: b06b 503d 9062 44bc 10ce a03c a8db 0dbd
-0.0946976 0.15259908 -0.1645602 0.1294841 -0.17504881 -0.14045224 0.12814729 0.16678838
-0.16869609 -0.108686544 0.02674511 -0.108165585 0.16676055 -0.10680011 -0.08648432 -0.011670813
-0.098497815 -0.049171597 0.078277394 0.027139619 -0.041384324 -0.15698837 -0.09667895 0.054066762
-0.11386997 -0.032070607 -0.06892639 -0.17165451 0.10091217 0.090379074 0.12673898 0.0026554465
0.06578164 0.15719332 -0.012445673 0.039830253 -0.011685029 -0.029297158 -0.04411161 0.025798574
-0.05231353 -0.044008225 0.034553126 0.10918425 -0.13499698 0.16014041 0.068814725 0.055642962
0.17652442 0.15808804 0.027666837 0.10881175 -0.009517014 0.16620354 -0.019267574 0.057837725
0.0817488 -0.016736358 -0.17465857 -0.12282713 0.02349767 -0.11974653 -0.012544781 -0.07719722
0.089218095 0.14996947 0.119076446 0.16819148 0.037153423 -0.0377066 -0.04169725 0.17485951
0.048781857 0.1694227 -0.15142453 0.06979175 0.06420952 0.092892304 -0.048237503 0.12283011
-0.05601792 -0.022259057 -0.115219876 0.027106807 0.06353207 -0.0338476 -0.072832026 0.031866774
-0.15943304 -0.023178041 0.13196672 0.12224652 0.16528557 -0.052021705 -0.13875896 -0.07171781
-0.12940674 -0.12599277 0.047636956 -0.020047396 0.03035523 0.056102604 -0.13863882 -0.07924297
0.012929097 0.16795345 0.1052752 -0.07087753 0.089399084 -0.12360469 0.03639619 -0.10095807
-0.17494805 0.112204924 -0.10002783 -0.058845326 -0.0614995 0.091922596 -0.004976779 -0.16979656
-0.1634889 0.13775481 0.036566064 0.13376264 0.1387604 -0.07078306 0.086738184 -0.011718735
0.030904785 -0.07995811 0.16804193 -0.0965943 -0.13745567 -0.07611101 -0.10607624 0.06594616
-0.16687565 0.13000165 0.082669154 -0.07387101 0.030134201 0.15989847 -0.029916272 0.05671704
0.08900364 0.041727334 -0.14731511 -0.059784584 -0.12151921 0.008798867 -0.10597566 -0.07315241
0.08983998 0.08612375 0.013215542 0.11710359 -0.038615808 -0.09233854 0.0014537126 -0.17314905
-0.0417466 -0.043946385 -0.014010921 0.14700927 0.11098315 -0.009608582 0.118930146 -0.06395852
-0.072947234 0.1433077 0.09951784 0.10751505 -0.12413302 0.037912115 0.1263877 0.04796429
-0.10517126 0.023751691 0.10293926 -0.041945085 0.09744881 0.055485383 -0.07882609 -0.13715811
-0.110392414 -0.16148467 -0.09475577 0.051374942 0.04971212 -0.10938494 -0.14148292 -0.1532119
0.0870731 -0.1270383 0.09880684 0.06138259 -0.17424093 0.028432667 -0.030978799 -0.09845571
-0.13064724 0.023712665 -0.010425925 0.09033288 -0.072208084 0.023390979 -0.061293 0.033955336
0.123307064 0.12593062 0.025906235 -0.1442525 0.054318056 0.04769501 0.16764595 0.11737932
-0.10019903 -0.08249746 0.09881978 0.164521 -0.08904284 0.12834992 0.04779002 -0.16500877
-0.069751956 0.020597309 0.050226226 0.16014905 -0.07642332 0.07333247 -0.1166551 -0.16741703
-0.09631158 -0.009234965 -0.087419055 -0.0014970303 0.09955199 -0.10115903 -0.1358735 0.061458364
-0.010605961 -0.1670462 -0.036865145 -0.13784178 0.009222031 0.13947324 -0.14088699 -0.0780547
0.047200233 0.08958162 -0.13600574 -0.16815008 0.05088395 -0.01198639 0.019629508 -0.03463331

onnx::GRU_106 f4 [1, 96, 32]
00000000: 80b2 1cbb 00b6 37bd c195 80bd c8c3 dcbc
00000010: 40ac 753b 5990 ecbd 0d04 003e 78da 483d
00000020: f089 98bc 50ef 863c c0c3 48bd 100e f5bc
00000030: 5f88 003e 6077 e7bb ead1 c03d 2e95 e1bd
00000040: fd1a 2ebe 9a81 e33d d0db 573d 70ce 29be
00000050: 6687 dd3d 73f9 b6bd 8058 cf3a c5a6 2d3e
00000060: ac80 18be a9fc 1d3e d374 153e 54cb 253d
00000070: faa8 a8bd 009b 6f3d aec2 f93d 96f3 a4bd
00000080: 5680 f83d 7810 d83c 7798 063e 61e8 e2bd
00000090: 0f81 1e3e f438 26bd dc88 61bd 2581 0c3e
000000a0: 7ecb b23d 601b 2cbe d60a cfbd 0867 02be
000000b0: 6803 f9bc 5080 3b3d 0f46 b1bd 8830 16bd
000000c0: fc3e eabd 20ee 083c 30b3 af3c 5697 08be
000000d0: 82b3 e73d 576e 0cbe 72c1 b53d 8284 bd3d
000000e0: 8233 b1bd 765e a63d 303e 863c 2418 363d
000000f0: b98c abbd e806 13be b91f 0b3e 405c 4f3c
00000100: 23c3 89bd 25ec 0d3e 300c f3bc 5fce 043e
00000110: 55f3 093e d05e 0cbc b6dc babd 6232 5ebd
00000120: 2cff 133d d574 06be 2480 753d 877a b9bd
00000130: 485c ffbc 2819 753d eefd a53d 389f a13c
00000140: 9313 f7bd d284 e03d 00a1 313d b2f8 8a3d
00000150: 418c 033e 20eb 573d d09a 90bc 6853 f0bc
00000160: 7a85 e03d f415 803d 206c 3bbc f359 1b3e
00000170: c039 333d 2882 dfbc 4885 86bc 3abf fa3d
00000180: 94f4 8c3d bb75 2e3e 686e b7bd d83c 693d
00000190: 7563 2bbe 2ab4 fa3d d0cf 61bd 3a93 11be
000001a0: 653a 273e b1d1 043e 81ef 2c3e 5d20 083e
000001b0: 135a cfbd 8076 323b b8a2 5d3d 8a11 cb3d
000001c0: 67a6 043e 2000 0d3d d82e 753d 6b21 093e
000001d0: 417b 2ebe ce6b af3d 9799 cdbd 2db1 053e
000001e0: a2b6 e53d a23e d93d 3fc8 343e b84a 9cbd
000001f0: 4afc a43d d90b 2f3e a92b 26be c45a 3bbd
00000200: 9391 87bd 693b 9dbd 0cef 02be 8e49 b73d
00000210: 60d5 f0bc f0dd 0ebe 9e01 f83d 6216 ff3d
00000220: 6c81 583d e4ca a5bd df26 d6bd 667c e9bd
00000230: 52de a53d 0502 20be d8c8 b6bc 809b ea3a
00000240: 977a b4bd 10b0 6d3d 0142 29be 04b6 2c3d
00000250: 97e9 1d3e ed76 d9bd f533 e6bd ec34 0e3d
00000260: 804f 383b e2bb 903d 5034 00be 80cc 48bd
00000270: 9002 41bc d905 c5bd 002f 2bbc ebc8 163e
00000280: e79d 0b3e 1c80 10be 9400 453d 28bf d53c
00000290: 6891 40bd e729 043e 0b99 203e 1d0b c2bd
000002a0: 7c5b 30be 5a3c 9c3d a0ef 313d f218 de3d
000002b0: d85c f1bc 685a 0dbe bdf6 2b3e d664 e6bd
000002c0: 7857 41bd 4065 7ebb 9536 323e 431b 1cbe
000002d0: 9730 023e ace5 48bd 1411 2e3d 1d02 2dbe
000002e0: cc72 303d 3523 2bbe 2a06 e33d 9e35 833d
000002f0: 243f 87bd 7625 7bbd 8ae5 db3d 98e7 ddbc
00000300: 8076 023c f01d ae3c f6a4 b53d 10ec ac3c
00000310: 503c 2f3d 821b c33d 91ad 313e 38f2 1ebd
00000320: 868c 00be 2439 8b3d 002e 10ba 278b 2f3e
00000330: 44da 8d3d f4db 5e3d b679 b43d ecd2 29be
00000340: 00de 8139 714f 2cbe 0399 103e b32d 91bd
00000350: eac5 0bbe 1428 28bd 18b1 f73c 7a85 d13d
00000360: 685c 073d 807f 993c ab86 ffbd d996 aebd
00000370: 5c43 4c3d 5b32 12be 0335 2c3e 93fc 033e
00000380: a5f9 133e fe70 03be 7545 143e 50ae a53c
00000390: e8bb 703d a51b 243e 4a0b 943d 34b3 6dbd
000003a0: c1a5 213e ada4 0c3e 7bb9 16be 0944 81bd
000003b0: b70b 09be 69ab 003e a1c3 203e 0a30 cd3d
000003c0: 5428 bbbd 40cc b4bc 6dfd 2f3e f80a e3bc
000003d0: 696c 093e 9b10 173e b4a2 053d 5037 793d
000003e0: 9149 c7bd bc32 19bd ecac f0bd 45e7 213e
000003f0: 3dfb 013e ef60 193e fa5e dd3d aaa4 12be
-0.0023910105 -0.044851303 -0.06278563 -0.026948825 0.0037486702 -0.1155097 0.12501545 0.049036473
-0.018620461 0.016471535 -0.049014807 -0.029913932 0.12552021 -0.007063791 0.09415038 -0.11014782
-0.17002483 0.11108704 0.052699864 -0.16582656 0.10816841 -0.089342974 0.0015819222 0.16958149
-0.14892834 0.15428413 0.14595346 0.040477112 -0.08235355 0.05849743 0.12195335 -0.08054273
0.12133853 0.02637504 0.13144098 -0.11079479 0.1547892 -0.04058166 -0.05506216 0.1372114
0.08730219 -0.16807318 -0.10109489 -0.12734616 -0.030397132 0.045776665 -0.08655941 -0.036667377
-0.114377946 0.008357555 0.021447748 -0.1333898 0.11313535 -0.13713966 0.088747874 0.092537895
-0.086524025 0.08123486 0.016387075 0.044456616 -0.0837645 -0.14358103 0.1358632 0.012656271
-0.067266725 0.13859613 -0.029668897 0.1296935 0.1347173 -0.008567527 -0.091241285 -0.054247268
0.036132023 -0.13130505 0.059936658 -0.09056573 -0.031171933 0.059838444 0.08105074 0.019729242
-0.1206428 0.109628335 0.043366432 0.06785716 0.12846471 0.052714467 -0.017651945 -0.029336646
0.10962959 0.06254187 -0.011439353 0.15171032 0.043756247 -0.027283743 -0.016420975 0.12243505
0.06882587 0.17037098 -0.08956605 0.05694279 -0.16737159 0.12241395 -0.055129826 -0.14216319
0.1633087 0.12970616 0.16888238 0.13293596 -0.10124602 0.0027231276 0.05411026 0.09915455
0.12954102 0.034423947 0.059859127 0.13391654 -0.17039205 0.08565484 -0.100390606 0.13055868
0.11216475 0.106076494 0.17654513 -0.07631439 0.08055933 0.17094363 -0.16227593 -0.045740858
-0.06619563 -0.07677347 -0.12786502 0.08949576 -0.02939862 -0.1395185 0.121096835 0.12455441
0.0528578 -0.08095339 -0.10456633 -0.1140068 0.08099045 -0.1562577 -0.022312567 0.0017899126
-0.08812445 0.058029234 -0.16529085 0.04216577 0.15421139 -0.106183864 -0.11240379 0.03471844
0.0028123558 0.07067086 -0.12519956 -0.04902315 -0.011780396 -0.09620256 -0.010448217 0.14725082
0.13634454 -0.1411137 0.048096254 0.026092127 -0.04701367 0.1290661 0.15683381 -0.09474776
-0.17222399 0.07628699 0.043441415 0.10844602 -0.029463217 -0.13804018 0.16793342 -0.11249702
-0.047202557 -0.0038817674 0.17403634 -0.15244775 0.12713848 -0.049047157 0.042496756 -0.16895337
0.04307823 -0.16712649 0.1108516 0.06406711 -0.0660384 -0.061315022 0.107371405 -0.027087972
0.007962823 0.02125451 0.088693544 0.021108657 0.042782128 0.09526731 0.17351367 -0.038805217
-0.12553605 0.06798008 -0.00055000186 0.17142926 0.069263965 0.054408982 0.08812277 -0.16584367
0.000247702 -0.1682718 0.1412087 -0.070887946 -0.13649717 -0.041053846 0.030235812 0.10230537
0.03304711 0.018737555 -0.12476858 -0.08524866 0.049868926 -0.14277022 0.16817097 0.12889318
0.144507 -0.12836072 0.14479621 0.02022472 0.05877295 0.1602617 0.07228716 -0.05803223
0.15785886 0.13734694 -0.14719193 -0.06311805 -0.13383375 0.12565388 0.15699627 0.10018928
-0.09138551 -0.02207005 0.17186518 -0.027715191 0.13420261 0.14752428 0.03262587 0.060843766
-0.097308286 -0.0374019 -0.11751732 0.15810879 0.12693496 0.14978383 0.10809131 -0.14320627

onnx::GRU_107 f4 [1, 192]
00000000: 0022 aebb eb5c 0ebe c610 a73d 3797 133e
00000010: a8a5 873c 203d 803c e256 04be 40e1 53bd
00000020: b019 323c c83f e6bd 5e0d a73d 422c c13d
00000030: d176 2b3e 9ada ff3d 9274 96bd e00d fa3c
00000040: 4295 9fbd 104f 66bc 20b6 7dbd ba2a 9a3d
00000050: be73 b5bd dfb2 01be 20b0 b93b bea8 f2bd
00000060: 1080 3ebc da5c a2bd 1d64 2b3e 097d 05be
00000070: 4eea db3d 00e0 203c 30e0 cebc 4ca9 bdbd
00000080: 38fd 04bd a350 113e 26da 24be 165f a8bd
00000090: 1aa9 b4bd bb8e 333e 4044 5b3c 903f 87bc
000000a0: 50ad 8a3c 05fc 29be de03 b3bd b553 173e
000000b0: 77e7 c2bd b828 183d d417 393d 7435 323d
000000c0: 2062 a9bb 6920 c5bd 434d eebd f6e9 ee3d
000000d0: c547 0abe d8b5 653d 0e1e d8bd 9e63 c43d
000000e0: e535 123e 78b1 ec3c 0011 bebd 6888 bf3c
000000f0: c0db 8cbc 9215 c73d 0760 dcbd 7103 073e
00000100: 5b26 0cbe 554e eebd 734b f0bd 6238 f6bd
00000110: 4359 083e 339c a7bd 1011 80bd cc1d 62bd
00000120: 49f6 243e 6d75 c3bd 583f 2d3d baa5 c93d
00000130: 68b8 983c 6e56 a73d 687b 93bc decf ca3d
00000140: 1747 083e 9a80 eb3d 58f5 873c 55d4 083e
00000150: 2650 e3bd a084 953d 1e46 b63d c02e 943d
00000160: a80c 34be faec d83d b8cc 21bd 523f d53d
00000170: 41dd 19be 003d 2ebc b36c 88bd 001c aebd
00000180: 8c30 4dbd 906b 10bd 698b bbbd 68b2 f8bc
00000190: 6855 913c 7b39 27be a97d f5bd 4878 493d
000001a0: 1f45 8fbd 38f1 493d 9be9 24be d875 963c
000001b0: 8698 dc3d 7829 43bd 1865 dbbd 7d45 293e
000001c0: 92fd bcbd 4e14 d63d ce2b 8a3d 0884 673d
000001d0: 50c5 22bd 66f2 e9bd 0771 093e 027b c43d
000001e0: 01e8 a3bd b0ff 1ebc ae90 11be 5557 173e
000001f0: b8dd 19bd 9d55 e8bd 41c8 003e a0b1 81bd
00000200: db8f 2c3e 3080 013d d5af 123e 09c9 1a3e
00000210: 826a d13d e8d6 443d d672 0bbe 2d37 85bd
00000220: 2cc6 803d cea1 a93d ea10 25be 3bee 0e3e
00000230: f00b 483c b26f 853d 1547 0c3e 8cd2 403d
00000240: e21d bf3d ca01 813d c063 e93c d05f 66bc
00000250: 746f b8bd 024e b53d 5e24 c23d 4028 98bc
00000260: 8d26 2e3e 006a 893a 1873 d4bd bcb7 d7bd
00000270: 18ef 0ebe df3f 063e 942d 8e3d 0089 f73b
00000280: b911 97bd b892 b4bc c040 20bd ea20 8fbd
00000290: d81b f6bc c8e0 8f3c 8d3a 2b3e f8df ba3c
000002a0: 9dcb f2bd f85c f33c 870f 19be 505d 643d
000002b0: bb97 0ebe 9e01 f93d 928e a03d f06b 853c
000002c0: dc0b 71bd d2c9 b73d 6e12 aa3d 80aa dfbb
000002d0: abf0 07be 0867 1cbd 1a95 a43d 86fe d5bd
000002e0: f836 36bd 11f9 adbd fee0 a03d 0ebe e93d
000002f0: ce68 c03d 998a 003e 8f51 19be ecbf 2abd
-0.0053141117 -0.13902633 0.08157496 0.14413153 0.016558483 0.015654147 -0.12923768 -0.051728487
0.010870382 -0.11242634 0.081568465 0.0943227 0.16744544 0.12492867 -0.07346453 0.030524194
-0.077921405 -0.014056936 -0.061941266 0.07527681 -0.08859967 -0.1266589 0.0056667477 -0.11848591
-0.011627212 -0.07927866 0.16737409 -0.13035978 0.107380494 0.009819031 -0.025253385 -0.092608064
-0.03246805 0.14190917 -0.16098842 -0.08221261 -0.08821316 0.17534916 0.013382971 -0.016509801
0.016928345 -0.16600044 -0.08740972 0.14778025 -0.09516805 0.037148207 0.04518874 0.043508008
-0.005169168 -0.09625322 -0.1163583 0.11665718 -0.1350394 0.056081623 -0.105526075 0.09589313
0.14278372 0.028893217 -0.09280586 0.023380473 -0.017194629 0.09720911 -0.10760503 0.13184907
-0.13686506 -0.116360344 -0.11733141 -0.12022473 0.133153 -0.081840895 -0.062532544 -0.055204198
0.16109575 -0.095438816 0.042296737 0.09846063 0.01864262 0.08170782 -0.01800318 0.09902929
0.13308369 0.11499138 0.016596481 0.13362248 -0.110992715 0.07300687 0.089000925 0.07235479
-0.17582953 0.10592075 -0.039501876 0.10412468 -0.15025808 -0.010634661 -0.06661358 -0.08501434
-0.050095126 -0.03525883 -0.0915745 -0.030358508 0.01774092 -0.16330521 -0.119868584 0.049186975
-0.06995606 0.04930231 -0.16104738 0.01836674 0.10771279 -0.04764697 -0.107126415 0.16530414
-0.09228052 0.104530916 0.06746636 0.0565224 -0.039738953 -0.11423187 0.13422023 0.095937744
-0.080032356 -0.009704515 -0.14215347 0.14779408 -0.037564963 -0.113444544 0.12576391 -0.063327074
0.16851752 0.03161639 0.14324887 0.15115751 0.10225393 0.048056513 -0.13618025 -0.065046646
0.06287798 0.08282815 -0.16119733 0.13958065 0.012209877 0.06515445 0.1369899 0.047075793
0.093318716 0.06299169 0.028489947 -0.014060929 -0.09005633 0.088527694 0.09479593 -0.01857388
0.17006893 0.0010483861 -0.10373515 -0.105330914 -0.13958395 0.13110302 0.06942287 0.0075541735
-0.07376427 -0.022042617 -0.03912425 -0.069887 -0.030042574 0.017563239 0.16721554 0.022811875
-0.118552424 0.029707417 -0.1494733 0.055753052 -0.13925068 0.121585116 0.07839693 0.01628682
-0.0588492 0.08974041 0.083042964 -0.006825745 -0.13275401 -0.038184196 0.08036251 -0.10448937
-0.044486016 -0.08494771 0.07855414 0.11413203 0.0939499 0.12552871 -0.14972518 -0.041686937
