project/onnx_models/GRU/KOSPI.onnx (onnx, 171894 bytes, 9 tensors)

gru.weight_ih_l0 f4 [192, 5]
00000000: a09c e63c fcfb 3f3d 4488 38bd d437 39bd
00000010: 881e eabd 4078 8cbd 805c ed3b 6076 f3bd
00000020: e0be 88bb 0476 5bbd 545e d4bd b882 913c
00000030: 28b1 e83d b8cb 7fbd f4e9 14bd 32bd e03d
00000040: d8d5 a6bc 00b7 2a3a 28a4 82bd ecf0 0b3d
00000050: 18fa 87bd 340c a6bd c4ab cb3d 9866 ca3d
00000060: a075 db3b d8f3 f1bc d8e9 24bd 925f 98bd
00000070: 7ca3 50bd d07d 10bd c0e2 debc 260a ac3d
00000080: ee29 e23d 8802 83bc c63b c1bd 4a76 f6bd
00000090: 0019 513d 8455 0e3d 0ec2 bebd 8002 dcbd
000000a0: 5c24 8abd 2063 5f3c 60f3 313c 2a5a f13d
000000b0: 6ee8 babd 7e24 a33d 560d eebd ac4e 68bd
000000c0: 08df d9bd c033 cbbd e879 223d d0ac 69bd
000000d0: 9663 d8bd 3822 713d 2018 22bd a088 a8bc
000000e0: a88d c3bc ba8c bebd 2616 95bd 1003 0a3c
000000f0: d27d 9e3d 4067 733b 2e8e ed3d 3097 a2bc
00000100: 58d7 383d 38ec ab3d 6a53 acbd 18e6 f33d
00000110: b20e fabd 4822 eebd 4896 61bd 0cdb f0bd
00000120: ec23 e33d 265f 943d 7c48 98bd 4819 343d
00000130: 545e 22bd 90f6 26bd 640f 3bbd fe28 923d
00000140: 1c99 90bd 9c85 8dbd 02e6 a4bd 62fe 913d
00000150: b08e ac3d e0b5 6f3c b06c 04bd d427 5d3d
00000160: a0fd e43c f4b3 67bd 684a d0bc 7295 bebd
00000170: 00dc dcb9 3e7b aabd e292 a1bd 600b 423c
00000180: 0031 233d a0f1 a73d e08a e83d 902c 093c
00000190: 7aa9 ebbd ba83 893d 7442 1d3d d0ec 00bc
000001a0: 4a73 833d dc83 b0bd 6025 853c 2c86 c93d
000001b0: aad7 ddbd 588b ee3d 90ec a73d dee9 92bd
000001c0: 0472 e1bd 4c09 833d 7ccd bebd def1 83bd
000001d0: ccc3 c33d 2a87 a33d 5881 d2bc b20f e5bd
000001e0: c881 863c fe9d f4bd f4dd aabd 5ce9 373d
000001f0: 40eb 403d d849 d33d 505c 4abd e065 a9bd
00000200: b45a 69bd 789f ddbd 70e5 423c daf4 9fbd
00000210: 6e82 eebd bcd4 a4bd e4a5 c4bd d4d7 a73d
00000220: 38fe c9bc bca5 04bd e041 243d 50cc 47bc
00000230: 3250 f23d eca7 ebbd 603b 14bd e049 263c
00000240: 243d 41bd 6cd1 bd3d 8088 823c 180c 013d
00000250: b44f 473d d8d8 9d3d f4fa 34bd 54a0 4bbd
00000260: 90b8 7b3d 3833 2fbd aab5 a3bd caf7 bdbd
00000270: 04fe 5f3d e0f2 75bd 90f2 d6bd 060e f63d
00000280: 2ac5 bd3d e0ad c7bd 62f4 bbbd 20fe c23b
00000290: 60fc 4b3c 5846 dfbc 722e efbd 70d0 3f3c
000002a0: 00f2 0f3b 805e 1abd debe f7bd f851 793d
000002b0: d0c5 ec3c 6cb5 1c3d c073 46bb ac6b 6d3d
000002c0: c0be 70bc e091 b7bd 9083 adbc dc1b 653d
000002d0: 02b5 85bd d0c6 953c 224c ca3d 9899 593d
000002e0: 980a 493d 8477 23bd c053 ed3c 80e7 a53b
000002f0: e88e c43d b03e f83d 36d6 e43d 2eb2 d13d
00000300: 2095 e4bc 58a3 903c ca27 d2bd 4028 563c
00000310: d048 77bc 5673 893d 3c24 bebd 6af0 83bd
00000320: 30a7 62bd 502a d23c f602 87bd e0f0 d6bc
00000330: 789a 6e3d c02a 163b 7068 9bbd c877 c9bd
00000340: 2c43 ba3d 4213 9d3d 6c80 993d 9ccc 53bd
00000350: de19 963d 80db f53c dc9a 123d 8aa2 8a3d
00000360: 92f3 d1bd a088 86bd 506c 693c f82a 99bc
00000370: ec3b 233d 24bf 1cbd 6aab ebbd 6ef2 b4bd
00000380: de62 91bd 3005 80bd 0e86 ea3d d601 f83d
00000390: c859 c4bc 20a2 1f3d 60f5 423c 3005 6a3c
000003a0: e05b 0c3c 0090 e8ba f0dd ad3c d28b e03d
000003b0: a089 02bc a8f8 8abc f006 393c 0061 e7ba
000003c0: c0e5 263d 00bd edbc 00e8 f0bd 54e2 723d
000003d0: 1a9b 923d dabf 873d 18d2 8f3d 44c1 223d
000003e0: c0f1 de3b 8aab ae3d 201e a53d f872 a83d
000003f0: fcd9 653d bc3b 97bd 98f5 9abd 8ad0 b2bd
0.028150856 0.04687117 -0.045051828 -0.045219257 -0.114316046 -0.06858873 0.007243693 -0.118878126
-0.0041731447 -0.053579345 -0.10369554 0.017762527 0.11361915 -0.06245014 -0.036355928 0.10973586
-0.02036564 0.00065122545 -0.063789666 0.034165308 -0.066394985 -0.08107796 0.09944871 0.098828495
0.0066973716 -0.02953522 -0.040262073 -0.074401036 -0.05093716 -0.035276234 -0.027207732 0.08400373
0.11043154 -0.015992418 -0.09435229 -0.120342806 0.051049232 0.034749523 -0.09314357 -0.10742664
-0.06745216 0.013634473 0.010861248 0.117847756 -0.09126364 0.07965945 -0.116236374 -0.056715652
-0.10638243 -0.0992198 0.03966704 -0.057049572 -0.105658695 0.058870524 -0.03957379 -0.02057296
-0.023871258 -0.09304185 -0.07279615 0.008423582 0.07738842 0.00371404 0.11599384 -0.019847482
0.045127243 0.083946645 -0.084143475 0.11909121 -0.12209834 -0.116276324 -0.05507496 -0.1176053
0.11090836 0.072447106 -0.074357 0.043969423 -0.03964074 -0.040762484 -0.045668975 0.07136725
-0.07060453 -0.069102496 -0.08051683 0.07128598 0.08425653 0.014630765 -0.032330215 0.05399306
0.02795297 -0.0565681 -0.025426105 -0.09305848 -0.00042125583 -0.08324288 -0.07889344 0.011843532
0.039841652 0.08200383 0.11354613 0.008372441 -0.115069345 0.06714578 0.038393453 -0.0078689605
0.06418474 -0.086189 0.016253173 0.098400444 -0.1083215 0.116476715 0.081994176 -0.07173513
-0.11008075 0.063982576 -0.09316537 -0.06442617 0.0955883 0.07984765 -0.025696442 -0.11184634
0.016419306 -0.11944197 -0.083431154 0.044900283 0.047099352 0.10316819 -0.049404442 -0.08271384
-0.056971267 -0.10821432 0.0118955225 -0.078103736 -0.11645971 -0.08048388 -0.096019536 0.08195463
-0.024657354 -0.03238462 0.040101886 -0.012194708 0.11831702 -0.11506638 -0.036189437 0.010149449
-0.04717745 0.0926846 0.015934229 0.031505674 0.048659995 0.07707375 -0.04418464 -0.049713448
0.06145531 -0.042773455 -0.07993634 -0.09275778 0.054685608 -0.060046077 -0.10495484 0.120143935
0.09266122 -0.09749961 -0.09177472 0.005950704 0.012450308 -0.027255222 -0.116787806 0.01170741
0.0021964312 -0.03768778 -0.12096952 0.060869187 0.028902918 0.038258955 -0.0030281395 0.057964012
-0.014693916 -0.0896337 -0.021180898 0.055934772 -0.06528665 0.018283278 0.098778024 0.053124994
0.04908237 -0.0399089 0.0289706 0.0050629973 0.0959757 0.12121332 0.1117367 0.10239063
-0.02790314 0.017656013 -0.102614954 0.01307112 -0.015093043 0.06711452 -0.09284255 -0.0644234
-0.055335224 0.025654942 -0.06592362 -0.026237905 0.05825278 0.0022913665 -0.07588279 -0.098372996
0.09094843 0.07669689 0.07495198 -0.051708803 0.073291525 0.030011892 0.035792217 0.06769283
-0.102515355 -0.06569028 0.014247015 -0.018697247 0.039852068 -0.038268223 -0.11507304 -0.08835302
-0.070989355 -0.062509894 0.1145135 0.12109725 -0.023968592 0.038972974 0.011899322 0.014283463
0.008566827 -0.0017743111 0.021223992 0.109641686 -0.007967383 -0.016964272 0.011293158 -0.001765281
0.04074645 -0.029020786 -0.117630005 0.059297875 0.071584895 0.0662839 0.07022494 0.039735094
0.006803721 0.08528812 0.080623865 0.082250535 0.05611609 -0.0738444 -0.075663745 -0.08731182

gru.weight_hh_l0 f4 [192, 64]
00000000: 904b f53d b692 97bd c045 17bd 9a92 853d
00000010: 5e27 a93d c831 613d 983b 423d bab7 ae3d
00000020: ea88 edbd d494 c33d 38c6 38bd 0877 bfbc
00000030: 58d2 d7bd 72ac a33d 2036 5c3c de08 af3d
00000040: 7033 43bc 0085 daba 4897 fbbc e8f4 c43c
00000050: 7415 383d 8cb0 9b3d 5201 eabd d66d ad3d
00000060: 9caa 223d 5058 f6bd 3650 a03d 5055 52bc
00000070: 34c0 95bd 6031 82bd f096 adbd c4f2 2d3d
00000080: 0073 113d 0018 c639 147c 58bd 284a aabd
00000090: ec9d 833d a4e6 f83d 10e3 443c 128d ae3d
000000a0: 484e a0bc b4f6 ee3d 30da d63c 9a90 9bbd
000000b0: 726d b8bd eab9 d6bd d02c 163d b833 a33c
000000c0: f09b aabc e007 b1bd 06fb c63d 30cc cebc
000000d0: e047 8abb 2086 173c 0216 b0bd 38b8 e23c
000000e0: cc8b 753d 4024 803d b85e bf3d eca7 e0bd
000000f0: e02f 703c 30a9 0dbd 6c10 483d 7e15 9ebd
00000100: 96dc 8abd 1ce1 7b3d 78b3 a8bd a838 b6bd
00000110: b837 fa3c e4bd 033d 0063 12ba a00c 5bbc
00000120: c08f 223c e64f ac3d 8cd1 283d e0d4 dbbc
00000130: d8d7 62bd 544e 2a3d 36e3 ddbd 26a8 8e3d
00000140: ba9b 8fbd c022 1a3b 4062 b4bd 46d9 f5bd
00000150: 300a 463d d03d 463c e2df da3d 20e3 d5bc
00000160: 2058 7dbc 7a95 cf3d d005 bb3c 7cba a73d
00000170: b0b7 e63c 909f e43d 182d 8abd d289 eabd
00000180: 5021 913d 94aa b83d 96e9 b2bd 2895 e23d
00000190: c837 b23d 98e7 f2bd f861 093d b429 16bd
000001a0: 80f4 7e3d 2084 f13d 6859 843c 565c f43d
000001b0: 10e3 5c3d 78f4 fb3c 1ca2 d93d 284e f0bc
000001c0: 84ca 163d 60c7 39bd 401e 283b 1858 4b3d
000001d0: f06d b0bd f286 cd3d c4da d6bd 2890 fbbd
000001e0: 6ee3 db3d 20bb 65bc 2407 bcbd 405c 633d
000001f0: fef5 e33d f087 c1bc 3216 c8bd e0be d7bd
00000200: 6c2a 633d 640f 833d d8bf fbbc 001b d63c
00000210: 8093 993c e84d 5abd 80f0 bfbb a019 4dbc
00000220: 5c05 f93d e044 c0bc 006d 07bd f8b8 643d
00000230: f219 f23d de73 fa3d 9c2a b03d 06c2 8ebd
00000240: 6005 003c 68e4 d93d bc58 b03d 7406 0cbd
00000250: ee69 a4bd 32af b33d 2863 a8bc 789a 2bbd
00000260: 5055 5d3c b027 e9bc e8c8 3c3d 7adb 973d
00000270: 0ce0 eb3d e8c9 43bd a469 9dbd ecd4 80bd
00000280: 50d1 ce3d d8bf ab3c 98ae 413d 7c94 44bd
00000290: e09f 9b3d 9020 d7bd 469e 813d b0c5 be3c
000002a0: 00cd da3b 6079 f5bb 7046 13bc bc39 433d
000002b0: 2c54 28bd 706a 713c 7851 0cbd 5046 76bd
000002c0: c240 863d 407d f13c 907e bb3c 60df c83d
000002d0: ec9b 6c3d c005 84bc 4617 923d f6c4 e7bd
000002e0: 04b7 c0bd f20f eb3d 3492 f23d 1cfe 76bd
000002f0: 4808 e2bc 68a4 923d 8e2a acbd de5f 97bd
00000300: 628a b6bd 9871 ea3c b099 3ebd 38d5 143d
00000310: b069 d6bc 2003 4abc 00c7 cbbc 4c4d 1f3d
00000320: 64f0 2ebd c8a8 093d a098 a1bb 2ec3 ddbd
00000330: a42f 90bd d4d1 3e3d b482 c1bd 9c47 e1bd
00000340: 4035 bebc 40f5 213c 081a cb3c 86d6 d0bd
00000350: 4601 c43d 0288 d43d be2c aebd 26ce 913d
00000360: 04bc 5dbd aa92 8ebd 4c04 75bd 5685 c23d
00000370: 525a f03d 6aef f5bd 44c6 143d 3633 ff3d
00000380: 4e3f db3d a041 d43b a8dd b43c e04c 75bc
00000390: 802c 62bb c2c3 ff3d 005a 83b9 f001 83bd
000003a0: 72b1 91bd f097 09bc 20a0 5cbc 180a 4f3d
000003b0: 16ac aa3d 98a6 6cbd f49e 4c3d a0c5 d4bd
000003c0: 94b2 603d 5e84 9c3d 9012 353d b0e9 01bc
000003d0: 8841 1bbd c098 3bbc 18b1 e33d 280d fdbc
000003e0: 3ea6 9bbd 28b8 97bc 127d e03d eccb ea3d
000003f0: 404f 143d b092 8bbd aa5a af3d 04b9 01bd
0.11977303 -0.0740103 -0.036931753 0.06522103 0.08259462 0.054979116 0.047420114 0.08531137
-0.1159838 0.09549871 -0.04511091 -0.023372188 -0.10538167 0.07991876 0.013440639 0.08546613
-0.011914119 -0.0016671717 -0.030711785 0.024042562 0.044942334 0.07602033 -0.11426033 0.08468215
0.039713487 -0.12028563 0.07827799 -0.012837723 -0.073120505 -0.06357074 -0.08476055 0.042467847
0.035510063 0.00037783384 -0.052852705 -0.083149254 0.064266056 0.12153366 0.012017027 0.08523001
-0.019568577 0.11668149 0.026227087 -0.0759594 -0.0900525 -0.10484679 0.03666383 0.019922122
-0.02082631 -0.0864408 0.09715848 -0.025243849 -0.004219994 0.0092482865 -0.08597948 0.027675733
0.059947774 0.06256914 0.09344238 -0.109695286 0.014659852 -0.034585178 0.048843786 -0.07718943
-0.06780355 0.061493978 -0.08237356 -0.08897525 0.030544147 0.032163516 -0.000558421 -0.013369709
0.009921968 0.08413677 0.041215464 -0.026834905 -0.055381626 0.041578606 -0.10834353 0.069656655
-0.07012124 0.0023519248 -0.08807802 -0.12004332 0.04834956 0.012099698 0.106872335 -0.026109278
-0.015462905 0.10135932 0.02282992 0.08189866 0.02816376 0.11163247 -0.06746882 -0.114520684
0.07086432 0.0901691 -0.08735959 0.110636055 0.08702046 -0.11860579 0.033540696 -0.036660865
0.062244892 0.11792779 0.016155913 0.11931674 0.05392748 0.03075622 0.10626623 -0.029334143
0.036814228 -0.045356154 0.0025652796 0.04964456 -0.08614719 0.100355044 -0.10490945 -0.12283355
0.10736738 -0.014021665 -0.091810495 0.0555079 0.11130904 -0.02362439 -0.097698584 -0.105344534
0.05546038 0.0639942 -0.030731127 0.026135921 0.018747091 -0.053296953 -0.0058575273 -0.0125183165
0.12159225 -0.023470342 -0.033062935 0.055840462 0.11821355 0.12229131 0.08601877 -0.06970601
0.0078137815 0.10639268 0.08610675 -0.03418584 -0.08028017 0.0877365 -0.020555094 -0.04189536
0.01350911 -0.028461307 0.046090037 0.07414909 0.11517343 -0.047799975 -0.07686165 -0.062906116
0.10098517 0.020965502 0.047285646 -0.04799317 0.07598853 -0.10504258 0.063290164 0.023287624
0.00667727 -0.0074912757 -0.008988962 0.04766248 -0.041095898 0.014734849 -0.034257382 -0.06012565
0.0655532 0.02947867 0.022887498 0.098082304 0.057765886 -0.016116023 0.07133345 -0.11316864
-0.094099075 0.11477651 0.11844292 -0.06030093 -0.02759184 0.07160264 -0.08406554 -0.07391332
-0.08913113 0.028618619 -0.046533287 0.036336154 -0.026173443 -0.012329847 -0.024875164 0.038892075
-0.042709723 0.033608228 -0.0049315244 -0.10828243 -0.07040337 0.046586826 -0.09448758 -0.109999865
-0.023218751 0.009885132 0.024792686 -0.10197167 0.095705554 0.10377504 -0.08504628 0.07119398
-0.054134384 -0.06961568 -0.05981855 0.09498088 0.11735977 -0.12008555 0.036321893 0.124609396
0.10705434 0.0064775497 0.02207835 -0.014971942 -0.0034511387 0.1248851 -0.00025053322 -0.06396854
-0.07113923 -0.008398041 -0.013465911 0.050546736 0.08333604 -0.057776064 0.049956277 -0.103892565
0.054857805 0.076424345 0.044207156 -0.007929251 -0.037904292 -0.011449993 0.11117762 -0.030890062
-0.076000676 -0.01852043 0.10961355 0.11464676 0.03620839 -0.06815088 0.08562215 -0.031670585

gru.bias_ih_l0 f4 [192]
00000000: e0aa 67bd 804e 5a3d a45f f13d 5879 cfbd
00000010: c223 9c3d 3c6d 82bd 9e77 fdbd 5c2a 7cbd
00000020: 58f1 e5bd 50c8 e8bc 4876 11bd e45f 0d3d
00000030: 4ad9 e2bd f002 4e3c de80 a2bd 60f5 c63d
00000040: e202 cb3d cab0 bf3d f42f e53d d6f4 86bd
00000050: d0fb 293c 2899 33bd 6247 f0bd 3c6d acbd
00000060: 68a3 94bc f8b3 33bd 7ecf 9f3d f4e4 a4bd
00000070: 884f 943d 745d 71bd 9255 903d 0065 cf3a
00000080: 9ebc e93d 7861 e1bd d403 44bd d04f ce3c
00000090: 788b d43d e406 aa3d 28ee b63c 1cf2 93bd
000000a0: 2a7c a7bd 380d cd3c 98ce b8bd 986f 583d
000000b0: 6872 b23d 8018 4f3c aa67 e53d 8092 dd3b
000000c0: d069 c4bc 9ed3 94bd 802f bdbd 2cfb f0bd
000000d0: 0848 1abd dadd f23d 1851 ddbc 3e30 f1bd
000000e0: 2207 a63d f855 87bc a61e c73d d215 bdbd
000000f0: 7015 e5bc 1849 ae3c f080 67bd b04c e0bc
00000100: c82c c13d 1e7b 85bd ccca 303d 04f9 4e3d
00000110: 7801 5ebd dca4 a53d 0804 fbbd bedf dbbd
00000120: acf5 1bbd bc30 413d f050 213d 888e aabc
00000130: 3af1 a6bd 6462 443d e027 c13b a42e 6cbd
00000140: d4a6 3e3d 58f2 bb3d 784e e9bd a885 ec3c
00000150: f017 6cbd b097 12bc d035 5c3c 541a ba3d
00000160: 50f7 4d3c 4c98 1cbd 804d bdbc 58e2 77bd
00000170: fc8c c3bd 7006 20bc 7288 8cbd 4c34 ccbd
00000180: 8841 c83d a01f 85bc 004a 83bc e02a e9bc
00000190: 60af 693c c0f8 efbd ec73 cc3d c0cf d4bc
000001a0: 0436 42bd ac55 c9bd 8eeb d03d 9680 b93d
000001b0: f887 8c3c 24e2 e03d f050 97bc a89d 193d
000001c0: f887 ab3d a09f b33b a879 3c3d 706d 67bd
000001d0: 2660 c1bd 406c 4cbd e48e a1bd 7257 b8bd
000001e0: 20ba c0bd 402a aebb d08e bdbd 6c62 263d
000001f0: 4040 da3d 948b 13bd 5e71 81bd a8eb 1bbd
00000200: 700e a1bd 7470 5c3d 8ed0 c83d 4064 9fbc
00000210: 283c 2c3d 16cc ffbd f4ad 703d 388b 933c
00000220: 7eb8 903d 7682 d93d 784e 9d3d 28b5 343d
00000230: f8f2 4c3d 4ec9 9dbd 809a 7b3c f0b5 2a3c
00000240: 5427 e53d 6a00 933d 407f ac3b b078 833c
00000250: 00e1 703a d4f0 bdbd bce8 343d ec40 aabd
00000260: 5851 55bd 2602 a53d 7456 7b3d 8075 b1bb
00000270: 90d7 e2bc d01e 3d3c c220 ffbd 00ee 45ba
00000280: 3842 e8bc 4cf0 e83d b48c d3bd 0038 2739
00000290: c0fc 7fbc a899 ddbc fe70 90bd 742a dabd
000002a0: 82db e43d b0cf f5bd 9021 fdbd c6e9 e23d
000002b0: d889 11bd 808e d3bd 20a5 abbb e8af 89bc
000002c0: ead6 e5bd 724c e73d eeb8 bfbd b01f eabc
000002d0: 70d4 22bd 5684 a63d a034 7b3c c6c0 92bd
000002e0: fa4b e9bd aeb3 dd3d e028 9cbd 20e3 9cbb
000002f0: feff bcbd 10eb b73c a45b 49bd 383e ba3c
-0.056559443 0.05329752 0.1178582 -0.10130566 0.07624008 -0.06368491 -0.12376331 -0.061563835
-0.11227673 -0.028415829 -0.035513192 0.034515277 -0.11076601 0.012573943 -0.07934736 0.0971477
0.09912659 0.09359892 0.11190787 -0.065896675 0.010374978 -0.043847233 -0.11732365 -0.08419272
-0.018144324 -0.043872803 0.07803248 -0.08051482 0.07241732 -0.058927014 0.07047571 0.0015822947
0.11412929 -0.11004919 -0.047855213 0.025184542 0.10378164 0.083020955 0.022330359 -0.07223913
-0.08177979 0.025030717 -0.0902378 0.0528408 0.087132275 0.012640119 0.11201413 0.006761849
-0.023976237 -0.07266925 -0.092375755 -0.11766657 -0.03766635 0.11858721 -0.027016208 -0.117767796
0.08106829 -0.016520485 0.097226426 -0.092326775 -0.027964324 0.021275088 -0.05651945 -0.027380317
0.094323695 -0.06517623 0.043162152 0.05053045 -0.05420062 0.08088085 -0.12256628 -0.10736035
-0.038076088 0.047165617 0.03938383 -0.020819917 -0.08151479 0.047945395 0.005894646 -0.057661667
0.04654582 0.09177083 -0.1139192 0.028872326 -0.057640016 -0.008947298 0.013440564 0.09087053
0.012571171 -0.03823118 -0.023108244 -0.060518593 -0.09548375 -0.00976716 -0.068619624 -0.09970912
0.09778124 -0.016250432 -0.016026497 -0.028462827 0.014263004 -0.11717367 0.09983048 -0.02597797
-0.047414795 -0.09830794 0.102011785 0.09057729 0.017154679 0.10980633 -0.018471211 0.03750387
0.08375543 0.0054816753 0.046014458 -0.056500852 -0.09442167 -0.049907923 -0.07888582 -0.09001054
-0.094105005 -0.005315095 -0.09255755 0.040621206 0.10656786 -0.036021784 -0.06320451 -0.038066536
-0.07864082 0.05381818 0.09805404 -0.019456983 0.042049557 -0.12490098 0.058759645 0.01801072
0.07066439 0.106205866 0.07680982 0.044118077 0.0500364 -0.077044114 0.01535666 0.010419354
0.11189142 0.07177813 0.005264193 0.01604876 0.0009188801 -0.0927445 0.044167265 -0.08313164
-0.05207953 0.080570504 0.061361745 -0.0054156184 -0.027690679 0.011542991 -0.1245742 -0.00075504184
-0.028351888 0.11373958 -0.10329571 0.00015947223 -0.015624225 -0.027050808 -0.070528015 -0.106526285
0.1117468 -0.12002504 -0.12359917 0.11079745 -0.03553185 -0.10329914 -0.0052381903 -0.016807511
-0.11222632 0.11293878 -0.093614444 -0.028579563 -0.039753377 0.0813071 0.015332371 -0.07165675
-0.113914445 0.10825287 -0.07624984 -0.0047878176 -0.09228514 0.022450954 -0.04915966 0.022734746

gru.bias_hh_l0 f4 [192]
00000000: 10b1 963d 8e45 c5bd f8d3 8e3d e403 13bd
00000010: 8027 dfbc 7c6c e43d b853 593d 8093 71bb
00000020: e6f9 aebd f02c 2cbc e058 83bb fc5d 803d
00000030: f87d 22bd d043 21bc 68ca 403d d0a4 b9bc
00000040: d006 443c d44b c43d b812 92bd 28bb 67bd
00000050: f0ad 4c3d e4f9 f8bd 8a0d 87bd 4a4f d83d
00000060: 10ca dfbd 0023 903d b6fd bcbd c09f a8bd
00000070: 7608 9e3d 920f da3d 0cbf 64bd 783b cd3d
00000080: 92b9 cd3d a01c 943d 68b6 f9bd dc06 74bd
00000090: 609b 18bc d8ea 67bd 68fa abbc 6ad6 d53d
000000a0: dc73 163d 1cf0 30bd 6c0b f4bd 9ee3 d73d
000000b0: 7cea 78bd fce8 bfbd b21c b9bd a2a7 acbd
000000c0: 307d f53c b8ec 88bd b4cb 3fbd 1033 d2bd
000000d0: 10df fe3d e266 fb3d f813 c0bd 486b 51bd
000000e0: 24d7 45bd b0c4 31bd 9060 1cbd d4c5 f2bd
000000f0: 1059 4bbc 0002 c6bd e264 c03d 38c6 7f3d
00000100: 68e8 edbd 680e aabd 9c26 d8bd 268d e3bd
00000110: d0a7 65bd 60e4 51bc 6667 b63d 64f8 e53d
00000120: c8bc c8bc 08f7 f9bd 0249 fb3d 40d2 1e3b
00000130: 569d cebd 1aa6 d93d 781c b0bc 48c1 fabc
00000140: 3e05 f43d ce3e 8f3d 6a1e f0bd 9e08 f1bd
00000150: d032 a5bd 844c cdbd 96bb d13d 9c54 7fbd
00000160: 70f7 a6bc ec8c ba3d 783f 37bd a076 c63c
00000170: 2c76 01bd 180d 153d bcf0 fc3d 501a 2f3c
00000180: cc93 643d 940a 2f3d b05d 153d 3ccc 393d
00000190: 78cd 73bd 000f c53d d4fe 6fbd 3a9e c1bd
000001a0: d0d8 09bd 86bd 943d a001 bdbc 0023 193c
000001b0: 4ea1 973d 880c df3c da0c a33d 1876 afbc
000001c0: 4867 30bd 4899 98bd 582b 5abd 78a1 953c
000001d0: 203e 113c f8e3 c23d 7026 42bd 2ab3 a8bd
000001e0: 70b1 f03d 4043 36bd 2c7b 1a3d e84d 41bd
000001f0: c890 8dbc 4078 603b 92c3 b3bd c0c8 63bd
00000200: 50d5 573c 40f3 d3bb 80de 063d aad9 85bd
00000210: 4071 9fbb 48bd cfbd a8e3 a23c c49e 463d
00000220: 5862 213d acee 433d 70c0 11bc aa04 ec3d
00000230: 2887 00bd 58cf 5e3d b20c fc3d 8490 333d
00000240: 30a1 53bc 38ce e3bd 380d 063d 800a 1d3d
00000250: baa4 adbd b4f0 85bd d01d 17bd 4091 fabb
00000260: 1095 bcbc f416 84bd 12ef 983d 6c4a 18bd
00000270: c4ae 0a3d 80f6 8cbd da52 c83d 289e 883d
00000280: d08b b6bd 00cf 7f3b 00cb 5a3a 06b6 da3d
00000290: 44d2 d1bd f06d afbc 4cd4 533d c095 30bd
000002a0: d0aa 9f3d e0c1 d83b 6cf9 bbbd 30fd 073d
000002b0: 3cda bcbd fcda 4bbd dc54 89bd c411 6bbd
000002c0: 10fd a63d 6068 0d3d 8071 5ebd e0d9 debb
000002d0: b0f7 c9bd 1e25 e43d e872 a53c 9c43 73bd
000002e0: 087a 6f3d 20e5 1a3d b2ad a73d 0858 e93d
000002f0: 94ce e4bd a46c 59bd d84d c8bd 8c18 e1bd
0.07357991 -0.09632407 0.069740236 -0.035892382 -0.027240515 0.11153504 0.053058356 -0.0036861598
-0.08543758 -0.010508761 -0.0040083975 0.06267926 -0.039670914 -0.009842828 0.04706803 -0.022661597
0.011964515 0.095847756 -0.071324766 -0.05657497 0.049970567 -0.12157038 -0.06594379 0.10561998
-0.10927212 0.07037926 -0.09228079 -0.08233595 0.077164575 0.10647501 -0.05584626 0.100211084
0.1004516 0.07232022 -0.12192994 -0.059576854 -0.009314388 -0.05662045 -0.020993426 0.10441287
0.036731586 -0.043197736 -0.11916241 0.105414614 -0.060770497 -0.0937061 -0.09038676 -0.08430411
0.02996692 -0.066857755 -0.046825126 -0.10263646 0.124448895 0.12275483 -0.09378809 -0.051127702
-0.048300877 -0.043400466 -0.038178027 -0.11854139 -0.012411371 -0.0966835 0.09394242 0.062444896
-0.116165936 -0.08303529 -0.10554239 -0.11110906 -0.05606824 -0.0128107965 0.089064404 0.112290174
-0.02450408 -0.122053206 0.122697845 0.0024234205 -0.10088603 0.106273845 -0.02149795 -0.030609742
0.11915062 0.06994401 -0.11724551 -0.11769222 -0.08066332 -0.1002436 0.10240857 -0.06233655
-0.02038166 0.0910891 -0.044738263 0.024226487 -0.031606838 0.03638944 0.12350604 0.010687426
0.055805013 0.042734697 0.0364663 0.04536079 -0.059522122 0.09622002 -0.058592632 -0.094540074
-0.033654034 0.07262711 -0.023072064 0.009346724 0.07403813 0.027227655 0.079614356 -0.021418616
-0.043067247 -0.07451111 -0.053263992 0.01826547 0.008864909 0.09516138 -0.047399938 -0.08237298
0.117525935 -0.04449773 0.037715122 -0.047193438 -0.017280951 0.0034251362 -0.087775365 -0.055611372
0.013173416 -0.0064682066 0.032927036 -0.06535657 -0.0048657954 -0.101435244 0.019883946 0.048491254
0.03940043 0.047835037 -0.008895978 0.11524327 -0.031378895 0.054396957 0.12307109 0.043838993
-0.012916848 -0.111233175 0.03272745 0.03834009 -0.08478685 -0.06540051 -0.036893666 -0.0076467097
-0.023020297 -0.064496905 0.07467474 -0.03718035 0.033858076 -0.06882954 0.09781428 0.06670791
-0.08913386 0.0039033294 0.00083462894 0.106792495 -0.10245183 -0.021414727 0.051716134 -0.043111563
0.07796252 0.0066149086 -0.09178433 0.033200443 -0.092213124 -0.049769387 -0.06705639 -0.05738999
0.081537366 0.034523368 -0.05430746 -0.006800875 -0.09861696 0.11139892 0.020196393 -0.05939065
0.058465987 0.037816167 0.081874266 0.11393744 -0.11172214 -0.053082123 -0.097804725 -0.1099101

gru.weight_ih_l1 f4 [192, 64]
00000000: ac87 ae3d 9bad bcbd 2914 f7bd 2476 7bbd
00000010: 80e1 ee3b 188d 503d 3a18 4ebd b31a ec3d
00000020: e336 c23d 62d2 dfbd c823 033d 304f fe3d
00000030: e846 fd3d 5017 b93c d8e6 94bd 812b 9cbd
00000040: 9a18 ee3c 6693 c4bc 1f6c e1bd 3094 50bc
00000050: 4016 073d f57c abbd c968 b43d 56e3 803c
00000060: 8e66 9c3d 26ee 91bd 6a51 dfbd 5049 29bd
00000070: ddef df3d d845 bb3c 5c53 b6bc ecf9 a93c
00000080: c512 f9bd dc06 d43d 9060 a3bd 78df fcbc
00000090: 4ab0 af3d 539c ab3d a51f dc3d e8d9 b43c
000000a0: ba29 1a3d 3c92 e1bd 2033 a53d c0b5 713d
000000b0: f477 60bd cb3b ac3d 64d1 c9bc 760f eabd
000000c0: 5d90 013e 60d3 44bd c049 4d3b 4051 713d
000000d0: e872 fd3d 04b8 573d f60c 0ebd 857d 963d
000000e0: ea15 2bbd 8029 d8bc d82c e2bc 3452 233d
000000f0: 1e54 f5bd c812 27bd 9c1a a4bd 2936 48bd
00000100: ea65 1dbd 66fd f3bc db54 3fbd 001e e4bc
00000110: 28ac d3bc aca8 ee3d eace 423d 0261 2e3d
00000120: 488e 96bc aece d9bd e098 493d 60cd a63d
00000130: 10a4 353d f18b 35bc 3e22 cd3d 7566 d2bc
00000140: 6a36 13be c43f ea3d 3b36 fd3b f0e3 bbbd
00000150: ac65 413d 94cd 83bc 0cdd 243d 5d76 13be
00000160: 92d7 d23d b092 f13c a809 363d 32fe 87bd
00000170: 873b 6d3d 912c 383d cf2c 003b 34bb 27bd
00000180: 5e43 13bd e824 943c ebe1 b1bd 5083 b4bd
00000190: a8fe 43bd d9bb 0cbe cf97 ea3c b880 7c3d
000001a0: 2c72 d83d 8026 94ba 4e03 1c3c af84 a6bd
000001b0: 4c36 cfbd 9b1e 713d 3712 f83c d8d6 4ebd
000001c0: 7f03 1f3d 6c26 63bd f856 e0bc 0a29 c8bd
000001d0: 80ef 823a fe79 9a3d c058 8c3d c400 8fbd
000001e0: 7e06 af3d e077 61bc ec46 f73d b842 fe3d
000001f0: fe02 a0bd a496 bebd 3c52 8abb ead1 d03d
00000200: 69c2 99bd e3b5 bf3d fda3 f7bb 8e5f 0dbe
00000210: 3ce4 5c3d 782e fcbc 7784 d93b 14a9 033e
00000220: f120 11bd 34bb fdbd f475 9b3d 801c 993a
00000230: 6c12 6f3d 094b fdbd 10be f4bc 5a22 a13d
00000240: 12d3 bcbc d979 fc3d d59c 5abd 1e3a c0bd
00000250: c8d2 f13d 1db4 06be fcc5 543d 276a 943d
00000260: dacc debd bc04 fc3d 10f7 70bc 00d6 053a
00000270: 0158 ac3c 0137 e1bd a8de 02be f1dc 823d
00000280: c21f b8bd b21a be3d 90b4 a7bd 44d1 14bd
00000290: 14c7 783d 79ba f3bd 1e18 bdbc 8816 38bd
000002a0: 511b 223c 0065 86bb d3e7 003e 2900 2a3d
000002b0: 9e7e 953d 798d 66bd 16ab ae3c 3e82 b33d
000002c0: b881 1dbd 3a8b b53d 7c93 8d3d 5505 64bd
000002d0: da4e dd3d 3830 ec3d 90ac 03be 762e a43c
000002e0: 4a3e 133e b86a bfbd 7ca5 f7bd 60bb 603d
000002f0: a447 023d 84a8 37bd 1136 94bd 0b49 fb3c
00000300: 7759 82bd 6fd0 8c3d 318e 81bd 76ee 35bd
00000310: 0018 9cbd ca21 c8bd d6f5 1f3c 1230 363c
00000320: 3302 e93d 94c3 0abd f819 48bd c091 30bc
00000330: 12c3 f4bd 278a f93c c6b4 98bd bd87 9fbd
00000340: 6cc6 d03c 912b 2d3d 8561 30bb 6c98 313d
00000350: d05a d83d bd14 fbbd 354c 5a3d 07d3 a93d
00000360: 32b7 ebbd 860e abbd 2ee6 ffbd 00f8 73b9
00000370: ef91 463d 3008 92bd 7f6a 743d fcd4 603d
00000380: 0c26 c13d 509c 68bc 4b71 f7bd 2833 6a3d
00000390: 8e6e a33d 4b7b 7d3d 7b95 cbbd e479 b8bd
000003a0: 808c 973d 1857 59bd 360d 34bd 6cb1 c63d
000003b0: 3028 96bc a749 d8ba 9196 d33d aaca dc3d
000003c0: 3146 083e 4818 eabc 8087 91bc 80ee df3c
000003d0: 04ee a73d 5809 9cbd a0b6 91bd c606 fdbc
000003e0: 59b7 c7bb e62c a43d 4043 f3bc 46f3 953d
000003f0: 7063 f43d 2ce9 ed3d 9610 aebd b91d 983d
0.08521971 -0.092128 -0.12064392 -0.061391965 0.0072900653 0.050915807 -0.050316073 0.1152853
0.09483125 -0.10928799 0.032016546 0.124174476 0.1236704 0.022594124 -0.072705925 -0.07625485
0.029064465 -0.023996066 -0.110069506 -0.012730643 0.032980204 -0.08373443 0.08809049 0.015733402
0.07636748 -0.07125501 -0.109042004 -0.041329682 0.10934422 0.022860453 -0.022256546 0.020749055
-0.12161783 0.10352871 -0.07977402 -0.030868277 0.08578546 0.08379426 0.10748223 0.022076562
0.03763745 -0.1101422 0.08066392 0.05901122 -0.054801896 0.08409842 -0.024635978 -0.1142873
0.12652726 -0.048053145 0.0031324476 0.058915377 0.12375432 0.052665725 -0.03468033 0.0734816
-0.041768946 -0.026386976 -0.027609274 0.039873317 -0.11978935 -0.040789396 -0.08012888 -0.048879776
-0.03842727 -0.029783916 -0.046711784 -0.027846336 -0.025838926 0.11653265 0.04756061 0.042572983
-0.018378392 -0.10635124 0.04921806 0.08144641 0.044345915 -0.011080728 0.10016297 -0.025683621
-0.14376226 0.114379436 0.007727412 -0.09174335 0.047216102 -0.016089238 0.04024987 -0.14400621
0.10295023 0.029488891 0.044442803 -0.06640281 0.057918098 0.044964377 0.0019557958 -0.040950015
-0.03595292 0.018084005 -0.086856686 -0.08814108 -0.04785028 -0.13743533 0.028636841 0.061646193
0.105686516 -0.0011302978 0.009522272 -0.08130776 -0.10117778 0.05886708 0.030282123 -0.05049786
0.038821694 -0.055456564 -0.02738522 -0.097734526 0.000998959 0.075427994 0.06852865 -0.06982568
0.0854616 -0.013761491 0.12074074 0.12415069 -0.07813071 -0.09306076 -0.004221229 0.10196288
-0.07507784 0.09360864 -0.0075573907 -0.13805982 0.0539286 -0.030783877 0.0066381055 0.12857467
-0.035431806 -0.12389222 0.07590857 0.0011681467 0.058367178 -0.123678274 -0.029875785 0.0786788
-0.023049865 0.12327928 -0.053372223 -0.09386085 0.118077815 -0.13154645 0.051946625 0.072468095
-0.10878916 0.123055905 -0.014707342 0.0005105436 0.021038057 -0.10996819 -0.12780249 0.063897975
-0.08990432 0.092824355 -0.081887364 -0.036332384 0.06073673 -0.11900801 -0.023082789 -0.044943362
0.009894208 -0.0041013956 0.12588434 0.04150406 0.07299541 -0.056287263 0.021321815 0.08765076
-0.038453788 0.08864446 0.06912896 -0.055669148 0.10806055 0.115326345 -0.12858796 0.020041686
0.1437923 -0.09346527 -0.120921105 0.054866195 0.031806603 -0.044838443 -0.07236875 0.030674478
-0.0636472 0.06875693 -0.06325949 -0.044416867 -0.07621765 -0.0977207 0.009763202 0.011119859
0.113773726 -0.033877924 -0.04885289 -0.010776937 -0.11951269 0.030461384 -0.07456355 -0.07789562
0.02548524 0.042277876 -0.0026913595 0.04335825 0.10564196 -0.12259815 0.053295333 0.082922034
-0.11509551 -0.083523795 -0.12495075 -0.00023266673 0.048479017 -0.07130468 0.059671875 0.054890618
0.09431085 -0.014197424 -0.12082156 0.057177693 0.07980071 0.06188516 -0.099406205 -0.09007624
0.07399845 -0.053061575 -0.04395791 0.09701809 -0.01832971 -0.0016501442 0.10331453 0.107808426
0.13308026 -0.028576031 -0.017764807 0.027335405 0.08199695 -0.0761897 -0.07114911 -0.030887019
-0.006094855 0.08016376 -0.029695153 0.07321791 0.11933029 0.1161674 -0.08499257 0.07427544

gru.weight_hh_l1 f4 [192, 64]
00000000: e332 4c3d dee3 c83d 3bb6 d3bc ce62 47bd
00000010: 033f a5bc b19f 0e3d b5b5 d73d 9194 a1bb
00000020: 3adb dabd 5608 003e aa7c 6bbd dc8f b13d
00000030: c46f 1a3d 9bb7 d6bd 7857 293d 574c e1bd
00000040: cefa e6bc 3cac 71bc 236d 753c 32b1 9c3c
00000050: d2c8 e6bd af1f 143d 23ce 953b 1898 f4bb
00000060: c8f7 e8bc 0043 eebd c2e5 773d af01 e53b
00000070: 307d 7fbb b3ae cc3d 2fee adbc c35e 77bd
00000080: a4ac b13d 77e8 213c 5f37 03bd c340 5bbc
00000090: d31d cdbd 9742 0bbd de75 013e c544 b13d
000000a0: e201 32bd e9ee 083e b4f6 c73d 73ba 01be
000000b0: ec22 55bd a138 103d 583e 18bd f835 71bd
000000c0: ceb9 71bd 7ee9 0dbe c6ef 743d fce8 cc3d
000000d0: 2839 ce3d efd2 a5bd 4d3f 86bc 9b44 17be
000000e0: 0e10 b13d e148 9c3d e679 8e3d 0a7c 3bbd
000000f0: 7c6f ae3d 3010 23be bb6e 613d 9a0e 983a
00000100: 919a 2c3e 36a1 933d 77f7 9c3d ce63 0e3e
00000110: 6103 27be 1277 9abd 740f 563d 5db7 1a3e
00000120: 00d1 fbbd a9d8 2a3d 3bab 3a3d b123 e93d
00000130: fcdc 7ebd c6be 77bd e5a0 78bd 4235 3abd
00000140: 318e 0bbd 0028 50bd d2a1 ce3b 384f 60bd
00000150: 0278 743d 4c94 d5bd a1d0 05bd 8b72 14be
00000160: 118f 3abd 3447 853d 46d5 bf3c 293d 933d
00000170: a4c9 30bd d4f6 6f3b bbd7 243e 4424 35be
00000180: 4c65 d33c 8a36 13bd cfd8 02bd 616a c9bd
00000190: 6f71 cc3c 1e2c 71bd fa8a 13bc af7b dfbc
000001a0: 9a96 d93d bebb ca3d 3dd8 3e3c cf54 c9bd
000001b0: 467f 04be ca5b 3bbd 86bc 3c3d bed7 2bbd
000001c0: 4cdc 403d 1ab0 053c 72ea 4ebd 4843 cd3c
000001d0: 0690 b13c ae26 903d 96d7 d33d 5a39 febb
000001e0: 215c f73c dd5d 183e 5f4c 223d afef cb3d
000001f0: 5966 cb3d 922d 92bd 02c3 0cbe 9a54 2b3d
00000200: 89a5 d03d 7161 31bb 00b3 41bd e534 a6bd
00000210: 5c64 20be 9ca0 6a3b 0240 34bd e080 3abc
00000220: e025 aabd 84b8 2dbd 316b 95bd 7f00 b6bd
00000230: 973c cbbb 65b7 f4bd c1e3 0ebe b604 14be
00000240: 008c 02be b122 91bd 6852 603b d4f8 b63d
00000250: 9da4 b6bd 982f f6bd 5ce2 29bd 2e38 0fbe
00000260: feea fb3d 7074 c3bd 244c cc3c ecca e4bd
00000270: 13fa 42bd 29e4 283e e76a 3f3c a2b9 afbd
00000280: f274 dbbd 4e58 89bc ed8f 78bd ab3f 83bd
00000290: 8ad5 ddbd 20a6 0d3e 4041 613b dc19 13bc
000002a0: 66c1 343d 3440 dbba 2734 093e 11a1 95bc
000002b0: 17b1 4f3d d76a 123d 97dc 153d 3c34 883d
000002c0: 8ccf 873d f574 24be 2295 0a3e e16f babd
000002d0: 2ae0 283e f853 15be 6d6f fbbc 86d3 de3c
000002e0: 4501 95bd 99ae 4f3c 6deb 2d3e c9b6 893d
000002f0: b391 e63d 77ba c5bd 4ee8 3ebd dde8 ad3d
00000300: d279 54bd 3f04 c43d eb92 003c 281c a5bd
00000310: 4c54 84bd 8147 7dbd c76e a33d da66 153e
00000320: 2144 1bbe 62b9 8f3d 9a72 5d3c 6bf3 c93b
00000330: acb3 663d d23a 42bd 9fd1 a4bd 92bd b9bd
00000340: 0251 2abe 7517 053e fe43 12bd 2f5f b93d
00000350: ab14 9d3d f1ad 0c3d f728 6c3c b541 89bd
00000360: a34e 23bd 80be a73d 1f78 e9bd be1b b33c
00000370: 527d 26bd 888f 82bc b986 45bd 6211 47bd
00000380: f2c8 a03d 3598 073e 57c5 df3d f1e3 e1bd
00000390: d9c4 58be 95fb 453d 96a7 463e 1fc3 9fbd
000003a0: 0f0b b13d 10f6 343e abd1 913c cf6f 663a
000003b0: eedc b9bd 6bb7 dbbd 7fc8 2fbc 68e1 ba3d
000003c0: 378b ed3d 5bfe 4dbd 5e3b 8a3d 7b9c afbd
000003d0: 3a88 44bd 5568 a1bd 8a32 5f3d 237b 3dbe
000003e0: eed4 c33b b30e cdbd 9c65 dc3d aab3 8a3d
000003f0: 6d88 ef3d dbd2 32be 4da7 053b 4d2e c1bd
0.049853217 0.09809087 -0.02584373 -0.048678212 -0.020171648 0.034820262 0.10532705 -0.0049310406
-0.106863454 0.1250318 -0.057491936 0.08670017 0.037704244 -0.10484239 0.041343182 -0.11000889
-0.028195765 -0.0147505365 0.0149796335 0.019127462 -0.11268772 0.03616303 0.0045716926 -0.00746442
-0.028438464 -0.11633873 0.06052185 0.006988726 -0.003898453 0.09994259 -0.021231739 -0.060393106
0.08675507 0.009882084 -0.032035228 -0.01338214 -0.10015454 -0.033999052 0.12642619 0.08655695
-0.043458827 0.13372387 0.09763852 -0.12668781 -0.052035257 0.035210256 -0.03716883 -0.05888936
-0.059015088 -0.13858601 0.05979898 0.10005376 0.100694954 -0.08096873 -0.016387606 -0.14772265
0.0864564 0.07631088 0.06956844 -0.04577259 0.08517358 -0.15924144 0.05503724 0.0011601031
0.16855837 0.07208483 0.07664388 0.1390526 -0.16309883 -0.07542242 0.05226083 0.1510901
-0.12295723 0.04171053 0.045573454 0.11383761 -0.062222466 -0.06048467 -0.060700316 -0.045460947
-0.03407115 -0.050819397 0.0063059116 -0.05476305 0.05968476 -0.10428676 -0.032669667 -0.1449682
-0.045546595 0.065077215 0.023417126 0.071894 -0.04316105 0.0036615627 0.1609792 -0.17689615
0.025805138 -0.035940684 -0.031945046 -0.09834743 0.024956433 -0.058879964 -0.009005303 -0.027280657
0.10624428 0.0989909 0.011648235 -0.09830629 -0.12939176 -0.045741834 0.046078227 -0.041953795
0.04708509 0.008159662 -0.050516553 0.025056496 0.021675121 0.070386276 0.10343854 -0.0077583017
0.030195298 0.14879556 0.039623614 0.099578254 0.09931631 -0.07137598 -0.13746265 0.04182873
0.10187823 -0.0027066136 -0.04728985 -0.081155576 -0.15663284 0.0035801297 -0.044006355 -0.011383265
-0.08308005 -0.042412296 -0.07295836 -0.08886813 -0.006202291 -0.11949042 -0.13954069 -0.14454922
-0.12748718 -0.07086695 0.0034228805 0.08934179 -0.08918116 -0.120207965 -0.04147564 -0.13986275
0.123006806 -0.09543693 0.02493865 -0.11171517 -0.04760177 0.16493286 0.011683202 -0.085803285
-0.10715665 -0.01676574 -0.060684133 -0.06408628 -0.10831745 0.13832903 0.0034371167 -0.008978333
0.04412975 -0.0016727508 0.13398801 -0.018265279 0.050705995 0.03574642 0.036587324 0.06650588
0.06631383 -0.1606024 0.13533452 -0.091033705 0.16491762 -0.14582813 -0.03069278 0.027200472
-0.07275633 0.012675905 0.16984339 0.067243166 0.11258259 -0.09654706 -0.04660826 0.08491681
-0.05187399 0.095711224 0.007847528 -0.08062011 -0.06461391 -0.06183577 0.079801135 0.14590016
-0.15162708 0.07017781 0.013516093 0.006163051 0.056323692 -0.047419377 -0.080477946 -0.09069361
-0.16632465 0.1299723 -0.035709374 0.09051358 0.07669958 0.03434557 0.014414064 -0.06701986
-0.039869916 0.08190632 -0.113998644 0.021863814 -0.04064686 -0.015937582 -0.048224185 -0.048600562
0.07850827 0.13241656 0.109263115 -0.110298045 -0.21168841 0.04833563 0.19399866 -0.07800888
0.086446874 0.1767199 0.017800173 0.00087904645 -0.09075342 -0.107283436 -0.010728954 0.09125024
0.11598819 -0.0502914 0.06749605 -0.08574768 -0.04798148 -0.07881228 0.054491557 -0.18504004
0.005976311 -0.10012569 0.10761568 0.067725495 0.11695943 -0.17463247 0.0020393908 -0.09432659

gru.bias_ih_l1 f4 [192]
00000000: 3374 3a3d 5f15 dabc e117 b0bd 2f6b 9cbd
00000010: a93f 013e 0e22 85bd 03b4 173e d1bb 523d
00000020: 12f4 abbb 7c47 dabc 74b3 dbbc 2f64 8dbd
00000030: 7bb2 8f3d 325b ca3d a5aa b23d 4db9 3bbb
00000040: 947d a03d 1d4e 053e 3a98 87bd c0a2 6b3d
00000050: 2c57 b43d 7ec8 03bc 53fc 72bd 5b4b fb3d
00000060: 0dba edbb 1dd3 4ebb f26f d53d 95e4 0e3e
00000070: 74b3 ba3d 4874 1c3d 46d3 ff3d 4351 453d
00000080: 45df ed3c 0de8 f3bc 3a30 283e 426f 0e3e
00000090: 5dfb b33d b50e b6bd 1ba0 193e 5fdb a4bc
000000a0: cf90 163e 495a 24bd e424 0b3d 4e08 50bd
000000b0: afe6 82bd 8dd3 493d f747 f13c 3c76 b2bd
000000c0: 9428 b93d 7a0d b43c fdaf b1bd c502 ad3d
000000d0: 9f11 393c 55ae 123e f5dc 123d 5db5 123e
000000e0: aaae 68bc 68c7 02bd 1543 1f3d 8470 f03d
000000f0: eb54 f83d 3d96 743d 0aed 7abd a25a b5bc
00000100: 6651 91bd 9458 4b3d 0c70 b93d 3867 d3bd
00000110: cdb5 6d3d 9a03 19be fe36 8abc f127 01be
00000120: a921 54bb f5ca d8bd f740 bd3d d899 1c3d
00000130: 01d1 e0bd 4aa5 68bc f866 61bd b608 913c
00000140: 072f f8bb d306 b83d 0788 1f3d 000c c63d
00000150: c3c7 8abd 68ed dd3d ab35 dfbc bbdb a43c
00000160: c31f a03d 8505 b43d 31b4 84bd 31f4 48bd
00000170: b5f6 c6bd 6340 dd3d ac43 e6bd 2dd4 ffbd
00000180: d373 d93d a000 c6bd 8cba 643d e10e c43d
00000190: 31ae e9bd 5533 da3d a103 e73d a628 af3c
000001a0: 0d11 403d 4c36 10be 5070 853d ad27 d1bd
000001b0: 16e6 5abd 468c b3bc 6854 03be ca99 dbbd
000001c0: a6ea a83c e241 95bd ead9 003d 78f9 dcbd
000001d0: 0bcc 1bbd f985 9e3d b58d d93d e87b b53b
000001e0: 2ac2 01bd c34f e1bd 99e4 ad3d af23 f53b
000001f0: c839 bbbd 6cbb 6fbd 4f62 bf3d e5cd 09be
00000200: 881f a83d 799a 7cbd 8be2 0d3d db03 223d
00000210: 97d9 cdbd 27dd febd ac9b b53d 7331 83bd
00000220: 3d9d 083d 87ad b93d f6a8 f3bd 4dce 61bd
00000230: e1aa ba3a 9291 1abe 4a1e b8bd d76f 043d
00000240: af43 1bbe bcb5 37bb 410c adba b310 923d
00000250: 6ac9 a13d 60a3 2abe 9ea8 96bc bc1f b83d
00000260: 343c 3f3d 8edf 17be 3036 b6bd 0c5a f5bd
00000270: 09ac 023e bbde 5e3d e193 0f3c 7b3d a0bd
00000280: b389 4d3c 28cf 7fbb 390e fcbc df5c a33d
00000290: 111c 18be 1422 13bc f13c 33bc f46d 06bd
000002a0: 6b83 183e 2db1 50bd 84f0 af3d 51ce c4bd
000002b0: fc5b 6cbd 0dfc 8dbd d959 973d b3f8 1c3d
000002c0: 5f7c 58bd 1ba0 973d dda7 1c3e dc4e f2bd
000002d0: 3992 37bd e212 813d 550b 803d 14a6 403d
000002e0: 21f7 153e 4b71 393d b0b0 013e 7464 92bc
000002f0: 343c a83d 85d7 42bd 7826 bdbd dc55 53bd
0.045520972 -0.026621519 -0.085983045 -0.07637631 0.1262194 -0.06500636 0.14814763 0.051448647
-0.0052476013 -0.026645415 -0.026818968 -0.06903874 0.07016464 0.098806754 0.08723954 -0.0028644383
0.07836452 0.13018079 -0.06620832 0.057528257 0.08805689 -0.0080434065 -0.059322666 0.12270232
-0.007254845 -0.0031558939 0.104217425 0.13954385 0.09116259 0.038196832 0.12491469 0.0481732
0.029037127 -0.029773736 0.16424647 0.13909629 0.08788178 -0.08889524 0.15002482 -0.020124136
0.14703678 -0.040125165 0.03397073 -0.05078917 -0.06391656 0.049274016 0.02945326 -0.08713958
0.09040943 0.021979082 -0.08676145 0.08447794 0.011295705 0.14324315 0.035855252 0.14326997
-0.014201799 -0.03192845 0.038882334 0.11740211 0.12125572 0.05971359 -0.061261214 -0.022137944
-0.07095604 0.04964502 0.09054574 -0.10322422 0.058034707 -0.1494278 -0.016871925 -0.12612893
-0.0032368696 -0.10585586 0.09240907 0.038232654 -0.10977364 -0.014199564 -0.05502984 0.017704349
-0.0075739655 0.089856766 0.038948085 0.096702576 -0.06776383 0.10836297 -0.02724727 0.020124307
0.07818558 0.08790115 -0.06479681 -0.049061004 -0.097150244 0.108032964 -0.11243376 -0.12491641
0.10617795 -0.09668088 0.055841967 0.095731504 -0.114101775 0.10654322 0.11279989 0.021381687
0.04689126 -0.14083213 0.065155625 -0.10212646 -0.053442083 -0.021917474 -0.12825167 -0.10722692
0.020619702 -0.07287957 0.03145782 -0.1078977 -0.038036387 0.07740397 0.106227316 0.0055384524
-0.03167931 -0.110015415 0.08490867 0.0074810605 -0.0914188 -0.05852835 0.09344923 -0.13457449
0.08209139 -0.061670754 0.034639876 0.039554458 -0.100512676 -0.12444525 0.08867583 -0.06405916
0.03335308 0.09066301 -0.11897461 -0.055128384 0.00142416 -0.15094593 -0.08990152 0.03233322
-0.15162538 -0.0028031906 -0.0013202504 0.071320914 0.07899745 -0.16663885 -0.01839095 0.08990428
0.046688274 -0.14831373 -0.08897054 -0.11980066 0.12760939 0.05441163 0.008763284 -0.078242265
0.012545037 -0.0039033387 -0.0307685 0.07976698 -0.14854456 -0.008980293 -0.0109398225 -0.032819703
0.14893882 -0.050950218 0.085907966 -0.09609664 -0.05770491 -0.069328405 0.07390184 0.038323116
-0.052852985 0.074035846 0.1529841 -0.118314475 -0.044817183 0.0630243 0.062521614 0.047033384
0.14645053 0.04527406 0.12665057 -0.017870165 0.08214608 -0.047568817 -0.09235853 -0.051595554

gru.bias_hh_l1 f4 [192]
00000000: 6c79 883c d340 303e 01db 0a3e f2ce 8e3d
00000010: 7cd0 2cbd 7e15 703b ae94 193e 3807 d03d
00000020: 9e5c 0b3e 50e1 29bd 3f6a 813c 9dfc ad3c
00000030: a138 4f3c d836 7d3d 19e3 f73d 681e ac3d
00000040: 480d f53d 6dde a93d f70e c23c 8269 aebd
00000050: cbf0 63bc 8deb a2bd 7338 5cbb df86 afbc
00000060: 7e57 8ebd 17f3 a83d 44b0 813d b8d2 823d
00000070: 8d5d 6ebd 8f9b 803d 862a 883d 23b6 58bd
00000080: 213b 043e ac84 6f3d d104 4bbd 3ca9 e23c
00000090: 2e94 043e ede8 ee3d 847b 70bd f4e1 0abd
000000a0: 3244 f93d affc 053e 0ae5 b43d fce4 883d
000000b0: ab69 073e 90a4 0f3e 710e a9bc 86eb 71bd
000000c0: 334a b93d 0e3a 6bbd 11f3 8d3d 45b7 033e
000000d0: 3420 843d 76de 22bc d1cf 88bd a39b 1b3e
000000e0: 0114 983d 64e8 103e b1ea 2d3d 3b63 fc3d
000000f0: 24bb 013e 01ce e13d 746c 393c b68b 183d
00000100: a550 1cbe 71a9 b03d ae5c 0cbe 980a 41bc
00000110: 8b3d b7bd ad9d dfbc 664a 90bd 8f29 44bd
00000120: 4773 40bd 9fda b9bd 585f 5f3d a292 913d
00000130: b213 523d 1ae5 923c bd86 f4bd 8b6e 22bd
00000140: 6ede 243d 20e9 73bd bcdb c73d 88f8 da3d
00000150: f83e 2c3c 9e72 d4bd 6326 753d 7d8c 09bd
00000160: 3f4d 16be cf65 a93d cb38 6b3d fa46 ddbc
00000170: bbc5 17bd 2519 ccbd 8e56 553d 81a5 2fbd
00000180: 0473 f53c 8c51 e23b f1b3 513d a931 2dbd
00000190: 01f1 503d 11f7 18bd b0c1 4c3b 47b8 f63d
000001a0: 5f26 15be cf44 e2bd 85b7 39bd ea73 09bd
000001b0: 636e fd3d d76d 02be 9916 cabd d688 72bd
000001c0: 7c9a aabd a401 373d 016a 11bb 35ba 843c
000001d0: 18b0 723d d13c 933c 8b38 ae3d 95df b03d
000001e0: 56d0 9a3d fe35 e63c 60db da3d 46d8 8cbd
000001f0: 421c 2d3c 7dd7 aabc 56b6 4ebd 37f9 963d
00000200: c877 a4bd 1f2d 3abd 057a 83bd 63dc 26bd
00000210: c0aa df3c 9392 223d 884c 243d e1ed 083c
00000220: 6a37 963c d131 1b3e b749 a1bd 30d7 06bd
00000230: 9eaa 91bd 62a3 29be acb4 2b3d 3164 05be
00000240: 5614 8bbd facc 083e 09e8 f9bc 2704 85bd
00000250: db6a d9bd 5871 0d3d 269f 033e b2ff 0abe
00000260: 866f 093e fed8 89bc f838 07be 0d45 55bc
00000270: 6982 d03d fc23 983d 6e0c a2bd cf34 8e3d
00000280: 6893 7c3d eb67 353e 98a0 1d3e 7918 ddbd
00000290: b054 083c 7ffd ae3d f393 633d b9fa 31ba
000002a0: 09cd b63b d523 7dbb 5055 383d b5b0 e1bd
000002b0: 68d7 2ebc 4c11 2bbd cf4a 8ebc b2d9 833d
000002c0: 0979 2cbd 402e 13be 6297 323a 04f1 5dbd
000002d0: af6a 8b3d 94bc d2bd f133 a33d c38d 2cbe
000002e0: 3226 12bd 410a e53d 119c 803d 0cf9 a03d
000002f0: d42f 02bc 644d 8d3c 339c 59bd 6fec c0bd
0.016659461 0.17212228 0.13560106 0.069730654 -0.042191014 0.0036633904 0.14998123 0.10157627
0.1360955 -0.04147464 0.015797732 0.02123862 0.012647779 0.06181988 0.12103862 0.08404237
0.11965424 0.082943775 0.023688776 -0.08516218 -0.01391239 -0.07955084 -0.0033602982 -0.021426616
-0.069502816 0.08249491 0.06332448 0.06387848 -0.058194686 0.062796704 0.06648736 -0.052908074
0.12913181 0.058476135 -0.04956514 0.027668588 0.12947151 0.11665521 -0.058711544 -0.033906892
0.1217121 0.13084672 0.08832748 0.066843 0.13223903 0.1402762 -0.020636769 -0.059062503
0.090473555 -0.057428412 0.06931127 0.1286288 0.06451455 -0.009940734 -0.06680263 0.1519609
0.074256904 0.1415115 0.042460147 0.12323614 0.12669045 0.1102562 0.011317361 0.037242614
-0.15265138 0.086260684 -0.1370723 -0.011782311 -0.08947285 -0.027296865 -0.070454404 -0.047891196
-0.046984937 -0.09074902 0.054534286 0.07108046 0.051288314 0.01793151 -0.11939762 -0.039656203
0.040251188 -0.059548497 0.09758708 0.10691935 0.01051306 -0.10373424 0.05985106 -0.033581246
-0.14677905 0.082713716 0.05742721 -0.027011383 -0.037053805 -0.099657334 0.052084498 -0.042882446
0.02996207 0.006906694 0.051196996 -0.042283688 0.05101109 -0.037344996 0.0031243376 0.12046867
-0.14565419 -0.110482804 -0.045341033 -0.03355781 0.1237457 -0.12737213 -0.098675914 -0.05921253
-0.08330247 0.0446793 -0.0022188427 0.016202072 0.059249967 0.017973335 0.085068785 0.08636395
0.07559268 0.028101917 0.10686374 -0.068771884 0.010565819 -0.020854706 -0.050466858 0.07371753
-0.08030659 -0.045453187 -0.06419758 -0.04073752 0.0273031 0.039690565 0.04011205 0.008357496
0.01833697 0.15155722 -0.07875388 -0.032920063 -0.07112621 -0.16566232 0.04192035 -0.13026501
-0.06790988 0.13359442 -0.03050615 -0.064949326 -0.10616084 0.03453192 0.12853679 -0.13574103
0.13421449 -0.016827103 -0.13205326 -0.013016951 0.10181124 0.074287385 -0.07912527 0.06943666
0.061664015 0.17715423 0.15393293 -0.107956834 0.008320972 0.08544444 0.055561017 -0.0006789375
0.0055786413 -0.0038626094 0.045003235 -0.11020032 -0.010671474 -0.041764542 -0.017369656 0.064380065
-0.042107616 -0.14373112 0.0006812719 -0.05418493 0.06807458 -0.10289875 0.079688914 -0.16850953
-0.035680957 0.111835964 0.06279767 0.07860002 -0.007945973 0.017248817 -0.05312748 -0.09420096

conv.weight f4 [1, 64, 1, 1]
00000000: 1d74 083f e058 0a3f e6f1 fc3e 4100 db3e
00000010: 0a9b 0cbf 971f e1be 95ee f13e b468 f53e
00000020: d994 e3be 7dad 083f bffe f0be 1e71 fd3e
00000030: fc46 f7be 0c7a 09bf f645 dfbe d75d 00bf
00000040: 6146 0bbf 9fcb e33e 9320 eabe 1142 063f
00000050: 0bc6 e1be 2969 e0be e06b ea3e 0263 0cbf
00000060: 5401 dd3e 045b fbbe 0d8f dfbe 17e2 0abf
00000070: ade1 093f 596f e23e d0f7 ed3e a487 f2be
00000080: bfbc 03bf 9273 e93e 4960 0a3f 34e4 eabe
00000090: 808c 0bbf 092b 043f 6418 023f fd93 0ebf
000000a0: b0a0 063f 2401 ee3e 9943 fb3e 1db9 d6be
000000b0: d061 06bf bfad d9be 953b f43e ced7 06bf
000000c0: fc90 ee3e a1af e7be aadc d73e 7b80 f7be
000000d0: 609e ed3e a625 eebe bbd9 053f 25bf 03bf
000000e0: 91bc f43e f0d7 0a3f cb5b 013f df9c 0e3f
000000f0: 8f71 093f 2d4e 00bf d558 10bf a2c2 00bf
0.53302175 0.5404186 0.49403304 0.4277363 -0.5492407 -0.43969414 0.47252336 0.47931445
-0.444495 0.5338972 -0.47069356 0.49500364 -0.48296344 -0.53701854 -0.43608063 -0.5014319
-0.54404265 0.44491288 -0.45727977 0.5244456 -0.44096407 -0.4383023 0.45785427 -0.54838574
0.43165076 -0.49092877 -0.43663827 -0.54251236 0.5385998 0.44225577 0.46478128 -0.4736911
-0.5145988 0.45595986 0.5405317 -0.4587723 -0.5451126 0.51628166 0.5081847 -0.5569456
0.5258894 0.46485245 0.4907501 -0.41938105 -0.52493 -0.4251537 0.47701707 -0.5267304
0.4659499 -0.45251182 0.4216054 -0.4834021 0.46409893 -0.46513098 0.52285355 -0.5146354
0.47800115 0.54235744 0.5053069 0.55708116 0.536889 -0.50119287 -0.56385547 -0.50296986
