project/onnx_models/GRU/NASDAQ.onnx (onnx, 172077 bytes, 9 tensors)

gru.weight_ih_l0 f4 [192, 5]
0	0xbdc3326c	-0.095311016
1	0x3dc05c96	0.09392659
2	0x3ce0ddb0	0.027449459
3	0xbdd45062	-0.10366894
4	0x3d8ce9e6	0.0688055
5	0xbd8a970a	-0.0676709
6	0xbbc0ca40	-0.005883485
7	0xbc3d3960	-0.011549324
8	0xbc5d5280	-0.013508439
9	0xbca1a448	-0.019731656
10	0x3c0f3140	0.008739769
11	0x3df1bcd0	0.11803591
12	0x3c1a6b30	0.00942497
13	0x3df67214	0.120334774
14	0xbdfcb1f4	-0.12338629
15	0xbd479df8	-0.048734635
16	0x3de28b58	0.11061734
17	0x3d88ee0a	0.06686027
18	0x3d0c96a0	0.034323335
19	0x3d92b7be	0.07163952
20	0x3a4e0b00	0.00078599155
21	0xbd538dc4	-0.05164887
22	0x3d812aee	0.06307016
23	0xbd653cc8	-0.05596617
24	0xbde7a270	-0.11310279
25	0x3dfca57e	0.12336253
26	0x3c3f7a70	0.011686906
27	0xbd3dd758	-0.046347946
28	0x3d8e5568	0.06949884
29	0x3da77c7a	0.08178039
30	0x3c870e78	0.016486391
31	0xbbe5fbc0	-0.0070185363
32	0x3ddf9670	0.109173656
33	0x3dc94f9e	0.09829639
34	0x3d911310	0.07083714
35	0xbc863020	-0.01638037
36	0x3d7b75f8	0.0613918
37	0xbdf9651a	-0.12177487
38	0xba60cd00	-0.0008575469
39	0x3d1af2e8	0.03782931
40	0x3d6e79f0	0.058221757
41	0x3dad42c0	0.08459997
42	0xbd28f770	-0.0412516
43	0xbceb1660	-0.028697193
44	0xbd975116	-0.07388513
45	0x3c759360	0.01498875
46	0x3dd0ba5a	0.10191794
47	0xbcb73ca0	-0.022367775
48	0x3d9eb9d8	0.07750291
49	0x3d499bcc	0.049220845
50	0xbd321bf8	-0.043483704
51	0xbd5a52cc	-0.053301618
52	0x3d50e7ac	0.05100219
53	0xbdbb8f04	-0.091581374
54	0xbd692110	-0.056916296
55	0xbda99648	-0.08280617
56	0xbd5c9724	-0.053855076
57	0x3d130a14	0.035898283
58	0xbcceac18	-0.025228545
59	0xbd03bf98	-0.03216514
60	0x3d0006e0	0.031256557
61	0xbdc01b16	-0.09380166
62	0x3d30f914	0.04320629
63	0x3d20af3c	0.039229617
64	0xbd92018c	-0.07129201
65	0xbbd3c7c0	-0.006463021
66	0x3d88f760	0.06687808
67	0x3d70a3c4	0.05874993
68	0xbdb09ab0	-0.08623254
69	0xbded5636	-0.11588709
70	0xbdf78316	-0.120855495
71	0xbd3ce630	-0.04611796
72	0xbdd9595a	-0.106127456
73	0xbdb47392	-0.08811106
74	0x3dfe220e	0.12408839
75	0x3db70cba	0.08937974
76	0x3df249ae	0.118304595
77	0x3d2f2348	0.042758256
78	0x3ce87a88	0.02837874
79	0xbc304a10	-0.010759845
80	0x3dcd61a2	0.100283876
81	0xbdeeda10	-0.11662686
82	0xbd3e3728	-0.04643932
83	0x3da66b00	0.081258774
84	0x3cc248a0	0.02371627
85	0x3dbbfb18	0.09178752
86	0x3c358980	0.011080146
87	0xbd6ecbe0	-0.0582999
88	0xbd5a5320	-0.05330193
89	0x3dde6e92	0.10860933
90	0x3da70b7e	0.08156489
91	0xbb75fd80	-0.003753513
92	0x3c22f810	0.009946838
93	0xbdb3a880	-0.08772373
94	0xbc6224c0	-0.013802707
95	0xbda95c7e	-0.082695946
96	0xbd0db014	-0.03459175
97	0x3db8eb06	0.09029202
98	0x3dd474fc	0.103738755
99	0xbd82e62c	-0.06391558
100	0x3ca05590	0.01957205
101	0x3c8ae400	0.016954422
102	0x3db5d37c	0.08878228
103	0xbd5f7cb4	-0.054562286
104	0x3c73b9f0	0.014875874
105	0x3d9909a0	0.07472539
106	0xbd8522b8	-0.06500763
107	0x3d943d9c	0.072383136
108	0xbd42faa8	-0.047602326
109	0x3d74673c	0.059668764
110	0x3c152880	0.009103894
111	0x3dbe4ef2	0.092924014
112	0xbd217720	-0.039420247
113	0xbdfae1e2	-0.12250115
114	0x3d3d6c88	0.04624608
115	0xbd4b78e4	-0.049675837
116	0x3ad20d80	0.0016025752
117	0x3d032848	0.032020837
118	0x3d655eb0	0.055998504
119	0xbdafc2e2	-0.08582093
120	0xbd0fc648	-0.035101205
121	0xbd0ba884	-0.034096256
122	0xbdc5dfa2	-0.09661795
123	0xbdca107c	-0.098664254
124	0xbc0c0840	-0.008546889
125	0xbce70b00	-0.028203487
126	0x3d003648	0.031301767
127	0xb8e3a800	-0.00010855496
128	0x3cefe488	0.029283777
129	0xbd89e604	-0.06733325
130	0xbc33e000	-0.010978699
131	0xbcfd9400	-0.030954361
132	0xbca28f50	-0.019843727
133	0x3dda5ff0	0.1066283
134	0x3d64f7d4	0.05590041
135	0x3bf00800	0.0073251724
136	0xbc812100	-0.015762806
137	0xbc13bc90	-0.009017125
138	0xbd368aec	-0.04456608
139	0xbd06d6b0	-0.032919586
140	0xbdde2182	-0.10846235
141	0x3bca40c0	0.0061722696
142	0x3de34048	0.11096245
143	0xbd6e3478	-0.058155507
144	0xbce5bdc0	-0.028044581
145	0x3ceccdd0	0.028906733
146	0x3d016d28	0.03159824
147	0x3de2f82c	0.11082491
148	0x3d5f754c	0.054555222
149	0x3c236400	0.009972572
150	0xbd03a490	-0.03213936
151	0xbcbe12b0	-0.02320227
152	0xbc08f440	-0.008359015
153	0xbda1bd88	-0.07897478
154	0xbc2899b0	-0.010290548
155	0x3da7fa6e	0.082020625
156	0x3d7362dc	0.05942045
157	0x3dd0d2e0	0.10196471
158	0xbb6dcc40	-0.0036285073
159	0xbc54b780	-0.012983203
160	0x3d7ecc14	0.062206343
161	0xbc1f9250	-0.009739473
162	0x3cf38bc8	0.029729739
163	0x3ca22ad8	0.01979582
164	0xbdd37d04	-0.10326579
165	0xbdd32590	-0.10309899
166	0x3d964b42	0.07338573
167	0x3d7de02c	0.061981365
168	0xbd8a1522	-0.06742312
169	0xbda65210	-0.08121121
170	0x3d9618ea	0.07328971
171	0x3dd8014a	0.10547121
172	0x3d81f7f0	0.063461185
173	0x3da210c2	0.079133525
174	0x3cabd320	0.020974696
175	0x3debaa9c	0.115071505
176	0x3c798190	0.015228644
177	0x3d27055c	0.040776595
178	0x3d57ce5c	0.052687034
179	0x3d7e43ac	0.062076256
180	0xbdaa1d3c	-0.08306357
181	0xbd7719ec	-0.060327455
182	0xbde53d56	-0.111933395
183	0x3dd551e0	0.10416007
184	0xb8921800	-6.966293e-05
185	0xbded7fda	-0.115966514
186	0x3db63f16	0.088987514
187	0x3d62a314	0.055331305
188	0x3dd9a1ae	0.10626541
189	0xbdffac86	-0.12484078
190	0x3d23db90	0.040004313
191	0x3da6043e	0.08106278
192	0xbdbe246c	-0.09284291
193	0xbd925780	-0.071455956
194	0xbd00d410	-0.03145224
195	0xbdf50e44	-0.119656116
196	0x3bbc5fe0	0.005748734
197	0x3c5056b0	0.01271598
198	0xbdc7ce18	-0.09756106
199	0xbdcf404e	-0.10119687
200	0xbdbbe69e	-0.09174846
201	0x3dd39cb2	0.10332622
202	0x3da46edc	0.08028957
203	0x3c3dcdb0	0.011584684
204	0xbc381ef0	-0.011237845
205	0x3d85de74	0.0653657
206	0xbdccb6f2	-0.099958315
207	0xbd82864e	-0.06373273
208	0xbdd32622	-0.10310008
209	0x3de7eb38	0.11324161
210	0xbd42678c	-0.04746203
211	0xbce14708	-0.02749969
212	0xbdfa10a0	-0.12210202
213	0xbc0d8c60	-0.008639425
214	0xbbcad720	-0.0061901957
215	0xbdd4054e	-0.10352574
216	0xbcf05b28	-0.029340342
217	0x3c10fc20	0.008849174
218	0xbd47ac68	-0.048748404
219	0x3c8fc938	0.017552003
220	0xbd8da542	-0.06916286
221	0xbd3cf7a8	-0.04613462
222	0x3c545dc0	0.012961805
223	0x3c66b930	0.014082238
224	0x3d34b7b0	0.04412049
225	0xbd140388	-0.03613618
226	0xbd6f62f4	-0.05844398
227	0xbdd2183e	-0.1025853
228	0x3d89e76c	0.06733593
229	0xbda35436	-0.07975046
230	0x3d8f8e0e	0.07009517
231	0x3d0fd42c	0.035114452
232	0xbc93c610	-0.01803878
233	0xbdf3427a	-0.11877914
234	0x3d8c1dcc	0.06841621
235	0x3d60f3d4	0.054920033
236	0xbd939432	-0.072060004
237	0x3d8ae54e	0.06782018
238	0xbd7c9c88	-0.061672717
239	0xbdd0dd18	-0.1019842
240	0xbd354be0	-0.044261813
241	0xbcafdf38	-0.021468744
242	0xbd65f678	-0.056143254
243	0xbc696d30	-0.014247224
244	0x3d21f228	0.03953758
245	0x3d87b95e	0.06627153
246	0xbd980e40	-0.07424593
247	0x3d8cba34	0.06871453
248	0x3d140030	0.03613299
249	0xbda36c5c	-0.07979652
250	0xbda0939a	-0.07840653
251	0x3da1ccce	0.079003915
252	0x3da1e1b4	0.079043776
253	0xbc8bf3f0	-0.017084092
254	0xbce765c8	-0.028246775
255	0xbd9005c4	-0.0703235

gru.weight_hh_l0 f4 [192, 64]
0	0xbdb71b58	-0.08940762
1	0x3c437000	0.011928558
2	0xbd87f10c	-0.06637773
3	0xbdb40b7c	-0.08791253
4	0xbd92a7a6	-0.07160883
5	0xbdf9914a	-0.12185915
6	0x3d08b56c	0.033376142
7	0x3ddb2576	0.107005045
8	0xbbbd9b20	-0.0057863146
9	0x3db0f46c	0.0864037
10	0xbdcdfe92	-0.10058321
11	0xbd7ce028	-0.06173721
12	0xbdd7f33e	-0.10544442
13	0xbd84d628	-0.064861596
14	0xbded051a	-0.11573239
15	0xbdaf18e8	-0.08549672
16	0xbda4dfbe	-0.08050488
17	0xbd4fef88	-0.050765544
18	0xba827000	-0.0009951591
19	0x3ccfec80	0.025381327
20	0xbdccd3b6	-0.10001318
21	0xbd0b9e8c	-0.03408675
22	0x3cd115e0	0.025523126
23	0x3dba2a3a	0.09090085
24	0x3dc1c570	0.09461486
25	0xbd7a64f8	-0.061131448
26	0x3d97bfa8	0.074096024
27	0x3d2afdd4	0.041745976
28	0x3df055a2	0.11735083
29	0x3dd85f66	0.10565071
30	0x3cbb7690	0.022883683
31	0x3db47bd6	0.08812682
32	0x3c39b500	0.011334658
33	0xbd458278	-0.048220128
34	0x3b61e480	0.0034468472
35	0x3caa11f8	0.020760521
36	0xbcce7e78	-0.02520679
37	0xbdc0a82c	-0.09407076
38	0xbceb0e10	-0.028693229
39	0xbcd12110	-0.02552846
40	0xbdf9f12e	-0.122042045
41	0x3b525b00	0.0032097697
42	0xbdca66b2	-0.09882869
43	0x3ce71750	0.028209358
44	0x3d492198	0.049104303
45	0x3d91dd22	0.07122256
46	0x3d0651f4	0.032793
47	0x3db68e70	0.089138865
48	0x3ded4b60	0.11586642
49	0xbd57f3e8	-0.05272284
50	0xbd7a2e58	-0.061079353
51	0x3d8ba9fa	0.0681953
52	0xbc468810	-0.012117401
53	0xbd029b74	-0.031886533
54	0xbde54df2	-0.111965075
55	0x3dad6006	0.08465581
56	0xbd8249ec	-0.06361756
57	0x3dc838fe	0.097764954
58	0xbae04180	-0.0017109364
59	0x3cf35f68	0.02970858
60	0x3de50b44	0.11183789
61	0xbc535560	-0.012898773
62	0x3d9c0b0e	0.07619296
63	0xbd04bd34	-0.032407
64	0x3dde4410	0.10852826
65	0x3dce6364	0.10077551
66	0x3c77d1e0	0.015125722
67	0x3dcd08f2	0.10011472
68	0xbd17d028	-0.037063748
69	0x3dd2d96c	0.10295376
70	0x3df50c1c	0.119652
71	0xba8ebc00	-0.0010889769
72	0x3ceb3598	0.028712079
73	0xbd546528	-0.051854283
74	0x3cfdb280	0.030968904
75	0xbc6e3520	-0.014539033
76	0x3d1fe3f8	0.039035767
77	0xbcc0f0a8	-0.023552254
78	0xbd8b04d6	-0.06788032
79	0xbd9c3966	-0.076281354
80	0x3de44382	0.111456886
81	0xbdec1176	-0.11526768
82	0xbcac2430	-0.02101335
83	0xbb5020c0	-0.0031757802
84	0x3dbe3eca	0.0928932
85	0x3d4af920	0.04955399
86	0x3d8b5e9a	0.06805153
87	0x3d4cc444	0.04999186
88	0xbdd2a8e4	-0.102861196
89	0xbd9d12d0	-0.07669604
90	0xbd149338	-0.03627321
91	0x3c36dc20	0.01116088
92	0xbdf65324	-0.120275766
93	0x3ce2c768	0.027682975
94	0xbc18dbb0	-0.009329721
95	0xbdc0cd44	-0.09414151
96	0x3d2f2b30	0.042765796
97	0x3c090480	0.008362889
98	0xbdcd07aa	-0.100112274
99	0x3d92e8d6	0.07173316
100	0xbd395c00	-0.045253754
101	0x3da48fde	0.08035253
102	0xbd3509bc	-0.044198737
103	0xbd81cb9a	-0.06337662
104	0x3cc687d8	0.024234697
105	0x3c92fd08	0.01794292
106	0xbd94b6f8	-0.07261461
107	0xbd995118	-0.074861705
108	0x3dcb8bbe	0.09938763
109	0xbdd574de	-0.10422681
110	0x3dab035c	0.0835025
111	0xbdc9840c	-0.09839639
112	0xbbfd9880	-0.0077391267
113	0xbdf5ae6e	-0.119961604
114	0x3d8eee08	0.069789946
115	0x3cbebb90	0.023282796
116	0x3bc8adc0	0.0061242282
117	0x3dde4438	0.108528554
118	0x3dbb8f0e	0.09158145
119	0xbd09c928	-0.033639103
120	0x3de4b2a4	0.111668855
121	0x3df95076	0.1217355
122	0xbddef71e	-0.108869776
123	0xbd03fb1c	-0.0322219
124	0xbdcef494	-0.10105243
125	0xbdf8a142	-0.121401325
126	0x3c5e6a00	0.013575077
127	0x3d667240	0.0562613
128	0xbd8df754	-0.0693194
129	0x3b8a3cc0	0.0042186677
130	0x3df3c5bc	0.11902949
131	0x3ddd19b6	0.107959196
132	0x3da56412	0.080757275
133	0xbc8b4928	-0.017002657
134	0x3d9c4506	0.07630353
135	0xbce2b940	-0.027676225
136	0xbc07ef60	-0.008296818
137	0x3dd712b8	0.10501617
138	0xbdb412fc	-0.087926835
139	0xbd543538	-0.051808566
140	0xbd585920	-0.05281937
141	0xbd30faf0	-0.043208063
142	0xbdeb5312	-0.11490454
143	0x3da42eb8	0.080167234
144	0xbd031d30	-0.032010257
145	0x3d01cd90	0.03169018
146	0xbd93e9a0	-0.07222295
147	0xbdca9f0e	-0.098936185
148	0x3d461e1c	0.04836856
149	0xba948d00	-0.0011333525
150	0x3dfcc244	0.12341741
151	0x3d897a06	0.06712727
152	0xbc95d3d8	-0.018289492
153	0x3d251720	0.040305257
154	0xbddcdc36	-0.107841894
155	0xbdcd3c0c	-0.10021219
156	0x3db8ca00	0.090229034
157	0xbde18e3e	-0.11013459
158	0xbc5e9fc0	-0.013587892
159	0xbc867e08	-0.016417518
160	0xbc8fea78	-0.017567858
161	0xbd01de7c	-0.03170632
162	0xbdbf475e	-0.09339784
163	0x3dd58440	0.10425615
164	0xbd2f56c4	-0.042807356
165	0xbc312590	-0.010812178
166	0xbd634ab8	-0.05549118
167	0xbcfd5a18	-0.03092675
168	0xbc34e4d0	-0.011040881
169	0xbc698e50	-0.014255121
170	0xbd8e5274	-0.069493204
171	0xbdd8e3ae	-0.105903015
172	0xbc44c6d0	-0.012010291
173	0xbdcf63bc	-0.10126445
174	0x3c7f37b0	0.015577242
175	0xbdf044fe	-0.11731909
176	0x3db95e74	0.09051219
177	0x3d803a6c	0.06261143
178	0x3d82fa0c	0.06395349
179	0x3dfb463e	0.12269257
180	0x3b236b00	0.0024935603
181	0xbb15c2c0	-0.0022851676
182	0x3df7c286	0.12097649
183	0xbd571230	-0.05250758
184	0xbdf023d8	-0.11725587
185	0x3d2d41c8	0.042299062
186	0x3c5d5e90	0.013511315
187	0xbd9951c8	-0.07486302
188	0x3da96c28	0.08272582
189	0x3ce95f20	0.028487742
190	0x3da696b4	0.08134213
191	0xbde8b7c8	-0.113631785
192	0xbded3032	-0.11581458
193	0xbd9c9496	-0.07645528
194	0xbdd25234	-0.10269585
195	0x3d32275c	0.043494567
196	0x3cd25b18	0.025678203
197	0xbda2ca10	-0.079486966
198	0xbd32a318	-0.04361257
199	0xbc8a4ae0	-0.016881406
200	0xbd98241c	-0.07428762
201	0xbdf9388e	-0.1216899
202	0xbdb16142	-0.086611286
203	0xbd0f9228	-0.035051495
204	0x3cdec850	0.027195126
205	0x3dc043ea	0.093879536
206	0x3d35fcf4	0.044430688
207	0xbd96744c	-0.073464006
208	0xbdd04b4a	-0.1017061
209	0x3ddb4efe	0.10708426
210	0xbb2622c0	-0.0025350302
211	0x3caaadd8	0.020834848
212	0xbd7622b8	-0.060091704
213	0xbd7bffa8	-0.06152311
214	0xbdac320a	-0.08407982
215	0xbcd886a0	-0.026431382
216	0x3d87d9c0	0.066333294
217	0xbce562b0	-0.02800116
218	0x3da9759c	0.08274385
219	0xbc141b80	-0.00903976
220	0x3dcab1c4	0.09897187
221	0x3d3adabc	0.045618758
222	0x3dca38d2	0.09874119
223	0x3de12364	0.10993078
224	0x3da1c31c	0.07898542
225	0xbd73dabc	-0.059534773
226	0x3d96f902	0.07371713
227	0xbdfdea12	-0.12398161
228	0x3d31c474	0.043400243
229	0xbdc3e7f4	-0.09565726
230	0xbd856c1c	-0.06514761
231	0xbd98e070	-0.07464683
232	0xbc287e30	-0.010283992
233	0xbdf447e0	-0.119277716
234	0x3dc67ffa	0.09692378
235	0xbcd61270	-0.026131839
236	0xbca62110	-0.020279437
237	0x3d12ac4c	0.035808846
238	0xbd2fbad4	-0.042902783
239	0x3df6ecf2	0.120569125
240	0x3c8d64c0	0.017259955
241	0x3d690f3c	0.056899294
242	0x3d618928	0.055062443
243	0xbd90d636	-0.070721075
244	0x3dcf5d54	0.10125223
245	0xbd47d270	-0.048784673
246	0x3dd8c3da	0.10584231
247	0xbd98635a	-0.07440825
248	0xbdbeaa4a	-0.09309824
249	0xbdca5ba4	-0.0988076
250	0xbdbae01c	-0.09124777
251	0xbdeff99c	-0.11717531
252	0x3d977bf6	0.073966905
253	0x3d250428	0.040287167
254	0xbbe113e0	-0.0068688244
255	0x3decb1c8	0.115573466

gru.bias_ih_l0 f4 [192]
0	0x3d886380	0.06659603
1	0xbdeeafc8	-0.11654621
2	0xbdff26fc	-0.124586076
3	0x3dae731c	0.08518049
4	0xbbcc7d40	-0.006240517
5	0x3d8c0a0c	0.06837854
6	0x3db2ce5a	0.08730765
7	0xbdfe2a14	-0.124103695
8	0x3d084958	0.03327307
9	0x3d6866a4	0.05673851
10	0xbdf1ba72	-0.1180314
11	0xbce5d730	-0.028056711
12	0x3a892900	0.001046449
13	0x3da0a160	0.0784328
14	0xbdcd24d8	-0.10016793
15	0x3dfb7696	0.12278478
16	0xbd9da434	-0.07697335
17	0x3c965e60	0.018355548
18	0xbd8dd2a8	-0.06924945
19	0x3cc029b0	0.023457378
20	0x3dc80c48	0.097679675
21	0x3c233050	0.009960249
22	0x3d70edec	0.05882065
23	0x3da1c0a4	0.078980714
24	0xbc5dd560	-0.013539642
25	0x3debd6c4	0.11515573
26	0x3dbf6b58	0.09346646
27	0x3db80932	0.08986129
28	0x3de85ab2	0.11345424
29	0x3cb1b400	0.021692276
30	0xbd9c7568	-0.07639581
31	0xbda0efbe	-0.07858227
32	0x3dafff94	0.085936695
33	0xbd4f0920	-0.05054581
34	0x3c84a708	0.016192928
35	0xbd77b5fc	-0.06047629
36	0xbd3f6f14	-0.04673679
37	0xbdbe35b4	-0.09287587
38	0xbcd70c78	-0.026251063
39	0xbcc9f960	-0.024655044
40	0x3d877612	0.06614317
41	0xbc8b7020	-0.017021239
42	0x3d478df4	0.04871936
43	0xbda537c2	-0.080672756
44	0xbcf1fac8	-0.029538527
45	0x3c603d10	0.013686433
46	0xbd7107d8	-0.05884537
47	0x3d8b19b4	0.06792012
48	0xbdcc5056	-0.0997626
49	0x3d962616	0.07331483
50	0x3da10c0c	0.07863626
51	0x3c9774b0	0.018488258
52	0xbdbce46a	-0.09223254
53	0xbd980658	-0.07423085
54	0x3df18c56	0.11794345
55	0xbcd58d98	-0.026068494
56	0xbd8a3f1c	-0.067503184
57	0xbd539f0c	-0.05166535
58	0x3daeb32c	0.08530268
59	0x3d8dd4b4	0.069253355
60	0x3a95a100	0.001141578
61	0xbde55692	-0.111981526
62	0x3be503e0	0.0069889873
63	0xbdaef558	-0.08542889
64	0x3dcd3bca	0.100211695
65	0xbdd7abc0	-0.105308056
66	0x3d98616c	0.07440457
67	0x3da7b50a	0.08188827
68	0x3dbbdae8	0.091726124
69	0x3d07edb0	0.03318566
70	0x3da6b8b6	0.081406996
71	0x3d65a628	0.056066662
72	0x3cc49238	0.023995504
73	0xbdc8e024	-0.098083764
74	0x3d2de35c	0.042453155
75	0xbbe18d40	-0.0068832934
76	0x3b6ef540	0.0036462098
77	0x3db25eac	0.087094635
78	0x3d731db8	0.059354514
79	0xbd8cfa8a	-0.06883724
80	0x3bf797a0	0.007555917
81	0x3d37fa2c	0.044916317
82	0x3ddb96e2	0.10722138
83	0x3d37fbbc	0.044917807
84	0xbddfdf8a	-0.109313086
85	0x3b2ca880	0.002634555
86	0x3d6b156c	0.057393476
87	0xbd11c4c4	-0.03558804
88	0x3cd108d0	0.025516897
89	0xbd80aca2	-0.06282927
90	0xbc53bd40	-0.012923539
91	0x3dce35d0	0.10068858
92	0x3de76062	0.112976804
93	0xbded0370	-0.11572921
94	0x3d82d6b0	0.06388605
95	0xbdd12b44	-0.102133304
96	0x3d9c7456	0.07639377
97	0x3dd788be	0.105241284
98	0xbc67d690	-0.014150277
99	0x3d1f14a8	0.03883806
100	0xbdf789a8	-0.12086803
101	0xbd96ada8	-0.07357341
102	0xbd3b5cf4	-0.045742944
103	0x3d01ecbc	0.031719908
104	0xbd2fd750	-0.042929947
105	0x3a10ef00	0.0005528778
106	0xbd5a393c	-0.05327724
107	0x3dd029f8	0.10164255
108	0x3ccf9268	0.025338367
109	0xbc481ba0	-0.012213618
110	0xbdc6963c	-0.09696624
111	0x3db9f110	0.09079182
112	0x3db66598	0.08906096
113	0x3ca74ce8	0.020422414
114	0xbdbe4052	-0.09289612
115	0x3d7905cc	0.060796544
116	0x3db87d32	0.09008254
117	0x3dba6fbe	0.091033444
118	0xbd096df8	-0.03355214
119	0x3c1441b0	0.009048864
120	0x3dea2336	0.11432497
121	0xbc6d1cd0	-0.0144722015
122	0xbdf86f38	-0.12130588
123	0x3cda5428	0.026651457
124	0x3dcb95ee	0.09940706
125	0x3dabfe34	0.08398095
126	0x3d4841d0	0.04889089
127	0x3d5836fc	0.052786812
128	0xbc39d2a0	-0.011341721
129	0xbc7a52b0	-0.015278503
130	0x3cfdc5d8	0.030978128
131	0x3d207bf8	0.039180726
132	0x3d79cb08	0.06098464
133	0xbc0431b0	-0.008068487
134	0x3d9a5af2	0.07536878
135	0x3dce910c	0.10086259
136	0xbddf4b38	-0.10903019
137	0x3db868ae	0.09004341
138	0x3da8fca2	0.08251311
139	0x3d41cf04	0.047316566
140	0xbdc763d4	-0.097358376
141	0xbc5ac090	-0.013351575
142	0x3dfa26d4	0.12214437
143	0xbd958f58	-0.07302731
144	0xbdc70faa	-0.097197846
145	0x3de0fc60	0.10985637
146	0x3c0627e0	0.008188218
147	0xbd99b000	-0.075042725
148	0x3c050330	0.008118436
149	0x3d796070	0.060882986
150	0x3c1d8ed0	0.009616569
151	0xbd4380ec	-0.04773037
152	0x3d2d6538	0.042332858
153	0xbdb65d9a	-0.08904572
154	0x3df24966	0.11830406
155	0xbc9ae5e0	-0.018908441
156	0xbd4e7fc0	-0.0504148
157	0x3d168b74	0.036754087
158	0x3cf1c058	0.029510662
159	0x3d252f44	0.04032828
160	0x3d9b2838	0.075760305
161	0xbcbd8b60	-0.023137748
162	0x3ded166a	0.11576541
163	0xbdbdb322	-0.092626825
164	0xbd96c45e	-0.07361673
165	0xbd1e6a68	-0.038675696
166	0x3dc1786a	0.09446795
167	0x3d1970ec	0.037461206
168	0x3d34d290	0.04414612
169	0xbd462178	-0.048371762
170	0x3dbb5074	0.091462046
171	0xbdc8c778	-0.09803671
172	0x3d8e0328	0.06934196
173	0x3d0da014	0.03457649
174	0xbba71160	-0.005098507
175	0x3cbfa6e8	0.023395017
176	0xbd805cea	-0.06267722
177	0xbd298808	-0.041389495
178	0xbdeb7ca8	-0.11498386
179	0x3d321868	0.043480307
180	0x3dd2b28c	0.10287961
181	0x3d9800fe	0.07422064
182	0x3b9ae980	0.0047275424
183	0x3d1c899c	0.038217172
184	0xbdf6444e	-0.12024747
185	0xbd2732bc	-0.04081987
186	0xbd1322b4	-0.035921767
187	0x3dd4b7a6	0.10386591
188	0xbdb33d38	-0.08751911
189	0x3b9d8140	0.0048066676
190	0xbce29e70	-0.02766344
191	0xbdbf04a6	-0.093270585

gru.bias_hh_l0 f4 [192]
0	0x3d80d5d0	0.062907815
1	0xbd023ca8	-0.031796128
2	0x3db66738	0.08906406
3	0x3d343df8	0.04400441
4	0x3d3b2e74	0.045698598
5	0xbcd4cbd0	-0.025976092
6	0x3c1d5df0	0.009604916
7	0x3de05c76	0.109551355
8	0xbdf8f84a	-0.121567324
9	0xbd819636	-0.063274786
10	0x3d631068	0.055435568
11	0x3cdcdb10	0.026959926
12	0xbdcd2346	-0.100164935
13	0x3df3f316	0.11911599
14	0x3d3dd090	0.04634148
15	0xbd719b3c	-0.058985934
16	0x3d4ca52c	0.049962208
17	0xbc22a980	-0.009928107
18	0x3c93df90	0.018050939
19	0x3de0bdb8	0.10973686
20	0x3df39004	0.11892703
21	0xbd357a18	-0.04430589
22	0x3d9d26b2	0.07673396
23	0xbd258a30	-0.04041499
24	0x3d8091e4	0.062778264
25	0x3b576480	0.00328663
26	0xbd635aa8	-0.05550638
27	0xbde74714	-0.11292854
28	0x3b42bdc0	0.002971515
29	0x3c72f250	0.01482828
30	0x3d8dc34e	0.06922017
31	0x3d8d6046	0.06903128
32	0xbd863f2a	-0.06555016
33	0xbde5c836	-0.11219828
34	0x3d2b9150	0.041886628
35	0xbce2a858	-0.027668163
36	0x3de5b676	0.11216442
37	0x3de20734	0.1103653
38	0xbde44bac	-0.11147246
39	0x3dabc11a	0.083864406
40	0xbd39bdf8	-0.045347184
41	0x3d8e06ae	0.06934868
42	0x3dae97b8	0.08525032
43	0xbd8d3772	-0.06895341
44	0x3d19a958	0.037515014
45	0xbd2f5eec	-0.042815134
46	0x3c9217c0	0.01783359
47	0x3d7cfc78	0.06176421
48	0x3b84acc0	0.0040489137
49	0x3dc6145c	0.09671852
50	0xbc1896e0	-0.009313315
51	0xbd01df20	-0.03170693
52	0xbc4669e0	-0.0121102035
53	0x3d719bb4	0.05898638
54	0x3caa1540	0.020762086
55	0xbcb3be60	-0.021941364
56	0x3ddb30d6	0.10702674
57	0x3d9dc630	0.07703817
58	0x3a39cd00	0.00070877373
59	0x3d9696e4	0.07352999
60	0x3cd7ce48	0.02634348
61	0x3c56cd10	0.013110414
62	0xbbe8ada0	-0.007100776
63	0xbd0bdbf0	-0.034145296
64	0x3def6c0a	0.11690529
65	0x3d347740	0.04405904
66	0xbcfe8028	-0.031066969
67	0xbd9425c2	-0.07233764
68	0xbde98d5c	-0.11403915
69	0xbdf82c86	-0.12117867
70	0xbc990ef8	-0.018683895
71	0xbced4c68	-0.028967097
72	0xbd082cb8	-0.033245772
73	0xbdcd0790	-0.10011208
74	0x3d1a139c	0.037616357
75	0x3dbdf67a	0.09275527
76	0x3c173750	0.009229496
77	0x3d44cf6c	0.048049375
78	0xbd1428cc	-0.03617172
79	0xbddb0398	-0.10694045
80	0x3dfd1352	0.12357201
81	0xbdf96310	-0.12177098
82	0xbccc5830	-0.024944395
83	0xbdbfa46a	-0.09357531
84	0x3d99b048	0.07504326
85	0xbcb971a8	-0.022637203
86	0xbdd88f44	-0.10574201
87	0xbc931cc8	-0.01795806
88	0x3da286d2	0.07935871
89	0x3d1edd58	0.03878531
90	0x3d3979b8	0.045282096
91	0x3dd29a60	0.10283351
92	0xbd3014dc	-0.042988643
93	0xbc827a70	-0.015927523
94	0x3df28c08	0.11843115
95	0xbdde9438	-0.10868114
96	0xbab5e400	-0.0013877153
97	0xbc5fee90	-0.013667718
98	0x3d66ddb4	0.056363776
99	0x3cf89cf8	0.030348286
100	0x3d355e4c	0.04427938
101	0xbcc0de18	-0.023543403
102	0x3de5ff26	0.11230306
103	0xbddb5a6c	-0.10710606
104	0x3dc7b36c	0.09751019
105	0xbd673458	-0.056446403
106	0xbd6f779c	-0.058463678
107	0x3d87812c	0.066164345
108	0x3ccc3828	0.024929121
109	0x3de4b252	0.111668244
110	0xbd90a934	-0.07063523
111	0xbd76f3dc	-0.060291156
112	0xbca3d8d8	-0.02000086
113	0xbda6ea8c	-0.08150205
114	0x3da87888	0.082261145
115	0x3db3c21e	0.08777259
116	0xbd12a4a4	-0.035801545
117	0x3ccdcf28	0.025123194
118	0x3d7d14fc	0.06178759
119	0xbdcee058	-0.10101384
120	0xbd5bb108	-0.053635627
121	0xbd2caa78	-0.04215476
122	0xbd566f98	-0.052352518
123	0x3c9a0780	0.018802404
124	0x3d8bf902	0.06834604
125	0x3cea0fe0	0.028572023
126	0x3d839674	0.06425181
127	0xbd6cb39c	-0.057788476
128	0x3ddba5da	0.10724993
129	0xbdc75344	-0.097326785
130	0xbc354bd0	-0.011065438
131	0x3dc26d7a	0.09493537
132	0xbdfb4da0	-0.12270665
133	0x3d35fc04	0.044429794
134	0xbddb1908	-0.10698134
135	0x3da0bf04	0.07848933
136	0x3d91ecb0	0.07125223
137	0x3bc201e0	0.0059206337
138	0xbc16bd70	-0.009200439
139	0xbdffc166	-0.1248806
140	0xbda736c0	-0.081647396
141	0x3da42300	0.08014488
142	0x3d944ab4	0.07240811
143	0xbc9dad68	-0.019247726
144	0xbd868336	-0.06567995
145	0xbce99508	-0.028513446
146	0x3da2524c	0.07925853
147	0xbc0d4270	-0.008621797
148	0xbd2e8a94	-0.042612627
149	0xbdb4e67c	-0.08833024
150	0xbda54e88	-0.08071619
151	0x3d5c3558	0.05376181
152	0xbdfd19a8	-0.12358409
153	0x3bd75840	0.0065717995
154	0xbc0b8220	-0.008514911
155	0xbc333960	-0.010938972
156	0x3df5aee4	0.11996248
157	0x3dbc526e	0.0919541
158	0x3dcfd2c8	0.10147625
159	0xbd8f5d3e	-0.070002064
160	0x3dbad98c	0.09123525
161	0xbdf433b2	-0.119239226
162	0x3d638c38	0.055553645
163	0xbde88e74	-0.11355296
164	0xbddfd25e	-0.10928796
165	0x3d1dab4c	0.03849344
166	0x3d60967c	0.054831013
167	0xbdda7ebe	-0.106687054
168	0xbd835d0a	-0.0641423
169	0xbc9edb58	-0.0193917
170	0x3ca0fc78	0.019651636
171	0xbd7b9298	-0.0614191
172	0x3df41244	0.119175464
173	0x3d907594	0.07053676
174	0xbca51270	-0.020150393
175	0xbd823808	-0.06358343
176	0xbdb485e2	-0.088145986
177	0x3dfb05b8	0.1225695
178	0xbcce3a28	-0.025174215
179	0xbc9e1ef0	-0.019301862
180	0xbdb880e6	-0.090089604
181	0xbcfefe38	-0.03112708
182	0x3dbe3aae	0.09288536
183	0x3d2d9748	0.0423806
184	0x3bcb50e0	0.0062047094
185	0xbdea63a6	-0.11444788
186	0xbd12c37c	-0.03583096
187	0xbdea6edc	-0.11446926
188	0x3d5c881c	0.05384074
189	0x3dd857c8	0.10563618
190	0xbd6fd344	-0.058551088
191	0x3d2b4498	0.041813463

gru.weight_ih_l1 f4 [192, 64]
0	0x3dda5a12	0.10661711
1	0xbcacc2d8	-0.021089002
2	0xbcfb3aac	-0.030667625
3	0x3d9d2319	0.0767271
4	0x3b97fcbc	0.0046382826
5	0xbd234d17	-0.03986844
6	0x3c44ef61	0.012019963
7	0x3d590a00	0.052988052
8	0xbc64955d	-0.013951627
9	0x3dfa2c72	0.122155085
10	0x3d502fa4	0.050826684
11	0x3c291e80	0.010322213
12	0xbc34507b	-0.011005516
13	0xbca50b18	-0.020146891
14	0xbd334404	-0.043766037
15	0xbc800b00	-0.015630245
16	0x3e1aa2c4	0.15101153
17	0x3d7774b3	0.060414027
18	0xbe109194	-0.14118034
19	0xbde0f9a6	-0.10985117
20	0x3db399e6	0.08769588
21	0x3cc99c99	0.024610804
22	0xbd8d7a16	-0.06908052
23	0x3db44f4a	0.08804186
24	0x3dc95e4e	0.0983244
25	0xbde3ea59	-0.11128683
26	0x3d8037aa	0.06260617
27	0xbd53d630	-0.051717937
28	0xbce143c8	-0.02749814
29	0xbd7eefbe	-0.062240355
30	0xbc759290	-0.0149885565
31	0x3da5b1a3	0.08090522
32	0xbda5131c	-0.080602854
33	0xb9d741cc	-0.00041057018
34	0xbcd4a64d	-0.025958205
35	0xbd6e37ac	-0.05815856
36	0x3db1ad44	0.08675626
37	0xbcb29e29	-0.021803932
38	0xbdc435cd	-0.09580574
39	0x3c95f788	0.018306509
40	0xbd0801d5	-0.033204872
41	0xbde04b58	-0.10951871
42	0x3cdf0b39	0.027227031
43	0xbdbac8be	-0.0912032
44	0x3daec72c	0.08534083
45	0xbd7f4a69	-0.062326822
46	0xbd4eb73c	-0.050467715
47	0x3b13f540	0.00225766
48	0x3bf494a6	0.0074640093
49	0x3d99e2d3	0.075139664
50	0xbcdb5e50	-0.02677837
51	0x3b0974fd	0.0020974271
52	0xbdae1c90	-0.085015416
53	0x3dfb2b38	0.12264103
54	0x3d92ebd2	0.071738854
55	0x3df371f2	0.11886968
56	0x3dc76d82	0.09737684
57	0xbd09909c	-0.033585176
58	0xbd9c4ace	-0.07631455
59	0xbd38a36d	-0.04507773
60	0x3d6a82fa	0.057253815
61	0x3c0ce450	0.008599356
62	0x3d1b8b20	0.037974477
63	0x3e08bc88	0.13353169
64	0xbcf893b8	-0.030343875
65	0x3d80b658	0.06284779
66	0xbc5746b0	-0.013139412
67	0xbe125594	-0.14290458
68	0xbc772c0b	-0.015086184
69	0x3bbd4edf	0.0057772244
70	0xbe18d9cd	-0.14926834
71	0x3d4e5df8	0.050382584
72	0xbd2aab04	-0.041667
73	0xbd2bc2f0	-0.041933954
74	0x3c693d10	0.01423575
75	0x3c5abf20	0.013351232
76	0x3c41c4cd	0.011826706
77	0xbd556618	-0.052099317
78	0xbd336c10	-0.04380423
79	0xbcec91e8	-0.028878167
80	0xbb34e92e	-0.0027604806
81	0xbde7ec5d	-0.113243796
82	0xbd8c602c	-0.06854281
83	0xbcf39008	-0.029731765
84	0xbd163772	-0.03667397
85	0xbc84fe8c	-0.016234659
86	0x3daa4eb6	0.08315794
87	0x3d73c808	0.059516937
88	0xbde4b6c6	-0.11167674
89	0x3c3ed9be	0.0116485935
90	0xba1e9650	-0.000604962
91	0x3d0a54fc	0.033772454
92	0xbbd9bb00	-0.0066446066
93	0x3d132a18	0.035928816
94	0x3dafce92	0.08584322
95	0x3d625da5	0.055265088
96	0xbde0dffa	-0.1098022
97	0xbcc8e7ff	-0.024524687
98	0x3e10cd77	0.14140879
99	0xbdb31b40	-0.08745432
100	0xbca269c7	-0.01982583
101	0x3c5504f2	0.013001667
102	0xbdc019e7	-0.093799405
103	0x3dab3a54	0.083607346
104	0x3d237310	0.039904654
105	0xbcc06280	-0.023484468
106	0x3ddedbf3	0.10881796
107	0x3d217264	0.039415732
108	0xbcab60d6	-0.020920198
109	0x3ca4bcd6	0.020109575
110	0x3d2bb068	0.04191628
111	0x3d0e46c0	0.03473544
112	0x3e0d4555	0.1379598
113	0xbdaf2f49	-0.08553941
114	0x3ddd3628	0.10801345
115	0xbc6e6f5b	-0.014552916
116	0xbd3a5ffd	-0.045501698
117	0xbd9916ae	-0.07475029
118	0x3c7715a0	0.015080839
119	0xbd1afc40	-0.03783822
120	0x3dfe6900	0.12422371
121	0xbcab4ce0	-0.02091068
122	0xbc9af818	-0.018917128
123	0xbd92577f	-0.07145595
124	0xbe211e87	-0.15734302
125	0x3d5754c4	0.052571073
126	0x3bccad40	0.006246239
127	0x3d85e130	0.06537092
128	0xbd80714e	-0.06271611
129	0xbcab9500	-0.020945072
130	0x3dff39d1	0.124621995
131	0x3d46ed4e	0.048566155
132	0xbdae0984	-0.08497909
133	0x3dc7ba9a	0.09752388
134	0x3da1f077	0.07907193
135	0xbda5d8d8	-0.08098
136	0xbd060d29	-0.032727394
137	0x3d0e3ad0	0.034724057
138	0x3d0a3588	0.033742458
139	0x3dd5fb5c	0.104483336
140	0xbd8bf631	-0.06834067
141	0x3dddcda8	0.108302414
142	0xbdf8607c	-0.12127778
143	0xbc1809a0	-0.0092796385
144	0x3df7577b	0.120772325
145	0xbde53fc3	-0.11193802
146	0xbdbc9519	-0.092081256
147	0xbd62a610	-0.05533415
148	0x3bfc774b	0.0077046505
149	0xbc383130	-0.011242196
150	0x3d2f11c4	0.042741552
151	0xbd7dc5c0	-0.061956167
152	0x3d176ea4	0.03697075
153	0x3cd34175	0.025788048
154	0xbe0f43cb	-0.13990705
155	0xbd9f12e4	-0.07767275
156	0x3cc08b00	0.02350378
157	0xbd8eba21	-0.06969095
158	0x3bb2c9c0	0.0054561794
159	0x3d9b1f99	0.07574386
160	0xbd288db0	-0.04115075
161	0x3da057dd	0.078292586
162	0x3e1e786f	0.1547563
163	0xbc8fb308	-0.017541423
164	0x3d5b01c9	0.0534685
165	0x3cd5175f	0.02601212
166	0xbdba2adc	-0.09090206
167	0x3cea01a8	0.028565243
168	0x3d670b6e	0.056407385
169	0x3db38688	0.08765894
170	0x3dd4e02d	0.10394321
171	0x3de4552e	0.11149059
172	0xbe16d4d3	-0.14729623
173	0x3d364d97	0.04450759
174	0xbd1ba060	-0.037994742
175	0xbdb43984	-0.08800033
176	0x3e24b46e	0.16084453
177	0xbe11d899	-0.14242782
178	0x3dc81aee	0.097707614
179	0xbdb63d8d	-0.08898459
180	0xbd2d6f08	-0.042342216
181	0xbde9f84e	-0.114243135
182	0x3c8aef60	0.016959846
183	0xbd5e5ecc	-0.054289624
184	0xbd60b5ec	-0.054860994
185	0xbc999c80	-0.018751383
186	0x3c401860	0.011724561
187	0x3d8e9cbf	0.06963491
188	0xbc90abd1	-0.017660053
189	0xbd94a082	-0.07257177
190	0xbbbb5340	-0.0057167113
191	0xbd9da197	-0.076968364
192	0xbdc8fc54	-0.09813753
193	0x3db3e586	0.087840125
194	0x3d89cc9e	0.06728481
195	0x3c92faf3	0.017941928
196	0xbdc54536	-0.096323416
197	0xbd200a1e	-0.03907215
198	0xbcb447b8	-0.022006854
199	0x3db929f4	0.09041205
200	0xbbb3fcfa	-0.0054928036
201	0xbd5e6964	-0.054299727
202	0x3c1d6500	0.0096066
203	0x3d37b958	0.044854492
204	0x3cf8bf91	0.030364783
205	0x3d968842	0.07350208
206	0x3b67e840	0.0035386235
207	0xbd2aada8	-0.041669518
208	0xbbc2991c	-0.005938662
209	0xbd09a5d4	-0.03360541
210	0xbe1ccc5b	-0.1531233
211	0x3d08c0f8	0.033387154
212	0xbe1c2e1f	-0.15251969
213	0x3e0c5750	0.13705182
214	0x3d45651c	0.04819213
215	0x3d9ee96a	0.07759364
216	0xbca25d38	-0.01981984
217	0xbcdf8fd9	-0.027290272
218	0xbd510320	-0.05102837
219	0x3deb413e	0.11487053
220	0x3c5c3310	0.013439909
221	0x3d5ea0b0	0.054352462
222	0xbdc2d9d8	-0.09514207
223	0xbe22a599	-0.15883483
224	0xbd75e170	-0.060029447
225	0xbd585530	-0.052815616
226	0x3dd12f9a	0.102141574
227	0x3d6a6464	0.057224646
228	0xbe1c329f	-0.15253685
229	0x3d72df4a	0.059294976
230	0xbccb5530	-0.024820894
231	0x3d97482c	0.073868126
232	0x3e092ec9	0.13396753
233	0xbdf6e6b8	-0.12055725
234	0x3ddcccfc	0.10781285
235	0xbdcc405e	-0.099732146
236	0x3c4627e8	0.012094475
237	0x3df51ba0	0.1196816
238	0x3d660f7c	0.05616711
239	0x3d32e5c4	0.043676153
240	0xbd34e4ae	-0.0441634
241	0xbe21f70d	-0.15816899
242	0xbcaf5920	-0.021404803
243	0xbd459d88	-0.048245937
244	0x3d89481c	0.06703207
245	0x3b722040	0.0036945492
246	0x3df5db96	0.12004773
247	0x3dbbcf8e	0.09170447
248	0x3d96963c	0.07352874
249	0xbd594758	-0.053046554
250	0xbdf82edc	-0.12118313
251	0xbc098025	-0.008392368
252	0xbd2f2522	-0.042760022
253	0x3d6ba1a8	0.057527214
254	0xbdae09d4	-0.08497968
255	0x3d836fe1	0.064178236

gru.weight_hh_l1 f4 [192, 64]
0	0x3dfba47e	0.12287234
1	0xbddc1022	-0.107452646
2	0xbd3e8802	-0.046516426
3	0x3e0d4599	0.1379608
4	0x3d9c6efd	0.07638357
5	0x3cfd1c57	0.030897303
6	0x3d754b7d	0.059886444
7	0xbc47af11	-0.012187735
8	0xbcd20af4	-0.025639988
9	0xbd07de23	-0.03317083
10	0x3d8ead94	0.06966701
11	0xbe34285a	-0.17593518
12	0xbdfbdbf6	-0.122978136
13	0x3d3452f9	0.04402444
14	0xbc5c164e	-0.013433052
15	0x3d3d262d	0.046178985
16	0xbc9aedfb	-0.018912306
17	0xbda61683	-0.081097625
18	0x3ca595c7	0.020213021
19	0x3c41cc40	0.011828482
20	0x3e31977c	0.17342943
21	0x3c1b0e32	0.009463834
22	0xbc9b0c0c	-0.018926643
23	0x3ca377a4	0.01995451
24	0xbdac9c68	-0.084282696
25	0xbcbf7b55	-0.023374239
26	0x3d755ca5	0.059902806
27	0x3d08eefd	0.033431042
28	0xbd57dd98	-0.052701563
29	0xbcf42749	-0.029803889
30	0xbd98c99d	-0.0746033
31	0x3c9d5417	0.019205136
32	0xbde9fe24	-0.114254266
33	0xbd798a0d	-0.06092267
34	0xbd9eba1f	-0.077503435
35	0x3ded81fc	0.11597058
36	0x3d6bcf44	0.05757071
37	0xbd08e84d	-0.033424664
38	0x3dcf328c	0.10117063
39	0xbde252b5	-0.11050931
40	0xbd123378	-0.035693616
41	0x3de9b8e5	0.11412219
42	0xbd975082	-0.073884025
43	0x3dab9bab	0.08379301
44	0xbd57719e	-0.05259859
45	0xbcaa864c	-0.02081599
46	0xbdf6aeef	-0.12045085
47	0x3df39426	0.118934914
48	0xbd771a63	-0.0603279
49	0xbcd9090a	-0.026493568
50	0xbdabc5be	-0.08387326
51	0xbc30eafe	-0.010798214
52	0x3cd9f3e0	0.026605546
53	0x3c3d6ae0	0.0115611255
54	0x3e0c6e99	0.13714065
55	0xbd2cc32d	-0.04217832
56	0xbd45474b	-0.048163693
57	0xbdc5915d	-0.096468665
58	0x3d60f153	0.054917645
59	0x3ce1cd70	0.02756378
60	0x3ccc6ef8	0.024955258
61	0xbd0c02cc	-0.034182355
62	0xbdaf77a2	-0.0856774
63	0x3db3d5a5	0.08780984
64	0x3e27d01f	0.16387986
65	0xbd0db6aa	-0.03459803
66	0xbd1ff8d1	-0.03905565
67	0x3c412b4e	0.01179011
68	0x3d8d1e86	0.068905875
69	0xbbaa0154	-0.0051881466
70	0x3dc0c33e	0.094122395
71	0x3ba314e8	0.0049768575
72	0x3e116c3c	0.14201444
73	0xbd7da6f8	-0.061926812
74	0xbd113eec	-0.035460398
75	0xbb62bc12	-0.0034596962
76	0xbd426385	-0.04745819
77	0x3d2b3915	0.041802485
78	0xbd2a881d	-0.041633714
79	0x3d5394d3	0.0516556
80	0xbd7eef66	-0.062240027
81	0xbda17b53	-0.0788485
82	0x3d161707	0.036643054
83	0xbd22ba69	-0.039728556
84	0x3da58cf3	0.080835246
85	0xbe243da6	-0.16039142
86	0xbd555aff	-0.052088734
87	0xbbe42bf3	-0.006963247
88	0xbb5f96b8	-0.0034116935
89	0x3cab05b4	0.020876743
90	0xbc85514f	-0.016274123
91	0xbd199306	-0.037493728
92	0x3e1e935f	0.15485905
93	0xbdc0b790	-0.09410012
94	0xbda6524c	-0.08121166
95	0xbdbd8791	-0.09254373
96	0xbe0b0104	-0.13574606
97	0x3c237d46	0.009978598
98	0xbddb446b	-0.10706409
99	0xbd346602	-0.044042595
100	0x3c0b4233	0.00849967
101	0xbdf1aa60	-0.118000746
102	0x3d6a6659	0.057226513
103	0xbca97f9d	-0.020690734
104	0x3c1cb9b6	0.009565761
105	0x3dec6c94	0.11544147
106	0x3d1b164e	0.03786307
107	0xbd075645	-0.033041257
108	0xbc24c487	-0.010056621
109	0xbe15d92c	-0.14633626
110	0x3d90b30a	0.07065399
111	0xbc5715b2	-0.013127731
112	0x3d6dd3c9	0.058063302
113	0xbe19157b	-0.149496
114	0x3daab8e1	0.08336044
115	0xbe2652bc	-0.16242498
116	0xbd07482f	-0.033027824
117	0x3de5b136	0.11215441
118	0xbcb9b221	-0.022667946
119	0xbcff2501	-0.031145575
120	0xbd6b17f6	-0.057395898
121	0x3d9fcd9e	0.0780289
122	0x3d65dab0	0.05611676
123	0x3d8d127e	0.06888293
124	0xbe1f9f7a	-0.15588179
125	0x3e1a6ce0	0.15080595
126	0xbdd350fc	-0.10318181
127	0x3d863949	0.06553895
128	0x3e03ac14	0.12858611
129	0xbdfd121d	-0.123569705
130	0x3d9c25b5	0.076243795
131	0x3d9ffb37	0.07811587
132	0x3d8b172b	0.06791528
133	0x3d2c75ab	0.042104404
134	0x3b3d6656	0.0028900108
135	0xbe22b068	-0.15887606
136	0xbcd9e00e	-0.026596095
137	0xbd45fe64	-0.04833831
138	0xbcb6f784	-0.022334822
139	0xbe064414	-0.13111907
140	0xbc5a55c5	-0.013326113
141	0x3d81ddf2	0.06341161
142	0x3dc928bf	0.09822225
143	0xbe2ffcb7	-0.17186247
144	0x3ceb2140	0.028702378
145	0xbd1dad01	-0.038495068
146	0x3cf67796	0.03008632
147	0xbd5f595b	-0.054528575
148	0x3dfd92ca	0.123815134
149	0xbcd41797	-0.025890155
150	0x3db30dda	0.08742876
151	0x3d2cc974	0.04218431
152	0xbcf13330	-0.029443353
153	0x3b40288d	0.0029321045
154	0x3d23a4a7	0.039951947
155	0xbe2c1551	-0.16805007
156	0x3e0992ee	0.13434955
157	0xbe23c564	-0.15993267
158	0x3cf7ed28	0.030264452
159	0xbe314ac4	-0.17313677
160	0xbddf31ab	-0.10898145
161	0x3e04a096	0.12951884
162	0xbe0eec83	-0.1395741
163	0x3c8aeae3	0.016957706
164	0xbd3beba2	-0.045879014
165	0x3d6246ee	0.055243425
166	0x3de16c69	0.11007006
167	0xbdfa6736	-0.12226717
168	0x3d481a7c	0.048853382
169	0x3e2faaa6	0.17154941
170	0xbd492cc0	-0.049114943
171	0x3ddd2c03	0.1079941
172	0x3dce7b69	0.10082132
173	0xbd885e6f	-0.06658637
174	0x3b3c4d08	0.0028732438
175	0x3d87cbe1	0.06630684
176	0xbcf81810	-0.030284911
177	0xbccf4d67	-0.025305463
178	0xbd911246	-0.070835635
179	0xbe307b27	-0.17234479
180	0x3db7df5a	0.08978148
181	0x3dafbb33	0.08580627
182	0x3dbee76f	0.09321486
183	0x3e301a16	0.17197451
184	0x3d594191	0.053041045
185	0xbd275cc6	-0.04085996
186	0x3d50d06e	0.050980024
187	0xbe233996	-0.15939936
188	0x3a9a9baa	0.0011795659
189	0x3e225575	0.15852912
190	0x3ba12d5e	0.0049187383
191	0xbd9b231f	-0.07575058
192	0x3dc9cccc	0.09853515
193	0xbe116474	-0.14198476
194	0x3d5e803b	0.05432151
195	0x3df16754	0.117872864
196	0xbd993c1e	-0.074821696
197	0x3da1b037	0.078949384
198	0x3d93a7b2	0.0720972
199	0x3cabf7ff	0.020992277
200	0xbbcdc421	-0.006279484
201	0xbe04aa64	-0.12955624
202	0x3d4980b6	0.049195014
203	0x3da13842	0.078720585
204	0xbc81728d	-0.015801692
205	0xbe2a742d	-0.1664588
206	0xbd07beca	-0.033140935
207	0xbdc0c891	-0.09413255
208	0x3e05532b	0.13020007
209	0xbdcee459	-0.101021476
210	0x3da1f3a8	0.07907802
211	0x3d7f0d41	0.0622685
212	0xbe05af73	-0.1305521
213	0xbdab8ed4	-0.08376852
214	0x3da55e59	0.08074636
215	0x3d60dc3b	0.05489753
216	0xbdc0768d	-0.09397612
217	0x3db1f202	0.086887375
218	0x3e160162	0.14648965
219	0xbdca4db1	-0.098781
220	0xbd9c5c3e	-0.07634781
221	0x3bbd4306	0.005775812
222	0x3d864ab6	0.06557219
223	0xbdd20bbd	-0.10256145
224	0xbd4686e9	-0.048468504
225	0xbc6ef8c5	-0.0145856785
226	0xbd72dc03	-0.05929185
227	0x3d23679f	0.039893743
228	0x3ba44db8	0.0050141476
229	0xbccf5475	-0.025308827
230	0x3d8c5327	0.068517976
231	0xbdd84cda	-0.10561533
232	0x3c8b4212	0.016999278
233	0x3d8b929b	0.06815072
234	0xbdd5e233	-0.10443535
235	0x3dba6eb7	0.091031484
236	0x3cce228c	0.025162958
237	0x3d1e2576	0.038609944
238	0x3d864121	0.06555391
239	0x3e0e0e32	0.13872603
240	0xbdd63d3e	-0.104609
241	0xbe1d5bc7	-0.15367042
242	0xbd721261	-0.05909956
243	0xbe2acc8f	-0.16679595
244	0x3e1e30bc	0.15448278
245	0x3e04adb7	0.12956892
246	0x3e0c8272	0.13721636
247	0x3d519e63	0.05117644
248	0x3b77c315	0.0037805487
249	0xbde3f750	-0.111311555
250	0x3dd2dec2	0.10296394
251	0xbd9a947b	-0.07547852
252	0xbd28bb3b	-0.041194182
253	0x3e03ee38	0.12883842
254	0x3d8e9292	0.0696155
255	0x3bcfc0a3	0.0063401028

gru.bias_ih_l1 f4 [192]
0	0x3b70349f	0.0036652458
1	0x3d74a8f5	0.059731442
2	0x3e1ec5c7	0.15505134
3	0x3dd94ffa	0.106109574
4	0x3d081c60	0.033230186
5	0x3dd2600b	0.10272225
6	0xbd3170b7	-0.043320384
7	0x3de588ee	0.11207758
8	0x3da216a5	0.07914475
9	0xbda6279f	-0.08113026
10	0x3d276da4	0.040876046
11	0x3d664663	0.05621947
12	0x3d6eb08d	0.05827384
13	0x3d991cf0	0.074762225
14	0x3d9807e9	0.07423384
15	0x3dc04c1a	0.09389515
16	0x3d9d7bd9	0.07689638
17	0x3d827c1a	0.06371327
18	0x3df79754	0.120894104
19	0x3d68b5eb	0.056814115
20	0x3c69aa40	0.014261782
21	0xbce6b6f8	-0.028163418
22	0x3bd453e4	0.006479727
23	0xbd804a3f	-0.06264161
24	0x3e0b3235	0.13593371
25	0x3e1278a1	0.14303829
26	0xbd2e2fe5	-0.042526145
27	0x3d318884	0.043343082
28	0x3b7da209	0.0038701317
29	0x3dcf1307	0.10111051
30	0x3c69e9d5	0.014276941
31	0x3d3b7147	0.045762327
32	0xbd1f1a37	-0.03884336
33	0x3d373b56	0.04473432
34	0x3d487205	0.048936862
35	0x3dd9f3a4	0.10642174
36	0x3d1e8a28	0.038705975
37	0xbd3f8a9d	-0.04676305
38	0x3d93287d	0.07185457
39	0x3d72b5a2	0.05925525
40	0xbc833384	-0.016015776
41	0x3e1ad7df	0.15121411
42	0xbd7851d3	-0.06062491
43	0x3d8a99c6	0.06767611
44	0x3e22214e	0.15833017
45	0x3b1ec72d	0.0024227605
46	0xbc7b4065	-0.015335177
47	0xbc5be153	-0.013420421
48	0x3ca1d0bb	0.01975285
49	0x3db943de	0.09046148
50	0x3cc5cf77	0.024146779
51	0xbd5c40b5	-0.053772647
52	0x3d2455b9	0.040120814
53	0xbd016aa4	-0.03159584
54	0x3de6a8cc	0.11262664
55	0x3d535b6f	0.05160087
56	0xbd2e7e1d	-0.04260074
57	0x3df597e0	0.119918585
58	0x3cec917a	0.028877962
59	0x3d9a1c9c	0.07524988
60	0x3cd0bb14	0.02547983
61	0xbd38fa0a	-0.04516033
62	0x3d840372	0.0644597
63	0x3e0d5cf8	0.13804996
64	0xbdb50901	-0.08839608
65	0x3c930989	0.017948883
66	0x3dc2870c	0.094984144
67	0xbd9bb2ee	-0.076024875
68	0xbd4c6351	-0.049899403
69	0x3d19bbe7	0.037532713
70	0xba135ce4	-0.0005621447
71	0xbdcc02b9	-0.09961457
72	0xbd699b0f	-0.05703264
73	0x3d857fe0	0.06518531
74	0x3d559740	0.052146196
75	0xbdd7a3bb	-0.10529276
76	0xbde18d13	-0.11013236
77	0x3d8c328d	0.06845579
78	0x3bc87938	0.006117966
79	0xbde5a607	-0.11213308
80	0x3d48a0ed	0.048981596
81	0x3dc4e023	0.09613063
82	0xbdb847ee	-0.089980945
83	0xbd956adc	-0.072957724
84	0x3d4b4f4f	0.04963618
85	0xbb350a73	-0.0027624636
86	0xbd93c3e9	-0.07215101
87	0xbd0e64da	-0.03476415
88	0xbd353fc4	-0.044250265
89	0x3d4199a9	0.047265682
90	0x3b9a8411	0.0047154506
91	0x3d421caf	0.047390636
92	0x3d69123b	0.05690215
93	0x3d860dc2	0.06545593
94	0xbda5df51	-0.08099235
95	0xbd70111e	-0.058610074
96	0x3c5b7ff8	0.013397209
97	0x3d15c43f	0.036564108
98	0xbc2e55b4	-0.01064055
99	0xbdb56a05	-0.08858112
100	0xbd8cf53c	-0.06882712
101	0x3d18b608	0.037282974
102	0xbdbef0f6	-0.093233034
103	0x3b5f145f	0.0034039242
104	0x3d677f98	0.056518167
105	0xbd725934	-0.059167102
106	0xbe162385	-0.14661987
107	0xbe058f9e	-0.13043067
108	0xbd3280e5	-0.043579955
109	0xbdff7902	-0.12474252
110	0xbd96317e	-0.07333659
111	0x3d763685	0.060110588
112	0xbdc33c55	-0.09532992
113	0xbd3f7a64	-0.04674758
114	0xbd924611	-0.0714227
115	0xbd7d0995	-0.061776716
116	0xbbe25e4a	-0.006908213
117	0xbd9cfc9a	-0.076653674
118	0xbde6dcfc	-0.11272618
119	0xbdf09522	-0.11747195
120	0x3d9bbe22	0.07604624
121	0xbcda81df	-0.026673255
122	0xbdb796f9	-0.089643426
123	0xbceafd75	-0.02868531
124	0xbd2527df	-0.040321227
125	0xbd4bbc2f	-0.049740013
126	0xbb4cbdf7	-0.0031241158
127	0x3d858f3d	0.06521461
128	0x3d76fb8c	0.060298488
129	0xbe0ee9d0	-0.1395638
130	0x3e28d091	0.16485812
131	0x3db698bd	0.08915851
132	0xbda021c4	-0.0781894
133	0x3dbc6555	0.09199015
134	0x3e0af0a1	0.13568355
135	0x3d3cb652	0.04607231
136	0x3e2870db	0.16449301
137	0x3d8c3f14	0.06847969
138	0x3c507e65	0.012725447
139	0x3be5e1f0	0.0070154592
140	0xbdddbb97	-0.108267955
141	0x3cbee52c	0.023302637
142	0x3e223207	0.15839396
143	0x3c8c5f4d	0.017135287
144	0xbda8ee29	-0.082485504
145	0x3d2e6646	0.042578004
146	0xbe135bf0	-0.1439054
147	0xbd05011d	-0.032471765
148	0xbd70ed35	-0.05881997
149	0xbdfb81bc	-0.12280604
150	0xbd4fe8d7	-0.050759163
151	0xbdca4454	-0.09876314
152	0xbdf849dc	-0.121234626
153	0x3da5a0d5	0.08087317
154	0x3c24d9db	0.010061706
155	0xbdbf2caf	-0.093346946
156	0x3dd4184e	0.10356198
157	0xbd7eabf8	-0.06217572
158	0xbdb236e2	-0.08701874
159	0xbcaacbdc	-0.02084916
160	0x3d3ab036	0.045578204
161	0x3da6fd12	0.08153738
162	0xbe1c210e	-0.15246984
163	0x3e160376	0.14649758
164	0x3dc2a94e	0.095049486
165	0xbe0b4d84	-0.13603789
166	0x3e10689a	0.14102402
167	0xbe135519	-0.14387931
168	0x3ddc3972	0.10753144
169	0x3e07c6d8	0.13259447
170	0xbde684b9	-0.112557836
171	0x3e17477d	0.14773364
172	0x3dea1fe0	0.11431861
173	0xbe0ca2ba	-0.1373395
174	0xbbd16225	-0.0063898736
175	0xbc8ec3d6	-0.017427366
176	0x3c5cb81b	0.013471629
177	0xbdc50108	-0.09619337
178	0x3d2cb2c5	0.042162675
179	0xbda45d1c	-0.08025572
180	0x3bc3e86f	0.005978636
181	0x3d40b335	0.047045905
182	0x3dfebbac	0.12438139
183	0x3c03d521	0.008046419
184	0xbcb0fc9e	-0.021604832
185	0xbdaa983e	-0.08329819
186	0xbd3987f5	-0.045295674
187	0xbe1dc4e9	-0.15407147
188	0xbd921cc5	-0.071343936
189	0x3dd5c174	0.10437289
190	0xbe1f889a	-0.15579453
191	0xbd47c6eb	-0.048773687

gru.bias_hh_l1 f4 [192]
0	0xbd9e19cf	-0.07719766
1	0x3cdb8959	0.02679889
2	0x3de53f49	0.11193711
3	0x3c6b8d63	0.014376971
4	0x3e0f33af	0.1398456
5	0xbc871576	-0.016489726
6	0xbd8d252e	-0.06891857
7	0xbcff17f1	-0.031139346
8	0xbba7f631	-0.005125784
9	0x3d0db4d7	0.03459629
10	0xbceba841	-0.028766753
11	0x3d2f2334	0.04275818
12	0xbd9d9659	-0.07694692
13	0xbd962ec5	-0.07333139
14	0xbd8ea9fd	-0.069660164
15	0x3c400179	0.011719101
16	0x3d1d66cb	0.03842811
17	0xbd84de8d	-0.06487761
18	0x3ddb8f3c	0.10720679
19	0x3ce39626	0.027781557
20	0x3d8c71fe	0.0685768
21	0x3cbb7df0	0.0228872
22	0x3dcd3fa9	0.10021908
23	0xbcfa0db1	-0.030524107
24	0x3d2334a6	0.03984513
25	0x3c973124	0.01845605
26	0xbd4ffbee	-0.05077737
27	0x3d68287c	0.056679234
28	0xbd5acbc6	-0.05341699
29	0xbd60a3ac	-0.05484359
30	0x3d9d4844	0.07679799
31	0x3dd3bf42	0.10339214
32	0x3d26fd17	0.04076871
33	0x3dc47763	0.09593084
34	0x3cef3446	0.02919973
35	0x3de83f59	0.113402076
36	0x3d21b9ef	0.03948396
37	0x3d8fca3a	0.070209935
38	0x3a96444f	0.0011464449
39	0x3ce584b0	0.028017372
40	0x3cd7acf8	0.026327595
41	0x3d8044ca	0.062631205
42	0x3dc825d2	0.09772839
43	0x3d2742ec	0.040835306
44	0xbd55b95b	-0.052178722
45	0x3d5052d7	0.050860252
46	0x3de77d52	0.113032
47	0x3dabf68d	0.08396635
48	0x3e05337d	0.13007922
49	0xbde14108	-0.10998732
50	0x3cafcc52	0.021459732
51	0xbd36b265	-0.044603724
52	0x3defda28	0.11711532
53	0x3cecd938	0.028912172
54	0x3db49b15	0.08818642
55	0xbda34551	-0.079722054
56	0x3d31b5a6	0.043386124
57	0x3de2ffab	0.11083921
58	0x3c68d246	0.014210289
59	0xba9054d3	-0.0011011608
60	0x3e16be46	0.14721021
61	0x3cc2bd5f	0.02377194
62	0x3d068e97	0.032850828
63	0xbd8679ab	-0.06566175
64	0xbc7cb652	-0.015424328
65	0x3c9d4222	0.019196574
66	0x3d6a1cef	0.0571565
67	0x3da71106	0.08157544
68	0x3ca99af3	0.020703768
69	0xbd83bebf	-0.06432866
70	0x3d926d06	0.07149701
71	0xbdbe282b	-0.09285005
72	0xbceb90d5	-0.028755585
73	0xbd8d51ae	-0.06900345
74	0x3c74a2de	0.014931409
75	0x3ddbc12d	0.10730205
76	0x3d6aa51e	0.057286374
77	0x3d29f55a	0.04149375
78	0xbdbf59d2	-0.09343304
79	0x3dc53ab7	0.096303396
80	0xbd6ab371	-0.057300035
81	0x3d951044	0.07278493
82	0x3daecbbc	0.08534953
83	0x3d3105fd	0.0432186
84	0xbde91cdc	-0.113824576
85	0xbe05f6c3	-0.13082413
86	0xbe002bc2	-0.12516692
87	0xbdb2a523	-0.087229036
88	0xbc85dcdb	-0.016340664
89	0xbe047b6b	-0.12937705
90	0xbd28e9bd	-0.041238535
91	0xbd609d25	-0.054837365
92	0xbdf1b357	-0.118017845
93	0xbd217d31	-0.039426032
94	0xbace8109	-0.0015755008
95	0xbdcf2244	-0.101139575
96	0xbc97f072	-0.01854727
97	0x3d1212eb	0.035662573
98	0xbde190e1	-0.110139616
99	0xbdd0c9c6	-0.10194735
100	0x3c9378ad	0.018001879
101	0xbc1a1db8	-0.0094065
102	0x3dee7968	0.1164425
103	0x3d915703	0.07096674
104	0x3daf83df	0.08570074
105	0x3ca59969	0.020214753
106	0xbdee33e0	-0.11630988
107	0x3bac6bf5	0.005261893
108	0xbdcfa44a	-0.101387575
109	0xbe02a78b	-0.12759225
110	0x3c6a1cb0	0.014289066
111	0xbe0809aa	-0.13284937
112	0xbd0f725d	-0.035021175
113	0x3d73b10d	0.05949502
114	0x3dc792a7	0.097447686
115	0xbddb0a65	-0.10695342
116	0x3c68a98b	0.014200578
117	0xbdf8ed80	-0.121546745
118	0xbd2a2193	-0.041535925
119	0x3d1920a4	0.037384644
120	0x3da60a3c	0.08107421
121	0xbc94ea62	-0.018178169
122	0xbd9f3ab6	-0.0777487
123	0xbdc462a1	-0.095891245
124	0x3dcb51a1	0.09927679
125	0xbdfce850	-0.123489976
126	0x3da3b5d9	0.07993669
127	0x3d3cf9ab	0.04613654
128	0x3e378908	0.17923367
129	0xbe35f036	-0.17767414
130	0x3d5d4dd8	0.054029316
131	0x3cc2587f	0.023723839
132	0xbdddcd83	-0.10830214
133	0xbd7112dd	-0.05885588
134	0x3d9f5634	0.07780114
135	0x3d7df7a8	0.06200376
136	0xbd4d755a	-0.050160743
137	0xbe1960db	-0.14978354
138	0x3e09c4d7	0.13453995
139	0xbb4c423f	-0.0031167415
140	0xbda54b06	-0.0807095
141	0xbd057da0	-0.03259051
142	0x3c030d6c	0.0079988055
143	0xbd3f2aa8	-0.04667154
144	0x3cc52a4a	0.024068017
145	0xbe06a4ae	-0.13148758
146	0xbccd1cd6	-0.025038164
147	0x3d49c6a3	0.0492617
148	0x3ba2560a	0.0049541043
149	0xbdd0dc15	-0.10198227
150	0x3bc41565	0.0059839957
151	0xbd49247b	-0.049107056
152	0x3c4e5ad5	0.012594898
153	0x3c5ca734	0.013467599
154	0x3e080c54	0.13285953
155	0xbe0d3b4f	-0.13792156
156	0xba7a5879	-0.00095499266
157	0xbdae07de	-0.08497594
158	0xbd5dd20c	-0.054155394
159	0x3d9e15d3	0.077190064
160	0xbdc1cc62	-0.09462811
161	0xbd95f2d1	-0.07321704
162	0xbda9b78b	-0.08286961
163	0xbbf64097	-0.007515024
164	0xbd1ef8db	-0.038811546
165	0x3d554159	0.052064274
166	0x3e25df1c	0.1619839
167	0xbe13204f	-0.14367794
168	0x3e175df1	0.1478193
169	0xbd8c19ea	-0.0684088
170	0xbe02af51	-0.1276219
171	0x3e16c009	0.14721693
172	0x3de50ef5	0.111844935
173	0xbda8d6a3	-0.08244064
174	0x3c22e221	0.009941609
175	0x3e0c1be2	0.13682511
176	0xbdfbd673	-0.12296762
177	0xbd1bc4cd	-0.03802948
178	0x3d50f0b5	0.051010806
179	0x3c9b587b	0.01896309
180	0xbc4b6a4e	-0.012415482
181	0xbd708a90	-0.058725893
182	0x3ce435fd	0.027857775
183	0x3c93b98d	0.018032813
184	0xbe119f80	-0.14221
185	0xbd58eb99	-0.05295906
186	0xbcd1b998	-0.025601193
187	0xbe1c2add	-0.15250726
188	0xbe192c1b	-0.14958231
189	0x3d9fb63f	0.077984326
190	0xbda8276a	-0.08210643
191	0x3ddbf99d	0.10740969

conv.weight f4 [1, 64, 1, 1]
0	0x3efe1b5a	0.49630243
1	0xbee8a3a6	-0.45437354
2	0x3edc13bf	0.42983815
3	0x3ef90fa2	0.4864474
4	0xbeeead47	-0.46616575
5	0x3f00fa0a	0.5038153
6	0x3efb276c	0.49053514
7	0xbf045d0d	-0.51704484
8	0x3f00132f	0.5002927
9	0xbee7be27	-0.45262262
10	0x3ee47318	0.4461906
11	0xbf04652c	-0.51716876
12	0xbf0a7e34	-0.5409882
13	0xbf099196	-0.5373777
14	0x3f07fffa	0.53124964
15	0xbeffe95b	-0.49982724
16	0x3eded316	0.4352042
17	0xbf09a9c2	-0.53774655
18	0xbf0b2559	-0.54353863
19	0xbed7b371	-0.4212909
20	0x3eea0a41	0.45710948
21	0xbefab567	-0.48966524
22	0x3ee26078	0.44214225
23	0xbef040e8	-0.4692452
24	0xbf0b7659	-0.5447746
25	0x3ef45b39	0.47725847
26	0x3f048a07	0.51773113
27	0xbefd4581	-0.4946709
28	0x3ee2e6a7	0.443166
29	0xbeea9440	-0.4581623
30	0xbf035360	-0.51299095
31	0xbf0a8da5	-0.5412238
32	0xbf022d40	-0.50850296
33	0x3f0d9088	0.5529866
34	0xbee992d5	-0.45619836
35	0x3f0afcf4	0.54292226
36	0x3f0df615	0.55453616
37	0xbf0b5324	-0.5442374
38	0x3eed4d1f	0.463479
39	0xbeed7252	-0.46376282
40	0x3ee10ea7	0.4395649
41	0x3f070e6e	0.5275639
42	0xbf03457e	-0.5127791
43	0x3ee5007b	0.4472693
44	0x3eeff35b	0.46865353
45	0xbf016801	-0.5054932
46	0xbef1f9fd	-0.47261038
47	0x3eebe3cf	0.46072242
48	0xbeff8f1d	-0.49913874
49	0xbf0ade30	-0.5424528
50	0xbf0ba076	-0.5454172
51	0xbf00460b	-0.5010688
52	0x3ef1fa49	0.47261265
53	0x3f068314	0.5254376
54	0x3f069088	0.5256429
55	0x3ef3b9f7	0.47602817
56	0xbeec68e2	-0.4617377
57	0xbedc59f6	-0.43037385
58	0x3ed4ae70	0.41539335
59	0xbee5d14e	-0.4488625
60	0xbf05e87f	-0.52307886
61	0x3f1044e8	0.5635514
62	0xbf09f878	-0.5389476
63	0x3ef79ad8	0.48360324
