project/onnx_models/GRU/Samsung.onnx (onnx, 171894 bytes, 9 tensors)

gru.weight_ih_l0 f4 [192, 5]
000000 80 22 7e 3b b0 91 56 3d ce 50 cc 3d 30 40 7d 3c
       0.0038777888 0.052385032 0.0997635 0.015457198
000010 6c 30 81 3d 04 be 53 bd 58 1d f6 3c fc 71 b4 bd
       0.06308064 -0.051694885 0.030043289 -0.08810803
000020 42 6e ee 3d c4 80 3a bd 66 b4 af bd a4 df b7 3d
       0.11642124 -0.045532957 -0.0857933 0.08978203
000030 18 f6 a8 3c a4 03 26 bd 80 b7 3b 3d f6 51 bc bd
       0.02062516 -0.040530816 0.045829296 -0.0919532
000040 80 e6 55 3d 24 b2 68 bd 8e b7 97 3d 80 53 a0 ba
       0.052221775 -0.056810513 0.07408057 -0.0012231916
000050 a8 4b b0 3c c8 61 ac bd 9a aa d4 3d 18 19 ef 3c
       0.02152045 -0.08417088 0.10384102 0.02918677
000060 10 de 72 bc 3c 82 7e bd 9c 8e 85 3d 3c c0 0f bd
       -0.014823452 -0.06213592 0.06521341 -0.03509544
000070 b8 2e fb 3d d2 4a b5 bd 06 ac f1 bd a2 93 81 bd
       0.1226477 -0.088521615 -0.11800389 -0.06326987
000080 24 b6 93 bd 08 74 f2 bc 40 a1 26 3c 54 67 78 bd
       -0.07212475 -0.029596344 0.010170281 -0.060645416
000090 00 fe 2e 3c e4 3a 87 bd 06 1d c7 bd 3e bf af bd
       0.0106806755 -0.06603029 -0.09722333 -0.085813984
0000a0 90 61 87 3c 40 40 ac bc 90 bf d0 bc aa a1 8c 3d
       0.016526014 -0.02102673 -0.02548197 0.068667725
0000b0 e4 b3 8b 3d 5e 99 db 3d c0 b7 85 bd 88 44 f0 3d
       0.06821421 0.10722612 -0.06529188 0.11731821
0000c0 6e b2 ab bd 30 0d 5c bd b2 01 ec 3d 20 a4 94 bb
       -0.08383642 -0.053723514 0.11523761 -0.004536167
0000d0 68 f2 ca bc 94 e5 c7 bd b2 58 c8 bd 0a de c4 bd
       -0.024773791 -0.097605854 -0.09782542 -0.09612663
0000e0 b0 9c d4 3d c4 30 91 3d e0 21 33 3d 38 1f 9f 3d
       0.10381448 0.070893794 0.043733478 0.077696264
0000f0 a8 7f 86 3d e8 98 a2 3c 5c 10 c4 3d e2 94 d0 3d
       0.06567317 0.019848302 0.09573433 0.10184647
000100 9c 4a 11 3d 2c 4d 18 bd 16 a4 ec bd fe 97 f2 bd
       0.035471544 -0.03718297 -0.115547344 -0.118453965
000110 d0 5e 7b 3c 88 8e d4 3c f8 4e 58 3d 2a 21 b1 bd
       0.015342429 0.02594687 0.052809685 -0.08648904
000120 90 40 c3 bc 4c c6 9c bd f2 d4 b7 bd da 7a ca 3d
       -0.023834497 -0.076550096 -0.08976163 0.09886713
000130 f0 60 5e 3c 14 95 65 3d e4 be ae bd 2c a3 e2 bd
       0.013572916 0.056050375 -0.08532503 -0.11066279
000140 e8 7a f4 bd ee 19 ca 3d d4 9b 02 bd a8 33 8e bd
       -0.11937505 0.09868227 -0.03188689 -0.069434464
000150 18 e5 a6 bc d0 a8 cb 3d 88 e7 94 bd c2 ac d0 3d
       -0.020372912 0.09944308 -0.072707236 0.10189201
000160 90 89 be bd 58 69 f8 3c e0 6d ec bc 78 f7 96 bc
       -0.09303582 0.03032367 -0.028860986 -0.01842855
000170 10 c8 45 bc be e7 c0 bd 96 c7 bc bd 4e 46 a8 bd
       -0.012071624 -0.09419201 -0.092177555 -0.082165346
000180 e2 48 b5 bd 10 1e 67 3c 54 82 25 3d 60 4f f5 3b
       -0.08851792 0.014106289 0.040407494 0.007486269
000190 48 6b b4 bd 1a 37 c5 bd 00 10 bb b9 40 85 92 3d
       -0.08809525 -0.096296504 -0.0003567934 0.07154322
0001a0 58 b1 cd 3c ac be 32 3d e0 25 71 bd cc 0f 5b bd
       0.025108978 0.04363887 -0.05887401 -0.053481862
0001b0 00 33 4a 3a d8 db ab 3c 02 e4 cc bd 6a 79 82 3d
       0.0007713288 0.020978853 -0.100044265 0.06370814
0001c0 e6 3b 8f 3d 62 92 b0 bd 78 a0 27 3d b8 91 f6 3d
       0.069938466 -0.0862167 0.04092452 0.120395124
0001d0 a2 83 b7 bd 1c 93 3e bd cc 9c c7 bd b0 a6 f2 3d
       -0.08960654 -0.046527013 -0.097467035 0.11848199
0001e0 20 55 43 bd f0 52 17 3c 38 81 b8 bd 60 68 b6 3b
       -0.047688603 0.009236082 -0.090090215 0.0055666417
0001f0 bc 8d 67 3d 5e 15 8b 3d b0 b5 f6 bc 08 bb f4 bd
       0.056531653 0.06791185 -0.030115932 -0.11949736
000200 98 9b b8 3d 38 84 51 3d 6e 06 fc bd 00 f4 b2 3b
       0.09014052 0.051151484 -0.12305914 0.005461216
000210 58 65 1e bd 40 e9 c1 bb 4e 73 c0 bd a4 f7 14 bd
       -0.038670868 -0.005917698 -0.093969926 -0.03636898
000220 e8 3d 3f bd a0 51 8c 3d 88 fc 1e 3d 5c 0e 2c bd
       -0.046689898 0.06851506 0.03881505 -0.04200588
000230 60 03 d7 3d c4 99 8d bd b8 81 4e 3d 56 8b e3 3d
       0.104986906 -0.06914094 0.05041668 0.111105606
000240 10 6c b1 3d 92 d1 f9 bd f4 d3 0c 3d dc 3f 95 3d
       0.086631894 -0.121981755 0.03438182 0.07287571
000250 00 ba 88 3d 00 d6 a8 b9 b0 c6 f3 bd c0 d6 d8 3c
       0.06676102 -0.000322029 -0.11903131 0.026469588
000260 90 89 fe 3c 28 6f cb bc 18 23 9b bd 5a 05 80 3d
       0.031071454 -0.024833277 -0.07575053 0.06251021
000270 30 51 11 bd 50 85 58 bc a2 7f ad bd a6 b1 cf bd
       -0.035477817 -0.013215378 -0.0847161 -0.101413056
000280 86 0c d1 3d ce 79 ec 3d c0 8a 44 3d cc ab 7f bd
       0.10207467 0.1154667 0.047983885 -0.062419698
000290 20 cb aa 3c d0 93 9c 3c ec b7 5e 3d d0 14 34 bd
       0.02084881 0.019113451 0.05437462 -0.04396516
0002a0 6c cc fe 3d c0 38 51 3b 1e 91 eb 3d e0 fb 67 3d
       0.12441334 0.0031924695 0.11502288 0.05663669
0002b0 28 81 15 bd 70 76 f0 3c 48 b2 f9 3c a8 9a 6c 3d
       -0.036500126 0.02935335 0.030480519 0.05776468
0002c0 12 b4 dc bd a0 3a 3a bd 56 00 de bd a4 36 c8 3d
       -0.10776533 -0.045466065 -0.10839908 0.09776047
0002d0 66 2e 88 3d c8 f7 ab 3c 98 c1 94 bd a8 18 6a bd
       0.06649475 0.020992175 -0.072634876 -0.05715242
0002e0 4e 2f cb 3d 5e c2 d7 bd 54 b1 e9 bd 4a 56 a9 3d
       0.09921132 -0.105351195 -0.11410776 0.082684115
0002f0 98 48 7d bd f0 ec 26 bc 32 05 e6 bd 20 ea 1a 3c
       -0.06183681 -0.010188326 -0.1123146 0.009455234
000300 c8 4d cf 3d f0 a3 68 3d ac bb 5f 3d 88 fb 8e bd
       0.101222575 0.056796968 0.054622337 -0.069815695
000310 ce a1 db 3d 6a 0c db 3d d2 89 fa 3d 12 65 d2 bd
       0.10724221 0.10695727 0.122333184 -0.10273184
000320 a8 98 8a 3d e0 1e 49 3d d8 9e 70 3d c0 20 2f 3b
       0.06767398 0.04910171 0.058745235 0.0026722401
000330 ce 5c c0 bd 40 b3 41 3c 56 7f bf 3d 30 72 0a 3d
       -0.09392701 0.011822522 0.09350459 0.033800304
000340 aa e2 c1 bd c2 25 f1 3d d0 e6 70 3c e2 3b a1 bd
       -0.09467061 0.1177478 0.0147034675 -0.0787275
000350 d8 30 c0 3d a0 19 68 3d e0 2c b2 3b 26 43 fb 3d
       0.09384316 0.056665063 0.0054374784 0.12268667
000360 c0 6c 2d bd 6a 5f a6 3d 30 29 7a bd 48 69 92 bc
       -0.04234004 0.081236675 -0.061074436 -0.017872468
000370 c8 8f fe bc f6 09 ca bd 84 7c 4e 3d 20 5f cb bc
       -0.03107442 -0.09865181 0.050411716 -0.024825633
000380 5c 66 49 bd 98 96 1d bd 98 66 ba bd 12 c0 8f bd
       -0.049169883 -0.038473696 -0.091015995 -0.070190564
000390 48 fe 4d 3d 28 8e 51 3d e8 20 8a 3c 92 54 e7 3d
       0.05029133 0.05116096 0.016861394 0.112954274
0003a0 c0 a2 29 3b 4e 41 f7 3d 60 cd 8a 3d ea d6 c7 bd
       0.002588436 0.12073003 0.067774534 -0.097577885
0003b0 5c 0f ee bd 04 cb 7e 3d 8c 75 13 3d 3a e9 83 bd
       -0.11624023 0.06220533 0.036000773 -0.06440969
0003c0 20 95 cf 3d 84 85 16 bd 84 21 76 3d 50 00 01 3c
       0.10135865 -0.036748424 0.060090557 0.00787361
0003d0 0c b8 5e bd 30 04 38 bc 10 55 ee 3d 84 58 39 3d
       -0.05437474 -0.011231467 0.11637318 0.04525043
0003e0 da 5c 89 bd a8 f1 ea 3d 54 92 92 bd ee 3c f3 3d
       -0.06707163 0.114718735 -0.07156816 0.11876856
0003f0 64 15 6b 3d 98 ca 97 3d 72 0e f4 3d 40 96 d9 3d
       0.057393447 0.074116886 0.11916818 0.10624361

gru.weight_hh_l0 f4 [192, 64]
000000 d8 aa 17 bd 2a cd ff 3d bc db 7b bd 00 c9 be bc
       -0.037028164 0.12490304 -0.061488852 -0.023289204
000010 94 c4 98 3d 72 46 cc 3d 60 df fa 3d c8 e7 42 3d
       0.07459369 0.09974374 0.12249637 0.047584325
000020 00 a7 15 ba c0 38 b7 bd 60 4d 24 bc e8 e8 d2 bc
       -0.0005708784 -0.08946371 -0.010028213 -0.025745824
000030 be f1 8d bd 20 d1 90 bd 88 a5 ee bc 70 cf dc 3c
       -0.06930874 -0.070711374 -0.029131666 0.026954383
000040 24 d4 cd bd 68 c4 d0 bc 82 28 84 3d 40 c9 ef bd
       -0.10050228 -0.025484279 0.06453039 -0.11708307
000050 30 ad be bc 20 45 6b 3d 38 6b d9 bd 6a 1e be bd
       -0.023275942 0.05743897 -0.106161535 -0.09283145
000060 d0 25 9c 3d 60 ae 45 bd 6c 33 fb bd 3c d5 a8 3d
       0.076244 -0.048262 -0.12265667 0.08243796
000070 ce df b2 3d dc ec 22 bd f0 c0 a1 bc 40 91 fd bd
       0.087340936 -0.039776668 -0.01974532 -0.1238122
000080 10 fa 0f 3c 60 17 34 3c cc 39 21 bd 5a 0f 88 bd
       0.008787647 0.010991901 -0.03936176 -0.06643553
000090 16 c7 e7 bd cc 4e 6b bd 18 42 5e 3d c0 26 75 bd
       -0.113172695 -0.057448193 0.05426225 -0.059851408
0000a0 46 bd ff bd 24 a9 6c 3d 38 72 0b bd 78 d6 df 3d
       -0.12487273 0.057778493 -0.034044474 0.109295785
0000b0 50 8b ca 3d 18 95 c8 bd f0 61 de bc e4 78 a6 3d
       0.09889853 -0.097940624 -0.02714631 0.08128527
0000c0 48 79 e3 bc 90 40 e0 3c 24 d9 f6 3d 56 e4 8c bd
       -0.027767792 0.027374536 0.12053135 -0.06879489
0000d0 e0 25 b2 3b 68 33 f6 3c c0 ff 4c bb 80 66 3e 3b
       0.005436644 0.03005381 -0.0031280369 0.0029052794
0000e0 50 08 16 bc aa d1 81 3d 80 7a 4d bb c4 43 92 3d
       -0.009157255 0.06338818 -0.0031353533 0.071418315
0000f0 c0 f1 7b bc 90 81 d2 bd 44 55 36 3d 38 d8 1c 3d
       -0.015377462 -0.10278618 0.04451491 0.03829214
000100 7a 26 95 bd 50 07 f9 3d f4 f4 bb bd 7e 80 9d bd
       -0.072827294 0.12159598 -0.091775805 -0.076905236
000110 2e cf ee 3d 80 63 e9 bb 48 65 1a bd a4 59 f7 3d
       0.1166061 -0.007122457 -0.037694246 0.120776445
000120 48 80 b9 bc e0 81 f0 bd 20 38 3f bd 2c 47 93 bd
       -0.022644177 -0.11743522 -0.046684384 -0.07191309
000130 06 84 bb bd d8 11 b4 bd d4 cd 5b bd b8 28 cc 3d
       -0.09156041 -0.08792466 -0.05366309 0.09968704
000140 9c 99 09 3d e2 c1 e0 3d f8 94 32 bd 16 0c c3 bd
       0.03359376 0.1097448 -0.0435991 -0.095237896
000150 1c 36 3e 3d 76 59 df bd 30 e8 d5 bc b0 3f 2c 3c
       0.04643832 -0.10905735 -0.026111692 0.010513231
000160 76 b4 ce bd 80 f8 cf bd 70 bc e2 bc c0 65 f9 bc
       -0.10093014 -0.101548195 -0.027677745 -0.030444026
000170 08 6a c6 3c 40 a2 7d bc a2 cd b2 bd 30 87 c6 3d
       0.024220482 -0.015480578 -0.087306276 0.09693754
000180 00 e2 72 ba b0 96 2d bd 40 c4 c5 3b 6c b7 4b 3d
       -0.0009265244 -0.042380035 0.0060353577 0.04973547
000190 80 d6 9a 3c 60 cd ec bd 18 ad c7 bd 80 ed 90 bc
       0.01890111 -0.1156261 -0.09749812 -0.017691374
0001a0 d8 b1 b0 3d 40 09 c1 bc 10 d7 60 3c ba 11 b9 bd
       0.08627671 -0.023563981 0.01372315 -0.09036584
0001b0 98 f3 c3 bd 46 a0 b6 3d b0 2d cd bd 30 b5 9e bd
       -0.09567946 0.089172885 -0.1001848 -0.077494025
0001c0 2c d4 6e 3d 00 c0 4d 38 88 d4 e8 bd 02 a5 a2 3d
       0.05830781 4.9054623e-05 -0.11368662 0.07941629
0001d0 d0 1b 78 bd 08 f3 b0 3d 50 15 71 3c b8 d4 9a 3c
       -0.0605734 0.086401045 0.014714554 0.01890026
0001e0 a4 45 2d 3d d0 11 81 bc 4a 4a b9 3d e0 fd 9e bb
       0.042302743 -0.015755564 0.09047373 -0.0048520416
0001f0 d0 32 79 bd ec 09 30 bd 60 e4 30 3c 9e 66 88 bd
       -0.060839474 -0.042978212 0.010796636 -0.06660198
000200 d4 22 e8 bd 14 fe 4f 3d 08 f9 f4 bd 44 f0 48 bd
       -0.11334768 0.050779417 -0.119615614 -0.04905726
000210 40 0d 87 3b ec 47 d0 bd e6 69 83 bd 64 0c 60 bd
       0.0041214526 -0.10169968 -0.06416683 -0.054699317
000220 f8 00 94 3d 1c c8 87 bd 34 d8 8c 3d 12 84 cc 3d
       0.07226747 -0.06629965 0.06877175 0.09986128
000230 46 28 89 3d 14 b1 0b bd 08 b5 e3 3d 10 47 1c 3c
       0.06697135 -0.03410442 0.11118513 0.009538427
000240 8c b5 45 bd 3c fe 65 3d c6 35 eb 3d a4 3b b3 bd
       -0.04826884 0.05615066 0.11484866 -0.0875161
000250 be d3 fd 3d 20 4e 7e 3d d0 0b a0 bc 08 40 26 3d
       0.12393902 0.062086225 -0.019536883 0.04058841
000260 d6 d7 b9 3d 78 d3 b8 3d d0 14 b8 3d ae 83 f5 bd
       0.090743706 0.090247095 0.08988345 -0.119880065
000270 78 15 09 bd f0 b2 9e bc 80 04 72 bd 9a 0d 9c 3d
       -0.03346774 -0.019372433 -0.059086323 0.07619782
000280 4a 09 b2 bd 08 a8 61 3d 4c e0 8d 3d 14 4a ae 3d
       -0.08693178 0.055091888 0.06927547 0.08510223
000290 e0 f7 c5 bd 50 19 28 3c 00 1e 1f 3a a0 cf 73 3d
       -0.09666419 0.010259941 0.0006069839 0.05952418
0002a0 f8 5c 86 bd f0 3b 2a bc ce 7a 87 3d ce ff e7 3d
       -0.06560701 -0.010390267 0.0661522 0.11328088
0002b0 00 b7 6c 3c 86 c4 de 3d fa 9c d2 3d fc 17 2a 3d
       0.0144479275 0.108773276 0.10283847 0.04152678
0002c0 0e 89 ed 3d c8 77 2d 3d 10 3e b5 bc 30 ba 3e bc
       0.11598407 0.04235056 -0.02212432 -0.01164107
0002d0 42 a1 cd 3d 26 32 bf 3d 3c ee a3 3d 80 df 09 bb
       0.10040523 0.09335737 0.08004424 -0.0021037757
0002e0 48 93 96 bc a0 c2 e0 3d f2 db a1 bd 60 23 3e bc
       -0.018380776 0.10974622 -0.07903279 -0.011605114
0002f0 84 b7 b0 3d f8 6f ad 3c 40 c1 bc bc c8 20 1c 3d
       0.08628753 0.021171555 -0.023041368 0.0381172
000300 dc 82 18 bd dc 96 76 3d c8 4c 1d bd c8 8d 21 3d
       -0.037234172 0.060202464 -0.038403302 0.039441854
000310 3e 23 80 3d 50 ac b4 bc e0 20 a5 3c 10 df 05 bd
       0.06256722 -0.022054821 0.020157278 -0.032683432
000320 e0 ac 9f 3c 84 17 a3 3d 8c 19 13 bd 40 a7 ec 3c
       0.019491613 0.079634696 -0.035913035 0.028888345
000330 c8 71 b1 bd e0 a2 cf 3c 68 b2 b4 3c 70 68 1d 3c
       -0.0866428 0.02534622 0.022057727 0.009607419
000340 f6 d3 8f 3d a0 13 09 bc 48 15 0d 3d dc 2a 45 3d
       0.0702285 -0.008366495 0.034444124 0.048136577
000350 d0 fe 4a bc f0 28 50 bd c6 0c ca bd 9a 5e e2 bd
       -0.012389854 -0.05082029 -0.098657176 -0.110532
000360 14 b8 68 bd 8c 11 2c 3d 92 f4 bf 3d f4 0c 06 bd
       -0.056816176 0.04200892 0.0937282 -0.032727197
000370 60 48 b8 3c d8 e2 1d 3d da 70 c2 3d e4 3c 72 3d
       0.022495449 0.038546413 0.09494181 0.0591401
000380 e4 61 21 3d c4 03 fe 3d ec 21 05 bd c0 a1 c0 3d
       0.039399996 0.12403062 -0.032503054 0.09405851
000390 8c e4 e8 3d 2c a7 7d bd 00 80 cd bd b8 6e 98 bc
       0.11371717 -0.061927006 -0.1003418 -0.018607482
0003a0 ca 6a e0 3d b8 29 75 bd 3c 34 db bd ec 1d 44 bd
       0.109578684 -0.05985424 -0.10703322 -0.0478801
0003b0 0a 29 ef bd aa 81 c3 3d 70 56 62 bd c0 58 bb bd
       -0.116777495 0.09546216 -0.055258214 -0.09147787
0003c0 7c f6 e0 3d a8 c0 d0 bc 0e a9 fc bd 7e a8 89 bd
       0.10984513 -0.02548249 -0.12336932 -0.067215905
0003d0 d2 54 99 3d 14 a8 49 bd d0 d2 21 bc 2a dd e7 3d
       0.07486881 -0.049232557 -0.009876922 0.113214806
0003e0 c0 b4 8d bb 30 c4 60 bc 80 78 f3 bb a0 d3 21 3c
       -0.0043245256 -0.01371865 -0.007430136 0.0098771155
0003f0 cc 43 87 3d 6c c7 74 3d 60 3a 68 3d 40 bc 5b bc
       0.06604728 0.059760496 0.056696296 -0.0134115815

gru.bias_ih_l0 f4 [192]
000000 38 4c a1 bd b4 6a e6 3d f0 24 fe 3c d8 85 8f 3c
       -0.07875866 0.11250821 0.031023473 0.017519876
000010 b0 1e c6 bd a8 97 e2 3d 40 4a 63 bd e6 8a a4 3d
       -0.09673822 0.110640824 -0.055490732 0.08034305
000020 e6 c7 e2 bd 60 15 98 3d 00 99 a5 3b 46 fe 9e 3d
       -0.11073284 0.07425952 0.0050536394 0.077633426
000030 5c 54 c5 3d 7a a7 e0 3d b4 b4 34 bd 54 60 d8 3d
       0.09635231 0.109694436 -0.044117644 0.10565248
000040 74 c3 34 3d b8 80 e1 3d 00 e7 b1 3c 5a ba e1 3d
       0.04413171 0.11010879 0.021716595 0.11021872
000050 46 52 97 bd fa 30 f9 bd b0 42 70 3c 5c d6 19 bd
       -0.07388739 -0.12167545 0.014664337 -0.037557945
000060 08 fb b1 3d 8a 92 a1 3d 78 74 21 bd 10 eb 1f bd
       0.086904585 0.07889278 -0.039417714 -0.039042532
000070 88 3d b8 bd bc 3f ed 3d 54 c4 66 bd 20 c8 81 3c
       -0.08996111 0.11584422 -0.056339577 0.015842497
000080 38 2c ab 3d cc 66 87 bd 98 8c d2 3c c2 07 e4 bd
       0.083580434 -0.06611404 0.025701806 -0.11134292
000090 cc 5f 90 3d 78 96 ca bd 30 59 42 bd 98 04 77 bd
       0.07049522 -0.09891981 -0.047448337 -0.060307115
0000a0 98 6e b4 3c 50 c1 0c 3c 48 47 d5 3c 80 5f 1f 3c
       0.022025391 0.008591011 0.026034966 0.009727359
0000b0 de 85 d3 3d 78 49 f4 3d 98 a4 84 bc 9c eb ab 3d
       0.103282675 0.119280756 -0.016191766 0.08394548
0000c0 20 d0 d4 bc 74 1b a1 3d 16 9d dd 3d f8 77 44 bd
       -0.025978148 0.078665644 0.108209774 -0.047965974
0000d0 d0 bc 8c 3c 24 e7 b9 3d bc ac e0 3d 3e 01 f7 3d
       0.017179877 0.0907729 0.109704465 0.12060784
0000e0 ba 35 8a bd 80 bd d2 3c 44 72 7e 3d 90 36 dc 3c
       -0.06748529 0.025725126 0.06212069 0.026881486
0000f0 8c 8e 26 3d 48 e7 8f bd c8 1d ad 3c 68 96 c0 bd
       0.040663287 -0.07026535 0.021132365 -0.09403688
000100 20 33 f8 3d f0 1a 25 bc e4 c6 5d 3d 90 d7 5b 3d
       0.12119126 -0.010077223 0.054144755 0.053672373
000110 3c 77 32 3d 42 90 d6 bd b8 00 f5 bc 72 50 b5 3d
       0.043570742 -0.10476734 -0.02990757 0.08853234
000120 38 15 b2 bd 9a 60 b4 3d 60 10 82 3c e4 5d 96 bd
       -0.086954534 0.08807488 0.015876949 -0.07342127
000130 b0 3b bb bc 24 c6 b9 bd 80 83 d9 3a 74 a3 af 3d
       -0.02285561 -0.090709955 0.0016594976 0.08576098
000140 80 20 6f 3b 3c 11 bb 3d 58 83 f1 3c 7c 99 4a bd
       0.0036487877 0.091341466 0.029481575 -0.04946278
000150 82 2f e0 bd 4e 5e dd bd 18 9a a1 3d dc b2 67 bd
       -0.109465614 -0.10809003 0.07890719 -0.056567058
000160 40 1a a5 3b 76 75 f6 bd 64 22 56 3d 02 98 da bd
       0.0050385296 -0.12034123 0.05227889 -0.106735244
000170 8e c7 a5 bd d6 bf f2 bd a8 30 ea bd d0 42 6a bd
       -0.08094703 -0.11852996 -0.11435062 -0.057192624
000180 00 b4 70 b9 6c 94 a0 3d 00 81 51 3b 7e a2 fa 3d
       -0.00022955239 0.07840809 0.003196776 0.12238024
000190 10 4a dc 3c 12 08 90 3d e0 6f 82 3b 10 38 a5 3d
       0.026890785 0.07032789 0.0039806217 0.08067334
0001a0 80 bd da 3c b0 fd a2 3c 28 38 9c 3c 20 1a 7a bc
       0.026701689 0.019896358 0.019069746 -0.015265018
0001b0 ae cf 96 bd ee 77 e8 3d 2e a9 d1 3d 90 3c 03 3d
       -0.073638305 0.11351 0.102373466 0.03204018
0001c0 00 b2 ff 3c f8 6b c1 bd 20 0c 7f 3d e4 51 a6 bd
       0.031212807 -0.094444215 0.062267423 -0.08121088
0001d0 cc 75 06 3d 1a 41 eb bd c0 22 e3 bc 90 20 11 bd
       0.032827184 -0.114870265 -0.027726531 -0.035431445
0001e0 1c fc 33 bd 88 d4 64 bd 70 a2 b8 3d d6 ee f6 3d
       -0.043941602 -0.055866748 0.090153575 0.12057273
0001f0 ca aa c6 3d 68 c9 bd bd 00 88 7b 3a 08 b1 09 3d
       0.09700544 -0.09266931 0.0009595156 0.033616096
000200 c4 ba 43 bd 98 8c ba bd 0e 9d a1 bd ae f1 da bd
       -0.047785535 -0.091088474 -0.07891284 -0.10690628
000210 c2 9e ce bd 68 77 d4 bc 60 f2 bb bc 0c 42 13 3d
       -0.100888744 -0.025935844 -0.022942722 0.03595166
000220 6c 5b 9f 3d 10 2c f1 bd 08 78 22 3d 18 a9 2c bd
       0.07781109 -0.117759824 0.039665252 -0.042153448
000230 68 1d ba 3d 08 6b 9d 3d 4c 4c d3 bd 60 4b 7e 3c
       0.0908764 0.0768643 -0.10317287 0.0155209005
000240 b8 56 91 3c 98 fb ae 3c 48 e1 4f bd 60 77 95 3c
       0.017741546 0.021360204 -0.050751954 0.018245399
000250 60 08 e5 3d 50 6a a9 3d 00 75 27 3d 88 be e2 3c
       0.11183238 0.082722306 0.040883064 0.027678743
000260 d8 41 32 3d 1a 8b ee 3d 08 ba c8 bd 96 46 ce 3d
       0.043519825 0.11647625 -0.09801108 0.10072057
000270 a2 dc e3 3d e6 9e bd bd a0 f2 87 bc ae 4f cf bd
       0.11126067 -0.09258823 -0.016595185 -0.101226196
000280 da 2e d3 bd 30 d9 0e bd 10 17 27 3c 60 1d f5 3d
       -0.103116706 -0.034875095 0.01019837 0.119684935
000290 84 47 0d 3d 60 a0 c6 bd e8 b3 86 bd fa 87 fc 3d
       0.03449203 -0.09698558 -0.06577283 0.12330623
0002a0 c8 19 2e 3d 00 72 a9 3a ec bf ce 3d 1e 9c 88 bd
       0.042505056 0.0012927651 0.100952 -0.06670402
0002b0 f0 e9 17 bc dc 4b f4 3d 6a fe 9f bd 50 62 3a 3c
       -0.009272084 0.119285315 -0.078121975 0.011375979
0002c0 d0 11 fc 3c 30 50 8f 3c 0c e2 da bd bc b3 26 bd
       0.030770212 0.017494291 -0.10687646 -0.04069875
0002d0 9c a6 5c bd 26 e9 c8 3d b8 b8 86 bd cc 19 d5 bd
       -0.05386983 0.098100945 -0.06578201 -0.10405311
0002e0 38 37 96 bc 78 f6 9f 3d 6e e1 d2 3d a8 9c 5d bd
       -0.018336877 0.07810682 0.102969036 -0.054104477
0002f0 70 76 7d 3c 64 3c c5 bd 88 b1 7d 3d 94 19 76 3d
       0.015470132 -0.09630659 0.061936885 0.060082987

gru.bias_hh_l0 f4 [192]
000000 34 6b 15 bd cc 54 e3 3d 1c ab 21 bd 2a 3b b0 bd
       -0.03647919 0.11100158 -0.039469823 -0.08605035
000010 60 28 86 bb 00 56 cf bd a0 ea eb bd 08 23 b1 bd
       -0.0040941685 -0.10123825 -0.115193605 -0.0864926
000020 20 2a 6c 3c 0c 73 78 3d 06 82 a1 3d 80 f2 b3 3b
       0.01441434 0.060656592 0.07886128 0.0054915547
000030 98 6c ac bc 60 85 dd 3b 98 a0 6b bd 54 c1 cc bd
       -0.021047875 0.0067602843 -0.0575262 -0.09997812
000040 ac 0e f7 3d a2 f4 c8 3d 3e 00 82 bd 10 b1 31 bd
       0.12063345 0.09812285 -0.063477024 -0.04338175
000050 e8 6d 3a 3d dc af 17 3d 30 00 54 bd b6 f6 a7 3d
       0.04551497 0.037032947 -0.05175799 0.08201353
000060 60 47 c0 bb 94 de 0f bd 96 fb ef 3d 28 fe 9e bd
       -0.0058678836 -0.035124376 0.11717908 -0.0776332
000070 60 84 4d 3c 20 a4 42 bc 72 94 90 3d 50 54 f4 3c
       0.012543768 -0.011879951 0.07059564 0.02982536
000080 70 17 b2 3c 44 6d 93 3d 70 b7 3d bc 44 3c de 3d
       0.021739691 0.07198575 -0.011579379 0.108513385
000090 b0 d2 ce 3d 7a 88 e4 3d 6c 93 cb 3d f2 8d 80 3d
       0.10098779 0.11158843 0.09940228 0.06277074
0000a0 cc 5a 6a 3d f4 81 46 bd 50 11 7a 3d 74 c9 9a bd
       0.057215497 -0.048463777 0.061051667 -0.075579554
0000b0 cc 4c d1 3d c6 e9 a5 3d 2c 59 ff bd 86 66 ac 3d
       0.10219726 0.08101229 -0.1246818 0.08417992
0000c0 00 00 09 b9 e6 a2 cd 3d 80 c6 a5 bd 1e a6 89 bd
       -0.00013065338 0.10040836 -0.080945015 -0.067211375
0000d0 96 dd c8 bd d2 3e ce 3d bc 95 4d bd 66 fd fe bd
       -0.09807889 0.10070576 -0.050191626 -0.12450676
0000e0 8c 46 3e bd c0 3d d9 bc b0 d4 19 bc cc fe 39 3d
       -0.046453997 -0.026518703 -0.009389088 0.04540901
0000f0 b0 d2 f6 3d 6c 69 0b bd ac 4a 4c 3d 60 79 89 bd
       0.12051904 -0.034036085 0.0498759 -0.067126036
000100 28 07 58 bd 02 a7 97 bd 30 86 a9 3d c8 48 61 bd
       -0.0527412 -0.07404901 0.08277547 -0.05500105
000110 10 bd 49 bc c0 a1 9d bb 08 22 88 3d fc 3d ba 3d
       -0.012313142 -0.004810542 0.06647116 0.09093854
000120 98 60 fd bd 32 ca d8 3d 24 01 75 bd 00 6a e8 3d
       -0.123719394 0.10585441 -0.05981554 0.11348343
000130 da e5 9e 3d 9c 0c 29 bd c8 04 b7 3d fa 7a 8d bd
       0.077586845 -0.04127179 0.08936459 -0.069082215
000140 e0 95 e5 bd 90 ab 9f bc 38 d3 84 3d 60 72 ed bc
       -0.11210227 -0.019490987 0.06485599 -0.028985202
000150 24 19 38 bd a4 3a 2c 3d 00 5c 02 3b 60 3c 80 3b
       -0.04494585 0.04204811 0.0019891262 0.0039134473
000160 9e 18 94 3d cc 54 0c 3d 94 02 3d bd 0e 8a 82 bd
       0.07231258 0.034260556 -0.046145037 -0.06373988
000170 4c 3c 41 3d 00 ff f0 bd 98 bb b6 3d 38 c7 82 3c
       0.047176644 -0.117673874 0.089224994 0.015964136
000180 9c d9 de bd 58 7c 52 3d c8 07 d7 bd e0 86 af 3c
       -0.108813494 0.051388115 -0.10499531 0.021426618
000190 58 48 8d 3d a0 cc 33 bd 2c 31 f0 bd c8 14 fa bc
       0.06898564 -0.043896317 -0.11728129 -0.030527487
0001a0 10 b1 97 3d 54 e5 0b bd 88 ee f6 3d 90 99 b9 3d
       0.07406819 -0.03415425 0.12057215 0.09062493
0001b0 74 93 c8 3d 9a 33 d6 bd c8 45 ea 3d 90 c7 d2 bd
       0.097937495 -0.10459061 0.11439091 -0.1029197
0001c0 e0 9d 24 bd 44 43 b0 bd 48 72 c1 bc 90 78 51 3c
       -0.040189624 -0.0860658 -0.023614064 0.012785092
0001d0 72 2b d4 3d c8 20 3b bd 00 b8 4e 3a 80 ec b0 3b
       0.10359849 -0.04568556 0.00078856945 0.0053992867
0001e0 00 f5 b1 bb 8e 5f f0 bd f0 c3 34 bc 24 6f 1d bd
       -0.0054308176 -0.117369756 -0.011033043 -0.03843607
0001f0 5e d9 89 3d 00 66 9e ba f8 41 ed bd 5c 7d 23 3d
       0.067309126 -0.0012084842 -0.11584848 0.039914474
000200 fc 89 ca bd fc a0 ff bd 10 1d 93 3c b0 c2 11 bc
       -0.098896 -0.12481877 0.017958194 -0.008896515
000210 b8 86 3f bd fc d6 32 bd 76 0a fa 3d c0 46 9a 3b
       -0.046759337 -0.043662056 0.122090265 0.004708141
000220 fc 50 60 3d 50 98 ad bc 88 91 84 3d 54 3a c0 bd
       0.054764733 -0.021190792 0.064730704 -0.09386125
000230 8c 0d 0c 3d 50 55 0f bd de b7 8a bd 00 d7 a2 3d
       0.034192607 -0.03499347 -0.06773351 0.07951164
000240 c0 81 3b 3b 4a fc b3 bd 00 a2 3c bd cc fb d9 bd
       0.0028611273 -0.08788355 -0.046052933 -0.106437296
000250 04 7a ce 3d f8 07 dd 3d dc 5b 4c 3d e8 72 53 3d
       0.100818664 0.107925355 0.04989229 0.051623255
000260 28 41 f2 3c fe 9d eb bd 3a 3f f6 3d 18 23 aa 3c
       0.029572085 -0.11504744 0.12023778 0.020768687
000270 60 87 4b bd fc 62 21 bd 96 1a cc 3d e0 0c 03 3c
       -0.04968965 -0.03940104 0.09966008 0.007998675
000280 00 ba 60 bb c8 dc d2 bc b0 ef f7 3c fe 1e af 3d
       -0.0034290552 -0.025740042 0.03026566 0.08550833
000290 26 1d ae bd 02 03 c1 bd 26 7c f1 bd 00 8c 6f bb
       -0.085016534 -0.09424402 -0.117912576 -0.0036551952
0002a0 1e f6 ea 3d a0 68 5c bd 7c 2f fa 3d 88 36 a7 3d
       0.114727244 -0.053810716 0.12216088 0.08164698
0002b0 98 81 ff bd 44 2c 1f 3d 14 a5 c7 3d d0 5a 7f 3d
       -0.1247589 0.038860574 0.09748283 0.062342465
0002c0 be e1 d7 bd e4 70 3d 3d c0 b7 4c 3b 70 61 7b bc
       -0.10541104 0.04625024 0.0031237453 -0.015343055
0002d0 d6 03 c7 3d b4 cc 03 bd 6a 01 a1 3d 5a f3 f6 3d
       0.097175285 -0.032177642 0.07861598 0.120581344
0002e0 b0 23 ba 3d 40 e8 41 3d 40 b5 74 3d 60 3a d1 3d
       0.09088838 0.04734063 0.059743166 0.10216212
0002f0 44 86 e2 3d 86 7a 84 3d e6 a2 ac 3d 64 60 f4 bd
       0.110607654 0.06468682 0.08429508 -0.119324476

gru.weight_ih_l1 f4 [192, 64]
000000 e9 53 bc 3d 7b 08 0c 3d b8 fb 63 3c 94 80 d7 bd
       0.09195692 0.034187775 0.013914995 -0.10522571
000010 c7 6e 66 bc 83 02 d9 3d 13 89 fd 3d 57 f7 ed 3d
       -0.014064497 0.10596182 0.123796605 0.11619442
000020 d0 e4 89 3c 5c ce 99 ba 26 1b f6 bd 7a 1b bc 3c
       0.01683274 -0.0011734474 -0.12016897 0.02296232
000030 c8 e9 b6 3c 52 33 9b bc 2d d5 fc 3d 2a 54 9b bd
       0.022328272 -0.01894537 0.123453476 -0.075844124
000040 a3 b5 7c bd 3a 91 eb 3d 0d e0 9a 3d df 11 c4 bd
       -0.06169666 0.11502309 0.075622655 -0.09573721
000050 88 2b 32 3d ef f9 81 3d 82 e4 3c bd 32 3f 00 3d
       0.043498546 0.06346499 -0.04611636 0.031310268
000060 75 60 cf 3d c9 5b 5e bd dc 53 d9 bd f7 86 26 bd
       0.101258196 -0.054286752 -0.10611698 -0.040656056
000070 e9 9c d1 3d 00 40 5d 3d 3c ec 07 bd a1 b5 c1 bd
       0.10235006 0.054016113 -0.033184275 -0.09458471
000080 7d 8a b1 3d ad 30 40 3d 17 17 2f 3d 36 9f 3a 3c
       0.08668993 0.04692142 0.04274663 0.011390498
000090 28 95 86 bd 6f bf b7 3d 00 b5 99 bd 34 c9 ed bd
       -0.06571418 0.0897206 -0.07505226 -0.11610642
0000a0 c8 ce c1 bc 88 7f b9 bc 0b a7 bf bd 37 5a 3d 3d
       -0.023658171 -0.02264382 -0.09358033 0.046228614
0000b0 ed 8d e8 bd 28 94 91 3c 1f 62 87 3d a7 49 b0 3d
       -0.11355195 0.017770842 0.06610512 0.08607798
0000c0 89 ef 83 3d ad f8 97 bd b5 5c a3 3d a0 5d fb bb
       0.06442172 -0.07420478 0.07976667 -0.007671073
0000d0 c2 13 b9 3d 34 ec c9 3d 95 92 51 3d 1a ef 8f 3d
       0.09036972 0.09859505 0.051165182 0.07028027
0000e0 f9 86 d8 3d 5c 8b f8 3d 7b 6a ab 3d c3 19 1b bd
       0.10572619 0.12135956 0.08369919 -0.037866365
0000f0 30 d6 01 bd 78 29 c4 3d e5 37 5d 3d 99 98 b4 bd
       -0.031698406 0.09578222 0.054008383 -0.08818168
000100 87 20 34 3b a5 a6 17 be f6 d8 01 3d ce 95 53 3d
       0.0027485208 -0.14809664 0.03170105 0.051656537
000110 17 bf f6 bc fd 81 49 3d f3 26 bb bc 9b 72 1a bd
       -0.030120416 0.049196232 -0.02284572 -0.037706953
000120 34 3a 57 3d ca d6 e8 bc d6 dc b0 3d 19 00 89 bd
       0.05254574 -0.028422732 0.08635871 -0.06689472
000130 12 9c dc bd a4 79 f7 bd 40 99 ed 3d f4 9f 6b 3d
       -0.107719555 -0.12083748 0.11601496 0.05752559
000140 a9 78 14 3d 18 7b 0d be 8e 4b 95 bd 63 54 8d 3d
       0.036247883 -0.13816488 -0.072898015 0.06900861
000150 78 59 0e bc ce 81 09 3d ce e7 98 bd 4f 0a 31 3d
       -0.008688323 0.033571057 -0.07466088 0.04322272
000160 34 b6 e8 bc 7b b5 22 3c d2 d0 f3 3d d2 f4 8b 3d
       -0.028407194 0.009930964 0.11905064 0.06833805
000170 81 1a 1e be c0 eb 2b bb b0 71 51 bc 29 ce 80 bd
       -0.15439798 -0.0026233047 -0.012783453 -0.06289322
000180 f1 45 a9 3d 42 a9 d5 bc 61 74 20 be 58 6a 07 3e
       0.082652934 -0.026081685 -0.15669395 0.1322416
000190 40 c5 de 3d ca d7 6a 3b b7 71 6d 3c 52 a0 d2 bd
       0.10877466 0.0035834187 0.014492444 -0.10284485
0001a0 34 d7 52 bd 45 be 8b bd f6 6d f3 3b bf 90 4a bd
       -0.051474765 -0.068234004 0.00742888 -0.049454447
0001b0 53 24 3a 3d c0 7f 18 3d 41 19 0c 3e 35 1b a5 bd
       0.045444798 0.037231207 0.13681509 -0.0806183
0001c0 79 9b 86 bd 64 d2 cd bc 10 49 51 3d e0 62 07 bd
       -0.06572623 -0.025124736 0.05109507 -0.03305328
0001d0 70 e4 d6 bc 20 24 71 bb 6d 7c 6d 3d 35 d4 aa bc
       -0.026231974 -0.0036795214 0.05797999 -0.020853141
0001e0 a9 81 21 3e 3c f5 6c bd 38 6b 0a be ba b2 75 bc
       0.15772118 -0.05785106 -0.13517463 -0.014996225
0001f0 8c d4 bc 3d 19 af df 3d e3 6c a1 3c bb 59 49 3d
       0.092202276 0.10922069 0.019705242 0.04915784
000200 d2 21 60 bd 1a 6d 50 3d 38 0d 36 3d 68 4e 14 3e
       -0.054719754 0.050885297 0.0444462 0.14483035
000210 aa b6 dc 3c b4 ea 3c 3d 6c 5d 9e bd 98 31 7c bc
       0.02694257 0.046122268 -0.077326626 -0.015392683
000220 88 d1 d1 bc 9b 83 46 3d 82 6a fe bd 00 79 41 3d
       -0.025612608 0.048465353 -0.124226585 0.047234535
000230 36 18 9a bd 37 5d 9e 3d ee 59 59 3d 40 bb b5 bb
       -0.07524149 0.07732623 0.05306428 -0.0055460036
000240 f9 c2 bf 3d 2e 9b 73 3d 42 06 bf 3c e5 67 85 3b
       0.0936336 0.059474163 0.023318414 0.004071223
000250 51 74 5c bc 39 34 d7 bd 34 0d 0e 3e b9 ae 1e be
       -0.013455466 -0.105080076 0.13872224 -0.15496339
000260 51 da 13 3e 82 8e 8e 3d 40 83 e9 bd ad 95 ba bd
       0.1443875 0.06960775 -0.11401987 -0.0911058
000270 09 5c b6 3d 38 3d 3c 3d 74 1b a1 3d 5c ed cd b9
       0.08904273 0.04595682 0.078665644 -0.00039277493
000280 e6 ca af 3d 99 9a cc bd 51 70 27 bd 0e 66 21 3e
       0.08583622 -0.09990425 -0.040878598 0.15761587
000290 42 dd c5 bd 1c 73 15 be 8d 14 b4 bd 14 b3 44 3d
       -0.09661342 -0.14594692 -0.08792982 0.048022345
0002a0 d0 56 08 bc 1f 40 ce 3d b9 3a dd bd 68 ab 30 3c
       -0.008321479 0.10070824 -0.10802216 0.010783054
0002b0 3f 47 8b bd cc d2 f8 bd 01 b3 d0 bb c1 78 c5 bc
       -0.068006985 -0.12149581 -0.006368995 -0.024105432
0002c0 cc 51 a7 3d d6 77 88 bd 51 d2 bb 3a b0 d1 08 bd
       0.081698984 -0.06663482 0.0014329647 -0.0334031
0002d0 22 5b ee bd a4 62 7b bd f3 a3 ec 3d 94 c0 13 3e
       -0.11638476 -0.061373368 0.11554708 0.14428931
0002e0 8e 29 b7 3d 96 1d ea 3d da a6 73 bd 4b 28 a4 bd
       0.08943473 0.11431424 -0.059485294 -0.08015498
0002f0 de 91 99 bd 1a 60 8e bd 61 8c 14 3e 41 fd 8e bd
       -0.07498525 -0.06951924 0.14506675 -0.06981898
000300 40 ce c5 bd 26 f7 fa 3c 3d 5e 02 bd bb 9b 7f 3d
       -0.0965848 0.030635428 -0.031828154 0.062404376
000310 4f 21 6d bd 04 75 9f 3d be c8 29 bd 88 27 1f 3e
       -0.057893094 0.07785991 -0.04145121 0.15542424
000320 fe f3 d6 3d 65 7c e6 bb 64 71 dd bd 7f fe 2c 3d
       0.104957566 -0.007033872 -0.10812643 0.042234894
000330 98 7a b9 bc 2a 44 bb bd 23 8b 01 bd 36 fd dc bd
       -0.022641465 -0.09143861 -0.03162683 -0.10790484
000340 b2 93 65 3d 3e e4 7b 3d b1 d3 27 3d 60 2f 9e 3d
       0.056049056 0.061496966 0.04097337 0.0772388
000350 9e ba cc bc 66 a3 aa bd 07 3a df bb 1c 9e 13 be
       -0.02499133 -0.08331947 -0.0068123373 -0.14415783
000360 24 99 c4 3d 74 f6 49 3b 40 88 64 3c ee 19 e5 bc
       0.09599522 0.0030817064 0.0139485 -0.027966466
000370 6b 91 36 bd 58 bb e0 bc a0 0b 22 bc 46 4d d1 bd
       -0.044572275 -0.027433082 -0.009890467 -0.10219817
000380 42 3f fd bc 62 6d c5 bd 8e 12 7d bd 73 0b 89 3c
       -0.030913953 -0.09640004 -0.061785273 0.016729092
000390 d2 fb df 3d 62 ba 23 be a2 e9 80 3d 58 d3 93 3d
       0.10936703 -0.15989068 0.06294562 0.07218045
0003a0 08 96 15 bd f7 51 00 3e 19 f3 d1 3d 61 fc 0b bd
       -0.036520034 0.12531267 0.10251445 -0.034176234
0003b0 e2 9e 92 bd 24 45 ff 3d 36 5a ef 3d 17 8d a0 bc
       -0.07159211 0.124643594 0.11687128 -0.019598527
0003c0 7c 7e 01 3e e4 66 6b 3c 9b 6a 16 3c 12 3b 83 bd
       0.12645906 0.014367793 0.00918069 -0.06407751
0003d0 20 10 db 3b 35 57 b1 bd 7c 7a 80 3d eb 2e 05 3d
       0.006685272 -0.086592115 0.06273362 0.032515448
0003e0 a0 7b 03 3d 68 7a e3 3c 84 26 27 3d a4 e6 e8 3d
       0.03210032 0.027768329 0.040808216 0.11372116
0003f0 66 1e f3 bd ba 0b 23 3e c3 48 cf bd 46 ed 1a bd
       -0.118710324 0.15922442 -0.101213 -0.037823938

gru.weight_hh_l1 f4 [192, 64]
000000 ac 56 81 bd 76 b2 dd bc d3 07 3c 3c a0 ce b4 3c
       -0.063153595 -0.027062636 0.011476475 0.022071183
000010 07 ef 88 3d 64 3d 94 3d 22 77 e6 3d e7 e7 46 bd
       0.06686216 0.07238272 0.112531915 -0.048561003
000020 3a e8 b7 bd e9 01 23 3e 48 3c f3 3d c8 8e 85 3d
       -0.089798406 0.15918697 0.11876732 0.06521374
000030 b4 ac ed bd 5a 7e 29 3c a6 72 7f 3d 80 1a 87 bc
       -0.11605206 0.010345066 0.062365197 -0.016492128
000040 e8 d5 44 bd de 46 15 3e 0f f7 73 3d b7 f2 60 3d
       -0.04805556 0.14577815 0.059561785 0.05491897
000050 40 74 c5 3c f1 8b 0d be 24 e7 e4 3d 02 a5 a6 3d
       0.024103284 -0.13822915 0.11176899 0.081369415
000060 dc 9e 69 3e df f5 37 bd 13 bd 46 3e 75 0e b2 3c
       0.22814506 -0.044912215 0.19408064 0.02173541
000070 de cd a1 bd ae 1a 4d 3e 0c 21 8c 3d 6b 2d 42 bd
       -0.07900594 0.20029709 0.06842241 -0.047406595
000080 7d 3f 4b bd 2a 44 f1 bc 06 0f f1 bd 50 4b e0 3c
       -0.049621094 -0.029451448 -0.117704436 0.027379662
000090 26 9b ff bd a7 1c df bc 52 de 1c 3c e2 62 53 bd
       -0.12480764 -0.027235342 0.00957449 -0.051607974
0000a0 6b ea bc 3d 7d af 87 3d a1 49 da bd 4c 1b 13 bc
       0.09224399 0.066252686 -0.10658575 -0.008978676
0000b0 85 32 23 3d 9e 75 1e 3d 1e 3a d6 bc 4a 14 2b bd
       0.0398431 0.038686387 -0.02615076 -0.041767396
0000c0 80 d3 7d bd 17 1a b4 3c d1 38 cb 3d 3d ad 63 3d
       -0.06196928 0.021985097 0.09922946 0.055585135
0000d0 df 7f 44 bd 0c de 26 3e 1e b0 be 3d c5 00 f5 3d
       -0.04797351 0.16295642 0.093109354 0.119630374
0000e0 50 73 21 3d 46 2d 27 bd f7 31 df 3d 7c 8d 79 bc
       0.03941661 -0.04081466 0.10898202 -0.015231486
0000f0 0d 61 8f bc eb d2 b6 3d 0d dd 05 3e 64 61 1d 3c
       -0.017502332 0.08926948 0.13072605 0.009605739
000100 43 ab a4 3d dd aa b2 3d f3 18 b5 bd 6b 62 52 bd
       0.08040478 0.08723996 -0.08842649 -0.05136339
000110 59 da 2c bd 84 13 fc bc 6b 53 98 3c 58 f4 c8 3d
       -0.04220042 -0.030771025 0.018594464 0.0981223
000120 ad 3d 87 bb 39 15 80 3c 18 3d aa 3c f9 56 d1 bd
       -0.0041272254 0.01563512 0.020781085 -0.10221667
000130 cb e9 88 3c f1 52 b4 bb 8d a8 17 be d8 15 8b bd
       0.016713044 -0.0055030514 -0.14810391 -0.06791276
000140 36 34 00 3d d9 54 bf 3b 24 ed cd 3d ef 84 33 3c
       0.031299792 0.005838972 0.100549966 0.010956987
000150 f7 ea c7 3b 62 05 4c bc 80 4d b2 bd 1e 86 9b 3d
       0.006101008 -0.012452455 -0.08706188 0.0759394
000160 91 93 9c 3d c4 dc 29 be 78 aa 71 3c 61 4f db 3d
       0.076453336 -0.16588122 0.014750116 0.107085
000170 73 bc 0b be 39 ef 71 3d b6 4c 31 bd 09 55 86 bd
       -0.13646106 0.05906603 -0.043286048 -0.06559188
000180 d2 0b e5 bd f6 e1 ca 3c 0d dd b6 bd 34 f6 dd 3d
       -0.11183895 0.02476595 -0.08928881 0.10837975
000190 a8 74 45 be 82 b8 10 3d 70 91 09 be 56 78 7d bd
       -0.19282782 0.03533221 -0.13434386 -0.06188234
0001a0 3c 00 96 3d 2e 1d 04 3e cd de 25 bd 6a a2 62 3d
       0.073242635 0.12901756 -0.040495683 0.05533067
0001b0 ab 9e 11 3d 3c bd 1d be 5f 54 bb 3d 6f 5b 59 bd
       0.03555171 -0.15404218 0.09146952 -0.053065713
0001c0 28 36 b4 3d 9c fd 40 3d 65 08 15 be 1b 51 f8 3b
       0.08799392 0.04711686 -0.14553984 0.007578028
0001d0 ed ee 97 bd 8e 8b 36 3e 0c 6e 4a bd c0 a1 cf 3d
       -0.07418618 0.17826673 -0.049421355 0.10138273
0001e0 1e 70 0b bd c8 db b6 3c 11 5f 11 3e 1e fd 10 be
       -0.03404247 0.022321597 0.14196421 -0.14159057
0001f0 5d 6a 06 3e 74 81 ac bc 42 09 0b bd 8c 23 c7 bd
       0.13126512 -0.021057822 -0.033944376 -0.09723577
000200 47 2a d6 bb 51 1d c0 3c dc 71 09 be 05 e2 97 bc
       -0.0065358016 0.02345148 -0.1342234 -0.018540392
000210 63 be 59 bc 83 e6 1c be 55 72 ed 3d 30 5e 0a bd
       -0.013290021 -0.15322308 0.11594073 -0.03378123
000220 62 ed a8 bd ab 53 17 3e 75 50 9e bc 95 d8 1d be
       -0.08248402 0.1477801 -0.019325474 -0.1541465
000230 72 c0 80 bb 78 de c7 bc 42 66 aa bd 0b 7d dd 3d
       -0.0039291913 -0.024398074 -0.083202854 0.10814866
000240 76 55 0f be 51 33 0a 3e 40 c7 27 3b d9 e8 b2 bc
       -0.13997445 0.13496138 0.002560094 -0.021839546
000250 f1 27 8a bd 18 5b 17 3d d2 f7 28 3e 8a 9d 13 bd
       -0.067458995 0.03695211 0.16500786 -0.036038913
000260 18 a5 20 3d 26 67 02 bc b3 17 21 3e 52 32 c7 3d
       0.039219946 -0.007959163 0.15731697 0.09726395
000270 52 a4 0b 3c d8 94 c0 bd 99 a9 0c 3d 9a 5c 3c 3d
       0.008523064 -0.0940339 0.03434143 0.04598675
000280 67 13 4a bc b3 3d 00 bd a4 da 14 be e6 08 85 bd
       -0.012333727 -0.03130884 -0.1453653 -0.06495838
000290 89 72 c5 bd a3 09 7a bd 11 71 40 3d 36 ed 87 bd
       -0.096409865 -0.061044347 0.04698283 -0.06637041
0002a0 e9 16 4c bd eb a3 64 3d 12 46 1d 3e ba aa 89 bd
       -0.049826536 0.055820387 0.15358761 -0.06722017
0002b0 0a 76 6b 3b 19 da 4f 3d 34 71 43 bd ef 6d a5 3d
       0.003592851 0.050745104 -0.04771538 0.08077609
0002c0 b3 22 73 3d b9 c8 8c bd 70 a7 42 3d 2a cb 17 3e
       0.059359264 -0.06874222 0.047522962 0.14823595
0002d0 e7 69 9c 3d e8 ce 85 3d 9a f9 e0 3d 9b b1 96 bd
       0.07637387 0.06533605 0.10985108 -0.07358094
0002e0 96 ea ac bd f7 ec fe bc 42 7a f0 3d 40 18 ef 3b
       -0.08443181 -0.031118853 0.11742069 0.007296592
0002f0 9c 11 48 3d 4c c5 95 3d 5f 08 77 bc 8a 13 16 be
       0.04884492 0.07313022 -0.015077679 -0.14655891
000300 12 82 7c ba bd bd 91 3d 0f a4 19 be b2 fa 7a 3b
       -0.0009632419 0.07116268 -0.1500399 0.0038296399
000310 7e 59 6d 3d ea 14 e3 bd c7 42 3d ba 56 33 14 3e
       0.057946675 -0.110879734 -0.00072197284 0.14472708
000320 9e 65 e0 bc eb ff 10 3e 35 97 de 3d 09 58 3c bd
       -0.027392205 0.14160125 0.10868684 -0.045982394
000330 65 a3 2b bd 7b 01 3f 3d b2 b7 2c 3a 62 c9 9a bc
       -0.041903872 0.04663227 0.0006588652 -0.018894855
000340 5c 87 4c bd 38 33 2e bd 84 3d 09 3e a9 16 db bd
       -0.049933776 -0.042529315 0.13402373 -0.106976815
000350 e4 39 ca 3d 1e 2e 09 be e3 09 33 bd ef 1d e2 3b
       0.09874323 -0.13396499 -0.0437106 0.006900541
000360 1b 7d 1c 3d 97 f3 1b 3d 9e 2b e9 3d 89 91 2a 3e
       0.038205247 0.038074102 0.113852724 0.1665708
000370 96 6d 17 be 1e e3 1f bd 8a 31 9f 3d 74 f9 25 be
       -0.14787897 -0.039034955 0.07773121 -0.1620844
000380 0e 4e 76 bd 47 1c e8 3d 4d dc ef 3b 71 0f 09 3e
       -0.060133033 0.113335185 0.007319963 0.13384797
000390 a4 28 6f bb c4 c1 fa bd d6 31 08 be 85 00 8d bd
       -0.003649273 -0.12243989 -0.13300261 -0.06884865
0003a0 19 64 88 bc 79 f1 2b 3b 68 cf c2 3b 06 4b b2 3b
       -0.016649293 0.0026236458 0.005945135 0.0054410724
0003b0 0b d8 50 bb 7e cd 21 be 53 f0 15 bd 14 3c c6 3d
       -0.0031867053 -0.15801045 -0.036606144 0.09679428
0003c0 25 b1 1c 3e f9 b7 80 3d 96 b4 04 3b 46 56 f6 bc
       0.1530195 0.0628509 0.002024924 -0.030070435
0003d0 a9 78 ea bd 67 48 40 3d 94 b8 71 bd 9e 57 93 bd
       -0.11448795 0.04694405 -0.059013918 -0.07194446
0003e0 f8 72 e7 bd ec 61 f1 bc 3a bf 25 3e 29 4a e3 bb
       -0.113012254 -0.029465638 0.16186228 -0.006936331
0003f0 d0 e7 41 bb d0 23 bb 3d 95 c9 a6 bd 65 dc a1 3d
       -0.0029587634 0.0913769 -0.081439175 0.07903365

gru.bias_ih_l1 f4 [192]
000000 26 cd 69 3b 68 e9 70 bd 26 3f 2e 3d 65 23 9b bd
       0.0035675257 -0.058816344 0.04254069 -0.0757511
000010 0f 27 a5 3d a2 0d 45 3d fc dd 22 bb ca 3d 76 bd
       0.080640905 0.048108704 -0.0024851551 -0.06011752
000020 ab e2 20 3c 52 cb 23 bc 46 2b 07 bc 42 af 7e bd
       0.009819667 -0.009997206 -0.008250063 -0.062178858
000030 cb 76 02 3e 6a be 50 3d b0 4c 1c 3e 89 ee 84 bd
       0.12740628 0.050962843 0.15263629 -0.064908095
000040 81 5e 0c 3e 51 2b bd 3d c1 8c 70 3d e1 ba ab bc
       0.13707925 0.092367776 0.058727983 -0.020963134
000050 83 ba 62 ba 74 ef 7e bc d5 e2 27 3d 78 8a 18 bd
       -0.0008649008 -0.01556002 0.04098781 -0.03724143
000060 ea e8 b2 3d 27 fd ec 3d cd 78 1e 3e d9 0b 19 bd
       0.08735831 0.115717225 0.1547577 -0.037364814
000070 7c 70 a1 bc 48 7d d0 bc 4b 88 0a 3d d6 47 d6 3d
       -0.019706957 -0.025450364 0.033821385 0.1046292
000080 81 e8 be 3d c3 10 ad bd 9a 39 eb 3d d1 82 67 3d
       0.0932169 -0.08450463 0.11485596 0.05652124
000090 73 f4 c5 3c 83 d3 39 bc 57 38 68 bc 2f 21 9f 3b
       0.024164414 -0.011341932 -0.014173589 0.0048562507
0000a0 46 29 50 3d 69 16 81 3a 0e 4d 78 bd bb 32 8d 3d
       0.05082061 0.0009848598 -0.06062036 0.06894442
0000b0 8a ae 89 3d 5b 26 04 3e 8b 9c b5 3c 26 75 41 bd
       0.06722744 0.12905256 0.022169372 -0.047230862
0000c0 12 ec 21 3e 6c 52 11 3e 87 f1 a8 3d da cc d6 bd
       0.1581271 0.14191598 0.08249193 -0.10488291
0000d0 c1 76 fc bb ff 80 02 3e ea 22 1c 3d 26 55 c8 ba
       -0.0077045863 0.1274452 0.038119234 -0.0015284165
0000e0 6d 83 31 bd ba 03 45 3d d7 95 07 bd fa c3 23 bd
       -0.043338228 0.048099257 -0.033101883 -0.03998182
0000f0 6e 25 2d bd ff 52 c3 3d f6 33 9e 3d 3e 51 74 bd
       -0.042272024 0.095373146 0.077247545 -0.05964779
000100 a6 11 c7 bd 11 54 ac 3b dc 41 c3 3d 23 a0 c1 3d
       -0.09720163 0.005259045 0.09534046 0.09454372
000110 ae b9 c9 3c e1 ad 24 3d 00 b2 eb 3d a8 c6 ac ba
       0.024624672 0.040204886 0.1150856 -0.0013181763
000120 dd 0e 91 3d f0 e1 ab bc 0e 89 4b 3d 72 95 15 bd
       0.07082913 -0.020981759 0.049691252 -0.036519475
000130 39 82 b0 3d 94 0e 09 bc 3b 19 d5 3a 4f eb f3 bd
       0.08618588 -0.008365292 0.001625813 -0.11910116
000140 3a e3 99 3c e6 0f 90 bd dd fa 3b bd 4a a2 1f bd
       0.018785108 -0.070342824 -0.04589354 -0.03897313
000150 50 b8 39 3c d9 1e e1 bb 3e 31 da 3d c2 b7 95 3d
       0.011335447 -0.0068701324 0.106539235 0.0731044
000160 05 88 8a bd aa 01 a6 3c 9c 73 a1 3d 8d 79 b4 3d
       -0.06764225 0.020264465 0.07883379 0.088122465
000170 6f f3 74 bd fa 4f 93 bd c5 1e a7 bd d6 4b 9e bd
       -0.05980247 -0.07192989 -0.08160166 -0.07729308
000180 7b e0 ae 3d f6 0b a8 3c ce d0 ba bb 1e 4c da 3b
       0.0853891 0.020513516 -0.005701161 0.006661906
000190 a9 fb af bd 75 23 c7 bd 84 a7 a0 bd 0e c6 d8 3d
       -0.08592922 -0.0972356 -0.07844451 0.10584651
0001a0 8d c4 c7 bd e4 97 ab 3d 8c 23 15 3d 98 dc 8d 3d
       -0.09754286 0.0837858 0.036410853 0.069268405
0001b0 90 d3 ed 3d 5f 01 58 3d 17 c1 06 bd 9e b3 a0 bc
       0.11612618 0.052735683 -0.03289899 -0.019616898
0001c0 c9 d2 00 be 00 57 8f 3d dd 13 cc 3d c6 f9 6b bd
       -0.12580408 0.06999016 0.09964726 -0.05761125
0001d0 5c 15 e1 3d f8 ac bc bd 4c 74 69 3d b9 dd 9f 3d
       0.10990402 -0.09212679 0.056995675 0.07805962
0001e0 d5 49 7c bc 07 a1 d7 3d ef 00 9d bd f0 d3 b0 bd
       -0.015398462 0.105287604 -0.07666194 -0.08634174
0001f0 15 3d b2 bd 3d c8 97 3d 89 92 44 bd f1 ab d4 bb
       -0.08703057 0.07411239 -0.04799131 -0.0064902236
000200 06 93 7e 3d ae ec c0 3d ae 31 86 3d 00 14 4f bd
       0.06215193 0.09420143 0.065524444 -0.050556183
000210 2a d8 a5 bb d7 d2 60 3d 7e 63 28 3e 5a bc c4 bc
       -0.005061169 0.054888573 0.16444203 -0.024015594
000220 2b ef 01 be 3b 59 5c bd 5b bc f9 bc 94 4a 0e bd
       -0.12688892 -0.053796034 -0.030485323 -0.034739092
000230 be eb 1c be 60 a0 b9 3d 34 3e 50 3d 56 8c 45 3d
       -0.15324304 0.09063792 0.05084057 0.048229538
000240 d2 d3 cf bd a3 fe e9 3d bd 62 d3 3d 9d 4b 14 be
       -0.101478234 0.11425521 0.10321567 -0.14481969
000250 b6 74 96 3b 38 9e c2 3b ad 0d d2 bc 90 5b 0c bd
       0.0045915497 0.0059392713 -0.025641287 -0.03426701
000260 b7 9c 98 3d b9 97 a4 3b 6d c0 09 3e 44 b3 00 3e
       0.07451766 0.0050229696 0.13452311 0.12568384
000270 98 ef a7 bd ad 8a 98 3c d7 eb 8c bd e6 9c 0e be
       -0.08199996 0.018620813 -0.068809204 -0.1392704
000280 f1 ba c3 bd a1 b7 6e 3d ae d8 80 bd 31 7f 23 3e
       -0.095571406 0.05828059 -0.06291328 0.15966488
000290 91 60 14 be 51 08 fa bd 1c 07 21 3d 9f 9c 8e bd
       -0.14489962 -0.122086175 0.03931342 -0.06963467
0002a0 0c 9f 55 bc 64 13 a5 3c ca f5 1b 3e 2e fd a9 bb
       -0.013038408 0.020150848 0.1523048 -0.005187652
0002b0 4b f1 6c 3d 90 c4 1d bd 3a 4a 7e bd c6 a2 e5 3d
       0.057847302 -0.038517535 -0.062082507 0.11212687
0002c0 08 aa a5 3d d0 bd 3c bd b8 19 5a bd 03 bb 20 bd
       0.080890715 -0.046079457 -0.053247184 -0.03924085
0002d0 1c 82 30 3d e4 cd 4e bd fd 53 f5 3d 37 d5 b9 3d
       0.043092832 -0.05048932 0.1197891 0.09073871
0002e0 de c6 0e be 81 a8 d7 bd 62 f1 85 bd 51 63 2a bd
       -0.1394305 -0.105301864 -0.06540181 -0.04159862
0002f0 ce 74 ec 3d fb de 4b bd 85 8f 83 3d fd ee 03 3d
       0.11545716 -0.049773198 0.064238586 0.03221034

gru.bias_hh_l1 f4 [192]
000000 6a 0c a5 3d ab 47 a0 3d 33 c5 4d bd 5a a8 ca 3d
       0.080590084 0.078261696 -0.050236892 0.09895392
000010 b8 20 45 3d 50 07 2c 3d 84 95 bd 3c 27 e4 f5 3d
       0.048126906 0.04199916 0.023142584 0.12006407
000020 48 1d 8d bd ec 13 e9 3b 1e a6 78 bd 7a f9 de bc
       -0.068903506 0.0071129706 -0.060705297 -0.02721857
000030 eb 6b 27 3d 37 4f c2 3d d5 f4 0e bd 53 d2 f7 3d
       0.040874403 0.09487765 -0.03490146 0.12100663
000040 6b 1c 13 bd 0d 38 83 bd 31 41 98 3d 2e 64 fe bb
       -0.035915773 -0.06407175 0.07434309 -0.007763407
000050 81 a8 d6 3b b8 e7 ef 3d 73 ff 32 bd 94 22 db 3c
       0.006550849 0.11714119 -0.043700647 0.026749887
000060 2e ee 9f 3d 0a 3f 11 bd d1 4c 88 3d 77 ce 79 3c
       0.07809101 -0.03546051 0.066552766 0.015246979
000070 d2 a0 ba bd 0d 44 09 bc f0 71 ae 3c cd 01 ce 3d
       -0.09112705 -0.008378041 0.021294564 0.10058937
000080 3d 4d cb 3d 47 c0 04 3e a8 0c b5 3b 61 38 a6 bd
       0.099268414 0.12963973 0.0055251904 -0.08116222
000090 29 d9 95 bd dd 65 06 3d 5e a7 b5 3d ec d4 e8 3b
       -0.07316811 0.03281199 0.088698134 0.0071054604
0000a0 17 89 f7 3d da e1 7f 3d 0a 71 0b 3d 15 b0 27 bb
       0.12086695 0.06247125 0.03404335 -0.002558713
0000b0 4f 95 02 3e ea 69 b0 3d bc 39 fe 3c 8b 9e e5 bc
       0.12752269 0.086139515 0.03103339 -0.0280297
0000c0 bb f2 95 3d 78 5f 0b 3e 49 18 86 3d 1c 59 73 3d
       0.07321688 0.13610637 0.06547601 0.059411153
0000d0 58 da ca 3d 16 77 17 3e 38 f1 95 3d 18 c3 08 3b
       0.09904927 0.14791521 0.073213995 0.0020868238
0000e0 5a 41 c4 3c 73 a0 d1 3d 22 9d 16 3e 7e 8b 02 3e
       0.023956943 0.102356814 0.14708379 0.12748525
0000f0 cd 9b 9e 3d 63 c1 96 3b 45 d7 26 3e c6 55 34 bc
       0.077445604 0.00460069 0.16293056 -0.011006778
000100 b8 d4 98 3d 25 20 bb 3d 80 6a fd 3b 2e 46 37 bd
       0.07462448 0.091369905 0.007733643 -0.044744663
000110 5b 5e cb bd d0 1a 6e bb 9f 4f 64 3d d7 29 b4 bd
       -0.09930106 -0.00363319 0.055739995 -0.08797043
000120 ec b4 b2 3d f3 70 12 bd d1 af f8 3d bb f1 a9 3d
       0.08725914 -0.035752248 0.12142909 0.082980596
000130 29 cf d5 3d 60 3c 9e bd 0a dd 8f 3b bf 13 87 3c
       0.10439903 -0.07726359 0.0043903636 0.016488908
000140 3e 5f d6 bd 84 07 9f 3d 58 fa 8f 3d 7d 78 88 bd
       -0.10467385 0.07765105 0.07030171 -0.06663606
000150 34 09 fc 3c d2 14 52 3c d9 c0 61 3d d8 f4 e1 bd
       0.030766107 0.012822347 0.055115554 -0.11033028
000160 6d 3e 34 3d dd 61 15 3d 09 78 71 3c 53 af 8b 3d
       0.044004846 0.036470283 0.014738091 0.0682055
000170 01 fb d3 bd ff 1c 7c 3d be 04 75 bd a7 5d 05 be
       -0.103506096 0.06155109 -0.059818976 -0.13024007
000180 c9 63 7c 3d 32 1c 85 bd 2b c5 c4 3d e1 c2 af bd
       0.0616186 -0.064995185 0.09607919 -0.08582092
000190 a7 4a b3 bc 8b d6 e6 3c f3 2f 53 3d a4 5b b1 3d
       -0.021886183 0.028178474 0.0515594 0.08660057
0001a0 26 68 2e 3d 07 21 e0 bd b2 2f 83 3c 86 9c 8f 3d
       0.042579792 -0.109437995 0.016013954 0.07012276
0001b0 00 50 fc bc bd c8 d2 3d 04 44 cd 3d 6b 2a a6 bd
       -0.030799866 0.10292194 0.100227386 -0.08113559
0001c0 48 8b 5e 3c 78 2e be bd c8 63 41 3d 53 09 d7 bd
       0.013583012 -0.09286207 0.0472143 -0.10499825
0001d0 79 2a 06 be c6 63 39 bc b8 f2 92 3c 24 9a 4e bd
       -0.1310214 -0.011315292 0.017938003 -0.05043997
0001e0 b1 db 90 bc 82 95 ea bc f1 33 3f 3d 69 2f 8f bc
       -0.017682882 -0.028635744 0.046680395 -0.017478662
0001f0 11 75 9f 3d 21 3d d6 3d 0e a7 97 bc 6c c4 56 3d
       0.077860005 0.10460878 -0.018512275 0.052433416
000200 b5 a6 1a 3b 8c a0 f3 3d ad ea fc bd 20 f8 06 3e
       0.00235979 0.11895856 -0.12349448 0.1318059
000210 d2 c9 1f bd 49 de e4 bd a2 4e 99 bd 29 19 6d 3d
       -0.03901083 -0.1117521 -0.07485701 0.057885323
000220 2a d8 c1 bd b1 f5 2f 3e ee 58 96 3d 95 52 a7 bd
       -0.09465058 0.17183568 0.07341181 -0.08170048
000230 be 02 8b bc c8 9b cc 3d 1a 95 9c bd d2 c9 90 3b
       -0.016969081 0.099906504 -0.07645626 0.00441859
000240 c9 2e 1c bc a9 0f bc bc d4 1b 14 3e 93 e8 5c bc
       -0.009532639 -0.022956686 0.1446374 -0.013483184
000250 21 59 7b 3c e2 4f 0e be f0 af 0b 3e d5 49 3c bd
       0.015341074 -0.1389766 0.13641334 -0.04596885
000260 68 cb 77 bd 86 5f 02 be 28 78 3e 3d 43 23 11 3e
       -0.060496718 -0.12731752 0.04650131 0.14173608
000270 39 e5 97 bd de ad 8c 3d c2 8c 2c 3e 9f 93 d9 bd
       -0.074167676 0.068691 0.1685057 -0.106238596
000280 48 e8 4c bd 37 93 29 bd bd 95 df bd 55 d8 35 bd
       -0.05002621 -0.04140016 -0.10917232 -0.044395763
000290 91 67 df bd 7d ec 3d 3c 37 ff f9 3c 38 d5 98 3c
       -0.109084256 0.011592028 0.030517204 0.018656358
0002a0 9b 0d 79 bd 1b e8 17 3e 60 51 6b 39 9c 83 d3 3d
       -0.06080399 0.14834635 0.00022441661 0.10327837
0002b0 df 04 6d bd 56 4e aa bd 86 8f 60 3d 4a 2f a0 3c
       -0.057865974 -0.08315723 0.054824375 0.0195538
0002c0 38 ce 53 3c f9 c7 c0 bd e3 00 aa bc ee b3 b1 bc
       0.012927584 -0.09413142 -0.020752376 -0.021692242
0002d0 bf 1f c9 bd d3 29 b0 3d 87 d8 44 bd c1 49 d8 bc
       -0.09820508 0.08601727 -0.04805806 -0.026402356
0002e0 e7 69 1d bd 43 86 c1 bd cc e0 c4 3d f9 1c e2 3c
       -0.038431074 -0.094494365 0.09613189 0.027601706
0002f0 3d f5 cb 3b b0 37 e2 3d 82 d0 e2 bc dd ff 56 3d
       0.006224303 0.11045778 -0.027687315 0.052490104
