project/onnx_models/GRU/Samsung.onnx (onnx, 23764 bytes, 5 tensors)

gru.weight_ih_l0 f4 [96, 5]
000000 f6 41 a7 3d 30 15 88 3d e0 b6 b0 bc 5c 58 1a be
       0.08166878 0.06644666 -0.021571577 -0.15072769
000010 d4 54 41 bd 6b 01 8a bd 80 21 f7 ba 38 60 85 bd
       -0.04720004 -0.06738552 -0.0018854588 -0.06512493
000020 ca d3 d6 3d b4 73 ac bd aa 02 ef 3d 9e 35 9b 3d
       0.10489614 -0.08420506 0.1167043 0.07578586
000030 40 27 53 3b 0d 7c 96 bd 6d 13 08 be 7a aa ef 3d
       0.003221944 -0.073478796 -0.1328866 0.11702438
000040 72 59 87 bd 3b c3 bf bd 10 a8 57 3c 4a 25 e8 3d
       -0.06608857 -0.09363409 0.013162628 0.11335237
000050 58 f9 ca bd a6 02 c2 3d 0e ac cc 3d 87 bf 1a 3e
       -0.0991084 0.094731614 0.09993754 0.15112124
000060 84 6a 13 be 5b 8e 17 3e ee 5a f5 3d 00 40 cb b7
       -0.14396101 0.14800398 0.11980234 -2.4229288e-05
000070 ac 1e 26 be 10 4d 4b bd 26 0a 9c 3d f5 91 81 bd
       -0.16222638 -0.04963404 0.07619123 -0.06326667
000080 58 cf 94 bd c3 c4 c0 bd 60 cb 48 3d a0 9b a5 bd
       -0.0726611 -0.09412529 0.04902208 -0.08086324
000090 80 c2 9d ba 33 52 12 3e 50 34 91 3d be a9 71 bd
       -0.0012036115 0.14289169 0.07090056 -0.05899977
0000a0 c6 f5 99 3d c9 ca 9e bd 80 4e e4 bb 7e 45 b1 3d
       0.07517581 -0.07753522 -0.0069673657 0.08655833
0000b0 4f db 25 3e 8a a6 a6 3d f0 b4 0d bc 85 24 11 3e
       0.16196941 0.081372336 -0.008649096 0.14174087
0000c0 aa 28 11 be 6d 6d 0f 3e 3e bd 9d 3d a2 25 f4 3d
       -0.14175668 0.14006586 0.07702111 0.119212404
0000d0 b3 f7 28 be 49 f6 07 be 30 46 2e 3c e6 4f cf bd
       -0.1650074 -0.13277544 0.010636851 -0.10122661
0000e0 4e 89 fd 3d a0 8b 15 3d 42 40 c8 3d c5 48 12 3e
       0.123797044 0.03651011 0.09777881 0.14285572
0000f0 9b 89 2b 3e 2f 8c 28 3e 68 c6 0f be c9 0b 15 be
       0.16751711 0.16459726 -0.1404053 -0.14555277
000100 5d ad 30 3e 65 19 14 3e 76 b5 cf 3d 5a bc bf 3d
       0.17253633 0.14462812 0.10142033 0.09362097
000110 00 5b 12 bd 23 fd 32 3e 7f 32 0d be e8 d0 33 be
       -0.035731316 0.17479376 -0.13788794 -0.1756016
000120 7b b6 d4 bd 82 d2 c2 3d c9 a5 05 3e 16 5e 6c bd
       -0.10386368 0.095128074 0.13051523 -0.057706915
000130 c0 f3 69 3d 6f 8b e7 bd 19 9a 09 3e 34 e2 15 be
       0.057117224 -0.11305892 0.1343769 -0.14637071
000140 5b 7b 1b be 5a 27 ac 3d 80 62 96 3a ca 30 a2 3d
       -0.15183775 0.08405943 0.0011473447 0.07919462
000150 27 d8 32 3e 1a de 8a bd 62 ea a7 3d f0 ea 2d 3d
       0.17465268 -0.06780644 0.08199002 0.042460382
000160 02 d7 b3 3d 1e 3a cb 3d c1 68 10 3e e8 cc ce bc
       0.08781244 0.09923194 0.1410246 -0.025244191
000170 0c f8 66 3d c8 eb 1c be b5 e1 03 3e a9 85 09 3e
       0.0563889 -0.15324318 0.12879069 0.13429894
000180 4a 60 ec 3d d2 18 1b be a1 9e 10 be e1 61 1d be
       0.11541803 -0.15146187 -0.14123012 -0.15369369
000190 c6 01 a5 3d cc 1b 70 bd 2f 7d 0f 3e 0e 81 fe 3d
       0.08056979 -0.05862026 0.14012598 0.12426959
0001a0 b6 a8 0d be 67 9c 10 be 75 c1 d9 bd 90 52 e0 bc
       -0.1383389 -0.14122163 -0.10632602 -0.027383119
0001b0 1f 6e 26 3e 9e 25 92 3d a5 29 e9 bd 48 95 11 be
       0.16252945 0.07136081 -0.11384896 -0.14217103
0001c0 d8 85 5f bd 80 56 2a bc e7 76 0d 3e 5a 7b ed 3d
       -0.054571003 -0.0103966 0.13814889 0.11595793
0001d0 50 18 6f bc 60 23 69 3d 8f 1a 0f 3e de c8 e3 3d
       -0.014593199 0.0569185 0.13974975 0.11122297
0001e0 ef 55 9e bd 7f 6a 04 3e d2 c6 df 3d 20 b1 36 3d
       -0.07731234 0.1293125 0.10926594 0.044602513
0001f0 9f 13 9c bd 19 b8 26 3e 0c f7 29 be 04 cc 47 3d
       -0.0762093 0.16281165 -0.16598147 0.04877855
000200 c0 d4 7d 3b f7 eb 20 3e 88 78 2b bd c0 b8 d5 bd
       0.0038731545 0.15715013 -0.041862994 -0.10435629
000210 79 14 bb bd 2d 32 30 be 50 3a 61 bc 9f 9c 2e 3e
       -0.09134764 -0.1720664 -0.013746813 0.17051934
000220 a0 5f eb 3c e6 f5 bd bd 4c 79 94 bd 0a cb ef 3d
       0.028732121 -0.09275417 -0.07249698 0.117086485
000230 28 e4 0d bd 40 ba 35 3c 50 96 6b 3d 13 cf 30 3e
       -0.034641415 0.011091769 0.057516396 0.17266493
000240 1e 22 26 be 5d 21 cf bd 00 75 00 ba 22 7a a9 3d
       -0.16223952 -0.101137854 -0.0004900247 0.08275248
000250 3f f5 1e 3e df 4a 17 3e 7d cc 0c 3e d9 c9 29 3e
       0.15523241 0.14774655 0.13749881 0.16580905
000260 80 a7 81 3a 5a 2e ba 3d 20 ca 3c 3d c0 8e 0b bd
       0.0009891838 0.09090872 0.0460912 -0.034071684
000270 fa 06 b9 3d 74 14 43 bd fd 58 2d be 67 87 1c 3e
       0.09034534 -0.047626927 -0.16928478 0.15286027
000280 fe a0 8a 3d 55 ef 17 be 7e 9e bc 3d 8a e8 f9 3d
       0.06768988 -0.14837392 0.092099175 0.122025564
000290 f0 a6 85 bc 31 3f 06 3e c9 cd 96 bd a7 6a a8 bd
       -0.016314954 0.13110043 -0.07363469 -0.08223467
0002a0 18 4d 2a 3d e3 b1 21 be 08 c2 0a 3d 68 a2 11 3d
       0.04157743 -0.15790515 0.03387645 0.035555273
0002b0 40 3c 2f 3d 19 f1 90 bd d0 79 74 3c 80 08 52 bc
       0.04278207 -0.07077236 0.0149216205 -0.012819409
0002c0 4d 2b a2 bd f7 b5 cb bd 36 81 ec 3d 38 12 7e 3d
       -0.07918415 -0.099468164 0.115480825 0.062029094
0002d0 4f 9d 18 3e 58 df 8b bd 50 0d e2 3c 09 e2 17 be
       0.14903758 -0.06829709 0.027594239 -0.1483232
0002e0 30 b1 29 bc b1 85 04 be e0 0d 9b bc bf b4 02 be
       -0.010357186 -0.12941624 -0.018927515 -0.12764262
0002f0 8a 07 c2 3d e1 b0 0e 3e cd c7 1e be 46 31 5f bd
       0.09474094 0.13934661 -0.15505905 -0.05449035
000300 86 69 18 be 61 ea d3 bd e6 ce 67 bd 6e 6b de bd
       -0.14884004 -0.103474386 -0.056593798 -0.10860334
000310 30 ea 25 3d 06 3e fd bd 56 fa fc 3d 44 dd 2c be
       0.04050654 -0.12365346 0.12352435 -0.16881281
000320 94 56 3c bd 7d 9e 07 be d4 8f ff bd 20 a4 ee bb
       -0.045981005 -0.13244052 -0.12478605 -0.007282749
000330 b4 b6 12 bd dd 12 0f 3e 70 f7 b2 3c d5 da 23 3e
       -0.03581877 0.1397204 0.021846503 0.16001447
000340 e8 90 0c bd 3a 1f 9b 3d 06 0a d8 bd 1d 06 0d 3e
       -0.03431788 0.07574315 -0.10548787 0.13771863
000350 80 bf 1f bd 76 75 88 3d 82 16 a1 3d 7a 52 9c bd
       -0.039000988 0.06663029 0.07865621 -0.07632919
000360 58 42 b3 bc 3e 71 02 be f5 3e d4 bd e0 61 eb 3b
       -0.021882221 -0.12738511 -0.103635706 0.0071832985
000370 fe 08 df 3d 38 3b d5 bc 01 47 00 3e 72 92 f0 3d
       0.10890387 -0.026029214 0.12527086 0.11746682
000380 e8 42 19 3d a3 8c 19 3e 44 86 84 3d 2a 02 03 be
       0.037417322 0.14995055 0.06470922 -0.12793794
000390 0c 07 8b 3d 6c b4 1b 3d c0 da 5d bd e9 18 c9 bd
       0.067884535 0.03801386 -0.054163694 -0.09819204
0003a0 f1 e6 20 3e 15 97 b8 bd 97 e9 2a 3e 6c e9 23 bd
       0.15713097 -0.090131916 0.1669067 -0.04001753
0003b0 b1 09 bb bd 96 49 e5 3d da 5e fc 3d e3 46 0d 3e
       -0.09132708 0.11195676 0.12322779 0.13796572
0003c0 c1 18 9d bd 50 31 14 3c 2f fc 24 be a0 5e cf bb
       -0.07670737 0.00904496 -0.16111825 -0.006328419
0003d0 8e 03 11 be 39 7a 01 3e 06 e2 97 bd fc a2 3d 3d
       -0.14161512 0.1264428 -0.074161574 0.046298012
0003e0 1d c5 05 be bc 6b cc bd 18 04 ae 3c d6 88 f2 3d
       -0.13063474 -0.09981486 0.021242186 0.11842506
0003f0 06 46 83 3d f5 db 06 be a0 aa 0f bc fd 5e 02 3e
       0.0640984 -0.13169844 -0.0087687075 0.12731548

gru.weight_hh_l0 f4 [96, 32]
000000 4c 86 19 bd f2 d8 bc bd b2 f0 17 be b0 24 d3 3c
       -0.03748159 -0.092210665 -0.14837912 0.02577433
000010 00 6e 8b bd 2b 8e f7 bd 55 ca 8b bd e1 85 33 3e
       -0.0680809 -0.12087663 -0.06825701 0.1753154
000020 a8 ae bd bd a1 8c 0c 3e 53 ed 0f 3e c8 21 f9 bd
       -0.09261829 0.1372552 0.14055376 -0.121646464
000030 4d 5f b8 bd 93 7d 30 3e 3c 92 58 3d 38 23 e4 bc
       -0.09002552 0.17235403 0.052873835 -0.027848825
000040 54 1c 10 be 7b 7b 80 bd 94 b1 34 be 1c ce df bd
       -0.14073306 -0.06273552 -0.17645866 -0.10927984
000050 00 c4 04 3c 00 7a 82 3c 5d 74 09 be 6a 35 5e bd
       0.008103371 0.015927315 -0.13423295 -0.05425016
000060 10 65 1d bd fb 9d 26 3e 34 67 24 be 50 c6 b0 3c
       -0.03842646 0.16271202 -0.16054994 0.021578938
000070 17 dd 94 bd ad d2 15 be be 27 05 be 68 c0 ab bd
       -0.07268732 -0.14631148 -0.13003442 -0.08386308
000080 95 89 33 3e 1f 64 04 3e 85 65 12 be 46 9f 17 be
       0.17532952 0.12928818 -0.14296539 -0.14806852
000090 80 76 64 bb 34 c8 04 be 20 94 12 3d 0b b0 bc bd
       -0.003486067 -0.12966996 0.035785794 -0.09213265
0000a0 2b bf 83 bd 54 58 31 3d 6d df 82 bd 94 9e 9a bd
       -0.06432947 0.043297127 -0.06390271 -0.075497776
0000b0 60 84 bd bd 4a 74 e4 3d f0 82 8d bc c0 68 89 bd
       -0.09253764 0.11154993 -0.01727435 -0.067094326
0000c0 ba 01 9f 3d 09 c7 23 3e 46 32 30 be b0 94 5c bd
       0.07764001 0.15993895 -0.17206678 -0.053852737
0000d0 80 df 41 3b 4a e7 c9 3d 00 c5 3d 3d c2 8c ce 3d
       0.002958268 0.09858568 0.046330452 0.10085441
0000e0 aa 2e fc 3d 11 84 1e be 00 b6 e8 3c ae c4 84 3d
       0.12313588 -0.15480067 0.028407097 0.06482826
0000f0 1a 3f ba 3d 29 0c 21 be c6 9e dc 3d f8 f0 25 bd
       0.09094067 -0.15727295 0.10772471 -0.04051301
000100 88 13 92 3d a0 aa e7 3c ff d1 2f 3e 24 4b a0 bd
       0.071326315 0.028279603 0.17169951 -0.07826832
000110 f7 a6 0d be 78 6a 34 be 27 93 29 3e c0 46 b8 bb
       -0.13833223 -0.1761874 0.1656004 -0.0056236684
000120 9b 61 25 3e 60 bc 2e bd 3c d2 17 be ba 06 9d 3d
       0.16150515 -0.042660117 -0.14826292 0.076672986
000130 0e d3 6b bd e8 fb 28 bd 1a d8 1b be fc d5 14 bd
       -0.057574324 -0.04125586 -0.15219155 -0.036336884
000140 c0 f0 20 3c e4 cf 5e 3d 29 c0 01 3e 8f fa b1 bd
       0.009823024 0.05439748 0.1267096 -0.086903684
000150 f8 ae 32 be ae e0 16 be b2 48 2e be 5a d8 8f 3d
       -0.17449558 -0.14734146 -0.17019919 0.07023688
000160 5c 32 42 bd d4 82 03 be 70 c3 1a be f2 99 f4 3d
       -0.047411308 -0.12842876 -0.15113616 0.11943425
000170 34 c5 40 bd 74 35 29 be 00 19 a4 bb 1a 35 a6 3d
       -0.047063068 -0.16524297 -0.005007863 0.08115597
000180 46 05 db 3d 44 6f 09 3d 84 40 0d bd 80 63 4a 3d
       0.10694365 0.033553377 -0.034485355 0.049411297
000190 ce 57 17 be 63 c5 2a 3e 78 ce c9 3c 4a 1b a2 bd
       -0.14779589 0.1667686 0.024634585 -0.07915361
0001a0 d7 5b a5 bd 87 3a 04 be e0 9f 8e 3d 7a 93 ad 3d
       -0.08074158 -0.12912951 0.069640875 0.084753945
0001b0 8d be 33 3e 1e a6 d5 3d 08 8a ef bd 56 00 b3 3d
       0.17553158 0.10432075 -0.11696249 0.087402984
0001c0 f6 e9 31 be 6d 18 2d 3e 91 bb 22 3e e0 00 a3 3b
       -0.17374405 0.16903849 0.15891863 0.0049744695
0001d0 86 a3 ec 3d 65 3b 08 3e 9c 30 08 3d 19 5c 2d be
       0.11554627 0.13303907 0.033249483 -0.16929664
0001e0 42 c3 a6 3d 80 99 59 3d 63 a2 25 be c0 11 da 3b
       0.08142711 0.053124905 -0.16175227 0.006654948
0001f0 a4 20 20 bd 3c 79 6b 3d f8 40 82 3d d8 a2 f4 bd
       -0.03909363 0.057488665 0.06360048 -0.119451225
000200 80 e3 b9 3a 2c 97 0c be b9 ab c7 bd e0 f7 10 be
       0.001418218 -0.13729542 -0.0974955 -0.14157057
000210 23 86 0c 3e 5c 19 02 be 29 96 8f bd 14 96 57 bd
       0.13723044 -0.12704986 -0.07011063 -0.05263336
000220 64 34 f4 bd 4f 3e 27 be 33 9f ac bd c3 79 85 bd
       -0.11924055 -0.16332363 -0.08428802 -0.06517365
000230 a0 33 b8 3c 9b 40 2c 3e cf 2f 30 3e 79 a2 ed bd
       0.022485554 0.1682152 0.17205738 -0.11603255
000240 d7 1b 8b bd f6 ba 64 bd 2b 16 1c 3e 20 eb c0 bc
       -0.067924194 -0.055842362 0.15242831 -0.023549616
000250 bc 01 e5 bd ea 4b ca bd 50 7c 01 3c 77 de 17 be
       -0.111819714 -0.09877761 0.007903174 -0.14830957
000260 c2 ce c9 3d 00 31 8f 3d bf f3 28 3e 8c 5d e1 bd
       0.09853889 0.06991768 0.16499232 -0.11004171
000270 e6 69 31 be 9c 76 64 3d 68 c9 d6 bc 6f 25 11 be
       -0.17325553 0.055777177 -0.026219085 -0.14174436
000280 f8 2c 20 bd 4a ed 06 be ca d3 ea bd 72 7f a0 3d
       -0.039105386 -0.13176456 -0.11466177 0.07836808
000290 14 45 0e 3d dd c6 19 3e 94 d9 89 bd fd 17 1b 3e
       0.034733847 0.15017267 -0.06730953 0.1514587
0002a0 02 af 74 bd c0 be fa 3b 45 dc c5 bd 20 01 91 3b
       -0.059737213 0.0076521337 -0.09661154 0.004425183
0002b0 16 9b 76 bd 00 2b 3a bc 4f 4f 99 bd 39 e8 32 3e
       -0.060206495 -0.011362791 -0.0748583 0.17471398
0002c0 97 63 0c be b2 7e 95 3d 00 78 83 b9 26 2a 91 3d
       -0.13709866 0.07299556 -0.00025075674 0.07088117
0002d0 b6 5c be 3d 30 67 26 3d 00 9e 5a 3d 8f 38 17 be
       0.09295027 0.04062575 0.053373337 -0.14767669
0002e0 22 85 8b bd 38 44 ce bc d1 06 c6 bd 2b 56 2b 3e
       -0.068125024 -0.025179014 -0.09669269 0.16732089
0002f0 28 b8 d1 3c 20 22 04 3d 7f d2 27 3e e8 bd 0a bd
       0.025600508 0.032259107 0.16388892 -0.033872515
000300 08 18 cf bc 1e 08 d3 bd c8 1f 5b 3d f0 42 83 3d
       -0.025280014 -0.103042826 0.053497106 0.06409252
000310 87 ee 20 be 45 c4 e7 bd 80 49 66 3b 20 a1 07 bd
       -0.15715991 -0.11316732 0.0035139024 -0.033112645
000320 3e 08 91 3d 78 64 7e bd cc 7d 28 3d 29 51 ec bd
       0.0708165 -0.062107533 0.041135594 -0.115389176
000330 25 08 26 be 00 37 bb bc 6e 9c b6 3d 25 c3 19 3e
       -0.16214044 -0.022853374 0.08916555 0.15015848
000340 e0 85 27 bd 30 89 c6 3c dd 29 20 be f0 e7 dc bd
       -0.040899158 0.024235338 -0.1564097 -0.10786426
000350 4f b4 2d be f0 42 33 be 06 fd c2 3d d3 c2 a5 bd
       -0.16963314 -0.17506003 0.09520917 -0.080938004
000360 3e b7 09 be 3c df 33 bd b0 32 e6 bd 80 24 07 be
       -0.13448808 -0.043914065 -0.112401366 -0.13197517
000370 75 f7 31 be 36 74 cf 3d da b8 d5 3d 2b 59 1b 3e
       -0.17379554 0.10129587 0.10435648 0.15170734
000380 ac 25 79 bd 04 65 3c 3d 8c a3 e0 bd 7e b8 d9 3d
       -0.060826942 0.045994774 -0.10968694 0.10630892
000390 b9 b3 16 3e 00 2e 37 3a a4 a0 58 bd b6 2a 1a be
       0.14716996 0.00069877505 -0.052887574 -0.15055355
0003a0 a0 29 3b 3c 20 84 7d 3c 1c e4 17 3d 04 15 41 bd
       0.011423498 0.015473396 0.037082776 -0.047139183
0003b0 10 90 53 3d 10 ed 0e 3c a0 88 8f 3c f0 63 60 3c
       0.05165106 0.008723512 0.017521203 0.013695702
0003c0 0b e1 2f 3e 30 93 38 bd 50 6f f1 bc c8 20 61 3d
       0.17175691 -0.045062244 -0.029472023 0.054962903
0003d0 71 3d 19 3e 72 75 d9 3d 02 5e 77 bd f8 50 67 3d
       0.14964844 0.10618104 -0.060392387 0.056473702
0003e0 3b a4 09 be a6 5e 27 be 6e 74 1f be f0 38 54 3c
       -0.13441555 -0.163447 -0.15571758 0.012953028
0003f0 d8 6c ba bc c8 94 18 be 18 bf 2c be 00 c0 7d b8
       -0.022756979 -0.14900506 -0.16869771 -6.0498714e-05

gru.bias_ih_l0 f4 [96]
000000 24 e8 94 3d 90 5e 34 3d 2e 44 7f bd ac 2c 33 3d
       0.0727084 0.044035494 -0.06232088 0.043743774
000010 d2 cf b7 3d f0 1b 24 bd 13 79 0e be e2 c0 f7 3d
       0.089751855 -0.040065706 -0.13913374 0.12097336
000020 c0 29 43 bd f0 ba c5 3c ca 57 f3 3d 32 1b e9 3d
       -0.047647238 0.02413699 0.11881979 0.1138214
000030 14 57 0c be 47 02 c1 bd 88 9f b4 bc 73 18 24 be
       -0.13705093 -0.094242625 -0.022048727 -0.16024952
000040 01 e9 11 3e 11 d3 31 3e 40 9d 12 be d2 c4 dc 3d
       0.1424904 0.17365672 -0.14317799 0.10779728
000050 07 5b 2e be 8f cb 28 be 25 d5 1e 3e 00 bb 5d 3b
       -0.17026912 -0.16483901 0.15510996 0.0033833385
000060 bd 47 30 3e 81 29 92 bd 00 5a 09 ba 86 98 d1 3d
       0.17214866 -0.071368225 -0.00052395463 0.1023417
000070 68 73 eb bd f2 28 1f be 01 14 23 be 86 19 80 3d
       -0.11496621 -0.15542963 -0.159256 0.06254868
000080 3a d7 e4 3d e5 e2 1d 3e 08 2e fe 3c f5 ca 92 bd
       0.11173864 0.15418585 0.031027809 -0.07167617
000090 ee 57 cf bd 83 25 86 bd e0 e5 0a be 90 c6 06 be
       -0.10124193 -0.065501235 -0.13564253 -0.13161683
0000a0 c3 3e 0a 3e 56 99 ea 3d 96 94 f7 bd bb 89 0b be
       0.13500504 0.11455028 -0.120888874 -0.13626759
0000b0 c2 98 a3 3d 78 6c 9d bd 60 fa 0c be ac 2c 61 bd
       0.079881206 -0.076867044 -0.13767385 -0.054974243
0000c0 f4 6e 1f bd f8 b8 24 bd 1b 22 8b bd 62 04 b2 3d
       -0.038924173 -0.040215462 -0.067936145 0.08692242
0000d0 8b 75 1c 3e 96 33 bc 3d 58 b4 bf bc e0 fa bf bc
       0.15279214 0.09189527 -0.023401424 -0.023435056
0000e0 d4 bc 6d 3d b2 0b c3 3d 57 eb 2a 3e 50 45 53 3d
       0.05804141 0.09523715 0.16691338 0.051579773
0000f0 c0 d0 3b bb 8a 8d 1a be 7e de 2f be 30 ee 53 3c
       -0.002865836 -0.15093055 -0.17174718 0.012935206
000100 60 7e 89 bc c2 9f cd 3d 1a cf 06 be 9c 3e 27 bd
       -0.016783893 0.10040237 -0.1316494 -0.040831193
000110 83 44 08 be 5e 48 c9 3d 3d 3f 06 3e 60 b4 d8 3c
       -0.13307385 0.09828256 0.13110061 0.026453197
000120 f6 25 9a bd c6 ce 95 bd 35 fe fc bd 2c b9 c0 bd
       -0.07526772 -0.073148295 -0.12353174 -0.09410319
000130 e0 6b 26 bd 0c 96 11 bd 5a 6b d8 bd 2b ae 13 3e
       -0.04063022 -0.035543486 -0.10567351 0.14421909
000140 2e 00 3f bc 4a 10 8a 3d 17 be 22 be dc c2 77 3d
       -0.011657758 0.06741388 -0.15892826 0.060488567
000150 a6 e4 bc 3d 2b fa e2 bd 88 aa 95 bc 4b 88 30 be
       0.09223299 -0.11082872 -0.018269792 -0.17239492
000160 2c f0 0b be 18 5c f9 3c 06 39 95 bd 56 c3 b3 bd
       -0.13665837 0.030439422 -0.07286267 -0.08777492
000170 4e 22 d6 3d a0 50 4a 3c b9 ae ca bd aa e6 96 3d
       0.10455762 0.012348324 -0.09896607 0.073682144

gru.bias_hh_l0 f4 [96]
000000 2e 63 ff bd e4 ce 63 3d 60 0d 34 3c c3 cd 07 3e
       -0.12470089 0.05561723 0.010989517 0.13262086
000010 20 1e fd 3c 98 3a df bc 55 40 07 3e 80 2d cc 3b
       0.030898154 -0.02724962 0.13208134 0.00623101
000020 00 83 55 3a dd d1 2f 3e e6 49 59 bd 1e 3c b2 3d
       0.00081448257 0.171699 -0.05304899 0.08702873
000030 4b 7b ac bd e8 c2 9e bc 73 8b 10 3e 83 4f 09 3e
       -0.08421954 -0.019380048 0.14115696 0.13409238
000040 6e e3 b9 3d 2f 68 16 be 8c 32 54 bd 20 c0 10 be
       0.09076582 -0.1468818 -0.051806018 -0.1413579
000050 4e a6 9f 3d a7 86 18 be 43 25 0e 3e ca 69 fb 3d
       0.07795392 -0.14895116 0.13881402 0.12276037
000060 28 40 0b be e9 4b cd bd fb 7f 00 3e 48 1b 09 3d
       -0.13598692 -0.10024244 0.1254882 0.033473283
000070 09 ea 34 be 74 a2 68 bd a9 8a 12 3e 00 41 bd bd
       -0.17667402 -0.056795552 0.14310707 -0.092409134
000080 9d ad 22 3e 88 8a dc bc 07 8b 2a be 8f 59 09 be
       0.1588654 -0.026921526 -0.16654597 -0.1341307
000090 dd 6d 32 3e 39 bf 23 be 33 e5 04 be 00 22 1c 3b
       0.17424722 -0.15990914 -0.12978058 0.0023823977
0000a0 d4 7f 7c 3d 80 b3 1f bb 89 7c e2 bd 76 f8 93 bd
       0.061645344 -0.0024368465 -0.110589094 -0.072251245
0000b0 f8 0d ba bc 2a ab c7 3d 36 d0 b0 3d a4 47 18 bd
       -0.022711739 0.09749444 0.08633463 -0.037177697
0000c0 50 49 f8 3c 38 a1 fc 3c 10 bd 5b 3d 53 6e 84 bd
       0.030308396 0.030838594 0.0536471 -0.06466355
0000d0 ea 28 d6 3d 28 5f a3 bc 2a c5 2a be da 98 f9 bd
       0.104570225 -0.019942835 -0.16676775 -0.12187357
0000e0 3e 6d 1f be 1a ed 86 3d 60 00 a6 3b e0 65 88 bc
       -0.15569016 0.06588192 0.0050659627 -0.01665014
0000f0 36 75 cc 3d 63 1e 12 3e 58 98 da bc 64 3d 0f bd
       0.09983294 0.14269404 -0.026683971 -0.034970656
000100 20 f4 89 3b aa 13 be 3d 70 6a c0 bc 5c 38 8b 3d
       0.00421001 0.09281094 -0.023488253 0.06797859
000110 c7 50 a6 bd c0 45 93 3c f0 9c d0 3c 27 b7 26 3e
       -0.08120876 0.017977595 0.025465459 0.16280805
000120 76 60 b4 3d f1 50 e3 bd 0c 6a 0a be 40 47 b9 3c
       0.08807461 -0.11099423 -0.13517016 0.022616982
000130 01 4c a4 bd f2 11 fe 3d c8 9d 73 3d 12 56 5b bd
       -0.08022309 0.124057665 0.059476644 -0.05354888
000140 64 a0 0e be 44 5f e0 bd af 2e eb bd 90 f7 88 bc
       -0.13928372 -0.109556705 -0.114835136 -0.01671961
000150 84 21 57 3d e0 81 89 bd 28 01 f5 bc e3 71 1a be
       0.052522197 -0.06714225 -0.029907778 -0.15082507
000160 bd 6f 2c 3e 46 da 1e be ab 47 94 bd a7 c0 11 3e
       0.168395 -0.15512952 -0.07240232 0.14233647
000170 67 19 82 bd cd f0 17 3e f0 65 e4 3c 1f 06 19 3e
       -0.06352501 0.14837952 0.027880639 0.14943741

conv.weight f4 [1, 32, 1, 1]
000000 c2 b8 a2 be d0 f0 c1 be c4 69 94 bd 9a a3 b7 be
       -0.31781584 -0.37879038 -0.07246736 -0.35867006
000010 7b b6 9c be 34 2a aa 3e 36 51 97 be fc e1 f1 3e
       -0.30607972 0.33235323 -0.29554147 0.47242725
000020 a1 4d 16 bf 66 9d a6 3d fd 09 1a 3e 53 ad 1e 3e
       -0.587122 0.0813549 0.15042873 0.15495805
000030 b6 2f a0 3d a8 de 5a bd bc 35 a4 3e 82 63 ee 3d
       0.078216 -0.053434998 0.32072246 0.11640073
000040 5d 83 84 3e 91 37 7c be 02 7a 13 bf 09 35 1e 3e
       0.25881472 -0.24630572 -0.57608044 0.15449919
000050 72 3e 81 3e de 34 c5 3d 93 89 01 3e 65 18 28 3e
       0.25242954 0.09629224 0.12650137 0.16415556
000060 db 92 0c be a4 4f 31 be 41 bb 11 3e a5 cc ea 3e
       -0.13727896 -0.17315537 0.14231588 0.45859256
000070 90 03 ae bd d8 e9 e7 be 7f 5f 2f 3e 4e 30 bb 3d
       -0.08496773 -0.45295596 0.17126273 0.09140073
