project/onnx_models/GRU/Samsung.onnx (onnx, 157804 bytes, 7 tensors)

fc.weight f4 [1, 64]
0	0xbee12894	-0.4397627
1	0x3ecdcec5	0.40196815
2	0xbef54901	-0.4790726
3	0x3ef317bd	0.47479048
4	0xbec60a01	-0.38679507
5	0xbeced222	-0.40394694
6	0xbeec9490	-0.46207094
7	0xbef66885	-0.48126617
8	0xbef9c5e7	-0.487838
9	0xbed20b35	-0.41024175
10	0x3ecbc4a7	0.3979847
11	0x3ef33416	0.47500676
12	0xbeec523b	-0.46156487
13	0xbef2d6b2	-0.47429425
14	0xbed577b3	-0.41692886
15	0x3efdbf97	0.49560234
16	0x3edd91fa	0.43275434
17	0xbee1ee03	-0.441269
18	0xbef72671	-0.48271516
19	0xbec222ce	-0.3791718
20	0xbeb53e86	-0.35399264
21	0xbed105f2	-0.40824848
22	0x3ed9fd69	0.4257615
23	0xbee8c377	-0.45461628
24	0x3eedcec5	0.46446815
25	0x3ecc1e83	0.3986703
26	0x3ef51342	0.47866255
27	0xbef28b2c	-0.47371805
28	0x3ef697b0	0.48162603
29	0xbedccac8	-0.4312346
30	0xbefb58e3	-0.49091253
31	0x3ee972ed	0.45595494
32	0x3ed8b109	0.42322567
33	0x3ef5264b	0.47880778
34	0x3ed6672b	0.41875586
35	0xbed5e348	-0.41774964
36	0xbef96e76	-0.48717088
37	0xbedb3c43	-0.42819414
38	0xbeb63afb	-0.35591874
39	0xbef81c14	-0.48458922
40	0x3ebab699	0.36467436
41	0xbef54884	-0.47906888
42	0x3eea9b7d	0.45821753
43	0xbebcd294	-0.36879408
44	0xbed2cc4b	-0.41171488
45	0x3ee80298	0.4531448
46	0xbeccdbc1	-0.4001141
47	0xbec5a189	-0.38599804
48	0x3ee0758e	0.43839687
49	0xbeeb2ee7	-0.4593422
50	0x3ecf7722	0.4052058
51	0x3edf5bf9	0.43624857
52	0x3ee697b0	0.45037603
53	0xbef9c49b	-0.4878281
54	0x3ee08812	0.43853813
55	0x3ee87ba9	0.45406845
56	0x3eec0d7f	0.46104047
57	0xbed44aee	-0.41463417
58	0x3ed2798e	0.41108364
59	0xbedb5157	-0.42835495
60	0xbebae186	-0.36500186
61	0x3ecde66f	0.4021487
62	0x3eed50fa	0.46350843
63	0xbebf3439	-0.3734453

onnx::GRU_183 f4 [1, 192, 5]
0	0xbdd34c52	-0.10317291
1	0xbcc92eb0	-0.024558395
2	0xbcb8e398	-0.022569463
3	0xbdd7d2b8	-0.10538238
4	0xbdbf52d8	-0.09341973
5	0x3dd647fc	0.10462949
6	0xbd1a78f4	-0.037713006
7	0xbde11e46	-0.10992102
8	0x3df1016e	0.11767851
9	0xbc2bd190	-0.010486975
10	0xbd8bfcd6	-0.06835334
11	0xbd7c4f40	-0.061599016
12	0xbdabbf3e	-0.08386086
13	0xbd509be4	-0.05092992
14	0x3db9f0fa	0.09079166
15	0xbdb5854c	-0.08863315
16	0xbdd2db3c	-0.10295722
17	0xbd13f2a4	-0.036120072
18	0x3df05818	0.117355525
19	0xbda610e0	-0.081086874
20	0xbd3bc330	-0.045840442
21	0x3c4c0db0	0.012454435
22	0xbc22c950	-0.009935692
23	0xbc3d1a90	-0.0115419775
24	0x3b600540	0.0034182817
25	0x3de38888	0.11110026
26	0xbdddf4ee	-0.10837732
27	0xbdec135c	-0.1152713
28	0xbde7223c	-0.112858266
29	0xbd43a030	-0.04776019
30	0x3c5c2520	0.013436586
31	0x3d9c82e4	0.07642153
32	0xbdd102d4	-0.102056175
33	0x3cbc68a0	0.022999108
34	0xbc9a16a0	-0.018809617
35	0xbde9cd88	-0.11416155
36	0x3d9b3c8e	0.07579909
37	0x3d924398	0.07141799
38	0xbc00c4f0	-0.007859454
39	0x3d3076dc	0.043082103
40	0x3dcd8dce	0.10036813
41	0xbd25fc64	-0.0405239
42	0x3dc41a8e	0.095753774
43	0xbc988468	-0.018617824
44	0xbc05c150	-0.008163765
45	0x3ded2ed8	0.115812
46	0x3dc07176	0.09396641
47	0x3ddb1a8c	0.10698423
48	0xbd22ee74	-0.039778188
49	0x3de1e464	0.1102989
50	0xbdc5c1cc	-0.096561044
51	0xbd027a20	-0.03185475
52	0xbdd637cc	-0.10459861
53	0x3d81138c	0.063025564
54	0x3dab9bb8	0.0837931
55	0xbdc56450	-0.09638274
56	0x3df4c9d8	0.11952561
57	0x3da648c2	0.08119346
58	0x3d0269bc	0.031839117
59	0x3d62a5d0	0.055333912
60	0xbd8ddace	-0.06926499
61	0x3dc314a2	0.0952542
62	0x3d8e509e	0.0694897
63	0x3aea5880	0.0017879158
64	0xbdca5028	-0.0987857
65	0xbbd1d240	-0.0064032376
66	0xbd912dce	-0.07088815
67	0x3dc6f5a2	0.097148195
68	0xbc1893d0	-0.009312585
69	0xbdaa15b2	-0.08304919
70	0x3dd5ed48	0.104456484
71	0xbca6b638	-0.02035056
72	0x3dfc6552	0.12324013
73	0x3df9ede8	0.1220358
74	0x3cd5b868	0.026088908
75	0x3df921c6	0.12164645
76	0xbda783c2	-0.08179428
77	0x3d21e750	0.039527237
78	0xbdf4a334	-0.11945191
79	0xbdc7df74	-0.09759417
80	0xbdb52d88	-0.08846575
81	0xbd98966a	-0.07450564
82	0xbdfe4fe4	-0.12417582
83	0xbbcd6d60	-0.006269142
84	0x3ded74a0	0.1159451
85	0x3d8c53ca	0.06851919
86	0x3dba02d6	0.09082572
87	0x3dd6e9ea	0.10493834
88	0x3dd70a8e	0.1050006
89	0xbcc29a98	-0.023755357
90	0xbd3980a8	-0.04528871
91	0x3cdbbb08	0.026822582
92	0xbcafee00	-0.021475792
93	0x3d05a8f4	0.03263183
94	0xbdb57390	-0.088599324
95	0xbd573cbc	-0.052548155
96	0xbcf66500	-0.030077457
97	0xbddcd89c	-0.107835025
98	0x3b4aab80	0.0030924976
99	0xbdd06eb6	-0.101773664
100	0x3dd086b6	0.10181944
101	0xbd1b3260	-0.03788984
102	0x3d8ff9aa	0.070300415
103	0x3bcb2900	0.006199956
104	0xbdfbdab2	-0.12297572
105	0x3d7f7a2c	0.06237237
106	0xbda10062	-0.07861401
107	0xbd80db9e	-0.06291889
108	0x3d3f1d78	0.046658963
109	0x3d9618dc	0.0732896
110	0x3d9f6c16	0.07784288
111	0x3d4ee768	0.050513655
112	0x3d06f358	0.032946914
113	0x3c120da0	0.008914381
114	0xbd61a454	-0.055088356
115	0xbdc8738e	-0.09787665
116	0x3d7b4c70	0.061352193
117	0xbd577ef8	-0.05261132
118	0xbcb3aef0	-0.021934003
119	0x3d680a60	0.05665052
120	0xbdb4d680	-0.08829975
121	0x3a0efe00	0.0005454719
122	0x3d884464	0.066536695
123	0xbb5034c0	-0.0031769723
124	0x3c710070	0.014709577
125	0xbd888fc0	-0.06668043
126	0x3dba11c4	0.0908542
127	0x3d9d11de	0.076694235
128	0x3d794ca4	0.060864106
129	0x3d7a35d0	0.061086476
130	0xbdc0127c	-0.093785256
131	0xbcad5048	-0.021156445
132	0xbd5d4c64	-0.05402793
133	0x3d86f270	0.0658921
134	0x3d2d0c3c	0.042247996
135	0x3da9365a	0.0826232
136	0xbddc4b22	-0.10756518
137	0xbaaa8e80	-0.0013012439
138	0xbd1c48e0	-0.038155437
139	0xbdaca9cc	-0.08430824
140	0x3c916db8	0.017752513
141	0xbdbb03cc	-0.091315836
142	0xbd51371c	-0.051077947
143	0x3cac37a8	0.021022633
144	0xbd930198	-0.07178038
145	0x3c251360	0.01007542
146	0x3de59e2a	0.11211808
147	0x3aafe100	0.0013418496
148	0xbb67e680	-0.0035385191
149	0x3d9750aa	0.07388432
150	0x3df1580a	0.1178437
151	0x3db10f34	0.08645478
152	0xbd70d348	-0.058795244
153	0x3d02ea3c	0.031961665
154	0xbd832a0c	-0.06404504
155	0x3d5bcaf8	0.053660363
156	0xbcce8410	-0.025209457
157	0xbd9e601a	-0.07733174
158	0xbdb75882	-0.089524284
159	0xbd10ac34	-0.035320476
160	0x3d9c8538	0.07642597
161	0x39929c00	0.0002796352
162	0xbdd4b222	-0.10385539
163	0xbd4269f0	-0.04746431
164	0x3dc88be4	0.09792307
165	0xbca60af8	-0.020268902
166	0xbbb380e0	-0.0054780096
167	0xbdf247f8	-0.11830133
168	0x3d6690c0	0.056290388
169	0x3d6a8138	0.05725214
170	0x3d79be38	0.060972422
171	0xbd139ab8	-0.036036223
172	0x3d05c6ec	0.03266041
173	0x3d049774	0.032371
174	0x3d14a9c4	0.036294714
175	0xbd8aaa10	-0.06770718
176	0x3d67d58c	0.05660014
177	0x3c400020	0.01171878
178	0xbc9de4b8	-0.0192741
179	0xbcfacdf0	-0.030615777
180	0x3d57d92c	0.052697346
181	0xbdc6568c	-0.09684476
182	0xbd812aac	-0.06306967
183	0xbd9ede88	-0.07757288
184	0xbd57dfb4	-0.052703574
185	0x3ca0e128	0.019638613
186	0xbde49350	-0.1116091
187	0x3c434a90	0.011919633
188	0xbd77b9e4	-0.060480013
189	0x3ca51b78	0.0201547
190	0x3c3015e0	0.010747403
191	0xbdcd9a16	-0.10039155
192	0x3d8c1702	0.06840326
193	0xbd44e800	-0.048072815
194	0x3d285a10	0.041101515
195	0x3d374cf4	0.044751123
196	0x3d21b4f4	0.03947921
197	0x3d673dfc	0.056455597
198	0xbdeecf82	-0.11660673
199	0xba879d80	-0.0010346621
200	0xbd9fbb86	-0.07799439
201	0x3ddf3fec	0.10900864
202	0x3d666728	0.05625072
203	0xbd1557a8	-0.03646055
204	0x3c963bd0	0.018339068
205	0x3c08b550	0.0083440095
206	0x3d97c4b6	0.074105665
207	0xbcc57528	-0.024103716
208	0xbddfbe00	-0.109249115
209	0x3bd23a40	0.0064156353
210	0xbba67dc0	-0.0050809085
211	0x3c30c160	0.010788292
212	0x3ccb4cc0	0.02481687
213	0xbddf0336	-0.10889284
214	0xbd827748	-0.06370407
215	0x3d815ac0	0.06316137
216	0xbd7aa0c0	-0.06118846
217	0x3deab54a	0.114603594
218	0x3db70400	0.0893631
219	0xbdd949e4	-0.10609797
220	0x3d680084	0.056641117
221	0x3dfbef52	0.12301506
222	0xbd6c65a4	-0.05771412
223	0xbdaedef4	-0.08538619
224	0xbdfeef8a	-0.12448032
225	0x3da629e2	0.08113457
226	0xbda47d1a	-0.08031674
227	0x3ddbf474	0.10739985
228	0x3dbe185e	0.092819914
229	0xbb8ca4a0	-0.0042920858
230	0xbd4f2750	-0.0505746
231	0xbdff03b0	-0.12451875
232	0x3cced708	0.02524902
233	0x3cacbc70	0.021085948
234	0xbdd92156	-0.106020615
235	0xbd37e014	-0.044891432
236	0xbb0cc780	-0.0021481216
237	0x3d436ff8	0.047714204
238	0x3d200178	0.0390639
239	0xbcdd7cb8	-0.02703701
240	0x3dae9ea0	0.08526349
241	0x3da7bbbe	0.08190106
242	0x3dd83d96	0.105586216
243	0x3d2c4f2c	0.04206769
244	0x3da68010	0.08129895
245	0xbd9a3e3c	-0.075314015
246	0x3cdb9038	0.026802167
247	0xbd64ae0c	-0.055830047
248	0x3d851548	0.064982
249	0xbdb2bb1e	-0.08727096
250	0xbd20858c	-0.03918986
251	0xbdaf69c0	-0.08565092
252	0x3d837aac	0.06419882
253	0x3b30b7c0	0.0026964992
254	0xbdb6ac38	-0.08919567
255	0xbdf15ea2	-0.11785628

onnx::GRU_184 f4 [1, 192, 64]
0	0x3d872d8c	0.06600484
1	0xbdf97774	-0.12180987
2	0x3dc36254	0.09540239
3	0x3dadb5e2	0.08481957
4	0xbc96ce70	-0.018408984
5	0x3cff0878	0.031131968
6	0x3c1a8020	0.009429961
7	0xbdacf9e4	-0.084461
8	0xbdbb7eca	-0.091550425
9	0xbdf56246	-0.11981635
10	0x3d810d5c	0.06301376
11	0xbdf4c9aa	-0.11952527
12	0x3d8f6754	0.0700213
13	0x3d091118	0.033463567
14	0xbdbf08ea	-0.09327872
15	0xbc32fda0	-0.010924727
16	0xbd6370e0	-0.055527568
17	0xba3b3c00	-0.00071424246
18	0x3b3fd5c0	0.0029271692
19	0x3ca2c208	0.019867912
20	0x3a6bd100	0.0008995682
21	0x3d2695e4	0.04067029
22	0xbdfe2d2c	-0.124109596
23	0x3dca5790	0.098799825
24	0xbc956428	-0.018236235
25	0xbd971888	-0.07377726
26	0x3d54c9f0	0.051950395
27	0xbccecb40	-0.025243402
28	0xbdf38e84	-0.11892417
29	0xbd95d02e	-0.07315098
30	0x3d5868b0	0.052834213
31	0xbc0bc0d0	-0.008529857
32	0xbda4fadc	-0.0805566
33	0x3d1d4264	0.038393393
34	0x3bd273e0	0.006422505
35	0xbd203154	-0.039109543
36	0x3d9f2bd2	0.0777203
37	0x3cf628a8	0.030048683
38	0x3d8096d0	0.06278765
39	0x3c89f038	0.016838178
40	0xbdfabb1c	-0.122427195
41	0xbca992f8	-0.020699963
42	0x3cebb5f0	0.028773278
43	0xbdf56894	-0.11982837
44	0x3ca7c378	0.020478949
45	0x3d690200	0.056886673
46	0xbccb6138	-0.024826631
47	0xbd07ad38	-0.03312418
48	0x3d2afffc	0.041748032
49	0xbda6986a	-0.081345394
50	0x3dfda5c8	0.12385136
51	0xbcfe1d20	-0.031019747
52	0x3d9c254c	0.07624301
53	0x3d2380fc	0.03991793
54	0xbdd15ce6	-0.10222797
55	0xbdf6cb42	-0.12050487
56	0xbdc71202	-0.097202316
57	0xbd0cee0c	-0.034406707
58	0xbd9be0ce	-0.076112375
59	0xbd3d0bd0	-0.046153843
60	0x3d6bf028	0.057602078
61	0x3afb9900	0.0019195378
62	0xb9f7d000	-0.00047266483
63	0xbd842b58	-0.0645358
64	0x3cae0d60	0.021246612
65	0x3d231718	0.039816946
66	0x3b8fdc00	0.0043902397
67	0x3da603cc	0.08106193
68	0xbca32a50	-0.019917637
69	0xbdccadce	-0.09994088
70	0x3dcee9ee	0.10103212
71	0xbcf1a3c0	-0.029497027
72	0xbd7dd0d4	-0.061966732
73	0xbd2d2258	-0.04226908
74	0xbd42f840	-0.04760003
75	0x3d39e2a0	0.045382142
76	0x3dd2a6ea	0.102857426
77	0x3da85b8a	0.08220585
78	0xbd885522	-0.06656863
79	0xbd9e3b92	-0.07726206
80	0xbc50dd60	-0.012748092
81	0x3d0b16e0	0.033957362
82	0x3df16e02	0.117885605
83	0xbd520c10	-0.051281035
84	0xbdf25bbe	-0.11833905
85	0xbd37df64	-0.044890776
86	0x3dc41594	0.09574428
87	0x3dc8c502	0.09803201
88	0x3d1ed744	0.038779512
89	0xbd770d60	-0.06031549
90	0x3d36610c	0.044526145
91	0x3dc0b2de	0.09409116
92	0x3a896900	0.0010483563
93	0xbcecfab8	-0.028928146
94	0xbcfc7170	-0.03081581
95	0x3d33b7b4	0.043876365
96	0xbdae2de2	-0.08504845
97	0x3db34bd6	0.08754699
98	0xbdf67700	-0.12034416
99	0xbd35af88	-0.044356853
100	0xbd5a7ba4	-0.05334057
101	0xbdce30ce	-0.100679025
102	0x3dbd0d42	0.09231044
103	0xbdef3914	-0.11680809
104	0x3da5ecb0	0.08101785
105	0xbd2171e0	-0.03941524
106	0xbc84d3c0	-0.016214252
107	0x3d509f54	0.050933197
108	0xbdf19b1e	-0.117971644
109	0x3a72c500	0.00092609227
110	0xbcc4e4d8	-0.024034902
111	0x3da25f42	0.07928325
112	0xbcd13bf8	-0.02554129
113	0xbde95862	-0.11393811
114	0xbda6a328	-0.08136588
115	0xbdb6d184	-0.08926681
116	0xbd8cf518	-0.068826854
117	0x3d0b8104	0.034058586
118	0x3d8fe5bc	0.0702624
119	0x3d60fc80	0.054928303
120	0x3d3e0b14	0.046397284
121	0x3d7ce83c	0.061744913
122	0x3d5cb3a8	0.05388227
123	0x3de3a2a4	0.111150056
124	0x3dc88d84	0.09792617
125	0x3d66a228	0.056306988
126	0xbcaeac70	-0.021322459
127	0xbde7b5e8	-0.11313993
128	0x3dade924	0.08491734
129	0x3dfeab98	0.12435073
130	0xbd44e5e8	-0.04807082
131	0xbddab2dc	-0.10678646
132	0x3ce2f868	0.02770634
133	0xbbca5480	-0.006174624
134	0xbda63474	-0.081154734
135	0xbc29f450	-0.01037319
136	0xbc6fb050	-0.0146294385
137	0xbda58ec0	-0.08083868
138	0x3d6bd660	0.05757749
139	0xbda6f9cc	-0.08153114
140	0xbc809108	-0.015694156
141	0xbd91f38e	-0.071265325
142	0x3d7ee804	0.062232986
143	0xbdc36c7a	-0.09542175
144	0x3d312270	0.043245733
145	0xbd73b948	-0.05950287
146	0xbd5fbea8	-0.054625183
147	0x3daf4c4c	0.08559474
148	0xbba3f1e0	-0.005003199
149	0xbd5ce41c	-0.05392848
150	0xbd5e7e94	-0.054319933
151	0xbdd78cc4	-0.10524896
152	0x3de7b45c	0.11313698
153	0xbc08f000	-0.008358002
154	0x3d529a7c	0.05141686
155	0xbaf6cb00	-0.0018828809
156	0x3d7ed79c	0.06221734
157	0x3ddf325e	0.10898279
158	0x3dc81b62	0.09770848
159	0xbde111b6	-0.10989706
160	0x3dcc136a	0.099646404
161	0x3dd6235a	0.104559615
162	0xbdc95fa8	-0.09832698
163	0xbd870d2c	-0.06594309
164	0xbded0368	-0.11572915
165	0x3db1c312	0.08679785
166	0x3c72bfd0	0.0148162395
167	0x3b6f7740	0.0036539584
168	0xbda28dd2	-0.07937206
169	0x3d17a698	0.03702411
170	0x3c84f870	0.016231745
171	0xbc263520	-0.010144502
172	0x3cbd5cb0	0.023115486
173	0xbd46b774	-0.0485148
174	0x3d5891f0	0.05287355
175	0xbda5665c	-0.08076164
176	0x3d7e1148	0.0620282
177	0x3daf2f68	0.08553964
178	0xbd9e2ce4	-0.07723406
179	0xbd103714	-0.035208777
180	0x3d854958	0.0650813
181	0xbdbe924e	-0.09305249
182	0xbda6c41c	-0.08142874
183	0x3dfed83a	0.12443586
184	0x3db13500	0.08652687
185	0xbd8bca0a	-0.06825645
186	0xbd9ea980	-0.07747173
187	0xbd8a132e	-0.067419395
188	0x3dd21922	0.102587
189	0xbd86befc	-0.06579396
190	0xbdd3bd34	-0.10338822
191	0xbde65eaa	-0.112485245
192	0xbd632fc8	-0.05546549
193	0xbd7b4e7c	-0.061354145
194	0x3da2c254	0.079472214
195	0xbd755f50	-0.05990535
196	0x3d14e9b4	0.03635569
197	0x3dc6ead8	0.09712762
198	0xbdc88d86	-0.097926185
199	0xbdd0f1a8	-0.10202342
200	0x3d868144	0.06567624
201	0xbdb6bd24	-0.089227945
202	0xbcec2e50	-0.028830677
203	0x3bedce20	0.007257238
204	0xbd4d0800	-0.050056458
205	0x3d93964a	0.072064
206	0xbd25918c	-0.040422007
207	0xbddaedf2	-0.10689916
208	0x3d6994ec	0.05702679
209	0x3cf5a2b8	0.029984817
210	0x3dc066fa	0.09394641
211	0xbac67880	-0.0015142113
212	0xbc36a110	-0.011146799
213	0x3dcf74e2	0.101297155
214	0x3d43bc00	0.047786713
215	0x3dbd5ef2	0.09246625
216	0x3d1d6aa8	0.038431793
217	0x3cd8c480	0.026460886
218	0xbd68e6d4	-0.05686076
219	0xbc9cba48	-0.019131795
220	0x3cb720f8	0.022354588
221	0xbcf611b8	-0.030037746
222	0xbd4f680c	-0.050636336
223	0xbdf7ec66	-0.12105636
224	0xbce58850	-0.0280191
225	0xb9d13c00	-0.0003990829
226	0x3da2c582	0.07947828
227	0xbdb891b0	-0.09012163
228	0x3de06fa8	0.10958797
229	0x3debdcdc	0.11516735
230	0xbdc6f1b2	-0.097140685
231	0x3ddc3f98	0.10754317
232	0x3d1c5f88	0.038177043
233	0x3ca2cbc0	0.019872546
234	0x3d5aa90c	0.053383872
235	0xbdd35896	-0.10319631
236	0xbc425aa0	-0.011862427
237	0xbc19c8c0	-0.009386241
238	0x3ca595d0	0.020213038
239	0xbd849fa0	-0.064757586
240	0xbd9028d2	-0.07039036
241	0xbc02f8f0	-0.007993922
242	0x3d90e02a	0.07074006
243	0xbd3612e0	-0.044451594
244	0xbd7be640	-0.06149888
245	0xbd0321e0	-0.032014728
246	0xbd8d6ba8	-0.069052994
247	0x3de19fc6	0.110168025
248	0xbd1de390	-0.0385471
249	0xbd88ac6e	-0.06673513
250	0xbd47385c	-0.048637733
251	0xbdad4b68	-0.08461648
252	0xbc656b20	-0.014002591
253	0x3c1c06e0	0.0095231235
254	0x3dff4038	0.12463421
255	0xbdb86546	-0.090036914

onnx::GRU_185 f4 [1, 384]
0	0xba38ac00	-0.0007044673
1	0xbd110834	-0.035408214
2	0x3dc4f056	0.09616153
3	0x3c7bca20	0.015368015
4	0xbd0453e8	-0.03230658
5	0x3cc1f1c8	0.02367486
6	0xbdaff688	-0.08591944
7	0x3ded7e48	0.11596352
8	0x3d8900e6	0.066896245
9	0x3db2e5ea	0.08735259
10	0x3ca653c0	0.020303607
11	0xbcc9c260	-0.024628818
12	0xbdaf09b6	-0.08546774
13	0xbcc962c8	-0.024583235
14	0x3d0cfa44	0.03441836
15	0xbddd0a7a	-0.10793014
16	0x3d57ab04	0.052653328
17	0xbcc60268	-0.02417107
18	0x3ba89be0	0.005145535
19	0xbdeb741e	-0.11496757
20	0xbc9ec880	-0.019382715
21	0x3de1c990	0.11024773
22	0xbd71ab94	-0.05900152
23	0x3cdb7148	0.026787415
24	0xbccbdb58	-0.024884865
25	0x3de893c0	0.11356306
26	0x3d309f3c	0.043120608
27	0xbdab4b30	-0.0836395
28	0x3d75bcc4	0.059994474
29	0xbdc47c80	-0.09594059
30	0xbd19cb20	-0.03754723
31	0xbb48bd40	-0.003063038
32	0xbd90624a	-0.07049997
33	0x3de624ce	0.11237489
34	0x3dc9ada6	0.09847574
35	0xbbc09180	-0.00587672
36	0xbd628afc	-0.055308327
37	0x3dc9283a	0.09822126
38	0xbc263120	-0.010143548
39	0x3d2f63b0	0.04281968
40	0xbdb8ca10	-0.09022915
41	0x3dae91ca	0.08523901
42	0x3a35cb00	0.00069348514
43	0xbde71ca2	-0.11284758
44	0xbdfa029a	-0.122075275
45	0xbddfeb1e	-0.10933517
46	0xbd6fb5e8	-0.05852309
47	0x3da5b1d6	0.0809056
48	0x3dea846a	0.11451037
49	0xbdd21e56	-0.10259692
50	0x3db6854e	0.089121446
51	0x3dd8976c	0.105757564
52	0x3c44cc50	0.0120116025
53	0x3d970c20	0.073753595
54	0x3b92c080	0.004478514
55	0x3cbdddd8	0.023177072
56	0xbdd3798a	-0.10325916
57	0xbdbb56b4	-0.09147397
58	0x3d6d2598	0.05789718
59	0x3dbac90a	0.091203764
60	0xbddf5eae	-0.109067306
61	0xbdaf3f50	-0.08556998
62	0xbd3c5220	-0.045976758
63	0xbd4c1ae0	-0.049830317
64	0xbdb0e0d4	-0.086366326
65	0x3dcca0cc	0.09991607
66	0xbcad1fd0	-0.021133333
67	0xbc671cd0	-0.0141059905
68	0x3dd2d31c	0.10294172
69	0xbd70899c	-0.058724985
70	0x3dfb4b66	0.122702405
71	0xbdb156c6	-0.08659129
72	0x3c6a01e0	0.014282674
73	0x3d6dd320	0.058062673
74	0x3d069a24	0.032861844
75	0xbdd2ff26	-0.10302572
76	0xbb6dcc00	-0.0036284924
77	0xbd9cbd5e	-0.076533064
78	0xbdcbaa1a	-0.09944554
79	0xbd7e5b84	-0.062098995
80	0x3cfa1320	0.030526698
81	0xbdb3aa04	-0.08772662
82	0x3ceae770	0.028674811
83	0xbd7f18b8	-0.062279433
84	0xbd39c848	-0.04535702
85	0x3c881aa0	0.016614258
86	0x3defbc76	0.11705868
87	0xbd41f740	-0.047354937
88	0x3dfb5912	0.12272848
89	0x3cde1ca0	0.027113259
90	0xbdf85570	-0.12125671
91	0xbd9d8092	-0.076905385
92	0xbdc02aba	-0.093831494
93	0xbdb7097e	-0.08937357
94	0xbce04e98	-0.027381226
95	0x3dccd9f6	0.1000251
96	0xbb2a9600	-0.0026029348
97	0xbc0b4480	-0.008500218
98	0x3defa186	0.1170073
99	0x3da7e1e2	0.081973806
100	0x3b7634c0	0.0037568063
101	0x3c01d5d0	0.007924512
102	0xbd12a540	-0.035802126
103	0x3d109318	0.03529653
104	0xbd97e99a	-0.07417603
105	0x3d19c1b4	0.037538245
106	0xbdbf77e0	-0.09349036
107	0xbc2133a0	-0.0098389685
108	0xbdc32ab2	-0.09529628
109	0xbde17916	-0.110094234
110	0xbd842fc2	-0.064544216
111	0xbdf35ec0	-0.118833065
112	0x3d0a3d7c	0.033750042
113	0x3d6cb6e0	0.05779159
114	0xbc17e330	-0.009270474
115	0x3df87bc4	0.121329814
116	0xbde4a9d2	-0.11165203
117	0x3dc75252	0.09732498
118	0xbca84478	-0.020540461
119	0x3df7e880	0.12104893
120	0xbd738884	-0.059456363
121	0x3db1c3c6	0.08679919
122	0xbcc3d598	-0.02390556
123	0xbc386740	-0.0112550855
124	0x3bf40620	0.007447019
125	0x3d862ad2	0.06551136
126	0xbd0ac598	-0.033879846
127	0xbc42fef0	-0.011901602
128	0x3db4463a	0.08802457
129	0x3ceca658	0.028887913
130	0x3dd5cfc8	0.10440022
131	0xbc269c70	-0.010169134
132	0xbba770e0	-0.0051098913
133	0xbcfc5568	-0.030802444
134	0x3defaffe	0.1170349
135	0x3ca6ea40	0.020375371
136	0x3d0fbf3c	0.035094485
137	0x3db45d8c	0.08806905
138	0x3db90496	0.09034078
139	0x3df926d6	0.121656105
140	0xbd29b0d0	-0.041428387
141	0xbbd210c0	-0.006410688
142	0x3d2800f0	0.04101652
143	0xbd9f4ed6	-0.07778709
144	0xbc906490	-0.017626077
145	0x3df07458	0.11740941
146	0xbdbb68f8	-0.091508806
147	0xbd8726d6	-0.06599204
148	0xbd556304	-0.05209638
149	0xbd0cfd54	-0.03442128
150	0x3d850b50	0.06496298
151	0xbded7510	-0.115945935
152	0xbd0f45a0	-0.03497851
153	0x3dc50408	0.096199095
154	0xbdf3d7ec	-0.11906418
155	0x3dc4f3f8	0.09616846
156	0x3d9ebb48	0.07750565
157	0x3bb54560	0.005531952
158	0xb9defe00	-0.00042532384
159	0xbaba2a00	-0.0014203191
160	0xbcf920e0	-0.030411184
161	0x3da5e3c8	0.081000865
162	0xbdd56f0a	-0.1042157
163	0xbdff6c46	-0.124718234
164	0x3d995994	0.07487789
165	0xbddbf7ee	-0.10740648
166	0x3ceeaab8	0.02913414
167	0xbd875f0e	-0.06609927
168	0xbdb46ec2	-0.08810188
169	0xbc701b00	-0.014654875
170	0xbcd8c170	-0.026459426
171	0x3c31aeb0	0.010844871
172	0x3d1d3274	0.038378194
173	0x3d3c5ad8	0.045985073
174	0xbcbffe48	-0.02343668
175	0xbc7085b0	-0.014680311
176	0xbd927cb2	-0.0715269
177	0x3dbbf818	0.091781795
178	0x3d86aa8a	0.065754965
179	0x3da4ab08	0.08040434
180	0x3d04a808	0.03238681
181	0xbdcdcba8	-0.1004861
182	0xbd9f45da	-0.07776995
183	0x3dd6b8ca	0.104844645
184	0x3d13e050	0.036102593
185	0xbd90a4fc	-0.07062718
186	0x3dc244b2	0.09485759
187	0x3da08430	0.07837713
188	0x3dbe5570	0.0929364
189	0x3c498dc0	0.012301862
190	0x3d4b33ec	0.049610063
191	0x3d8efe62	0.069821134
192	0xbc24a260	-0.010048479
193	0xbc171f90	-0.009223834
194	0xbbc39a60	-0.0059693307
195	0xbdd892b4	-0.105748564
196	0x3d8c6a70	0.06856239
197	0xbd390cf4	-0.04517837
198	0xbcce6198	-0.02519302
199	0xbdf03d32	-0.11730422
200	0xbcac5a48	-0.021039143
201	0xbdf9c426	-0.121956155
202	0x3dfb5924	0.122728616
203	0xbd2fb278	-0.04289481
204	0xbcbd72a8	-0.023125961
205	0x3dab1efc	0.08355519
206	0x3c900770	0.017581671
207	0x3dc5f72e	0.096662864
208	0x3c92eb30	0.017934412
209	0x3d90dbd6	0.070731804
210	0x3da18d80	0.07888317
211	0x3dde680a	0.108596876
212	0xbd035d20	-0.032071233
213	0xbc692220	-0.014229327
214	0xbd555b58	-0.052089065
215	0xbd404e5c	-0.04694973
216	0xbd8dcfcc	-0.069244
217	0x3d008684	0.031378284
218	0xbc49cdd0	-0.012317136
219	0xbc94bbf0	-0.018156022
220	0xbd9ab714	-0.07554451
221	0xbd7b64a4	-0.061375275
222	0x3cc71628	0.024302557
223	0xbd13b00c	-0.036056563
224	0xbdb13d9e	-0.08654331
225	0x3d92beaa	0.071652725
226	0xbc84d7d0	-0.016216189
227	0xbdc7fda2	-0.097651735
228	0xbbb1e2e0	-0.005428657
229	0x3da6518a	0.08121021
230	0x3b875f40	0.0041312277
231	0xbdcccdfa	-0.100002244
232	0x3d167e9c	0.036741838
233	0xbd08d228	-0.033403546
234	0x3d270488	0.040775806
235	0xbc11e200	-0.00890398
236	0xbdb7ab76	-0.089682505
237	0xbcaaa460	-0.020830333
238	0x3d4bfd54	0.04980214
239	0xbd9509b4	-0.07277241
240	0xbd11fd58	-0.035641998
241	0x3df420d6	0.119203255
242	0xbd3d331c	-0.04619132
243	0x3d9c82fa	0.07642169
244	0xbd8c8802	-0.06861879
245	0x3daa9c5c	0.083306044
246	0xbdbfe3f2	-0.09369649
247	0x3d8b85e0	0.06812644
248	0x3d85ce9e	0.0653355
249	0x3cee6888	0.029102579
250	0xbdac4b26	-0.08412771
251	0xbd13f2bc	-0.03612016
252	0x3dbc4178	0.09192175
253	0x3de7ca2c	0.11317858
254	0xbd133604	-0.035940185
255	0x3da92f06	0.08260922

onnx::GRU_203 f4 [1, 192, 64]
0	0xbd5ac6f2	-0.053412385
1	0xbda48792	-0.080336705
2	0xbd9e8d76	-0.07741825
3	0xbe21e583	-0.15810208
4	0xbe05c4f0	-0.13063407
5	0xbd1af218	-0.037828535
6	0x3c819a6e	0.015820708
7	0x3de540c6	0.11193995
8	0x3d5eb97a	0.054376103
9	0xbd9142ca	-0.07092817
10	0xbd8010e7	-0.06253224
11	0xbde6137e	-0.112341866
12	0xbd89080a	-0.066909865
13	0xbd4f1ea4	-0.05056633
14	0xbd805156	-0.062655136
15	0x3d87e6d0	0.06635821
16	0xbb37b18c	-0.002802941
17	0x3d7700c4	0.060303465
18	0xbdbc3c54	-0.09191194
19	0xbdb308de	-0.08741926
20	0xbd28776e	-0.041129522
21	0xbddf8328	-0.10913688
22	0x3db47fda	0.08813448
23	0x3d0966aa	0.033545174
24	0xbd92c422	-0.071663156
25	0xbd951388	-0.07279116
26	0x3d0a4f42	0.033766992
27	0x3d80a522	0.062814966
28	0x3d20b3db	0.039234024
29	0xbd690b88	-0.056895763
30	0xbdeef56a	-0.11667903
31	0xbd9f3132	-0.07773055
32	0x3db0543e	0.08609818
33	0xbda85ed0	-0.08221209
34	0x3d260e44	0.04054095
35	0xbdbf2860	-0.09333873
36	0xbd48a006	-0.048980735
37	0x3d1cf4bd	0.038319338
38	0x3d9b8e7c	0.07595536
39	0x3c4bc760	0.012437671
40	0xbd888d7a	-0.066676095
41	0x3def27fe	0.1167755
42	0x3c9b9bb2	0.01899514
43	0x3d9c08a7	0.07618838
44	0x3d9470f6	0.07248108
45	0x3d394ef2	0.045241304
46	0xbe0f752a	-0.14009538
47	0x3db7de44	0.08977941
48	0xbdd9e5fa	-0.10639568
49	0x3d8d3f70	0.06896865
50	0xbdab2196	-0.083560154
51	0x3dd69558	0.10477704
52	0xbda387c0	-0.07984877
53	0xbe171d5d	-0.14757295
54	0xbcba0092	-0.02270535
55	0x3d960434	0.073250204
56	0x3d60269e	0.05472433
57	0xbb53ad10	-0.0032299198
58	0x3dcd385a	0.10020514
59	0x3c92073c	0.017825715
60	0x3d78320d	0.060594607
61	0x3dd5abba	0.10433145
62	0x3ce856ea	0.028361756
63	0x3cc48ef5	0.023993948
64	0x3de42962	0.11140706
65	0xbd72126a	-0.059099592
66	0x3c82d035	0.015968421
67	0x3c20c691	0.009812967
68	0xbd94660e	-0.07246028
69	0xbd8c78d8	-0.068589866
70	0x3c9f1a81	0.019421818
71	0x3d61e7cc	0.0551527
72	0x3dd63586	0.104594275
73	0xbddb7b3e	-0.10716866
74	0xbd5c739a	-0.053821184
75	0xbdf09ba6	-0.117484376
76	0x3d3962f9	0.045260403
77	0x3ce8362a	0.02834614
78	0x3d8c6216	0.06854646
79	0xbdeb81ae	-0.11499344
80	0x3cf10439	0.029420959
81	0x3c861965	0.01636953
82	0x3d3aed1c	0.04563628
83	0x3d86c94c	0.06581363
84	0xbdd018f2	-0.10161008
85	0x3cb1f5d0	0.021723658
86	0xbd881480	-0.06644535
87	0xbd78623d	-0.060640562
88	0x3dca700e	0.09884654
89	0xbde083e2	-0.10962655
90	0xbd834a03	-0.06410601
91	0xbabb96a5	-0.0014311863
92	0x3d34051c	0.043950185
93	0x3dfac4ba	0.12244554
94	0xbdd09cdc	-0.101861686
95	0xbcf81633	-0.030284023
96	0x3d333215	0.043748934
97	0x3d274936	0.040841304
98	0xbdce4bf4	-0.10073081
99	0xbe057ed5	-0.13036664
100	0xbc2c4828	-0.01051525
101	0x3c0c927c	0.0085798465
102	0x3c5bf1e4	0.01342437
103	0x3e1421ba	0.1446599
104	0x3dc63bda	0.096793845
105	0xbce88859	-0.028385328
106	0xbdc816f2	-0.097700015
107	0xbe01165b	-0.12606184
108	0xbdba7438	-0.09104198
109	0x3cb1c7df	0.021701751
110	0x3cd9c63f	0.026583789
111	0xbd970832	-0.0737461
112	0x3d69d06c	0.057083532
113	0xbdbc5a58	-0.09196919
114	0x3d83e0c6	0.064393565
115	0x3d88e0b6	0.06683485
116	0x3e0923b3	0.13392524
117	0xbd2ff618	-0.042959303
118	0x3d5a4125	0.053284783
119	0x3dfaa0ca	0.12237699
120	0xbd88bf68	-0.06677133
121	0x3c9bc56a	0.019015033
122	0xbd8ca3f7	-0.06867211
123	0xbdd3728c	-0.103245825
124	0xbc2097b3	-0.009801793
125	0x3d995894	0.07487598
126	0xbd28daae	-0.041224174
127	0xbd424f11	-0.047438685
128	0xbda043ff	-0.07825469
129	0x3cb49eb8	0.02204834
130	0x3d51f501	0.051259045
131	0x3d8f8b33	0.07008972
132	0xbdc33a5a	-0.09532614
133	0x3c168ab6	0.009188345
134	0xbdd60eab	-0.104520164
135	0xbd90e364	-0.07074621
136	0x3d07db68	0.033168226
137	0xbd29bf9c	-0.0414425
138	0x3da2223a	0.079166844
139	0x3ce7ac68	0.028280452
140	0x3d8901e7	0.06689816
141	0x3da7139d	0.08158038
142	0xbd33bfe0	-0.043884158
143	0x3debb69e	0.11509441
144	0xbd2b0ebf	-0.04176211
145	0xbdcc23e3	-0.09967782
146	0xbd842dda	-0.06454058
147	0x3def50ae	0.1168531
148	0x3dba5bbd	0.09099529
149	0x3d4c9857	0.04994997
150	0xbcb05800	-0.021526337
151	0xbdc2c3cc	-0.095100015
152	0xbdc9b44a	-0.098488405
153	0xbdf6b756	-0.12046687
154	0x3dd5c360	0.104376554
155	0x3e09219c	0.13391727
156	0xbce9f77f	-0.028560398
157	0x3dfe65ec	0.12421784
158	0x3d7458e7	0.059655096
159	0x3c4129f4	0.011789788
160	0x3d8b943f	0.06815385
161	0x3d53c201	0.05169869
162	0xbd8c5036	-0.068512365
163	0x3af85a52	0.0018947816
164	0x3d49aecc	0.049238965
165	0x3ce77a97	0.028256698
166	0xbb45b2a9	-0.0030166304
167	0x3cc5509f	0.024086295
168	0x3a160900	0.0005723387
169	0xbc0309fc	-0.007997986
170	0x3c01d985	0.007925396
171	0xbd293a84	-0.04131557
172	0xbd01bba0	-0.031673074
173	0xbd864743	-0.06556561
174	0xbcccdc0e	-0.025007274
175	0x3dbe69c7	0.09297519
176	0xbc987900	-0.018612385
177	0x3d051e47	0.032499578
178	0xbdfd3fc9	-0.12365682
179	0x3da1855e	0.07886766
180	0xbba597f1	-0.005053513
181	0xbdc94271	-0.09827126
182	0x3da07018	0.0783388
183	0x3cae95e1	0.021311702
184	0x3d8cb735	0.068708815
185	0x3d33006c	0.043701574
186	0x3d53eba5	0.0517384
187	0x3da82fc5	0.08212236
188	0x3d339da7	0.04385152
189	0x3dec5e89	0.11541469
190	0x3d1680d8	0.03674397
191	0x3d77ae24	0.060468808
192	0xbd5cd590	-0.053914607
193	0xbd18f012	-0.037338324
194	0x3db843ea	0.089973286
195	0x3d847a80	0.064686775
196	0xbe06ff2c	-0.13183278
197	0x3d6367f7	0.05551907
198	0x3d1fdb9e	0.039027803
199	0x3dcfb5de	0.1014211
200	0xbc90c539	-0.017672168
201	0xbde66430	-0.11249578
202	0xbdded1de	-0.10879873
203	0x3d5166f8	0.05112359
204	0xbceb9ffd	-0.028762812
205	0x3d809ab8	0.0627951
206	0xbd5e1424	-0.054218426
207	0x3ceb437a	0.028718699
208	0xbdd39d68	-0.10332757
209	0x3d5c3e52	0.05377037
210	0x3ca1ea4a	0.019765038
211	0xbd4444ff	-0.047917362
212	0x3e07770b	0.13229005
213	0x3db849ac	0.08998427
214	0x3da96201	0.08270646
215	0x3d22edba	0.039777495
216	0xbcd237ea	-0.025661428
217	0xbca51458	-0.020151302
218	0xbd6ea2e7	-0.058260825
219	0x3c33b9cf	0.010969593
220	0x3c449cb0	0.012000248
221	0xbdfb00cc	-0.12256011
222	0x3dbf3269	0.09335787
223	0xbdead3c0	-0.11466169
224	0x3d968750	0.073500276
225	0x3cb69b10	0.022290736
226	0xbdbaa9ca	-0.09114416
227	0x3c9e810a	0.01934864
228	0x3d4ec071	0.050476495
229	0x3d4e4414	0.050357893
230	0x3cb5e1b0	0.022202343
231	0x3d9d1f77	0.07672017
232	0x3d8c81ea	0.06860717
233	0xbb74a4d1	-0.0037329684
234	0x3c4d6380	0.01253593
235	0x3d7f7976	0.062371694
236	0xbd57d989	-0.052697692
237	0x3dce3f09	0.10070617
238	0xbc752780	-0.014963031
239	0xbd50c592	-0.050969668
240	0xbb456e00	-0.003012538
241	0x3b772750	0.003771264
242	0xbcbcc7c7	-0.02304448
243	0xbcc4a998	-0.02400665
244	0x3d03cc5a	0.032177307
245	0x3dabfd56	0.08397929
246	0xbde89088	-0.11355692
247	0x3c6f17fd	0.014593122
248	0x3d9a63ef	0.07538592
249	0xbdde0d77	-0.10842412
250	0xbd427c9c	-0.047482118
251	0xbd503866	-0.050835036
252	0x3deec028	0.11657745
253	0x3d9d319b	0.07675477
254	0xbd383fa6	-0.044982575
255	0x3b0fb648	0.0021928716

onnx::GRU_204 f4 [1, 192, 64]
0	0xbd80f5f3	-0.06296911
1	0xbdab99fe	-0.08378981
2	0xbd703b39	-0.05865023
3	0xbca4bf73	-0.020110821
4	0xbdfbd4bd	-0.12296436
5	0xbd1483a7	-0.036258366
6	0x3b061a2a	0.0020462372
7	0xbbc04fe8	-0.0058689006
8	0xbccd9e44	-0.025099881
9	0xbc7a1536	-0.015263846
10	0xbd061b49	-0.032740865
11	0x3d87aeb2	0.06625117
12	0x3d8ef563	0.069803976
13	0xbde70381	-0.11279965
14	0x3d99c1b0	0.07507646
15	0xbce3eb81	-0.027822258
16	0x3d3e7dcf	0.0465067
17	0xbdb41ef8	-0.08794969
18	0xbd48675c	-0.048926696
19	0x3d928596	0.07154386
20	0x3ce86aa9	0.028371172
21	0xbcfdf5ba	-0.03100096
22	0xbdb9c638	-0.0907101
23	0x3db07008	0.08615118
24	0x3e0f4a53	0.13993196
25	0xbdda98ab	-0.1067365
26	0xbd2e72b5	-0.042589862
27	0x3d4afdfa	0.049558617
28	0x3c80fff5	0.01574705
29	0xbdd556fe	-0.10416983
30	0xbd994c7b	-0.074852906
31	0x3cdc7acf	0.026914028
32	0x3d2ef56c	0.04271452
33	0xbd9284a6	-0.07154207
34	0xbce20bbe	-0.02759349
35	0x3ce4c724	0.027926989
36	0xbd5a986e	-0.053368025
37	0xbd38950a	-0.04506401
38	0xbde57912	-0.11204733
39	0xbdc6d348	-0.097082675
40	0xbbc2b715	-0.0059422352
41	0xbaacfa2f	-0.0013197119
42	0xbdb30441	-0.08741046
43	0xbc526f28	-0.0128438845
44	0x3c87a649	0.016558783
45	0x3bb51e6e	0.005527309
46	0xbdc087a0	-0.094008684
47	0x3ddbe766	0.10737495
48	0x3cbcdccf	0.023054508
49	0xbe05a576	-0.130514
50	0x3db8e62d	0.090282775
51	0x3ca2809a	0.019836713
52	0xbdbe0cd7	-0.09279793
53	0x3bae72a2	0.005323724
54	0xbd162f06	-0.03666594
55	0x3ddffd70	0.10937011
56	0x3d03e9e4	0.032205477
57	0x3cefaa50	0.029256016
58	0xbd1cbf77	-0.038268533
59	0xbc0cdb3d	-0.008597192
60	0x3dd03385	0.101660766
61	0x3dd72a3e	0.10506104
62	0x3d55d3e9	0.052204046
63	0xbdc9330a	-0.09824188
64	0x3d198d90	0.03748852
65	0x3dc6714f	0.09689581
66	0xbd51a1fc	-0.05117987
67	0x3dbbf5d7	0.091777496
68	0x3d11a966	0.03556194
69	0xbca84f0f	-0.02054551
70	0xbd0eb0c2	-0.034836538
71	0x3dc20f5b	0.09475585
72	0x3cfd9560	0.030955017
73	0xbdb3154a	-0.08744295
74	0xbde7305e	-0.11288522
75	0xbcd71484	-0.0262549
76	0x3d16f021	0.0368501
77	0xbd2ff1d8	-0.04295525
78	0x3cd6d986	0.02622677
79	0xbdf2b8f3	-0.118516825
80	0xbc8b1113	-0.016975915
81	0xbdab654d	-0.08368931
82	0x3d1a9fec	0.03775017
83	0x3d924fa9	0.071441
84	0xbdc6daa3	-0.097096704
85	0x3dd3b8c5	0.10337976
86	0x3d860ae6	0.065450475
87	0x3d692b46	0.056926034
88	0xbde49ea1	-0.111630686
89	0x3d203826	0.039116047
90	0xbdefc40c	-0.11707315
91	0xbdaa5148	-0.083162844
92	0xbd883d13	-0.06652274
93	0x3d7440f6	0.059632264
94	0xbdb7866a	-0.08961184
95	0x3d8890e4	0.06668261
96	0xbdf67d46	-0.12035613
97	0xbe02ee0b	-0.12786119
98	0xbdfb3359	-0.12265653
99	0x3d904637	0.070446424
100	0x3d8aad6f	0.06771361
101	0xbaaf73b7	-0.0013385926
102	0xbd61e17a	-0.05514667
103	0x3e0fe249	0.14051165
104	0xbda50497	-0.08057516
105	0xbc1bc629	-0.009507694
106	0x3d70ffe6	0.058837794
107	0x3deafc63	0.1147392
108	0x3d7b0e9b	0.061293226
109	0x3d507412	0.050891943
110	0xbdf7ea44	-0.121052295
111	0xbcef4ed4	-0.029212393
112	0xbda93842	-0.082626835
113	0x3d11f4e2	0.03563393
114	0xbdcb3fcf	-0.0992428
115	0x3c9d0bea	0.01917072
116	0xbccec5a3	-0.025240725
117	0xbd09b959	-0.033624027
118	0x3c8f93e0	0.017526567
119	0x3cf3aa37	0.02974425
120	0xbe0fadc3	-0.14031129
121	0xbd5f99d5	-0.054590065
122	0x3d81b41c	0.06333181
123	0x3e0e5ac2	0.13901809
124	0x3a3655ed	0.0006955553
125	0x3cf34fbb	0.029701104
126	0xbd32e113	-0.04367168
127	0x3d58aee4	0.052901164
128	0xbd61ee98	-0.05515918
129	0xbdd29019	-0.10281391
130	0x3da64860	0.08119273
131	0x3e0ebe8f	0.1393988
132	0x3d43ce67	0.047804262
133	0x3d9b202c	0.07574496
134	0xbd65edc6	-0.05613496
135	0x3db3efbb	0.08785959
136	0xbd6627b1	-0.056190196
137	0xbd7dc929	-0.06195942
138	0x3da1b1bb	0.078952275
139	0x3d8bff54	0.06835809
140	0x3c44a824	0.0120029785
141	0x3c4b7f32	0.012420462
142	0xbe0b53ab	-0.13606136
143	0x3dbdfb3b	0.09276434
144	0xbd14254c	-0.03616838
145	0x3dc92017	0.09820574
146	0x3d8509ae	0.06495987
147	0x3d0403bc	0.032230124
148	0xbdca76e4	-0.09885958
149	0xbd49927b	-0.04921196
150	0xbd892830	-0.06697118
151	0x3b1e33d0	0.002413977
152	0x3dacea36	0.0844311
153	0x3d08aa3f	0.033365484
154	0x3d809e8b	0.0628024
155	0x3df24928	0.1183036
156	0x3de1bec4	0.11022714
157	0x3c3db721	0.011579306
158	0xbd8279bb	-0.063708745
159	0x3cd2b84b	0.025722643
160	0xbdd2e90e	-0.10298358
161	0x3dc0af42	0.09408428
162	0x3e03cf83	0.12872128
163	0xbdb048a5	-0.08607606
164	0x3d19cbfe	0.037548058
165	0x3dbcbb97	0.092154674
166	0x3c95499c	0.018223576
167	0xbdbc473f	-0.091932766
168	0x3d5fdf49	0.0546563
169	0x3d5f575a	0.054526664
170	0x3db9869b	0.09058877
171	0x3c302d50	0.010752991
172	0xbd4a0e9c	-0.04933034
173	0xbcf08856	-0.029361885
174	0x3d91b68f	0.071148984
175	0x3dc48383	0.09595396
176	0xbd34bf10	-0.044127524
177	0xbd6de9f9	-0.05808446
178	0xbde48601	-0.11158372
179	0x3d93bd46	0.072138354
180	0x3ca8530a	0.020547409
181	0x3cfd8904	0.030949123
182	0x3cac4a10	0.02103141
183	0xbd19c0c0	-0.037537336
184	0x3d89eeb2	0.06734981
185	0x3d98a149	0.07452638
186	0x3cf30d37	0.029669387
187	0x3c927c4a	0.017881531
188	0xbe0259cc	-0.12729567
189	0xbd4636ff	-0.048392292
190	0x3d5d588f	0.054039534
191	0xbda38082	-0.07983495
192	0xbca08be8	-0.019597962
193	0x3dac00b5	0.08398572
194	0xbc1d3ad5	-0.009596546
195	0x3d2e35d3	0.0425318
196	0x3d5b0962	0.053475745
197	0xbda9290c	-0.08259782
198	0x3a4c8a3a	0.000780258
199	0xbcc7835b	-0.024354627
200	0x3dbd4ba5	0.09242944
201	0xbd973968	-0.07383996
202	0xbc052a91	-0.008127824
203	0xbcd96dba	-0.02654158
204	0xbdf5fbfd	-0.120109536
205	0x3b50e066	0.0031872033
206	0xbb0f7878	-0.0021891873
207	0x3c6eb645	0.014569824
208	0xbd815b2a	-0.06316216
209	0xbda202e6	-0.07910709
210	0xbd8b9e2d	-0.06817279
211	0x3db4a386	0.08820252
212	0xbd867a3f	-0.06566285
213	0x3bd2436c	0.0064167287
214	0x3d371789	0.04470018
215	0xbc8c825a	-0.017152
216	0xbd89ec2c	-0.06734499
217	0xbda294ea	-0.07938559
218	0xbdc63830	-0.09678686
219	0xbd7def58	-0.061995834
220	0xbd83c0f6	-0.06433289
221	0x3dd1fd08	0.1025334
222	0xbd8476f4	-0.06468001
223	0x3e0994b9	0.1343564
224	0xbe01ea9c	-0.12687153
225	0x3d654e9d	0.055983175
226	0x3d9ac40e	0.07556926
227	0xbd7db81d	-0.061943162
228	0x3a592c58	0.0008284501
229	0x3d9d858c	0.07691488
230	0xbe0461e0	-0.12927961
231	0x3d30f37a	0.043200947
232	0xbd846684	-0.06464866
233	0x3d469e1b	0.048490625
234	0xbdeaac98	-0.11458701
235	0x3db37b85	0.08763794
236	0x3d86cbaf	0.06581818
237	0xbcdd3ba1	-0.027005972
238	0x3cc7f19a	0.024407197
239	0xbd93b1a3	-0.07211616
240	0x3d37762a	0.044790424
241	0x3da0a1a8	0.078433335
242	0xbceaf2f0	-0.028680295
243	0xbcc05996	-0.023480218
244	0xbdb6766c	-0.08909306
245	0xbaf0c8fa	-0.0018370443
246	0xbdce48de	-0.10072492
247	0x3c21547a	0.009846801
248	0xbba33a19	-0.004981291
249	0xbc24c0ff	-0.0100557795
250	0x3cc2e394	0.023790158
251	0x3dc823e4	0.097724706
252	0xbd2f8017	-0.042846765
253	0xbda026f6	-0.07819931
254	0x3c3fe25d	0.011711684
255	0xbc81f27b	-0.015862694

onnx::GRU_205 f4 [1, 384]
0	0xbd2f8aa2	-0.04285682
1	0x3da2756f	0.07932555
2	0x3c723f4b	0.014785598
3	0x3c605d1f	0.013694077
4	0xbd5f0cfe	-0.05445575
5	0xbd9da9ea	-0.07698424
6	0xbd7a70e1	-0.061142806
7	0xbbc131d0	-0.0058958307
8	0xbde7e583	-0.11323073
9	0xbdd4e542	-0.1039529
10	0x3d58578b	0.052817862
11	0x3c9c6813	0.019092595
12	0x3d3c9c9b	0.046047788
13	0xbd766713	-0.060156893
14	0x3da98c5d	0.08278725
15	0xbda3537a	-0.07974906
16	0xbc5289dd	-0.012850252
17	0x3dacdea8	0.08440906
18	0xbd5ce592	-0.053929873
19	0x3d645da8	0.05575338
20	0xbddff5ac	-0.1093553
21	0xbd9701ed	-0.07373414
22	0xbc9e1fad	-0.019302214
23	0xbcd8b94c	-0.026455544
24	0x3d4fde15	0.050748903
25	0x3d655547	0.05598953
26	0xbc015071	-0.007892714
27	0x3da84065	0.08215407
28	0xbdc802ee	-0.09766184
29	0xbd886962	-0.06660725
30	0xbd3418a0	-0.043968797
31	0x3dd9450d	0.106088735
32	0x3cf7be28	0.03024204
33	0xbc434ab4	-0.011919666
34	0x3b711d31	0.003679108
35	0x3df12d50	0.11776221
36	0xbd724792	-0.059150286
37	0xbd895166	-0.06704979
38	0x3dad2551	0.08454383
39	0xbdf6a42b	-0.12043031
40	0xbd5a13ed	-0.05324166
41	0xbbf523f7	-0.007481094
42	0xbba61127	-0.0050679627
43	0x3d95a2e4	0.073064595
44	0x3dbff06b	0.09372028
45	0x3da8e134	0.08246079
46	0x3c0f6346	0.008751696
47	0xbce22099	-0.027603434
48	0xbdc8dae2	-0.098073736
49	0x3d3182f0	0.043337762
50	0xbde7d092	-0.113190785
51	0x3de79275	0.11307231
52	0xbd404169	-0.04693738
53	0xbd543a14	-0.0518132
54	0xbdd6408d	-0.10461531
55	0xbc084953	-0.008318263
56	0xbd851534	-0.06498185
57	0x3db46c0b	0.0880967
58	0x3e00e274	0.12586385
59	0xbde6766a	-0.112530544
60	0x3dd52620	0.104076624
61	0xbde895ce	-0.11356698
62	0xbd8211ce	-0.06351052
63	0xbd91fb7f	-0.07128047
64	0x3c2b8b6f	0.010470255
65	0xbc5cb48d	-0.013470781
66	0xbbee7447	-0.007277045
67	0x3d42a61f	0.047521707
68	0xbd03d3ad	-0.03218429
69	0xbb5bfa71	-0.0033566023
70	0x3dc93361	0.09824253
71	0x3d0ac263	0.033876788
72	0x3dc88bbb	0.097922765
73	0x3d8c66da	0.06855555
74	0x3d4ad6f7	0.049521413
75	0x3d042d58	0.032269806
76	0xbd9b6a28	-0.07588607
77	0x3d8934e3	0.066995405
78	0xbd86f513	-0.06589713
79	0xbd3217ea	-0.043479837
80	0x3c2dbb84	0.010603789
81	0x3df5a640	0.119946
82	0x3d0e16ef	0.03468984
83	0x3e0952e9	0.13410534
84	0x3d943886	0.072373435
85	0xbd8df199	-0.06930847
86	0x3e06ad07	0.13151942
87	0x3d8657f8	0.065597475
88	0xbd9ee7fc	-0.07759091
89	0x3e014bfd	0.12626643
90	0xbcb7c246	-0.022431504
91	0x3dd269c9	0.10274083
92	0x3d875263	0.06607511
93	0xbcb4abfd	-0.022054667
94	0x3c8b8c67	0.017034722
95	0xbb296a8b	-0.0025850858
96	0x3d7a2607	0.061071422
97	0x3e0071a3	0.12543349
98	0xbd0f32c2	-0.034960516
99	0x3e2e6b05	0.17033012
100	0xbd2e494f	-0.04255038
101	0x3e03e39e	0.12879798
102	0x3c9b825a	0.018983055
103	0xbca3bdd0	-0.01998797
104	0x3daaba75	0.08336345
105	0x3d9b1a95	0.075734295
106	0xbdccb95c	-0.09996292
107	0xbd95d635	-0.073162474
108	0x3d365765	0.04451694
109	0x3be5e9c7	0.007016394
110	0x3d62c046	0.055359147
111	0xbd98c549	-0.07459504
112	0xbdb2ca72	-0.0873002
113	0x3df77257	0.120823555
114	0x3c8e9c5e	0.017408546
115	0x3ce91800	0.028453827
116	0xbd1bb8d8	-0.038018078
117	0x3dc8db69	0.09807474
118	0x3df55993	0.119799756
119	0xbd21c5d2	-0.039495297
120	0xbbe83edc	-0.0070875715
121	0xbd1bd2e1	-0.038042907
122	0x3d25beae	0.04046505
123	0x3deb6cc1	0.114953525
124	0x3ca34e9f	0.01993495
125	0xbda1821e	-0.07886146
126	0x3dd8793d	0.10569999
127	0xbd044390	-0.032290995
128	0xbe0d2991	-0.13785388
129	0x3e1b0a94	0.15140754
130	0xbd259750	-0.040427506
131	0xbc4eca7a	-0.012621516
132	0xbd0fddca	-0.035123624
133	0xbd1afe8e	-0.03784042
134	0xbd05ef23	-0.03269876
135	0xbce446f0	-0.027865857
136	0xbd55bee9	-0.05218402
137	0x3ae48299	0.0017433941
138	0x3d0fd6c8	0.03511694
139	0x3c8925cd	0.016741658
140	0x3cf0ed69	0.029410081
141	0x3cf203b9	0.02954279
142	0xbd25159c	-0.04030381
143	0xbd9ad1d2	-0.07559551
144	0x3dbdde2f	0.09270894
145	0xbde6c32c	-0.11267695
146	0xbdee237d	-0.116278626
147	0x3d447a40	0.04796815
148	0x3c79aee7	0.015239454
149	0x3d1b1514	0.0378619
150	0x3cc4aec7	0.024009122
151	0x3d98f076	0.07467739
152	0xbc8b0fa7	-0.016975237
153	0x3e17f6d3	0.1484025
154	0x3dc2b545	0.09507231
155	0x3c10fd11	0.008849398
156	0x3e1908c8	0.14944756
157	0x3d5c6e35	0.05381604
158	0xbdc740f7	-0.09729188
159	0xbd3348f4	-0.043770745
160	0xbcafe63a	-0.021472085
161	0x3c27a960	0.010233253
162	0xbd56bdff	-0.05242729
163	0xbdd58ab1	-0.10426844
164	0x3d95c2f3	0.07312574
165	0xbd5a9414	-0.053363875
166	0xbd6b6c2d	-0.05747621
167	0xbdc29d64	-0.09502676
168	0xbd4073f7	-0.046985593
169	0xbc302896	-0.010751864
170	0xbda3ef3c	-0.08004615
171	0xbdc6bb0c	-0.09703645
172	0xbdf23e3d	-0.11828277
173	0x3e1afcc4	0.15135485
174	0x3d91c57e	0.07117747
175	0xbd1b241e	-0.03787624
176	0x3e21f76f	0.15817045
177	0xbe1af7c0	-0.15133572
178	0xbc9bb62a	-0.019007761
179	0x3decf0d4	0.11569372
180	0x3d1a61c8	0.037690908
181	0x3c639af7	0.013891927
182	0xbda32e4f	-0.07967817
183	0x3da032ba	0.07822175
184	0xbcb628e8	-0.022236302
185	0xbd681812	-0.05666358
186	0x3dee94ce	0.11649476
187	0xbe138159	-0.14404811
188	0x3cec21bc	0.02882468
189	0x3e208c48	0.15678513
190	0x3dd2daa4	0.10295609
191	0xbc88df16	-0.016707938
192	0xbb551071	-0.003251102
193	0x3d84a5ea	0.06476958
194	0x3cf3da94	0.029767312
195	0xbc95758f	-0.018244533
196	0xbdc1db34	-0.09465638
197	0xbd688163	-0.056764018
198	0xbd887c54	-0.06664339
199	0xbd7146e1	-0.058905486
200	0x3d82c743	0.063856624
201	0x3dd132b2	0.102147475
202	0x3d4ad747	0.04952171
203	0x3dabf60d	0.0839654
204	0x3cda2430	0.026628584
205	0x3c3d0a1d	0.011538056
206	0x3cd3a356	0.02583472
207	0xbbc7a6b9	-0.006092873
208	0xbdc2d8b7	-0.09513991
209	0x3dbf71ff	0.09347915
210	0x3cf867f3	0.030323004
211	0xbde5ecde	-0.112268195
212	0xbd8ffb4e	-0.070303544
213	0xbdf47be3	-0.11937692
214	0xbce95d3c	-0.02848684
215	0x3ca45845	0.020061621
216	0xbdf288c1	-0.1184249
217	0xbb920d80	-0.0044571757
218	0xbd55363d	-0.05205368
219	0xbcb3b522	-0.021936957
220	0x3d0d21bd	0.034456003
221	0x3db5502c	0.08853182
222	0x3ce4ee56	0.027945679
223	0xbdc56bcb	-0.096397005
224	0x3b36b415	0.0027878333
225	0xbde87472	-0.11350335
226	0xbdbb3b51	-0.09142173
227	0x3da6524a	0.08121164
228	0xbd5bd1ea	-0.053666987
229	0xbde3c874	-0.11122218
230	0x3ddc8f91	0.107695706
231	0x3d133b7a	0.035945393
232	0x3de4f536	0.11179583
233	0x3dbb0932	0.09132613
234	0x3db0491b	0.08607694
235	0xbdcb9056	-0.09939639
236	0x3d8a9d15	0.06768242
237	0xbdee3fe0	-0.11633277
238	0x3d8f344d	0.069923975
239	0x3dbd88a3	0.09254577
240	0x3cc02be0	0.023458421
241	0x3dd9b2bc	0.10629794
242	0x3dfcea99	0.123494335
243	0xbde8159f	-0.11332249
244	0x3b581718	0.003297275
245	0x3d8fd177	0.07022374
246	0xbde1920f	-0.110141866
247	0x3d49ab31	0.049235526
248	0x3dd5dab4	0.10442105
249	0xbce772f5	-0.028253058
250	0xbdc4ed5e	-0.09615587
251	0x3dc8a83e	0.09797715
252	0x3d936b5e	0.07198213
253	0x3d52d93c	0.051476702
254	0x3d060944	0.03272368
255	0xbde535eb	-0.11191925
