project/models/GRU/Apple.pth (torch, 158053 bytes, 9 tensors)

gru.weight_ih_l0 f4 [192, 5]
0	0xbdd1f258	-0.102513015
1	0xbd8fa0e6	-0.07013111
2	0x3c202830	0.009775206
3	0x3c10bc60	0.008833975
4	0xbd5bb408	-0.053638488
5	0x3d50f5a8	0.051015526
6	0x3db359b4	0.08757344
7	0xbdfe2e6e	-0.124111995
8	0x3d9d7c14	0.07689682
9	0xbd91a966	-0.07112388
10	0xbdcda258	-0.1004073
11	0x3b324d80	0.0027206838
12	0xbdbe89d6	-0.09303634
13	0x3de17330	0.110082984
14	0xbcf64650	-0.030062824
15	0xbdbca906	-0.09211926
16	0x3dadd5ae	0.08488022
17	0xbdc961a4	-0.098330766
18	0xbd8275c0	-0.06370115
19	0x3bdd7060	0.006757781
20	0x3c4bfd50	0.012450531
21	0x3d396478	0.04526183
22	0xbda60d32	-0.081079856
23	0x3d26fe90	0.040770113
24	0x3cdf1430	0.027231306
25	0xbce849a0	-0.02835542
26	0x3dddd086	0.10830788
27	0xbbe02aa0	-0.006841019
28	0xbde32950	-0.11091864
29	0x3d44ff00	0.04809475
30	0x3c63f790	0.013914004
31	0xbc985c28	-0.018598631
32	0x3c0e3910	0.008680597
33	0xbdcd3742	-0.10020305
34	0xbd067670	-0.032827795
35	0xbc209710	-0.009801641
36	0xbd19d0cc	-0.03755264
37	0xbc88d8c0	-0.016704917
38	0x3de649da	0.11244555
39	0x3d11b718	0.035575002
40	0xbd0902f4	-0.033450082
41	0xbde8b7c8	-0.113631785
42	0xbdd5fc24	-0.10448483
43	0x3dcc704c	0.099823564
44	0x3df284f2	0.118417636
45	0xbdb7d03e	-0.08975266
46	0x3d4fd21c	0.050737485
47	0x391ab400	0.0001475364
48	0x3d44379c	0.047904596
49	0x3d006420	0.031345487
50	0xbdb0cae8	-0.08632451
51	0x3dae291e	0.08503936
52	0x3da3a0bc	0.07989642
53	0x3df1abfe	0.11800383
54	0x3dc70c6a	0.09719165
55	0xbdc452ee	-0.0958613
56	0xbd8dc9e2	-0.06923272
57	0x3df3f328	0.11911613
58	0x3b92c720	0.004479304
59	0x3d222ccc	0.039593503
60	0xbd8cf2fe	-0.068822846
61	0x3d2848c0	0.041085005
62	0xbd9948dc	-0.074846
63	0xbdf5d1b8	-0.12002891
64	0x3cd69ec8	0.02619876
65	0xbd713860	-0.058891654
66	0xbdc11570	-0.09427917
67	0x3de5249a	0.11188622
68	0x3c024410	0.007950798
69	0xbd0e599c	-0.034753427
70	0x3dc052fa	0.093908265
71	0x3d648b00	0.055796623
72	0xbccddfd8	-0.025131151
73	0xbd74ab80	-0.059733868
74	0x3d785ad0	0.06063348
75	0xbd4e1af4	-0.050318673
76	0xbcb79758	-0.022411034
77	0x3c22e210	0.009941593
78	0xbdb73672	-0.089459315
79	0xbc381720	-0.011235982
80	0x3d3d455c	0.046208724
81	0xbdaf7ed4	-0.085691124
82	0xbd926b5a	-0.07149382
83	0x3c4ce300	0.012505293
84	0xbd36f434	-0.044666484
85	0xbd4e3580	-0.05034399
86	0xbdf21fc6	-0.118224666
87	0x3ded0af4	0.11574355
88	0xbd504668	-0.050848395
89	0x3ddec8c8	0.1087814
90	0x3de71eac	0.11285147
91	0x3debaec2	0.11507942
92	0xbc55eb40	-0.013056576
93	0x3d04aec8	0.032393247
94	0x3de81702	0.113325134
95	0x3df9771c	0.121809214
96	0x3d98a23e	0.0745282
97	0x3d5fdcd4	0.054653957
98	0x3daa9152	0.08328499
99	0xbd86236c	-0.06549725
100	0x3d5ed234	0.054399684
101	0xbda9aa36	-0.08284418
102	0xbdbdf9f4	-0.092761904
103	0xbc096e30	-0.008388087
104	0x3dbff732	0.09373321
105	0xbd23268c	-0.039831683
106	0xbdd10036	-0.10205118
107	0x3d7097e8	0.05873862
108	0xba663600	-0.00087818503
109	0x3da93268	0.08261567
110	0xbd976cc8	-0.07393795
111	0xbdb391e6	-0.08768062
112	0x3d9edaf2	0.07756604
113	0xbc8b2e78	-0.016989931
114	0xbd264a24	-0.04059805
115	0x3db9cd8c	0.09072408
116	0xbdbc2794	-0.091872364
117	0x3dba4222	0.09094645
118	0xbcc4acf0	-0.024008244
119	0x3cfceac0	0.030873656
120	0x3c404c60	0.011736959
121	0xbc839b80	-0.01606536
122	0x3d694568	0.056950957
123	0xbde6aeb4	-0.11263791
124	0xbd134938	-0.0359585
125	0xbcf1deb0	-0.029525131
126	0x3c62a450	0.01383312
127	0x3dc1e55c	0.09467575
128	0xbdb3e3da	-0.087836936
129	0x3dd38a26	0.10329084
130	0x3dee2d0e	0.11629687
131	0x3dd56042	0.1041875
132	0xbdf55066	-0.119782254
133	0x3da9633c	0.082708806
134	0xbdb4aa64	-0.08821562
135	0x3d9687b2	0.073501006
136	0x3d2cfa20	0.042230725
137	0xbda12800	-0.078689575
138	0x3deb6a92	0.11494936
139	0x3da2cee2	0.07949616
140	0x3d903e6c	0.07043156
141	0x3d8d7fc4	0.06909135
142	0x3d8c8e82	0.06863119
143	0x3b1a3200	0.0023528337
144	0xbda33e6c	-0.079708904
145	0xbdc2bf60	-0.09509158
146	0xbdcc930a	-0.09988983
147	0x3d544fe0	0.051833987
148	0x3d9c5b8c	0.07634649
149	0xbdd8ec5a	-0.105919555
150	0x3d06e5dc	0.032934055
151	0xbd13d8d4	-0.036095455
152	0x3d7c5a2c	0.061609432
153	0xbd862382	-0.06549741
154	0x3c80a4d8	0.015703604
155	0xbdd1a8c2	-0.10237266
156	0x3d45ac90	0.04826027
157	0xbd3ad05c	-0.045608863
158	0xbdb95bf4	-0.09050742
159	0x3da02296	0.07819097
160	0x3dc4dc18	0.09612292
161	0xbdd4c8fc	-0.10389897
162	0xbd753b48	-0.059870988
163	0x3ddd0660	0.107922316
164	0x3d217ac0	0.039423704
165	0xbd8c45fe	-0.068492875
166	0x3de1c7e8	0.11024457
167	0x3d27c290	0.040957034
168	0xbbce2200	-0.006290674
169	0x3d477fa0	0.048705697
170	0x3dc31c4c	0.095268816
171	0xbd0cbf88	-0.034362346
172	0xbdc7a234	-0.09747735
173	0xbdcb494e	-0.09926091
174	0x3dc0e4a4	0.0941861
175	0x3d236300	0.039889336
176	0xbdc55c04	-0.09636691
177	0x3cf93608	0.030421272
178	0xbcf7a5e0	-0.030230463
179	0xbd757ac0	-0.059931517
180	0xbd407a7c	-0.04699181
181	0xbcd08608	-0.025454536
182	0xbdfcd884	-0.123459846
183	0x3d3482a0	0.044069886
184	0xbdee27a6	-0.11628656
185	0x3d9cf144	0.07663205
186	0x3c6de490	0.014519826
187	0x3db23f9e	0.0870354
188	0xbdc4cc1a	-0.09609242
189	0x3d731004	0.059341446
190	0x3d5c90b4	0.053848937
191	0xbd93cb72	-0.072165385
192	0xbd722e1c	-0.059126005
193	0x3d513830	0.051078975
194	0x3d76ff74	0.060302213
195	0x3d3d9270	0.04628223
196	0x3d9bd880	0.076096535
197	0xbcdf92d0	-0.027291685
198	0x3df852e0	0.12125182
199	0x3d653828	0.055961758
200	0x3cea6988	0.028614774
201	0xbd8c5978	-0.06853002
202	0xbddf9e40	-0.10918856
203	0x3d153678	0.0364289
204	0xbd2b4b9c	-0.041820154
205	0xbabf6e00	-0.0014604926
206	0x3c4a4890	0.012346402
207	0x3ddb3a1a	0.10704441
208	0x3db6f24c	0.08932933
209	0x3df3a02e	0.11895786
210	0xbc845778	-0.01615499
211	0x3d847ee8	0.06469518
212	0xbdd92a7c	-0.106038064
213	0xbd7ff34c	-0.062487885
214	0x3dc1e45c	0.09467384
215	0x3d44618c	0.04794459
216	0x3d45e340	0.048312426
217	0x3dd8e478	0.10590452
218	0x3d686d58	0.056744903
219	0xbd6f52a4	-0.05842842
220	0xbdbec8d8	-0.09315652
221	0x3d844074	0.06457606
222	0x3d5710fc	0.052506432
223	0xbded2f20	-0.11581254
224	0x3d97eeb4	0.07418576
225	0x3dfeafd8	0.12435883
226	0x3d178444	0.036991373
227	0x3d728688	0.05921033
228	0x3d00c23c	0.031435236
229	0xbcf0ea28	-0.02940853
230	0xbdf26f12	-0.11837591
231	0xbd3dad1c	-0.046307668
232	0xbd9b9222	-0.07596232
233	0x3c92b4f0	0.017908543
234	0x3d0cdc58	0.034389824
235	0x3d261278	0.040544957
236	0x3da76032	0.08172645
237	0xbabbf700	-0.001434058
238	0xbbf3d000	-0.007440567
239	0xbd5fcd80	-0.05463934
240	0xbd17b9c4	-0.037042394
241	0x3d647c58	0.055782646
242	0xbdc3df3e	-0.095640644
243	0x3c4c68b0	0.012476131
244	0xbd840c5a	-0.064476684
245	0x3d9d11a0	0.07669377
246	0x3db073a6	0.08615808
247	0xbd25f740	-0.040519
248	0x3c87fcf8	0.016600117
249	0x3d51bd34	0.05120583
250	0xbd7737a8	-0.060355812
251	0xbd535364	-0.0515932
252	0xbd25c258	-0.040468544
253	0x3ccb2ac8	0.024800673
254	0xbd80d3d0	-0.062904
255	0x3daa6240	0.08319521

gru.weight_hh_l0 f4 [192, 64]
0	0x3da854b8	0.08219284
1	0x3dd5ec90	0.10445511
2	0x3ddce2ae	0.10785423
3	0xbdd222aa	-0.10260518
4	0x3db032c0	0.0860343
5	0x3dd7394a	0.10508974
6	0x3d19bc1c	0.03753291
7	0xbdadeb50	-0.08492148
8	0xbb8f0ba0	-0.0043653995
9	0xbcd0ac48	-0.025472775
10	0x3df18dd4	0.1179463
11	0xbda04920	-0.078264475
12	0x3dfcce44	0.123440295
13	0xbd7a0124	-0.061036244
14	0xbda60fb6	-0.081084654
15	0x3d8e3db2	0.06945361
16	0x3d8ef476	0.06980221
17	0xbd81bf5a	-0.063353255
18	0xbb981fa0	-0.004642442
19	0xbd842b70	-0.064535975
20	0xbda8321a	-0.08212681
21	0x3d5c40ec	0.05377285
22	0x3d44bda8	0.048032433
23	0xbdd7eac6	-0.10542826
24	0xbdfda44a	-0.12384851
25	0x3dd6e6a4	0.1049321
26	0xbdf48f50	-0.11941397
27	0x3c19c190	0.009384528
28	0x3dd9e5e4	0.10639551
29	0x3d3a8f60	0.04554689
30	0x3d6f5aec	0.05843632
31	0xbd92f2d4	-0.07175222
32	0x3d56da40	0.052454233
33	0xbd67a70c	-0.056555793
34	0xbca47de8	-0.020079568
35	0x3d121b28	0.03567043
36	0x3d136098	0.03598079
37	0xbcd3e190	-0.025864393
38	0x3d748c78	0.059704274
39	0x3d5d4150	0.054017365
40	0x3d5c7bf0	0.053829134
41	0x3cd22620	0.025652945
42	0xbb3c2980	-0.002871126
43	0x3dbe90ec	0.093049854
44	0x3dc7c28a	0.09753902
45	0x3db77f10	0.08959782
46	0xbd42623c	-0.047456965
47	0x39594400	0.00020720065
48	0xbbdab220	-0.006674066
49	0xbdc5e988	-0.09663683
50	0x3bbfc900	0.0058528185
51	0xbd8a551a	-0.06754513
52	0x3d984824	0.07435635
53	0xbd1cece0	-0.03831184
54	0x3d249cc8	0.04018858
55	0xbc945b80	-0.018110037
56	0x3cc870c8	0.02446784
57	0x3df98d84	0.12185195
58	0xbd0954a8	-0.033528
59	0xbdbf4466	-0.09339218
60	0x3d11987c	0.03554581
61	0xbdc3e676	-0.09565441
62	0xbce1bdc8	-0.027556315
63	0xbd34de70	-0.044157445
64	0xbd37ead0	-0.04490167
65	0x3d3ae424	0.045627728
66	0xbcc4a9c0	-0.024006724
67	0xbd918098	-0.071046054
68	0xbcd63e90	-0.026152879
69	0x3cb426e0	0.021991193
70	0xbd3e1218	-0.046403974
71	0x3c8e4ca0	0.017370522
72	0x3db39e90	0.08770478
73	0x3be7ede0	0.0070779175
74	0x3d109c64	0.035305396
75	0xbdb2f3ce	-0.08737908
76	0x3c386850	0.011255339
77	0x3d83e53c	0.06440207
78	0xbcfe7cf0	-0.031065434
79	0xbde31ff2	-0.110900775
80	0x3dbbbbc4	0.09166673
81	0xbac11580	-0.0014731139
82	0x3cd30328	0.025758341
83	0x3d983050	0.0743109
84	0xbddc462a	-0.1075557
85	0xbdb9e462	-0.09076764
86	0xbb352980	-0.0027643144
87	0x3d7cbdd8	0.061704487
88	0x3dce83ba	0.100837186
89	0x3c8d92a0	0.01728183
90	0xbd675b60	-0.056483626
91	0xbd22778c	-0.03966479
92	0x3de15756	0.11002986
93	0x3cde1d18	0.027113482
94	0x3d45ef2c	0.048323795
95	0x3c903a88	0.017606035
96	0x3c87a540	0.01655829
97	0x3d90d3b4	0.07071629
98	0xbdc6eea0	-0.09713483
99	0xbdb1a8c6	-0.08674769
100	0xbca4a7a8	-0.020099476
101	0xbd875a42	-0.06609012
102	0x3d8f061e	0.06983589
103	0xbd5d2d2c	-0.053998157
104	0x3d7493f4	0.05971141
105	0xbdec58ac	-0.1154035
106	0x3d5ee78c	0.05442004
107	0xbd799834	-0.060936168
108	0xbd4888f4	-0.048958734
109	0xbc98bc80	-0.018644571
110	0x3dded0d0	0.108796716
111	0xbdc357f2	-0.095382586
112	0x3d369f34	0.04458542
113	0x3d41e120	0.047333837
114	0xbda77796	-0.08177106
115	0x3b2d5480	0.002644807
116	0x3ce88ab0	0.028386444
117	0xbdb5d25c	-0.088780135
118	0x3c396510	0.011315599
119	0xbd384154	-0.044984177
120	0xbd00e9c8	-0.03147295
121	0xbde8dc80	-0.11370182
122	0x3cbdd908	0.023174778
123	0xbde11ca2	-0.109917894
124	0xbd81377c	-0.06309411
125	0xbd2ff7c4	-0.042960897
126	0xbbfe57a0	-0.0077619106
127	0x3df5c9b2	0.12001361
128	0xbd3a2900	-0.045449257
129	0x3c2dc0c0	0.010605037
130	0xbdfcebae	-0.1234964
131	0x3dceb398	0.100928485
132	0x3d8ee91a	0.06978054
133	0xbd1803c4	-0.037112966
134	0x3dd93d26	0.10607366
135	0x3df597be	0.11991833
136	0xbddde202	-0.10834123
137	0x3d876c9a	0.06612511
138	0x3d0fe390	0.03512913
139	0xbd8cbe68	-0.068722546
140	0xbd81e608	-0.06342703
141	0xbdbe65bc	-0.09296748
142	0x3dad5580	0.084635735
143	0xbc193030	-0.009349868
144	0x3d81e534	0.06342545
145	0x3bec8be0	0.007218823
146	0x3de9b0c4	0.114106685
147	0x3c6f1150	0.01459153
148	0x3b4f69c0	0.0031648725
149	0x3d3dd484	0.04634525
150	0xbc89b1d8	-0.016808435
151	0xbd8de9f0	-0.06929386
152	0x3cf8a960	0.030354202
153	0xbd65a318	-0.05606374
154	0xbdb1e2ce	-0.08685838
155	0x3dd8acae	0.10579811
156	0xbdf1a248	-0.11798531
157	0xbde62a92	-0.112385884
158	0x3db64f42	0.08901836
159	0x3d86c5f2	0.06580724
160	0x3daf4b42	0.08559276
161	0x3c766f10	0.015041128
162	0x3c8d4a60	0.017247379
163	0xbd8612ea	-0.06546576
164	0xbd8b5a52	-0.068043366
165	0x3d9b9064	0.075959
166	0xbd1b85a0	-0.03796923
167	0x3dc8d420	0.09806085
168	0xbcfd83c0	-0.030946612
169	0x3dd4ae92	0.10384859
170	0xbc4e6be0	-0.012598962
171	0xbc76f340	-0.015072644
172	0xbc944b98	-0.018102452
173	0xbd6d269c	-0.05789815
174	0x3d567f2c	0.052367374
175	0xbd036ac8	-0.032084256
176	0x3def831c	0.11694929
177	0x3d59edcc	0.053205296
178	0x3d4b7d7c	0.049680218
179	0x3d52b390	0.051440775
180	0x3d13a964	0.036050215
181	0xbd54e068	-0.051971823
182	0xbdac0850	-0.08400023
183	0x3dadd3bc	0.08487651
184	0xbd141e04	-0.036161438
185	0x3cfc8478	0.030824885
186	0x3d949c14	0.07256332
187	0x3c9592f8	0.018258557
188	0xbd906f86	-0.070525214
189	0x3daea92e	0.08528362
190	0x3dcc5f80	0.09979153
191	0xbde77e86	-0.11303429
192	0xbb6fc140	-0.0036583692
193	0xbd819dd6	-0.06328933
194	0x3d197c10	0.03747183
195	0xbd5c1c28	-0.05373779
196	0x3d0e6c28	0.034771115
197	0xbc771c90	-0.015082493
198	0x3dfb472a	0.12269433
199	0x3cb06850	0.021534115
200	0x3d425868	0.047447592
201	0xbdc0ab04	-0.09407619
202	0xbd81cea4	-0.06338242
203	0x3d40b568	0.047048002
204	0xbdf8f6a0	-0.12156415
205	0x3dfc10e0	0.12307906
206	0xbd260888	-0.04053548
207	0x3dbea014	0.09307876
208	0x3d993cf8	0.07482332
209	0xbddcd0b4	-0.107819945
210	0x3c754ef0	0.014972433
211	0x3db551de	0.088535056
212	0xbd89ae70	-0.067227244
213	0x3d28ff34	0.041259006
214	0x3da517ca	0.08061178
215	0xbde3b4e4	-0.111184865
216	0x3d97dada	0.074147895
217	0xbdb1184c	-0.086472124
218	0xbd805b70	-0.0626744
219	0x3dbc96de	0.09208463
220	0xbcd697c0	-0.026195407
221	0x3ad29d00	0.0016068518
222	0xbdc8f1fa	-0.09811778
223	0xbcbc40a0	-0.022980034
224	0xbd4d0d68	-0.050061613
225	0x3d19b618	0.037527174
226	0xbdb83f98	-0.089965045
227	0xbdc40008	-0.095703185
228	0xbd4ac7ec	-0.049507067
229	0xbd4e2b9c	-0.050334558
230	0xbd578b30	-0.052622974
231	0xbdd24a38	-0.10268062
232	0xbdb22318	-0.086981
233	0x3df9c498	0.121957004
234	0x3d2f8168	0.04284802
235	0x3cfa1e90	0.030532151
236	0x3d212a90	0.03934723
237	0xbc4f26c0	-0.012643516
238	0xbce5b8b8	-0.028042182
239	0xbdb1e668	-0.08686525
240	0xbc17a840	-0.0092564225
241	0xbda99e3c	-0.08282134
242	0x3dfe1bc6	0.12407641
243	0xbd55faa0	-0.052240968
244	0xbd8ecd94	-0.06972805
245	0xbcc90048	-0.024536267
246	0xbcc1e220	-0.023667395
247	0xbcc88238	-0.024476156
248	0xbdc7f9dc	-0.09764454
249	0xbde8550c	-0.113443464
250	0x3da7524a	0.08169992
251	0xbd043d24	-0.03228487
252	0xbc7fa950	-0.015604332
253	0x3dcbbe80	0.09948444
254	0xbdd8848c	-0.10572156
255	0x3ae71980	0.0017631501

gru.bias_ih_l0 f4 [192]
0	0x3cd296f0	0.025706738
1	0x3ddf7e9a	0.10912819
2	0x3b73ec40	0.0037219673
3	0x3def96a4	0.11698654
4	0x3deacd26	0.1146491
5	0x3dd55dd8	0.1041829
6	0x3d2d54c8	0.04231718
7	0xbca11b20	-0.019666255
8	0xbdbac756	-0.091200516
9	0xbc80c150	-0.015717179
10	0xbcd21ce0	-0.025648534
11	0xbddb2bf6	-0.10701744
12	0x3da0d72c	0.07853541
13	0x3d8c8668	0.068615735
14	0x3d78eb2c	0.060771152
15	0x3be1e5e0	0.0068938583
16	0x3dd64c14	0.104637295
17	0xbbd47620	-0.006483808
18	0xbdd9fb5a	-0.10643645
19	0x3c4674a0	0.0121127665
20	0xbca49af0	-0.020093411
21	0x3b6adb40	0.003583625
22	0xbd338218	-0.04382524
23	0x3dd27f00	0.102781296
24	0xbcac8a70	-0.021062106
25	0x3d3778e4	0.044793025
26	0x3d247d40	0.04015851
27	0xbd1144a0	-0.035465837
28	0xbdadf1d4	-0.08493391
29	0xbd89c86c	-0.067276806
30	0x3dbae346	0.0912538
31	0x3dcb85ea	0.099376515
32	0xbda5599c	-0.08073732
33	0x3d515ee8	0.0511159
34	0x3dd751ee	0.10513674
35	0xbdf7b1aa	-0.120944336
36	0x3c0caf10	0.00858666
37	0x3d9e2f8e	0.07723914
38	0x3c04baf0	0.00810121
39	0x3d23bd78	0.039975613
40	0x3db52f02	0.08846857
41	0x3dffc1be	0.12488125
42	0x3cda9758	0.026683494
43	0x3dd60abe	0.10451268
44	0xbd9d4a70	-0.076802135
45	0xbd831546	-0.06400542
46	0xbd9f2cb2	-0.07772197
47	0x3d25ab54	0.040446594
48	0xbcc517c8	-0.024059191
49	0x3cb05b08	0.021527782
50	0x3bca5220	0.006174341
51	0xbd44e404	-0.048069015
52	0x3dccd1b2	0.10000934
53	0xbdf267f8	-0.11836237
54	0xbd06bcd8	-0.03289494
55	0x3d3eeb24	0.046610966
56	0xbdb9f1d0	-0.09079325
57	0x3daf0c1c	0.085472316
58	0xbcd7e3c8	-0.026353732
59	0x3b8cf800	0.004302025
60	0xbdfda48a	-0.12384899
61	0x3df1b7e2	0.11802651
62	0x3c92a780	0.017902136
63	0x3ddc5bc8	0.107596934
64	0xbdd3b974	-0.10338107
65	0xbddfee14	-0.10934082
66	0x3dc98ccc	0.09841308
67	0x3d140660	0.036138892
68	0xbdf56c42	-0.11983539
69	0xbd370110	-0.044678748
70	0x3dcd0008	0.100097716
71	0xbdaaba56	-0.08336322
72	0xbd9624cc	-0.07331237
73	0x3b9782e0	0.004623756
74	0xbd1fbe44	-0.03899981
75	0x3d8655fa	0.065593675
76	0xbd273acc	-0.040827557
77	0x3d972cbe	0.07381581
78	0x3dad0e60	0.084500074
79	0x3daca56e	0.08429991
80	0x3dbbf776	0.09178059
81	0x3d697480	0.05699587
82	0x3d480f7c	0.048842892
83	0x3c941c58	0.018079922
84	0xbd1aedec	-0.037824556
85	0xbde5dd12	-0.112238064
86	0xbbf9fd80	-0.0076290965
87	0x3dbda304	0.092596084
88	0xbd60de78	-0.054899663
89	0xbdebdb18	-0.11516398
90	0x3dcbe8c6	0.099565074
91	0xbd4752d4	-0.048662975
92	0x3c0f8fb0	0.008762285
93	0xbd5bf0d8	-0.053696483
94	0x3d2ede10	0.042692244
95	0xbd344938	-0.04401514
96	0xbd014564	-0.031560317
97	0xbdcba168	-0.09942895
98	0xbcd64d90	-0.026160032
99	0xbb2735c0	-0.0025514215
100	0x3d5f3784	0.054496303
101	0xbdc577c6	-0.096419856
102	0x3db10f2c	0.08645472
103	0x3ced6288	0.028977647
104	0xbd8da850	-0.06916869
105	0x3ce7f8f0	0.028316945
106	0x3d8538da	0.06504984
107	0xbc9c6a10	-0.019093543
108	0x3d4b2780	0.049598217
109	0x3d1679a8	0.036737114
110	0xbc6fcf10	-0.01463677
111	0x3d827896	0.06370656
112	0x3da091ee	0.07840334
113	0xbdf6dd04	-0.12053874
114	0xbdb3221e	-0.08746742
115	0xbc85d7f8	-0.016338333
116	0xbdd941b2	-0.106082335
117	0xbceecb98	-0.029149815
118	0xbd99f7ac	-0.07517943
119	0x3d1b65ac	0.03793876
120	0x3df67c1a	0.12035389
121	0xbce9b430	-0.028528303
122	0xbd1885e4	-0.037237063
123	0x3d55e234	0.052217677
124	0xbcc6e920	-0.024281085
125	0xbd78db1c	-0.060755834
126	0xbdf373b6	-0.118873045
127	0x3d915ea6	0.07098131
128	0x3de1a748	0.110182345
129	0xbd188d34	-0.037244037
130	0x3dbd1d6e	0.09234129
131	0xbd9246b8	-0.07142395
132	0xbd863aa6	-0.06554155
133	0xbde5a1b2	-0.112124816
134	0xbbf83980	-0.007575214
135	0xbde230d4	-0.110444695
136	0x3b236e00	0.0024937391
137	0xbd0b08f8	-0.0339441
138	0x3d879566	0.06620292
139	0x3ddd4eac	0.10806021
140	0xbdc5ed70	-0.09664428
141	0x3bd64c00	0.0065398216
142	0xbd734aac	-0.059397385
143	0x3d423ecc	0.04742317
144	0xbd7c7230	-0.061632335
145	0xbdd550f2	-0.1041583
146	0x3dd42afa	0.1035976
147	0x3da683b2	0.08130588
148	0x3cfac0b8	0.030609474
149	0x3dba3d74	0.090937525
150	0x3d5e8f74	0.054336026
151	0x3d8864fc	0.06659886
152	0x3de7aa94	0.11311832
153	0x3d0ef1b4	0.034898475
154	0x3dbbbb44	0.091665775
155	0xbb284c80	-0.0025680363
156	0x3cba1810	0.022716552
157	0x3baed0e0	0.0053349584
158	0xbdf61474	-0.1201562
159	0xbc8a37c8	-0.016872302
160	0xbcdc2670	-0.026873797
161	0x3ca74f20	0.020423472
162	0x3d94a650	0.07258284
163	0xbde70d1a	-0.11281796
164	0x3db27fde	0.08715795
165	0xbdfe4c72	-0.124169245
166	0x3bc89360	0.006121084
167	0xbc9ae168	-0.01890631
168	0x3db586f6	0.088636324
169	0xbd43fb7c	-0.047847256
170	0xbddffeae	-0.10937248
171	0xbdc67998	-0.09691161
172	0xbdd90354	-0.10596338
173	0x3dd5638a	0.10419376
174	0xbcf04000	-0.029327393
175	0xbd9915e6	-0.0747488
176	0xbdd79804	-0.105270416
177	0xbd80e29c	-0.06293222
178	0xbd6a2bf0	-0.05717081
179	0xbdcbd0e6	-0.099519536
180	0xbdb760be	-0.08953999
181	0x3dab59fa	0.08366771
182	0x3d6bf5e8	0.05760756
183	0x3d8322bc	0.064031094
184	0x3daa418c	0.08313283
185	0x3d891f2a	0.06695397
186	0xbdea86b4	-0.11451474
187	0x3d8a7c4c	0.06761989
188	0xbd41691c	-0.04721938
189	0x3dea4c0e	0.114402875
190	0xbbf93120	-0.007604733
191	0xbd1c32f4	-0.03813453

gru.bias_hh_l0 f4 [192]
0	0x3d241c00	0.040065765
1	0xbd4088e4	-0.04700555
2	0x3d044370	0.032290876
3	0x3d3d21c0	0.046174765
4	0xbcee3b00	-0.029080868
5	0xbda3bf2c	-0.079954475
6	0xbd4aee30	-0.04954356
7	0x3d6971fc	0.05699347
8	0x3dd89d1a	0.1057684
9	0xbdeb39dc	-0.11485645
10	0xbdfecade	-0.124410376
11	0xbd6031c0	-0.054734945
12	0xbdb0487e	-0.08607577
13	0x3d89f31e	0.06735824
14	0xbcb89498	-0.022531793
15	0xbdbc370c	-0.09190187
16	0xbd5f1d5c	-0.05447136
17	0x3dcdd172	0.10049714
18	0xbd4803f8	-0.04883191
19	0xbca75358	-0.020425484
20	0xbdad2e5e	-0.084561095
21	0x3d8438ec	0.064561695
22	0xbddafe22	-0.10693003
23	0x3cd00070	0.025390834
24	0xbdd223da	-0.102607444
25	0x3def4474	0.11682978
26	0x3c0baf00	0.00852561
27	0x3df13316	0.11777322
28	0xbdb0f2a8	-0.08640033
29	0x3c5c4270	0.013443574
30	0xbdc9e0bc	-0.09857318
31	0x3db0c7b4	0.0863184
32	0xbdc47474	-0.09592524
33	0xbd900db8	-0.07033867
34	0x3d8bf3f8	0.06833643
35	0xbd0d8258	-0.034548134
36	0xbd56a35c	-0.052401885
37	0xbd5ad7e8	-0.05342856
38	0xbd81174c	-0.06303272
39	0xbd9b4ee8	-0.075834095
40	0x3dd052d2	0.10172047
41	0x3db5a08a	0.08868511
42	0x3dd1ff50	0.10253775
43	0xbb04ec40	-0.0020282418
44	0x3db934de	0.09043287
45	0x3c8fd218	0.017556235
46	0x3dd2c1ee	0.102908954
47	0x3db3a84c	0.087723345
48	0x3d62e028	0.055389553
49	0xbdfaa51c	-0.12238523
50	0xbda126a0	-0.07868695
51	0xbd88ee4a	-0.06686075
52	0x3c68f920	0.014219552
53	0xbdfe17dc	-0.124068946
54	0x3d94737c	0.072485894
55	0x3cb32cb0	0.021871895
56	0x3db5ad4c	0.088709444
57	0x3d9d06e8	0.07667333
58	0x3de16258	0.11005086
59	0xbd914fd4	-0.07095304
60	0x3d635440	0.05550027
61	0x3deaf2b0	0.1147207
62	0x3d7c3234	0.061571315
63	0xbc356840	-0.011072218
64	0xbd96dc62	-0.073662534
65	0x3d5ce1fc	0.053926453
66	0xbd48a420	-0.048984647
67	0xbddf87b0	-0.10914552
68	0x3daa8db4	0.08327809
69	0xbcba92e0	-0.022775114
70	0xbdda9a6e	-0.106739864
71	0xbd5cca50	-0.053903878
72	0xbd7d3940	-0.061822176
73	0xbdb9141a	-0.09037037
74	0xbca94618	-0.020663306
75	0xbdeff29e	-0.117161974
76	0x3d4e5c50	0.050381005
77	0x3dd91f74	0.10601702
78	0xbdbed0c8	-0.093171656
79	0xbba05940	-0.004893452
80	0xbd0cac5c	-0.034344062
81	0xbd5290f4	-0.05140777
82	0xbd5fd440	-0.054645777
83	0xbcf012e8	-0.02930589
84	0x3d016430	0.031589687
85	0xbd4eda50	-0.050501168
86	0xbdbffe56	-0.093746826
87	0x3cd8e2e0	0.02647537
88	0xbd92e9fc	-0.07173535
89	0xbc0cbbf0	-0.00858973
90	0x3c46cf00	0.012134314
91	0x3dd4327a	0.1036119
92	0xbd962962	-0.07332112
93	0xbdf0cb0a	-0.11757477
94	0x3c980528	0.018557146
95	0x3dfa491a	0.12220974
96	0x3dadcc52	0.08486237
97	0x3cdf2620	0.02723986
98	0xbdf51c2e	-0.119682655
99	0x3d036778	0.032081097
100	0xbcc13d90	-0.023588926
101	0x3d7eb878	0.06218764
102	0x3c875030	0.016517729
103	0x3d84b776	0.06480305
104	0x3ccc7aa0	0.024960816
105	0xbd528aac	-0.05140178
106	0xbdc244e8	-0.09485799
107	0xbd53dfa4	-0.051726952
108	0xbd25b3e4	-0.04045476
109	0xbde1e6b2	-0.1103033
110	0x3dadb256	0.084812805
111	0x3dda07da	0.10646029
112	0x3dbbdcb6	0.09172957
113	0x3c8380e0	0.016052663
114	0xbca20330	-0.01977691
115	0x3c3690f0	0.011142954
116	0xbde09998	-0.10966796
117	0xbd5af158	-0.05345282
118	0x3de9a698	0.11408728
119	0x3d8abcc6	0.06774287
120	0xbdadb82a	-0.08482392
121	0x3d9bf992	0.07615961
122	0xbcf965a8	-0.030443981
123	0xbdc4e318	-0.09613627
124	0xbd8593ea	-0.06522353
125	0xb9a84c00	-0.0003210008
126	0xbd49ad4c	-0.049237534
127	0x3db79dd2	0.08965649
128	0x3dbcfb08	0.09227568
129	0x3df44eb8	0.11929077
130	0x3de9f2f6	0.11423294
131	0x3b088ac0	0.0020834655
132	0x3b959440	0.004564792
133	0xbd50bf10	-0.05096346
134	0x3c750400	0.014954567
135	0xbd1630f0	-0.036667764
136	0xbb957ee0	-0.004562244
137	0x3dc421de	0.09576772
138	0xbd82868a	-0.063733175
139	0xbddfed78	-0.109339654
140	0xbdf15a0e	-0.11784755
141	0x3d823476	0.063576624
142	0x3d8bbc86	0.06823067
143	0xbdc8777e	-0.09788416
144	0xbded2288	-0.11578852
145	0xbd631ad4	-0.055445507
146	0xbd3bfca0	-0.04589522
147	0x3b05d400	0.0020420551
148	0x3dcc2c80	0.09969425
149	0x3c798ca0	0.0152312815
150	0xbd82e616	-0.06391542
151	0xbd0106f0	-0.031500757
152	0xbd2b0ef8	-0.041762322
153	0x3de88a98	0.1135456
154	0xbc9c3e88	-0.019072786
155	0x3dd5858e	0.10425864
156	0x3d095fbc	0.033538565
157	0xbdecd70c	-0.115644544
158	0xbbd5f2e0	-0.006529197
159	0xbc0facb0	-0.008769199
160	0xbd3b9814	-0.04579933
161	0x3d456d68	0.04820004
162	0x3da949fc	0.082660645
163	0x3deee1cc	0.11664161
164	0x3dba5354	0.09097925
165	0xbdbc76c4	-0.0920234
166	0x3dec83b8	0.11548561
167	0xbdfc4424	-0.12317684
168	0x3d49ca30	0.049265087
169	0xbd114090	-0.035461962
170	0xbd40549c	-0.04695569
171	0xbd37a188	-0.044831783
172	0x3ba2e2c0	0.0049708784
173	0x3da31bde	0.079642996
174	0xbd1b3a34	-0.037897304
175	0x3da10d7e	0.078639016
176	0x3d9dc994	0.077044636
177	0xbdc46cf6	-0.09591095
178	0xbddf379c	-0.108992785
179	0xbdafb3aa	-0.0857919
180	0xbded1156	-0.11575572
181	0x3dd8faca	0.10594709
182	0x3df3cba2	0.11904074
183	0xbdb027fa	-0.08601375
184	0x3a1db700	0.0006016344
185	0xbd8f2bcc	-0.069907755
186	0xbdbfa87a	-0.09358306
187	0xbd2448cc	-0.040108487
188	0x3d994046	0.07482962
189	0xbb9b5360	-0.0047401637
190	0xbdb2e3cc	-0.08734855
191	0x3df6d776	0.12052815

gru.weight_ih_l1 f4 [192, 64]
0	0xbd8a28b8	-0.06746048
1	0x3dffbe99	0.124875255
2	0xba936853	-0.0011246301
3	0x3c8e0fdc	0.017341547
4	0x3df90273	0.1215867
5	0xbdf42016	-0.119201824
6	0x3de1f4fd	0.11033056
7	0xbda910da	-0.08255167
8	0xbc9e8e88	-0.019355074
9	0xbd4daa0d	-0.050211
10	0x3cef6102	0.029221062
11	0xbdf89c60	-0.12139201
12	0x3cb4b2a0	0.022057831
13	0xbd95fd64	-0.07323721
14	0x3dbb15f4	0.091350466
15	0x3da81db2	0.08208789
16	0x3c19e4e7	0.0093929535
17	0xbd94186c	-0.072312206
18	0x3da4c7d3	0.08045926
19	0xbd8a3f84	-0.06750396
20	0x3bc5f7a3	0.0060414835
21	0xbcc2b0f8	-0.023766026
22	0xbdb09682	-0.08622457
23	0xbca19dc8	-0.019728556
24	0x3d8ce792	0.06880106
25	0xbb7e8b40	-0.0038840324
26	0x3ca9ee10	0.0207434
27	0xbd450546	-0.048100732
28	0x3d22b35c	0.03972183
29	0x3e1310dd	0.14361902
30	0xbc8d5014	-0.017250098
31	0x3cb3b738	0.021937951
32	0x3db64d48	0.08901459
33	0x3decb508	0.115579665
34	0x3db63392	0.08896555
35	0xbd7d8d4a	-0.061902322
36	0x3d2d3dbc	0.042295203
37	0xbd824e92	-0.06362642
38	0x3ca02bb8	0.019552097
39	0xbd1cea0c	-0.038309142
40	0xbe22ece2	-0.15910676
41	0xbc8dd994	-0.017315663
42	0x3d89a886	0.067215964
43	0xbcb1c7e0	-0.021701753
44	0xbdede534	-0.11615983
45	0x3c9b31a8	0.018944576
46	0xbdf9fa74	-0.12205973
47	0x3d895742	0.06706096
48	0xbda2eca1	-0.0795529
49	0x3d841929	0.064501114
50	0xbc36c88c	-0.011156213
51	0xbd9c511c	-0.07632658
52	0x3d7a912c	0.061173603
53	0xbd30019c	-0.042970285
54	0x3d336e78	0.043806523
55	0xbd3c5eaf	-0.045988735
56	0xbd569094	-0.052383974
57	0xbe01133b	-0.12604992
58	0x3e2079f3	0.1567152
59	0xbd075f21	-0.033049706
60	0x3e0498be	0.12948892
61	0x3d400a78	0.046884984
62	0x3d9dc99c	0.077044696
63	0xbdfacf82	-0.1224661
64	0x3dd0a892	0.10188402
65	0x3dab4c10	0.08364117
66	0x3da0f6e9	0.078595944
67	0xbcb70df4	-0.02234552
68	0x3d6e8327	0.058230545
69	0x3cd05750	0.025432259
70	0x3d85ef3c	0.06539771
71	0xbdd75b36	-0.10515444
72	0x3da47154	0.08029428
73	0xbd1ef65f	-0.038809177
74	0xbdb74225	-0.08948163
75	0x3d784250	0.060610116
76	0xbdf992a4	-0.121861726
77	0x3b8b19c0	0.004245013
78	0x3d61d7cb	0.055137437
79	0xbc9071d8	-0.01763241
80	0xbcc6eca1	-0.024282755
81	0xbcfc6ae0	-0.03081268
82	0xbd3cce7d	-0.04609536
83	0xbc6fcaff	-0.0146358
84	0x3dac30f2	0.08407773
85	0x3c1e0390	0.009644404
86	0x3bd2d1c0	0.0064336956
87	0xbdee00c0	-0.11621237
88	0xbcb35070	-0.021888942
89	0x3d988172	0.07446565
90	0xbdebb5a2	-0.11509253
91	0xbd4c84db	-0.04993139
92	0xbd2f28c3	-0.042763483
93	0x3cae7137	0.02129422
94	0xbd9b9b81	-0.075980194
95	0xbcda1f78	-0.026626334
96	0xbda6638c	-0.08124456
97	0xbdf75204	-0.1207619
98	0x3c1e681f	0.009668379
99	0xbcb43dc4	-0.022002108
100	0xbd1d5828	-0.03841415
101	0xbb7032c0	-0.0036651343
102	0x3dcfdb68	0.1014927
103	0x3db4f6c2	0.08836128
104	0xbde13fb9	-0.10998482
105	0x3d9c8384	0.07642272
106	0x3dc29def	0.0950278
107	0xbd1cd590	-0.038289607
108	0xbd8dc202	-0.0692177
109	0xbd0c1780	-0.0342021
110	0xbdafcfb0	-0.08584535
111	0x3dda80da	0.10669108
112	0x3de3a757	0.11115902
113	0x3ca854b2	0.020548198
114	0x3d870a59	0.065937705
115	0xbde63133	-0.11239853
116	0xbb9fd1c0	-0.004877299
117	0xbd179240	-0.03700471
118	0xbd2c6e94	-0.042097643
119	0xbc6028dd	-0.013681618
120	0x3d168b14	0.03675373
121	0xbd16ff9d	-0.036864866
122	0xbd31f697	-0.043448057
123	0x3dd0c189	0.10193164
124	0xbde9c810	-0.11415112
125	0x3d3ab114	0.04557903
126	0xbb5da0c0	-0.0033817738
127	0x3c601700	0.013677359
128	0xbd9ac1f0	-0.07556522
129	0x3d437b99	0.047725294
130	0x3c0695a3	0.008214387
131	0x3d1e60cb	0.038666528
132	0x3d15be43	0.0365584
133	0x3dec724c	0.11545238
134	0xbdb6f8d3	-0.08934178
135	0xbdf6bac2	-0.1204734
136	0x3dbcf65a	0.09226675
137	0xbc695603	-0.014241698
138	0xbc007793	-0.007841009
139	0xbdf1270e	-0.11775027
140	0xbd62a160	-0.05532968
141	0xbdab058c	-0.08350667
142	0xbd434ac3	-0.04767872
143	0x3e0e0f6a	0.13873067
144	0x3d57f279	0.052721474
145	0xbd23042c	-0.0397989
146	0x3dcb4ab8	0.09926361
147	0xbe0f9a98	-0.14023817
148	0xbb09bd0a	-0.0021017217
149	0xbdc135c4	-0.09434083
150	0x3d35dfd0	0.044402897
151	0x3d720970	0.05909103
152	0x3d442f70	0.047896802
153	0xba388c00	-0.00070399046
154	0xbbbc09c0	-0.005738467
155	0xbdb28e7a	-0.087185815
156	0xbd975be5	-0.07390574
157	0x3dca5327	0.09879141
158	0x3c837791	0.016048225
159	0xbd3d424c	-0.046205804
160	0xbc78fc30	-0.015196845
161	0x3d0f3d24	0.034970418
162	0x3de9125b	0.11380454
163	0xbdc58bcf	-0.09645807
164	0x3dabaad6	0.08382194
165	0x3da3c91e	0.079973444
166	0xbdfb687e	-0.1227579
167	0x3d93877c	0.07203576
168	0x3d2ed349	0.042681966
169	0x3cbe0729	0.023196774
170	0x3e0767cf	0.13223194
171	0x3df7e7fa	0.12104793
172	0x3db47e0e	0.088131055
173	0xbdca21c4	-0.098697215
174	0xbda9ce7c	-0.08291337
175	0x3d18adcc	0.03727512
176	0x3d762aaf	0.0600993
177	0xbdb3f7e7	-0.08787518
178	0x3dec7e75	0.11547557
179	0xbc35ea1b	-0.011103178
180	0xbd0998b8	-0.03359291
181	0xbd5d8bb8	-0.054088324
182	0x3d649c10	0.055812895
183	0xbda419fe	-0.0801277
184	0xbd9b9640	-0.07597017
185	0x3c38e0d8	0.011284076
186	0xbd90cdbb	-0.0707049
187	0x3dbe9cd4	0.09307256
188	0x3dc0afbb	0.09408518
189	0x3d2ec8c0	0.04267192
190	0x3d98de7c	0.074643105
191	0xbdc3daec	-0.095632404
192	0xbdf808b8	-0.12111038
193	0x3c99a779	0.018756615
194	0xbdc414b5	-0.09574262
195	0xbdbbb1a4	-0.09164742
196	0xbdaaa830	-0.083328605
197	0xbdd9356a	-0.10605891
198	0x3d0e4b9e	0.034740083
199	0x3dcafe98	0.09911841
200	0x3c1fe6a0	0.009759575
201	0x3d05d465	0.03267326
202	0x3dfd0f85	0.12356476
203	0x3d2b7870	0.041862905
204	0x3d60de78	0.054899663
205	0xbdf0d124	-0.117586404
206	0xbcbb8fc4	-0.022895701
207	0xbce1cf25	-0.027564595
208	0xbda6ce07	-0.08144765
209	0x3c7c8cf0	0.0154144615
210	0xbe0e7090	-0.13910127
211	0xbc3a9eb7	-0.01139038
212	0xbc18e5bd	-0.009332118
213	0x3d6b3aac	0.057429
214	0xbdc476b4	-0.09592953
215	0xbde01c1a	-0.1094286
216	0x3c4ce9b0	0.012506887
217	0x3d7055b0	0.058675468
218	0xbdd77892	-0.10521044
219	0xbd29cc86	-0.041454814
220	0xbdb42958	-0.08796948
221	0x3ca52297	0.020158095
222	0xbd7181d2	-0.058961697
223	0x3ba40060	0.0050049275
224	0xbdb5b214	-0.08871856
225	0xbd86b9ba	-0.06578393
226	0xbdb13002	-0.08651735
227	0xbd8f6d92	-0.07003321
228	0xbc9c5340	-0.019082665
229	0xbddf83b6	-0.10913794
230	0xbdd9d9f0	-0.106372714
231	0xbd9ad126	-0.07559423
232	0x3d9d4ddd	0.07680867
233	0xbd814b61	-0.063132055
234	0x3e00b525	0.12569101
235	0x3d027c98	0.031857103
236	0x39a30a00	0.00031097233
237	0x3d8a8b18	0.06764811
238	0xbdaee49e	-0.08539699
239	0x3dfb4524	0.12269047
240	0xbe03d749	-0.12875094
241	0x3db7b346	0.089697406
242	0x3db4f81e	0.08836387
243	0xbd2d22ae	-0.0422694
244	0xbdd42bee	-0.103599414
245	0xbda7ecca	-0.08199461
246	0xbdec5162	-0.1153896
247	0xbd99fd97	-0.075190715
248	0x3dbd6e00	0.092494965
249	0xbc1435bc	-0.009046014
250	0x3e10df34	0.14147645
251	0x3e1778c1	0.14792158
252	0xbd802be9	-0.06258375
253	0xbc9b8ec8	-0.018988982
254	0xbd6f8868	-0.058479697
255	0xbdbeb008	-0.09310919

gru.weight_hh_l1 f4 [192, 64]
0	0x3d7a3cdc	0.061093196
1	0xbdfb9632	-0.12284507
2	0xbe27a0e6	-0.16369972
3	0xbcd436da	-0.025905062
4	0xbd395ff9	-0.045257542
5	0xbe25169c	-0.16121906
6	0xbe124935	-0.14285739
7	0xbd83e0d4	-0.06439367
8	0x3cfaee4f	0.030631213
9	0xbdd9cf0a	-0.10635193
10	0x3d77e8b3	0.060524654
11	0xbb5972d4	-0.0033180015
12	0xbddf5762	-0.10905339
13	0x3d5065d7	0.050878372
14	0x3e1050fa	0.1409339
15	0x3ddbafd3	0.10726895
16	0xbcca315f	-0.024681745
17	0x3d24886c	0.040169165
18	0x3dd3c8c5	0.10341028
19	0x3d33ae76	0.04386755
20	0xbd8f0db1	-0.06985033
21	0xbb7b5e48	-0.0038355757
22	0xbdd99e3d	-0.10625885
23	0x3d042fd8	0.03227219
24	0xbca24a6a	-0.019810874
25	0x3d982602	0.074291244
26	0xbe0cf021	-0.13763477
27	0x3d8a2740	0.067457676
28	0x3e04c42f	0.12965463
29	0xbd8f811a	-0.07007046
30	0xbd3c768c	-0.046011493
31	0xbdf68d81	-0.120387085
32	0xbd69e59c	-0.05710374
33	0x3d6b5181	0.057450775
34	0xbd4fdf6f	-0.050750192
35	0xbdee9341	-0.1164918
36	0xbdd8348d	-0.10556898
37	0x3d399528	0.045308262
38	0x3bfea26d	0.0077708275
39	0xbcb386c4	-0.021914847
40	0x3b6ef60a	0.0036462569
41	0x3b656e40	0.003500834
42	0xbb1e35b0	-0.0024140887
43	0x3df74dc3	0.12075379
44	0xbe082e5e	-0.13298938
45	0x3d6e2c10	0.05814749
46	0xbde78ee4	-0.11306551
47	0x3da5f4d6	0.081033394
48	0x3cb23290	0.021752626
49	0x3d69aab2	0.057047553
50	0xbd3c8f7e	-0.046035282
51	0xbe0b97b1	-0.13632084
52	0x3d981c4e	0.07427274
53	0xbd9c919a	-0.07644959
54	0x3d996be7	0.07491284
55	0x3df413fe	0.11917876
56	0x3d06e8a9	0.032936726
57	0xbdb69dee	-0.089168414
58	0xbd4b0605	-0.049566288
59	0xbdd64a4c	-0.1046339
60	0xbacb64ed	-0.0015517749
61	0xbb223bf1	-0.0024754966
62	0xbcc62abb	-0.024190297
63	0x3c574063	0.01313791
64	0x3d1fe78f	0.03903919
65	0x3ca208fb	0.019779673
66	0xbd49284e	-0.049110703
67	0x3e1b69b9	0.15177049
68	0x3bd50cde	0.006501778
69	0xbdbfb7d3	-0.093612336
70	0xbdc0251c	-0.09382078
71	0xbe0b193b	-0.13583843
72	0x3d694858	0.056953758
73	0xbc0465b7	-0.008080891
74	0x3cd30f6c	0.02576419
75	0x3d87db53	0.0663363
76	0xbe153e7a	-0.14574614
77	0x3d80519d	0.062655665
78	0xbd8b3768	-0.06797677
79	0x3e098742	0.13430503
80	0xbd07ef02	-0.03318692
81	0xbd93e0c1	-0.07220603
82	0x3d70740b	0.058704417
83	0xbdd87d6f	-0.105707996
84	0xbde97b0f	-0.11400425
85	0xbdb0dd31	-0.08635939
86	0xbdf33e83	-0.118771575
87	0x3e1fd0e2	0.15607026
88	0x3dbc023b	0.09180113
89	0x3bc3d8c1	0.005976767
90	0xbcbf64f7	-0.023363573
91	0xbd178a52	-0.036997147
92	0xbd2272f7	-0.03966042
93	0xbde8c5f4	-0.113658816
94	0xbd1918ef	-0.037377294
95	0xbd2e312c	-0.042527363
96	0x3c83ff6b	0.016113004
97	0xbdf22319	-0.118231006
98	0xbdf87016	-0.12130754
99	0x3db0e9a6	0.08638315
100	0xbcf0ab8f	-0.02937868
101	0x3d20ceb4	0.039259627
102	0xbced5153	-0.028969442
103	0x3c92fe67	0.017943574
104	0xbdf0b41a	-0.11753102
105	0xbd003014	-0.03129585
106	0xbdf7487e	-0.12074374
107	0xbc7be9c1	-0.0153755555
108	0xbdb9a7d0	-0.09065211
109	0xbdd472aa	-0.10373433
110	0xbcd9f73c	-0.026607148
111	0xbdaf37aa	-0.08555539
112	0x3d26fbfa	0.040767647
113	0xbe05aeb4	-0.13054925
114	0xbe11b2ad	-0.14228316
115	0xbd13c7a0	-0.03607905
116	0xbd938a84	-0.07204154
117	0xbc6b8a74	-0.0143762715
118	0xbdd33211	-0.10312284
119	0x3da6ddfe	0.081478104
120	0x3dccc9d4	0.09999433
121	0xbdb4760d	-0.08811579
122	0xbdadaca9	-0.08480198
123	0xbe0c7f0f	-0.13720344
124	0x3dcb4e13	0.09927001
125	0xbd255088	-0.040360004
126	0x3db2c31f	0.08728623
127	0xbd8e27cd	-0.06941185
128	0xbe013a9c	-0.12620014
129	0x3da95c03	0.08269503
130	0x3da2ae6a	0.07943423
131	0x3d8b215a	0.06793471
132	0xbc117edb	-0.008880342
133	0xbde58031	-0.11206091
134	0xbe140039	-0.1445321
135	0xbc9760bc	-0.018478744
136	0x3d991e9f	0.07476544
137	0xbe0916a4	-0.13387543
138	0x3dbb643e	0.09149979
139	0x3c8cd2b1	0.01719031
140	0x3d934d50	0.071924806
141	0xbd3882b4	-0.045046523
142	0x3dfbec32	0.1230091
143	0x3debf35a	0.11521025
144	0xbd6778c7	-0.056511667
145	0xbe0adec0	-0.13561535
146	0x3d84b076	0.0647897
147	0xbd0b7cfc	-0.03405474
148	0x3cc742c9	0.024323838
149	0x3d581235	0.05275174
150	0xbe255395	-0.16145165
151	0x3da1f1a7	0.0790742
152	0x3da21d5d	0.07915757
153	0xbe15e8e8	-0.14639628
154	0x3d70f245	0.058824796
155	0x3c13491b	0.008989598
156	0x3c2fc590	0.010728255
157	0xbd9a729b	-0.075413905
158	0x3da5619d	0.08075259
159	0x3b571795	0.0032820452
160	0x3c22552b	0.009908001
161	0xbde6477b	-0.112441026
162	0xbdf49602	-0.11942674
163	0xbb2472df	-0.0025092883
164	0x3c73cc16	0.014880201
165	0xbd19fb59	-0.03759322
166	0x3cb10950	0.021610886
167	0x3e083729	0.13302292
168	0xbc13a657	-0.0090118265
169	0xbdbdedcd	-0.092738725
170	0xbd8fbdd8	-0.07018632
171	0xbd887a6a	-0.06663974
172	0xbdf6e4fb	-0.12055393
173	0xbd427c43	-0.047481786
174	0xbdb8b82f	-0.09019505
175	0xbcfc972e	-0.030833807
176	0x3dc9b1de	0.098483786
177	0xbbbd43e4	-0.0057759155
178	0xbda78ca3	-0.08181121
179	0xbe07ce1f	-0.13262223
180	0xbe03a455	-0.12855656
181	0xbc144e0a	-0.009051809
182	0xbdce37f6	-0.100692675
183	0x3db6400f	0.08898937
184	0xbcdce8da	-0.026966501
185	0xbe17255f	-0.1476035
186	0x3da87bce	0.08226739
187	0xbdb264e6	-0.08710651
188	0x3d911867	0.070847325
189	0xbd16e5cb	-0.03684024
190	0x3ce8109a	0.028328229
191	0xbcdd3d23	-0.027006691
192	0x3d5516d5	0.052023727
193	0xbcc24984	-0.023716696
194	0xbd9ba425	-0.075996675
195	0x3d8b99c3	0.06816437
196	0x3dfa281d	0.12214682
197	0xbd37e20b	-0.044893306
198	0xbd363b07	-0.044489887
199	0xbb6743aa	-0.0035288134
200	0x3c97c288	0.018525377
201	0xbdc898f9	-0.09794802
202	0x3dee2f90	0.116301656
203	0x3e038348	0.12843049
204	0x3d9165c2	0.07099487
205	0xbc49b744	-0.01231176
206	0x3e10c2a1	0.14136745
207	0x3d116e81	0.035505775
208	0x3bb0bc5c	0.005393548
209	0x3d0dcb37	0.03461763
210	0x3d914890	0.07093918
211	0xbd512e9a	-0.051069833
212	0x3d1547ba	0.036445357
213	0xbd353b8b	-0.044246238
214	0xbd440394	-0.047854975
215	0x3deffff9	0.11718745
216	0x3e154e0c	0.14580554
217	0xbd671f0e	-0.0564261
218	0x3c5a8a48	0.013338633
219	0xbdbfe3cc	-0.09369621
220	0xbb05affc	-0.0020399084
221	0x3d8f5360	0.069983244
222	0xbd73b86a	-0.059502043
223	0xbd505960	-0.050866485
224	0x3e27fedc	0.16405815
225	0x3d525c12	0.051357336
226	0xbdec14d0	-0.11527407
227	0xbdcb12f0	-0.099157214
228	0xbe0a1fc4	-0.1348868
229	0xbe1215d5	-0.14266141
230	0x3dfe51c6	0.12417941
231	0x3e0d938b	0.13825814
232	0x3d50e0d8	0.050995678
233	0xbc750a33	-0.014956045
234	0xbda05e0b	-0.07830437
235	0x3dfc13f3	0.123084925
236	0x3dc06051	0.09393371
237	0xbe1d6c4a	-0.1537334
238	0xbcbb29ca	-0.022847075
239	0x3c7aa28b	0.015297542
240	0x3c861c69	0.016370969
241	0xbc296cd3	-0.010340887
242	0xbd66ff0f	-0.056395587
243	0xbe2829b5	-0.1642216
244	0x3da99019	0.082794376
245	0x3c56dd81	0.013114334
246	0x3d8fd204	0.07022479
247	0xbd011605	-0.03151514
248	0x3dc0dd9c	0.09417269
249	0xbdbdee75	-0.09273998
250	0xbe11466b	-0.14187019
251	0xbd958236	-0.073002264
252	0x3cbb457d	0.022860283
253	0x3dc3e8bd	0.09565876
254	0xbd56cd43	-0.052441847
255	0xbda26885	-0.07930092

gru.bias_ih_l1 f4 [192]
0	0x3e1a7aac	0.15085858
1	0x3da499f4	0.08037177
2	0xbdc61bd8	-0.096732795
3	0x3ded7493	0.115945004
4	0xbd2fbbb3	-0.042903613
5	0x3e1a980d	0.15097065
6	0xbd11a2ca	-0.03555564
7	0x3da9e24f	0.08295118
8	0x3d02cd54	0.031934097
9	0xbc7364c7	-0.01485557
10	0xbdb93cfc	-0.09044835
11	0x3d9aaee9	0.07552893
12	0x3cf23868	0.029567912
13	0x3d6ab813	0.057304453
14	0xbcf0c74e	-0.02939191
15	0x3d3dd846	0.046348833
16	0x3de0ee91	0.10983003
17	0x3c1757c9	0.009237238
18	0x3e1b28ad	0.15152235
19	0xbd9398de	-0.072068915
20	0x3ce81b97	0.028333468
21	0xbd3bd5cf	-0.0458582
22	0x3cd215cc	0.02564516
23	0x3dc5407c	0.0963144
24	0x3c9de33f	0.019273398
25	0xbd8ce2b4	-0.06879178
26	0x3e19f87a	0.15036193
27	0x3e22b482	0.15889171
28	0xbd677d66	-0.056516074
29	0x3ddbae49	0.10726602
30	0x3d85fa36	0.065418646
31	0x3c73ed15	0.014888068
32	0xbd870a5f	-0.06593775
33	0x3cadbaeb	0.021207293
34	0xbcd8a4d5	-0.026445786
35	0x3c15568c	0.009114873
36	0x3adbcbd9	0.0016769125
37	0xbc380b88	-0.011233218
38	0x3d7314b1	0.059345905
39	0xbd81833e	-0.063238606
40	0xbd29e448	-0.04147747
41	0xbd431638	-0.04762861
42	0x3deb03d8	0.114753425
43	0xbc5bd0c3	-0.013416472
44	0x3d62789a	0.055290796
45	0xbd258594	-0.040410593
46	0x3dad32fb	0.084569894
47	0x3dde474a	0.10853441
48	0x3c0ea9e2	0.008707495
49	0x3e20bd91	0.15697314
50	0x3d2d4384	0.042300716
51	0xbcd4bfd9	-0.025970386
52	0x3d0c3f32	0.034239955
53	0xbc9540a4	-0.0182193
54	0x3e02926b	0.12751167
55	0x3d892a8f	0.066975705
56	0x3ce8e8dd	0.02843135
57	0xbd90395b	-0.0704219
58	0xbdd10ad5	-0.10207144
59	0xbd830ceb	-0.06398948
60	0xbbde774b	-0.006789123
61	0x3c50b201	0.012737752
62	0xbcdbd52d	-0.026835049
63	0x3dab2e08	0.08358389
64	0x3ca8fd19	0.020628499
65	0xbddef38c	-0.10886297
66	0x3d9ba64a	0.076000765
67	0xbd9b23a8	-0.0757516
68	0xbdc0d881	-0.09416295
69	0xbdc5d428	-0.09659606
70	0xbdc6aac3	-0.09700539
71	0xbd9aa5d2	-0.07551159
72	0x3d3d1569	0.046162996
73	0x3c921056	0.017830055
74	0x3d6b3f13	0.0574332
75	0x3dd7b227	0.10532027
76	0xbd1c7fe3	-0.0382079
77	0x3cc6ec3c	0.024282567
78	0x3dc744e3	0.09729936
79	0x3b48f9e8	0.0030666534
80	0x3ce59f67	0.02803011
81	0xbbfb2cf8	-0.007665273
82	0x3c4e2643	0.0125823645
83	0x3e015e24	0.12633568
84	0x3dc52b8c	0.096274465
85	0x39567ecc	0.00020455866
86	0x3dd16ba6	0.102256104
87	0x3d7b1991	0.06130368
88	0xbba24c25	-0.004952925
89	0xbd093cc7	-0.033505227
90	0x3c91c56f	0.017794339
91	0xbdf3d510	-0.11905873
92	0xbdd4e40e	-0.103950605
93	0x3df08c1e	0.11745475
94	0xbc33633e	-0.010948954
95	0xbd3ab3d5	-0.045581657
96	0x3c01c48d	0.0079203965
97	0xbddee896	-0.10884206
98	0x3d4da193	0.050202917
99	0x3caaa986	0.020832788
100	0x3c68b4f1	0.014203296
101	0x3d8d382d	0.0689548
102	0x3d9f9719	0.077924915
103	0xbd7a7891	-0.061150137
104	0x3ad13d43	0.0015963692
105	0xbdf92716	-0.12165658
106	0xbde4a072	-0.11163415
107	0xbddfd4e2	-0.10929276
108	0x3be62ae2	0.007024155
109	0x3cf4ba6f	0.029874055
110	0x3cfcd62e	0.030863848
111	0x3c69a487	0.014260418
112	0xbd038059	-0.032104824
113	0x3d0e9e80	0.034819126
114	0x3caf8d05	0.021429548
115	0xbbf50c30	-0.0074782595
116	0xbd6d047d	-0.05786561
117	0x3d0614e6	0.032734774
118	0xbcde0fe9	-0.027107196
119	0x3d38ec35	0.04514714
120	0xbd58f4e5	-0.052967925
121	0x3b5747f0	0.0032849275
122	0xbe00344f	-0.12519954
123	0xbe04f698	-0.12984693
124	0x3dd785b5	0.105235495
125	0xbdf9eaea	-0.122030094
126	0x3db1b28f	0.086766355
127	0xbdef3f8d	-0.11682043
128	0xbe20ce93	-0.15703802
129	0xbd8665f3	-0.06562414
130	0x3ced3727	0.028956963
131	0xbc862b2f	-0.016378013
132	0x3d57cb8e	0.05268436
133	0x3d537090	0.05162102
134	0xbd2b13aa	-0.0417668
135	0xbde88e8e	-0.11355315
136	0xbd3a73a9	-0.04552046
137	0xbdb1f254	-0.086887985
138	0xbc36638a	-0.01113213
139	0xbd12902c	-0.035782024
140	0x3b44bbd6	0.0030019186
141	0xbd9176a3	-0.07102706
142	0x3e1d2ca0	0.15349054
143	0x3e1032ce	0.1408188
144	0x3d041532	0.032246776
145	0x3ce5862c	0.02801808
146	0x3cabb51a	0.02096038
147	0x3cb3864a	0.02191462
148	0x3cceafa1	0.02523023
149	0xbe051594	-0.12996513
150	0xbd86445d	-0.06556008
151	0x3d247615	0.040151674
152	0x39bdb7b6	0.00036185764
153	0xbc74e618	-0.014947437
154	0x3bea64d5	0.0071531334
155	0x3bd83f7f	0.006599366
156	0xbdb6c5a9	-0.089244194
157	0x3d32f97f	0.04369497
158	0x3c62067b	0.01379549
159	0xbcf2047f	-0.02954316
160	0x3d1cd559	0.0382894
161	0xbe1ed36b	-0.15510337
162	0xbd21dbd2	-0.039516278
163	0xbdc03b9d	-0.0938637
164	0xbe024003	-0.12719731
165	0xbdbd184b	-0.09233149
166	0x3dd36198	0.10321349
167	0xbda20a6f	-0.07912146
168	0xbe033d52	-0.1281636
169	0xbd793590	-0.060842097
170	0xbe04b8e8	-0.12961161
171	0xbcb747ba	-0.02237307
172	0x3d93ee51	0.072231896
173	0x3d218ce7	0.039441016
174	0xbde45ae2	-0.11150147
175	0xbdf641b8	-0.120242536
176	0x3cf7d05e	0.030250724
177	0xbdcfce4a	-0.101467684
178	0xbd2f70f9	-0.04283235
179	0x3ca8b0df	0.020592151
180	0xbd93e8b5	-0.0722212
181	0x3e08ddaf	0.13365816
182	0x3cac51f9	0.021035181
183	0xbc843dc7	-0.016142739
184	0xbd1a75c2	-0.03770996
185	0xbd8573c4	-0.06516221
186	0xbdd3c04d	-0.10339413
187	0xbc371adb	-0.011175836
188	0x3d87a4ef	0.066232555
189	0xbde11aa4	-0.109914094
190	0x3d684739	0.05670855
191	0xbd142d75	-0.036176164

gru.bias_hh_l1 f4 [192]
0	0x3e235774	0.1595133
1	0xbd7e5ae1	-0.062098388
2	0xbdcf41a5	-0.101199426
3	0x3de10a31	0.10988272
4	0x3ca353bc	0.019937389
5	0x3e1304d3	0.14357309
6	0xbd890a3d	-0.06691406
7	0x3c723368	0.014782764
8	0x3dd4bb07	0.10387235
9	0x3c08f422	0.008358987
10	0x3db5c2dd	0.08875058
11	0x3ce3babc	0.027799003
12	0x3b886411	0.0041623195
13	0xbcf55582	-0.029948
14	0xbd89b772	-0.067244425
15	0x3dceaa18	0.100910366
16	0x3bd882be	0.0066073826
17	0xbd633e0e	-0.0554791
18	0x3e21f6c7	0.15816794
19	0x3d85117e	0.06497477
20	0x3d867538	0.065653265
21	0x3dd247ea	0.10267623
22	0xbcc86a98	-0.02446489
23	0xbda5c2f9	-0.08093829
24	0x3e038919	0.12845267
25	0x3d9cd7b7	0.07658332
26	0xbdbfedfc	-0.09371564
27	0xbd64f3d9	-0.055896614
28	0x3c5bd126	0.013416564
29	0x3ca0e734	0.019641496
30	0xbc294c72	-0.010333167
31	0xbda9b6ce	-0.0828682
32	0x3d408cdc	0.047009334
33	0x3caddfee	0.021224942
34	0x3e0aa0dc	0.13537925
35	0x3d04b437	0.03239843
36	0xbca19c0a	-0.019727726
37	0xbcd663bc	-0.026170604
38	0x3c12d268	0.008961298
39	0x3d4426b4	0.047888473
40	0x3df38f56	0.118925735
41	0x3db14972	0.08656587
42	0x3c63865e	0.013887016
43	0xbdafc029	-0.085815735
44	0x3de69ec1	0.11260749
45	0xbc7302c2	-0.0148322005
46	0xbd26a5cf	-0.04068547
47	0x3d6c4f42	0.057692774
48	0x3d1c03f1	0.038089696
49	0x3dbfed2b	0.09371408
50	0x3dc41894	0.095750004
51	0xb9cd5f8c	-0.00039171835
52	0x3e1e8094	0.15478736
53	0x3d8b0f59	0.06790037
54	0xbc5f28fb	-0.01362061
55	0xbd7e08b1	-0.062020008
56	0x3cdc3320	0.026879847
57	0x3e12b4a7	0.14326726
58	0x3c392d2d	0.011302275
59	0x3c968262	0.018372718
60	0xbd8a1f52	-0.06744255
61	0xbd4b4ca4	-0.049633637
62	0x3d59bf90	0.053161204
63	0x3e013e6a	0.12621465
64	0x3d82fb6d	0.06395612
65	0x3ce57a65	0.028012464
66	0x3dac9e6a	0.084286526
67	0x3d276415	0.04086693
68	0x3d425a38	0.04744932
69	0xbd344d00	-0.044018745
70	0x3dc01b17	0.09380167
71	0xbcbdb351	-0.023156794
72	0xbdc42ee0	-0.09579253
73	0x3ce24737	0.027621849
74	0x3d03eb74	0.032206967
75	0x3d3cce27	0.04609504
76	0xbd98b0bf	-0.07455587
77	0xbd10f909	-0.03539375
78	0xbbaa4b94	-0.005196998
79	0x3c91393c	0.017727487
80	0xbdcc9019	-0.09988422
81	0xbde5adf4	-0.112148196
82	0xbcdf8c2c	-0.027288519
83	0x3db8fcf3	0.09032621
84	0xbd53564c	-0.05159597
85	0xbd84fda1	-0.064936884
86	0xbe022cb6	-0.12712368
87	0x3de8b30c	0.113622755
88	0x3dbafd61	0.091303594
89	0xbda86e5e	-0.08224176
90	0xbca27390	-0.019830495
91	0x3d7cf446	0.061756395
92	0xbd140e0c	-0.03614621
93	0x3d91badf	0.07115721
94	0xbd5d84fe	-0.05408191
95	0x3df04f08	0.11733824
96	0x3da8c33b	0.08240362
97	0x3d979218	0.07400912
98	0x3d5173fc	0.051136002
99	0x3dc6d314	0.09708229
100	0x3dcada00	0.099048615
101	0x3ce74572	0.028231356
102	0xbc5ae93f	-0.013361274
103	0x3c46c48d	0.012131822
104	0xbbd20cb2	-0.006410205
105	0x3ce6dd55	0.028181711
106	0x3d300c52	0.0429805
107	0x3dd7e446	0.105415866
108	0x3dc18768	0.09449655
109	0x3d3c15ff	0.045919415
110	0xbd620dbd	-0.055188883
111	0x3d98a4e4	0.074533254
112	0xbdcf57c2	-0.1012416
113	0x3c342a82	0.010996463
114	0x3d6bc29a	0.057558633
115	0xbc63b8d8	-0.013899051
116	0xbcb81068	-0.02246876
117	0x3caf053d	0.021364802
118	0xbd85d4b7	-0.06534713
119	0xbaf29e3d	-0.0018510293
120	0x3d3e6363	0.0464815
121	0xbb1cd7d1	-0.0023932348
122	0x3defa034	0.11700478
123	0x3d1b20b9	0.037873004
124	0x3d9f5a88	0.07780939
125	0xbda811be	-0.08206509
126	0x3d248727	0.040167954
127	0x3dd85273	0.10562601
128	0x3d00d769	0.03145543
129	0xbcba9cc4	-0.02277983
130	0x3c8ac03b	0.016937366
131	0x3e2a9a6a	0.16660467
132	0xbc2c7b15	-0.010527392
133	0x3c7bfc43	0.015379968
134	0xbe0b5c7a	-0.13609496
135	0xbdbbf69e	-0.09177898
136	0xbd325c9a	-0.043545343
137	0xbe11ebc1	-0.14250089
138	0xbca893e3	-0.02057833
139	0x3d181b1a	0.03713522
140	0x3d31dc02	0.043422706
141	0xbd0656d3	-0.032797646
142	0x3e270392	0.16309956
143	0x3d2d9e9b	0.042387586
144	0x3da81103	0.0820637
145	0xbe2347c1	-0.1594534
146	0x3d3acb80	0.04560423
147	0xbc4ed3cb	-0.012623738
148	0xbe0f7bd4	-0.1401208
149	0xbab4dee3	-0.0013799336
150	0xbdbb5ab7	-0.09148162
151	0x3d0f2c40	0.03495431
152	0xbccda3ad	-0.02510246
153	0x3d4349d2	0.047677822
154	0xbdcc2288	-0.09967524
155	0x3cd79de7	0.02632041
156	0xbca9c2f8	-0.020722851
157	0xbdffed7d	-0.12496469
158	0x3c3e4633	0.0116134165
159	0xbda86e3c	-0.082241505
160	0xbcda5336	-0.026651006
161	0x3d60766e	0.054800443
162	0x398d425b	0.00026943054
163	0x3d026372	0.03183312
164	0xbd2d8cb3	-0.04237051
165	0xbd8f4282	-0.06995107
166	0x3dcdf5f8	0.100566804
167	0x3de113fe	0.10990141
168	0x3d7c988a	0.06166891
169	0xbe079a48	-0.13242447
170	0xbe0f54fe	-0.13997266
171	0x3e0f3fce	0.13989183
172	0xbe1efb78	-0.15525615
173	0xbdc207d5	-0.0947415
174	0xbd01fb78	-0.03173396
175	0xbd87eeaa	-0.066373184
176	0xbd8ab9bb	-0.067737065
177	0x3d08ee8b	0.033430617
178	0xbd80aa0b	-0.06282433
179	0x3c6ab672	0.014325725
180	0xbde5afdb	-0.112151824
181	0xbd64a682	-0.055822857
182	0xb9afef7a	-0.00033557025
183	0xbd5e6ea9	-0.054304752
184	0x3cc8fdc8	0.024535075
185	0xbd271663	-0.040792834
186	0x3ca2b694	0.01986245
187	0xbe04bbab	-0.12962215
188	0x3e27efb4	0.16400033
189	0xbd1ca3e6	-0.038242243
190	0xbde1b016	-0.11019914
191	0xbba34ba0	-0.0049833804

conv.weight f4 [1, 64, 1, 1]
0	0xbeb81c06	-0.3595888
1	0xbeda38d1	-0.42621472
2	0xbeda0adc	-0.4258641
3	0x3ecffc2a	0.40622073
4	0x3ef3c7d8	0.47613406
5	0xbec02bbd	-0.3753337
6	0xbee353ef	-0.44399974
7	0xbec94ba9	-0.39315537
8	0x3ee3a5fe	0.4446258
9	0xbee5aca4	-0.44858277
10	0x3ee21923	0.44159803
11	0x3ed6caa5	0.4195148
12	0xbee18075	-0.44043317
13	0xbed1c9c1	-0.4097424
14	0x3eef261c	0.46708763
15	0x3eea8639	0.4580553
16	0x3ef0b10f	0.47010085
17	0xbec18b19	-0.37801436
18	0x3eba7844	0.3641988
19	0xbee2a29e	-0.44264692
20	0xbecdd043	-0.40197954
21	0xbedc98e4	-0.43085396
22	0xbec6ea88	-0.38850808
23	0x3ec9c47c	0.39407718
24	0x3ee9d466	0.4566986
25	0xbedb9193	-0.42884502
26	0xbec133a6	-0.37734717
27	0xbed8cf06	-0.42345446
28	0x3efc3189	0.49256542
29	0xbeb9c651	-0.36284116
30	0x3ef42c93	0.47690257
31	0xbeda3525	-0.4261867
32	0x3ee594c5	0.44840065
33	0xbef431c3	-0.47694215
34	0x3ec3dded	0.38255253
35	0xbec6514a	-0.38733894
36	0xbecaad53	-0.3958536
37	0xbec7fbd2	-0.3905931
38	0x3eca2108	0.39478326
39	0x3efae3ca	0.49001914
40	0xbeb70e9a	-0.35753328
41	0xbebda770	-0.37041807
42	0xbee0e690	-0.43925905
43	0x3ebc5758	0.36785388
44	0xbee95891	-0.45575383
45	0xbee70dfa	-0.4512785
46	0xbee3e35a	-0.44509393
47	0xbebd05f6	-0.3691861
48	0x3eeaaf46	0.45836848
49	0xbeec8547	-0.46195433
50	0xbec27bb7	-0.37985012
51	0xbef30840	-0.47467232
52	0xbefb3ee2	-0.49071413
53	0x3eb3149e	0.34976667
54	0xbec6ff64	-0.38866723
55	0x3eba9f8d	0.36449853
56	0x3ed45f77	0.41479084
57	0xbed7829e	-0.4209184
58	0xbef3fc86	-0.47653598
59	0xbef4435a	-0.47707635
60	0x3ed7b459	0.42129782
61	0xbedeccc6	-0.43515605
62	0xbed67acb	-0.4189056
63	0xbef188e2	-0.47174746
