project/models/GRU/Apple.pth (torch, 57167 bytes, 5 tensors)

gru.weight_ih_l0 f4 [192, 5]
0	0x3dba156c	0.09086117
1	0xbb7d3b80	-0.00386402
2	0xbdcdd4f6	-0.10050385
3	0xbdc1d5e0	-0.094646215
4	0xbcaebd58	-0.02133052
5	0x3c9abba8	0.01888831
6	0xbdc6cf38	-0.097074926
7	0x3ce19110	0.027534992
8	0xbdfe2f78	-0.12411398
9	0xbdb012ac	-0.085973114
10	0xbdbe7814	-0.09300247
11	0xbd3822e0	-0.044955134
12	0x3dbcf6aa	0.09226735
13	0x3c2c0da0	0.010501295
14	0x3d9d04b8	0.07666916
15	0xbdea37e4	-0.114364415
16	0xbd6e843c	-0.058231577
17	0x3dca2e4e	0.09872113
18	0xbd34b2fc	-0.044116005
19	0x3de49b98	0.1116249
20	0xbb8468e0	-0.0040408224
21	0x3c7c4dc0	0.015399396
22	0xbaf49a80	-0.0018661767
23	0x3dfd8970	0.1237973
24	0x3dffeb34	0.12496033
25	0xbdff4f7a	-0.12466331
26	0x3df2bcf2	0.11852445
27	0xbdac980c	-0.08427438
28	0xbdf35326	-0.11881094
29	0x3d10c7f4	0.03534694
30	0x3d8c68e2	0.06855942
31	0x3d36b254	0.04460366
32	0x3dd80e2a	0.105495766
33	0x3cd933d8	0.026513979
34	0x3d36c478	0.04462096
35	0x3d23ce54	0.03999169
36	0xbdfb22e6	-0.12262516
37	0xbc436070	-0.011924848
38	0x3d83df92	0.06439127
39	0xbd8e6de0	-0.06954551
40	0xbdd18f06	-0.10232358
41	0xbc4546e0	-0.012040824
42	0xbc9d35d0	-0.019190699
43	0xbb836540	-0.0040098727
44	0x3b17e3c0	0.002317652
45	0x3df4cb78	0.11952871
46	0x3daa5bb2	0.08318271
47	0xbce84150	-0.028351456
48	0x3d0b4b7c	0.034007534
49	0xbdec4404	-0.115364105
50	0x3d2ce010	0.04220587
51	0x3df3d536	0.11905901
52	0xbd8aa80a	-0.06770332
53	0xbdc007f6	-0.093765184
54	0xbda38088	-0.079835
55	0x3df1b3e0	0.118018866
56	0xbdc6c2aa	-0.09705098
57	0xbcf52b90	-0.029927999
58	0x3d9b688c	0.075883
59	0xbd294658	-0.04132685
60	0x3db2a37a	0.08722587
61	0xbb431c00	-0.0029771328
62	0x3db5b2e4	0.08872011
63	0xbdc4c57e	-0.09607981
64	0xbdcdb01e	-0.10043357
65	0x3debded8	0.115171134
66	0x3d7e60d4	0.06210406
67	0xbd817178	-0.063204706
68	0x3dbb2c56	0.09139316
69	0x3dcfc99a	0.10145874
70	0xbdc84404	-0.09778598
71	0x3ceb0688	0.028689638
72	0xbde9616c	-0.11395535
73	0x3d8e1b8a	0.069388464
74	0xbdcf971a	-0.10136242
75	0x3d4e3cb4	0.05035086
76	0xbcde42a0	-0.027131379
77	0x3d9489f8	0.07252878
78	0x3da09cc8	0.07842404
79	0xbdc2668a	-0.09492214
80	0xbdea89f0	-0.11452091
81	0xbce751e8	-0.028237298
82	0xbce71ae8	-0.028211072
83	0x3c502e60	0.012706369
84	0x3da2b286	0.07944207
85	0x3db6580a	0.08903511
86	0xbb600b40	-0.0034186393
87	0x3dc11ade	0.09428953
88	0x3dd760fe	0.10516547
89	0x3dbe4a0e	0.092914686
90	0xbd5be6e4	-0.05368699
91	0xbd1df74c	-0.03856592
92	0xbda9ad24	-0.08284977
93	0xbcd5e618	-0.026110694
94	0xbd81737a	-0.063208535
95	0xbde6b1ac	-0.11264357
96	0xbd097c7c	-0.033565983
97	0xbde5fc26	-0.11229734
98	0x3ce354c8	0.027750388
99	0xbc0766a0	-0.008264214
100	0x3df044b2	0.117318526
101	0xbda42c7a	-0.08016296
102	0x3c8e7128	0.017387941
103	0x3c7a4540	0.0152753
104	0xbb929840	-0.004473716
105	0xbdca28cc	-0.09871063
106	0xbd7fda8c	-0.062464282
107	0x3d9edd5e	0.07757066
108	0x3cfd6b60	0.03093499
109	0x3d021738	0.031760424
110	0xbdc85f82	-0.09783842
111	0x3dace988	0.0844298
112	0x3d382bb0	0.04496354
113	0xbd5cb998	-0.053887933
114	0xbd5cd694	-0.053915575
115	0x3c83cbb0	0.016088337
116	0xbc7c0a70	-0.015383348
117	0x3bc73700	0.0060795546
118	0x3d1fa9d0	0.038980305
119	0x3dcd55f4	0.1002616
120	0xbd02e198	-0.031953424
121	0x3d782e40	0.060590982
122	0xbdb60660	-0.08887935
123	0x3dcf6106	0.101259276
124	0xbdddc378	-0.10828298
125	0xbda6aa2c	-0.081379265
126	0xbc85f4f0	-0.016352147
127	0x3dbae16a	0.091250256
128	0xbd4fb2e4	-0.050707713
129	0xbd753e04	-0.059873596
130	0x3dac40e8	0.084108174
131	0xbd91761c	-0.07102606
132	0xbd14dc1c	-0.036342725
133	0xbc6e0eb0	-0.014529869
134	0xbd94cd2a	-0.072656944
135	0xbd3ba4a0	-0.045811296
136	0xbda83d7a	-0.08214851
137	0x3df71060	0.1206367
138	0x3d4866b8	0.048926085
139	0x3d501774	0.050803617
140	0x3dcc2cd8	0.09969491
141	0xbd4f8a9c	-0.050669298
142	0xbd3c2b0c	-0.04593949
143	0xbc22b750	-0.0099314
144	0x3dc26ac2	0.09493019
145	0xbcdda530	-0.027056307
146	0xbd89d49e	-0.06730007
147	0x3d96149a	0.07328148
148	0x3dd3c0ec	0.10339531
149	0xbd8ce146	-0.06878905
150	0xbcbad740	-0.022807717
151	0x3d0344c0	0.032047987
152	0x3cc69cb0	0.024244636
153	0xbd0050a8	-0.03132692
154	0xbdb6db5a	-0.08928557
155	0x3cfac238	0.030610189
156	0xbddb1086	-0.10696511
157	0xbdbdb2a6	-0.0926259
158	0xbd9e9dba	-0.07744928
159	0xba564100	-0.0008173138
160	0xbd4ae9f4	-0.04953952
161	0xbd466bc4	-0.048442617
162	0x3dd9b084	0.10629371
163	0x3def6a8a	0.116902426
164	0xbd396c04	-0.045269027
165	0xbd966d4a	-0.07345064
166	0x3cb17b30	0.021665186
167	0x3b9f3580	0.0048586726
168	0x3cd14eb0	0.025550216
169	0xbd8071a4	-0.06271675
170	0x3d54e1d0	0.051973164
171	0xbdebe88a	-0.11518963
172	0x3dc72c80	0.097252846
173	0xbda759b8	-0.08171409
174	0x3dcb76c6	0.099347636
175	0x3ba312c0	0.0049766004
176	0x3d8dccc4	0.069238216
177	0x3dc6012c	0.09668192
178	0x3dbea856	0.09309451
179	0x3db030a0	0.086030245
180	0x3d77c50c	0.060490653
181	0xbc449510	-0.01199843
182	0x3ca7bd58	0.020476028
183	0x3da8c3fc	0.08240506
184	0xbdafab1c	-0.085775584
185	0xbd272294	-0.04080446
186	0x3d74fc38	0.059810847
187	0x3dc82818	0.09773272
188	0xbd150eb4	-0.036390975
189	0x3c2a79b0	0.010404989
190	0xbc9eac08	-0.01936914
191	0x3d51008c	0.051025912
192	0x3dc043dc	0.09387943
193	0xbdc8b8ce	-0.09800874
194	0xbdc750d0	-0.09732211
195	0x3d8b084c	0.06788692
196	0x3a34f000	0.0006902218
197	0x3d0b8358	0.034060806
198	0x3d373150	0.044724762
199	0x3d9746de	0.07386564
200	0x3c0202d0	0.007935241
201	0x3d8b0de6	0.0678976
202	0x3c0d1d50	0.008612946
203	0xbddc1bfa	-0.107475236
204	0xbd18e75c	-0.037330016
205	0xbc81b190	-0.015831739
206	0xbdc474e6	-0.09592609
207	0x3da566b2	0.08076228
208	0x3da34e6c	0.07973942
209	0x3d8b734a	0.06809099
210	0x3d95df66	0.073180005
211	0x3ddb5bf6	0.107108995
212	0x3d85222c	0.065006584
213	0xbde2e304	-0.11078456
214	0x3de0972a	0.10966332
215	0xbda7ab50	-0.08186972
216	0xbc5e2250	-0.013557985
217	0x3c68d450	0.0142107755
218	0x3d02afbc	0.031905875
219	0x3dbdabe6	0.09261303
220	0x3dab7796	0.083724186
221	0x3d5bb17c	0.05363606
222	0xbdd789fe	-0.10524367
223	0x3df2ede8	0.11861783
224	0xbc567360	-0.013089031
225	0x3dd4fcce	0.10399781
226	0xbca81518	-0.02051787
227	0x3d83515c	0.064120024
228	0xbdc1c41a	-0.094612315
229	0x3df1c726	0.11805563
230	0x3dc987c2	0.09840347
231	0xbd431c90	-0.04763466
232	0xbdfe685c	-0.12422249
233	0x3de1b364	0.11020544
234	0x3d684f74	0.056716397
235	0xbd890b0e	-0.06691562
236	0x3dfed802	0.12443544
237	0xbd3593c0	-0.04433036
238	0x3d67e4c4	0.056614652
239	0x3dc29e6e	0.09502874
240	0x3ded3cb8	0.11583847
241	0x3d6ca55c	0.057774886
242	0xbd848c6a	-0.06472094
243	0xbdf96b86	-0.121787116
244	0x3cf6baf8	0.03011845
245	0xbd48071c	-0.048834905
246	0x3db6b68c	0.08921537
247	0x3ccc10b0	0.024910301
248	0x3df669c2	0.120318905
249	0x3bd1e020	0.0064048916
250	0xbcdf9048	-0.027290478
251	0xbbefcba0	-0.007317975
252	0xbd943104	-0.072359115
253	0xbd071728	-0.032981068
254	0xbc9ec148	-0.019379273
255	0x3de36bb4	0.11104527

gru.weight_hh_l0 f4 [192, 64]
0	0x3ddad312	0.1068479
1	0x3c61c690	0.013780251
2	0xbdf156aa	-0.11784108
3	0x3d9251f0	0.071445346
4	0xbdccd460	-0.10001445
5	0x3b090980	0.0020910203
6	0x3dfc63be	0.12323712
7	0x3d9eb46c	0.077492565
8	0xbda44800	-0.080215454
9	0xbd47ba6c	-0.04876177
10	0xbce47298	-0.027886674
11	0xbd28d0cc	-0.04121475
12	0xbd96f3e8	-0.0737074
13	0xbdec9e88	-0.11553675
14	0x3d845a16	0.06462495
15	0x3d4996c8	0.04921606
16	0x3daf6a88	0.08565241
17	0xbd59f3e8	-0.053211123
18	0x3d2c43d4	0.042056873
19	0xbbdb5500	-0.0066934824
20	0x3dc433f4	0.09580222
21	0xbd2bbeac	-0.041929886
22	0x3c4fed20	0.012690812
23	0xbd1ec19c	-0.03875886
24	0xbdd0c030	-0.10192907
25	0x3dd847d4	0.10560575
26	0xbdcd0b64	-0.10011938
27	0x3d6e8fc8	0.05824259
28	0xbdd3e414	-0.10346237
29	0x3ca2c760	0.01987046
30	0xbdd1d35a	-0.1024539
31	0x3cb340f8	0.021881565
32	0x3d07801c	0.03308116
33	0x3d80b9ce	0.062854394
34	0x3d91bf04	0.071165115
35	0x3d7a1684	0.06105663
36	0xbdfebbc0	-0.12438154
37	0xbdc68bb6	-0.096946165
38	0x3cd88cd8	0.026434347
39	0xbc3ffa90	-0.011717454
40	0x3d9f04a8	0.0776456
41	0x3de76b96	0.11299817
42	0x3d037d40	0.03210187
43	0x3ce90c98	0.028448388
44	0xbcbf7a28	-0.023373678
45	0x3dd5c736	0.10438387
46	0xbdf482d0	-0.11939013
47	0x3d8751d0	0.06607401
48	0xbcb5eaa0	-0.022206604
49	0xbde96618	-0.11396426
50	0xbd33a86c	-0.04386179
51	0x3d91c8de	0.071183905
52	0x3d3096c4	0.04311253
53	0x3d31cf98	0.043410867
54	0x3d080f24	0.033217564
55	0xbc7a24b0	-0.015267536
56	0x3de0f1dc	0.10983631
57	0xbd07318c	-0.033006236
58	0xbd8508dc	-0.064958304
59	0x3cc45778	0.02396749
60	0x3d13f7c0	0.036124945
61	0xbc94f0d0	-0.018181235
62	0x3d138358	0.03601393
63	0x3d47cc94	0.048779085
64	0xbcb3bda0	-0.021941006
65	0xbdb91cf4	-0.090387255
66	0xbd2c212c	-0.042023823
67	0x3d6d345c	0.057911262
68	0x3caa08d8	0.02075617
69	0x3dd7761c	0.105205745
70	0xba638b00	-0.00086800754
71	0x3d55465c	0.052069053
72	0xbdd2575c	-0.10270569
73	0x3d14c0a4	0.03631653
74	0xbdeb22cc	-0.11481246
75	0x3df78894	0.12086597
76	0x3db7eadc	0.08980343
77	0xbddadc10	-0.10686505
78	0xbd81d1a6	-0.063388154
79	0xbd86e364	-0.0658634
80	0x3dc33aea	0.09532721
81	0xbdf85da8	-0.121272385
82	0xbdcf07ba	-0.101088956
83	0x3d7b2164	0.06131114
84	0xbd2e66b4	-0.042578414
85	0x3de34f46	0.110991046
86	0x3d9e23ac	0.077216476
87	0xbc66ff90	-0.014099017
88	0xbd1b41d4	-0.037904575
89	0x3d608ec8	0.054823667
90	0x3dc30bb8	0.095237195
91	0xbdc89960	-0.09794879
92	0x3d665c94	0.056240633
93	0x3d9a7f52	0.07543816
94	0x3d80c61c	0.06287786
95	0xbd344b10	-0.044016898
96	0xbbab7d80	-0.0052334666
97	0x3da2a3d4	0.07941404
98	0xbc407460	-0.011746496
99	0xbd86a6d6	-0.0657479
100	0xbd80651a	-0.062692836
101	0x3dca3f2a	0.09875329
102	0x3d420e58	0.04737696
103	0xbc2e17d0	-0.0106257945
104	0xbd9010e0	-0.07034469
105	0x3d97558c	0.07389364
106	0xbc82cfa0	-0.015968144
107	0x3cc70b30	0.024297327
108	0x3dbf8a7a	0.09352584
109	0xbdbdb42e	-0.09262882
110	0xbcf692a0	-0.030099213
111	0xbdaacfec	-0.08340439
112	0x3dac85d4	0.08423963
113	0xbda4a3a4	-0.080390245
114	0x3ddf91b0	0.109164596
115	0x3d8337ae	0.064071044
116	0xbb91cb20	-0.004449263
117	0xba568d00	-0.0008184463
118	0x3df28b38	0.1184296
119	0xbdee6da2	-0.116420045
120	0x3dd21a6a	0.10258944
121	0xbdbd0868	-0.09230119
122	0x3da99710	0.08280766
123	0x3da16356	0.07880275
124	0xbba336a0	-0.004980877
125	0x3d3e7da4	0.04650654
126	0x3da96908	0.08271986
127	0x3d933cf8	0.07189363
128	0x3c992328	0.018693522
129	0x3ca9b2d8	0.020715162
130	0xbd822490	-0.0635463
131	0x3d4ce7ec	0.050025865
132	0xbd228dd4	-0.03968604
133	0xbda6259c	-0.08112642
134	0x3d8f3276	0.069920465
135	0x3d35ea18	0.044412702
136	0x3dfbab2e	0.12288509
137	0xbd2a6d80	-0.041608334
138	0xbafa8800	-0.0019114017
139	0xbdb5158e	-0.08842002
140	0x3d1d3220	0.03837788
141	0x3d14506c	0.03620951
142	0x3d98b0f6	0.074556276
143	0x3dd855ca	0.10563238
144	0xbd722300	-0.05911541
145	0xbdabf66a	-0.08396609
146	0xbd37fc5c	-0.044918403
147	0x3c7caa10	0.015421405
148	0x3df52dba	0.11971612
149	0x3dfbdd46	0.12298064
150	0xbdccb962	-0.099962965
151	0xbdce26ae	-0.10065971
152	0xbd939624	-0.072063714
153	0xbd5546d0	-0.052069485
154	0xbd29dc6c	-0.041469976
155	0xbdd66032	-0.104675665
156	0x3df33ea8	0.11877185
157	0xbbfaa1e0	-0.0076486915
158	0x3d5e9878	0.054344624
159	0x3dc57742	0.09641887
160	0xbb5b0e80	-0.003342539
161	0xbb4699c0	-0.0030304044
162	0x3c768340	0.015045941
163	0x3cf07498	0.029352471
164	0x3dc1cf24	0.09463337
165	0xbd6f9dcc	-0.058500096
166	0x3df1feac	0.11816153
167	0x3d875570	0.06608093
168	0xbdfe6a2e	-0.12422596
169	0xbdba482e	-0.090957984
170	0x3dec0900	0.11525154
171	0x3d9c657a	0.076365426
172	0x3dc5106a	0.09622271
173	0xbde23920	-0.11046052
174	0x3caf25d0	0.021380335
175	0xbd4a1d2c	-0.049344227
176	0x3dbea862	0.0930946
177	0xbdccdf32	-0.100035086
178	0xbd84dacc	-0.06487045
179	0x3cdf1bf0	0.027235001
180	0xbd6ebb50	-0.058284104
181	0xbc9b8840	-0.018985868
182	0xbdb5c4c4	-0.08875421
183	0xbc1fb900	-0.009748697
184	0x3db7999c	0.089648455
185	0xbd692b2c	-0.056925938
186	0x3dd2de52	0.102963105
187	0x3c4af170	0.012386665
188	0xbdab88e6	-0.08375721
189	0x3d90ecec	0.07076439
190	0x3d6c07ac	0.057624504
191	0xbd4e0254	-0.05029519
192	0xbd4c3c64	-0.04986228
193	0xbd5dbecc	-0.054137036
194	0x3d83af4c	0.064299196
195	0x3def77a8	0.116927445
196	0xbd1012f8	-0.03517434
197	0x3da5d60c	0.08097467
198	0x3c4a25b0	0.012338087
199	0x3d42b27c	0.047533497
200	0x3d4ae588	0.049535304
201	0xbddea6f6	-0.10871689
202	0x3d117778	0.035514325
203	0x3d4fde14	0.0507489
204	0xbd371488	-0.044697315
205	0x3bc80520	0.0061041266
206	0xbccfab18	-0.025350139
207	0x3cce89d8	0.025212213
208	0x3a9d0200	0.0011978745
209	0xbdcf7382	-0.10129453
210	0xbdf63468	-0.120217144
211	0x3d2e9784	0.042624965
212	0xbdfa1ff8	-0.12213129
213	0x3d376584	0.044774547
214	0xbdf0fe28	-0.117672265
215	0x3d56ea88	0.05246976
216	0xbdbf8810	-0.09352124
217	0xbdde08fe	-0.10841559
218	0xbde19e84	-0.110165626
219	0xbbcba440	-0.0062146485
220	0xbd305abc	-0.04305528
221	0x3d302698	0.043005556
222	0x3c580860	0.0131855905
223	0x3d722458	0.05911669
224	0xbd8b23b8	-0.06793922
225	0xbd067758	-0.03282866
226	0xbd1ec978	-0.038766354
227	0xbdf8d66c	-0.12150273
228	0x3d8e36b8	0.069440305
229	0x3df192f0	0.11795604
230	0xbd25354c	-0.04033403
231	0xbd6d5fb8	-0.057952613
232	0x3c82b4b8	0.015955314
233	0x3dd31c44	0.103081256
234	0x3d983cd2	0.074334756
235	0xbd583704	-0.052786842
236	0x3dc34922	0.09535433
237	0xbd933a54	-0.071888596
238	0xbdac30ec	-0.084077686
239	0xbc91cd70	-0.017798156
240	0x3df6c46e	0.12049185
241	0x3def3304	0.11679652
242	0xbd37d6c4	-0.04488255
243	0xbcbccb90	-0.023046285
244	0x3d7c4754	0.06159146
245	0xbd95c99e	-0.07313846
246	0x3d41dd3c	0.047330126
247	0x3ccda820	0.025104582
248	0xbdee4f0e	-0.11636172
249	0x3d4b1a88	0.04958585
250	0xba02aa00	-0.00049844384
251	0x3cc4b170	0.02401039
252	0xbd8af1d0	-0.06784403
253	0xbdc2e8ce	-0.0951706
254	0xbd9199c2	-0.07109405
255	0xbd3c1580	-0.04591894

gru.bias_ih_l0 f4 [192]
0	0xbdb910fa	-0.09036441
1	0xbbf46760	-0.0074586123
2	0xbd405884	-0.046959415
3	0xbdac4e5a	-0.08413382
4	0x3dc62cde	0.096765265
5	0x3d092020	0.033477902
6	0xbca10150	-0.019653946
7	0xbdfe4312	-0.124151364
8	0xbdf8f220	-0.12155557
9	0x3de3feb6	0.11132567
10	0xbc97efb0	-0.01854691
11	0x3d2f9784	0.042869106
12	0xbd7d0f84	-0.061782375
13	0x3b9b60e0	0.004741773
14	0xbdebaeee	-0.115079746
15	0x3c18dd60	0.009330124
16	0x3dc22c8a	0.094811514
17	0xbdc2a406	-0.09503941
18	0xbd2f7410	-0.042835295
19	0xbde6ce44	-0.11269811
20	0x3d0a180c	0.03371434
21	0xbc55d140	-0.013050377
22	0x3dac75c0	0.084208965
23	0xbc2f4740	-0.01069814
24	0xbcedc088	-0.02902247
25	0x3ce10020	0.02746588
26	0x3dcd9ed0	0.10040057
27	0x3dbefeae	0.0932592
28	0x3dccbce6	0.09996967
29	0x3d8ef854	0.069809586
30	0xbd297324	-0.041369572
31	0x3db09cac	0.08623633
32	0xbddef6e0	-0.108869314
33	0x3dcec51c	0.100961894
34	0x3c96e658	0.018420383
35	0x3d1d482c	0.038398907
36	0xbd46949c	-0.04848157
37	0xbd826502	-0.06366922
38	0x3d83f694	0.064435154
39	0x3d5881f8	0.052858323
40	0xbc0c9b40	-0.008581936
41	0x3d84acda	0.06478281
42	0x3d49f8e4	0.049309626
43	0x3db66112	0.089052334
44	0x3da8ec0e	0.08248149
45	0x3c9e45d0	0.019320399
46	0xbc97f968	-0.018551543
47	0xbc001dc0	-0.007819593
48	0xbd26178c	-0.0405498
49	0x3da3077c	0.07960412
50	0xbc8b61b8	-0.01701437
51	0xbd111910	-0.035424292
52	0x3dc0be1c	0.094112605
53	0xbd8f3862	-0.06993176
54	0xbdfc4c74	-0.1231927
55	0x3c316df0	0.010829434
56	0x3dc5acb4	0.09652081
57	0xbdbba7a4	-0.09162834
58	0xbcbe0950	-0.0231978
59	0x3de709fc	0.11281201
60	0xbcc8c3c8	-0.024507418
61	0x3ccb3f98	0.024810597
62	0x3c59a650	0.013284281
63	0xbc3b2e60	-0.011424631
64	0xbc6e8ea0	-0.014560372
65	0x3af95b80	0.0019024462
66	0x3dc3abfe	0.09554289
67	0x3cddc588	0.02707173
68	0x3c7cb740	0.01542455
69	0x3d5c1aac	0.053736374
70	0xbd51f704	-0.051260963
71	0xbd2bd41c	-0.04195033
72	0xbc9f09b0	-0.019413799
73	0x3b43cb00	0.0029875636
74	0xbc944de8	-0.018103555
75	0x3cf716c8	0.03016223
76	0xbcaaa8a0	-0.02083236
77	0xbbaa11c0	-0.0051901042
78	0x3d95296a	0.0728329
79	0x3da4e50a	0.08051498
80	0xbda89bce	-0.082328424
81	0x3da0fd10	0.07860768
82	0xbcc51b48	-0.02406086
83	0xbd6d1388	-0.057879955
84	0x3d909cac	0.07061133
85	0x3d899b42	0.06719066
86	0xbdcb55c2	-0.099284664
87	0x3d9dccbc	0.077050656
88	0x3d0a577c	0.033774838
89	0xbde71daa	-0.11284955
90	0xbde8f32a	-0.11374505
91	0xbd8524de	-0.065011725
92	0x3bd72560	0.0065657347
93	0xbd559880	-0.05214739
94	0xbd8af9ec	-0.0678595
95	0x3d378488	0.044804126
96	0x3db592fc	0.08865926
97	0xbc09e1e0	-0.008415669
98	0x3d322ed4	0.04350169
99	0x3d36f004	0.04466249
100	0x3deccfc8	0.11563069
101	0xbdc18d90	-0.09450829
102	0x3d34ea64	0.044168845
103	0x3dc1f4a4	0.094704896
104	0x3dac14e0	0.08402419
105	0x3cef82f0	0.02923724
106	0xbcba7f40	-0.022765756
107	0xbdf0df92	-0.11761393
108	0xbdc4f7b4	-0.09617558
109	0xbdc141d4	-0.09436384
110	0x3de595dc	0.11210224
111	0xbd2b4364	-0.041812316
112	0x3dd05c7e	0.101738915
113	0xbc6691f0	-0.01407288
114	0x3d6a4b00	0.05720043
115	0xbd9ffef2	-0.07812299
116	0x3c9d70a0	0.019218743
117	0x3c431a50	0.011908129
118	0x3de14652	0.10999741
119	0x3dd44902	0.10365488
120	0x3c7aec30	0.015315101
121	0x3da504e4	0.080575734
122	0xbc4a27f0	-0.012338623
123	0xbd1a7618	-0.03771028
124	0xba8d1900	-0.0010764897
125	0x3d60fb98	0.05492744
126	0x3d2c02d8	0.0419949
127	0x3d8cae18	0.06869143
128	0x3df19fee	0.11798082
129	0xbd209b5c	-0.039210662
130	0x3d6e82e0	0.05823028
131	0x3df5932e	0.11990963
132	0xbd9e63de	-0.07733892
133	0x3de70e24	0.11281994
134	0x3da1b83a	0.078964666
135	0x3d9d9e00	0.07696152
136	0x3de7baae	0.11314903
137	0x3d930b90	0.0717994
138	0x3d7501ec	0.059816286
139	0xbd21fadc	-0.03954588
140	0xbda55b26	-0.08074026
141	0x3d80069c	0.06251261
142	0x3dada3bc	0.084784955
143	0x3dc952fa	0.0983028
144	0xbd4556e8	-0.048178583
145	0x3bad5c20	0.005290523
146	0x3d528a8c	0.05140166
147	0xbc326900	-0.010889292
148	0x3dc5778c	0.096419424
149	0x3d371f0c	0.044707343
150	0x3c050310	0.008118406
151	0x3dfd0790	0.12354958
152	0xbdcf88dc	-0.10133526
153	0xbdc9c2c6	-0.09851603
154	0x3d0e50ac	0.034744903
155	0xbdf4528e	-0.119298086
156	0x3d66c298	0.056337923
157	0x3a717200	0.0009210408
158	0xbbadb400	-0.0053009987
159	0x3d46979c	0.04848443
160	0xbdf32d1a	-0.11873837
161	0x3de3c850	0.11122191
162	0x3d5b250c	0.053502128
163	0xbd4328c0	-0.047646284
164	0x3dc30ac4	0.09523538
165	0xbd8ab818	-0.06773394
166	0x3b41c6c0	0.0029567927
167	0x3ddfca30	0.10927236
168	0xbcd6a9b0	-0.02620396
169	0xbd1ef018	-0.03880319
170	0x3ba7ec00	0.005124569
171	0xbd9f06f8	-0.07765001
172	0xbdb6b2be	-0.08920811
173	0x3df05932	0.11735763
174	0x3dafc1c6	0.08581881
175	0xbdcf65bc	-0.10126826
176	0x3cbbcb40	0.022924066
177	0xbdcdb4fa	-0.10044284
178	0xbd49ac34	-0.04923649
179	0x3cdbb7f8	0.026821122
180	0xbd98d14c	-0.07461795
181	0x3d73b344	0.059497133
182	0xbda2203c	-0.079163045
183	0x3c87a4a8	0.016558006
184	0xbadf2780	-0.0017025322
185	0x3d31afdc	0.043380603
186	0xbd0156b8	-0.031576842
187	0xbdc0f428	-0.09421569
188	0x3deab9c6	0.11461215
189	0xbd2bf9cc	-0.04198627
190	0x3dea5d4c	0.11443576
191	0xbdef3262	-0.11679532

gru.bias_hh_l0 f4 [192]
0	0x3df5be5c	0.11999199
1	0xbd4fa5d4	-0.050695255
2	0x3d77b520	0.06047547
3	0xbd26c37c	-0.040713772
4	0x3de7054e	0.11280309
5	0xbcc16240	-0.02360642
6	0xbd58416c	-0.052796766
7	0xbcc4a488	-0.024004236
8	0xbcb964d8	-0.022631094
9	0xbdca0430	-0.0986408
10	0xbdf71f4a	-0.12066515
11	0x3de1a664	0.110180646
12	0x3d3c3dd0	0.045957386
13	0x3dcfd2b0	0.10147607
14	0x3db32ff8	0.08749384
15	0x3c8bd420	0.017068923
16	0x3d843054	0.0645453
17	0xbdcb8d78	-0.099390924
18	0x3bc78b40	0.006089598
19	0xbdabd490	-0.083901525
20	0x3d2de594	0.04245527
21	0x3da1c45c	0.07898781
22	0x3d4fd198	0.050736994
23	0xbdd5f410	-0.10446942
24	0x3d16e524	0.03683962
25	0xbcca9148	-0.024727479
26	0xbd9b108c	-0.075715154
27	0xbb56a680	-0.003275305
28	0xbd4adae8	-0.04952517
29	0x3df1c504	0.11805156
30	0xbdacc644	-0.08436254
31	0xbac29200	-0.0014844537
32	0x3c7fd310	0.015614286
33	0xbdcde938	-0.100542486
34	0xba053500	-0.0005081445
35	0x3d4e2190	0.050324976
36	0x3d5a68a4	0.05332245
37	0x3d545c40	0.05184579
38	0x3d0e8b44	0.034800783
39	0xbda789ec	-0.081806034
40	0x3df03c2a	0.117302254
41	0xbcda9480	-0.026682138
42	0x3ca2fcc0	0.019895911
43	0x3d9cfb66	0.07665138
44	0xbdd914d0	-0.10599673
45	0x3dd3fc5c	0.10350868
46	0xbb8b9c80	-0.0042605996
47	0xbdfbcb2e	-0.12294613
48	0x3c8c7220	0.017144263
49	0xbd247d08	-0.0401583
50	0xbc87f848	-0.016597882
51	0xbdca6b94	-0.098838
52	0x3cd808f8	0.026371464
53	0x3c05e020	0.008171111
54	0xbd19f4e4	-0.03758706
55	0x3d39e58c	0.04538493
56	0x3df43c7e	0.119256005
57	0xbd101704	-0.0351782
58	0x3dbd271e	0.09235977
59	0xbb4074c0	-0.0029366463
60	0x3de14702	0.10999872
61	0x3df4312c	0.11923441
62	0xbcb91af0	-0.022595853
63	0x3ba13e20	0.004920736
64	0xbc646ad0	-0.013941482
65	0x3dda8e24	0.106716424
66	0x3dcb30f4	0.099214464
67	0xbd7b98f4	-0.061425164
68	0xba896f80	-0.00104855
69	0xbdf9ac16	-0.12191026
70	0xbd8939d6	-0.067004845
71	0xbc8609c0	-0.016362071
72	0xbdaa6c2e	-0.08321415
73	0x3c41b630	0.011823222
74	0xbdc50ef4	-0.09621993
75	0x3d81acc4	0.063317806
76	0xbddbe2e2	-0.10736634
77	0xbdee53d0	-0.1163708
78	0xbd8e1938	-0.06938404
79	0x3dd492b2	0.103795424
80	0xbd74362c	-0.059621975
81	0xbd84b022	-0.06478907
82	0xbd4dc128	-0.050233036
83	0x3dd15fc6	0.102233455
84	0x3df2aaa6	0.11848955
85	0xbdf23bda	-0.11827822
86	0xbcf34820	-0.029697478
87	0xbc633a60	-0.013868898
88	0x3c467af0	0.0121142715
89	0x3d402674	0.04691167
90	0xbd78f280	-0.06077814
91	0x3d0d5508	0.03450492
92	0xbda3a09a	-0.07989617
93	0x3dc626ca	0.09675367
94	0xbd9d1550	-0.07670081
95	0x3ced50a8	0.028969124
96	0xbd067278	-0.03282401
97	0xbd333930	-0.04375571
98	0xbdda5170	-0.10660064
99	0xbdaca89c	-0.08430597
100	0xbd9b1914	-0.07573143
101	0x3dc6bbd8	0.09703797
102	0x3cc38678	0.02386783
103	0x3df144b4	0.11780682
104	0xbd944900	-0.07240486
105	0xbd2bc518	-0.04193601
106	0xbd2f54d8	-0.042805523
107	0x3caad230	0.020852178
108	0xbda8a304	-0.08234218
109	0xbb9cb4c0	-0.0047822893
110	0xbdbaf1f6	-0.09128182
111	0xbd800322	-0.062505975
112	0xbb054540	-0.0020335466
113	0xbd806582	-0.06269361
114	0xbd3258a4	-0.043541566
115	0x3d0b5af0	0.03402227
116	0x3cf31b08	0.029675975
117	0x3d98102c	0.074249595
118	0xbdf50aa2	-0.11964919
119	0x3bcd0e80	0.006257832
120	0xbc734480	-0.014847875
121	0x3d641228	0.055681378
122	0xbda3eecc	-0.08004531
123	0x3d56555c	0.0523275
124	0xbdbe2650	-0.09284651
125	0x3ce90ad8	0.028447554
126	0xbdd270aa	-0.10275395
127	0x3d4ba764	0.049720183
128	0x3d797270	0.06090015
129	0xbdcba3ee	-0.099433765
130	0x3c6bd2d0	0.014393523
131	0x3da8254a	0.08210237
132	0xbd3839b8	-0.04497692
133	0xbb9a3360	-0.0047058314
134	0x3daacbb6	0.08339636
135	0x3da315a4	0.07963112
136	0xbd36c388	-0.044620067
137	0xbd7eb2e4	-0.062182322
138	0x3c8b7530	0.017023653
139	0xbdb9181e	-0.09037803
140	0x3df4698c	0.11934194
141	0xbd5bbcac	-0.05364673
142	0x3dc8b408	0.09799963
143	0x3d6452fc	0.055743203
144	0x3c255610	0.01009132
145	0xbcf699a0	-0.030102551
146	0x3d96ff7c	0.073729485
147	0x3c3877f0	0.011259064
148	0xbdc6188e	-0.09672652
149	0x3d3e335c	0.0464357
150	0x3d1f44f8	0.038884133
151	0xbdcd1698	-0.10014075
152	0xbdf10cc8	-0.11770016
153	0x3ddc0a18	0.10744113
154	0xbdc8e0a6	-0.09808473
155	0xbd930190	-0.071780324
156	0xbcebb8b0	-0.02877459
157	0x3d95338a	0.07285221
158	0x3da1071e	0.078626856
159	0x3d40a140	0.04702878
160	0xbdb4eb4c	-0.08833942
161	0x3b517100	0.0031958222
162	0xbdca2ae0	-0.09871459
163	0xbddf5906	-0.10905652
164	0xbdc4ddd0	-0.0961262
165	0xbde99c94	-0.11406818
166	0xbd5fb0ec	-0.054612085
167	0xbde776a6	-0.11301927
168	0xbb87e9c0	-0.004147738
169	0xbd3472e8	-0.044054896
170	0x3d0c813c	0.034302935
171	0xbdf5eaae	-0.12007652
172	0x3d8bbad4	0.06822744
173	0x3c9920f8	0.018692479
174	0x3d8d22e6	0.06891422
175	0xbdad5330	-0.084631324
176	0x3db5ff64	0.088866025
177	0x3deefb1e	0.116689906
178	0x3d07db48	0.033168107
179	0xbd8648b6	-0.06556837
180	0xbdf7e496	-0.12104146
181	0x3d7a45e0	0.061101794
182	0xbd951dc8	-0.07281071
183	0x3d9865e8	0.07441312
184	0x3d90bc74	0.070671946
185	0x3daa9262	0.083287016
186	0x3dbfec8a	0.09371288
187	0xbb400780	-0.0029301345
188	0xbd91e8d0	-0.071244836
189	0xbba9b340	-0.005178839
190	0x3d107cd8	0.03527531
191	0x3d325ab0	0.043543518

head.1.weight f4 [1, 64, 1]
0	0x3da116e2	0.07865693
1	0x3e8469ce	0.25861973
2	0xbd6fc7c4	-0.05854012
3	0x3e6b7c8a	0.22996727
4	0xbdf65da2	-0.12029578
5	0xbde301e8	-0.11084348
6	0x3dd71122	0.10501315
7	0xbd6c250c	-0.05765252
8	0x3e8d0b10	0.27547503
9	0x3df63b80	0.120230675
10	0x3de5713e	0.1120324
11	0xbd35f780	-0.044425488
12	0xbd9a4a94	-0.07533756
13	0xbc4d8d10	-0.012545839
14	0x3dddf9e2	0.10838677
15	0xbd5c3414	-0.053760603
16	0x3e52003f	0.20507906
17	0x3d89d6dd	0.06730435
18	0x3c7ed8d0	0.015554622
19	0xbd81568c	-0.06315336
20	0xbd688810	-0.056770384
21	0x3e81e054	0.2536646
22	0x3db85e92	0.09002413
23	0x3ddac0ce	0.10681306
24	0xbdaba650	-0.08381331
25	0xbd83b90a	-0.06431778
26	0x3d567eec	0.052367136
27	0x3c4a5f50	0.012351826
28	0x3daa16e0	0.08305144
29	0x3e9cd013	0.30627498
30	0xbde086e0	-0.10963225
31	0xbb5fb3c0	-0.003413424
32	0x3e04211e	0.12903258
33	0x3e0ff52c	0.1405837
34	0xbd92d8dc	-0.07170269
35	0xbd3012e8	-0.04298678
36	0x3dfb0432	0.122566596
37	0x3e5eb569	0.2174889
38	0xbd8fc8c6	-0.07020716
39	0xbd0b74ac	-0.034046814
40	0x3d9f0712	0.077650204
41	0x3dec6412	0.115425244
42	0x3de96839	0.11396832
43	0xbdb9d09c	-0.09072992
44	0x3d9fa11c	0.07794401
45	0x3dee8214	0.11645904
46	0xbda8ed4a	-0.08248384
47	0xbdb99cee	-0.09063135
48	0x3d8c4708	0.06849486
49	0x3e9cde2b	0.3063825
50	0x3e1e305f	0.1544814
51	0x3e836111	0.25659993
52	0xbd3a51e4	-0.045488253
53	0xbb55b040	-0.0032606274
54	0xbdd87ff6	-0.105712816
55	0x3e169766	0.14706191
56	0xbc7ba890	-0.015360013
57	0x3dfbb76c	0.12290844
58	0xbdc1d68e	-0.09464751
59	0x3e74f9bc	0.23923391
60	0xbc0c8110	-0.008575693
61	0x3d9da0c6	0.07696681
62	0xbd83bc6e	-0.064324245
63	0x3df7c771	0.12098587
