project/models/GRU/NASDAQ.pth (torch, 158069 bytes, 9 tensors)

gru.weight_ih_l0 f4 [192, 5]
000000 74 c1 b8 bd 68 9e d9 bd 4c 1a 03 bd 24 66 2d 3d
       -0.09021273 -0.10625917 -0.0320075 0.042333737
000010 60 82 f9 3c 60 e7 e5 bd 30 25 4f bd c0 00 6b 3b
       0.030457675 -0.11225772 -0.050572574 0.0035858601
000020 94 73 24 bd 84 f3 7d bd 00 b2 d3 3d 4a c2 f3 bd
       -0.040149286 -0.061999813 0.10336685 -0.11902292
000030 ca d3 c8 bd 4c 39 f4 bd d8 16 4a 3d ae aa fc bd
       -0.098060206 -0.11924991 0.04933819 -0.12337242
000040 20 e6 b6 3d 4c e7 5c bd 20 a8 6d bd ee 04 f4 3d
       0.089306116 -0.05393152 -0.058021665 0.11915003
000050 b0 7f 40 bc 1c 4a a8 bd e4 ec 3c bd 80 3a 52 bc
       -0.011749193 -0.0821726 -0.046124354 -0.01283133
000060 80 2c b5 3b b0 88 8b 3d 00 e4 81 3d 90 80 7b bc
       0.0055289865 0.068131804 0.06342316 -0.015350476
000070 d4 70 54 bd a8 fa e9 bc 7c 26 e3 bd 20 9b 4e bc
       -0.051865414 -0.028561905 -0.11091325 -0.012610227
000080 b8 5a 25 3d 08 c9 bf 3c 58 17 97 bd e0 f3 5a 3d
       0.04036972 0.023411289 -0.07377499 0.053455234
000090 5c 1b a7 3d e4 08 ea bd cc bf 3d 3d 00 8e af 3b
       0.08159515 -0.11427477 0.04632549 0.005357504
0000a0 9c db 47 3d f8 43 85 bc 00 20 b4 b9 14 94 5c bd
       0.04879342 -0.016267762 -0.00034356117 -0.053852156
0000b0 74 a0 a7 bd 20 46 e5 3d 30 e4 87 bd c0 a5 1e 3c
       -0.08184901 0.11195016 -0.0663532 0.009683073
0000c0 9a 2f dc 3d e2 31 f7 bd 9c 46 4c 3d 94 25 db bd
       0.10751267 -0.12070061 0.049872026 -0.10700527
0000d0 04 03 c0 3d 80 4d 62 3d b2 55 b9 3d b4 12 1a bd
       0.09375575 0.05524969 0.09049548 -0.037615493
0000e0 18 2c ad 3c a0 71 9d 3c a8 b3 97 bd 18 48 cd bc
       0.02113919 0.01921922 -0.074073136 -0.025058791
0000f0 20 12 64 bd 54 83 c5 bd e8 77 a8 bc c0 d1 d3 bd
       -0.055681348 -0.096441895 -0.020564988 -0.10342741
000100 06 71 c0 bd 98 d8 e7 bc 54 dc ef 3d e0 04 6d 3c
       -0.093965575 -0.028301522 0.11711946 0.014466494
000110 20 89 f5 3d a2 70 c3 bd 3c 65 82 3d ae 6c b2 bd
       0.11989045 -0.095429674 0.06366965 -0.08712135
000120 38 4c 1e bd 30 e7 13 3c 86 b6 d1 bd 80 dc 7e bc
       -0.038646907 0.009027287 -0.10239892 -0.015555501
000130 50 8b bf bc 0c a4 3b bd 58 68 c3 3c 98 35 f9 3c
       -0.023381859 -0.045810744 0.023853466 0.030421063
000140 c0 7f 0a bb 0a 04 ae 3d 48 36 a9 3c 56 e7 d2 3d
       -0.0021133274 0.08496864 0.020655766 0.1029803
000150 a0 10 e2 bb 3c 93 46 bd 7e 16 b1 3d e4 90 9a bd
       -0.0068989545 -0.048480257 0.08646868 -0.07547167
000160 58 dc bf bd 0a 8a ed 3d b2 ff cc bd 9c 85 b6 bd
       -0.09368199 0.115985945 -0.100097075 -0.08912203
000170 08 82 b8 bd b2 4a 8c 3d 78 15 7e bd 40 a5 82 3d
       -0.090091765 0.068501845 -0.062032193 0.06379175
000180 0c 5b 2f 3d 08 ff 00 3d fc b6 82 3d 96 3d f0 bd
       0.04281144 0.031493217 0.06382558 -0.117304966
000190 d0 d7 69 bd 80 08 9c 3c 42 50 e4 3d 24 40 c1 bd
       -0.05709058 0.019047022 0.111481205 -0.09436062
0001a0 e0 4c 72 3c e0 99 88 3c 9c 85 28 3d d8 98 f1 bc
       0.014788836 0.016674936 0.041143045 -0.029491827
0001b0 58 cb b4 3d 78 fb 41 bd 20 e1 3d 3d a2 25 c8 3d
       0.08827847 -0.04735896 0.046357274 0.09772803
0001c0 78 76 aa 3c 9e 7a fd 3d a6 43 e5 bd e8 ef b4 bc
       0.020808443 0.12376903 -0.111945435 -0.022087052
0001d0 f6 50 f3 bd 6c a7 6d 3d 20 ce e4 3b 1e e6 c2 3d
       -0.118806764 0.058020994 0.00698258 0.095165476
0001e0 06 63 f0 bd 5e 63 f1 3d 08 70 ad 3c 98 c3 d7 bd
       -0.11737637 0.11786531 0.021171585 -0.105353534
0001f0 c6 7c d4 bd 7c 47 f1 3d a0 9d 0c 3c b4 e2 dd bd
       -0.10375361 0.11781213 0.008582503 -0.10834256
000200 fc dc 2b 3d 30 c3 61 3c 40 0a 8b 3c e0 35 d8 3c
       0.041958794 0.0137794465 0.016972661 0.026392877
000210 c4 47 6b bd d8 71 d9 3c 60 37 1f bc 0a 9d 98 bd
       -0.057441488 0.026543543 -0.009717792 -0.07451828
000220 9c b3 2b bd 48 fc 3a bd 90 8d 10 3d fc 2f bb 3d
       -0.041919336 -0.04565075 0.035291255 0.09140012
000230 f8 ee 3c bd 70 df ae bc ec 7c 40 bd a8 a2 4e 3d
       -0.046126336 -0.021346778 -0.046994135 0.05044809
000240 de 9b a5 3d 3c b6 87 bd 9a 95 cf bd 28 2f ac 3d
       0.0808637 -0.06626555 -0.10135956 0.08407432
000250 38 8d b8 3d 14 27 93 3d d8 a9 80 bd 90 ff 8a 3d
       0.0901131 0.07185188 -0.06282395 0.06787026
000260 d4 20 4f bd f6 48 ec bd 54 5f a1 3d 14 82 f6 3d
       -0.050568417 -0.11537354 0.078795105 0.12036529
000270 64 59 c6 3d b0 9a e4 bc 90 99 af 3d b0 fc d7 bc
       0.09685019 -0.027905792 0.085742116 -0.026365608
000280 58 fc c1 bd 1e d0 eb 3d 44 93 54 3d 60 90 eb 3b
       -0.09471959 0.115143046 0.051898256 0.0071888417
000290 f0 1c 7b 3c 54 87 14 bd 4e b5 d0 bd f8 36 ec bc
       0.015326723 -0.03626187 -0.10190831 -0.028834805
0002a0 90 eb 83 bd 16 d7 f3 3d 8a aa 86 bd 64 a9 77 bd
       -0.06441414 0.11906259 -0.065754965 -0.060464278
0002b0 b2 6e 82 bd aa 06 e9 3d 8c 8b 97 bd 50 90 60 bd
       -0.0636877 0.11378224 -0.07399663 -0.054825127
0002c0 48 1a 07 bd 64 35 29 bd 9c fe cc bd f0 7f 08 3d
       -0.032984048 -0.041310683 -0.100095004 0.033325136
0002d0 8e 74 b4 3d 3a 64 8b bd f8 5d a8 bc 3c a2 20 bd
       0.088112935 -0.06806226 -0.02055262 -0.03921722
0002e0 40 d1 66 3b f8 e8 c3 bd b0 c6 7a 3c b2 55 96 3d
       0.0035219938 -0.0956592 0.01530616 0.07340564
0002f0 4e 9b c7 3d 78 17 cb 3d 1c 81 3d 3d f4 5f 5d 3d
       0.09746419 0.09916586 0.046265706 0.054046586
000300 d8 95 85 bd 58 ea 1f 3d 94 54 d1 bd c0 6f 6e bd
       -0.06522721 0.039041847 -0.1022121 -0.05821204
000310 c4 b5 9e bd b6 49 c7 3d aa 3c cb 3d 98 0a 8f 3c
       -0.07749513 0.09730856 0.0992368 0.017461106
000320 98 28 66 bd ce 92 eb bd 12 02 9e 3d 32 ca f6 bd
       -0.056191057 -0.1150261 0.07715239 -0.120502844
000330 08 a9 2f bd f4 b0 0a 3d 68 31 9d bc 18 af ec bd
       -0.04288581 0.033860162 -0.019188598 -0.11556834
000340 20 8b d6 bc 40 b8 9d bc 30 58 7b bc b8 91 0a bd
       -0.026189387 -0.019252896 -0.01534085 -0.033830374
000350 d8 96 70 bd e8 c9 bd bd f0 78 53 bc 00 07 00 bb
       -0.058737606 -0.09267026 -0.012907252 -0.0019535422
000360 a0 f1 0d 3d 1e 11 e3 3d 5e 54 bc bd 5c 65 a4 bd
       0.03465426 0.11087249 -0.09195779 -0.08027145
000370 04 0c cb 3d b8 74 e2 bd 30 7f f0 bd 1c c7 fb bd
       0.09914401 -0.110574186 -0.11743009 -0.122938365
000380 e4 1e 6c 3d bc 51 93 bd 9c 42 ca 3d e0 bd 6e 3c
       0.057646647 -0.07193324 0.09875986 0.014571637
000390 c0 a6 2d 3d 4a 37 f3 bd 50 97 f2 3d 6a 35 ed bd
       0.042395353 -0.1187578 0.11845267 -0.115824535
0003a0 76 d4 ea 3d 98 93 35 3d 64 4c a4 bd 30 8c 43 3c
       0.11466305 0.04433021 -0.08022383 0.011935279
0003b0 54 a7 83 3d 18 ad 8a 3d cc 23 a8 bd e6 82 ca 3d
       0.064284 0.06771296 -0.08209953 0.09888248
0003c0 e0 73 55 3c 54 1f c7 3d d6 29 db bd a0 ee 48 3c
       0.013028115 0.09722772 -0.10701339 0.012263924
0003d0 94 07 62 3d 4a 5e c8 bd 0c c0 b0 bd 8c f6 98 bd
       0.05518301 -0.09783609 -0.0863038 -0.074689
0003e0 ec d6 57 3d 30 b8 28 3c ac 40 a6 3d 02 8e a9 3d
       0.0526952 0.01029782 0.08117804 0.08279039
0003f0 18 80 d6 bd 00 8a 19 3b 5c d3 42 3d 58 66 5d bd
       -0.10473651 0.0023428202 0.04756485 -0.05405268

gru.weight_hh_l0 f4 [192, 64]
000000 00 d0 75 3d 28 2b cd bc 04 78 aa bd f8 fb fa bc
       0.060012817 -0.025044993 -0.083236724 -0.030637726
000010 88 d0 d1 3c 40 fa ef bb 64 6c c5 bd 60 c3 07 bd
       0.02561213 -0.0073235333 -0.096398145 -0.03314531
000020 68 2e c5 bd a2 ab e9 bd 44 d7 ad 3d a0 1d 45 bd
       -0.09627992 -0.114096895 0.08488324 -0.048123956
000030 80 3e 70 bc 78 69 84 bd 66 8e ca 3d f8 f7 b0 bd
       -0.014663339 -0.06465429 0.098904416 -0.08641046
000040 e8 df 7f 3d 48 7d c6 bc f0 ca 1f 3c 00 30 25 bd
       0.062469393 -0.02422966 0.009752974 -0.04032898
000050 08 f2 a0 bc 64 c3 5c bd b0 5f e5 bc 7c 05 70 3d
       -0.01964666 -0.053897277 -0.027999729 0.05859898
000060 e0 49 3e bd 70 97 ab 3c a6 94 a9 3d 58 4b b2 3c
       -0.04645717 0.020946234 0.082803056 0.021764442
000070 fc 79 b0 3d 98 ef cc 3d 4a c9 ad 3d 7a 3d bd 3d
       0.08617017 0.100066364 0.084856585 0.09240241
000080 94 5c c6 3d 20 c7 26 bc 38 67 cc 3c d2 24 b6 3d
       0.096856266 -0.010179311 0.024951562 0.08893742
000090 dc 60 ea 3d f0 43 4d 3d 80 e4 05 3b 4e 54 ca 3d
       0.11444256 0.05011362 0.0020430386 0.09879361
0000a0 14 b0 c6 3d 20 ca e6 bd 06 2e d9 3d 82 a2 a6 bd
       0.09701553 -0.11269021 0.106044814 -0.08136465
0000b0 82 df a8 bd 2a 81 fb bd 3c ef 9c bd 2e e8 a5 3d
       -0.08245756 -0.122804955 -0.07662818 0.081009254
0000c0 90 66 5e bd c8 7a c9 3d bc 94 c5 bd d6 93 e9 3d
       -0.05429703 0.09837872 -0.096475095 0.114051506
0000d0 08 fd ac 3d 2e d7 94 3d 40 89 68 bb cc e8 ea bd
       0.084466994 0.07267605 -0.0035482198 -0.11470184
0000e0 f2 42 81 3d f6 7f ab 3d 3e cb d8 3d ca 3a 81 3d
       0.06311597 0.08374016 0.1058564 0.06310041
0000f0 d2 b9 cc 3d d8 65 24 3d da b6 f4 3d c8 44 41 3d
       0.0999638 0.04013619 0.11948939 0.047184736
000100 10 50 dc 3d 00 cf 43 3c 66 e4 af 3d a0 bd a0 3b
       0.10757458 0.011951208 0.085884854 0.0049054176
000110 f0 0b 8a bc 3e 0d ae 3d 80 c7 4b 3c 48 3a da bc
       -0.016851395 0.084986195 0.012437701 -0.026639119
000120 7c 14 53 bd 58 43 8e 3d 5c a6 27 bd b8 cc 87 3c
       -0.051533207 0.069464386 -0.040930137 0.01657711
000130 70 8f 47 bd c6 7b e0 3d b0 61 2a 3d 78 dc 84 3d
       -0.048720777 0.10961108 0.04159707 0.064873636
000140 14 72 c8 bd 00 b2 4a bc 76 1d d0 bd 44 ee 3d bd
       -0.09787384 -0.01237154 -0.10161869 -0.046369806
000150 28 ef 23 bd bc 8b a6 3d 0c 27 6b 3d c6 46 f6 3d
       -0.040023 0.08132121 0.057410285 0.12025218
000160 32 92 df 3d 48 05 b0 bc 0e d8 da bd 40 f5 04 3b
       0.109165564 -0.021486893 -0.106857404 0.0020287782
000170 12 5c b6 3d f8 f2 01 bd 5c bf f3 3d b4 00 6b 3d
       0.0890428 -0.031725854 0.11901733 0.057373717
000180 78 d4 98 bd f8 7f fa bc 5c 3f 22 bd 50 92 e3 bd
       -0.074624 -0.030578598 -0.039611205 -0.11111891
000190 e8 39 91 bc 9c 18 1f 3d 26 ec 9c bd 74 52 66 bd
       -0.017727807 0.03884183 -0.07662229 -0.056230977
0001a0 42 a2 d4 bd 70 a5 7f 3c 78 de a7 3d fc f8 99 bd
       -0.10382511 0.015603408 0.081967294 -0.07518193
0001b0 4c c6 e9 3d a8 7a bb bc 84 ff 54 bd 52 ef 9c bd
       0.11414775 -0.022885635 -0.05200149 -0.07662834
0001c0 d0 0a dc bd f2 57 93 3d 04 c5 cd bd 2c a9 7c 3d
       -0.1074425 0.071945086 -0.100473434 0.061684772
0001d0 d2 69 f9 3d f8 3f 1c 3d 5e 24 b5 bd 08 b8 f3 3d
       0.12178387 0.038146943 -0.08844827 0.119003356
0001e0 58 a2 8b 3d 88 03 5f 3d 24 87 8f 3d a8 73 67 3d
       0.06818074 0.054446727 0.07008198 0.056506783
0001f0 00 39 5f 3c 2a d6 a6 3d 00 61 ac bb 88 43 2f bd
       0.01362443 0.08146317 -0.0052605867 -0.042789012
000200 34 e1 a5 3d 20 7b 1e 3c 9c 6e 4f bd 40 91 f1 3d
       0.08099595 0.00967291 -0.050642595 0.11795282
000210 80 ca 58 3b da 1f 87 3d 60 b9 e5 3d ae 89 e5 bd
       0.0033079684 0.06597872 0.11216998 -0.11207901
000220 b4 d6 a4 3d 02 c9 82 3d e4 f6 05 3d c0 b6 20 bb
       0.08048764 0.063859954 0.032706156 -0.002452299
000230 50 0a c8 3c 8a d5 c1 bd 38 32 a0 3d 86 6b f4 3d
       0.02441898 -0.094645575 0.078220785 0.11934571
000240 00 ce 20 3d 68 0c 02 3d d4 1e 41 bd cc 1a 72 bd
       0.039258957 0.031750113 -0.04714854 -0.059107587
000250 f6 8a ea bd 78 23 9f bd b8 ba 04 3d 50 22 b2 3d
       -0.11452286 -0.07770437 0.03240463 0.08697951
000260 cc aa 69 bd 72 43 f1 3d 84 a7 5e 3d f0 fb b9 bc
       -0.05704765 0.11780442 0.054358974 -0.022703141
000270 0c ab 5b bd 50 99 de 3c c0 00 96 bb c6 07 87 bd
       -0.05362992 0.027172714 -0.004577726 -0.065932795
000280 fc 73 24 bd be 7e f3 bd e0 32 c2 bb 1c e8 73 3d
       -0.040149674 -0.118894085 -0.005926475 0.05954753
000290 20 b5 39 bd 1c da 2c 3d a8 54 06 3d e4 97 04 bd
       -0.04533875 0.042200193 0.03279558 -0.032371417
0002a0 d4 dc 5d bd 46 c5 f6 3d c2 9a d4 bd 3c da 8c bd
       -0.054165676 0.12049346 -0.1038108 -0.068775624
0002b0 9c f0 3b bd 52 68 81 bd 78 15 df bc 5c 7a 60 3d
       -0.04588376 -0.06318726 -0.027231917 0.05480419
0002c0 5a d8 e5 3d 14 1c 09 3d 00 4c 8a bc 2c f7 a5 bd
       0.112229064 0.033474043 -0.016881943 -0.08103785
0002d0 08 07 bc bd c8 7b 77 bd fc 00 3a 3d f4 6f 3f bd
       -0.091810286 -0.06042078 0.045411095 -0.046737626
0002e0 40 f7 94 3c 84 34 a4 bd 98 a1 e6 3d a8 c7 89 3c
       0.018184304 -0.08017829 0.1126129 0.016818836
0002f0 e6 f6 ff 3d 2e e5 99 bd 88 b4 a4 bd d4 d2 93 3d
       0.12498264 -0.07514416 -0.08042246 0.07217947
000300 d4 13 85 3d c0 5d 38 3b f4 af a0 3d 5e be e7 3d
       0.064979225 0.0028132051 0.078460604 0.113156065
000310 80 dc 44 bd 60 95 e9 bc 9a 7d b9 bd 30 d6 01 bc
       -0.048061848 -0.02851361 -0.0905716 -0.007924601
000320 24 e7 ad 3d 94 0e ec 3d a6 cc df bd 08 4c 58 3d
       0.08491352 0.11526218 -0.109277055 0.052806884
000330 1c 68 b2 bd 02 68 a0 bd bc fb 5f bd 12 59 f6 bd
       -0.087112635 -0.07832338 -0.054683432 -0.120287076
000340 a4 95 e4 bd 08 94 f4 bd 40 13 91 bc 34 22 9c bd
       -0.11161354 -0.11942297 -0.017709374 -0.07623711
000350 20 15 40 bc b8 0b 81 bc b0 25 97 3d 58 af d7 3d
       -0.011723787 -0.015752658 0.07380235 0.10531491
000360 86 68 aa 3d ba 2f ea 3d 00 82 f8 bb 00 54 ab 3b
       0.083207175 0.11434884 -0.0075838566 0.0052285194
000370 8c 9c fb bd c0 ce d2 bc 08 0c 00 bd 30 a4 d4 3c
       -0.12285718 -0.025733352 -0.031261474 0.025957197
000380 ac 9b be bd 60 72 5f 3c a8 56 8e bc 2e df d2 bd
       -0.09307036 0.013638109 -0.017375305 -0.102964744
000390 24 33 9a 3d d8 8e b7 3d b4 5f 32 3d 68 0d b9 3c
       0.075292856 0.08962792 0.0435483 0.0225894
0003a0 56 d8 b8 3d 88 a3 fd bd b0 83 3e 3c 5e a3 ad 3d
       0.09025638 -0.12384707 0.011628076 0.084784254
0003b0 00 22 0d 3c 80 28 56 bb 96 a7 ac bd 5c c5 ad 3d
       0.008614063 -0.0032677948 -0.08430402 0.08484909
0003c0 e6 a1 ff bd f8 93 6d 3d a8 68 ca bc b0 a6 5a bc
       -0.124820516 0.058002442 -0.024708107 -0.013345405
0003d0 20 63 23 bc c0 75 06 bc a0 e8 4b bd 54 87 cf 3d
       -0.009972364 -0.008206785 -0.049782395 0.10133234
0003e0 68 7e e2 3c 98 86 bf 3d 86 2e f3 bd d8 57 7d bd
       0.027648166 0.093518436 -0.11874108 -0.061851352
0003f0 f0 db e0 bd e0 e2 70 bd 8e e8 b7 bd 92 f6 92 bd
       -0.1097945 -0.058810115 -0.08979903 -0.07175936

gru.bias_ih_l0 f4 [192]
000000 d0 f0 20 bc 9a c3 dd 3d e0 ca 9b bc f8 92 ac 3d
       -0.009823039 0.10828324 -0.019017637 0.084264696
000010 50 6f 79 3c 98 eb c4 bc 5e 6c b7 bd 30 7b 34 3d
       0.015224293 -0.024038121 -0.08956216 0.044062793
000020 66 09 c8 3d 78 1e db bd b8 54 83 bc 74 99 cf 3d
       0.097674176 -0.10699171 -0.016031608 0.10136691
000030 62 2b 90 bd 60 cc 8e bd 88 5d 74 3d 4c 95 bb bd
       -0.070395246 -0.06972575 0.05965951 -0.091593355
000040 a4 a9 fb 3d 7c 9b 79 3d 1a 6b b1 3d a8 30 b7 bc
       0.12288216 0.060939297 0.08663006 -0.022362068
000050 ea 79 ca bd a6 7c 85 bd 24 29 aa bd 40 2b ee bc
       -0.098865345 -0.065179154 -0.08308628 -0.029073358
000060 be bb af 3d f2 0d b9 3d 68 d0 7f bd b0 9e 56 bc
       0.08580731 0.09035863 -0.06245461 -0.0130993575
000070 74 ba ee 3d e0 a3 af 3c f0 72 02 3d 86 1b 84 bd
       0.11656657 0.021440446 0.031847894 -0.06450562
000080 38 af 5d 3d 00 3f f8 bc 0e f2 9b 3d 26 06 ff 3d
       0.05412218 -0.030303478 0.07614528 0.124523446
000090 b8 46 2a 3d fe 40 c3 bd 00 f1 48 bb f6 7f 89 bd
       0.04157135 -0.09533881 -0.0030661225 -0.0671386
0000a0 44 a4 d0 3d 34 59 fb 3d 5c ec 07 3d b0 bb 26 bd
       0.10187581 0.122728735 0.033184394 -0.040706336
0000b0 b0 b7 69 bd 64 ef 06 bd 40 47 61 bc ec aa ad bd
       -0.057059944 -0.032943144 -0.0137498975 -0.084798664
0000c0 e4 b6 e6 3d c0 10 34 bb d0 b9 13 bc 36 48 ec 3d
       0.11265352 -0.0027475804 -0.009016469 0.11537211
0000d0 da 4e e7 bd 14 25 69 bd 30 d8 ca bd b0 42 30 bc
       -0.112943366 -0.056920126 -0.09904516 -0.010758087
0000e0 4c 50 fd bd 70 96 3d 3d 90 f8 82 bd 84 02 10 3d
       -0.12368831 0.046286047 -0.06395066 0.03515865
0000f0 8c c1 65 3d b4 3e f0 3d 78 65 45 3d 5c 87 ff 3d
       0.056092784 0.1173071 0.04819247 0.124769896
000100 62 bf e0 3d a4 65 01 3d 06 10 99 3d 80 05 6d 3d
       0.109740034 0.031591073 0.07473759 0.057866573
000110 b8 89 aa bc b0 d5 09 bc 30 39 7a bd 80 e8 b5 3c
       -0.020817623 -0.0084127635 -0.061089694 0.022205591
000120 1c c0 51 3d b0 89 fe bc b4 a8 f2 bd d0 53 63 bd
       0.0512086 -0.031071514 -0.11848584 -0.05549985
000130 0c c1 77 3d 04 e2 2a 3d a8 e8 cc bd 52 2e 96 3d
       0.06048684 0.04171945 -0.10005313 0.07333054
000140 b6 0a fc 3d 88 c0 b4 bc 48 6d e1 3d b4 04 35 3d
       0.123067304 -0.022064462 0.11007172 0.04419394
000150 18 ed d8 3d 70 90 22 bd 8c 47 d4 3d 5c 5d 8f 3d
       0.10592097 -0.039688528 0.10365209 0.07000229
000160 14 19 6b bd 2c 0d 3d bd f0 b3 97 3c 30 39 7e bd
       -0.057396963 -0.04615514 0.018518418 -0.062066257
000170 34 69 f9 3d 32 1a c1 3d f8 48 e4 bd 7a 99 c5 3d
       0.12178269 0.094288245 -0.1114673 0.09648414
000180 ba 0e bd 3d a0 41 bf bd 40 1f d7 3c e0 92 f6 bc
       0.092313245 -0.09338689 0.026260018 -0.030099332
000190 d2 00 d2 bd bc 8a bb bd c6 c6 e2 3d 60 a4 d3 bb
       -0.10254063 -0.09157321 0.11073069 -0.006458804
0001a0 40 fb df 3d b6 db 81 bd b8 e3 b7 3c d0 4d 94 bc
       0.10936594 -0.06340735 0.022447452 -0.01810351
0001b0 ec 18 f7 3d b0 c4 fa bd 50 9d f1 3c 6c de d3 bd
       0.120653 -0.122445464 0.029493958 -0.10345158
0001c0 68 e8 73 3d 98 c1 15 bd aa 6d f3 3d 50 a5 6b bc
       0.05954781 -0.03656158 0.11886151 -0.014382675
0001d0 b0 5b bc 3d 08 bd ec 3c e2 56 92 3d 34 61 a4 bd
       0.091971755 0.02889873 0.07145478 -0.080263525
0001e0 60 aa ef 3b c6 8f bf bd 14 c1 70 3d 9c 7d 1c 3d
       0.0073140115 -0.093535945 0.058777884 0.038205728
0001f0 28 5b 8b 3c ee 0f f2 bd 34 40 37 bd 08 f9 68 bd
       0.01701124 -0.118194446 -0.044738963 -0.05687812
000200 7a 60 d7 3d 94 46 ab 3d 30 5f ea bd ac 4b 0c bd
       0.10516448 0.08363071 -0.11443937 -0.034251854
000210 20 b8 09 3c a0 b4 f9 bb c0 9b f5 3b f8 a4 d9 3c
       0.008405715 -0.007620409 0.0074953735 0.026567921
000220 42 41 e1 3d 7e b1 b0 3d ba ab c4 bd 40 1e e7 3b
       0.10998775 0.08627604 -0.09603067 0.0070531666
000230 94 1d 53 bd ca 4e bb 3d 88 b9 d8 3c 18 e1 70 3d
       -0.05154188 0.09145887 0.026455656 0.058808416
000240 c4 d3 5f bd 98 82 fb 3c b4 85 55 3d 78 6e 7f bd
       -0.054645315 0.03070192 0.052129462 -0.06236121
000250 c0 eb c1 3b 68 62 4c 3d e8 d1 56 3d f0 b5 7b 3d
       0.005917996 0.049898535 0.052446276 0.061452806
000260 4c c7 54 bd bc 8a 9c 3d b0 78 93 3c 30 34 04 3d
       -0.051947877 0.07643649 0.018001884 0.032276332
000270 0c 9f 3c 3d 30 63 eb bd 38 a0 1e 3d d4 e5 8f 3d
       0.046050116 -0.11493528 0.038727015 0.07026258
000280 08 66 91 bd 2c 8f 5b bd 24 6a b7 bd b0 01 e9 bd
       -0.07099539 -0.053603336 -0.089557916 -0.11377275
000290 c0 16 f7 bc 96 da 85 bd 28 4b 82 3c 98 c9 74 bd
       -0.030162215 -0.065358326 0.015904978 -0.059762567
0002a0 1c be 05 bd c4 23 f6 3d 08 54 c1 bd 16 2c a6 bd
       -0.032652006 0.120185405 -0.09439856 -0.081138775
0002b0 a0 db 27 3c e0 48 e1 bc 10 31 d7 bc d4 90 24 3d
       0.010245234 -0.02750057 -0.026268512 0.04017718
0002c0 1c 71 66 3d 18 cf 88 bc b0 9f cd bc f0 3e 55 3c
       0.056260213 -0.016700312 -0.025100559 0.013015494
0002d0 60 06 97 bd a4 52 e3 3d 20 23 66 3d d4 76 88 3d
       -0.07374263 0.11099747 0.05618584 0.0666329
0002e0 bc 46 6e 3d 00 cb 91 ba b0 d7 c9 bc f6 55 b2 bd
       0.058172926 -0.0011123121 -0.02463898 -0.08707802
0002f0 98 75 d1 3d 48 f1 b4 bd c4 53 3d bd 00 5f eb bb
       0.10227507 -0.08835083 -0.046222463 -0.0071829557

gru.bias_hh_l0 f4 [192]
000000 10 f0 de bd ac 67 d3 bd 1a 32 89 bd 88 7c a1 3c
       -0.10885632 -0.10322508 -0.06699009 0.019712701
000010 9a b7 96 bd 6a 98 f1 bd 48 0b c3 bc 78 7a bc 3c
       -0.07359238 -0.11796649 -0.02380909 0.023007616
000020 c0 a8 3b 3c 20 28 c8 3c 40 83 6b bb 58 60 89 3d
       0.011453807 0.024433196 -0.0035936385 0.06707829
000030 a0 5e 67 bd 78 21 15 3d d0 b4 ed 3c e0 c5 e4 3b
       -0.056486726 0.03640887 0.029016882 0.0069815964
000040 80 ec 0f bc 80 e2 4c bd 42 b0 a9 3d fc 9e cc 3d
       -0.008784413 -0.050020695 0.08285572 0.09991261
000050 86 dd 90 bd b0 4f 17 bd b8 5d fb bd 80 44 a5 ba
       -0.07073502 -0.03694123 -0.12273735 -0.0012608916
000060 c0 d5 d4 3b 32 ea ab bd 68 50 43 bd f0 95 b0 bd
       0.0064952075 -0.083942786 -0.047684103 -0.08622348
000070 f4 76 37 3d a8 e2 dd 3d ae 4a 91 3d 00 f0 2c bd
       0.044791177 0.10834247 0.07094322 -0.04222107
000080 40 90 f8 bb b4 c6 bd bd 50 d6 2a bc 10 c8 6c 3c
       -0.0075855553 -0.09266415 -0.010427073 0.0144519955
000090 ec 1f 74 bd cc 3b 84 bd bc 37 07 3d 3e 04 bc 3d
       -0.059600756 -0.06456718 0.033012137 0.09180497
0000a0 40 c4 72 bb c6 b5 ec 3d ae 51 ff bd f0 da be 3d
       -0.0037043244 0.11558108 -0.12466751 0.09319103
0000b0 a2 88 9d bd 04 23 ee 3d de ce 95 3d f2 14 99 bd
       -0.07692076 0.116277725 0.073148474 -0.07474698
0000c0 c8 33 53 3d 3a b5 f5 3d a0 7b e9 3d 1e 42 8d bd
       0.051563054 0.11997457 0.11400533 -0.068973765
0000d0 18 b9 c3 3c e4 7f 8a bd bc 99 ad 3d 88 a1 89 3d
       0.02389197 -0.067626745 0.08476588 0.06720263
0000e0 ac 66 3a bd f8 2a 95 bc 7c ad 8f bd e2 a8 83 3d
       -0.04550807 -0.018208966 -0.070155114 0.06428696
0000f0 dc 30 99 3d 4c 73 26 3d 66 6d f1 3d 90 10 29 bc
       0.07480022 0.0406373 0.11788444 -0.01031889
000100 18 40 16 bd 46 ea aa 3d 7e 92 f5 3d f0 19 14 bd
       -0.03668222 0.08345465 0.11990832 -0.03615755
000110 f0 c0 3e bd c0 f6 15 bb c4 84 45 3d 16 bc c5 3d
       -0.04657072 -0.002288267 0.04822232 0.09655015
000120 92 7e f6 3d 5c 0f 65 3d 4a 81 cd bd 5c 5f 89 3d
       0.1203586 0.05592285 -0.100344256 0.067076415
000130 94 12 c4 bd 54 c6 67 bd fc 30 52 3d cc a3 3a 3d
       -0.09573856 -0.056585625 0.051316246 0.045566365
000140 d0 f0 99 3d 52 81 a3 3d 40 22 d7 bb 5e 9e ec bd
       0.075166345 0.0798365 -0.006565362 -0.11553644
000150 22 49 a6 3d 00 00 14 3b 28 0a 0b 3d 4c 1f 17 bd
       0.08119418 0.0022583008 0.033945233 -0.03689508
000160 58 e2 82 bd 20 9a 04 3d 68 74 dc 3c 70 5b 15 bc
       -0.06390828 0.032373548 0.026910976 -0.009116039
000170 16 34 f9 bd a6 88 f0 3d 3c 2e 27 bd 50 3e 0b bc
       -0.12168138 0.117448136 -0.040815577 -0.008498743
000180 34 ef b5 3d 6c be 9c 3d a8 33 c0 bc c8 bc 53 bd
       0.08883515 0.076535076 -0.023462132 -0.051693708
000190 04 ac 03 bd 16 36 a2 bd 88 45 c8 bc 0e 88 d9 bd
       -0.03214647 -0.07920472 -0.024447218 -0.106216535
0001a0 00 bb c2 ba 72 01 a6 3d 4c aa 73 3d 06 b9 b7 3d
       -0.0014856756 0.081057444 0.05948858 0.08970837
0001b0 60 9d 43 3c 00 30 e8 38 f0 d6 a8 3c 3e f9 91 3d
       0.011939377 0.00011071563 0.020610303 0.07127617
0001c0 d0 c1 b5 bc c0 c9 41 bd 8e 07 fa 3d 70 05 76 bc
       -0.022187144 -0.047311544 0.12208472 -0.015015945
0001d0 00 73 45 3b 48 6c d2 bd 76 02 c2 bd 90 60 8b bd
       0.003012836 -0.10274559 -0.09473126 -0.06805527
0001e0 88 d6 83 3d 14 a2 08 bd 84 54 9c bd 5c 2f b6 3d
       0.06437403 -0.033357695 -0.076333076 0.08895752
0001f0 c0 02 01 bd 48 6e 95 bd c4 38 1d bd 6e 3d d9 3d
       -0.031496763 -0.07296425 -0.038384214 0.1060742
000200 70 d4 a2 3c 5e 8d a4 3d 1c b8 a6 3d b0 37 09 3c
       0.019876689 0.08034776 0.08140585 0.008375093
000210 80 ab 7b 3c c2 ed 96 3d 1a 67 d6 bd 40 8e 5e bd
       0.015360713 0.073695675 -0.10468884 -0.05433488
000220 34 2e 79 bd c0 f3 58 bd 50 7f b5 3d 6c 13 6d bd
       -0.06083508 -0.052966833 0.088621736 -0.05787985
000230 e0 8d 22 bc 00 a6 75 bc 32 f3 b3 bd fc c4 9d 3d
       -0.009921521 -0.014993191 -0.0878662 0.077035874
000240 b4 73 19 bd 5c d5 52 3d ec 56 d7 3d fc 08 05 3d
       -0.03746386 0.051473007 0.10514626 0.03247927
000250 98 f8 a7 bc e2 7c c1 bd 58 ac b2 3c f0 2b b6 bd
       -0.02050428 -0.09447648 0.021810696 -0.08895099
000260 00 52 89 3a 5e 1c b8 3d 40 11 bb bc 5e d0 9b bd
       0.0010476708 0.089897856 -0.022835374 -0.07608102
000270 20 9d 11 bd 38 4d ac 3d 26 69 ca bd 96 ea 9c bd
       -0.035550237 0.08413166 -0.09883337 -0.07661931
000280 00 ee 9d bd 62 7a b7 3d 08 6f d3 bc 1c 9b 19 bd
       -0.077114105 0.089588895 -0.02580978 -0.03750144
000290 28 e3 1a bd a0 2f e5 bc 80 45 d0 3a 94 19 26 3d
       -0.03781429 -0.027976811 0.0015889853 0.040551737
0002a0 c6 1e ab bd 40 72 54 3d 60 cf fa 3c 64 d6 bd 3d
       -0.08355479 0.05186677 0.030616462 0.092694074
0002b0 e0 46 da bb 52 7c af bd 8e b8 ed 3d 04 aa 7d 3d
       -0.006661281 -0.08568634 0.11607467 0.061929718
0002c0 70 f6 4a bd 00 28 cf ba 20 b1 99 bd f4 cf 11 bd
       -0.049551427 -0.0015804768 -0.07504487 -0.03559871
0002d0 a8 23 01 bd 24 6b d6 bd 04 a0 4a bd 0e 11 80 3d
       -0.031528145 -0.10469654 -0.04946901 0.06253253
0002e0 20 86 49 3c 30 05 90 bc 20 68 5d bd 84 b9 9b 3d
       0.012300044 -0.017580599 -0.05405438 0.07603744
0002f0 98 6f cc bc b4 15 83 bd 90 bc 88 bc 54 72 28 bd
       -0.024955556 -0.06400624 -0.016691476 -0.041124657

gru.weight_ih_l1 f4 [192, 64]
000000 3d fd 17 be 20 d0 96 bd c4 d4 ea bd 66 b4 92 bd
       -0.14842696 -0.073639154 -0.11466363 -0.071633145
000010 af a7 89 3c 3d 57 f0 ba dc bb 89 3c 00 2a 2b 3c
       0.01680359 -0.0018336546 0.016813211 0.010447025
000020 f1 ec 08 be bc dd e0 3d dc 45 1a bd 68 19 e2 3c
       -0.13371636 0.109797925 -0.03766428 0.027600005
000030 90 20 75 bd 1e 5a 1d bc 20 e7 8e 3d 24 e5 59 3d
       -0.059845507 -0.009604005 0.06977677 0.05319704
000040 cf 7d 52 bd e4 07 7a bd de 41 a9 bd 2c e4 c3 ba
       -0.05138951 -0.06104268 -0.08264516 -0.001494532
000050 72 64 ff 3d 4c 70 08 3d f8 1a 19 bd 72 6c 9f 3c
       0.1247033 0.03331022 -0.037379235 0.01946089
000060 63 74 40 3b aa 62 85 bd 4e 1b 87 bd 5e 01 5b 3d
       0.0029366247 -0.06512959 -0.06597005 0.0534681
000070 b6 94 96 3d e8 ed 8f 3c 7c 18 71 3d 2e de c9 3d
       0.07352583 0.017569497 0.05886124 0.098568305
000080 f2 b3 c9 3d af 9f 0c 3e e5 e0 89 bd 4b 8e 7b 3c
       0.09848775 0.1373279 -0.06732348 0.0153537495
000090 5e 7e 20 3d a3 b3 a0 bd 80 94 81 3d 38 1b 3b bd
       0.039183013 -0.07846763 0.06327152 -0.045680255
0000a0 ec 0b f6 3d a0 97 e1 3d 0c 55 83 3d ea 6f 83 bd
       0.12013993 0.11015248 0.06412706 -0.0641783
0000b0 ec f7 e5 bc 98 a3 ac 3c 7c 55 13 be 92 d5 b6 3d
       -0.02807232 0.021074101 -0.14388078 0.08927454
0000c0 54 81 79 3d 3c cb 57 3d f6 b9 e6 bc 60 53 ca 3d
       0.060914353 0.052684054 -0.028164845 0.09879184
0000d0 b4 f9 d6 bd 33 38 3b 3d a7 30 31 bd 90 e2 b4 bc
       -0.10496846 0.045707893 -0.04325929 -0.02208069
0000e0 e5 d1 03 bd ba 58 fc 3c 6e 22 ed 3d 06 23 9f bd
       -0.032182593 0.030804027 0.115788326 -0.07770352
0000f0 90 78 b8 3c 0f 7d 13 be 70 64 60 bd 22 03 fd bd
       0.022518426 -0.14403175 -0.054783285 -0.12354113
000100 53 a7 a2 3c 7d 8e 5f bd d0 1c 4b 3d fe a5 9a bd
       0.019855177 -0.054579247 0.049588025 -0.07551192
000110 8b 15 23 bd be 20 8e bd 39 67 91 bd 50 b6 b4 bd
       -0.039815467 -0.06939839 -0.07099766 -0.08823836
000120 f8 33 8e bd 50 28 65 bc 5c fe c2 bd bc f7 8a bd
       -0.06943506 -0.013986662 -0.095211715 -0.06785533
000130 be ab ad bd 1d 5c 06 bd ad e2 dd bc 3e 6a d3 3d
       -0.08480023 -0.03280269 -0.027085626 0.103229985
000140 ec 81 58 bd a4 5d 02 3d bf c6 2b bd 67 ce ae 3d
       -0.05285828 0.031827584 -0.041937586 0.08535462
000150 3e 5f ed bd 50 96 93 bc 60 d3 e9 bc 8c a3 8b bd
       -0.11590432 -0.01801601 -0.028543174 -0.068183035
000160 e1 f7 76 3d 01 c5 b7 3d 38 bf ad 3d 55 5a 2c bd
       0.06029499 0.089731224 0.08483738 -0.042078335
000170 1e 00 91 bd 78 13 18 3d 20 74 b2 3c a6 d7 8b 3d
       -0.070801005 0.03712794 0.021783888 0.06828241
000180 b4 e2 1f 3d 19 3f 29 3d 70 d7 fb bd 21 7e ae bc
       0.03903456 0.04131994 -0.12296951 -0.021300377
000190 12 65 09 be 95 3f 07 be 99 e7 13 be c2 0c cd bd
       -0.13417462 -0.13207848 -0.14443816 -0.10012199
0001a0 af ec 19 bd 38 e9 78 bd 68 83 71 3d 75 4d be 3d
       -0.037579235 -0.06076929 0.05896321 0.092921175
0001b0 09 c9 b2 3c 18 19 c8 bd 0d 09 5c bc 66 ce 39 3d
       0.021824377 -0.09770411 -0.013429892 0.045362853
0001c0 c0 0b cc 3b 20 a5 ca 3c 6c e7 c1 3d dd 60 0d 3d
       0.0062269866 0.02473694 0.09467968 0.034516204
0001d0 a8 d1 d4 3d 5d d9 e8 bc 6d 2f 6b bd f2 4a ca bd
       0.10391551 -0.02842396 -0.057418276 -0.09877576
0001e0 cb af b4 3d e7 82 be 3c 3c 68 8e 3d e4 7d 61 3d
       0.08822592 0.023255778 0.06953475 0.0550517
0001f0 f0 3f de 3d f3 0c 0e bd 8d dc ba 3d 55 4f 85 bd
       0.10852039 -0.034680318 0.09124098 -0.06509272
000200 25 e1 df bc 97 1e d4 bc 78 ee 9f 3c 98 45 a4 bd
       -0.027329037 -0.025893493 0.01952289 -0.080210865
000210 7a ac e5 3d 26 83 8c bd 71 65 db 3b 84 3e 87 3d
       0.11214538 -0.06860952 0.0066954424 0.06603721
000220 3b 05 0e 3d 80 74 8f 3b 58 fa ab 3c 60 47 b1 bc
       0.034672957 0.0043779016 0.020993397 -0.02164048
000230 05 60 0d 3d f5 47 f9 bc 8a dc e1 bd 68 cd 76 3d
       0.0345154 -0.03042982 -0.110283926 0.060254484
000240 48 22 21 bd 4e 39 8e bd f2 70 98 3d 27 9c 96 bc
       -0.039339334 -0.06944524 0.074434176 -0.018385006
000250 b8 f8 6d bd 00 1c dc 3c 28 a6 32 bd a7 d2 7f bd
       -0.058098525 0.02686882 -0.04361549 -0.062456753
000260 57 20 c9 bc 45 70 f8 3c 78 93 b8 bd e9 cc f5 3c
       -0.024551554 0.030326972 -0.090125024 0.030004935
000270 f4 1e 3d bd 80 0f a6 bd de fa 85 3d 6c 01 af 3d
       -0.046172097 -0.08108425 0.0654199 0.08545193
000280 62 e6 9e bd ad b9 ad 3c 72 63 0d be 23 47 56 bd
       -0.07758786 0.021206701 -0.13807467 -0.052313935
000290 ec e7 fa bd 59 23 1f 3d d3 68 2b 3d 24 14 2f be
       -0.12251267 0.03885207 0.041848015 -0.17097527
0002a0 18 00 c9 3d 0c 8b ef 3d 60 24 5f bd ca 9d 21 3e
       0.09814471 0.11696443 -0.05447805 0.15782848
0002b0 1f e5 31 bc 80 ea 72 3c bd d9 90 3c bf ff 80 bc
       -0.010857849 0.014826417 0.01768195 -0.01574695
0002c0 68 3f b4 3d 12 6b 8d bd 78 8a ec 3d 6c a7 0b 3d
       0.08801156 -0.06905188 0.11549848 0.034095213
0002d0 30 c4 34 bc c5 e5 af bc b8 1f 16 be a4 55 28 be
       -0.011033103 -0.021471867 -0.14660537 -0.1643892
0002e0 bd 9d 60 3c 0a f7 78 3c ca ca 87 3d f8 23 ee bc
       0.013709483 0.015195617 0.06630476 -0.029069886
0002f0 be 37 e3 bd 0f 69 b0 bb 0b b4 42 3d 3f bd 93 3c
       -0.11094616 -0.0053836177 0.047534984 0.018034576
000300 16 f1 0d be 01 6f 7d bd f2 e4 9c bd 08 ce d5 bc
       -0.13861498 -0.06187344 -0.07660855 -0.02609922
000310 85 fe 7f 3d 87 87 de 3d c1 ab a2 3d b8 d9 d8 3d
       0.062498588 0.108656935 0.07942916 0.105884016
000320 b1 00 60 bd 7a c9 91 bd 80 db 80 bd 4c 18 39 3d
       -0.05468816 -0.07118507 -0.06291866 0.045189187
000330 84 fe 8e 3d 55 20 06 3d 65 c5 59 bd 5e f4 9a 3d
       0.06982139 0.032745678 -0.053166766 0.075661406
000340 25 3b 37 3d a0 7d 9b 3d 3e 34 b0 3d b3 1c fa 3d
       0.04473414 0.075923204 0.086037144 0.12212505
000350 10 0a 4f 3d 5c 1a 26 bd 32 ba ae bd bc 66 a9 3b
       0.050546706 -0.040552482 -0.08531608 0.0051697176
000360 7b 6e ad 3d 3f 74 88 bd c0 d1 b6 bd 47 31 58 3d
       0.08468338 -0.06662797 -0.089267254 0.05278137
000370 b8 d5 c2 3c 32 9b a6 bd b0 fe b6 bd 48 0d 1e 3d
       0.02378355 -0.0813507 -0.089352965 0.038586885
000380 d2 07 d2 3d 80 a0 11 3d c8 1b 19 be 2d 81 64 3d
       0.10255398 0.035553455 -0.14952004 0.055787254
000390 e1 6e bf bd be 6a bb bd 95 94 e2 bd 2a 1a 6b 3d
       -0.0934732 -0.09151219 -0.11063496 0.057398
0003a0 b5 ee 0a 3e 70 65 c0 3c ce de aa bd 90 78 20 3e
       0.13567622 0.02348587 -0.08343278 0.15670991
0003b0 31 62 19 bd 3e 46 dd bd dc d0 a5 bd 89 b8 38 3c
       -0.03744716 -0.10804413 -0.080964774 0.011274465
0003c0 b0 43 0d bd 1c 14 58 3d 7d 10 ad 3c dc 0e 83 3d
       -0.03448838 0.052753553 0.021126026 0.063993186
0003d0 08 2b 84 3d 02 0c 13 be c8 ac ba bd 96 77 84 bd
       0.0645352 -0.1436005 -0.09114987 -0.06468122
0003e0 57 27 81 bd 35 17 0a bd b0 aa 12 bd ee 3c eb 3d
       -0.063063316 -0.03371354 -0.03580731 0.11486231
0003f0 10 18 ee 3d 20 00 89 bd 50 54 20 3d d3 de f7 bd
       0.11625683 -0.06689477 0.039142907 -0.12103047

gru.weight_hh_l1 f4 [192, 64]
000000 67 eb 18 3e f2 83 85 3d 71 53 1e 3d 16 78 2a bd
       0.14933549 0.06519307 0.038653795 -0.04161843
000010 91 dc 17 be d3 0a 21 be c2 24 cc 3d 00 cc 93 bc
       -0.14830233 -0.15726785 0.099679485 -0.01804161
000020 a1 37 0f 3e 0d f8 13 3d b5 eb 33 3d 8e 51 31 3d
       0.13986064 0.03612523 0.04392596 0.043290667
000030 ea 9c 72 3d a6 8b ae 3d 94 0f 22 3c 03 fe 5e bd
       0.059231676 0.085227296 0.009891409 -0.054441463
000040 29 bf 2b bd c4 d8 83 3d aa 59 e1 bd a3 6f 9d 3c
       -0.04193035 0.06437829 -0.1100343 0.019218272
000050 1f 46 8e 3d a4 ee 30 bd e6 4a a2 3d 0f 71 90 3d
       0.06946968 -0.043196335 0.07924442 0.07052814
000060 f4 22 de bd 03 ac ab bd 73 99 04 bd 2d 17 1f bd
       -0.108465105 -0.08382418 -0.032372903 -0.03884046
000070 db e9 10 be b8 be dd 3d e3 73 26 be 8e 6d 6d bb
       -0.14151709 0.10827392 -0.16255145 -0.003622863
000080 18 3e 39 be 7a 71 89 bc 9d 79 59 bb a5 a9 d2 3c
       -0.18090093 -0.016777743 -0.003318406 0.025715658
000090 b7 06 a6 bd 1e f6 2f 3b 28 46 db bc b6 67 06 3e
       -0.081067495 0.0026849578 -0.026766852 0.131255
0000a0 d8 e4 b6 3d d3 f2 26 be 39 97 42 3b e4 f5 a8 3d
       0.08930367 -0.16303568 0.0029692187 0.08250025
0000b0 2f 1f 01 be 4c 10 9c bd 2b 18 97 bd 19 cb 6e bc
       -0.12609552 -0.07620296 -0.073776565 -0.014574789
0000c0 5c 0d 24 3d 7b 04 8b bd 4d 52 0a bd 21 fc e4 3c
       0.040051803 -0.06787964 -0.033769894 0.027952256
0000d0 54 10 19 3e 23 b8 24 be 21 a8 2f be 0d be cb 3d
       0.14947635 -0.16085868 -0.1715398 0.09948359
0000e0 ed 44 20 3d 12 4e 20 3e 01 1b 42 bd ff 00 2d 3c
       0.039128233 0.15654781 -0.047389034 0.0105593195
0000f0 53 e8 c5 3d 9d ad 14 be 9a 8f d0 3d 7d ac 68 3c
       0.09663453 -0.14519353 0.1018364 0.014201281
000100 67 58 aa 3d 27 cb 1a be b1 d5 d7 3d 5b 91 16 3e
       0.08317643 -0.15116559 0.10538805 0.14703886
000110 f2 51 04 be 9c 05 3b 3d 7d 33 7c 3d 92 d5 80 bd
       -0.12921885 0.045659646 0.06157254 -0.06290735
000120 9c 9e 8d 3d c9 b0 51 3d 17 0a 3a 3d ea 15 75 3d
       0.06915018 0.051193986 0.04541978 0.059835352
000130 1e 02 e2 bc 09 0e 85 bc f6 84 27 be 08 20 2d 3d
       -0.0275889 -0.016242044 -0.16359314 0.042266876
000140 00 7a a8 bd 6a 35 20 3e 7b dd cf bd 9f 43 77 bc
       -0.08226395 0.15645376 -0.10149666 -0.015091806
000150 50 58 cf bd 53 75 0d be 7a 08 d9 3d 95 47 43 3d
       -0.10124266 -0.13814287 0.1059732 0.047675688
000160 c6 cb c4 3a 44 0d 15 3e a5 5e e0 bd 68 13 8b bd
       0.0015014342 0.14555842 -0.10955552 -0.06790811
000170 a2 89 97 bd 33 60 f0 3d 50 eb 3f bb 90 f4 d5 3b
       -0.07399298 0.117370985 -0.0029284544 0.0065293983
000180 8c ad 3d bd 03 57 ac 3d 36 34 95 bc 1e 2b a2 3d
       -0.046308085 0.08415034 -0.018213373 0.0791838
000190 45 4c 1c be 8a 06 ad 3d 90 8a 0c be 3d 96 8b 3d
       -0.1526347 0.08448513 -0.13724732 0.06815765
0001a0 29 8b 22 3e eb 28 e0 bd 36 a0 9a bd ca 81 72 bd
       0.15873398 -0.109453045 -0.07550089 -0.059205808
0001b0 bd 6c 43 3d f1 84 f2 bd 27 65 ef bd 18 4a 8c 3d
       0.047711123 -0.11841763 -0.11689215 0.0685007
0001c0 b4 8d e9 bd 1f 36 23 be b4 33 ee bc c9 3f dd bd
       -0.11403981 -0.15938614 -0.029077388 -0.10803182
0001d0 b0 63 e7 3d 0c 91 51 bc d2 3f 81 bc c0 38 f4 37
       0.11298311 -0.0127909295 -0.015777502 2.9113493e-05
0001e0 05 ba be bc 58 6e 26 3e 08 da ff bb 09 06 d4 bd
       -0.02328206 0.1625303 -0.007807974 -0.103527136
0001f0 20 f0 ec 3d a4 5a 74 3d 28 e3 02 3e 2a a8 db bd
       0.11569238 0.059656754 0.12781966 -0.10725434
000200 96 76 ba 3d c7 ab 8e bd a1 6d 29 bd 38 b7 02 3e
       0.0910465 -0.06966358 -0.041364316 0.12765205
000210 59 68 42 3d 8f 5a cd bc a8 08 62 bd 99 15 7e 3d
       0.047462795 -0.025067596 -0.055184036 0.062032316
000220 d4 26 bb 3d 76 a0 b9 3d 90 aa 90 bc 00 75 b9 3d
       0.09138265 0.090638086 -0.017659456 0.09055519
000230 df 35 a1 3c ef 95 be 3d c4 be f4 3c 0f 90 9d bd
       0.019679008 0.09305941 0.02987612 -0.076934926
000240 71 fd 8e 3d 8f 5d 42 3d e3 6d 04 bd ea 7e 8c 3d
       0.06981934 0.047452506 -0.03233136 0.068601444
000250 1f fd d9 bd 1d 54 4e 3d 84 82 c0 3d a1 ce b9 bd
       -0.10643982 0.050373185 0.09399894 -0.090726145
000260 93 7a 10 be 0f 5e 91 3d 28 13 ad bb cc 74 f9 bc
       -0.14109258 0.070980184 -0.0052818246 -0.0304512
000270 df 84 6e bb 54 d3 e5 3d 5c 28 95 3b 51 03 a8 3d
       -0.0036395115 0.11221948 0.0045519304 0.082037576
000280 9d 09 92 bd a7 b3 5d bd 4d 4d 19 be e2 8e 22 be
       -0.0713074 -0.054126408 -0.14970894 -0.15874818
000290 0b 26 15 be ac d5 bb 3d df 51 8f bd b1 38 e1 3d
       -0.14565293 0.09171614 -0.069980375 0.10997141
0002a0 d8 1f 09 3e 68 6a 52 3d ea 5e 5f bd 48 2d 0a 3d
       0.13391054 0.05137101 -0.054533876 0.03373459
0002b0 0a 60 d4 bd 51 0b a4 bd d2 42 d5 bd b4 51 48 3c
       -0.103698805 -0.08009971 -0.104131356 0.012226511
0002c0 b2 aa be 3c 12 ed a0 bd 6d 5b 0e be 2a 5c 13 3d
       0.023274753 -0.078577176 -0.13902064 0.035976566
0002d0 89 5c 65 bd 98 f7 9c 3d d5 d2 1a bd f0 49 b1 3c
       -0.05599645 0.07664412 -0.03779872 0.021641701
0002e0 b4 be 2e 3c d5 c4 b8 3d 43 6e 91 3d 2b 24 d0 bd
       0.010665584 0.09021918 0.07101109 -0.101631485
0002f0 ce 76 71 3c 23 cc f4 bd 17 66 53 bd 04 be 52 3d
       0.014737798 -0.119529985 -0.051611032 0.051450744
000300 2d 85 94 3d 3a 73 08 3d d6 91 d3 3d 24 49 76 bd
       0.07251964 0.033313014 0.103305504 -0.060128346
000310 ea f4 d5 bd e6 04 79 bb fb 4c 05 bd f1 7b 8c 3b
       -0.10447104 -0.0037997304 -0.032544117 0.004287236
000320 7c e9 92 3d 11 e0 a5 3d 72 b0 d1 bd d6 70 c5 3d
       0.0717344 0.08099378 -0.102387324 0.09640662
000330 95 09 6b ba d1 29 b2 3d 37 ce f9 bc 8a cd 17 bc
       -0.00089659664 0.08699382 -0.030493839 -0.009265313
000340 e2 ad a7 3c cf 51 f3 3c 69 36 78 3c 20 c2 9d bb
       0.020468656 0.029702095 0.015149691 -0.0048144013
000350 a0 b1 74 3c dc 3f 17 be 36 1c 0c 3e b5 e9 a9 bd
       0.014934927 -0.14770454 0.13682637 -0.08296529
000360 b8 58 29 be bf 7d 8c bd 8d 6b 22 bd 42 92 9c 3d
       -0.1653775 -0.06859922 -0.03965335 0.07645084
000370 ef a3 2a be 9e ce de 3d 75 11 b2 3d 16 60 d3 3d
       -0.16664098 0.10879253 0.08694736 0.10321061
000380 67 b3 08 be e1 41 ed 3c a2 a6 a6 3d 1c ad bd bd
       -0.13349687 0.028962078 0.081372514 -0.092615336
000390 f3 d3 23 bc 01 33 db 3c 79 21 24 be de 73 f3 3b
       -0.009999263 0.026757719 -0.16028394 0.007429584
0003a0 ac 83 e9 3d dd 5c 07 3d e3 c3 8e 3d 90 28 a7 bd
       0.114020675 0.033047546 0.06970956 -0.081620336
0003b0 4a f6 0f 3d 46 ed 76 3c 8b 07 1b 3d 10 1b 3e bd
       0.03514699 0.015071219 0.03784899 -0.046412528
0003c0 64 d1 27 be 72 e5 06 be c2 05 c8 3c f8 de e1 3d
       -0.1638847 -0.13173464 0.024416808 0.11028856
0003d0 b9 b6 c4 bd 82 4a d9 3d b0 93 a0 3d ae 29 d4 3d
       -0.09605164 0.10609914 0.07840669 0.10359512
0003e0 a9 85 b5 bd f8 6a a5 bd 0f 41 e7 3d fe fc f8 bd
       -0.08863384 -0.08077043 0.11291706 -0.121576294
0003f0 f6 c2 09 3e ac 32 75 3c 1e 1f b8 3d 96 44 22 bd
       0.13453278 0.014965694 0.0899031 -0.03961619

gru.bias_ih_l1 f4 [192]
000000 ad 29 0e 3e 6f 9b 1e 3e 28 20 35 3e 3c 56 b8 3d
       0.13883086 0.1548898 0.17688048 0.09000823
000010 94 23 3b 3d 10 c8 ab ba 87 9d 23 3e 2f 13 4c bd
       0.045688227 -0.0013105888 0.1597806 -0.049822982
000020 78 e7 4a bd cb 8a fe bc 6f ea 15 3e a1 a2 a2 3d
       -0.049537152 -0.031072041 0.1464021 0.07941175
000030 e4 29 09 3e cc 63 e6 3d 25 14 1d 3e 5c bb bf 3c
       0.13394886 0.112495035 0.15339716 0.02340477
000040 14 8b 0f bc c7 80 8e bd 91 f2 9f 3d bd 25 56 bd
       -0.008761186 -0.06958156 0.07809938 -0.052282084
000050 a0 0d 20 3e 9b f5 93 bd eb 2b a0 3d 33 33 4a 3d
       0.15630198 -0.0722458 0.07820877 0.049365234
000060 60 82 5e 3d 50 e5 0e 3d c8 fe 19 3e 31 8b d8 3d
       0.054323554 0.03488666 0.15038598 0.10573424
000070 b2 1b 4d bd 98 2f bb bc 5b 33 e9 3d 30 69 a5 bd
       -0.05007524 -0.022849843 0.113867484 -0.080767035
000080 5f ae 7d 3c 05 ca 03 3e 01 16 f9 3c 4a dc ae bd
       0.015483468 0.12870033 0.030406 -0.085381106
000090 25 24 b6 3d 3f a1 8a 3d 67 07 01 3e d5 5f 51 bd
       0.08893613 0.067690365 0.1260048 -0.051116783
0000a0 7e 3e 33 bc c0 a1 15 bd 4a ae fa 3d e1 fe 32 3d
       -0.010940192 -0.03653121 0.12240274 0.043700103
0000b0 8c 02 81 bb b4 31 2f 3d 1a 69 c1 3d 39 86 2c 3e
       -0.003937071 0.04277201 0.09443875 0.16848077
0000c0 e6 2b cb 3d 40 07 bf 39 48 f0 b3 bd 63 8d 7a bd
       0.09920482 0.0003643576 -0.087860644 -0.061169993
0000d0 a6 a1 ab 3d 1b 44 b6 3d 80 51 90 3c 0b 07 8d bd
       0.08380441 0.08899709 0.017616987 -0.06886109
0000e0 a7 f6 40 3d 18 10 0d bd 49 1f 8c bd 23 4d b8 3d
       0.047110226 -0.034439176 -0.06841905 0.08999088
0000f0 cf 30 04 bd 35 a5 08 3e 07 27 c0 3d 45 08 f8 3d
       -0.03227311 0.13344271 0.09382444 0.12110952
000100 24 69 9a bd 94 77 ae 3d 2c d6 cf 3b 41 50 dc bd
       -0.07539585 0.085189015 0.00634267 -0.10757495
000110 d1 b8 ff bc 48 e5 ba 3d de e7 4d bd d7 2f bc 3d
       -0.031216057 0.09125763 -0.050269954 0.09188812
000120 dd c4 84 3d 05 27 a5 bd 05 3b b4 3c 9e d8 03 be
       0.06482861 -0.08064083 0.022000799 -0.12875602
000130 b6 c5 9a bd 1e 02 21 be 77 4a fc bd fd 0c 6a 3d
       -0.075572416 -0.15723464 -0.123188905 0.057141293
000140 05 c5 fb bd b3 b3 d8 bc 86 3c c3 bd cf be ce 3c
       -0.12293438 -0.026452875 -0.09533028 0.025237469
000150 08 71 89 bb 52 ff 56 3d 27 25 c7 3d e5 de 1e be
       -0.0041943826 0.052489586 0.09723883 -0.15514715
000160 2b a5 54 3d aa 5d 9e bc 89 57 0e be 0e d0 94 3d
       0.05191533 -0.019331772 -0.1390058 0.07266246
000170 db 9e 0b be 76 27 41 3d ab 4d 1f bc e9 4a 1c bc
       -0.13634817 0.047156774 -0.009723107 -0.009539344
000180 0f bd 5a 3d 70 cd 82 bc db c7 8b 3d 17 0a f6 bd
       0.053402957 -0.0159671 0.06825229 -0.12013643
000190 19 59 ea bd a0 c1 72 3d a3 2a f0 bc 43 fd c1 3c
       -0.11442775 0.059266686 -0.029317206 0.023680335
0001a0 eb 1e f3 bd fb e7 96 3d a3 1f d7 3d 65 42 c3 3d
       -0.118711315 0.073684655 0.10504081 0.09534148
0001b0 cb d1 26 be 87 07 f4 bd f6 87 ad 3c 0b 0e 06 3d
       -0.16290967 -0.11915498 0.021182995 0.032728236
0001c0 a4 db 0a 3d 0d f9 75 3d f3 5e e4 bd f8 43 e3 bd
       0.033900872 0.060051966 -0.111509226 -0.110969484
0001d0 82 61 d1 3c 15 fd 08 be 8e e1 16 bd e8 d6 89 3b
       0.02555919 -0.13377793 -0.0368362 0.004206527
0001e0 1b 25 84 bd 86 98 f5 bc ad 61 0f be 05 35 83 bd
       -0.0645239 -0.029979955 -0.14002104 -0.06406597
0001f0 17 87 b2 3d 93 66 11 3d 15 33 96 3d ba 56 98 bd
       0.087171726 0.035498213 0.07333962 -0.07438417
000200 09 f0 fa 3d e4 ee 33 bc 26 f6 3d 3d 13 46 be bb
       0.12252814 -0.010982249 0.046377324 -0.0058066933
000210 15 d0 8b bd fc bd e1 bd f8 2e 01 3e 08 69 e8 3a
       -0.06826798 -0.11022565 0.12615573 0.0017731497
000220 2d 83 96 bd bd 8a cf 3c 90 e2 3f 3d a0 7e 0b 3d
       -0.073492385 0.02533471 0.046846926 0.034056306
000230 6c b9 19 3c d5 d4 2c 3d 40 7f 05 be 7f 5b e4 bd
       0.009382587 0.04219516 -0.13036823 -0.11150264
000240 37 d6 4e 3d 17 24 0e 3d a8 85 98 bd 55 19 99 3d
       0.05049726 0.034702387 -0.07447368 0.07475535
000250 c0 f2 a9 bc 69 39 c3 bc 2b 1f 83 3c e1 89 c3 bd
       -0.020745635 -0.023831086 0.016006073 -0.09547783
000260 50 2d 8d bd b9 8d ac 3d da 5e 57 bd c0 b5 88 bc
       -0.06893408 0.08425469 -0.052580692 -0.016688228
000270 33 84 c8 bd 6e ee 86 3d 0c 32 36 bd ff 30 1b 3e
       -0.0979084 0.065884456 -0.044481322 0.1515541
000280 84 f3 4e 3d b8 89 89 3d 7b f7 8a 3d 41 04 81 bc
       0.050525203 0.06715721 0.067854844 -0.015749099
000290 d3 f1 c5 bd 7f 74 f7 3b ae c2 07 be f6 1c 1e 3e
       -0.09665265 0.007551729 -0.13257858 0.15440735
0002a0 67 89 0a 3e c6 f0 99 3d 7e a0 98 3c 71 5b 24 be
       0.13528977 0.07516627 0.018631216 -0.16050507
0002b0 bb 0a 2f 3c a3 80 d2 3c 58 88 88 3c 0b 2b b5 bc
       0.010683711 0.025696104 0.016666576 -0.022115251
0002c0 56 01 1d be 8a 08 bd bd f6 f0 25 be 7c 15 d4 bd
       -0.15332541 -0.09230144 -0.162052 -0.1035566
0002d0 a0 b2 36 3e a4 d5 96 bd 81 89 6f 3d 31 a8 ef 3d
       0.17841578 -0.073649675 0.058480743 0.11702002
0002e0 9d 34 1a bd f7 69 a6 3d cb cc 1b bd 84 c0 15 be
       -0.037647832 0.0812568 -0.038037103 -0.1462422
0002f0 18 b7 c0 bc 25 85 27 be d6 c0 90 bd 55 23 0f bb
       -0.023524806 -0.16359384 -0.070680305 -0.0021841128

gru.bias_hh_l1 f4 [192]
000000 f3 75 8d 3d 9e cb 88 bd e0 38 3d 3d 60 55 ae 3d
       0.06907263 -0.06679462 0.04619682 0.08512378
000010 93 5b c4 3d f6 5a cc 3d 9b 2d 97 bd 36 8b 4e 3d
       0.09587779 0.09978287 -0.073817454 0.05042573
000020 13 7c 91 bd e4 1c 06 3e 56 0d a0 bc c4 99 88 3c
       -0.071037434 0.13096958 -0.01953761 0.016674884
000030 26 b7 1f 3e da 31 53 bd 4d 90 aa bd 6b bd 94 3d
       0.1559721 -0.051561214 -0.083283044 0.07262691
000040 c7 9f 07 bd 4b 4b 09 3e 0a d8 7b bd 79 c1 b4 3d
       -0.03311136 0.13407628 -0.061485328 0.088259645
000050 49 35 c4 3d 46 2d 28 bd d4 86 37 3d 14 f8 2d bb
       0.09580476 -0.0410588 0.044806316 -0.002654557
000060 3b 48 e1 3b f8 48 07 3d 89 79 a7 bd 4b d8 91 bd
       0.0068750656 0.033028573 -0.08177478 -0.07121333
000070 4a 9a 65 3d c0 94 94 bc 1b e5 ac 3d 08 20 5a bd
       0.056055345 -0.018137336 0.08442136 -0.053253204
000080 92 a7 9d 3d 06 4a 31 3d 28 10 fa 3c aa 4d 4b bd
       0.07697977 0.043283485 0.030525282 -0.049634613
000090 70 dc 1c bd 03 6f 9b 3d a4 ef 3a 3d 02 58 12 3e
       -0.038296163 0.07589533 0.045638695 0.14291385
0000a0 bb 3a be 3c 81 63 10 bc c6 28 1f bd 8a ad 0a 3e
       0.023221364 -0.008812786 -0.038857244 0.13542762
0000b0 9e 47 d7 bc 08 0a a5 bd 53 bd 0e 3d af ee 93 3b
       -0.026279267 -0.08058554 0.034848522 0.0045145373
0000c0 88 54 c4 3d 63 34 66 bd 3f ce b7 3b dd b5 3c bd
       0.095864356 -0.056202304 0.0056093032 -0.046071876
0000d0 73 cb f7 3d ff ae ad bc b7 6e a1 bd 23 d3 04 3e
       0.12099352 -0.021201609 -0.07882445 0.12971167
0000e0 5e 26 06 3e 41 75 4e 3d ed 1e 96 bd a3 10 dd 3d
       0.13100573 0.05040479 -0.073301174 0.10794189
0000f0 db 83 2e 3d 4d f9 0c 3e 45 24 9d bc e8 f7 7c bd
       0.042606216 0.13766976 -0.019182334 -0.06175986
000100 1b 59 84 3d 38 b7 c8 3d 3a 37 dc bd 40 d0 e6 bd
       0.06462308 0.09800571 -0.10752721 -0.11270189
000110 fd 9a b0 3d 42 18 4f 3d 53 40 ba bd 17 d9 d5 bd
       0.08623312 0.050560243 -0.090943 -0.10441797
000120 1d 1c e7 3c a9 f1 9e 3d 25 02 b2 3d 70 9f 0e be
       0.028211648 0.07760937 0.08691815 -0.13928008
000130 8c 0b d5 3c 23 1c 10 be 4a a6 86 3d a1 3a fe bd
       0.026006483 -0.14073233 0.06574686 -0.12413526
000140 a4 62 54 bd 25 90 7d bd 2c b0 00 be 6a 31 46 3d
       -0.051851884 -0.061905045 -0.12567204 0.04838697
000150 86 ff aa 3c 6c 9a 10 bd c1 a0 d0 3d 9f 1c f2 bd
       0.020873796 -0.03530352 0.101869114 -0.11821865
000160 16 8c 35 bd 7c 7e 3b bd 55 44 d8 bd 9c d5 d6 3d
       -0.04432305 -0.04577492 -0.10559908 0.104899615
000170 5b e2 02 be 6e fb c7 bc 71 67 00 3d 0b f6 b8 bd
       -0.1278166 -0.024411883 0.03134865 -0.09031304
000180 05 2e e9 3d f9 5c 8f bd 10 28 0b be c5 ae 0e 3d
       0.11385731 -0.07000155 -0.13589501 0.034834642
000190 73 c0 b0 3d fb a8 4b bd 46 f8 be 3d ef ab f3 3c
       0.08630457 -0.0497217 0.09324698 0.02974507
0001a0 55 8f 84 3c ac fb f3 bb 42 72 95 3d 43 b6 fa bd
       0.016181627 -0.007445773 0.072971836 -0.12241795
0001b0 6c 1d 1d 3d ac ec a6 bd 03 3f 50 3c ca f2 48 3d
       0.038358137 -0.0815061 0.012710336 0.049059667
0001c0 56 44 2b 3c 56 e6 31 bb 0f 38 e9 3d 39 52 89 bd
       0.010453304 -0.0027145348 0.113876455 -0.06705136
0001d0 90 61 1e 3a 3c 11 dd bd 71 ff 8f bc 16 4a 77 3d
       0.00060417596 -0.10794303 -0.017577859 0.06037339
0001e0 d8 6e 56 3d 1c 2f 68 bd 89 d3 6c bc d2 d1 aa bd
       0.052351803 -0.056685552 -0.014454731 -0.08340801
0001f0 d3 66 a2 3d 95 aa b0 bd 75 ba b6 bc 8c 96 cd 3c
       0.079297684 -0.08626286 -0.022305707 0.0250962
000200 1d 1c 91 3d b0 ab 31 bd ca ad d6 3d 89 e0 d5 3d
       0.0708544 -0.043376625 0.104823664 0.10443217
000210 6a 30 a8 bd fd d4 77 bd cd 0d f0 3b 90 01 dc 3d
       -0.08212359 -0.060505856 0.007325864 0.107424855
000220 6b 92 80 bd b6 e6 e7 3c 0d 8f f3 bd f9 1c 3a be
       -0.06277927 0.028308254 -0.11892519 -0.18175115
000230 83 7e f5 3c 03 f8 d9 3c 52 38 5c bd 6c 78 2b be
       0.029967552 0.026607519 -0.05376465 -0.16745156
000240 52 99 84 3d cc bb 29 3e f9 db d3 bd c8 a2 d6 3c
       0.06474556 0.16575545 -0.10344691 0.026200667
000250 b2 35 1d be 56 ce 8a bd 04 37 9d 3d 04 78 05 bd
       -0.15352514 -0.06777637 0.07676509 -0.03258516
000260 21 29 70 3d 60 71 53 bd 2b d7 25 be 94 a4 2d bd
       0.058632974 -0.051621795 -0.16195361 -0.042393282
000270 89 db f4 bd 54 d8 db 3c 03 84 d1 3c 60 a4 81 bc
       -0.119559355 0.026836552 0.025575643 -0.01582545
000280 6a 6d 32 be 80 1f fe 3c f5 2a 17 bc c3 ae a0 bd
       -0.1742455 0.03102088 -0.00922655 -0.07845833
000290 36 11 3c 3d 15 70 d0 3d 8e fb c7 bd 1a 5e 52 3d
       0.04591485 0.10177628 -0.09764777 0.051359273
0002a0 a0 e8 1b 3e 36 b6 11 be eb 0f 21 bd 9d 13 b5 bd
       0.15225458 -0.14229664 -0.03932182 -0.088416316
0002b0 29 c8 51 3d d7 20 18 be bd ae 81 3d 79 9e 33 be
       0.05121628 -0.14856277 0.06332157 -0.17540921
0002c0 1c 37 20 be 0c 9c 0c be 0f 83 f9 b9 d5 70 8f bd
       -0.15646023 -0.13731402 -0.00047590627 -0.07003943
0002d0 88 7e 13 3d 99 ce ed bd 4b 86 19 be 1e a7 0a bd
       0.03600934 -0.11611671 -0.14992635 -0.03385078
0002e0 1d 4d 81 bd 4b cb ff bc 17 e7 ab 3d 25 6b 9b bd
       -0.06313536 -0.031224867 0.08393686 -0.075887956
0002f0 f8 23 b7 3c 22 73 1a be 04 7d 8b bd ea e7 bf 3c
       0.022356018 -0.15082982 -0.06810954 0.023426015
