project/models/GRU/Tesla.pth (torch, 18051 bytes, 6 tensors)

gru.weight_ih_l0 f4 [96, 5]
-0.149821 0.12566255 -0.16853757 0.17160298 -0.0634557 -0.06733309 0.008669628 0.111222684
0.14570867 0.035239127 0.14970897 0.05372821 0.06906482 0.11534524 -0.0071340916 -0.09533421
0.16478395 0.1266195 -0.0012774288 0.016349604 0.017749492 -0.14536564 0.14761715 0.07485392
0.10885631 -0.0920386 -0.023700163 0.0155511545 -0.12211436 -0.007579415 -0.055141732 -0.10169948
0.16566151 0.08787384 0.022203296 -0.13792819 -0.056651812 -0.012466701 -0.057989616 -0.043662995
0.023348533 -0.030241523 0.100358196 0.07469852 -0.064890616 0.09831675 -0.15702707 0.07648993
-0.11139199 0.15678358 -0.1490952 -0.01614905 -0.09727514 -0.09640171 0.16761136 0.115236945
-0.17111284 0.07023894 0.0026871145 0.121356495 0.085889734 -0.0036066321 -0.059351213 0.0032262357
-0.06288021 0.15535568 0.03061332 0.12381848 0.144587 0.004807944 -0.14244792 -0.15895972
-0.08414848 0.12419778 0.1402275 -0.021715384 0.08329374 0.036453355 -0.14299448 0.06371343
0.10526637 -0.14924222 -0.17652853 0.057553627 -0.05933954 -0.14505616 -0.004935733 0.041325998
0.0035861277 0.117141075 0.04503039 0.11624116 0.09008937 -0.09859086 0.016676117 0.15258084
0.07877876 -0.16214845 -0.17215887 0.09352021 0.07678995 0.08762663 -0.020522922 0.0070787105
0.058540013 -0.09197081 0.011064559 0.010110671 -0.05731611 0.122142136 -0.11516496 -0.11103722
-0.12819143 -0.15687552 -0.058436014 0.1464442 0.15157518 0.12650092 -0.05754208 0.030337807
0.085852705 0.11295446 0.14840198 -0.11878625 0.093631394 -0.0053451476 -0.12746634 0.12059162
0.08952252 -0.043285824 -0.17182028 -0.13109775 0.07074797 -0.03440504 -0.13375787 -0.11710786
-0.046954032 -0.13916709 0.090561904 -0.15737869 0.12029218 -0.16813584 0.15206976 -0.029482795
-0.14615011 0.06899365 0.005311746 0.060869217 0.06831115 -0.010266803 0.1280041 -0.13526855
0.112296484 -0.14930877 -0.12383966 -0.13372384 -0.053565294 0.15123849 0.09119545 0.047351774
0.101607054 0.09346879 -0.044099007 -0.055181794 -0.03325319 0.119729 -0.0650038 -0.00997344
-0.05085011 0.056013603 -0.075478956 0.04409317 -0.17629609 0.17633809 0.023411963 -0.08200913
-0.09991351 0.12942618 0.07503207 0.013974841 -0.045456935 -0.12436635 -0.01845952 -0.14172941
0.037267424 0.062832564 0.00074833835 -0.095354885 -7.776093e-06 -0.0588405 -0.1608336 -0.016220193
0.13390051 -0.082342446 0.034888443 0.16111185 0.01592173 -0.16149089 -0.04764478 0.049170177
-0.11984001 0.14776796 -0.028077956 -0.024485527 0.17065373 -0.1725039 -0.060814593 0.04070182
0.008650346 0.08513501 -0.12437221 0.03014745 -0.057719223 0.16075297 0.032560084 -0.013442716
-0.14487888 -0.07386383 -0.10675485 0.040850706 -0.049675453 0.076845296 0.14106636 0.13773893
-0.12602222 0.12299677 0.026674613 0.17192987 0.004888571 -0.15932454 0.037259202 0.04084133
0.045816004 -0.006119575 0.12839615 -0.15032488 -0.039220106 0.06687765 0.17616849 -0.09070042
-0.07715341 0.028784527 0.06735979 0.08096483 0.11792509 0.035310272 -0.15786847 -0.0054975506
-0.08904835 0.07169868 0.11247293 0.09219096 -0.07797321 -0.0038948534 -0.08041039 -0.026176859
00000000: ad6a 19be afad 003e 1d95 2cbe b1b8 2f3e
00000010: 10f5 81bd eee5 89bd 0e0b 0e3c b8c8 e33d
00000020: a734 153e e756 103d 4f4d 193e 1d12 5c3d
00000030: db71 8d3d 203a ec3d 19c5 e9bb 953e c3bd
00000040: 20bd 283e 8ba8 013e 666f a7ba 9bef 853c
00000050: 6267 913c bbda 14be f328 173e 034d 993d
00000060: 0ff0 de3d bc7e bcbd d826 c2bc 45ca 7e3c
00000070: 1817 fabd be5c f8bb 4cdc 61bd d147 d0bd
00000080: 2ca3 293e 33f7 b33d b0e3 b53c 0c3d 0dbe
00000090: bb0b 68bd 2241 4cbc 8586 6dbd f8d7 32bd
000000a0: 6c45 bf3c 12bd f7bc 9988 cd3d 8afb 983d
000000b0: 5fe5 84bd 4b5a c93d b4cb 20be c1a6 9c3d
000000c0: 7c21 e4bd e08b 203e 69ac 18be 034b 84bc
000000d0: 3038 c7bd 426e c5bd 50a2 2b3e 5901 ec3d
000000e0: 3438 2fbe 6fd9 8f3d 4d1a 303b c189 f83d
000000f0: f5e6 af3d 3f5d 6cbb 421a 73bd 416f 533b
00000100: 57c7 80bd 8f15 1f3e c9c8 fa3c 8b94 fd3d
00000110: 9d0e 143e f58b 9d3b dedd 11be 56c6 22be
00000120: 0a56 acbd 685b fe3d cc97 0f3e 76e4 b1bc
00000130: e995 aa3d 1d50 153d 256d 12be 307c 823d
00000140: e595 d73d f4d2 18be e5c3 34be 5abd 6b3d
00000150: 040e 73bd 9a89 14be eebb a1bb 7345 293d
00000160: 3d05 6b3b a9e7 ef3d c971 383d d80f ee3d
00000170: c780 b83d 01ea c9bd 5a9c 883c 273e 1c3e
00000180: c256 a13d 3e0a 26be 6a4a 30be 8687 bf3d
00000190: 0d44 9d3d 9775 b33d b01f a8bc 87f4 e73b
000001a0: a7c7 6f3d 315b bcbd 2048 353c 3aa7 253c
000001b0: 4cc4 6abd a825 fa3d 9bdb ebbd 7b67 e3bd
000001c0: 9d44 03be faa3 20be 9a5a 6fbd 78f5 153e
000001d0: 8636 1b3e 7589 013e 3eb1 6bbd fe86 f83c
000001e0: 8bd3 af3d ab54 e73d b0f6 173e 3546 f3bd
000001f0: d1c1 bf3d 5926 afbb 8986 02be bdf8 f63d
00000200: 9557 b73d 7a4c 31bd a8f1 2fbe 7d3e 06be
00000210: 50e4 903d 4dec 0cbd d3f7 08be 3fd6 efbd
00000220: df52 40bd d181 0ebe 8578 b93d e127 21be
00000230: bf5b f63d cd2b 2cbe 2db8 1b3e e785 f1bc
00000240: 60a8 15be 8b4c 8d3d 280e ae3b 0052 793d
00000250: b7e6 8b3d 1836 28bc 8213 033e d783 0abe
00000260: b3fb e53d 66e4 18be a69f fdbd e7ee 08be
00000270: 4867 5bbd 43de 1a3e aec4 ba3d eff3 413d
00000280: 5c17 d03d 916c bf3d 29a1 34bd 4e06 62bd
00000290: 7f34 08bd 7a34 f53d b620 85bd a467 23bc
000002a0: 3448 50bd 856e 653d b694 9abd 0a9b 343d
000002b0: f686 34be f991 343e 72ca bf3c 67f4 a7bd
000002c0: 749f ccbd 4c88 043e 6aaa 993d bbf6 643c
000002d0: 0d31 3abd c9b3 febd 6b38 97bc 8421 11be
000002e0: baa5 183d 5cae 803d 232c 443a 6c49 c3bd
000002f0: 1176 02b7 bc02 71bd 90b1 24be 36e0 84bc
00000300: 371d 093e 28a3 a8bd 2fe7 0e3d 81fa 243e
00000310: 4a6e 823c de5d 25be 2c27 43bd ab66 493d
00000320: ae6e f5bd 7c50 173e be03 e6bc df95 c8bc
00000330: dabf 2e3e dda4 30be b918 79bd f4b6 263d
00000340: 2eba 0d3c 445b ae3d dbb6 febd c9f7 f63c
00000350: fe6a 6cbd 6d9c 243e b95d 053d d63e 5cbc
00000360: 215b 14be eb45 97bd 49a2 dabd 1253 273d
00000370: 7d78 4bbd 1161 9d3d b373 103e 6f0b 0d3e
00000380: f80b 01be bbe5 fb3d b884 da3c 620e 303e
00000390: 4e30 a03b f925 23be 1b9d 183d 3d49 273d
000003a0: 90a9 3b3d b786 c8bb 487a 033e c4ee 19be
000003b0: 43a5 20bd 26f7 883d 8365 343e 24c1 b9bd
000003c0: 9b02 9ebd 87cd eb3c eef3 893d e4d0 a53d
000003d0: b682 f13d 81a1 103d 46a8 21be cc24 b4bb
000003e0: fb5e b6bd c2d6 923d 3558 e63d 9dce bc3d
000003f0: 6bb0 9fbd cc40 7fbb 34ae a4bd da70 d6bc

gru.weight_hh_l0 f4 [96, 32]
-0.05418458 -0.16752931 -0.036997344 0.15811683 0.023314562 0.10571591 0.094625555 -0.14683773
0.03088209 0.11937043 -0.028492281 -0.0649834 -0.1581294 -0.033881154 0.032126877 -0.10676376
-0.14877905 0.15974648 -0.17550728 -0.049970966 0.12700236 -0.012077685 0.034072902 0.0757589
0.024196295 0.1748977 0.12433664 0.09541378 0.15903702 -0.077489294 0.0186551 0.16490316
-0.012647616 -0.15221557 -0.16890356 -0.15859532 0.06664321 0.085057035 -0.15091948 -0.14377277
0.13867632 0.16477166 0.10745353 -0.17555393 -0.13640092 -0.16621554 0.03634308 0.1548633
0.063672066 -0.09022481 -0.11014413 -0.082329825 -0.03673812 0.14792988 0.17029557 -0.034316383
-0.01967006 0.10506832 -0.118199505 -0.055475894 -0.16654186 0.082305394 -0.03585875 -0.03718924
-0.0063650804 0.106449686 0.030199418 -0.04086668 0.09204547 0.0843138 0.109468974 0.16633959
0.13344409 -0.09742166 -0.12898605 -0.056364857 -0.1676305 0.024009205 -0.16808517 0.16469555
-0.13564967 0.14456508 -0.09514783 -0.050007634 0.09219006 0.095685735 0.08505782 -0.041535024
0.08549056 0.062330637 0.08933222 -0.06005144 -0.16894983 -0.016863586 -0.16898572 -0.0717777
0.059944913 -0.010620795 0.1406922 0.10749545 0.14681402 -0.044995617 0.113375865 0.16216132
0.06518246 0.17544086 -0.038322255 -0.02151133 0.12697184 0.100117475 0.17090613 0.061007205
-0.07541637 -0.07903051 -0.14744897 -0.15225357 -0.062001806 -0.0886007 -0.14059581 -0.0024440326
0.102764234 -0.0886265 0.12987675 0.013050097 -0.1720893 0.05582289 0.17588526 -0.0048726182
0.07564238 0.08710938 -0.019907072 -0.016526897 0.1124252 -0.14948602 -0.010896709 0.025311416
-0.16134344 -0.017621407 0.10806648 -0.08609098 -0.12314849 -0.12679179 -0.1469257 -0.13266283
0.0402503 0.12705806 0.0076082437 0.037489135 -0.14805165 0.0031088148 0.13984671 -0.17275415
-0.07530265 0.16504654 -0.04548153 0.083758116 -0.071344644 -0.081297204 0.15449037 -0.034466535
0.06199085 -0.16354051 0.07659058 -0.035367 -0.042145163 0.069167614 -0.088589616 -0.12693897
0.09186875 0.07505407 0.12399809 0.0692393 0.10139168 -0.02552645 0.074084885 -0.1568483
0.090047285 0.1459907 -0.14372121 0.10380958 0.09417444 -0.11812369 -0.03813139 -0.11486118
-0.055047702 -0.03543804 0.10981779 0.10722491 -0.019995077 -0.14938433 0.047870032 -0.12736973
0.06260139 -0.025853572 0.17584899 0.17059541 -0.16639736 0.023201544 -0.16336289 0.12052696
0.086270064 -0.0028900516 -0.037337177 -0.11645452 -0.088475235 0.032007117 0.10419613 0.09375375
-0.08021051 0.14722373 0.042498857 -0.060122836 0.06234332 0.06667079 -0.025125928 -0.07076435
0.122108564 -0.065140925 0.012014591 0.07692714 0.13611552 -0.16022722 0.06938027 0.14203958
-0.16519499 -0.07294972 0.1608994 -0.07304879 0.13031854 0.05545497 0.107996956 -0.075319536
0.15324691 0.081921436 -0.11586497 -0.11629369 -0.00346445 0.04940506 0.03730272 -0.04192463
0.031711858 -0.08448452 -0.17593037 -0.008694242 -0.13749187 0.12036162 0.123235695 0.080849454
0.08356441 -0.14239399 0.068534106 -0.036470257 0.057873502 -0.0064021694 -0.14539959 -0.13905436
00000000: a6f0 5dbd ce8c 2bbe 878a 17bd 61e9 213e
00000010: 2efe be3c 9581 d83d 0bcb c13d a15c 16be
00000020: 70fc fc3c 7c78 f43d a568 e9bc 0416 85bd
00000030: acec 21be f7c6 0abd 7997 033d f5a6 dabd
00000040: 8959 18be 9594 233e 2eb8 33be 5bae 4cbd
00000050: e80c 023e 7ce1 45bc 0790 0b3d 7b27 9b3d
00000060: 4f37 c63c 6218 333e 35a4 fe3d 4d68 c33d
00000070: 9ada 223e b5b2 9ebd 95d2 983c 60dc 283e
00000080: f237 4fbc 66de 1bbe 0ef5 2cbe d066 22be
00000090: 3c7c 883d 6232 ae3d a38a 1abe 2b39 13be
000000a0: 2a01 0e3e e7b9 283e 9910 dc3d 69c4 33be
000000b0: afac 0bbe 6834 2abe 7bdc 143d 7c94 1e3e
000000c0: 8066 823d c9c7 b8bd 3f93 e1bd 8a9c a8bd
000000d0: b67a 16bd ee7a 173e f661 2e3e 568f 0cbd
000000e0: 1b23 a1bc 0f2e d73d 9512 f2bd b13a 63bd
000000f0: f389 2abe bb8f a83d a0e0 12bd bf53 18bd
00000100: 2a92 d0bb 4b02 da3d c564 f73c d263 27bd
00000110: 5682 bc3d b7ac ac3d 4531 e03d ed54 2a3e
00000120: 91a5 083e 0285 c7bd eb14 04be d6de 66bd
00000130: 54a7 2bbe f4ae c43c 851e 2cbe f3a5 283e
00000140: bfe7 0abe de08 143e dedc c2bd ced4 4cbd
00000150: 24ce bc3d e2f6 c33d cb32 ae3d a120 2abd
00000160: ad15 af3d 694e 7f3d d0f3 b63d 80f8 75bd
00000170: 2f01 2dbe 8125 8abc 980a 2dbe 3000 93bd
00000180: cc88 753d d802 2ebc 9e11 103e 9326 dc3d
00000190: 6a56 163e 534d 38bd 9b31 e83d 9e0d 263e
000001a0: 627e 853d c5a6 333e ccf7 1cbd 8738 b0bc
000001b0: e804 023e 640a cd3d 0402 2f3e b1e2 793d
000001c0: e673 9abd bfda a1bd ddfc 16be 5ce8 1bbe
000001d0: 9bf5 7dbd 4974 b5bd 59f8 0fbe 102c 20bb
000001e0: 0e76 d23d cf81 b5bd 69fe 043e 13d0 553c
000001f0: 2d38 30be 8ba6 643d 441b 343e 7caa 9fbb
00000200: 64ea 9a3d 6766 b23d 2814 a3bc 6a63 87bc
00000210: 2f3f e63d dd12 19be 1c88 32bc e359 cf3c
00000220: 3737 25be c55a 90bc f551 dd3d 7850 b0bd
00000230: 4735 fcbd b5d5 01be b173 16be c4d8 07be
00000240: 80dd 243d 821b 023e 934e f93b 358e 193d
00000250: da9a 17be 42bd 4b3b fa33 0f3e 77e6 30be
00000260: 4738 9abd f601 293e d74a 3abd 6089 ab3d
00000270: 241d 92bd 267f a6bd b932 1e3e c82c 0dbd
00000280: 1eea 7d3d 2a77 27be 86db 9c3d fddc 10bd
00000290: 68a0 2cbd c0a7 8d3d 796e b5bd 4afc 01be
000002a0: af25 bc3d f3b5 993d b6f2 fd3d 56cd 8d3d
000002b0: 71a6 cf3d d81c d1bc d1b9 973d d79c 20be
000002c0: b66a b83d 967e 153e a72b 13be 1e9a d43d
000002d0: 87de c03d d5ea f1bd a92f 1cbd 573c ebbd
000002e0: b379 61bd 7a27 11bd 26e8 e03d bc98 db3d
000002f0: b7cc a3bc 35f8 18be 5e13 443d 366d 02be
00000300: 2835 803d dfca d3bc c211 343e 90b0 2e3e
00000310: 1264 2abe 2a11 be3c 9a48 27be d7d6 f63d
00000320: 5cae b03d 0567 3dbb deee 18bd b57f eebd
00000330: 8132 b5bd e519 033d c864 d53d f701 c03d
00000340: 6845 a4bd d1c1 163e 4813 2e3d 5d43 76bd
00000350: b65b 7f3d b28a 883d e4d4 cdbc e6ec 90bd
00000360: 0e14 fa3d 9b68 85bd d9d8 443c fa8b 9d3d
00000370: de61 0b3e 9b12 24be 3e17 8e3d d372 113e
00000380: e028 29be aa66 95bd d0c2 243e 9b9a 95bd
00000390: 3972 053e c024 633d 822d dd3d 2141 9abd
000003a0: c2ec 1c3e 6dc6 a73d 9d4a edbd 632b eebd
000003b0: d30b 63bb f65c 4a3d bdca 183d 29b9 2bbd
000003c0: 4be4 013d 3806 adbd 1727 34be 4b72 0ebc
000003d0: abca 0cbe 2780 f63d ff62 fc3d 6694 a53d
000003e0: d123 ab3d bbcf 11be 9c5b 8c3d d661 15bd
000003f0: c40c 6d3d 4ac9 d1bb a1e3 14be 4464 0ebe

gru.bias_ih_l0 f4 [96]
0.0005289851 0.020478543 0.0020525726 -0.08485389 -0.059863064 0.14509809 -0.07042376 0.10751962
-0.055810306 -0.1348089 0.004793445 -0.11666218 -0.04084491 -0.019364117 -0.16015598 0.036153417
-0.076659195 -0.14570102 -0.017950533 0.07837548 0.16634452 0.08885472 0.11687175 -0.17037988
-0.06567269 0.12468351 0.11784916 -0.13074595 -0.076287314 -0.16743447 -0.028185958 0.105273634
0.033885982 -0.12374445 0.1614576 0.060861122 -0.10226254 0.027896471 -0.109980896 0.1384232
-0.08093306 0.13627635 0.040345114 0.06218978 0.124530785 -0.11737335 -0.09044172 -0.1760392
0.09803591 -0.13536608 -0.0840444 -0.09555165 -0.17081669 0.05967279 -0.071283765 -0.12405387
0.17111823 -0.028544564 0.1367816 0.17618248 -0.13718306 0.037021495 0.13057117 0.09624629
0.15368608 0.074607 -0.15784949 0.17485215 0.02149131 0.13766827 0.08891229 -0.105672345
0.066929005 0.07617876 -0.16507393 0.13997787 -0.1532483 0.08781983 -0.123641804 0.14903927
-0.10192887 0.115191825 -0.14671198 -0.04137674 0.00010005662 -0.060169052 0.15331 -0.13430175
0.10254261 0.09024795 0.006243339 -0.11086153 0.05308663 -0.12407771 -0.076907374 -0.1161601
00000000: 97ab 0a3a 9ec2 a73c 7484 063b e0c7 adbd
00000010: f932 75bd 9894 143e 553a 90bd 3f33 dc3d
00000020: 5999 64bd 580b 0abe 5512 9d3b 95ec eebd
00000030: fe4c 27bd 7fa1 9ebc eeff 23be 9b15 143d
00000040: 7fff 9cbd a632 15be ff0c 93bc 5383 a03d
00000050: 3856 2a3e 77f9 b53d 755a ef3d 1078 2ebe
00000060: 677f 86bd 115a ff3d e75a f13d 44e2 05be
00000070: 863c 9cbd f173 2bbe 3de6 e6bc b499 d73d
00000080: 07cc 0a3d bb6d fdbd 2455 253e 8349 793d
00000090: 066f d1bd 2487 e43c aa3d e1bd d0be 0d3e
000000a0: 3bc0 a5bd 078c 0b3e eb40 253d b6ba 7e3d
000000b0: ff09 ff3d 7061 f0bd 8239 b9bd 9f43 34be
000000c0: 0dc7 c83d 689d 0abe 781f acbd 95b0 c3bd
000000d0: 92ea 2ebe 756b 743d 39fd 91bd f50f febd
000000e0: 9e39 2f3e 4ad6 e9bc 7a10 0c3e 2e69 343e
000000f0: b779 0cbe daa3 173d 73b4 053e c61c c53d
00000100: e25f 1d3e 8ecb 983d 4ca3 21be 710c 333e
00000110: 8b0e b03c e9f8 0c3e a617 b63d be6a d8bd
00000120: 1312 893d 9c03 9c3d 2409 29be 5c56 0f3e
00000130: 1fed 1cbe e2da b33d ea37 fdbd c09d 183e
00000140: 15c0 d0bd b1e9 eb3d aa3b 16be a87a 29bd
00000150: 7dd5 d138 d373 76bd 4cfd 1c3e 6686 09be
00000160: dc01 d23d ebd3 b83d ec94 cc3b 5f0b e3bd
00000170: 5e71 593d 741c febd 9d81 9dbd 59e5 edbd

gru.bias_hh_l0 f4 [96]
-0.16228697 0.105605565 0.107148685 -0.13146868 0.0018917401 0.17187065 0.14060658 -0.07726354
-0.06492326 0.048301153 0.07093133 0.12484754 -0.11012598 -0.057651535 -0.17638451 -0.15553041
-0.12089008 0.03635271 0.038637996 -0.008806057 0.080512576 -0.105947606 -0.07679267 -0.17352267
-0.07875571 0.16073526 0.017363027 0.14927623 -0.12436452 0.14649262 0.034717266 -0.11975475
-0.049325615 -0.059690725 0.06597514 0.04557242 0.117247894 0.013389 0.015524686 -0.16428699
0.116472475 -0.038100056 0.13386315 0.16893211 0.14853078 -0.1279259 0.15166818 -0.030047541
0.043388642 -0.15860239 -0.16591354 -0.090726696 -0.15795547 0.009854818 0.04482098 0.022688745
0.013660362 0.08312416 0.16496396 -0.06489051 0.14174153 0.07125521 -0.042374484 -0.05183257
-0.06339118 -0.00063867227 0.03738541 -0.0480661 -0.07162145 -0.14705947 -0.09764154 -0.08818271
-0.15420176 0.17635573 -0.1568046 0.16314057 0.03493133 -0.08413742 -0.055640478 -0.00048698575
-0.15898667 -0.12760074 0.031743467 -0.13742347 0.09454881 0.0053738705 0.12738915 0.07159742
0.013296087 0.07269941 -0.07884948 -0.033326123 -0.10835891 0.1036917 -0.07612728 -0.027325466
00000000: 8e2e 26be bb47 d83d c570 db3d ba9f 06be
00000010: 44f4 f73a dcfe 2f3e 2cfb 0f3e 593c 9ebd
00000020: 7cf6 84bd 6ed7 453d 7244 913d 11b0 ff3d
00000030: bb89 e1bd 0424 6cbd 249e 34be 5d43 1fbe
00000040: 3895 f7bd 94e6 143d e042 1e3d 4847 10bc
00000050: c7e3 a43d 0ffb d8bd 7a45 9dbd edaf 31be
00000060: ac4a a1bd c997 243e e83c 8e3c dedb 183e
00000070: d3b2 febd 2902 163e b133 0e3d fa41 f5bd
00000080: a809 4abd 437e 74bd f91d 873d 25aa 3a3d
00000090: aa1f f03d 895d 5b3c 415b 7e3c d93a 28be
000000a0: 1f89 ee3d ce0e 1cbd 6c13 093e 8afc 2c3e
000000b0: 7418 183e 02ff 02be e74e 1b3e 4326 f6bc
000000c0: 4ab8 313d aa68 22be 3de5 29be ebce b9bd
000000d0: 14bf 21be 1a76 213c 3496 373d bfdd b93c
000000e0: b6cf 5f3c 003d aa3d 50ec 283e 51e5 84bd
000000f0: b124 113e 40ee 913d de90 2dbd 644e 54bd
00000100: 3cd3 81bd 926c 27ba 7221 193d f5e0 44bd
00000110: 44ae 92bd c296 16be 4af8 c7bd 2399 b4bd
00000120: 11e7 1dbe 9996 343e 6391 20be 520e 273e
00000130: 2714 0f3d 3d50 acbd 45e7 63bd 1f52 ffb9
00000140: 67cd 22be c5a9 02be 7005 023d bdb8 0cbe
00000150: cea2 c13d 4b17 b03b 4d72 023e aba1 923d
00000160: d5d7 593c 6ee3 943d d67b a1bd f980 08bd
00000170: 47eb ddbd 505c d43d 9fe8 9bbd a8d9 dfbc

fc1.weight f4 [1, 32]
0.37328094 0.061704587 0.15266587 -0.09774299 -0.13423511 0.30826026 0.017256774 -0.14740865
0.1410578 0.06525519 -0.09448824 0.05025687 0.26948145 -0.43524945 0.14788981 0.28038284
-0.011074316 -0.05519846 0.39388406 -0.31992683 0.25384313 0.24847998 -0.47945234 0.029796515
-0.0027856117 0.32226494 0.4379689 0.23451743 -0.38151765 0.10998332 -0.5087119 0.14311363
00000000: ae1e bf3e f3bd 7c3d 7154 1c3e 7a2d c8bd
00000010: ee74 09be 4ad4 9d3e 145e 8d3c 4bf2 16be
00000020: 7571 103e 83a4 853d 0d83 c1bd 26da 4d3d
00000030: 79f9 893e 04d9 debe 6d70 173e 578e 8f3e
00000040: 0c71 35bc c817 62bd 2cab c93e 73cd a3be
00000050: baf7 813e 8971 7e3e c77a f5be d217 f43c
00000060: cf8e 36bb e9ff a43e 763d e03e 5625 703e
00000070: 4856 c3be ef3e e13d f13a 02bf 618c 123e

fc2.weight f4 [1, 32]
0.39474255 0.02835876 0.14439955 0.13411126 -0.13257243 0.34039557 0.08646061 -0.041713074
-0.081017666 -0.114053145 -0.042441938 0.005151019 0.35523468 -0.21086322 -0.033904146 0.41029975
0.056637526 0.0962924 0.5115371 -0.45972398 0.40301636 0.34875587 -0.37117895 0.07396618
-0.008923816 0.19703586 0.47427535 0.35031852 -0.51694053 -0.012617396 -0.4561512 0.037885085
00000000: b21b ca3e a150 e83c 7add 133e 7654 093e
00000010: 11c1 07be 5448 ae3e 4312 b13d 54db 2abd
00000020: 97ec a5bd b294 e9bd 99d7 2dbd e1c9 a83b
00000030: 52e1 b53e 87ec 57be 13df 0abd cf12 d23e
00000040: c0fc 673d f334 c53d 18f4 023f f160 ebbe
00000050: 2958 ce3e 2190 b23e 2b0b bebe 957b 973d
00000060: 3235 12bc c5c3 493e 38d4 f23e f35c b33e
00000070: 3756 04bf 32b9 4ebc a68c e9be 642d 1b3d
