project/models/GRU/Tesla.pth (torch, 157263 bytes, 9 tensors)

gru.weight_ih_l0 f4 [192, 5]
0.061583817 0.09335689 0.02848488 0.10861611 -0.06714068 0.10856873 -0.12084398 -0.11676085
-0.11279409 0.058057457 0.030764252 -0.055394158 -0.053232074 0.0154608935 0.11679165 0.012171432
-0.069716245 0.027217343 0.017205268 -0.07124236 -0.04619643 0.08015558 0.054790005 -0.025133982
0.102881625 0.11882582 0.11741826 -0.09730947 0.034701586 -0.0887111 0.025126427 -0.03526941
0.11168192 -0.03045389 0.07150105 -0.09242195 -0.12308596 0.10031031 0.044259146 -0.06594062
0.106570676 0.08492865 0.11890791 0.06367335 0.006572604 0.09304072 0.06599611 -0.06574431
0.035671353 -0.0025589466 0.030102089 -0.034221932 0.07312743 0.05200173 -0.06463651 0.017229155
0.0010698736 0.04715389 0.06096974 0.004436046 -0.016848832 0.057940185 0.011862591 -0.11459459
0.0929984 -0.05866283 0.100935146 -0.060278878 0.053579926 0.09828487 -0.048125 0.06766461
-0.02399984 -0.034067094 -0.011994362 0.052301124 0.05237092 0.02892442 0.06627336 -0.020632237
-0.0049559325 -0.06694412 -0.04647617 0.0012282282 0.017108262 0.07810429 -0.014437363 -0.024489075
0.05044213 0.0893631 0.095018566 0.12236959 0.041382566 0.09133652 -0.094077915 0.05009505
-0.11829217 -0.084471256 0.06942481 0.11920309 -0.11122586 -0.012045115 0.12308563 -0.056031257
0.09936476 0.03879398 -0.039249763 -0.030192927 0.041067347 0.017188147 -0.07611969 -0.06561048
0.07094878 0.09279455 0.06013511 -0.046009585 0.045818895 0.015489012 -0.017446607 0.013668954
-0.039164186 0.11906746 -0.10964173 -0.046513394 0.03731084 -0.070928335 -0.10573088 0.022726461
0.11863369 -0.050464004 -0.07982141 -0.022377953 0.081497505 0.08951861 -0.044117644 0.055450737
-0.08562574 -0.08340402 0.030369446 0.09646092 0.08591673 0.10629064 0.06340934 -0.028407767
0.12482965 -0.013270929 -0.021497026 0.021404132 -0.10936862 0.09889184 -0.08822432 -0.07320608
0.10886443 -0.11623892 -0.024326876 -0.0554765 0.02406469 -0.112785295 -0.022299081 0.06581575
0.10091834 0.06421223 -0.11087532 0.09999433 0.05537346 -0.056729883 -0.07426636 -0.05196239
-0.039537057 -0.0054481328 0.05327134 0.07128176 0.05566053 -0.11756256 -0.017029122 0.12221134
-0.046681494 -0.124745294 0.016869217 0.06665908 0.111719295 -0.095378324 0.12204257 -0.05508077
0.008346707 -0.12273522 -0.12499167 0.0015395433 -0.071618676 -0.119933575 -0.038355276 0.054135814
0.008504003 -0.041411713 0.06273992 0.050606772 -0.09613654 0.11970313 0.10308577 -0.017566532
-0.092418045 0.09661628 -0.04629381 0.09882966 0.021466836 0.041239217 0.1049764 -0.07596916
0.082493484 0.07536356 0.12272245 -0.016528025 -0.032629535 0.0049225837 -0.03298834 0.07966776
0.11158216 0.03258416 -0.08034636 -0.10146546 0.08864449 0.10988633 -0.056288347 0.082461074
0.10260166 -0.011361152 -0.107013464 0.079623014 0.040147856 0.042406812 0.0114136785 -0.122034445
-0.042490676 -0.064224795 -0.055213213 -0.0069553703 -0.06989473 0.016803518 0.043976247 0.10299988
-0.12442565 -0.04555744 -0.012618676 -0.058937147 0.032519296 0.0011976659 -0.11954498 -0.108487785
0.08128141 0.08332239 -0.01290229 -0.05408077 -0.01567176 -0.007605657 0.055726707 0.109047934
00000000: 503f 7c3d e631 bf3d 2059 e93c 2072 de3d
00000010: 0e81 89bd 4859 de3d 0c7d f7bd 5020 efbd
00000020: 9600 e7bd a8cd 6d3d 5005 fc3c fce4 62bd
00000030: e009 5abd b04f 7d3c 7630 ef3d b06a 473c
00000040: 64c7 8ebd e8f6 de3c 10f2 8c3c 84e7 91bd
00000050: 7838 3dbd 9c28 a43d 7c6b 603d c8e5 cdbc
00000060: 9ab3 d23d f45a f33d fc78 f03d 304a c7bd
00000070: 4023 0e3d 2aae b5bd f0d5 cd3c a876 10bd
00000080: 7eb9 e43d 707a f9bc 246f 923d b847 bdbd
00000090: 7e14 fcbd 7e6f cd3d 1449 353d e00b 87bd
000000a0: ba41 da3d 12ef ad3d fe85 f33d 2c67 823d
000000b0: 005f d73b 228c be3d f828 873d f4a4 86bd
000000c0: 201c 123d 00b4 27bb a898 f63c 4c2c 0cbd
000000d0: d6c3 953d c4ff 543d 2660 84bd 2824 8d3c
000000e0: 003b 8c3a 7024 413d 68bb 793d 405c 913b
000000f0: 9006 8abc b052 6d3d 505b 423c 92b0 eabd
00000100: f275 be3d 7048 70bd 16b7 ce3d fce6 76bd
00000110: a076 5b3d 9449 c93d b81e 45bd be93 8a3d
00000120: 509b c4bc f089 0bbd 0084 44bc b439 563d
00000130: e482 563d e8f2 ec3c 54ba 873d f004 a9bc
00000140: 6065 a2bb 001a 89bd cc5d 3ebd 80fc a03a
00000150: a026 8c3c 24f5 9f3d b08a 6cbc 509d c8bc
00000160: 689c 4e3d 0004 b73d 1899 c23d e89c fa3d
00000170: c480 293d a40e bb3d ecab c0bd 7830 4d3d
00000180: 2a43 f2bd 44ff acbd 982e 8e3d c020 f43d
00000190: 62ca e3bd e058 45bc 5214 fc3d 0881 65bd
000001a0: c07f cb3d 70e6 1e3d 5cc4 20bd 2857 f7bc
000001b0: 3c36 283d 28ce 8c3c a4e4 9bbd ca5e 86bd
000001c0: 984d 913d 120b be3d 3c50 763d 8c74 3cbd
000001d0: 98ac 3b3d a0c5 7d3c 30ec 8ebc c0f3 5f3c
000001e0: a06a 20bd a4d9 f33d d88b e0bd d484 3ebd
000001f0: 40d3 183d e042 91bd 6e89 d8bd d82c ba3c
00000200: 38f6 f23d 58b3 4ebd 6879 a3bd f851 b7bc
00000210: 2ae8 a63d 8855 b73d b4b4 34bd 5020 633d
00000220: 8c5c afbd bacf aabd 58c9 f83c 4e8d c53d
00000230: 1cf5 af3d e8ae d93d c2dc 813d 68b7 e8bc
00000240: b0a6 ff3d 506e 59bc 881a b0bc b857 af3c
00000250: a8fc dfbd ce87 ca3d f4ae b4bd 12ed 95bd
00000260: 50f4 de3d ac0e eebd 2849 c7bc 543b 63bd
00000270: 5023 c53c fafb e6bd 90ac b6bc 68ca 863d
00000280: 46ae ce3d b481 833d 9a12 e3bd d4c9 cc3d
00000290: 48cf 623d 985d 68bd f618 98bd 84d6 54bd
000002a0: 9cf1 21bd 4086 b2bb 0c33 5a3d 2cfc 913d
000002b0: 4cfc 633d a4c4 f0bd a880 8bbc f049 fa3d
000002c0: 1835 3fbd 767a ffbd 5031 8a3c 8e84 883d
000002d0: 16cd e43d b655 c3bd 74f1 f93d 609c 61bd
000002e0: a0c0 083c 9a5c fbbd a2fb ffbd 80ca c93a
000002f0: d0ac 92bd bc9f f5bd 6c1a 1dbd 84bd 5d3d
00000300: 6054 0b3c 549f 29bd ca7d 803d 0c49 4f3d
00000310: 3ce3 c4bd ea26 f53d a21e d33d b0e7 8fbc
00000320: ac45 bdbd c2de c53d 949e 3dbd 3467 ca3d
00000330: 38db af3c 74ea 283d defd d63d b895 9bbd
00000340: 58f2 a83d 3658 9a3d e855 fb3d c865 87bc
00000350: 8ca6 05bd a04d a13b c81e 07bd da28 a33d
00000360: 3085 e43d f876 053d a28c a4bd 20cd cfbd
00000370: 3e8b b53d 160c e13d 9c8e 66bd 5ae1 a83d
00000380: d220 d23d 2024 3abc e029 dbbd 6411 a33d
00000390: 1472 243d c4b2 2d3d 7000 3b3c 32ed f9bd
000003a0: b40a 2ebd 4a88 83bd 4027 62bd e0e9 e3bb
000003b0: f824 8fbd 88a7 893c 7020 343d 9af1 d23d
000003c0: e0d2 febd 709a 3abd 90be 4ebc 1468 71bd
000003d0: f432 053d 00fb 9c3a 00d4 f4bd d82e debd
000003e0: de76 a63d eea4 aa3d 2064 53bc cc83 5dbd
000003f0: 1062 80bc e038 f9bb b041 643d 8654 df3d

gru.weight_hh_l0 f4 [192, 64]
0.06136222 0.03071177 0.0283854 0.105581224 -0.057977498 -0.01802896 -0.07660976 -0.071594894
-0.115558654 0.036706135 0.07532613 0.093567416 -0.105450585 0.032193065 -0.11507955 -0.10999808
0.05291222 0.12304482 0.08934356 0.122552454 0.102957785 0.0469262 -0.083691716 -0.07114203
-0.099688396 -0.081002176 -0.013884082 0.061589643 0.085409135 -0.0147589 0.08664343 0.10411242
-0.065579206 -0.1223122 -0.06314811 -0.05056466 0.04799275 -0.11837429 0.04516737 0.062243134
0.0683859 -0.07221185 0.09493108 -0.07045692 0.029003188 0.11713171 0.005034253 0.0136812925
-0.06568669 0.051638454 -0.12227532 0.07687296 -0.088202804 -0.0050498247 0.07286245 -0.080664515
0.08295514 -0.12143624 0.053425208 0.004564032 0.09457423 -0.102418095 0.020286977 -0.0655971
0.048150584 -0.0044483542 -0.11270709 0.08370799 0.0036067516 0.0029799044 -0.023589343 -0.08004257
0.0015059412 -0.0029163063 0.08354454 -0.052705154 -0.0072523654 0.06288949 0.008678079 -0.10706797
0.053867266 -0.0027707815 0.10886365 0.11879304 0.0058846176 -0.014869362 -0.021129742 0.11904539
-0.107309505 -0.050890148 -0.04162763 -0.00068093836 -0.042751744 0.09368175 0.04086399 0.11270799
-0.02169694 -0.029019311 0.11871831 -0.061331645 -0.09283225 -0.06386043 0.11783831 -0.12445459
-0.043931186 -0.10620329 0.0436465 -0.08483708 0.018562362 0.06084618 0.06278567 -0.064627364
0.027329922 -0.10957697 0.025514558 0.0660823 0.10278766 0.061990187 -0.0006930679 -0.104107425
-0.050661385 0.11095078 0.0762154 -0.101536244 -0.030170456 0.048701003 -0.020251289 -0.00087821484
-0.035921082 -0.027377501 -0.036060646 0.030437276 -0.0074465424 0.11733405 0.0030462146 0.08431701
0.07487118 -0.10986866 0.05910185 -0.118251964 -0.08411935 -0.05729392 0.04035534 -0.014339998
-0.049815655 0.044520557 -0.026619643 -0.115980804 -0.102283955 -0.103781596 -0.080784455 -0.052683696
0.034409314 -0.04755467 -0.013598651 0.09077951 0.07466391 -0.019066945 -0.037918314 -0.12494813
0.1073273 -0.02238831 0.0051366836 0.102016345 0.053331345 0.03936377 0.034570515 -0.10525216
0.031230643 0.016256139 -0.014141202 0.028177872 -0.091370314 -0.11084749 -0.09135085 0.082539424
-0.11226091 -0.009499267 -0.104250014 0.016474158 -0.009487942 -0.101293266 -0.044987157 -0.0864896
-0.053994447 0.030703604 0.08536787 0.007784292 -0.033601105 0.051718265 0.0005425364 -0.029499665
0.12083067 0.025724128 -0.024243161 -0.07432525 -0.07503855 0.04368159 -0.0010909885 0.063806266
-0.11622323 0.111908466 -0.034767613 -0.032385796 -0.042782933 0.010098517 0.0551071 0.0023076236
0.103208736 -0.077388376 -0.10894479 -0.011498898 0.058351487 0.048914164 -0.045011967 -0.124838814
-0.049644083 0.124231026 0.12274715 0.0030103326 -0.04935421 0.014148325 -0.055531546 0.025595963
0.05158615 -0.09215313 -0.07125601 -0.0475969 0.01999949 0.123881936 -0.078021154 0.09982462
-0.07202199 -0.08952442 0.10878685 -0.043608278 -0.013319343 0.11110227 0.084208295 -0.10462284
0.11574264 0.011648282 -0.035007954 -0.05068536 -0.041801497 -0.0402731 -0.11909431 0.08739047
-0.08360894 0.08326018 0.02831395 0.032179236 0.046297908 0.052484497 0.11022608 -0.1170267
00000000: f456 7b3d 4097 fb3c 8088 e83c f83a d83d
00000010: d079 6dbd 78b1 93bc 94e5 9cbd 58a0 92bd
00000020: 04aa ecbd 2c59 163d 9644 9a3d 46a0 bf3d
00000030: 7af6 d7bd e0dc 033d d4ae ebbd ac46 e1bd
00000040: 7cba 583d ecfe fb3d c2f9 b63d c8fc fa3d
00000050: 88db d23d b035 403d 9066 abbd eab2 91bd
00000060: 6e29 ccbd 78e4 a5bd 107a 63bc 6c45 7c3d
00000070: fcea ae3d 50cf 71bc 1c72 b13d e438 d53d
00000080: 644e 86bd d27e fabd cc53 81bd e41c 4fbd
00000090: 0c94 443d 386e f2bd 6c01 393d a8f2 7e3d
000000a0: e80d 8c3d cee3 93bd 3a6b c23d b84b 90bd
000000b0: 1898 ed3c c0e2 ef3d 60f6 a43b 8027 603c
000000c0: be86 86bd d882 533d 7c6b fabd 926f 9d3d
000000d0: aca3 b4bd 0079 a5bb e838 953d 7033 a5bd
000000e0: 62e4 a93d 90b3 f8bd 64d4 5a3d e08d 953b
000000f0: 22b0 c13d 94c0 d1bd e030 a63c c657 86bd
00000100: 8c39 453d 80c3 91bb fad2 e6bd 186f ab3d
00000110: 405f 6c3b 804a 433b 703e c1bc 5ced a3bd
00000120: 0063 c53a 801f 3fbb 6619 ab3d 5ce1 57bd
00000130: 40a5 edbb 34cc 803d 802e 0e3c 7446 dbbd
00000140: eca3 5c3d 0096 35bb e8f3 de3d c449 f33d
00000150: c0d3 c03b a09e 73bc 4818 adbc 12ce f33d
00000160: 16c5 dbbd 3072 50bd bc81 2abd 0081 32ba
00000170: 741c 2fbd 38dc bf3d 0061 273d 72d3 e63d
00000180: c8bd b1bc e8b9 edbc 9622 f33d e436 7bbd
00000190: d61e bebd 42c9 82bd 3655 f13d 0ce2 febd
000001a0: 30f1 33bd 1c81 d9bd acc6 323d 10bf adbd
000001b0: 1810 983c d839 793d c695 803d 5a5b 84bd
000001c0: 00e3 df3c e469 e0bd e803 d13c 2856 873d
000001d0: 5682 d23d 6ce9 7d3d 00af 35ba 4636 d5bd
000001e0: 5082 4fbd 2a3a e33d d216 9c3d 3cf2 cfbd
000001f0: 0828 f7bc b47a 473d 08e6 a5bc 0038 66ba
00000200: fc21 13bd c846 e0bc 54b4 13bd 9857 f93c
00000210: 2002 f4bb d64c f03d 00a3 473b 66ae ac3d
00000220: 1056 993d d202 e1bd c814 723d 162e f2bd
00000230: c446 acbd 08ad 6abd a44b 253d 50f2 6abc
00000240: 800b 4cbd 305b 363d 7011 dabc 5887 edbd
00000250: 407a d1bd 728b d4bd 5272 a5bd dcca 57bd
00000260: c8f0 0c3d b0c8 42bd e0cc 5ebc 9cea b93d
00000270: 64e9 983d 4832 9cbc 3c50 1bbd cee4 ffbd
00000280: 6ace db3d b067 b7bc a051 a83b f2ed d03d
00000290: f871 5a3d e83b 213d d099 0d3d 728e d7bd
000002a0: 68d7 ff3c 982b 853c 80b0 67bc 48d5 e63c
000002b0: 5c20 bbbd 0204 e3bd 2816 bbbd 6e0a a93d
000002c0: 0ce9 e5bd d0a2 1bbc 0881 d5bd d0f4 863c
000002d0: 5073 1bbc d872 cfbd 7444 38bd 7621 b1bd
000002e0: 4829 5dbd 2086 fb3c 5ad5 ae3d 6013 ff3b
000002f0: 50a1 09bd 88d6 533d 0039 0e3a 48a9 f1bc
00000300: 1276 f73d 68bb d23c 9899 c6bc d637 98bd
00000310: d0ad 99bd 78eb 323d 80ff 8eba dcac 823d
00000320: 7206 eebd 4430 e53d 7c68 0ebd f8a6 04bd
00000330: 283d 2fbd 4074 253c fcb7 613d 803b 173b
00000340: 1a5f d33d cc7d 9ebd 721e dfbd e065 3cbc
00000350: f801 6f3d 385a 483d 785e 38bd 7eab ffbd
00000360: 9857 4bbd d66c fe3d dc62 fb3d 0049 453b
00000370: a427 4abd 60ce 673c 0c75 63bd a0ae d13c
00000380: 004c 533d c8ba bcbd acee 91bd f8f4 42bd
00000390: f8d5 a33c d0b5 fd3d 8ec9 9fbd da70 cc3d
000003a0: 4480 93bd 9458 b7bd a4cb de3d 989e 32bd
000003b0: 6039 5abc 9689 e33d 6675 ac3d 8044 d6bd
000003c0: 7a0a ed3d 70d8 3e3c 8064 0fbd 749b 4fbd
000003d0: 0c38 2bbd 68f5 24bd b8e7 f3bd c6f9 b23d
000003e0: 2a3b abbd 5084 aa3d a8f2 e73c 60ce 033d
000003f0: e0a2 3d3d fcf9 563d 36be e13d b2ab efbd

gru.bias_ih_l0 f4 [192]
0.10920741 0.06511226 -0.032667056 0.058769464 -0.12303947 0.031676337 -0.0798184 0.08043496
0.072463095 -0.087751746 0.0053343326 0.04179284 -0.0827146 -0.08144508 0.11832476 -0.11834015
-0.020929754 -0.08044547 0.083838135 0.09405634 -0.0805482 -0.0045548677 -0.009915754 0.11230664
0.07389642 0.029435277 0.089553565 -0.116384804 -0.0031366944 -0.06808673 -0.09351899 0.0467761
0.02629517 0.06725462 -0.013703182 -0.024280787 -0.12288138 -0.010756969 0.04565586 -0.10582076
0.05109413 0.013232231 0.010874286 0.06780051 -0.09213981 0.022627324 -0.0064564496 0.124667466
0.0012172908 0.03493747 -0.12399849 -0.07430838 -0.090687186 -0.059077382 0.053876206 -0.031060934
-0.0029287636 -0.10828145 -0.0039376467 -0.040825903 -0.07969028 0.09479527 -0.033162504 -0.0108805
0.12045094 -0.071573526 0.10245708 -0.051492453 0.051127583 -0.122315705 -0.082981825 -0.009436175
0.031228468 0.04521294 0.1013304 0.10997759 -0.07720792 0.08674465 -0.013339505 -0.07452077
0.02631244 0.06554243 0.05620502 0.031137347 0.10268389 -0.019940287 -0.002727151 0.04386899
-0.0076465905 -0.0628109 0.0188272 -0.102074355 0.08413704 0.0732386 0.04537241 -0.0044002086
-0.016025215 0.06434147 0.010790661 -0.122993246 0.024710089 0.07045454 0.10577555 -0.083441034
-0.12238254 -0.07511528 0.026977345 -0.08739628 -0.049540088 -0.070946336 0.09106767 0.043168172
0.05644931 -0.0053124875 0.0026110113 0.1145851 -0.12366742 0.11991994 -0.051810473 0.016454414
-0.094090536 0.0521193 0.019120872 0.023520097 -0.009207919 -0.110325724 0.022580147 0.07531117
-0.06550388 -0.008928746 0.019580841 0.04007584 0.028105572 0.083144575 -0.038062543 0.0036084056
-0.0022972971 -0.05553931 0.08780539 -0.02510564 -0.10750103 -0.09407343 -0.0410759 0.06333904
0.054288834 0.0316696 -0.070456415 0.09097153 -0.08782868 0.025078788 0.043751284 0.038438395
0.10033324 0.035041586 0.122422576 -0.11665587 -0.038317814 0.020605445 0.039099738 -0.107998714
0.020500198 0.015332505 -0.114878595 0.029983401 0.10118899 0.018644601 -0.046726167 -0.011015654
0.028332442 -0.07149166 -0.03872931 -0.009048179 0.0032738447 0.1204678 -0.068315715 0.09895839
0.09859797 0.06294909 0.0717762 -0.08678652 -0.06590767 0.022731066 -0.023259848 0.029906034
0.109241456 -0.026199654 -0.120798424 0.11338918 0.12175071 0.0693935 0.005059436 -0.027234435
00000000: 22a8 df3d 9459 853d e4cd 05bd 40b8 703d
00000010: 1efc fbbd 0cbf 013d d477 a3bd 16bb a43d
00000020: 8867 943d 30b7 b3bd a0cb ae3b f82e 2b3d
00000030: 4666 a9bd aecc a6bd 4054 f23d 525c f2bd
00000040: e074 abbc 98c0 a4bd 54b3 ab3d 9ca0 c03d
00000050: 74f6 a4bd 0041 95bb b075 22bc 0601 e63d
00000060: 0257 973d 4022 f13c dc67 b73d 285b eebd
00000070: 0091 4dbb 0e71 8bbd e286 bfbd 4c98 3f3d
00000080: f868 d73c cabc 893d 5083 60bc 80e8 c6bc
00000090: 3ca9 fbbd 003e 30bc a401 3b3d 8eb8 d8bd
000000a0: 1448 513d 00cc 583c 102a 323c feda 8a3d
000000b0: ccb3 bcbd f05c b93c a090 d3bb a851 ff3d
000000c0: 808d 9f3a 981a 0f3d ecf2 fdbd fe2e 98bd
000000d0: 34ba b9bd 20fb 71bd 4cad 5c3d 8073 febc
000000e0: 80f0 3fbb aac2 ddbd 6007 81bb 1039 27bd
000000f0: a834 a3bd 0624 c23d 68d5 07bd 2044 32bc
00000100: fcae f63d 2495 92bd 04d5 d13d c0e9 52bd
00000110: 286b 513d a880 fabd 60f2 a9bd 309a 1abc
00000120: d8d2 ff3c 3431 393d 5086 cf3d ee3b e13d
00000130: 301f 9ebd 2ea7 b13d f08d 5abc 589e 98bd
00000140: 308d d73c 1c3b 863d 3c37 663d c013 ff3c
00000150: ee4b d23d d059 a3bc 00ba 32bb f8af 333d
00000160: 4090 fabb 00a3 80bd 803b 9a3c 5c0c d1bd
00000170: 0a50 ac3d 1efe 953d 6cd8 393d a02f 90bb
00000180: 5047 83bc 76c5 833d 50cb 303c e2e3 fbbd
00000190: d06c ca3c 784a 903d daa0 d83d 22e3 aabd
000001a0: b2a3 fabd 0ad6 99bd 98ff dc3c d2fc b2bd
000001b0: 8cea 4abd 504c 91bd b081 ba3d 1cd1 303d
000001c0: 6437 673d 6014 aebb 801d 2b3b 98ab ea3d
000001d0: 5845 fdbd 9698 f53d 3837 54bd 68cb 863c
000001e0: 8ab2 c0bd 0c7b 553d 60a3 9c3c 38ad c03c
000001f0: d0dc 16bc 74f2 e1bd 00fa b83c be3c 9a3d
00000200: e626 86bd e049 12bc 0068 a03c 9026 243d
00000210: a83d e63c b447 aa3d 78e7 1bbd 007b 6c3b
00000220: 408e 16bb 307d 63bd 50d3 b33d 58aa cdbc
00000230: 8029 dcbd 92a9 c0bd 343f 28bd e6b7 813d
00000240: f85d 5e3d fcb7 013d 744b 90bd 484f ba3d
00000250: 86df b3bd 0872 cd3c 8c34 333d 9471 1d3d
00000260: 847b cd3d c487 0f3d b0b8 fa3d 46e9 eebd
00000270: 24f3 1cbd c0cc a83c 0c27 203d 6e2e ddbd
00000280: 08f0 a73c 3035 7b3c 7845 ebbd c09f f53c
00000290: 2c3c cf3d 90bc 983c f063 3fbd 007b 34bc
000002a0: 7019 e83c 386a 92bd a0a2 1ebd d03e 14bc
000002b0: 008e 563b d2b7 f63d 1ce9 8bbd b2aa ca3d
000002c0: bced c93d 74eb 803d 66ff 923d 22bd b1bd
000002d0: 9afa 86bd 8036 ba3c 708b bebc 80fd f43c
000002e0: fcb9 df3d a8a0 d6bc 2a65 f7bd 9638 e83d
000002f0: 7058 f93d 2e1e 8e3d a0c9 a53b c01a dfbc

gru.bias_hh_l0 f4 [192]
-0.005936533 -0.0054255724 0.040121302 -0.06641169 -0.06829259 0.03632541 -0.07525115 0.059728727
-0.115013376 -0.10014136 -0.0026354492 0.12183565 -0.015210822 0.065218 0.1088831 -0.095084235
0.04173559 -0.108690724 -0.00014418364 0.11031596 -0.079273716 0.12010768 -0.060332015 -0.059530795
0.08038059 0.051366195 0.09372257 0.007260412 0.057583198 -0.03733869 -0.015451089 0.04261607
-0.12051983 0.094139785 -0.039207503 -0.11454104 0.04660909 0.059508085 0.041336372 -0.1044704
-0.0058053434 -0.110738054 0.108525276 0.07247479 0.07915369 0.09940314 -0.07763517 0.085161746
0.022546098 -0.07058114 -0.08947246 0.07104029 -0.0050301254 0.025928885 0.06800224 -0.057666555
0.10523656 -0.0047394186 -0.0031690896 -0.07541394 0.05777505 -0.11288941 0.09442583 -0.03657414
-0.024923012 0.05474338 0.06872347 -0.08599569 -0.11406222 -0.11506142 -0.090486124 0.011999518
0.032022446 0.00069849193 0.10243589 0.036683485 -0.067128316 0.01474525 -0.052458823 0.017140314
-0.010268882 0.10749349 -0.11971699 0.029642656 -0.041029334 0.09045629 0.11294915 0.057094395
-0.0012157708 0.040058196 0.032590136 -0.088781804 -0.0075671673 -0.09696238 -0.04840435 -0.11303638
-0.096780896 0.027345315 -0.0978338 -0.11256987 -0.018775478 0.06295656 -0.03938082 0.09680249
-0.06645279 0.028181031 0.032720268 0.0062000602 -0.05655831 -0.066303656 -0.03332986 -0.02687034
0.12265208 0.09131497 0.022028014 -0.015330285 -0.11825147 0.010050967 -0.07584357 0.027886689
0.11205231 -0.0487597 0.05760224 -0.011137396 -0.01046823 -0.10865843 -0.08613816 0.08333461
0.05596803 0.08620824 -0.07469843 -0.10263541 -0.113346696 0.034665123 -0.08151606 -0.036516756
-0.09097743 -0.087550595 -0.01594548 0.019799069 0.045212165 -0.021343186 0.07462767 0.10303627
0.054391205 0.08853711 -0.0058087707 -0.06149538 -0.020991042 -0.119366795 -0.026005372 0.08132008
-0.08976175 0.023217171 0.099059105 0.115514755 0.035295233 0.073208764 -0.06648503 0.030650973
-0.07977916 -0.08381669 0.11099921 0.032024756 -0.026308298 -0.04134634 -0.09086871 -0.09936513
-0.11964421 0.007973373 -0.028928906 -0.028217927 -0.044236585 -0.0026263595 0.02048847 0.027672112
0.06099111 -0.018568888 0.082640335 -0.0987692 0.036854714 -0.0808627 0.029850706 0.016780391
-0.10153027 0.09059928 0.122618794 0.06980741 -0.08361606 -0.11718352 0.009094492 0.008687019
00000000: 4087 c2bb 00c9 b1bb 3c56 243d da02 88bd
00000010: fcdc 8bbd f4c9 143d 461d 9abd 1ca6 743d
00000020: 228c ebbd ea16 cdbd 80b7 2cbb f884 f93d
00000030: d036 79bc 0491 853d 1afe de3d 86bb c2bd
00000040: f0f2 2a3d 3e99 debd 0030 17b9 56ed e13d
00000050: 425a a2bd 04fb f53d b41e 77bd 90d6 73bd
00000060: 949e a43d 5c65 523d 9ef1 bf3d c0e8 ed3b
00000070: 5cdc 6b3d 74f0 18bd 9026 7dbc 308e 2e3d
00000080: 1ad3 f6bd 5ccc c03d 0c98 20bd 7e94 eabd
00000090: 2ce9 3e3d c0be 733d 5450 293d 94f4 d5bd
000000a0: c03a bebb a2ca e2bd 8042 de3d aa6d 943d
000000b0: 541b a23d e093 cb3d 30ff 9ebd 4869 ae3d
000000c0: 98b2 b83c d88c 90bd 563d b7bd 927d 913d
000000d0: c0d3 a4bb d068 d43c c244 8b3d c433 6cbd
000000e0: 4486 d73d 204d 9bbb 80b0 4fbb a072 9abd
000000f0: 88a5 6c3d 9032 e7bd 5462 c13d c4ce 15bd
00000100: 582b ccbc 983a 603d e4be 8c3d 821e b0bd
00000110: 7499 e9bd 52a5 ebbd ca50 b9bd a099 443c
00000120: f829 033d 001b 373a e8c9 d13d 6c41 163d
00000130: 927a 89bd 1096 713c 10df 56bd d869 8c3c
00000140: d03e 28bc 8c25 dc3d 2e2e f5bd 28d5 f23c
00000150: 600e 28bd 2641 b93d e251 e73d d0db 693d
00000160: 805a 9fba 1014 243d 3c7d 053d 3cd3 b5bd
00000170: 00f6 f7bb 3694 c6bd a443 46bd 9e7f e7bd
00000180: 1035 c6bd 4803 e03c 165d c8bd 088b e6bd
00000190: 08cf 99bc 5eef 803d c84d 21bd 6240 c63d
000001a0: 6618 88bd e8db e63c b005 063d e029 cb3b
000001b0: b0a9 67bd 36ca 87bd e484 08bd 301f dcbc
000001c0: 0431 fb3d 5803 bb3d 1874 b43c e02b 7bbc
000001d0: d42d f2bd d0ac 243c e053 9bbd a072 e43c
000001e0: ae7b e53d 40b8 47bd 54f0 6b3d a079 36bc
000001f0: f082 2bbc 5088 debd 3469 b0bd 56ab aa3d
00000200: bc3e 653d f28d b03d 7efb 98bd 8432 d2bd
00000210: 5022 e8bd 04fd 0d3d e4f1 a6bd 9892 15bd
00000220: 6052 babd ba4d b3bd 18a0 82bc a831 a23c
00000230: 6430 393d e8d7 aebc 64d6 983d ae04 d33d
00000240: 50c9 5e3d f252 b53d 8057 bebb 94e2 7bbd
00000250: 68f5 abbc 9476 f4bd 3809 d5bc 248b a63d
00000260: 02d5 b7bd f031 be3c 80df ca3d 0093 ec3d
00000270: bc91 103d 7aee 953d 4e29 88bd c017 fb3c
00000280: 4263 a3bd 16a8 abbd 8e53 e33d 642c 033d
00000290: 8084 d7bc c85a 29bd 6019 babd f27f cbbd
000002a0: 0608 f5bd c0a2 023c 50fc ecbc 4829 e7bc
000002b0: 6c31 35bd 001f 2cbb 70d7 a73c a0b0 e23c
000002c0: d0d1 793d c81d 98bc 563f a93d 8247 cabd
000002d0: f8f4 163d 589b a5bd 7889 f43c 0877 893c
000002e0: 1aef cfbd 1e8c b93d 901f fb3d 30f7 8e3d
000002f0: e63e abbd eafd efbd 1001 153c 0054 0e3c

gru.weight_ih_l1 f4 [192, 64]
-0.101796 -0.010638282 -0.12023954 0.05792001 -0.0018790811 -0.12971397 -0.012910128 0.123148106
-0.15734084 0.037134677 -0.068655714 0.016139954 -0.074816816 -0.068133034 0.0016853946 -0.07142329
-0.042867467 -0.086461574 -0.06511839 0.101264015 -0.029784873 -0.07925976 -0.050280884 -0.16448422
-0.075285226 0.05537188 -0.043903284 0.025640884 0.0176913 -0.06671037 0.0462811 -0.16671088
-0.123805344 -0.08157775 0.073591664 0.07059097 0.059051007 -0.019360688 0.0009010732 -0.08529583
0.01258187 -0.023691189 0.01636381 0.0023504207 -0.03214563 -0.020602746 -0.04086609 0.07094346
0.05852282 0.029470652 0.0759712 -0.08143234 0.01319162 0.037872314 0.09415302 0.09428854
-0.054979056 -0.11070773 -0.16482043 0.06324825 0.0049888985 0.11460247 0.023622856 -0.10168891
0.060965065 0.030319214 0.02581945 -0.04017029 0.057811603 -0.109398216 -0.03950505 0.13783133
-0.1248247 0.029101223 -0.082467824 0.038181454 0.13678409 -0.033001427 0.09584296 0.067114234
0.049762357 -0.02008602 -0.052530915 -0.060829874 0.04548286 0.11719811 0.0009886473 0.0066262805
-0.022935644 0.09655313 -0.06644273 -0.15428828 -0.0902088 -0.06038489 -0.0050259978 0.02003338
0.009626657 0.0058838874 -0.04497497 0.021633014 0.038456053 0.057368 -0.019115612 -0.0061172103
-0.056059957 0.080944225 -0.1420911 -0.13817973 -0.0075880266 -0.004526796 0.05285889 0.02274166
-0.051893175 0.06178543 0.08006358 0.0066338927 -0.017606717 0.06810881 -0.08265339 0.101967126
-0.054848164 -0.11929068 -0.09246123 -0.043352246 -0.08469562 -0.08167124 -0.073391855 -0.09429352
-0.04428807 -0.11520548 0.07068524 0.035509128 0.05561009 -0.1140662 0.05902618 -0.08638741
-0.065939866 0.12366371 0.060903817 0.045061007 -0.020456262 -0.021634258 0.15255369 0.055488393
0.06844401 -0.021652251 -0.11044082 0.018850911 -0.01839745 0.06926965 0.012565717 -0.0344454
-0.036193505 -0.032992452 -0.01229246 -0.1114507 -0.09619306 -0.15571778 0.0055890083 -0.1192023
-0.087495774 -0.0026611388 -0.027965693 0.056734458 -0.07804964 0.10442236 -0.07102108 0.082690716
0.016086996 -0.08128722 -0.14629385 -0.12318425 0.14010803 0.061762795 -0.08781743 -0.05536747
0.102596045 0.047392026 -0.011618331 0.02288112 -0.15743902 0.03798586 0.023664847 -0.11999321
0.12011863 0.01590164 0.06927095 -0.1246191 -0.15855773 -0.034924347 -0.026832089 0.001863106
-0.071276486 -0.08960806 0.039033726 -0.017938573 -0.076294094 0.025186732 0.03787397 0.05146532
-0.029696235 -0.086554736 -0.1184296 -0.1248889 0.0900458 0.08597073 0.11000323 -0.057296753
-0.04210691 0.0322503 -0.1166645 0.12858574 0.10623358 0.0141283125 0.10443662 -0.032128606
-0.11264078 0.02484718 -0.051745683 -0.0570938 0.0127974 -0.11432327 0.055261254 0.07899681
0.006781444 -0.121502325 0.0076557966 0.0870121 -0.012486291 -0.033628337 -0.10218383 -0.1497982
0.10840003 0.07740171 -0.022606041 -0.025822291 0.08086224 0.084900886 -0.09041771 0.027885914
-0.07210724 -0.021708682 0.013616577 0.03888181 0.00085377565 0.002776429 -0.07933915 -0.01380235
0.03780736 -0.09816742 0.05145225 -0.054899916 -0.0826107 -0.037409138 0.016369373 -0.044238124
00000000: 6c7a d0bd 304c 2ebc 2640 f6bd 883d 6d3d
00000010: 804b f6ba bdd3 04be 0085 53bc 1335 fc3d
00000020: f51d 21be 881a 183d 5e9b 8cbd f037 843c
00000030: 8f39 99bd 5589 8bbd 75e8 dc3a 6046 92bd
00000040: cc95 2fbd c412 b1bd ca5c 85bd 8263 cf3d
00000050: 68ff f3bc f152 a2bd 54f3 4dbd 8d6e 28be
00000060: 242f 9abd a0cd 623d eed3 33bd d50c d23c
00000070: 58ed 903c 729f 88bd 4091 3d3d 42b6 2abe
00000080: a88d fdbd 3c12 a7bd 3ab7 963d 0092 903d
00000090: 78df 713d 4e9a 9ebc 0036 6c3a 95af aebd
000000a0: 3024 4e3c 0614 c2bc 660d 863c 8409 1a3b
000000b0: 23ab 03bd 17c7 a8bc 3463 27bd ce4a 913d
000000c0: a0b5 6f3d 706c f13c ca96 9b3d 00c6 a6bd
000000d0: aa21 583c 0020 1b3d 4cd3 c03d 5a1a c13d
000000e0: b831 61bd bcba e2bd b0c6 28be 4c88 813d
000000f0: ea79 a33b b3b4 ea3d b884 c13c 4642 d0bd
00000100: 81b6 793d 0060 f83c 5083 d33c 9a89 24bd
00000110: dccb 6c3d 2c0c e0bd 0cd0 21bd a823 0d3e
00000120: 18a4 ffbd b065 ee3c e4e4 a8bd 2864 1c3d
00000130: 2111 0c3e 812c 07bd 5049 c43d 3073 893d
00000140: 9dd3 4b3d 708b a4bc a82a 57bd bf28 79bd
00000150: 3c4c 3a3d 9005 f03d 8095 813a 4521 d93b
00000160: 88e3 bbbc a6bd c53d 2013 88bd bffd 1dbe
00000170: 64bf b8bd 2556 77bd 20b1 a4bb 0b1d a43c
00000180: 20b9 1d3c a0cd c03b ad37 38bd b837 b13c
00000190: 1884 1d3d b5fa 6a3d 5898 9cbc e172 c8bb
000001a0: 209f 65bd 16c6 a53d 5480 11be fd7e 0dbe
000001b0: fba4 f8bb 8455 94bb 9082 583d b84c ba3c
000001c0: f08d 54bd b812 7d3d 60f8 a33d 2061 d93b
000001d0: f63b 90bc a27c 8b3d 2e46 a9bd 24d4 d03d
000001e0: 78a8 60bd ac4e f4bd 505c bdbd 2092 31bd
000001f0: e674 adbd 4043 a7bd 784e 96bd f61c c1bd
00000200: 6867 35bd daf0 ebbd 6cc3 903d 0572 113d
00000210: 68c7 633d 8a9b e9bd 70c5 713d e2eb b0bd
00000220: 7b0b 87bd 6643 fd3d 4876 793d e491 383d
00000230: e493 a7bc 543a b1bc 0937 1c3e cc47 633d
00000240: 602c 8c3d 1060 b1bc cc2e e2bd 3a6d 9a3c
00000250: 40b6 96bc 3fdd 8d3d 70e0 4d3c 9f16 0dbd
00000260: a43f 14bd 1823 07bd 5066 49bc 4440 e4bd
00000270: de00 c5bd 7b74 1fbe 0024 b73b 5620 f4bd
00000280: fc30 b3bd 8066 2ebb 4f18 e5bc 6462 683d
00000290: 7dd8 9fbd 64db d53d 8073 91bd c059 a93d
000002a0: e0c8 833c ea79 a6bd 0ece 15be 0648 fcbd
000002b0: 7b78 0f3e fcfa 7c3d a0d9 b3bd 00c9 62bd
000002c0: e01d d23d 241e 423d d05a 3ebc 3071 bb3c
000002d0: b237 21be 1097 1b3d c8dc c13c 00bf f5bd
000002e0: c200 f63d 2844 823c eedd 8d3d 4c38 ffbd
000002f0: f55c 22be d50c 0fbd f8ce dbbc 7733 f43a
00000300: 68f9 91bd 6e84 b7bd d4e1 1f3d eaf3 92bc
00000310: 1440 9cbd 6854 ce3c bc21 1b3d 4dcd 523d
00000320: 8545 f3bc 9c43 b1bd 388b f2bd c0c5 ffbd
00000330: ef69 b83d 6c11 b03d 6049 e13d 00b0 6abd
00000340: 4c78 2cbd e418 043d cced eebd fbab 033e
00000350: fe90 d93d 707a 673c dee2 d53d 4999 03bd
00000360: 36b0 e6bd 508c cb3c 48f3 53bd 30db 69bd
00000370: 30ac 513c 5222 eabd a059 623d 14c9 a13d
00000380: e036 de3b 36d6 f8bd 7add fa3b 6633 b23d
00000390: 4d93 4cbc debd 09bd c245 d1bd b364 19be
000003a0: d600 de3d ca84 9e3d 4e30 b9bc 4589 d3bc
000003b0: 1a9b a53d 84e0 ad3d ec2c b9bd 0071 e43c
000003c0: f6ac 93bd 68d6 b1bc 1018 5f3c 8842 1f3d
000003d0: eacf 5f3a c0f4 353b 907c a2bd 4023 62bc
000003e0: e4db 1a3d 000c c9bd 98bf 523d bcde 60bd
000003f0: cc2f a9bd 533a 19bd 1019 863c 0933 35bd

gru.weight_hh_l1 f4 [192, 64]
0.08338629 -0.16239244 -0.08146474 -0.0900915 0.007972459 0.03595655 -0.10832282 0.030350907
-0.0746901 0.11600524 0.11432585 0.124752164 -0.007919516 -0.12759215 -0.017797163 0.07187712
0.0664834 -0.14013433 0.021639967 0.03959587 -0.14902605 0.13941815 -0.15524307 0.049079154
0.11379174 -0.06037699 -0.022982161 0.059886936 0.10857926 0.15084434 0.07852594 0.093691185
-0.084860235 0.07192403 -0.14178859 0.109099664 0.062473945 0.029539209 0.025440542 0.059339873
0.07038565 -0.105083 0.1757338 -0.08424941 0.021225309 0.018353881 0.0120080225 0.010157639
0.09379236 0.063959494 0.0907413 0.08011667 -0.043185312 0.05506965 0.052453257 -0.0047837216
-0.09131676 0.1489828 -0.041509368 -0.032481734 -0.021851836 0.099437565 0.0034843606 -0.12437854
0.0024901202 0.0072671934 -0.014938291 -0.123789944 -0.047821607 -0.0705244 -0.07735376 0.008743581
-0.034800738 -0.039396305 0.009435806 0.04064273 0.06206999 -0.13481997 -0.036747325 0.07106159
-0.008130427 0.0669588 -0.0663622 -0.04595287 -0.030196548 -0.06256801 -0.056010004 0.013185544
0.11501373 0.16752872 0.059717055 0.028924368 -0.011745624 0.07198285 0.117906526 0.14808033
-0.102458075 -0.07833583 -0.108414166 0.08977952 -0.057148106 -0.01768937 0.018001715 -0.06632799
0.021064907 -0.14387327 -0.0008528817 -0.09532651 0.022264704 -0.08989102 -0.07766137 -0.009000124
0.008934563 -0.025926074 0.101771906 -0.030319892 -0.01985038 0.0482314 0.026560258 -0.06386081
-0.14108247 0.10553949 -0.0402289 0.1256063 -0.0003793202 -0.060012136 0.07863785 -0.13247186
-0.0900413 0.06479645 -0.13133371 -0.12258369 0.03259049 -0.025524937 -0.054459766 -0.009655236
0.057204 0.041987855 0.111082114 0.13681704 0.075212196 -0.1157693 0.11095542 0.038500648
-0.025639674 0.045911573 -0.13371642 0.072236076 0.07028602 0.091510914 0.06503938 -0.10744675
0.14453809 -0.07628418 -0.09956048 -0.15552047 0.011575975 0.08645174 -0.03886813 -0.054303937
0.07348709 0.0711974 -0.0067834994 -0.048219178 0.14870659 0.0991031 -0.032887705 -0.11632822
0.12857127 -0.09464869 -0.0081987 -0.14592792 -0.07369111 -0.01519533 0.0012002457 -0.009103348
0.117650904 0.06822802 0.02382707 0.08981343 0.1308878 -0.057041593 -0.14297232 0.12607019
0.01528682 -0.06578101 0.08613726 0.09342287 -0.015980648 0.14189446 -0.050712332 -0.08462474
-0.10551699 0.052310374 -0.10448374 -0.036178105 0.04384531 -0.12642764 -0.1369817 -0.06380953
-0.06800776 -0.047390986 -0.0056234077 -0.015463493 -0.14743379 -0.112701245 -0.000549365 -0.057482146
-0.1673413 -0.0098041 0.018216362 -0.05432015 0.029899374 0.038553476 -0.08956565 -0.03324704
0.06588783 0.064038254 0.031511016 0.020763082 -0.060275342 0.050085604 0.10658244 -0.014646665
0.048385836 0.043946054 -0.11780439 0.13737814 0.03188171 0.066573106 -0.11837592 0.060988545
-0.032627292 0.07973361 -0.03841314 -0.02435962 0.07187622 -0.12662505 -0.015974252 0.1423326
-0.0542368 -0.005890795 -0.039102852 0.11781832 0.10616399 -0.12752905 -0.08280967 0.017118253
-0.04694779 0.15877435 -0.00191961 -0.053091627 0.10921266 0.09640989 -0.009225717 -0.16161631
00000000: 6ec6 aa3d 344a 26be fcd6 a6bd e481 b8bd
00000010: eb9e 023c 2d47 133d 5bd8 ddbd 77a2 f83c
00000020: 20f7 98bd 2894 ed3d ac23 ea3d 107e ff3d
00000030: dcc0 01bc 84a7 02be 5bcb 91bc 5034 933d
00000040: 7328 883d 607f 0fbe 4d46 b13c 472f 223d
00000050: 499a 18be a2c3 0e3e 0af8 1ebe 3907 493d
00000060: a50b e93d dd4d 77bd 1645 bcbc 014c 753d
00000070: ce5e de3d f076 1a3e 35d2 a03d 2ae1 bf3d
00000080: 34cb adbd e84c 933d 0731 11be a56f df3d
00000090: aee4 7f3d 36fc f13c af68 d03c 5e0e 733d
000000a0: 5a26 903d c235 d7bd 90f3 333e f48a acbd
000000b0: b3e0 ad3c e15a 963c 4cbd 443c 3a6c 263c
000000c0: 3516 c03d 32fd 823d 93d6 b93d 3514 a43d
000000d0: 15e3 30bd b790 613d 3ad9 563d c4c0 9cbb
000000e0: 4804 bbbd f28e 183e ba05 2abd 910b 05bd
000000f0: 9f02 b3bc eca5 cb3d df59 643b 2dba febd
00000100: 4931 233b a321 ee3b bcbf 74bc 9585 fdbd
00000110: 97e0 43bd 196f 90bd a66b 9ebd 3d41 0f3c
00000120: 388b 0ebd 055e 21bd a498 1a3c fe78 263d
00000130: 1a3d 7e3d 3f0e 0abe 5d84 16bd bd88 913d
00000140: 7c35 05bc b221 893d e8e8 87bd 1439 3cbd
00000150: c05e f7bc a823 80bd bf6a 65bd 2e08 583c
00000160: 528c eb3d a68c 2b3e df99 743d ccf2 ec3c
00000170: b870 40bc bf6b 933d fa78 f13d 5fa2 173e
00000180: 8ad5 d1bd 896e a0bd 3f08 debd 53de b73d
00000190: 2214 6abd 4ce9 90bc 5578 933c f8d6 87bd
000001a0: 5090 ac3c 8453 13be ec93 5fba 8c3a c3bd
000001b0: 7864 b63c c818 b8bd ed0c 9fbd 4275 13bc
000001c0: 4662 123c eb62 d4bc ca6d d03d 6c61 f8bc
000001d0: 449d a2bc 4a8e 453d e694 d93c 75c9 82bd
000001e0: ec77 10be 1725 d83d 0fc7 24bd f09e 003e
000001f0: 7fdf c6b9 49cf 75bd e20c a13d b4a6 07be
00000200: 9367 b8bd 00b4 843d 587c 06be 280d fbbd
00000210: 9b7d 053d ac19 d1bc 3411 5fbd ff30 1ebc
00000220: be4e 6a3d 75fb 2b3d 057f e33d c419 0c3e
00000230: da08 9a3d 7418 edbd 983c e33d dbb2 1d3d
00000240: 4b0a d2bc c60d 3c3d f5ec 08be 82f0 933d
00000250: 1ef2 8f3d 136a bb3d 5e33 853d 0b0d dcbd
00000260: cb01 143e e13a 9cbd 5de6 cbbd c240 1fbe
00000270: 29a9 3d3c 9c0d b13d 3034 1fbd ce6d 5ebd
00000280: 6680 963d f1cf 913d 1e48 debb 7981 45bd
00000290: 8a46 183e 91f6 ca3d 42b5 06bd 7d3d eebd
000002a0: 30a8 033e 2cd7 c1bd d753 06bc 216e 15be
000002b0: 5deb 96bd d5f5 78bc 9051 9d3a 3526 15bc
000002c0: f5f2 f03d 22bb 8b3d fd30 c33c 1bf0 b73d
000002d0: 7407 063e 72a4 69bd 5667 12be 8b18 013e
000002e0: 9275 7a3c 32b8 86bd bb68 b03d 7d54 bf3d
000002f0: d9e9 82bc c84c 113e bcb7 4fbd bc4f adbd
00000300: 4b19 d8bd 6743 563d 92fb d5bd 7e2f 14bd
00000310: 2497 333d 3f76 01be ee44 0cbe 92ae 82bd
00000320: a747 8bbd 0d1d 42bd 9044 b8bb 975a 7dbc
00000330: e2f8 16be e9cf e6bd 4303 10ba 6672 6bbd
00000340: 855b 2bbe 60a1 20bc 7b3a 953c ce7e 5ebd
00000350: 88ef f43c 40ea 1d3d 326e b7bd 0c2e 08bd
00000360: 33f0 863d 7d26 833d b211 013d 5717 aa3c
00000370: 47e3 76bd 9026 4d3d e547 da3d 91f8 6fbc
00000380: 3a30 463d c700 343d 6e43 f1bd dbac 0c3e
00000390: 6596 023d 7b57 883d 136f f2bd 20cf 793d
000003a0: 32a4 05bd 604b a33d 1957 1dbd d38d c7bc
000003b0: d733 933d ffa9 01be 6fdc 82bc a3bf 113e
000003c0: 6827 5ebd 9207 c1bb 502a 20bd bb4a f13d
000003d0: 826c d93d fa96 02be 1e98 a9bd 943b 8c3c
000003e0: 534c 40bd be95 223e 6c9b fbba 9b76 59bd
000003f0: e3aa df3d 8c72 c53d 7627 17bc bf7e 25be

gru.bias_ih_l1 f4 [192]
0.14181592 0.065009534 -0.036057614 -0.07227588 -0.04928811 0.13629381 0.04081342 0.06862761
0.12619042 -0.0059890985 -0.08685079 0.061449677 -0.040698525 -0.024250094 -0.023463007 -0.029129406
0.12502058 -0.07163735 -0.034607787 0.000117373376 0.045320213 0.081388116 0.054619297 0.0562394
0.06069235 0.015560246 -0.028075716 0.16197701 0.09200463 0.15897569 0.079953074 0.12653339
0.0013467028 0.07088977 0.09217351 0.14281951 -0.015243903 -0.08466614 0.11692676 -0.00338805
-0.091150336 -0.06966063 -0.044360206 -0.015511958 0.08813585 0.021692432 0.06573679 0.019479288
0.068721056 0.056239028 -0.009695216 0.14345807 0.0759561 0.15680522 -0.00075658096 0.08042038
0.13901289 0.0796253 -0.04827996 -0.013086896 -0.016735325 -0.090917625 0.09742457 0.059126463
-0.12343498 0.04913034 -0.0031635365 0.009197107 -0.10487327 0.080721974 0.09360543 -0.13972051
0.071186244 -0.14293322 0.039166223 0.085996166 0.012655004 -0.07114697 -0.005334961 -0.02864787
-0.10185192 0.014474121 -0.0889683 -0.08987786 -0.017211443 0.05722748 0.007683193 0.06601122
-0.07688095 0.092190064 -0.0672331 -0.06741622 -0.058642253 0.01853839 0.07215069 0.09883883
-0.08954144 -0.07171039 0.07949898 -0.093884535 0.07865977 -0.029611852 -0.035889808 -0.014294373
-0.0014466642 0.07242802 0.039515007 0.04424882 0.00240578 0.10788583 0.08006233 -0.07858168
0.0512927 0.06869416 -0.025760321 -0.07758756 0.01900481 0.01683101 0.061927505 0.02487638
0.04472948 -0.13453509 0.097647384 -0.09976866 -0.02850819 -0.100230195 -0.009266442 -0.11747205
0.058752116 0.012027993 0.057603437 -0.048512585 -0.1040248 0.054080136 -0.110297695 0.010876583
0.072982 -0.054009624 0.12432449 0.10083337 -0.1410496 -0.13943279 0.13337034 0.05298444
-0.13643181 -0.057385877 -0.06818493 0.023703104 -0.14559534 0.020006912 -0.14635879 0.07237102
0.08716287 0.15433782 -0.019181889 -0.07779986 0.15385367 0.030872766 0.12982677 0.015326372
0.022867393 -0.01025189 -0.02828862 0.034843363 -0.028209712 0.0146287 -0.14728138 -0.14993821
-0.07334079 -0.075275406 0.123490185 -0.12143657 -0.0015234401 -0.0018909631 -0.00068762846 0.06682811
-0.062738486 0.0077819526 0.018752217 0.14679933 0.028246514 -0.04038646 -0.019032998 0.012639352
-0.052814174 0.037967905 0.090589285 0.037979532 -0.07230322 0.037282303 -0.032214418 -0.09398808
00000000: 3138 113e b823 853d 26b1 13bd 6005 94bd
00000010: 54e2 49bd 9b90 0b3e f92b 273d a28c 8c3d
00000020: 1038 013e 3340 c4bb d4de b1bd a8b2 7b3d
00000030: 7fb3 26bd 22a8 c6bc 7e35 c0bc cba0 eebc
00000040: 6505 003e 9ab6 92bd e5c0 0dbd 5a26 f638
00000050: b0a1 393d d0ae a63d 7cb8 5f3d 495b 663d
00000060: 8b98 783d 67f0 7e3c 0bff e5bc 4ddd 253e
00000070: ec6c bc3d 86ca 223e 70be a33d f891 013e
00000080: d983 b03a a82e 913d 77c5 bc3d 473f 123e
00000090: 90c1 79bc 7165 adbd 4c77 ef3d 0c0a 5ebb
000000a0: 07ad babd 3baa 8ebd 0cb3 35bd de25 7ebc
000000b0: 9280 b43d 54b4 b13c 03a1 863d 0793 9f3c
000000c0: a0bd 8c3d e55a 663d afd8 1ebc ace6 123e
000000d0: df8e 9b3d 8c91 203e 4a55 46ba 71b3 a43d
000000e0: 6559 0e3e 9712 a33d 35c1 45bd 6c6a 56bc
000000f0: 8518 89bc 0533 babd 8886 c73d 972e 723d
00000100: 7bcb fcbd e53c 493d 5653 4fbb 76af 163c
00000110: ccc7 d6bd 9051 a53d 34b4 bf3d e512 0fbe
00000120: 18ca 913d 165d 12be c36c 203d c21e b03d
00000130: ef56 4f3c 81b5 91bd e6d0 aebb f0ae eabc
00000140: bd97 d0bd dd24 6d3c 0335 b6bd e211 b8bd
00000150: 03ff 8cbc 5d67 6a3d 4bc3 fb3b e430 873d
00000160: c273 9dbd 25ce bc3d 82b1 89bd 8411 8abd
00000170: dc32 70bd d2dd 973c bec3 933d 036c ca3d
00000180: 8161 b7bd e6dc 92bd 5cd0 a23d 8946 c0bd
00000190: 6018 a13d 8e94 f2bc 3101 13bd f232 6abc
000001a0: ff9d bdba 2455 943d 7dda 213d 403e 353d
000001b0: 4aaa 1d3b 3ff3 dc3d b8f7 a33d 6fef a0bd
000001c0: 4b18 523d 86af 8c3d 4f07 d3bc 3ae6 9ebd
000001d0: faaf 9b3c 30e1 893c b2a7 7d3d 8dc9 cb3c
000001e0: 4236 373d 91c3 09be 5afb c73d 8353 ccbd
000001f0: 028a e9bc 7d45 cdbd 46d2 17bc 3095 f0bd
00000200: 0fa6 703d 0f11 453c 95f1 6b3d 22b5 46bd
00000210: f40a d5bd 2283 5d3d c2e3 e1bd b233 323c
00000220: 9677 953d 3239 5dbd d79d fe3d ba81 ce3d
00000230: 4e6f 10be 78c7 0ebe 3c92 083e 3606 593d
00000240: c8b4 0bbe 740d 6bbd 8aa4 8bbd 032d c23c
00000250: f216 15be 89e5 a33c 14df 15be 4237 943d
00000260: 7282 b23d bc0a 1e3e 5623 9dbc 8855 9fbd
00000270: d18b 1d3e e2e8 fc3c 4ff1 043e 771b 7b3c
00000280: 6654 bb3c 8bf7 27bc 89bd e7bc eab7 0e3d
00000290: 0e18 e7bc 37ad 6f3c eed0 16be 6789 19be
000002a0: b233 96bd fe29 9abd 6ce8 fc3d bdb3 f8bd
000002b0: 2bae c7ba 31da f7ba f741 34ba 2ddd 883d
000002c0: 097d 80bd c0ff fe3b 409e 993c 9052 163e
000002d0: 3c65 e73c 466c 25bd 17eb 9bbc 4915 4f3c
000002e0: ad53 58bd 3c84 1b3d e086 b93d 6d90 1b3d
000002f0: b613 94bd 54b5 183d 44f3 03bd d37c c0bd

gru.bias_hh_l1 f4 [192]
0.07222005 -0.0072991336 0.0012095824 0.11084445 -0.018771676 0.024294365 0.111101955 0.14135815
0.015892847 -0.07195912 0.040435977 -0.063233405 0.15162008 -0.06911774 0.015776085 0.14551735
0.10373924 0.14641312 0.015593811 0.06518703 -0.09380574 -0.08791448 -0.04424675 -0.008780077
-0.018134799 0.11871943 -0.029836109 0.17069203 0.07561263 -0.04259195 0.001513782 -0.006046987
-0.027709197 0.13032459 0.12853463 -0.003962018 0.14247285 0.052287664 0.0354674 0.034737974
-0.0077365697 0.03865159 0.13193211 0.051465906 0.09079979 -0.0582259 0.114764445 0.15188462
0.080569565 0.086783804 0.097830266 -0.039617814 -0.026949909 -0.05918362 0.123738885 -0.054575235
0.052904967 -0.036031824 0.13996857 0.0036829787 -0.08143495 0.056360707 0.039639726 0.027387304
-0.10450763 -0.024917828 0.03099103 0.08965062 0.0032333964 -0.049804274 0.059893362 -0.06610078
-0.12835306 -0.09778704 0.024718303 -0.08845045 -0.10076326 -0.05818462 0.087620646 -0.08318249
-0.10451629 -0.060242627 -0.063297525 -0.04552047 -0.052470904 -0.034833565 0.014260867 -0.0590621
-0.13012046 0.033244226 -0.056211162 0.086215764 -0.027073678 0.016840685 -0.011080935 -0.08390913
0.07323298 0.03583467 0.071814634 0.0007046018 -0.071928546 0.00567348 0.022584189 0.0396997
-0.07171719 -0.054154903 0.021904308 -0.11303537 -0.047956116 -0.09353449 -0.07322075 0.10706784
-0.13757677 0.07458548 -0.07258348 -0.12758909 -0.094020486 0.032741975 0.0021948419 0.08348601
-0.10340065 -0.087540865 -0.0635263 -0.015437049 0.04055246 -0.122074984 -0.08483613 0.10557751
-0.14689843 -0.11643195 -0.095615305 0.061569072 0.012244686 0.041678466 0.07365591 -0.08948127
0.15370944 0.009364235 0.16510907 0.12184 -0.06191052 -0.1264066 0.06333053 0.13062562
-0.050563306 -0.06114129 -0.07240895 -0.0217121 -0.090925016 0.10746376 -0.14713621 -0.07321203
0.07829851 0.13875091 0.023126937 -0.14464362 0.10616995 0.040957935 0.07510776 0.15847649
-0.008504657 -0.023539072 0.045306485 0.09612086 0.17084928 0.01790708 -0.051969353 0.028728148
-0.01307851 0.0035911996 0.021403652 -0.1598957 0.080465615 -0.023982415 0.031760547 0.17061038
-0.013969806 0.103599675 -0.062227584 0.0679826 0.094945215 -0.045147907 -0.07978201 0.045268912
-0.017546099 0.10312123 0.06471922 -0.05850591 0.124716215 0.09001803 -0.044154353 -0.002729794
00000000: 1be8 933d 922d efbb da8a 9e3a 6a02 e33d
00000010: 0fc7 99bc fa04 c73c 6c89 e33d 31c0 103e
00000020: b731 823c 4e5f 93bd 32a0 253d 8480 81bd
00000030: 4b42 1b3e 9a8d 8dbd d93c 813c 8002 153e
00000040: 3d75 d43d 52ed 153e 2f7d 7f3c c780 853d
00000050: 391d c0bd 820c b4bd 153c 35bd 50da 0fbc
00000060: 6e8f 94bc 2c23 f33d db6a f4bc e4c9 2e3e
00000070: cbda 9a3d e674 2ebd 186a c63a ce25 c6bb
00000080: 66fe e2bc cf73 053e 959e 033e d1d3 81bb
00000090: 67e4 113e 972b 563d 4446 113d 6849 0e3d
000000a0: 0d83 fdbb 2151 1e3d 3619 073e eacd 523d
000000b0: 3ef5 b93d 487e 6ebd 9f09 eb3d a487 1b3e
000000c0: a801 a53d b5bb b13d 3c5b c83d 4a46 22bd
000000d0: 0ec6 dcbc 866a 72bd d06a fd3d 488a 5fbd
000000e0: e1b2 583d 1b96 13bd ec53 0f3e 215e 713b
000000f0: 5ec7 a6bd 7cda 663d 445d 223d 575b e03c
00000100: 1908 d6bd 7920 ccbc e7e0 fd3c bf9a b73d
00000110: 64e7 533b 91ff 4bbd be52 753d d95f 87bd
00000120: fc6e 03be 9244 c8bd 0a7e ca3c 8225 b5bd
00000130: f85c cebd ff52 6ebd 7472 b33d 955b aabd
00000140: a30c d6bd f9c0 76bd 22a2 81bd ac73 3abd
00000150: bbeb 56bd a4ad 0ebd 69a6 693c 1aeb 71bd
00000160: 4c3e 05be 192b 083d ad3d 66bd e491 b03d
00000170: 9ec9 ddbc 7af5 893c cf8c 35bc 8dd8 abbd
00000180: 2cfb 953d 60c7 123d 8d13 933d 07b5 383a
00000190: 464f 93bd 9ae8 b93b 7a02 b93c 279c 223d
000001a0: 76e0 92bd 88d1 5dbd aa70 b33c 177f e7bd
000001b0: a26d 44bd 038f bfbd c3f4 95bd 6246 db3d
000001c0: ede0 0cbe 46c0 983d a6a6 94bd b7a6 02be
000001d0: d08d c0bd 731c 063d 56d7 0f3b b7fa aa3d
000001e0: b8c3 d3bd a048 b3bd 141a 82bd adeb 7cbc
000001f0: 561a 263d 7302 fabd 91be adbd 0639 d83d
00000200: 8b6c 16be e073 eebd f5d1 c3bd da2f 7c3d
00000210: ef9d 483c 0ab7 2a3d e9d8 963d f541 b7bd
00000220: 0266 1d3e 736c 193c 5a12 293e 4087 f93d
00000230: e395 7dbd bb70 01be 70b3 813d b9c2 053e
00000240: 781b 4fbd 4a6f 7abd 254b 94bd 93dd b1bc
00000250: e536 babd f615 dc3d e0aa 16be 30f0 95bd
00000260: f85a a03d b814 0e3e b474 bd3c 751d 14be
00000270: a16f d93d 82c3 273d 19d2 993d a947 223e
00000280: 1e57 0bbc 03d5 c0bc 4b93 393d 03db c43d
00000290: 1df3 2e3e deb1 923c d1dd 54bd 4b57 eb3c
000002a0: 3f47 56bc 555a 6b3b b656 af3c b3bb 23be
000002b0: 28cb a43d c576 c4bc 5917 023d 7db4 2e3e
000002c0: 9de1 64bc 112c d43d 5ae2 7ebd 763a 8b3d
000002d0: a372 c23d 03ed 38bd c064 a3bd e56b 393d
000002e0: d6bc 8fbc 3931 d33d 838b 843d e5a3 6fbd
000002f0: 376b ff3d 5f5b b83d 32db 34bd 58e6 32bb

fc.weight f4 [1, 64]
-0.4341072 -0.4064327 -0.46435517 -0.41733783 -0.40609568 -0.42470077 -0.37777492 -0.45320612
0.38998207 0.3275669 0.37486932 0.35948086 -0.3978347 -0.36925396 0.40785608 0.46162134
-0.3923205 -0.38048068 -0.3827676 -0.47311074 -0.41671795 0.45066255 -0.4733031 -0.45178765
0.33433434 0.41753194 -0.41531068 -0.43772027 0.39704153 0.44465438 0.35629842 0.39425874
-0.36615798 0.47477722 -0.47743762 0.46382868 0.43303236 -0.4656505 -0.44228467 -0.45231006
-0.4140769 -0.43316388 0.35919106 -0.45054555 0.4008962 -0.4233775 -0.47352356 0.49797732
0.42391232 0.3627308 0.47583947 0.4733511 0.39937577 -0.3869385 -0.4034388 0.41397282
-0.4397999 0.41632622 0.38168925 0.45496178 0.39011437 0.468338 -0.40158862 -0.46867234
00000000: 4d43 debe f217 d0be f6bf edbe 4ead d5be
00000010: c6eb cfbe 6172 d9be b76b c1be a20a e8be
00000020: bbab c73e d9b6 a73e dfee bf3e e00d b83e
00000030: fdb0 cbbe db0e bdbe 83d2 d03e a259 ec3e
00000040: 3cde c8be 5dce c2be 1dfa c3be 923b f2be
00000050: 0e5c d5be 3ebd e63e c954 f2be b650 e7be
00000060: df2d ab3e bfc6 d53e 9aa3 d4be df1c e0be
00000070: 0749 cb3e bda9 e33e bf6c b63e 48dc c93e
00000080: 0f79 bbbe 0016 f33e b472 f4be f47a ed3e
00000090: 6bb6 dd3e be69 eebe 2373 e2be 2f95 e7be
000000a0: e301 d4be a8c7 ddbe e4e7 b73e e8ad e6be
000000b0: 4442 cd3e f0c4 d8be ae71 f2be e2f6 fe3e
000000c0: 090b d93e dab7 b93e 3ba1 f33e 135b f23e
000000d0: fb7a cc3e ce1c c6be 888f cebe 3ff4 d33e
000000e0: 742d e1be b628 d53e c66c c33e c0f0 e83e
000000f0: 12bd c73e 00ca ef3e 069d cdbe d2f5 efbe
