project/models/GRU/Tesla.pth (torch, 17789 bytes, 5 tensors)

gru.weight_ih_l0 f4 [96, 5]
0.14397936 0.026223555 0.085129604 -0.13252796 0.15493684 -0.16226542 -0.05343978 -0.08299471
0.049363986 0.057313457 0.16332991 -0.033199996 0.034107596 -0.044023484 0.0911933 0.036445037
0.15877675 -0.09257873 -0.10974253 -0.042060554 0.06024593 0.04614283 0.14167495 -0.02357395
-0.1512681 0.10399239 -0.07089055 0.030350387 -0.049277246 -0.018733725 -0.03481947 0.11594264
0.015615717 0.14582254 0.17452486 0.01989828 0.12330483 0.11549531 0.13325436 -0.0998406
0.14616503 0.0072016716 -0.12630314 -0.0007264465 -0.03433919 -0.08832968 -0.17674856 0.101735964
-0.04855366 0.12107171 -0.13615108 -0.06828508 0.03260219 0.024573445 -0.06476287 0.15308194
-0.08755721 -0.1158624 0.04768844 0.16159014 0.06712964 0.055623457 -0.10820257 -0.10439833
-0.14305304 -0.17248003 -0.04569146 -0.073493294 -0.1243501 -0.045133263 0.12623478 0.14539643
-0.08872725 0.025452018 -0.015295088 -0.040465668 -0.054949693 0.12913798 -0.017094046 0.07754798
0.026300266 0.080967054 0.10402109 -0.06467231 0.07690145 -0.09151067 0.009744793 0.04476191
-0.16899322 0.14588912 -0.15045592 0.074247435 0.050088868 0.12404804 0.026295021 -0.030369803
-0.02215615 -0.12928554 -0.13987115 -0.14850911 -0.14194134 -0.13335831 0.025714725 -0.07335157
-0.027782321 -0.079404324 -0.12938619 -0.111460604 0.093248144 -0.086068265 0.093036756 -0.00045472383
0.05074881 -0.033687532 0.002555579 0.06163852 -0.04911925 0.07721336 0.15164517 -0.17321391
-0.00739865 -0.034287542 -0.042320117 0.03485523 -0.06298922 -0.01398772 -0.06795524 0.13008128
-0.06168577 -0.03486301 -0.1154516 -0.11553882 0.096053496 0.06606832 -0.15653065 0.15494715
0.14426981 -0.008819476 0.0028722286 0.049916953 -0.009527281 0.07150522 -0.033439457 -0.05365646
-0.0908708 0.14008115 -0.1623372 -0.15193848 -0.012488976 -0.15986213 0.11529316 -0.17537247
0.035505235 -0.05309236 -0.15733184 0.16802047 0.043391153 0.15855037 0.03059557 0.015123054
-0.07209798 -0.069618985 -0.112482116 -0.041601643 0.065119624 0.06514573 -0.01750192 -0.105058014
0.09713332 -0.08416161 -0.17481616 -0.12372057 0.03933753 0.05553128 -0.016747728 -0.15458947
-0.0656599 -0.04064864 -0.14330158 0.13851546 0.11757608 0.06833859 0.049393594 -0.06809679
0.032167524 0.03916399 -0.042785168 0.025616392 0.0588516 0.16783671 0.09075989 0.15541108
0.008326575 -0.10833858 -0.028525949 -0.14197189 0.16029622 0.0725712 -0.019409448 -0.15649755
0.0875978 0.09744115 0.17373459 -0.1263651 0.15069626 0.09290646 -0.040857434 -0.12694931
0.12615581 -0.08334864 0.091692075 -0.09723132 0.14577512 -0.04100682 -0.15308675 -0.046524107
-0.017839178 0.11898045 0.04209526 -0.12493179 -0.15923658 0.16909437 0.07899003 0.17449866
0.09817849 -0.033243954 0.07119787 -0.026303008 -0.12565142 -0.1396111 -0.13576597 0.17313795
0.016414434 -0.017901108 0.05643505 -0.06950009 -0.14556909 0.1360607 -0.08738272 -0.035330623
-0.07131984 0.039118618 -0.054441527 0.17389788 0.043145835 0.0782264 0.024305835 -0.14458477
-0.09685755 -0.07363756 0.052796423 0.16941185 0.1559958 0.043227896 -0.17023034 -0.012099847
00000000: 536f 133e c8d2 d63c 6e58 ae3d 69b5 07be
00000010: c3a7 1e3e e828 26be ace3 5abd 21f9 a9bd
00000020: e431 4a3d 84c1 6a3d f53f 273e b8fc 07bd
00000030: 68b4 0b3d f851 34bd 8ec3 ba3d 6447 153d
00000040: 5f96 223e eb99 bdbd b1c0 e0bd b047 2cbd
00000050: 70c4 763d 4400 3d3d 3d13 113e 281e c1bc
00000060: 06e6 1abe f6f9 d43d 112f 91bd 60a1 f83c
00000070: f0d6 49bd 7877 99bc dc9e 0ebd 5673 ed3d
00000080: 10d9 7f3c 8152 153e a5b6 323e b801 a33c
00000090: 3e87 fc3d ce88 ec3d d573 083e 3a79 ccbd
000000a0: 49ac 153e 00fc eb3b 9c55 01be 006f 3eba
000000b0: 40a7 0cbd 31e6 b4bd 93fd 34be f25a d03d
000000c0: 34e0 46bd 72f4 f73d 306b 0bbe 0cd9 8bbd
000000d0: e089 053d 404e c93c 65a2 84bd 83c1 1c3e
000000e0: 3251 b3bd 4449 edbd f454 433d e377 253e
000000f0: 447b 893d 6cd5 633d 4f99 ddbd cbce d5bd
00000100: 7f7c 12be 9b9e 30be f826 3bbd a783 96bd
00000110: 44ab febd a8dd 38bd b143 013e cde2 143e
00000120: a2b6 b5bd c080 d03c 4098 7abc 54bf 25bd
00000130: ee12 61bd bf3c 043e d008 8cbc 7ad1 9e3d
00000140: a873 d73c 0ed2 a53d 0209 d53d eb72 84bd
00000150: 827e 9d3d f269 bbbd a0a8 1f3c 4458 373d
00000160: 8f0c 2dbe f563 153e 1e11 1abe 0a0f 983d
00000170: fc29 4d3d e60c fe3d a868 d73c 18ca f8bc
00000180: d080 b5bc 6e63 04be 623a 0fbe c612 18be
00000190: 1259 11be 158f 08be b0a7 d23c 5939 96bd
000001a0: c097 e3bc bc9e a2bd d07d 04be 7545 e4bd
000001b0: e2f8 be3d 8f44 b0bd 0e8a be3d 0068 eeb9
000001c0: fcdd 4f3d f0fb 09bd 807b 273b ac78 7c3d
000001d0: 4431 49bd 0a22 9e3d df48 1b3e fd5e 31be
000001e0: 6070 f2bb 1871 0cbd dc57 2dbd 5cc4 0e3d
000001f0: 7e00 81bd c02c 65bc 1e2c 8bbd 0734 053e
00000200: 38aa 7cbd 84cc 0ebd e371 ecbd 9e9f ecbd
00000210: b2b7 c43d d44e 873d 9249 20be 77aa 1e3e
00000220: 77bb 133e 907f 10bc 003c 3c3b b875 4c3d
00000230: 5018 1cbc 5471 923d d0f7 08bd e0c6 5bbd
00000240: 781a babd 6f71 0f3e b93b 26be c395 1bbe
00000250: 909e 4cbc e6b2 23be d21e ec3d d794 33be
00000260: f06d 113d 6077 59bd 991b 21be 8f0d 2c3e
00000270: ecba 313d 075b 223e 90a3 fa3c b0c6 773c
00000280: 1ba8 93bd 6694 8ebd 065d e6bd 7c66 2abd
00000290: 705d 853d 206b 853d 3060 8fbc a828 d7bd
000002a0: d6ed c63d ec5c acbd 0203 33be 3661 fdbd
000002b0: 6420 213d c474 633d 8832 89bc b44c 1ebe
000002c0: b378 86bd 307f 26bd a6bd 12be ffd6 0d3e
000002d0: bacb f03d 1af5 8b3d f050 4a3d 5476 8bbd
000002e0: 18c2 033d 6c6a 203d 803f 2fbd 78d9 d13c
000002f0: 600e 713d 63dd 2b3e 52e0 b93d 1524 1f3e
00000300: 306c 083c 9ee0 ddbd 40af e9bc 1461 11be
00000310: b124 243e 36a0 943d 9000 9fbc e540 20be
00000320: 7a66 b33d 3a8f c73d 7be7 313e da65 01be
00000330: 1f50 1a3e be45 be3d 205a 27bd 00ff 01be
00000340: fd2e 013e b1b2 aabd 0ec9 bb3d 3721 c7bd
00000350: 1346 153e c4f6 27bd c6c2 1cbe 1090 3ebd
00000360: 7823 92bc 06ac f33d 146c 2c3d 3ddc ffbd
00000370: ea0e 23be 1327 2d3e 86c5 a13d c7af 323e
00000380: ce11 c93d d02a 08bd 30d0 913d 6879 d7bc
00000390: c4aa 00be 36f6 0ebe 3c06 0bbe 134b 313e
000003a0: 9077 863c 58a5 92bc 7028 673d 1056 8ebd
000003b0: 1010 15be 7f53 0b3e b6f5 b2bd d8b6 10bd
000003c0: 2310 92bd d83a 203d 14fe 5ebd 4912 323e
000003d0: b0b9 303d 2a35 a03d 081d c73c 080e 14be
000003e0: 405d c6bd 4acf 96bd 1041 583d 4d7a 2d3e
000003f0: 5dbd 1f3e bc0f 313d dd50 2ebe 703e 46bc

gru.weight_hh_l0 f4 [96, 32]
0.06133248 -0.09653093 0.03153041 0.034352154 0.15796949 -0.0270053 0.17575158 -0.11741893
-0.17615083 -0.11298649 0.049974114 -0.025023296 0.036402673 -0.14988258 -0.025639743 0.013025954
0.046095937 0.06859319 -0.08813875 -0.123162046 -0.15776032 0.007994354 -0.07104345 -0.06328558
-0.12247488 -0.04421401 0.15795542 -0.13337949 -0.14878337 0.12402551 0.056352794 -0.17320609
-0.17447843 0.09878822 -0.17154838 0.15012236 -0.10327527 -0.14414805 0.10555036 -0.023039043
-0.059078477 -0.081019245 -0.056954615 0.043818608 -0.09695193 0.016803995 0.13770546 0.13000794
0.048251987 -0.034512788 0.10039438 -0.14763162 -0.075630076 -0.1365384 -0.02155158 0.17626141
0.05887504 0.11586313 0.03784935 0.049540147 0.15645881 -0.082195185 -0.053497456 0.041649237
-0.16694367 -0.17109838 0.0697968 0.08098106 -0.11413061 -0.15165873 0.038518548 0.15519421
0.1673191 -0.17235996 -0.06372688 -0.044228613 0.17304392 0.00063082576 -0.037114024 -0.03857848
0.16818981 0.1699035 -0.10209728 0.12094353 -0.10865902 0.15432079 -0.083430484 -0.016180232
-0.038872167 -0.038420618 0.086730406 -0.08700036 -0.15352942 -0.011892766 -0.10770254 0.07756971
-0.06044832 0.010473445 -0.113444604 0.10024758 -0.107121125 -0.04073058 -0.16609997 -0.07079925
0.09860213 -0.14129725 0.029195145 0.08127715 0.17473106 -0.17103174 -0.12190137 0.05638635
0.15342219 0.068948895 0.0191008 0.14078934 0.13594265 0.07358055 0.16266136 -0.06344673
0.08379264 -0.020846143 0.099436745 -0.08723985 0.07015343 -0.026979864 0.019962206 0.0004634112
0.08692254 0.1747313 0.05300948 -0.0741503 -0.07000191 -0.03178905 0.11413537 -0.112288326
-0.17165606 -0.021627113 0.1416577 0.12440331 -0.15598875 -0.014847219 -0.1136459 0.03619504
0.10722391 -0.11317878 -0.032520697 -0.120762646 0.11460115 -0.083630346 -0.17526308 0.09836553
-0.07096343 0.0059171915 0.16180639 0.16305019 0.028956503 -0.17085609 0.075679824 -0.11330331
-0.056649223 -0.16491084 0.1377892 -0.15607755 -0.025498375 -0.17268185 0.11878924 -0.09703397
-0.0018357933 -0.03991723 0.09404798 0.08030002 -0.036554888 0.16983716 -0.004854068 -0.029161945
0.10920189 -0.022109121 -0.123468205 -0.09185317 0.05089125 -0.028557256 0.116282865 0.036357835
-0.0028177053 0.046742767 -0.08524628 0.06726715 0.17464401 0.0029640794 -0.16425307 -0.13104385
0.14872359 -0.12786415 0.013713807 0.020604283 0.019854411 0.15405814 0.018772632 -0.13793413
0.078652605 -0.025811717 -0.055081844 0.09919481 0.10708578 0.029880702 0.033414632 0.008712217
-0.07166717 -0.0765364 0.052857324 0.020559132 0.0691731 -0.025206551 -0.063644476 -0.117456965
-0.16398257 -0.14305255 -0.099844515 0.1310183 -0.0486082 -0.10615564 -0.06798758 -0.12598926
0.12502985 -0.009650782 0.095397905 0.0083422065 -0.051380545 0.17635421 0.113809034 -0.16050367
-0.059037954 -0.16278194 0.17005844 -0.09996073 -0.15613645 0.12191807 0.0929745 -0.07821292
0.009364858 -0.17100121 0.044567212 -0.14890462 -0.12613094 0.067570016 0.07309395 -0.13014188
-0.11496533 -0.0071600527 -0.089487955 0.1654102 -0.11031805 -0.14505775 -0.10041566 0.06178388
00000000: c437 7b3d 02b2 c5bd 0826 013d d8b4 0c3d
00000010: c1c2 213e 383a ddbc 39f8 333e 5679 f0bd
00000020: e260 34be 7665 e7bd a8b1 4c3d a8fd ccbc
00000030: f81a 153d d27a 19be 700a d2bc d06a 553c
00000040: 18cf 3c3d 967a 8c3d 1782 b4bd 623c fcbd
00000050: ec8b 21be c0fa 023c 3a7f 91bd df9b 81bd
00000060: 1cd4 fabd c019 35bd 11bf 213e a294 08be
00000070: ab5a 18be 1601 fe3d 30d2 663d f05c 31be
00000080: 79aa 32be 7a51 ca3d 61aa 2fbe adb9 193e
00000090: fc81 d3bd 8c9b 13be ca2a d83d 60bc bcbc
000000a0: 46fc 71bd 6bed a5bd 3e49 69bd 247b 333d
000000b0: bc8e c6bd 88a8 893c a902 0d3e cd20 053e
000000c0: e0a3 453d 485d 0dbd 929b cd3d be2c 17be
000000d0: f1e3 9abd b9d0 0bbe f08c b0bc df7d 343e
000000e0: f426 713d a649 ed3d ec07 1b3d 9cea 4a3d
000000f0: bd36 203e f355 a8bd 2620 5bbd 6498 2a3d
00000100: 48f3 2abe 6a34 2fbe a0f1 8e3d 66d9 a53d
00000110: 4fbd e9bd 6d4c 1bbe a0c5 1d3d 3beb 1e3e
00000120: b355 2b3e 217f 30be 3d83 82bd 1029 35bd
00000130: 6d32 313e 005e 253a e004 18bd 7804 1ebd
00000140: f339 2c3e 2ffb 2d3e 6118 d1bd 3eb1 f73d
00000150: 9f88 debd 4506 1e3e 9add aabd 688c 84bc
00000160: 6c38 1fbd f05e 1dbd b69f b13d 3f2d b2bd
00000170: d136 1dbe e0d9 42bc 2693 dcbd dedc 9e3d
00000180: a898 77bd d098 2b3c a555 e8bd 9a4e cd3d
00000190: 5262 dbbd 1cd5 26bd 1c16 2abe 32ff 90bd
000001a0: eaef c93d 3ab0 10be a82a ef3c a274 a63d
000001b0: b3ec 323e f222 2fbe 6da7 f9bd 60f5 663d
000001c0: b51a 1d3e 1435 8d3d 4879 9c3c 152b 103e
000001d0: 8d34 0b3e 66b1 963d b390 263e 5cf0 81bd
000001e0: 7a9b ab3d 88c5 aabc 7ea5 cb3d ceaa b2bd
000001f0: 9aac 8f3d e004 ddbc c887 a33c 00f6 f239
00000200: 7204 b23d c3ec 323e 7820 593d 1ddc 97bd
00000210: 295d 8fbd 3c35 02bd cebf e93d 6cf7 e5bd
00000220: 9bc6 2fbe 582b b1bc b70e 113e 2ac7 fe3d
00000230: 84bb 1fbe c041 73bc 2ebf e8bd 4041 143d
00000240: 3698 db3d 47ca e7bd 6c34 05bd 6852 f7bd
00000250: 02b4 ea3d 6346 abbd 2a78 33be de73 c93d
00000260: 4655 91bd 00e5 c13b 93b0 253e a1f6 263e
00000270: 3036 ed3c e6f4 2ebe 06fe 9a3d 910b e8bd
00000280: 0409 68bd 63de 28be 9d18 0d3e cbd2 1fbe
00000290: f8e1 d0bc 83d3 30be c647 f33d bfb9 c6bd
000002a0: 009f f0ba 4080 23bd 3a9c c03d 5674 a43d
000002b0: 94ba 15bd cbe9 2d3e e00e 9fbb 08e5 eebc
000002c0: 3ea5 df3d 301e b5bc e6dc fcbd 841d bcbd
000002d0: 5873 503d e8f0 e9bc b625 ee3d f4eb 143d
000002e0: 40a9 38bb 5875 3f3d 9a95 aebd 5cc3 893d
000002f0: e1d5 323e 0041 423b f531 28be 5c30 06be
00000300: ff4a 183e d2ee 02be e0af 603c 50ca a83c
00000310: b8a5 a23c 6bc1 1d3e 10c9 993c 9b3e 0dbe
00000320: 9e14 a13d 1873 d3bc 809d 61bd a626 cb3d
00000330: ca4f db3d 60c8 f43c c8dd 083d b0bd 0e3c
00000340: 3dc6 92bd 1ebf 9cbd ec80 583d a06b a83c
00000350: a0aa 8d3d f87d cebc 0958 82bd 478d f0bd
00000360: 0ceb 27be 5e7c 12be 487b ccbd a929 063e
00000370: 6419 47bd 2168 d9bd 133d 8bbd 5403 01be
00000380: d307 003e 501e 1ebc fa5f c33d c0ad 083c
00000390: 6874 52bd 3396 343e b614 e93d 135b 24be
000003a0: c8d1 71bd 4fb0 26be cd23 2e3e 36b8 ccbd
000003b0: 3ce2 1fbe 2eb0 f93d 6a69 be3d 182e a0bd
000003c0: 106f 193c f11a 2fbe 1c8c 363d 747a 18be
000003d0: 7828 01be 2662 8a3d 48b2 953d ea43 05be
000003e0: f172 ebbd e09e eabb 7645 b7bd 4b61 293e
000003f0: 6eee e1bd 058a 14be baa6 cdbd 1811 7d3d

gru.bias_ih_l0 f4 [96]
-0.086995706 0.03525175 0.062212557 -0.043440342 0.1352437 0.12034275 0.025026992 -0.17008059
-0.048322916 -0.09952683 0.027476117 -0.17049685 -0.063844085 0.005249858 0.13101606 -0.16259909
-0.13927154 0.028611317 -0.15882951 0.16488267 -0.044969723 -0.0036624968 -0.047851175 -0.17464429
-0.14691044 0.03436877 -0.10428709 -0.019392505 -0.07515506 -0.05378475 0.1211483 -0.17430718
0.14280681 -0.064665996 -0.12136394 -0.043608606 -0.11851997 -0.17295195 -0.10911497 -0.15445502
0.10896061 0.0685107 -0.17152703 0.17298077 -0.041572303 0.058411762 0.038797393 0.054175287
0.12905304 -0.015843868 -0.042976573 0.14200296 0.12011136 0.055102244 0.0799243 0.12049128
0.15819888 -0.059834085 0.14302392 0.037349254 0.16069518 0.010236055 0.114050195 -0.15938044
0.06634548 -0.042079583 0.11253993 -0.041851252 -0.04110551 0.1113417 0.1630892 0.13090836
-0.036846846 0.03223762 0.1553566 0.066722184 0.12541603 -0.12351108 0.16159706 0.10393061
0.029046133 -0.10390903 0.1752824 -0.025707304 0.14388482 -0.005299583 -0.0989511 0.09215708
0.16611262 -0.11494216 0.1333956 0.09038918 0.033355817 0.013679728 0.110517934 0.1490993
00000000: ce2a b2bd 2464 103d 98d2 7e3d 80ee 31bd
00000010: 537d 0a3e 4276 f63d 6805 cd3c 9b29 2ebe
00000020: 40ee 45bd b9d4 cbbd 9815 e13c ba96 2ebe
00000030: b0c0 82bd 0007 ac3b 1329 063e 6080 26be
00000040: 339d 0ebe 4862 ea3c 34a4 22be 01d7 283e
00000050: 2c32 38bd 8006 70bb 98ff 43bd f4d5 32be
00000060: b16f 16be 44c6 0c3d 7894 d5bd 08dd 9ebc
00000070: e5ea 99bd 664d 5cbd 9a1c f83d 957d 32be
00000080: f33b 123e 9b6f 84bd a88d f8bd f09e 32bd
00000090: 99ba f2bd 511a 31be ab77 dfbd 7529 1ebe
000000a0: be26 df3d 564f 8c3d c8a4 2fbe df21 313e
000000b0: b847 2abd 2c41 6f3d 04ea 1e3d e8e6 5d3d
000000c0: 7b26 043e 00cb 81bc 3408 30bd 3969 113e
000000d0: f2fc f53d e4b2 613d 5aaf a33d 22c4 f63d
000000e0: e3fe 213e 9614 75bd dd74 123e 88fb 183d
000000f0: 478d 243e 20b5 273c 2693 e93d a034 23be
00000100: 24e0 873d a45b 2cbd 567b e63d 386c 2bbd
00000110: 405e 28bd 1e07 e43d db00 273e d70c 063e
00000120: b8ec 16bd 980b 043d cd15 1f3e a4a5 883d
00000130: 0f6d 003e 61f3 fcbd b379 253e 92d9 d43d
00000140: 28f2 ed3c 42ce d4bd 3b7d 333e 2098 d2bc
00000150: 8b56 133e 20a8 adbb e0a6 cabd dabc bc3d
00000160: 6d19 2a3e cc66 ebbd db98 083e f61d b93d
00000170: 1ca0 083d f020 603c 3a57 e23d 7dad 183e

gru.bias_hh_l0 f4 [96]
-0.12510224 0.17609207 0.077539995 0.1672665 -0.03442727 -0.0128002465 0.021149412 0.002527237
0.17550863 -0.10765647 0.16816877 -0.10088031 -0.12696846 0.040985554 0.08914386 0.048424616
0.14005272 0.11257656 -0.092579305 0.13235156 0.07302439 -0.073742166 0.037996694 0.1131459
0.07109043 0.040452108 -0.12103361 -0.0539117 -0.07553626 -0.12669936 -0.07131877 -0.13446572
0.105536416 -0.0031888336 -0.12743887 0.13373344 -0.16921106 0.09035699 -0.04450646 -0.10365699
-0.12331319 -0.15266342 0.16512485 0.17009203 0.10167621 0.04397157 -0.063194625 0.03370799
-0.138277 0.15398611 0.0025461912 -0.13001686 -0.14772464 0.15007938 0.1447125 0.017036304
-0.025527507 0.10396947 0.11771424 0.0618376 -0.15766226 -0.14806426 0.0505241 -0.035483405
-0.17014417 0.1353059 0.16769768 -0.06634236 -0.12342051 -0.008000359 0.07774456 -0.099461526
-0.07033021 0.12896894 0.034019038 -0.02942492 0.12493296 0.14592232 -0.011897489 -0.100268446
0.12578712 -0.056724727 0.008592352 0.12435828 0.024018899 -0.10790219 0.0027118921 -0.06925711
0.16121002 0.10748051 0.16052361 -0.06656844 0.0881563 0.14521818 -0.09619723 0.087831125
00000000: cd1a 00be 7b51 343e 4acd 9e3d e947 2b3e
00000010: 9c03 0dbd 20b8 51bc 8841 ad3c 00a0 253b
00000020: 89b8 333e ff7a dcbd 6f34 2c3e 569a cebd
00000030: 0504 02be 78e0 273d 0e91 b63d e458 463d
00000040: fb69 0f3e 8a8e e63d 389a bdbd 2b87 073e
00000050: d08d 953d 2206 97bd 6ca2 1b3d 0ab9 e73d
00000060: dc97 913d 1cb1 253d 78e0 f7bd 84d2 5cbd
00000070: c1b2 9abd 7abd 01be 930f 92bd 62b1 09be
00000080: 7a23 d83d c0fb 50bb 567f 02be 6bf1 083e
00000090: aa45 2dbe 160d b93d 684c 36bd 1e4a d4bd
000000a0: a08b fcbd cd53 1cbe 7d16 293e 9b2c 2e3e
000000b0: 9e3b d03d 881b 343d 2f6c 81bd 6411 0a3d
000000c0: 7c98 0dbe 89ae 1d3e 00de 263b 2423 05be
000000d0: 2145 17be 69ae 193e 832f 143e b88f 8b3c
000000e0: 101f d1bc f2ed d43d 2a14 f13d 6c49 7d3d
000000f0: 3772 21be 289e 17be 5cf2 4e3d 0c57 11bd
00000100: 463a 2ebe a18d 0a3e f1b8 2b3e 81de 87bd
00000110: e4c3 fcbd f013 03bc 8a38 9f3d 7cb2 cbbd
00000120: 4909 90bd 6f10 043e 8c57 0b3d 880c f1bc
00000130: dadc ff3d a96c 153e b0ed 42bc 8b59 cdbd
00000140: 57ce 003e 3058 68bd f0c6 0c3c 8eaf fe3d
00000150: 48c3 c43c d3fb dcbd 00ba 313b acd6 8dbd
00000160: 3d14 253e be1e dc3d 4d60 243e 0955 88bd
00000170: 4a8b b43d 13b4 143e 0e03 c5bd cee0 b33d

fc.weight f4 [1, 32]
0.014564663 0.43173772 0.3037651 -0.15540485 0.15155746 -0.11358641 0.26353627 0.42979366
0.022109538 0.27259856 -0.24532877 -0.29786697 -0.10064745 -0.5191024 0.016050696 0.5301949
-0.027008101 0.34989992 -0.27747393 0.081924364 -0.33823526 -0.0048253685 0.16645332 -0.13695598
-0.27317896 0.12951227 0.14599098 -0.04854901 0.0734206 0.052743196 0.53728586 -0.07052959
00000000: a0a0 6e3c ba0c dd3e 1987 9b3e 7322 1fbe
00000010: e131 1b3e fe9f e8bd 3aee 863e ea0d dc3e
00000020: 101f b53c 0a92 8b3e 7737 7bbe 0582 98be
00000030: 4020 cebd e5e3 04bf c07c 833c daba 073f
00000040: 1840 ddbc 1526 b33e 1011 8ebe f6c7 a73d
00000050: 2c2d adbe 201e 9ebb bd72 2a3e 303e 0cbe
00000060: 1dde 8bbe dd9e 043e a97e 153e 54db 46bd
00000070: 8a5d 963d 4009 583d 918b 093f d171 90bd
