project2/scripts/models/LSTM/Tesla.pth (torch, 4072 bytes, 6 tensors)

cell.weight_ih f4 [20, 5]
00000000: 4fc2 1a3e 75e8 f5be f231 40be 39aa b0bd
00000010: caa9 0b3e 9bf2 fe3e 0b01 30be e6c6 e03d
00000020: ee6d b33e e9a1 873e 5a27 083f 85df ae3e
00000030: 9556 173e d7c3 193e d123 153e e0c3 fc3e
00000040: ff60 d5bd 217f 17bd 9ef9 bb3e c8cc b43e
00000050: ad36 683e a647 a9bd 93f2 fd3e 3c00 183e
00000060: bdc3 2a3e bdc4 9dbe e491 513c 91d4 c5bc
00000070: 5186 723e e326 af3b b28c 033f 7304 3c3d
00000080: acb3 5c3e d852 183f c094 cd3e 803a d43d
00000090: c819 113f d981 13be 9f77 e43e 68c6 02bc
000000a0: 9d7a dd3e 7fbc 2abe 35bf ad3c 799e 523e
000000b0: 1600 b53d 998d ec3d 1274 b03e b11e 35be
000000c0: e0dd 4e3e 82f7 953e ea03 a4be 493a dfbe
000000d0: 775c d8be cf85 02bf 5aac f2bd 5795 ba3e
000000e0: 89ef aabd 6da0 32be af08 da3e cff0 e3be
000000f0: c7ba 473e d01e e53d 714d 24be 31d5 8e3e
00000100: 8520 46be 8fbf 4dbd 955f bd3d 0f52 fabe
00000110: 3d5e d1be da79 c6be b8b4 9c3d 4bfa 363e
00000120: dcf6 e2bd e5a7 9d3e 8ebd b03e be37 813d
00000130: 32bb 273e 7e76 763d 8947 203c c5c7 d53d
00000140: 18ae 843e 06cc 58bd c002 0a3f 8dc6 03be
00000150: acc9 233f a241 b53c 5f9f 11be 012b a83d
00000160: bcca 0bbd 92c1 f0bd bbd0 dabd 3df9 343e
00000170: d401 d93e 8e8b 043f 9226 1f3f edf1 433e
00000180: 663d 11be 2b8d 70be 502f bc3e 75db 33be
0.15113185 -0.48028913 -0.18769053 -0.086262174 0.13638988 0.49794468 -0.17187898 0.10975437
0.35044807 0.26490715 0.53185046 0.34154907 0.14779122 0.15016113 0.14564444 0.4936819
-0.10418891 -0.036986474 0.3671388 0.35312486 0.22677107 -0.08265619 0.49599132 0.1484384
0.1667623 -0.30814162 0.012791131 -0.024149211 0.2368405 0.005345212 0.5138656 0.04590268
0.21552914 0.5950141 0.4015255 0.103627205 0.56679964 -0.14405002 0.44622514 -0.007981874
0.4325761 -0.16673468 0.021209339 0.20568265 0.08837907 0.11550445 0.34463555 -0.17687489
0.20201826 0.29290396 -0.32034236 -0.43599156 -0.42258045 -0.50985426 -0.1184928 0.36442062
-0.08346469 -0.1744401 0.4258475 -0.4451966 0.19504844 0.11187518 -0.16045167 0.27897027
-0.19348343 -0.050231513 0.092467465 -0.4889073 -0.4089221 -0.3876484 0.07651657 0.17868917
-0.11082241 0.30792156 0.3451962 0.0630946 0.16380003 0.060171597 0.00978268 0.10438494
0.25914073 -0.052928947 0.53910446 -0.1286871 0.639796 0.022126023 -0.14220951 0.08211327
-0.03412889 -0.117556706 -0.106843434 0.17673202 0.42384207 0.51775444 0.6216823 0.19135256
-0.14183578 -0.23491351 0.36754847 -0.17564185

cell.weight_hh f4 [20, 5]
00000000: 4a7b c3be cd73 f53e 7893 c6be 02c8 a93d
00000010: cdf4 70be 87b9 a6bb 89b9 d2be b023 f23e
00000020: 9d81 04bf c7fd c9bd ebb3 8ebe dd29 a93d
00000030: 91ae 683e 5be1 cbbe f7a8 7d3c 1b83 b1be
00000040: 94ee a03e e6c3 ec3e 67d3 edbe 91a9 a0bd
00000050: a22b a8be 8a77 72bd dd56 c23d 0625 443e
00000060: be9b 0dbe e3dd 9bbe 60fe f43e 9aaf 843e
00000070: b994 0b3e 9b56 c9bb 73bc de3e ceae 9b3e
00000080: ff3c 153f c69b 6f3e 14f5 d53e 3e6e cc3c
00000090: 3d2b 2c3e 8b21 0cbe f733 d0bd 6547 bc3c
000000a0: fc64 cabe 9cb7 c23d 5060 0abe 00fa 343d
000000b0: a588 4c3e 02c2 77bc 95d1 7e3e 1d2b 1d3d
000000c0: e85c e8be 6b25 b63a 02b1 d23d 14d9 d2bc
000000d0: d08d 51be c268 cc3e 44af 74be 5418 71be
000000e0: 70a6 083f e743 b5be fc60 8ebe 00c5 aebe
000000f0: d1bb bebd f1cd 73be 32c6 82be ffa3 343e
00000100: 3346 0fbe 9689 1e3d f1c1 85be c511 70be
00000110: bc09 fb3d d7cc 79be 2ebb d3be f447 d33e
00000120: 8644 633d b7d2 ec3c 4c49 7dbd 2cd2 4c3e
00000130: 83ff d1be 8feb c5be e210 243e 3f16 623d
00000140: 7506 6ebe 09e2 f8be 29e2 7f3e ce86 23be
00000150: 641e e33e e159 a23e e892 143e 693d 27be
00000160: 27cb ffbe 2946 cb3e 31af 1a3e ed1e bb3e
00000170: 48b2 853e 27ba 05bc b198 0f3f 3674 9cbd
00000180: c395 8d3e a00e 883e a0f1 663c 0629 b7bd
-0.3818 0.4793991 -0.38784385 0.082901016 -0.23530884 -0.0050880346 -0.41157177 0.47292852
-0.51760274 -0.09862857 -0.27871642 0.08259938 0.22722842 -0.3982037 0.015482179 -0.34670338
0.3143202 0.4624321 -0.4645035 -0.07844842 -0.3284579 -0.059196033 0.09489224 0.19154748
-0.13828942 -0.30442724 0.47850323 0.25915223 0.13630952 -0.0061443574 0.4350315 0.30406803
0.582962 0.23399267 0.41788542 0.024954911 0.16813369 -0.1368467 -0.101661615 0.022983262
-0.3953017 0.09507677 -0.13513303 0.04418373 0.19974001 -0.015121939 0.24884637 0.038371194
-0.45383382 0.001389665 0.10287668 -0.025738277 -0.20464253 0.39923674 -0.23894984 -0.23544437
0.53378963 -0.35403368 -0.27808368 -0.34134674 -0.09313167 -0.23809029 -0.25541836 0.17640685
-0.13991623 0.03870543 -0.26124528 -0.23444279 0.12257716 -0.24394546 -0.41353744 0.41265833
0.05548527 0.02890907 -0.06183748 0.20002049 -0.41015252 -0.3865628 0.16022065 0.055196997
-0.2324465 -0.4860995 0.24988617 -0.15969393 0.44359124 0.31709197 0.14509165 -0.1633202
-0.4995968 0.39701965 0.15105893 0.36547032 0.2611258 -0.008162058 0.56092364 -0.07639353
0.27653322 0.26573658 0.014095694 -0.089433715

cell.bias_ih f4 [20]
00000000: 37e3 8f3d b254 34be 74fa 7a3e f919 95be
00000010: 1076 493e 4f6f bfbe 25c4 22be 74e3 c4bd
00000020: c8b1 26be 646a 3bbe cbe9 c43e 8608 87be
00000030: 2b16 da3d 71c9 bbbe 1098 5c3e 1ce3 09be
00000040: 2173 e63e 87b7 93bb bd33 ba3e f95d eebc
0.0702576 -0.17610434 0.24509603 -0.29121378 0.19673944 -0.3738961 -0.15895136 -0.09613696
-0.16278756 -0.18302304 0.3845962 -0.2637369 0.106487595 -0.36677125 0.21542382 -0.13465542
0.4500971 -0.004507962 0.36367598 -0.029097544

cell.bias_hh f4 [20]
00000000: 9a16 bfbe 2634 6ebd e623 09be 59ea 533d
00000010: 2c55 c53e 1e89 d83e 2e91 0f3f ee25 d43e
00000020: bb3b 9fbe 1b96 9f3e 31ee e83d a770 ca3e
00000030: f77e f73e b4c5 743e 4904 543e 46a9 ddbe
00000040: 0291 183f 0e22 4ebe 776f 4fbe b7aa 023e
-0.3732193 -0.0581552 -0.133926 0.051737163 0.38541543 0.42292112 0.560809 0.41435188
-0.31100258 0.3116921 0.113735564 0.39539072 0.48339054 0.23903543 0.2070476 -0.43293208
0.59596264 -0.20130178 -0.20257364 0.12760435

fc1.weight f4 [1, 5]
00000000: e7fc 04bd 681f 1e3e 4ed3 26be b2f1 d0be
00000010: 4207 043f
-0.03246775 0.15441668 -0.16291544 -0.408094 0.51573575

fc2.weight f4 [1, 5]
00000000: 5dc3 0dbe 7e05 b6be 30f8 b93e 3f88 0fbf
00000010: 076b 3cbe
-0.13844056 -0.35551065 0.36322165 -0.5606727 -0.18400203
