project2/scripts/models/GRU/Tesla.pth (torch, 3386 bytes, 6 tensors)

gru.weight_ih_l0 f4 [15, 5]
000000 bb 6b a5 be e5 ad ef be 9d 48 16 bf bb 83 03 bf
       -0.32308754 -0.46812358 -0.5870455 -0.5137288
000010 60 79 1f be 65 3c 08 be 3c 32 5d be f7 05 83 3e
       -0.15573645 -0.13304289 -0.21601194 0.25590488
000020 a5 42 c7 3e 97 51 bd 3e b7 f0 a4 3e 1e 1a 04 3d
       0.38918033 0.3697631 0.322149 0.03225147
000030 37 80 bf bd 3c af c9 bc 5d 05 a4 bd ae 4f ac 3b
       -0.09350627 -0.024619691 -0.080088355 0.005258522
000040 5f 5f 7d 3d 91 94 91 3e b4 4d 4b be 03 fa 0a 3e
       0.06185853 0.2843366 -0.1985386 0.13571934
000050 83 b8 09 bf 70 52 1f bf c2 9c 2c bf 67 34 1e bf
       -0.5379717 -0.62235165 -0.67426693 -0.6179871
000060 12 17 52 bc 16 cf 53 be 7a 08 a1 3d 4e 24 a8 be
       -0.012822883 -0.20684466 0.07862945 -0.32840198
000070 4c 63 a5 be 9b 33 06 3f 63 4a 93 be 03 f1 13 3e
       -0.3230232 0.52422494 -0.2876769 0.14447407
000080 a9 84 8e be f6 ae 9b 3e 26 c4 08 bf a6 33 7b 3d
       -0.27835587 0.30406922 -0.534243 0.061328553
000090 c9 3e 47 be a2 33 8d be 44 d8 d8 3d ea 4b 33 3e
       -0.19457544 -0.27578455 0.105881244 0.17509428
0000a0 b2 b1 b1 bd 18 ba f5 be 9c 4c 9f be 8c 20 ec be
       -0.08676471 -0.4799354 -0.31113136 -0.4611858
0000b0 2c 26 86 be 0d 4f f5 3e 87 3f 02 3f f3 6e 15 3f
       -0.26200998 0.47911873 0.50878185 0.5837242
0000c0 6f 8e 18 3f b8 d9 80 3d 9e bc 1c bf 0f af 86 3e
       0.59592336 0.062915266 -0.61225307 0.26305434
0000d0 78 c8 eb be 3d 20 62 3e f2 45 35 bd 8f c2 99 be
       -0.46051383 0.2208261 -0.04425616 -0.3003125
0000e0 cc 58 93 3e 58 80 88 3d eb 49 a7 3e 7c 94 ce 3e
       0.28778684 0.06665105 0.32673582 0.4034766
0000f0 b9 4e 8e bc a6 fc 69 3e 4d ea 0e 3e 9b 06 f8 bd
       -0.017371522 0.22850284 0.13956566 -0.12110635
000100 36 1b 03 3f a3 83 88 be 8d 4d 94 3e fb 6f 36 be
       0.51213396 -0.2666293 0.28965417 -0.17816155
000110 b6 b4 78 be 5b 97 e9 3e 55 17 f4 3e 66 c5 77 3d
       -0.24287686 0.45623288 0.4767405 0.06049099
000120 d2 c1 94 3d fd 53 a2 bc 80 77 2e 3e
       0.07263531 -0.01981544 0.17037773

gru.weight_hh_l0 f4 [15, 5]
000000 b4 78 a1 bd 06 50 ef bd 40 c1 c6 3d 39 70 39 be
       -0.078843504 -0.11685185 0.09704828 -0.18109216
000010 84 7a 20 bd 24 48 58 3e b6 4a f4 3b 4c eb 74 be
       -0.03917934 0.2112127 0.0074551953 -0.23917884
000020 09 45 56 bc c1 e1 cc be c6 c1 c9 bd b5 3d 80 be
       -0.013077983 -0.40015987 -0.098514125 -0.2504708
000030 e2 ec e5 3d a9 62 a1 3e ec ec bc 3e c6 fd c9 3e
       0.112268224 0.31520584 0.36899507 0.39451426
000040 bb ff 91 be 00 0d a4 3e c9 45 02 bd aa c2 ce be
       -0.2851542 0.32041168 -0.031804834 -0.40382892
000050 86 65 ca bd 8c 7c b3 be a3 13 b8 3d 5c be b3 3e
       -0.09882645 -0.3505596 0.089881204 0.3510617
000060 45 48 0b 3d 3d e2 7d be d9 83 e9 bc bc b9 94 3e
       0.03400447 -0.24793334 -0.028505253 0.29047954
000070 50 6b a9 bd bd 7c c0 3d 2b 5b 72 3e be f0 e5 be
       -0.08272421 0.09398792 0.2366759 -0.44910234
000080 06 76 16 be c5 59 1d 3c 63 64 fd 3e 54 6c 06 3f
       -0.1469346 0.009603922 0.4949065 0.52509046
000090 dc 46 81 be 96 95 b8 be ff 99 a4 be 6e 89 56 3e
       -0.25249374 -0.36051625 -0.3214874 0.20950863
0000a0 e0 2a 34 be 4e a5 0d bf 32 2c 70 3d 33 97 c0 be
       -0.1759448 -0.5533036 0.058635898 -0.37615356
0000b0 f6 09 1b 3f b4 31 e0 3e 9c 77 93 be dc db c8 bd
       0.60562074 0.4378792 -0.28802192 -0.0980756
0000c0 9a 97 07 be 07 76 c4 3c 5c 08 f7 be 9e c4 e5 3e
       -0.13241425 0.023982061 -0.48248565 0.4487657
0000d0 54 87 ab 3e a8 b2 06 bd 57 14 dd 3d a1 46 93 3e
       0.33501685 -0.032885224 0.10794895 0.28764823
0000e0 f0 3b 2e 3e 02 93 92 be 9d b1 37 3e a6 3a de be
       0.17015052 -0.28627783 0.17938848 -0.4340412
0000f0 47 ff 9a bd c3 a0 92 3e 5d 4a 6f 3e 49 ce 4a be
       -0.075682215 0.28638276 0.23368211 -0.19805254
000100 74 96 44 be 47 17 0f be 25 40 b7 be 8d 64 bb 3e
       -0.19198018 -0.13973723 -0.35791126 0.36600152
000110 8d 62 6e be a9 d6 84 be c3 90 38 3c 92 d1 02 bf
       -0.23279782 -0.25945023 0.011264983 -0.5110103
000120 fa 2c 71 3e bd 57 c4 3d bf a5 22 3f
       0.23552313 0.09587047 0.6353416

gru.bias_ih_l0 f4 [15]
000000 17 3f 89 be 3e 96 b8 bd f2 96 36 3e 0b 94 83 be
       -0.26805946 -0.090130314 0.17831019 -0.25698885
000010 5b 10 aa 3e eb 73 47 be e6 a7 d9 be fa 1e 06 bf
       0.33215603 -0.19477813 -0.4251091 -0.52391016
000020 83 fe 43 3d d5 5c ba be 83 42 be bd f9 fc 81 3c
       0.047850143 -0.3639895 -0.0929003 0.015867697
000030 02 00 7e bd 77 44 05 bd 3f c8 a7 3c
       -0.062011726 -0.032535996 0.020481227

gru.bias_hh_l0 f4 [15]
000000 88 5f 15 be 9f 93 b7 3e e0 1f fd 3d 57 cd 4e be
       -0.14587224 0.35854813 0.12359595 -0.20195518
000010 c6 ac 0e 3d e5 2b fe 3e fd 5d 47 3a 11 5b 52 3e
       0.03483274 0.49642864 0.0007605253 0.20542552
000020 a0 c6 25 bc 79 0c 55 be 48 a8 69 be dc 38 aa 3e
       -0.010118157 -0.20805539 -0.228181 0.33246505
000030 84 6f 56 3d b1 42 47 bd 0e 2b b1 be
       0.052352443 -0.048647586 -0.3460316

fc_price_conv.weight f4 [1, 5, 1, 1]
000000 43 32 5b be 3a 17 8b 3d b0 be 05 bb 3e a4 6a be
       -0.21405892 0.067915395 -0.0020407848 -0.22914216
000010 29 85 18 3f
       0.59578186

fc_volume_conv.weight f4 [1, 5, 1, 1]
000000 6d 60 a9 3e eb 6b 94 3e a2 e2 08 3f d1 69 09 3f
       0.3308138 0.28988585 0.53470814 0.5367709
000010 45 88 99 3e
       0.29986778
