project/onnx_models/LSTM/Apple.onnx (onnx, 226520 bytes, 9 tensors)

lstm.weight_ih_l0 f4 [256, 5]
0	0xbd9fd726	-0.07804708
1	0xbd2c1bb8	-0.042018622
2	0xbcc072d8	-0.023492262
3	0x3dc68b8e	0.09694587
4	0x3d366d34	0.044537738
5	0xbda7b68e	-0.081891164
6	0xbd7be720	-0.061499715
7	0xbda24a98	-0.07924384
8	0xbdc61ec8	-0.0967384
9	0x3de111a8	0.10989696
10	0x3dd0ed3e	0.102015
11	0x3dd0577c	0.10172936
12	0xbd61ca04	-0.055124298
13	0x3cd8e520	0.026476443
14	0xbd796fc4	-0.060897604
15	0x3dced000	0.100982666
16	0xbbe9ab20	-0.0071309954
17	0xbda70bc8	-0.08156544
18	0x3cd17480	0.025568247
19	0x3de31980	0.11088848
20	0xbd0e070c	-0.03467469
21	0xbd6c3334	-0.05766602
22	0xbd403df0	-0.04693407
23	0x3d483d28	0.04888645
24	0xbd440810	-0.04785925
25	0x3cc3f4a8	0.023920372
26	0xbd23da8c	-0.040003344
27	0xbcd18d00	-0.02557993
28	0x3da0807e	0.07837008
29	0xba016100	-0.00049354136
30	0xbdd2550e	-0.10270129
31	0xbddc9cb6	-0.10772078
32	0x3d10e72c	0.035376713
33	0xbdfd76ca	-0.12376173
34	0xbdefc318	-0.11707133
35	0x3d430308	0.047610313
36	0xbdf4140c	-0.11917886
37	0x3d6634b0	0.05620259
38	0x3cba2838	0.022724256
39	0xbdb090ce	-0.08621369
40	0x3dec4c3c	0.11537978
41	0x3c8d1ef0	0.017226666
42	0x3d6ee254	0.058321312
43	0xbc159ba0	-0.009131342
44	0xbdb6c1aa	-0.08923657
45	0xbbbcbda0	-0.0057599097
46	0x3dcdd792	0.100508824
47	0xbd811a1c	-0.06303808
48	0x3be1dd80	0.00689286
49	0x3d1f38e0	0.0388726
50	0x3dcd4e66	0.10024719
51	0x3dec5494	0.115395695
52	0x3c46f6f0	0.012143835
53	0xbde85a1c	-0.11345312
54	0xbdd2e24a	-0.102970675
55	0x3d9db10a	0.07699783
56	0xbd7acc44	-0.06122996
57	0xbb9576c0	-0.0045612752
58	0xbc30be90	-0.010787621
59	0x3dfd9d78	0.123835504
60	0xbd1255f4	-0.035726503
61	0xbdd835a6	-0.105571076
62	0x3dbd3c1c	0.092399806
63	0xbdd001e4	-0.101566106
64	0x3dc3ec00	0.09566498
65	0x3d96aec4	0.07357553
66	0xbda2ff2c	-0.079588264
67	0x3d1555f0	0.03645891
68	0xbcc57d30	-0.024107546
69	0xbd95de68	-0.07317811
70	0xbd08b48c	-0.033375308
71	0xbd1c37d4	-0.03813918
72	0x3dd821b0	0.105533004
73	0x3d357aa8	0.044306427
74	0x3d2dfaf4	0.042475656
75	0xbaddd400	-0.0016924143
76	0xbda875d4	-0.08225599
77	0xbc34fcc0	-0.011046588
78	0xbd349c1c	-0.04409419
79	0x3bcc9e40	0.006244451
80	0x3da4af88	0.080412924
81	0xbdf8a71e	-0.1214125
82	0xbd90eb8e	-0.070761785
83	0x3d6ceb14	0.057841375
84	0xbc956630	-0.018237203
85	0x3dd9f6be	0.106427655
86	0xbdc60e40	-0.09670687
87	0x3c3b2580	0.011422515
88	0x3dea3dc0	0.11437559
89	0x3d8ee78c	0.06977758
90	0x3d0534d0	0.03252107
91	0x3c07f070	0.008297071
92	0x3ca10ea8	0.019660309
93	0xbdd7e54c	-0.10541782
94	0xbdff82b6	-0.12476103
95	0x3dad053c	0.08448264
96	0x3da6e378	0.08148855
97	0x3dbfa300	0.09357262
98	0xbca6c0a8	-0.020355538
99	0xbde4b374	-0.111670405
100	0x3da55846	0.080734774
101	0x3d36f308	0.044665366
102	0x3d134680	0.035955906
103	0x3da01b7c	0.07817742
104	0xbdf627aa	-0.12019284
105	0x3dd8b528	0.10581428
106	0x3d609c6c	0.054836676
107	0xbdd2adf6	-0.10287087
108	0xbdacfd8c	-0.08446798
109	0xbc85d8c0	-0.016338706
110	0xbdd9da2a	-0.106373146
111	0xbc2dd6e0	-0.010610312
112	0xbd2fb9d0	-0.042901814
113	0xbdda9c4e	-0.10674344
114	0x3d26f9a4	0.04076542
115	0xbdccfdd2	-0.1000935
116	0x3d480a7c	0.048838124
117	0xbd4a0800	-0.049324036
118	0xbdc24a0e	-0.09486781
119	0x3d560c94	0.05225809
120	0xbdcf42da	-0.10120173
121	0x3d8fd9a4	0.070239335
122	0xbbd31780	-0.0064420104
123	0xbd98e78a	-0.074660376
124	0xbb616380	-0.0034391582
125	0x3dab91d0	0.08377421
126	0x3c82d018	0.015968367
127	0x3cac0f30	0.021003336
128	0x3d4ad36c	0.049518034
129	0xbdcae316	-0.099065945
130	0x3d916c56	0.071007416
131	0xbcb58230	-0.022156805
132	0xbdb5379e	-0.08848499
133	0x3d464164	0.048402205
134	0xbd5485f4	-0.05188556
135	0x3bfe1960	0.00775449
136	0x3de2307c	0.11044404
137	0x3d9a4250	0.07532179
138	0x3dd2ed34	0.10299149
139	0x3cdc2e80	0.026877642
140	0xbd929634	-0.07157555
141	0xbda969e0	-0.08272147
142	0xbc82b7a8	-0.015956715
143	0x3c692980	0.014231086
144	0x3abf4080	0.0014591366
145	0xbdc7a60e	-0.09748469
146	0xbcc98538	-0.024599656
147	0xbd761644	-0.060079828
148	0xbdf06a6a	-0.11739047
149	0x3d0fce54	0.03510888
150	0x3dc461aa	0.095889404
151	0x3dd578b2	0.104234114
152	0x3dc8126c	0.09769139
153	0xbdc75838	-0.09733623
154	0xbdf2f2d8	-0.11862725
155	0x3d1e52bc	0.03865312
156	0x3c105d70	0.00881134
157	0xbd96b1ae	-0.073581085
158	0x3b4a3e00	0.0030859709
159	0xbdba74c2	-0.09104301
160	0xbd970164	-0.07373312
161	0xbda13fe6	-0.07873516
162	0xbd6e075c	-0.058112487
163	0x3d71bcb8	0.059017867
164	0x3dacae9c	0.084317416
165	0x3daabf1c	0.083372325
166	0xbd19e51c	-0.03757201
167	0x3d9eb862	0.07750012
168	0x3d87fb76	0.06639759
169	0x3daaee62	0.08346249
170	0xbdd4ede6	-0.10396938
171	0xbdf37a54	-0.118885666
172	0x3b3b2b80	0.0028559864
173	0x3cdd9210	0.027047187
174	0xbdc44d82	-0.09585096
175	0x3d0fbd24	0.035092488
176	0xbdcd5ca2	-0.10027434
177	0x3c1ef2f0	0.0097014755
178	0xbdfa328a	-0.12216671
179	0xbd4a9aac	-0.049463913
180	0x3d673014	0.056442335
181	0x3c851330	0.0162445
182	0xbcebe230	-0.028794378
183	0x3bbda9c0	0.005788058
184	0x3dfad116	0.12246911
185	0xbd8b6ab4	-0.068074614
186	0x3dc6fc80	0.09716129
187	0x3d4e9004	0.050430313
188	0x3d79da3c	0.06099914
189	0xbdbc7f82	-0.09204008
190	0x3acfb400	0.0015846491
191	0x3d834e8e	0.064114675
192	0x3ccb7d80	0.024840117
193	0x3d32005c	0.043457374
194	0xbdfdd6a0	-0.12394452
195	0xbd0b23a0	-0.03396952
196	0xbd72e13c	-0.05929683
197	0x3de07b1a	0.1096098
198	0xbd6aeea8	-0.057356507
199	0xbdcf8bf0	-0.10134113
200	0x3c522220	0.012825519
201	0xbcc649e8	-0.024205163
202	0x3d8e01fa	0.06933971
203	0x3dd1d550	0.10245764
204	0xbcbcf380	-0.023065329
205	0xbda2592a	-0.07927163
206	0x3d96f9f0	0.073718905
207	0x3dda1b5e	0.10649751
208	0x3d4b5e0c	0.049650237
209	0x3d1b8768	0.03797093
210	0xbda0b690	-0.07847321
211	0x3de16970	0.11006439
212	0xbbde7a60	-0.0067894906
213	0x3dc299ee	0.09502016
214	0x3deeeeca	0.11666639
215	0x3d9ccc4c	0.07656154
216	0x3da39d2e	0.07988964
217	0x3d87cf6a	0.06631358
218	0xbd1c45bc	-0.03815244
219	0x3d0598c4	0.03261639
220	0x3cb1a078	0.021682963
221	0xbba5e7c0	-0.005063027
222	0x3d7f6df4	0.06236072
223	0xbd0baa80	-0.03409815
224	0x3c9c2f28	0.019065455
225	0x3cca32b0	0.024682373
226	0xbd2aafdc	-0.04167162
227	0xbc6b4910	-0.014360681
228	0x3d10fb90	0.03539616
229	0xbd97573e	-0.07389687
230	0x3c538990	0.012911215
231	0x39096c00	0.00013105571
232	0x3deb1150	0.114779115
233	0x3dee5372	0.1163701
234	0xba9d4780	-0.0011999458
235	0x3dd9ae64	0.106289655
236	0xbd801262	-0.06253506
237	0xbde9f69c	-0.1142399
238	0xbd345d28	-0.044034153
239	0xbd4e043c	-0.050297007
240	0xbdd38090	-0.10327256
241	0xbbec5e40	-0.007213384
242	0xbd1b9028	-0.037979275
243	0x3d84a6e6	0.06477146
244	0x3db4e80a	0.088333204
245	0x3d7850e0	0.060624003
246	0xbd4206f4	-0.047369912
247	0x3d83f198	0.06442565
248	0xbd201c28	-0.039089352
249	0x3d90544a	0.07047327
250	0x3a3fc300	0.0007315129
251	0xbd9f72f4	-0.077855974
252	0xbdbc20de	-0.091859564
253	0xbd575d30	-0.052579105
254	0x3dd94316	0.10608499
255	0xbcf3d488	-0.029764429

lstm.weight_hh_l0 f4 [256, 64]
0	0xbce6ab88	-0.028157964
1	0x3dc94174	0.09826937
2	0xbdff0372	-0.12451829
3	0xbd175280	-0.036943913
4	0xbcbf5bb8	-0.023359165
5	0xbc6fe8a0	-0.0146428645
6	0x3d8187ca	0.06324728
7	0xbd938bea	-0.07204421
8	0xbd64d20c	-0.05586438
9	0xbdaf9afe	-0.08574484
10	0xbca3d788	-0.020000234
11	0xbd3f5cec	-0.046719477
12	0x3d998864	0.074967176
13	0x3daa0bdc	0.08303043
14	0xbdcf6ee6	-0.10128574
15	0xbdff9dd6	-0.12481277
16	0x3d7dba48	0.06194523
17	0x3d857512	0.0651647
18	0xbd8c5d18	-0.06853694
19	0x3dd1c796	0.10243146
20	0xbda854fe	-0.08219336
21	0x3dfa54b2	0.122231856
22	0x3ded8a58	0.115986526
23	0x3ce41d00	0.02784586
24	0x3de4b242	0.111668125
25	0xbd3fb910	-0.04680735
26	0xbde93f8c	-0.11389074
27	0xbc8d20a0	-0.01722747
28	0xbcbf5f18	-0.023360774
29	0xbd86402e	-0.0655521
30	0x3db748fc	0.089494675
31	0xbd879f92	-0.066222325
32	0x3ddfe850	0.10932982
33	0x3d244754	0.040107086
34	0x3de34f62	0.110991254
35	0xbd0403e4	-0.032230273
36	0x3dd8df0a	0.10589416
37	0x3d22319c	0.039598092
38	0x3cbc2e30	0.022971243
39	0x3c5be750	0.013421848
40	0xbd8c7d1a	-0.06859799
41	0xbd82972c	-0.0637649
42	0xbdc2a490	-0.09504044
43	0xbd30f7e8	-0.04320517
44	0x3d7ee3d8	0.062229007
45	0x3d0a7c28	0.03380981
46	0x3d88f868	0.06688005
47	0xbc956100	-0.01823473
48	0xbd97aa96	-0.074055836
49	0xbd8b32a8	-0.06796771
50	0x3db1d308	0.08682829
51	0x3d647b48	0.055781633
52	0xbd4fe5f8	-0.050756425
53	0xbd3782d8	-0.044802517
54	0x3dd80314	0.10547462
55	0xbded3738	-0.11582798
56	0xbd36a458	-0.044590324
57	0xbd0100c4	-0.03149487
58	0x3dc8462a	0.09779008
59	0xbda7adba	-0.081874326
60	0x3cb9e2b0	0.0226911
61	0xbcaf1a98	-0.021374986
62	0xbd1b8f94	-0.037978724
63	0x3da37448	0.07981163
64	0xbdf2e6c8	-0.11860424
65	0x3dab4014	0.08361831
66	0x3dd7814a	0.10522707
67	0x3cdbf210	0.026848823
68	0x3df811d0	0.121127725
69	0x3cde19e0	0.027111948
70	0xbc31ad80	-0.010844588
71	0x3d6b32a8	0.057421356
72	0xbd8b5878	-0.068039834
73	0x3d441860	0.04787481
74	0xbd00bd8c	-0.031430766
75	0x3cc11bb0	0.023572773
76	0xbc7f7980	-0.015592933
77	0x3df414fe	0.119180664
78	0x3dc9f0fa	0.09860416
79	0xbd013904	-0.031548515
80	0x3d4b5430	0.049640834
81	0x3d706898	0.0586935
82	0xbddd8622	-0.108165994
83	0xbdbc1e38	-0.09185451
84	0xbdb6b27a	-0.089207605
85	0xbd9ebae4	-0.0775049
86	0x3dc6ce5c	0.09707329
87	0x3dc449ca	0.09584387
88	0xbcecc3e8	-0.02890201
89	0x3dbb2978	0.09138769
90	0x3ddf274c	0.10896167
91	0xbde52810	-0.11189282
92	0x3cbbd2b8	0.022927627
93	0xbd538db0	-0.051648796
94	0x3aac2a00	0.0013135076
95	0xbd0d1474	-0.034443334
96	0x3d271744	0.040793672
97	0xbcd8e060	-0.026474178
98	0x3df13642	0.11777927
99	0x3c2ad2d0	0.010426238
100	0x3da623fe	0.08112334
101	0x3dcc0d0a	0.099634245
102	0xbb3b0940	-0.002853945
103	0x3db08356	0.086188
104	0xbd7fa8f4	-0.062416986
105	0x3d812948	0.06306702
106	0xbd8037b4	-0.062606245
107	0x3db0c90c	0.08632097
108	0x3db56c02	0.088584915
109	0xbd8094c6	-0.06278376
110	0xbcbd8f08	-0.023139492
111	0xbcadf1d8	-0.021233484
112	0xbd6c33bc	-0.057666525
113	0xbd3fd774	-0.04683633
114	0xbdb3d650	-0.08781111
115	0x3c066cc0	0.008204639
116	0x3d02bd20	0.031918645
117	0xbd78d314	-0.060748175
118	0x3d192120	0.037385106
119	0xbdd3f318	-0.10349101
120	0x3d15e448	0.03659466
121	0xbd8a2ed6	-0.067472145
122	0x3c2c57c0	0.010518968
123	0x3baeef20	0.0053385645
124	0xbdb2297e	-0.0869932
125	0xbdc841c0	-0.09778166
126	0xbdba2a90	-0.090901494
127	0xbc1e7130	-0.009670541
128	0xbc08d8f0	-0.008352503
129	0xbd93b726	-0.07212667
130	0x3c8661b8	0.016404018
131	0x3dec586c	0.11540303
132	0x3d0784f4	0.03308578
133	0xbdb34936	-0.08754198
134	0x3c43f730	0.01196079
135	0x3c136be0	0.008997887
136	0xbd041fe8	-0.03225699
137	0x3dfe9b44	0.12431958
138	0x3a0cf200	0.0005376637
139	0xbbc2c060	-0.005943343
140	0x3de15d4e	0.110041246
141	0x3c0b46b0	0.00850074
142	0x3d71d72c	0.059043095
143	0x3de5b032	0.11215247
144	0x3df95ec2	0.12176277
145	0x3dfb204a	0.12262018
146	0xbdf02074	-0.1172494
147	0xbd1cc5a4	-0.038274422
148	0xbdfe2cc8	-0.12410885
149	0xbdc034e4	-0.09385088
150	0xbdcad096	-0.09903066
151	0x3a8c1d80	0.0010689944
152	0xbdf79314	-0.120886
153	0x3dda3110	0.10653889
154	0xbdfcdfe6	-0.12347393
155	0x3d743b10	0.05962664
156	0x3cc4f850	0.024044186
157	0xbd1a9618	-0.037740797
158	0x3d8c66c8	0.068555415
159	0xbd8328f0	-0.064042926
160	0xbddeef3c	-0.10885474
161	0x3d83ef32	0.06442107
162	0x3d4a8e9c	0.04945241
163	0x3c9a3898	0.018825814
164	0xbdbed56c	-0.09318051
165	0x3d02e250	0.03195411
166	0xbdd82be6	-0.10555248
167	0xbd15db30	-0.036585987
168	0x3cf6d200	0.030129433
169	0x3dcc5e30	0.09978902
170	0xbd60a47c	-0.054844365
171	0x3d484fe4	0.048904315
172	0x3dbf0904	0.093278915
173	0xbdb647cc	-0.08900413
174	0x3df7cba4	0.12099388
175	0xbcdbdb50	-0.026837975
176	0xbd815ac0	-0.06316137
177	0xbcafe4c0	-0.021471381
178	0xbd90bc6a	-0.07067187
179	0x3d853ff0	0.06506336
180	0x3dfe1190	0.124056935
181	0x3d1994d0	0.037495434
182	0x3ca37378	0.01995252
183	0xbde0491e	-0.10951446
184	0xbd6cc51c	-0.057805166
185	0x3d8bffce	0.068359
186	0x3dc35662	0.095379606
187	0x3dc40cec	0.09572777
188	0xbddfb454	-0.10923067
189	0xbd128994	-0.035775736
190	0x3da01b4e	0.07817708
191	0x3c953ad8	0.018216535
192	0x3d8b2bf4	0.06795493
193	0xbd188934	-0.037240222
194	0xbd516c00	-0.051128387
195	0x3d0956ec	0.03353016
196	0xbd733728	-0.059378773
197	0xbdd277f4	-0.102767855
198	0x3dbe6bc8	0.092979014
199	0x3dd94748	0.10609299
200	0xbd7ddeac	-0.061979935
201	0xbd0ae454	-0.033909157
202	0xbc891758	-0.016734764
203	0xbcbee160	-0.023300827
204	0xbdd21368	-0.10257608
205	0xbdaa247e	-0.083077416
206	0x3c97b050	0.01851669
207	0x3dac00bc	0.083985776
208	0xbc3f8780	-0.011690021
209	0xbdd3cb70	-0.10341537
210	0xbdd37896	-0.10325734
211	0xbd9bbeee	-0.07604776
212	0xbd8ae9b4	-0.067828566
213	0x3d9e1e74	0.07720652
214	0x3dbe4dc6	0.09292178
215	0xbdf30576	-0.11866276
216	0xbd86928a	-0.06570919
217	0xbd47f2fc	-0.048815712
218	0x3dd02320	0.101629496
219	0x3dc1d65e	0.094647154
220	0x3d9ccf14	0.076566845
221	0x3d4723cc	0.048618123
222	0xbd866722	-0.0656264
223	0x3d916622	0.070995584
224	0x3dfb4afe	0.12270163
225	0xbde8f3a6	-0.11374597
226	0x3df2b90a	0.118517
227	0xbd8eba78	-0.0696916
228	0x3dfcc008	0.123413146
229	0x3d8bf04c	0.06832942
230	0x3ddd8fd2	0.10818447
231	0x3dd73a50	0.10509169
232	0xbdcdbd12	-0.10045828
233	0xbd614d68	-0.05500546
234	0x3cf988c0	0.030460715
235	0xbd2963c8	-0.041354924
236	0x3d329cc8	0.04360655
237	0x3dd9674e	0.10615407
238	0x3daa7e9e	0.083249316
239	0xbac5e600	-0.0015098453
240	0xbb582380	-0.0032980144
241	0xbc42f790	-0.011899844
242	0x3d2f7e88	0.04284528
243	0xbd47fab4	-0.048823074
244	0x3c984290	0.018586427
245	0x3d35f268	0.04442063
246	0xbdeecef2	-0.116605654
247	0xbd22b024	-0.039718762
248	0xbdeab340	-0.114599705
249	0xbd92b0ee	-0.07162653
250	0x3ccfb498	0.025354668
251	0xbb824840	-0.003975898
252	0x3d9fe4fa	0.07807346
253	0x3dfca768	0.12336618
254	0x3d2f6b7c	0.042827114
255	0x3d31c5f4	0.043401673

lstm.bias_ih_l0 f4 [256]
0	0x3d38db40	0.045130968
1	0xbd8d3eea	-0.068967655
2	0xbdd0afe0	-0.101897955
3	0xbd1dc448	-0.038517267
4	0xbd6348c8	-0.05548933
5	0xbd82537c	-0.0636358
6	0x3cd64900	0.026157856
7	0x3cbcfb68	0.023069099
8	0xbd8e2c12	-0.069419995
9	0xbc82ad68	-0.015951827
10	0xbdbbb660	-0.09165645
11	0xbdc0f102	-0.094209686
12	0x3de85d72	0.11345948
13	0x3cdaba60	0.026700199
14	0xbdb8b522	-0.09018923
15	0x3d947878	0.0724954
16	0x3d891fa4	0.06695488
17	0xbd155b70	-0.036464155
18	0xbd92ac1c	-0.071617335
19	0xbd98daf2	-0.074636355
20	0x3d73d080	0.059525013
21	0x3dc75400	0.097328186
22	0xbda877ee	-0.08226
23	0xbd98372a	-0.07432397
24	0x3dc068bc	0.093949765
25	0x3d9bad96	0.07601468
26	0x3d939886	0.07206826
27	0x3d069eb0	0.03286618
28	0xbdfcba88	-0.123402655
29	0x3dee82be	0.11646031
30	0xbd5a7d80	-0.053342342
31	0xbdba38ce	-0.09092866
32	0xbd427148	-0.047471315
33	0x3d9ec9fe	0.07753371
34	0xbd4d964c	-0.050192162
35	0xbd3eccb8	-0.046581954
36	0xbd71883c	-0.058967814
37	0xbd28bff8	-0.0411987
38	0x3dbaadf8	0.09115213
39	0xbdab6cea	-0.08370383
40	0xbdad5cf4	-0.08464995
41	0x3ad1b800	0.0016000271
42	0xbdb57622	-0.08860423
43	0xbdeeb21e	-0.11655067
44	0x3d5d8afc	0.054087624
45	0x3d38f004	0.04515077
46	0x3dc2a600	0.09504318
47	0xbde44f1a	-0.111479
48	0xbb923980	-0.004462421
49	0xbc571480	-0.013127446
50	0x3cad9760	0.021190345
51	0xbd0aad68	-0.03385678
52	0x3cddf380	0.027093649
53	0xbdddf952	-0.1083857
54	0xbce45788	-0.02787377
55	0xbd7285e8	-0.059209734
56	0xbd6935e4	-0.05693616
57	0x3d85f31c	0.0654051
58	0x3d30e4e0	0.043187022
59	0xbdbbb73e	-0.0916581
60	0xbda43c6e	-0.080193385
61	0xbdfe2e78	-0.12411207
62	0xbdc92e40	-0.098232746
63	0xbdc7e33e	-0.0976014
64	0x3de4a058	0.11163396
65	0xbd95e94c	-0.073198885
66	0x3de16344	0.110052615
67	0x3ce44490	0.027864724
68	0xbbe7e3a0	-0.0070766956
69	0xbcd547c0	-0.02603519
70	0x3d2536c0	0.040335417
71	0xbd31cf54	-0.043410614
72	0x3dc9ff98	0.09863204
73	0xbdf5f89a	-0.120103076
74	0x3d79cdd0	0.060987294
75	0x3d82e10c	0.063905805
76	0x3a89ef80	0.0010523647
77	0xbd9cd2ac	-0.0765737
78	0xbd4bed60	-0.049786925
79	0x3d376324	0.044772282
80	0xbdd5a8ea	-0.104326084
81	0xbd6080e4	-0.05481042
82	0x3dc14e48	0.09438759
83	0x3ca24d88	0.01981236
84	0x3dede184	0.11615279
85	0x3ca23780	0.019801855
86	0x3cadb160	0.021202743
87	0x3d025260	0.03181684
88	0xbd3d0d98	-0.046155542
89	0xbd3bee08	-0.0458813
90	0x3d00d2b4	0.031450942
91	0xbdfd631c	-0.12372419
92	0x3df647e6	0.12025432
93	0xbda52128	-0.08062965
94	0x3da4b29e	0.08041881
95	0xbcb9b230	-0.022667974
96	0xbc58d390	-0.013234034
97	0x3d1bbad8	0.038019985
98	0x3d14781c	0.036247358
99	0xbdbbb1be	-0.09164761
100	0x3d9228f2	0.07136716
101	0x3d8e9536	0.069620535
102	0xbc95e7b8	-0.018298969
103	0x3d1b57f8	0.03792569
104	0x3bad5c00	0.0052905083
105	0xbd86f922	-0.06590487
106	0xbc1b68a0	-0.009485394
107	0x3be264e0	0.006908998
108	0x3dee5486	0.11637215
109	0x3d291cf0	0.041287363
110	0xbd79fcf0	-0.061032236
111	0xbd92473c	-0.07142493
112	0x3da0cf54	0.07852045
113	0xbd88200c	-0.066467375
114	0x3c0343c0	0.008011758
115	0x3dfa2924	0.12214878
116	0xbdbf9a1c	-0.09355566
117	0xbd975838	-0.07389873
118	0x3b61b0c0	0.0034437627
119	0x3da531ac	0.08066115
120	0x3df3be50	0.119015336
121	0x3d57592c	0.052575275
122	0x3d10b228	0.035326153
123	0xbd82a404	-0.0637894
124	0x3c7be030	0.015373275
125	0x3cecaaa0	0.028889954
126	0x3d05e5e4	0.032689944
127	0xbde4ceaa	-0.111722305
128	0x3d9a7316	0.07541482
129	0xbc527dd0	-0.012847379
130	0xbda26d32	-0.079309836
131	0xbda620cc	-0.08111724
132	0x3d409264	0.04701461
133	0xbdb9ced2	-0.09072651
134	0xbd9e0d0a	-0.07717331
135	0x3b3a8fc0	0.002846703
136	0x3d9482c4	0.07251504
137	0xbdaf4ff2	-0.0856017
138	0xbdd57dea	-0.10424407
139	0xbdd86734	-0.105665594
140	0x3d40fec4	0.047117963
141	0x3c7f1e60	0.015571207
142	0xbc640600	-0.013917446
143	0x3de74baa	0.11293729
144	0xbdc3e604	-0.095653564
145	0xbcfcb4f8	-0.030848011
146	0x3ddb1dd6	0.1069905
147	0xbd1dc84c	-0.038521096
148	0x3dd3f4d8	0.103494346
149	0x3d267508	0.040638953
150	0x3bb6e3a0	0.0055813342
151	0x3db3b07c	0.08773896
152	0x3d53af50	0.051680863
153	0xbd47b28c	-0.04875426
154	0x3c8cc040	0.017181516
155	0xbdb804aa	-0.089852646
156	0x3d907f6c	0.07055554
157	0xbac22680	-0.0014812499
158	0xbd4b9414	-0.049701765
159	0x3b942b60	0.0045217723
160	0x3cf29208	0.029610649
161	0xbd263bc8	-0.040584356
162	0x3db91576	0.090372965
163	0xbb8efdc0	-0.0043637455
164	0xbd8e954a	-0.069620684
165	0x3df9484a	0.12171991
166	0xbdca6f7c	-0.09884545
167	0x3dfd51d8	0.12369126
168	0xbda9ee38	-0.0829739
169	0xbce00f78	-0.027351126
170	0x3d673994	0.056451395
171	0xbd478a50	-0.04871589
172	0xbdd11452	-0.10208954
173	0xbda9291e	-0.082597956
174	0x3db55d5a	0.08855696
175	0x3c817cb0	0.015806526
176	0xbdce3f1a	-0.100706294
177	0xbdedeb0e	-0.11617099
178	0xbd96cc76	-0.073632166
179	0xbdac413c	-0.0841088
180	0xbd9b7a96	-0.07591741
181	0x3d5eb934	0.054375842
182	0x3d55c100	0.052186012
183	0x3cb0dd58	0.02158992
184	0x3d5c9bc0	0.053859472
185	0x3db7cf94	0.08975139
186	0x3ca18ea8	0.019721344
187	0xbda88288	-0.08228022
188	0xbdbb60b2	-0.091493025
189	0x3dac8202	0.084232345
190	0x3dbb74d8	0.091531456
191	0x3d1e4f3c	0.038649783
192	0x3df3b784	0.11900237
193	0x3d8bd4e4	0.06827715
194	0xbb622cc0	-0.0034511536
195	0x3d887976	0.06663792
196	0x3dfdf3e4	0.12400034
197	0x3c0f3a10	0.0087418705
198	0x3d6d6860	0.057960868
199	0xbc413f20	-0.011794835
200	0x3d8bf43a	0.06833692
201	0xbdf4af9a	-0.11947556
202	0xbd9ff2c2	-0.07809974
203	0x3dfb31f6	0.12265389
204	0x3db46fe2	0.088104025
205	0x3de25682	0.11051656
206	0xbd0d19b4	-0.03444834
207	0x3de6a8ba	0.11262651
208	0xbd504228	-0.05084434
209	0xbd323b08	-0.043513328
210	0xbdb49a22	-0.08818461
211	0xbdb2b040	-0.08725023
212	0xbbb2f6e0	-0.0054615587
213	0xbcc48f08	-0.023993984
214	0xbdd3128e	-0.103062734
215	0xbdb64c00	-0.089012146
216	0x3d174348	0.0369294
217	0xbde4288e	-0.11140548
218	0x3c7c9ee0	0.015418738
219	0x3def1e9c	0.1167576
220	0x3d10dc44	0.03536631
221	0x3dbbe396	0.09174268
222	0xbbda3260	-0.006658837
223	0x3d605d6c	0.054776594
224	0xbc620950	-0.013796166
225	0x3d79fed4	0.06103404
226	0xbd7ec5cc	-0.062200353
227	0xbdbced52	-0.09224953
228	0xbc847198	-0.016167447
229	0xbc912058	-0.017715618
230	0xbd4b93b4	-0.049701408
231	0x3dace984	0.08442977
232	0xbdd8278a	-0.105544165
233	0xbc3a0500	-0.011353731
234	0x3de77046	0.11300711
235	0x3d895756	0.06706111
236	0x3b80c380	0.0039295554
237	0x3dad9a10	0.08476651
238	0x3d8b4244	0.067997485
239	0xbdff2fd2	-0.12460293
240	0x3df10288	0.11768061
241	0xbde492ea	-0.11160834
242	0xbcd6ecf0	-0.026236027
243	0x3daeadb2	0.085292235
244	0xbb57bec0	-0.0032920092
245	0xbdd327a4	-0.10310295
246	0xbd2ba130	-0.041901767
247	0xbda47a54	-0.08031145
248	0xbd8fa268	-0.070133984
249	0xbd46d594	-0.048543528
250	0xbd4f79a4	-0.050653115
251	0x3dcfa99e	0.10139774
252	0x3c7eab20	0.015543729
253	0xbd6cda50	-0.057825387
254	0xbd5ac80c	-0.053413436
255	0xbd745760	-0.05965364

lstm.bias_hh_l0 f4 [256]
0	0x3db14314	0.08655372
1	0xbd1a6d14	-0.03770168
2	0xbd811d5a	-0.063044265
3	0xbd06ab8c	-0.032878444
4	0x3ceb27b0	0.028705448
5	0x3d1f8200	0.038942337
6	0xbdcc7dda	-0.09984942
7	0x3d472870	0.04862255
8	0x3d0aa678	0.033850163
9	0xbde14dc4	-0.11001161
10	0x3b841ba0	0.0040316135
11	0x3bb0ab60	0.0053915232
12	0x3cf1ada0	0.029501736
13	0xbdd41f52	-0.103575364
14	0xbd8c937e	-0.068640694
15	0x3da3fdba	0.08007379
16	0xbdc7daca	-0.097585276
17	0x3db3423c	0.087528676
18	0xbcf8dff8	-0.030380234
19	0x3bf073e0	0.007338032
20	0xbdb81dea	-0.08990081
21	0xbdde5d86	-0.10857682
22	0x3d9ac446	0.075569674
23	0xbc93fa20	-0.018063605
24	0x3c95bae0	0.018277586
25	0x3d4be428	0.049778134
26	0x3d6572cc	0.056017682
27	0xbce615f0	-0.028086632
28	0xbdbf93f8	-0.09354395
29	0x3dcf80b8	0.10131973
30	0xbc47fe20	-0.012206584
31	0x3dabb9fa	0.083850816
32	0x3defc176	0.117068216
33	0x3ce83958	0.028347656
34	0xbdd6d208	-0.10489279
35	0x3dc19cfe	0.09453772
36	0xbd55c234	-0.05218716
37	0x3d7ad4f4	0.061238244
38	0x3dd013d8	0.10160035
39	0xbce9f3a0	-0.028558552
40	0x3d362a9c	0.04447423
41	0x3d494ba8	0.049144417
42	0xbd92717e	-0.07150553
43	0xbd5b3b34	-0.053523257
44	0x3d2e31ec	0.042528078
45	0x3bd78d80	0.0065781474
46	0x3d76d210	0.060258925
47	0xbd680f28	-0.05665508
48	0xbdd63be4	-0.10460642
49	0x3dfb9b24	0.1228545
50	0x3b4d9f80	0.0031375587
51	0xbdd7d67e	-0.10538958
52	0xbdf042d0	-0.117314935
53	0xbddcbd9c	-0.107783526
54	0xbd3d56cc	-0.046225354
55	0x3d521e14	0.051298216
56	0xbd6b234c	-0.05740671
57	0x3d3db008	0.046310455
58	0xbdcfe26c	-0.101506084
59	0xbd823c2c	-0.06359133
60	0xbc40df80	-0.011772037
61	0xbb867a60	-0.0041039437
62	0xbd81a5ca	-0.0633045
63	0x3d339d10	0.04385096
64	0x3dc239fc	0.09483716
65	0x3ca73b88	0.020414129
66	0x3c5b7bf0	0.013396248
67	0x3dfe877e	0.12428187
68	0x3dbe8428	0.093025506
69	0x3aa74d80	0.0012764186
70	0xbdd18d60	-0.10232043
71	0x3d9ca9d6	0.07649581
72	0x3cba6c30	0.022756666
73	0x3d967536	0.07346575
74	0x3dd054b8	0.10172409
75	0xbc9cc2c0	-0.019135833
76	0xbde91eca	-0.11382826
77	0x3d9578aa	0.072984055
78	0x3d85c726	0.06532125
79	0xbcffc2c8	-0.031220809
80	0xbddbdb42	-0.107351795
81	0x3da7f422	0.082008615
82	0x3df69df0	0.12041843
83	0xbda85828	-0.082199395
84	0xbd9ad592	-0.075602666
85	0x3dc52f5e	0.09628175
86	0xbdaee8d0	-0.08540499
87	0xbdd0885c	-0.101822585
88	0x3dd5218e	0.10406791
89	0xbc4451a0	-0.011982352
90	0xbcc31158	-0.023811981
91	0x3dcac206	0.09900288
92	0xbd88f6c0	-0.06687689
93	0xbdd63dec	-0.104610294
94	0x3cdcce58	0.026953861
95	0x3d2e4f24	0.042555943
96	0xbcfbb778	-0.030727133
97	0xbdaec914	-0.08534446
98	0x3d5bc16c	0.05365126
99	0x3c383cb0	0.011244938
100	0xbde901b4	-0.11377278
101	0xbdbafb88	-0.09130007
102	0xbda31610	-0.079631925
103	0xbdddfce6	-0.10839252
104	0xbdf28e86	-0.118435904
105	0x3cd989b8	0.026554927
106	0x3d7e6cf4	0.062115625
107	0xbd63c490	-0.05560738
108	0x3db54db4	0.08852711
109	0x3de16346	0.11005263
110	0x3d3d5eec	0.046233103
111	0xbdd9ce56	-0.106350586
112	0xbc25c800	-0.0101184845
113	0xbdd7272c	-0.10505518
114	0xbd94888a	-0.07252605
115	0x3b943560	0.0045229644
116	0xbd137dc0	-0.036008596
117	0xbca906f0	-0.02063319
118	0x3d81f8aa	0.06346257
119	0x3d93f854	0.07225099
120	0xbd5b11c8	-0.053483754
121	0xbbce2b40	-0.006291777
122	0x3de65494	0.11246601
123	0x3cf0e668	0.029406741
124	0x3d64b618	0.05583772
125	0xbd31da70	-0.04342121
126	0x3c0abb60	0.008467525
127	0xbc4803d0	-0.01220794
128	0xbcbfa018	-0.023391768
129	0x3d3aabc0	0.04557395
130	0x3d3ba804	0.04581453
131	0xbde4dc58	-0.1117484
132	0x3db2baec	0.08727059
133	0x3d8484d4	0.064706475
134	0x3dbe4ce6	0.09292011
135	0xbdcc3992	-0.09971918
136	0xbdc757a6	-0.097335145
137	0x3da890d4	0.08230749
138	0x3d04f464	0.03245963
139	0x3d2b9bc4	0.041896597
140	0xbde6ca1a	-0.112690166
141	0xbc2a9770	-0.010412082
142	0xbb893f00	-0.0041884184
143	0x3dff56e2	0.124677435
144	0xbc487230	-0.012234256
145	0x3df4dbfa	0.1195602
146	0x3d961206	0.073276564
147	0xbddd37b0	-0.10801637
148	0x3cadba70	0.021207064
149	0xbb7ff4c0	-0.0039055794
150	0xbd82d53e	-0.06388329
151	0xbc4d6580	-0.0125364065
152	0x3dca07cc	0.098647684
153	0x3deafb8e	0.114737615
154	0xbdceaf8e	-0.10092078
155	0x3d7e3774	0.062064603
156	0x3d9bc612	0.07606138
157	0x3c796be0	0.015223473
158	0xbda0965e	-0.0784118
159	0xbc802b60	-0.015645683
160	0x3d81d51c	0.063394755
161	0x3dcad3ae	0.09903656
162	0xbc8ae370	-0.016954154
163	0x3d1dc234	0.038515285
164	0x3df3b0f0	0.118989825
165	0xbc9f6280	-0.019456148
166	0x3dd498a2	0.10380675
167	0xbdebcf46	-0.11514144
168	0x3d9b23fe	0.07575224
169	0x3dbba1bc	0.09161708
170	0xbddc623e	-0.10760926
171	0x3d6b7cd4	0.057492092
172	0x3dcef70a	0.10105713
173	0xbd8641c0	-0.065555096
174	0x3cef8c08	0.029241577
175	0x3d43dbbc	0.047816977
176	0xbd63d9f0	-0.055627763
177	0xbd2a6df4	-0.041608766
178	0xbd842d88	-0.06453997
179	0x3dfb45cc	0.12269172
180	0xbb65dec0	-0.0035075396
181	0x3d62db94	0.055385187
182	0x3d142678	0.0361695
183	0x3dff9140	0.12478876
184	0x3da83aba	0.08214326
185	0x3d8de494	0.069283634
186	0x3d8721d4	0.06598249
187	0x3c89ce88	0.016822115
188	0x3d391f6c	0.04519598
189	0xbc0833b0	-0.0083131045
190	0xbded3544	-0.11582425
191	0xbd9387ca	-0.07203634
192	0x3dc6afc8	0.09701496
193	0xbcb38b30	-0.021916956
194	0xbd3f7f60	-0.046752334
195	0xbcde3530	-0.027124971
196	0x3ddc32c4	0.1075187
197	0xbcff8280	-0.031190157
198	0xbc8ffb18	-0.017575786
199	0x3df6c60c	0.12049493
200	0xbdcc3e96	-0.09972875
201	0x3c897f90	0.01678446
202	0x3d5b9dc4	0.053617254
203	0xbd6699c8	-0.056299
204	0x3d2b6354	0.041842774
205	0x3d6990e4	0.057022944
206	0xbde35328	-0.11099845
207	0xbd94b9dc	-0.07262012
208	0xba695000	-0.00089001656
209	0x3dff56b0	0.12467706
210	0xbd9f1972	-0.07768525
211	0x3d838f62	0.064238325
212	0xbcaddd70	-0.021223754
213	0x3db5b1b8	0.08871788
214	0x3de11498	0.10990256
215	0x3df4437a	0.11926933
216	0xbde73188	-0.11288744
217	0xbdaa80a0	-0.083253145
218	0x3df41ad2	0.11919178
219	0xbdbefc0c	-0.09325418
220	0xbd893fd6	-0.06701629
221	0x3d5e84b4	0.054325774
222	0x3bcc03a0	0.006226018
223	0xbd262d80	-0.040570736
224	0xbd9088cc	-0.07057342
225	0xbdd0c77e	-0.101943
226	0x3deb8cac	0.115014404
227	0xbd3e5a2c	-0.046472713
228	0xbd3621b4	-0.044465736
229	0xbdc1f424	-0.09470394
230	0xbdaa627a	-0.08319564
231	0x3de04a7a	0.10951705
232	0x3ce529f0	0.027974099
233	0xbce180a0	-0.027527153
234	0xbcaafbe8	-0.020872071
235	0x3db6cac2	0.08925392
236	0x3de6c034	0.112671286
237	0x3c8e3d00	0.017363071
238	0x3d01c6a8	0.031683594
239	0xbd718ec4	-0.058974043
240	0xbc3fe5e0	-0.011712521
241	0xbd951c46	-0.07280783
242	0xbcca49d8	-0.024693415
243	0xbc490be0	-0.012270898
244	0xbd81cd50	-0.063379884
245	0x3c8c6500	0.017138004
246	0x3dbe70ee	0.092988834
247	0x3d045038	0.032303065
248	0x3cefda40	0.029278874
249	0xbcfdd868	-0.03098698
250	0x3c343140	0.01099807
251	0xbb9e7340	-0.004835516
252	0x3cdd0f68	0.026984885
253	0xbd14e910	-0.03635508
254	0xbdc72704	-0.097242385
255	0x3d8cdf82	0.06878568

lstm.weight_ih_l1 f4 [256, 64]
0	0x3b8d3969	0.0043098223
1	0x3d71f798	0.059074014
2	0xbd1f2c50	-0.03886062
3	0xbe071fff	-0.131958
4	0x3d9653d4	0.07340208
5	0xbdd57272	-0.10422219
6	0xbd251344	-0.040301576
7	0xbc02e7f0	-0.0079898685
8	0x3d49a854	0.049232796
9	0xbccb5448	-0.024820462
10	0x3d627040	0.05528283
11	0x3d18c8c4	0.03730084
12	0xbdf7407a	-0.12072845
13	0xbd19ddb8	-0.037564963
14	0xbe0be47e	-0.13661382
15	0x3cd6c017	0.026214642
16	0x3df515b6	0.11967032
17	0x3db0a70c	0.08625612
18	0xbda10b2c	-0.07863459
19	0x3db5c160	0.08874774
20	0x3d97d266	0.07413177
21	0x3d992122	0.07477023
22	0xbc0c80c1	-0.008575619
23	0x3d8e6d4a	0.06954439
24	0x3d0cd958	0.034386963
25	0x3decb4a0	0.11557889
26	0x3d83ebdc	0.06441471
27	0xbd5e0dce	-0.054212384
28	0x3cd46480	0.025926828
29	0xbd95f910	-0.073228955
30	0x3d165654	0.036703423
31	0x3d5309d4	0.051523045
32	0xbd840f8e	-0.06448279
33	0x3dfd8998	0.123797596
34	0xbd0496c8	-0.03237036
35	0x3ceb72a8	0.028741196
36	0xbde40266	-0.1113327
37	0x3df7df46	0.12103133
38	0x3db03ff6	0.086059496
39	0x3ba03fc0	0.004890412
40	0x3d21e960	0.039529204
41	0x3d0556c0	0.032553434
42	0xbb446140	-0.0029965192
43	0xbdf8b7a0	-0.12144399
44	0xbd18f483	-0.03734256
45	0xbdbd9e92	-0.092587605
46	0x3de6bad0	0.112661004
47	0xbb61e800	-0.0034470558
48	0x3d2a582c	0.041587994
49	0x3d954f00	0.07290459
50	0xbd65546e	-0.05598872
51	0x3c38af70	0.011272296
52	0x3c887e08	0.016661659
53	0xbdd1d856	-0.10246341
54	0xbdd6b274	-0.10483256
55	0x3ddd37d4	0.10801664
56	0x3d733c5c	0.059383735
57	0x3d396c3b	0.045269232
58	0x3d3fd938	0.046838015
59	0xb9d16000	-0.00039935112
60	0xbd3cd128	-0.046097904
61	0x3ca9c3b0	0.020723194
62	0x3da76adc	0.08174679
63	0x3cb82020	0.022476256
64	0x3e1f0821	0.15530445
65	0x3d2d3618	0.042287916
66	0xbd59284c	-0.053016946
67	0x3abf5ae7	0.0014599235
68	0xbb8b1420	-0.0042443424
69	0xbda363fe	-0.07978056
70	0x3dc6139c	0.09671709
71	0x3dc4573a	0.0958695
72	0xbabfe980	-0.0014641732
73	0xbda6c4b8	-0.0814299
74	0x3dbcf87c	0.09227082
75	0x3cf32268	0.029679492
76	0xbe1610a1	-0.14654781
77	0x3c6874c0	0.014187992
78	0xbd9ed3a9	-0.07755215
79	0x3d589bdc	0.052883014
80	0xbcfee3d0	-0.031114489
81	0xbd8a2aea	-0.067464665
82	0xbd2008d4	-0.03907092
83	0xbd2c62b4	-0.042086318
84	0x3d767984	0.06017448
85	0xbde326a0	-0.110913515
86	0xbcc569be	-0.024098273
87	0x3d788df8	0.060682267
88	0xbd5d53d8	-0.054035038
89	0xbd314a38	-0.04328367
90	0x3c3b83c0	0.011444986
91	0x3d8a7242	0.06760074
92	0xbde028c2	-0.10945274
93	0x3d523060	0.051315665
94	0x3df0f7d2	0.11766018
95	0x3d9f9110	0.0779134
96	0xbdb5273e	-0.088453755
97	0xbcbb1f8f	-0.022842197
98	0xbddd66a6	-0.10810594
99	0xbaa65a00	-0.0012691617
100	0x3d6ea082	0.05825854
101	0xbd8371c0	-0.064181805
102	0xbcfe07c0	-0.031009555
103	0x3d2aeaa0	0.041727662
104	0x3d8a2b46	0.06746535
105	0xbcc543b8	-0.024080142
106	0x3b7338c0	0.0037112683
107	0x3de75960	0.11296344
108	0x3e22b039	0.15887536
109	0x3ddf5b6a	0.10906108
110	0x3db04142	0.08606197
111	0xbdab3864	-0.08360365
112	0x3dfec3c0	0.1243968
113	0xbc3f57ff	-0.011678695
114	0x3d55936a	0.052142538
115	0xbdcf423e	-0.101200566
116	0x3dd3dd2c	0.103449196
117	0xba16d300	-0.00057534873
118	0x3d918cf4	0.07106963
119	0x3d49e548	0.049290925
120	0x3da7ec44	0.08199361
121	0xbdadf9cf	-0.08494913
122	0x3dd512e4	0.10403994
123	0xbd88964c	-0.06669292
124	0xbcb8b358	-0.022546455
125	0x3d908efc	0.07058522
126	0x3d0e08f4	0.034676507
127	0x3dafa5fc	0.08576581
128	0x3d9a426a	0.07532199
129	0x3df3b7b6	0.119002745
130	0xbda8916e	-0.082308635
131	0xbd01a2e5	-0.03164949
132	0xbdc599c8	-0.09648472
133	0x3c89e160	0.0168311
134	0xbcc2b590	-0.023768216
135	0x3dbe6956	0.09297435
136	0x3d72b660	0.059255958
137	0x3d0bfeec	0.03417866
138	0x3da84ac2	0.08217384
139	0x3da4f34c	0.08054218
140	0x3d971b88	0.07378298
141	0x3dd611cc	0.10452613
142	0xbdf51222	-0.11966349
143	0x3d8faf7c	0.07015893
144	0x3df4b5ee	0.11948763
145	0x3de60118	0.11230677
146	0xbc650640	-0.013978541
147	0x3d96f37c	0.0737066
148	0xbd95a10e	-0.07306109
149	0xbd96761c	-0.07346746
150	0x3d904dd8	0.070460975
151	0x3dd81e5c	0.105526656
152	0xbd2f16a8	-0.042746216
153	0x3df6de26	0.1205409
154	0xbd800dee	-0.06252657
155	0xbca33676	-0.01992343
156	0xbd6f04a8	-0.05835405
157	0x3d1dc80f	0.03852087
158	0xbda8d5b2	-0.08243884
159	0xbc422c70	-0.011851415
160	0x3de1ddbe	0.11028622
161	0x3e025507	0.12727748
162	0xbda2e0f6	-0.07953064
163	0xbd26a8d4	-0.04068835
164	0xbdf6a0ee	-0.12042414
165	0x3c342bc0	0.010996759
166	0xbdaed0bc	-0.08535907
167	0x3c43e580	0.0119565725
168	0xbafc1c00	-0.0019234419
169	0xbd0f83a0	-0.035037637
170	0x3de062a0	0.10956311
171	0x3d8a9586	0.067668006
172	0x3c8082ff	0.015687464
173	0xb9b3ce00	-0.00034295022
174	0xbd89e8bc	-0.06733844
175	0x3dd43788	0.10362154
176	0xbd3f517c	-0.04670857
177	0xbdd57522	-0.10422732
178	0x3dc54d2a	0.096338585
179	0xbc8cadb0	-0.017172664
180	0xbc4846d0	-0.012223914
181	0xbda57038	-0.08078045
182	0x3c0d3b50	0.008620098
183	0x3be23e60	0.0069044083
184	0xbdb3aecc	-0.08773574
185	0x3e04834d	0.12940712
186	0xbc0261b0	-0.007957861
187	0x3d511f90	0.05105549
188	0x3df9b73e	0.12193154
189	0x3d1dae28	0.038496166
190	0xbdbcc4bc	-0.092172116
191	0x3dcaacd8	0.098962486
192	0x3e03ee66	0.1288391
193	0xbaa48e00	-0.0012554526
194	0x3a851f80	0.0010156482
195	0xbe0d49a7	-0.13797627
196	0xbd6306a8	-0.05542627
197	0xbde51168	-0.111849606
198	0x3d315ac8	0.043299466
199	0x3c89fa20	0.016842902
200	0x3dd031de	0.101657614
201	0x3df81f7a	0.12115379
202	0xbd9d3986	-0.07676987
203	0xbbf9d3e0	-0.0076241344
204	0xbbe102a7	-0.0068667713
205	0xbd173d14	-0.036923483
206	0xbdc07f37	-0.09399264
207	0xbdee05a3	-0.11622169
208	0xbd9f9b24	-0.077932626
209	0xbd88e28a	-0.06683834
210	0xbbadb160	-0.0053006858
211	0xbd2a2b68	-0.0415453
212	0x3d0c4410	0.034244597
213	0x3cde47d0	0.027133852
214	0x3d7ffca5	0.0624968
215	0xbd3e6fd8	-0.04649338
216	0x3d1e3f74	0.038634732
217	0xbda7b284	-0.08188346
218	0x3d2e73bc	0.04259084
219	0xbdc83a87	-0.09776788
220	0xbb14a280	-0.0022679865
221	0xbd023e43	-0.03179766
222	0xbdd2027a	-0.102543786
223	0xbda621a2	-0.08111884
224	0x3d90ed44	0.07076505
225	0xbdbca5cf	-0.09211313
226	0x3c9db810	0.019252807
227	0xbdb47562	-0.088114515
228	0x3cc7f1e9	0.024407344
229	0x3d9847a2	0.07435538
230	0x3bcbc860	0.006218955
231	0x3df55bda	0.1198041
232	0xbd92fa88	-0.07176691
233	0x3dad6c7c	0.084679574
234	0x3dbda126	0.09259252
235	0xbcc2be80	-0.023772478
236	0x3cd616ea	0.026133973
237	0xbd7844c4	-0.060612455
238	0x3d4b4080	0.04962206
239	0x3dd6194c	0.10454044
240	0xbde40e90	-0.1113559
241	0x3d5b5bf5	0.053554494
242	0x3c7d14c6	0.015446847
243	0xbd94d5dc	-0.07267353
244	0xbda62218	-0.081119716
245	0xbcedfbf0	-0.029050797
246	0xbcb65830	-0.022258848
247	0xbd9e9336	-0.07742922
248	0xbcb30710	-0.021853954
249	0x3cfc4133	0.030792808
250	0x3c888240	0.01666367
251	0xbc9cd1a8	-0.01914294
252	0xbdae9ff6	-0.08526604
253	0xbcdc9038	-0.026924238
254	0x3d275b24	0.040858403
255	0x3d67e810	0.056617796

lstm.weight_hh_l1 f4 [256, 64]
0	0x3dabca94	0.08388248
1	0xbad86dd9	-0.0016512229
2	0xbd4722ad	-0.048617054
3	0xbd742f0a	-0.059615172
4	0xbe1ee0bf	-0.15515421
5	0xbd2a52b0	-0.041582763
6	0x3cf87919	0.030331181
7	0x3d6e3764	0.058158293
8	0x3dd992cf	0.10623705
9	0x3d1a2fe8	0.037643343
10	0xbc4fd470	-0.012684926
11	0x3dc924d6	0.09821479
12	0xbdafd436	-0.08585398
13	0x3dab25b2	0.08356799
14	0x3dc9097a	0.09816261
15	0xbd7edc09	-0.06222156
16	0xbb98ac24	-0.0046591926
17	0x3ba9dd15	0.0051838257
18	0xbdaab097	-0.08334463
19	0x3de6dc0b	0.112724386
20	0x3da16cc7	0.07882076
21	0x3cbc99b3	0.023022508
22	0x3d230ee5	0.039809126
23	0x3c6f4d62	0.014605852
24	0x3e036782	0.12832454
25	0xbba3ce66	-0.00499897
26	0xbd8a2fd9	-0.067474075
27	0x3bf7da23	0.0075638457
28	0xbe1e2a87	-0.1544591
29	0x3d0821e1	0.033235434
30	0x3df90cf2	0.12160672
31	0x3d7d56cb	0.06185035
32	0x3c8db127	0.017296387
33	0xbdb7d946	-0.089769885
34	0xbdf1ec20	-0.118126154
35	0xbd818e1d	-0.06325934
36	0xbdb52fd0	-0.0884701
37	0x3ca279dc	0.019833498
38	0x3dbc3cec	0.091913074
39	0x3dda4c53	0.10659089
40	0xbdc739ff	-0.09727859
41	0xbd0efac0	-0.034907103
42	0x3cf994d4	0.030466475
43	0x3d98d31a	0.074621394
44	0x3cb83cf9	0.022490012
45	0x3d085a22	0.033289082
46	0x3de6e447	0.11274009
47	0xbe16b199	-0.14716186
48	0xbcd59c43	-0.026075488
49	0xbdfbdcaf	-0.122979514
50	0xbe1eb0c3	-0.15497117
51	0xbdde3435	-0.108498015
52	0x3c3fdc04	0.011710171
53	0x3de9b2be	0.114110455
54	0xbdac2b85	-0.08406738
55	0x3d8a7868	0.06761247
56	0xbe0b0c34	-0.13578874
57	0x3d87fb99	0.06639785
58	0x3b60f6e1	0.0034326839
59	0xbd60c371	-0.054873887
60	0xbacc27bf	-0.001557581
61	0xbe16d0f6	-0.1472815
62	0x393bb322	0.00017900442
63	0xbd70681c	-0.058693036
64	0x3d832d6e	0.064051494
65	0xbc3bc36d	-0.011460167
66	0xbd838494	-0.06421772
67	0xbd347743	-0.04405905
68	0x3d2258b2	0.039635368
69	0xbd31f2af	-0.04344433
70	0xbe15bec2	-0.1462355
71	0xbcd049e6	-0.025425863
72	0xbd3005be	-0.042974226
73	0x3db0c183	0.086306594
74	0xbd62e61f	-0.05539524
75	0xbd61ae66	-0.05509796
76	0x3e0ac2fa	0.1355094
77	0xbcc4532a	-0.023965437
78	0x3d6a2f35	0.057173926
79	0x3b900efc	0.0043963175
80	0xbce64d00	-0.028112888
81	0xbd95f5eb	-0.07322296
82	0xbdd92039	-0.10601849
83	0x3df04ae4	0.11733034
84	0x3d3f5d9e	0.04672014
85	0x3ccc7d1e	0.024962004
86	0x3d987f36	0.074461386
87	0xbda61836	-0.081100866
88	0x3c7ab4ed	0.015301925
89	0x3e04f36e	0.12983486
90	0x3cbc09ae	0.022953834
91	0xbe08b97c	-0.13352007
92	0xbd245204	-0.04011728
93	0x3aa2e98a	0.0012429219
94	0x3ca290a3	0.019844359
95	0x3d15afb3	0.036544513
96	0x3ba3f6ad	0.0050037713
97	0x3b145514	0.0022633718
98	0x3d9f1f49	0.07769639
99	0xbd3ef8f8	-0.046624154
100	0xbd109bd9	-0.035304878
101	0x3d45e1d3	0.048311066
102	0x3db3e7fc	0.08784482
103	0xbd7d276d	-0.061805177
104	0x3cb2ef7f	0.021842716
105	0x3d9bd256	0.07608478
106	0x3e09f2b4	0.1347149
107	0xbbcd9d49	-0.0062748534
108	0xbd565548	-0.052327424
109	0xbca63d8d	-0.020293022
110	0x3e1c0030	0.15234447
111	0xbd057c57	-0.032589283
112	0x39eeea92	0.00045569666
113	0x3d1636b4	0.036673263
114	0xbe147f39	-0.14501657
115	0x3da69d28	0.08135444
116	0xbcecd218	-0.028908774
117	0xbd240217	-0.040041056
118	0x3d8fc61b	0.070202075
119	0x3d40710e	0.046982817
120	0xbc089e40	-0.008338511
121	0x3cbc7601	0.023005487
122	0xbe0e5eed	-0.13903399
123	0x3d8da512	0.0691625
124	0x3c3a38db	0.011366094
125	0xbd891d52	-0.066950455
126	0xbc9652cb	-0.018350026
127	0xbe0db627	-0.13839017
128	0xbdbbe519	-0.09174556
129	0xbcbc9e71	-0.02302477
130	0xbdb09313	-0.08621802
131	0xbca711b2	-0.02039418
132	0x3c1c2585	0.00953043
133	0x3cbce656	0.023059051
134	0xbdc4f64e	-0.096172914
135	0x3cfb76f7	0.030696375
136	0x3e022aa1	0.12711574
137	0xbd53b570	-0.051686704
138	0x3df267c0	0.11836195
139	0x3d9f5119	0.0777914
140	0x3c86e43e	0.016466256
141	0xbc2a94f9	-0.010411494
142	0xbd558d42	-0.052136667
143	0xbd99fc66	-0.07518844
144	0x3a2849b7	0.0006419676
145	0x3abe175c	0.0014502811
146	0xbe0ae842	-0.13565162
147	0x3d850be7	0.06496411
148	0x3e008eb2	0.12554434
149	0x3df1b807	0.118026786
150	0x3d9d8cae	0.07692848
151	0xbdb08c35	-0.08620492
152	0x3d412a8a	0.04715971
153	0x3de25863	0.11052015
154	0xbd7b1978	-0.061303586
155	0xbd9157a2	-0.07096793
156	0x3d6423e2	0.055698283
157	0xbbe8e844	-0.0071077663
158	0xbd6c32db	-0.057665687
159	0x3e09af68	0.13445818
160	0x3db6dbab	0.08928617
161	0x3d484793	0.048896383
162	0x3c1bdef6	0.009513607
163	0x3c908083	0.017639404
164	0xbd8743b3	-0.066047095
165	0xbd8dd5ea	-0.069255665
166	0xbc548eee	-0.01297353
167	0x3d3f8af3	0.04676337
168	0xbddde6b1	-0.108350165
169	0xbdd10375	-0.102057375
170	0x3dff4400	0.12464142
171	0x3bedb9e7	0.0072548273
172	0x3d69296c	0.05692427
173	0xbd0c3475	-0.034229714
174	0x3dfb5c68	0.122734845
175	0x3c24eb37	0.010065845
176	0xbb92a2c0	-0.0044749677
177	0x3cecede7	0.028922034
178	0xbcfc039c	-0.03076344
179	0xbd94bc86	-0.072625205
180	0xbc8b7c89	-0.017027156
181	0x3db723b9	0.089423604
182	0x3cb7b7cf	0.022426514
183	0xbc93eef1	-0.018058272
184	0x3b13febf	0.002258226
185	0x3dc892f4	0.09793654
186	0xbdfce52b	-0.12348398
187	0xbe1a8e06	-0.1509324
188	0xbd8967f7	-0.06709283
189	0xbdd8f74a	-0.10594042
190	0x3cfc2acd	0.030782128
191	0xbce45933	-0.027874565
192	0x3d92b04a	0.07162531
193	0xbd61b95a	-0.055108406
194	0x3dbffc7f	0.09374332
195	0xbd5c7e4d	-0.053831387
196	0xbe1c1602	-0.1524277
197	0x3dfee092	0.12445177
198	0x3b50fe28	0.003188977
199	0x3c527c36	0.012846997
200	0xbc39856e	-0.011323316
201	0xbc5f9057	-0.013645253
202	0x3daf1f17	0.08550852
203	0xbd8a89f7	-0.06764596
204	0xbd10ad14	-0.03532131
205	0x3dad8b94	0.08473888
206	0xbdb18b8e	-0.08669196
207	0xbe016621	-0.12636615
208	0x3d36e798	0.04465446
209	0xbd44a04e	-0.04800444
210	0xbda65074	-0.08120814
211	0x3dbce1ca	0.09222753
212	0xbd0fe902	-0.035134323
213	0xbdae2742	-0.085035816
214	0xbd84584c	-0.06462154
215	0xbd91e358	-0.071234405
216	0x3ddcfb09	0.10790069
217	0x3ca706f7	0.020389063
218	0xbcca8a44	-0.024724133
219	0x3cb63892	0.022243772
220	0xbc3c5f6f	-0.0114973625
221	0xbcda0f30	-0.02661857
222	0xbc963aa3	-0.018338507
223	0x3d2dfad6	0.042475544
224	0xbdd244fb	-0.10267063
225	0x3d39a7b5	0.045325954
226	0xbe024434	-0.1272133
227	0x3deebea3	0.11657455
228	0x3bda14b6	0.006655301
229	0x3e13697f	0.14395712
230	0xbd6f33af	-0.0583989
231	0x3e148333	0.14503174
232	0xbd4e87f9	-0.050422642
233	0xbe0cf0ef	-0.13763784
234	0xbd834b3c	-0.06410834
235	0xbd7a6002	-0.061126716
236	0x3da45bd7	0.080253296
237	0x3dabba5d	0.08385155
238	0xbd581baa	-0.052760758
239	0xbdf5ffe2	-0.120116964
240	0x3da63a19	0.0811655
241	0xbdf0fe01	-0.117671974
242	0x3cb50293	0.022095954
243	0x3c91e19a	0.01780777
244	0xbd8919b6	-0.06694357
245	0xbc26f432	-0.010190057
246	0xbe144ecc	-0.14483184
247	0x3e0af070	0.13568282
248	0x3bd56f48	0.00651351
249	0x3e1c7d30	0.1528213
250	0x3d5c49c9	0.053781305
251	0xbd7f99c5	-0.062402505
252	0xbc19d936	-0.009390166
253	0xbda7aa34	-0.081867605
254	0xbcfca38b	-0.030839702
255	0x3d8779f9	0.06615061

lstm.bias_ih_l1 f4 [256]
0	0x3d28ae3f	0.0411818
1	0x3df63cf8	0.120233476
2	0x3c524e3e	0.012836037
3	0x3d1c8d60	0.038220763
4	0x3bc3e626	0.0059783636
5	0xbc84395c	-0.016140632
6	0x3b6795dd	0.0035337128
7	0xbdc36804	-0.09541324
8	0x3df72a7c	0.1206865
9	0xbd775543	-0.060384046
10	0x3d4dc091	0.050232474
11	0x3cb94687	0.022616638
12	0x3df89afc	0.12138936
13	0x3ddfe751	0.10932792
14	0x3bc30dfd	0.0059525953
15	0xbda4122a	-0.08011277
16	0x3dd9acb4	0.10628644
17	0xbd1077c3	-0.035270464
18	0x3daaf47c	0.08347413
19	0xbce7be6c	-0.028289042
20	0xbd00e515	-0.03146847
21	0x3dabe532	0.08393325
22	0xbd04ad44	-0.0323918
23	0x3ce7ad0e	0.028280761
24	0xbd4c56dc	-0.049887523
25	0x3d8bc21e	0.06824134
26	0xbca54b70	-0.020177573
27	0xbd725085	-0.05915882
28	0xbd96bfe9	-0.07360823
29	0x3cd90d7d	0.02649569
30	0x3d4470bf	0.047959086
31	0xbdf644a3	-0.1202481
32	0x3e1745c9	0.14772715
33	0x3d74db9a	0.05977974
34	0x3d92b69e	0.07163738
35	0x3d5f6ed5	0.054549057
36	0xbca39593	-0.019968783
37	0x3daf76b3	0.08567562
38	0xbd2f39e6	-0.042779826
39	0x3dd81663	0.10551145
40	0x3d9bcc7d	0.076073624
41	0xbd29e6ef	-0.04148
42	0x3da18bd3	0.078879975
43	0xbd323b7f	-0.04351377
44	0x3c0d6f8f	0.008632555
45	0xbd9067ec	-0.070510715
46	0x3e075260	0.13215017
47	0xbdc9cfad	-0.09854064
48	0x3bdc53c1	0.0067238514
49	0xbd397713	-0.045279574
50	0x3cc3dfd8	0.023910448
51	0x3d9dca34	0.07704583
52	0x3ddffe4b	0.109371744
53	0xbdb34626	-0.08753614
54	0xbbd5f864	-0.0065298546
55	0xbc72595b	-0.014791812
56	0x3dc0d105	0.09414867
57	0xbdb8e590	-0.090281606
58	0xbc6dcbbc	-0.014513906
59	0xbb7bb0a7	-0.0038404854
60	0x3dc6259f	0.096751444
61	0x3e0e1e62	0.13878778
62	0xbc46bc93	-0.012129921
63	0xbdad8692	-0.08472933
64	0xbca34de6	-0.019934606
65	0x3dd1bed8	0.10241479
66	0xbda72441	-0.08161212
67	0x3d02297a	0.031777836
68	0xbb354b8f	-0.0027663445
69	0xbd27d891	-0.04097802
70	0x3cdd8587	0.02704121
71	0x3de2d690	0.11076081
72	0xbbc002ab	-0.005859693
73	0xbdae1ee9	-0.085019894
74	0x3e1c45c6	0.15260991
75	0xba7b9d5e	-0.00095983397
76	0xbd917be0	-0.071037054
77	0x3e072e1c	0.13201183
78	0xbd8f847c	-0.07007691
79	0x3d252ebc	0.040327772
80	0x3e0ebff4	0.13940412
81	0xbc36aab3	-0.011149096
82	0x3d8357b3	0.06413212
83	0x3e203318	0.1564449
84	0x3af00d32	0.0018314479
85	0xba7c0b75	-0.00096147443
86	0x3dafcc8e	0.085839376
87	0xbd134a04	-0.03595926
88	0xbd87e092	-0.0663463
89	0x3dc5e6a7	0.09663134
90	0xbd3f1e2a	-0.046659626
91	0x3d94f825	0.07273892
92	0x3e0f33e7	0.13984643
93	0x3ce319d4	0.027722277
94	0xbc8a8761	-0.016910257
95	0x3d2e57ac	0.04256408
96	0x3dc43a65	0.095814504
97	0x3d7fa3ac	0.06241195
98	0x3d31b043	0.043380987
99	0xbce07911	-0.027401479
100	0x3d2693d1	0.040668312
101	0x3df1d831	0.11808813
102	0xbb32bf0a	-0.0027274513
103	0x3dead96e	0.11467253
104	0xbd418f66	-0.047255896
105	0x3e146c9e	0.14494559
106	0x3d400de1	0.046888236
107	0x3dfe52f1	0.124181636
108	0x3cac48bf	0.021030782
109	0x3e1cd093	0.1531394
110	0x3e1735c9	0.14766611
111	0x3d828582	0.06373121
112	0x3ccac494	0.024751939
113	0x3e0aea8b	0.13566034
114	0xbd405a95	-0.046961386
115	0x3df67ed1	0.12035907
116	0x3d130454	0.0358928
117	0x3d56d6ba	0.052450873
118	0x3bce478e	0.006295151
119	0xbcccbe5f	-0.02499312
120	0x3e0e9dd9	0.13927402
121	0x3d6043ce	0.054752164
122	0x3e124d1f	0.14287232
123	0x3cd184b9	0.025575982
124	0x3cc44b4f	0.023961691
125	0x3d84172a	0.06449731
126	0xbc71483b	-0.014726694
127	0x3ddfcd3f	0.109278195
128	0xbda83ccf	-0.08214723
129	0xbddb24dd	-0.107003905
130	0x3c1cb6d5	0.009565075
131	0xbdd836f9	-0.1055736
132	0xbda0e6d6	-0.078565285
133	0x3cf238f6	0.029568177
134	0xbb161807	-0.0022902505
135	0xbdad9a60	-0.0847671
136	0xbd6a16ba	-0.05715058
137	0xbcd4dd88	-0.02598454
138	0xbda7292f	-0.08162152
139	0x3c947058	0.018119976
140	0x3caa9fc9	0.020828145
141	0x3ddbe214	0.1073648
142	0x3da30c68	0.07961351
143	0x3de0a8fb	0.109697305
144	0x3d8da87d	0.06916902
145	0x3cfa81a0	0.030579388
146	0x3dc6a7e3	0.096999906
147	0x3d9cb982	0.0765257
148	0xbd99400c	-0.07482919
149	0xbd324da0	-0.04353106
150	0xbda8b6fa	-0.08238025
151	0x3d821968	0.06352502
152	0x3e191a4f	0.14951442
153	0x3d498a91	0.049204413
154	0x3de6be9c	0.112668246
155	0xbdb3d73b	-0.08781286
156	0x3d8b6efd	0.06808279
157	0x3d1dbfe9	0.038513098
158	0x3c511530	0.012761399
159	0xbdaa68ee	-0.08320795
160	0xbd326187	-0.04355004
161	0x3d34f6a0	0.044180512
162	0x3d0670b5	0.03282233
163	0x3d5a9dc3	0.05337311
164	0x3d8f17b7	0.06986945
165	0x3dffc5fa	0.12488933
166	0x3db2f567	0.08738213
167	0x3e17a66b	0.14809577
168	0x3c27aca2	0.01023403
169	0xbd8c4e85	-0.06850914
170	0xbd39497d	-0.0452361
171	0x3d93fe26	0.07226209
172	0x3d4b0d57	0.04957327
173	0xbdcd4000	-0.10021973
174	0x3d325de4	0.043546572
175	0x3d8360a5	0.06414918
176	0xbd69e9b7	-0.057107653
177	0xbd92271d	-0.071363665
178	0xbd8d51a8	-0.0690034
179	0x3ca34a3b	0.019932857
180	0xbaa4eb9e	-0.0012582426
181	0x3d838a1a	0.06422825
182	0xbd9d83ee	-0.07691179
183	0xbd17963d	-0.037008513
184	0xbddba027	-0.10723906
185	0xbc7e580f	-0.0155239245
186	0xbdb4c6f1	-0.088270076
187	0x3d81d9df	0.06340384
188	0xbd3593f9	-0.04433057
189	0x3d385a80	0.045008183
190	0x3dcf636a	0.101263836
191	0xbdf99498	-0.12186545
192	0xbd0c5cfb	-0.03426836
193	0x3df56236	0.11981623
194	0x3e248242	0.16065314
195	0x3d4e94ab	0.05043475
196	0x3dade744	0.08491376
197	0x3de2d850	0.110764146
198	0x3de78bc9	0.11305959
199	0x3df2f84b	0.118637644
200	0xbcd9426c	-0.02652093
201	0x3d02147b	0.031757813
202	0x3e3dc91f	0.18533753
203	0x3e0eceba	0.13946047
204	0x3ddafe91	0.10693086
205	0x3caacafc	0.020848744
206	0x3dea7a2d	0.114490844
207	0x3c65fdb5	0.014037539
208	0xbc87c9eb	-0.016575774
209	0x3a11fcda	0.0005568989
210	0x3e5d78ef	0.21628164
211	0x3e232a25	0.15934046
212	0x3bcf738c	0.006330913
213	0x3e42c4e3	0.19020419
214	0xbccfaf8d	-0.025352264
215	0xbd3817fe	-0.044944756
216	0x3b9c548a	0.00477082
217	0x3dbacc00	0.09120941
218	0x3cef98ad	0.029247606
219	0x3e3bff35	0.18359073
220	0x3d8b953b	0.06815573
221	0x3cd9d9ac	0.026593052
222	0xbd2511c0	-0.04030013
223	0x3dde1253	0.10843339
224	0x3cd1a4e0	0.025591314
225	0x3e2f45ff	0.17116545
226	0xbd03b837	-0.032158103
227	0xbb97b0b0	-0.004629217
228	0x3e497097	0.19671856
229	0x3d91c247	0.071171336
230	0x3b83002a	0.0039978223
231	0x3df3d0b3	0.119050406
232	0x3da887fb	0.08229061
233	0x3c8b04c9	0.016970055
234	0x3e234f80	0.15948296
235	0x3d7b6e2f	0.061384376
236	0x3e1c425d	0.1525969
237	0x3e053fb1	0.13012578
238	0x3e54aa23	0.20768027
239	0x3e5338dc	0.20627159
240	0x3daef1ee	0.08542238
241	0x3dc19585	0.09452347
242	0xbd17e9b2	-0.037088104
243	0x3ded7e02	0.115963
244	0x3d8ca0d4	0.06866613
245	0xbd30711d	-0.043076623
246	0x3e1ebd76	0.15501961
247	0x3db079e2	0.08616997
248	0x3dcf8ec8	0.10134655
249	0x3d7c149e	0.0615431
250	0x3c9bdb09	0.019025343
251	0xbcb3e05b	-0.021957567
252	0xbca92d53	-0.020651495
253	0x3cb4097a	0.021977175
254	0x3cab1123	0.020882195
255	0xbc867b6a	-0.01641627
