project/onnx_models/LSTM/KOSPI.onnx (onnx, 29609 bytes, 5 tensors)

lstm.weight_ih_l0 f4 [128, 5]
000000 b2 f9 c4 3d 08 88 a5 bc b8 02 82 3d 7d 5d fb bd
       0.09617938 -0.020206466 0.06348175 -0.12273691
000010 5b 90 15 3e e2 ee da bd 3c 43 33 3d 7b 0c 08 3e
       0.14605848 -0.106900945 0.04376529 0.13286011
000020 a0 7d 71 bc 3a 11 86 3d 41 5c c6 bd 68 e2 bf 3c
       -0.014739424 0.065462545 -0.09685565 0.023423389
000030 ec d2 0b 3d a6 a0 31 be ed e9 00 3e bb 6e 08 3e
       0.034136698 -0.17346439 0.12589236 0.1332349
000040 d8 cc 0e be 44 77 26 be c8 a0 dd 3c 56 56 c0 3d
       -0.13945329 -0.16256434 0.027054206 0.09391467
000050 6c 09 22 bd fd 82 85 bd e0 96 b6 bd ee 64 cf 3d
       -0.039559767 -0.06519125 -0.08915496 0.10126673
000060 1c 15 6a bd 6c 51 05 3d 22 3d f0 3d 27 5d 34 3e
       -0.057149038 0.032548353 0.1173041 0.1761366
000070 98 85 29 bd f4 e3 23 bd 0e 0d 99 3d 48 cd 29 3d
       -0.04138717 -0.040012315 0.07473193 0.041455537
000080 b4 90 0d be ee fe a5 3d dc c8 60 bd c7 d0 14 3e
       -0.13824731 0.081052646 -0.054879054 0.14532767
000090 d2 c3 d7 3d 00 3e 64 bd bc a3 6c 3d 97 b5 12 be
       0.10535397 -0.05572319 0.057773337 -0.14327084
0000a0 30 5f 4c bd bd 3d 19 3e 31 d4 25 3e 99 16 c7 bd
       -0.049895465 0.14964958 0.16194226 -0.09721107
0000b0 42 b5 df 3d 9a f9 d1 3d 68 4f c5 bc 4a 46 67 bd
       0.10923244 0.10252686 -0.024085715 -0.056463517
0000c0 16 0f ff 3d 46 93 88 3d f8 f7 96 bd 00 89 50 3c
       0.12454049 0.06668715 -0.07371515 0.012727976
0000d0 2a d2 ad bd 54 28 3c bd a8 c8 07 3d 30 48 5b 3d
       -0.08487351 -0.045936897 0.033150345 0.05353564
0000e0 a2 18 be 3d cb 33 1e 3e 87 46 c5 bd 48 2a de 3c
       0.09282042 0.15449445 -0.09632593 0.02711977
0000f0 80 0a a4 bc ce 28 01 be c4 74 07 be b6 e1 f2 bd
       -0.020024538 -0.12613222 -0.13228136 -0.11859457
000100 47 0d 14 3e 7a 2f 28 be 6c 53 1b bd 58 44 2d 3d
       0.1445819 -0.16424361 -0.037921354 0.042301506
000110 f0 7d b4 bc 00 54 12 bd 75 4a 12 3e 10 de 01 3d
       -0.022032708 -0.03572464 0.14286216 0.031705916
000120 36 91 b2 3d f0 70 67 3d e0 a4 03 bc a8 f8 13 3d
       0.08719103 0.05650419 -0.008034915 0.03612581
000130 f0 05 71 3d d0 74 ab bc 34 bd 7c 3d 70 69 12 bc
       0.058843553 -0.020929724 0.061703876 -0.008936271
000140 17 d3 14 be 47 2f ac bd f4 4b 27 bd 1d 13 10 be
       -0.1453365 -0.08407455 -0.04084392 -0.14069791
000150 1d 6b 23 3e bc b8 14 be 19 dd 30 3e 9a f3 74 bd
       0.15958829 -0.14523596 0.17271842 -0.05980263
000160 75 10 08 3e 40 ce d7 bd a3 b3 18 be 6c fa 25 bd
       0.13287528 -0.10537386 -0.14912276 -0.040522024
000170 c5 e2 32 3e 16 d4 b5 3d 20 e5 fb 3b 13 52 29 3e
       0.17469318 0.08878343 0.007687226 0.16535215
000180 4f 9e 1e be 61 0d af bd 74 ea 4a 3d 05 08 28 3e
       -0.15490077 -0.08547474 0.04954 0.16409309
000190 14 20 0d 3d 93 20 03 be d8 bd 11 be 58 09 5f bd
       0.03445442 -0.12805395 -0.14232576 -0.05445227
0001a0 ff b0 31 3e 2a c5 08 be 3d 9b 1d 3e 77 a1 01 3e
       0.17352675 -0.13356462 0.1539125 0.1265925
0001b0 be 48 a7 3d 00 e0 6d b8 64 12 41 3d 49 e6 c6 bd
       0.08168171 -5.671382e-05 0.04713668 -0.09711892
0001c0 0c 5f 00 3d b0 cc 4f bd 88 4a 87 bd bc 2c 62 3d
       0.031340644 -0.050732315 -0.066060126 0.055218443
0001d0 43 cd 0b 3e 6a 67 b5 bd 6a ed 09 be 14 6a 0a 3d
       0.1365252 -0.08857615 -0.13469473 0.03379257
0001e0 80 c5 26 3d 38 93 b8 bc 60 83 0a bc 78 c6 79 3d
       0.040715694 -0.022531137 -0.008454174 0.06098029
0001f0 26 7f bd bd 0b 02 1b be 44 10 1f 3d a4 63 e0 bd
       -0.09252767 -0.15137498 0.03883387 -0.10956505
000200 9a 6e e0 3d 89 cc 1d 3e ef 30 22 3e 70 dc 63 bc
       0.109585956 0.15410055 0.15838979 -0.013907537
000210 17 a3 93 bd 90 7a b8 3c c8 e7 1e be 7b fd 31 be
       -0.07208841 0.02251938 -0.15518105 -0.17381851
000220 4d eb 02 3e ae 74 0b be da 1b b4 3d 92 29 9e 3d
       0.12785073 -0.13618729 0.08794375 0.07722773
000230 7c 3f 3a bd 16 0b ad 3d e0 9e 45 bd 16 0f 82 3d
       -0.0454707 0.0844938 -0.048247218 0.06350534
000240 6d 92 32 3e b6 ac a0 bd 75 b5 2b 3e c0 aa e1 3b
       0.1743867 -0.07845442 0.16768439 0.00688681
000250 10 ae 1d be 93 d6 0b be c0 63 78 3d 98 84 c3 3c
       -0.15398431 -0.13656072 0.060642004 0.023866937
000260 ab a2 2a 3e 28 2e 82 bc de 13 ce bd 51 b7 a6 bd
       0.16663615 -0.01589115 -0.10062383 -0.081404336
000270 00 47 61 bb 66 64 7a bd 44 1e 2b be 4f ea 1c 3e
       -0.0034374595 -0.061130904 -0.16710764 0.15323757
000280 d6 b9 e1 3d 8b 7b 13 3e 30 aa 96 bd f4 b9 4c 3d
       0.110217735 0.14402597 -0.073566794 0.049982026
000290 00 fd e2 bb a8 bd 32 3d 8f a7 b8 bd e0 92 f2 3b
       -0.0069271326 0.0436379 -0.09016334 0.007402763
0002a0 18 84 f7 bd a3 cf 07 3e 40 e8 07 be d7 06 20 3e
       -0.12085742 0.13262801 -0.1327219 0.15627609
0002b0 3e 43 d0 3d b1 cc 16 be b0 c5 2f 3c 3d c2 23 3e
       0.101690754 -0.14726521 0.010728285 0.15992065
0002c0 19 03 1f 3e 1a c8 f7 3d 40 86 37 bd 4a 2f 22 be
       0.15528525 0.12098713 -0.044805765 -0.15838352
0002d0 06 16 f7 3d d9 41 83 bd 1e a1 c6 3d 2d 74 2a be
       0.120647475 -0.06409044 0.096986994 -0.1664588
0002e0 b3 53 21 3e 76 23 f3 3d 6c e9 fc bd b4 bd 0f bd
       0.15754585 0.11871998 -0.12349209 -0.035093024
0002f0 2a b9 f5 3d 18 26 c7 3c 6a 50 eb 3d 5a e8 f3 3d
       0.11998208 0.024310157 0.11489947 0.11909552
000300 7a e9 b4 3d d8 c9 01 be 75 83 0f 3e 8f b0 22 3e
       0.088335946 -0.12674654 0.1401499 0.15887664
000310 cb b6 b8 bd 00 94 dc bb df a9 1d 3e c0 05 2f 3d
       -0.0901924 -0.00673151 0.15396832 0.042730093
000320 68 07 80 3d 92 d3 eb 3d 59 4a 02 be 30 3b 19 bc
       0.06251413 0.11514963 -0.12723674 -0.00935249
000330 30 d0 e1 bd a1 e5 a3 bd e1 42 02 3e f0 7c 78 3c
       -0.11026037 -0.080027826 0.12720825 0.015166506
000340 ac 68 0a be 64 70 1a 3d 12 6c c8 3d 30 c4 bb 3c
       -0.13516492 0.03770484 0.09786238 0.022920698
000350 97 75 0d 3e c1 5e 07 3e 1b c5 31 3e ca 04 e7 3d
       0.13814388 0.1321974 0.17360346 0.1128021
000360 82 af 61 bd 7d 50 24 be 7c 41 0e 3d e4 7c 78 bd
       -0.055099018 -0.16046329 0.03473042 -0.06066598
000370 86 92 05 be a5 de d8 bd e0 88 6a 3d b8 94 b6 bd
       -0.13044176 -0.10589341 0.05725944 -0.089150846
000380 1b 4e 27 3e 00 d8 f8 3b 8e 23 0f be 6c 12 81 3d
       0.16338389 0.0075941086 -0.13978407 0.06302342
000390 a8 95 00 be 76 9e 09 be 96 9d f7 3d 2c 59 54 bd
       -0.1255709 -0.13439354 0.12090604 -0.051842853
0003a0 c6 1c b3 3d 80 65 2d 3c b0 17 60 3d 9e c3 84 3d
       0.087457225 0.0105832815 0.05471009 0.064826235
0003b0 b0 87 33 3d 84 28 3e bd fe 6a 96 3d ce fc 17 be
       0.043830574 -0.046425357 0.07344626 -0.14842531
0003c0 76 c0 b6 bd 29 0b 2c 3e 47 62 17 3e f0 cb 67 3d
       -0.08923428 0.16801132 0.14783584 0.056590974
0003d0 20 56 ce bb 30 30 4e 3d 00 b3 92 bc 9f 23 1e 3e
       -0.006296888 0.050338924 -0.01790762 0.15443276
0003e0 bd 8a 2f 3e 02 02 bf 3d 00 f9 61 bc fd b2 34 3e
       0.17142768 0.09326555 -0.013792276 0.17646404
0003f0 2e a4 c4 3d 38 2f 3a bd d7 be 21 3e 80 1d 8f 3a
       0.09601627 -0.045455188 0.15795456 0.0010918826

lstm.weight_hh_l0 f4 [128, 32]
000000 c6 9f c0 3d 61 65 15 be b9 d1 8f bd 42 5f 83 3d
       0.09405474 -0.14589454 -0.07022423 0.06414653
000010 a0 a4 0f bc c0 ba 13 bd 7c 46 81 bd 50 64 ef bd
       -0.008767277 -0.03606677 -0.06312272 -0.11689055
000020 4a c8 de 3d f8 ab df bc 09 67 2f be ca 33 e1 3d
       0.10878046 -0.02730368 -0.17129149 0.10996206
000030 d6 26 ef 3d e0 99 f2 3b d2 8d c2 3d e0 c8 08 3d
       0.11677329 0.0074035972 0.09499706 0.033394694
000040 fd 49 31 3e b3 a5 16 3e 57 88 b9 bd 85 53 0b be
       0.1731338 0.14711647 -0.09059208 -0.13606079
000050 88 2a 84 3c 6c 37 2b bd a7 ce cc bd b0 27 38 bd
       0.016133562 -0.0418009 -0.10000353 -0.044959724
000060 04 9d 7f 3d 57 31 19 be 70 f6 15 bd aa 1c cf 3d
       0.0624056 -0.14960228 -0.036611974 0.10112889
000070 89 c7 24 3e 80 52 dd ba a1 c3 04 3e 00 bf 0a ba
       0.16091742 -0.0016885549 0.12965252 -0.00052927434
000080 7b 69 11 be 60 6a 4d bd a8 1b a5 3c ad da 16 3e
       -0.14200394 -0.050150275 0.02015479 0.14731856
000090 6f 8d 2f 3e 40 fd 9e bb 10 a3 00 3d c9 6f 13 3e
       0.17143796 -0.004851967 0.03140551 0.14398111
0000a0 12 f8 d2 3d a1 57 05 3e 16 94 28 be ff a9 02 be
       0.10301222 0.13021709 -0.1646274 -0.12760161
0000b0 41 47 b7 bd 8d cf 19 be df c2 32 3e 20 bf 8e bd
       -0.089491375 -0.1502058 0.1745715 -0.06970048
0000c0 bf f0 17 3e 94 56 82 bd c0 48 3b bd 1c 02 22 3d
       0.14837931 -0.0636417 -0.045723677 0.039552793
0000d0 c8 e5 8c 3d a0 e6 1e be 36 e0 c6 3d 80 12 84 3d
       0.06879765 -0.15517664 0.097107336 0.06448841
0000e0 c2 a2 2d be b7 78 24 3e e4 16 9a bd 1a 04 2a be
       -0.16956618 0.16061674 -0.07523897 -0.16603127
0000f0 cc 40 38 bd f9 3a a9 bd 1e 5c b0 3d f0 96 ae bd
       -0.04498367 -0.08263201 0.0861132 -0.08524883
000100 f3 1a 31 3e c2 77 96 3d d3 d0 21 be c0 29 6f bc
       0.17295437 0.07347061 -0.15802316 -0.014597356
000110 db 5a c7 bd 54 f0 0b be 80 f1 57 3c 68 a8 5a bd
       -0.09734126 -0.13665897 0.013180137 -0.05338326
000120 fd 8f b6 bd 62 e8 2d be 90 62 7b 3d 28 6e 3a 3d
       -0.08914182 -0.16983178 0.061373293 0.04551521
000130 47 59 ef bd 02 74 ca 3d 94 02 60 3d 70 18 57 3d
       -0.1168695 0.09885408 0.05468996 0.05251354
000140 57 ed 2e 3e fb 37 33 be e0 83 cf 3b 67 1f 09 3e
       0.17082725 -0.17501824 0.0063328594 0.13390885
000150 c2 7c 97 3d 92 20 db bd 66 81 a8 3d 08 e2 a1 3c
       0.073968425 -0.10699572 0.08227806 0.0197611
000160 8d 19 16 be fc bf cb bd f8 fc cb 3c c8 6a d5 bd
       -0.14658184 -0.099487275 0.024900898 -0.104207575
000170 7d 96 07 3e 00 06 aa bb 80 82 4a bb 00 e8 eb 38
       0.13241 -0.0051887035 -0.0030900538 0.000112488866
000180 d8 13 84 3c 48 67 84 bc 4f 9d 25 be 40 8a 58 bc
       0.016122743 -0.01616253 -0.1617329 -0.013216555
000190 52 83 f0 3d d7 f4 1a be f0 9c 5b 3d c0 a8 f3 bd
       0.11743797 -0.15132461 0.053616464 -0.11897421
0001a0 70 ee 66 bd 80 b2 bf bc a2 e2 da bd 78 6e 11 3d
       -0.056379735 -0.023400545 -0.10687758 0.03550574
0001b0 0e 7e 91 bd de 65 ca bd c6 80 e6 3d 4a f7 00 be
       -0.07104121 -0.09882711 0.1125503 -0.12594333
0001c0 5a 41 91 bd 2b ec 1b 3e 60 8a 7d 3c 14 0d e8 bd
       -0.07092543 0.1522681 0.015474886 -0.113306195
0001d0 4c 1c 58 bd c0 8e b7 bc 00 f0 7c b8 75 d5 f4 bd
       -0.05276136 -0.022406936 -6.0305e-05 -0.11954776
0001e0 c6 f0 1b be 3d a0 14 3e b2 d5 fd bd 80 57 69 bc
       -0.15228567 0.14514251 -0.12394275 -0.014242053
0001f0 36 ea b1 3d 00 90 91 39 da 5a 1d be dd 28 cb bd
       0.0868725 0.00027763844 -0.15366688 -0.099199034
000200 9e e9 72 bd 84 e4 b5 bd fa b4 d3 3d c0 bc 3d 3d
       -0.059304826 -0.088814765 0.10337253 0.046322584
000210 1c 5f 73 bd 6b 20 06 3e 30 29 2b be a5 e0 8c bd
       -0.059416875 0.13098304 -0.1671493 -0.06878785
000220 64 98 26 bd d8 f1 d2 bc 7c bb 99 bd da 06 ef bd
       -0.040672675 -0.025750086 -0.07506463 -0.11671229
000230 9c d4 4c 3d 80 20 44 3c 5a 8a bb bd 50 47 9f 3c
       0.050007448 0.011970639 -0.09157248 0.019443184
000240 b1 76 20 3e db a1 0f 3e 5a b5 ea 3d f0 d3 03 3d
       0.15670277 0.14026587 0.11460371 0.03218454
000250 ce 60 98 bd e0 fe 7b bd c4 82 69 3d 10 a2 57 3c
       -0.07440339 -0.061522365 0.057009473 0.013161197
000260 c2 4b d6 3d e0 74 21 be a0 28 06 3c 78 5a d4 bd
       0.104636684 -0.1576724 0.008188397 -0.10368818
000270 52 f4 ba 3d 4a a9 90 3d b8 3d 18 3d 14 f2 0c be
       0.09128632 0.07063539 0.037168235 -0.1376422
000280 1e 5b f3 3d 1a c0 76 bd 35 e0 27 3e 20 84 23 be
       0.118826136 -0.060241796 0.16394122 -0.1596837
000290 7f aa a7 bd 40 eb de 3b 80 97 b3 ba 3c 0f 08 be
       -0.081868164 0.0068029463 -0.0013701767 -0.13287061
0002a0 a4 e5 77 bd 04 0b 00 be a0 1d f7 bc 48 7c 19 3d
       -0.060521737 -0.12504202 -0.030165493 0.03747204
0002b0 6b 57 e3 bd 1c f4 51 bd c6 ba fe 3d c2 a4 bc 3d
       -0.11100658 -0.05125819 0.12437968 0.092111126
0002c0 0d f6 25 3e f4 e1 3f 3d c8 d2 07 3d 72 04 8c 3d
       0.16207142 0.046846345 0.03316 0.068367854
0002d0 38 af 89 3d 4c 07 30 3d f0 33 08 3c 97 f6 29 be
       0.067228734 0.04297571 0.008313164 -0.16597973
0002e0 b2 90 c4 3d 68 5f ad bc b4 c2 15 bd a1 1a 97 bd
       0.09597911 -0.021163657 -0.036562636 -0.07378126
0002f0 be 3e 17 be 2c 40 45 3d c2 18 7b bd ff 36 09 3e
       -0.14770028 0.048156902 -0.061302908 0.13399886
000300 a4 fd 6a bd 5f a2 d4 bd 4c 2b 26 3d 6d ff 2d 3e
       -0.057370797 -0.10382532 0.040568635 0.16991968
000310 90 9a b1 bc 75 4a 33 3e b3 33 22 3e c0 cd 07 be
       -0.021680146 0.17508872 0.15840034 -0.13262081
000320 43 6b 10 3e e7 5e 2f 3e 2c fd 66 3d fe 2c fd 3d
       0.14103417 0.17126046 0.056393787 0.12362097
000330 f2 5e de 3d df d9 12 3e 5b 7f b3 bd 77 0e 16 be
       0.10857953 0.14340924 -0.087645255 -0.14653955
000340 bf ff 1e be c9 f2 0a 3e 88 3a 70 bd 4a e2 dc bd
       -0.15527247 0.13569178 -0.05864957 -0.10785349
000350 ce b7 20 be b2 da 9a 3d a0 64 ba bd d6 61 fe 3d
       -0.15695116 0.07561244 -0.09101224 0.124210045
000360 de 8f 5c bd f8 a0 eb bd 8e 04 ac 3d bc d1 64 3d
       -0.05384814 -0.11505312 0.08399306 0.05586408
000370 e3 89 93 bd 56 12 e6 3d 78 d3 14 bd 22 6e c3 3d
       -0.07204034 0.11233966 -0.036334485 0.095424905
000380 04 f8 15 be 78 4b 33 3d 87 aa 11 3e ac 3c 20 be
       -0.14645392 0.043773144 0.14225207 -0.15648144
000390 e8 d5 02 bd 3d e5 07 be 8f fa 0e 3e 4e 65 dc 3d
       -0.03194228 -0.13271041 0.13962768 0.1076151
0003a0 00 ad de ba 5b ef 1b 3e aa 5e a0 3d 58 9e dd 3c
       -0.0016988814 0.15228026 0.07830556 0.027053043
0003b0 6c 0d 76 3d e1 06 03 be f4 54 4f 3d d6 60 a9 bd
       0.060071394 -0.12795593 0.050618127 -0.08270423
0003c0 d3 68 21 3e 40 8f 82 bc 6a bc 0c be f0 d4 9c bd
       0.15762644 -0.015937448 -0.1374375 -0.07657802
0003d0 6c 30 30 be b0 e0 e0 bd 10 a6 93 3d 44 60 75 3d
       -0.17205971 -0.10980356 0.07209408 0.05990626
0003e0 f3 8f ea bd 0a 3f 2c be 00 9b 54 3a a5 15 26 be
       -0.114532374 -0.16820922 0.0008110255 -0.16219194
0003f0 56 71 b4 3d 00 2e d7 bc f0 ad 5d bc 12 d2 8c 3d
       0.088106796 -0.026267052 -0.013530239 0.06876005

lstm.bias_ih_l0 f4 [128]
000000 10 5a 3b bc aa d8 f1 3d 38 0e 61 bd da 71 cc 3d
       -0.011435047 0.118089035 -0.0549452 0.09982653
000010 d0 67 a8 bd 30 ea 1a 3c e2 a9 a2 3d a4 8a 16 bd
       -0.08222926 0.009455249 0.07942559 -0.03675331
000020 fc 15 25 bd 6b c9 20 3e 7c 55 a8 bd 02 26 d0 3d
       -0.04030417 0.15701835 -0.0821943 0.101634994
000030 a2 10 94 3d 25 75 b1 bd 52 60 8d 3d 02 53 fe 3d
       0.07229735 -0.08664922 0.06903137 0.12418176
000040 19 7d 11 3e a7 c7 1b 3e 98 48 a2 3c e0 99 f3 3b
       0.14207877 0.1521288 0.019810006 0.007434115
000050 9e 43 e6 3d 94 9a 0c be 45 7a 2e 3e 51 94 31 3e
       0.11243366 -0.13730842 0.1703883 0.17341734
000060 aa 7d c7 3d 64 72 33 3d ba 42 e6 3d 44 b5 0d be
       0.097407654 0.043810263 0.11243196 -0.13838679
000070 64 a5 19 bd 7e d5 8d 3d 00 ed 94 3a a9 ea 25 3e
       -0.037511244 0.06925486 0.0011362135 0.16202797
000080 b0 2a 1b bd 94 63 76 3d 71 b0 e0 bd c0 97 f5 bb
       -0.037882507 0.06015356 -0.109711535 -0.0074948967
000090 89 5c d8 bd d0 00 cf bd 8a 55 d6 bd 37 fc 10 3e
       -0.10564525 -0.10107577 -0.10465534 0.14158712
0000a0 64 1d 20 3d 00 78 98 3b d5 9c 96 bd c0 30 d2 3c
       0.03909053 0.004652977 -0.07354132 0.025658011
0000b0 50 1f 6b 3d 80 59 31 bb d8 66 15 be 28 a1 ac bd
       0.05740291 -0.0027061403 -0.14590013 -0.084291756
0000c0 d5 e6 be bd ec 2e 24 be bf 63 f4 bd ee 38 f8 3d
       -0.093213715 -0.16033524 -0.119330876 0.121202335
0000d0 45 f3 01 3e 75 32 ca bd 24 73 92 3d 80 05 0d 3c
       0.12690456 -0.09872905 0.071508676 0.008607268
0000e0 2e a5 b2 bd 00 b9 c0 ba 48 b4 b3 3c f2 ba ca 3d
       -0.08722912 -0.0014703572 0.02193655 0.09898938
0000f0 67 77 97 bd 78 8b aa bd be e8 84 3d 15 c4 de bd
       -0.07395821 -0.08327383 0.064897045 -0.108772434
000100 3d e1 2e be 93 11 2e 3e f4 90 42 bd 38 e9 3b bd
       -0.17078109 0.16998892 -0.04750152 -0.04587671
000110 a5 3b 24 be 72 f8 1e be aa 40 6a bd ea 4a 78 bd
       -0.16038378 -0.15524462 -0.057190575 -0.06061832
000120 31 16 25 3e e8 72 a4 bd cf c4 2c 3e f4 73 ad bd
       0.16121747 -0.08029729 0.16871952 -0.08469382
000130 6c 2d c1 bd f5 f8 d0 bd 36 2d d5 3d 47 fe 25 be
       -0.09432492 -0.10203735 0.10409014 -0.1621028
000140 ec b7 e4 bd 13 db 08 be 10 a3 56 3d 96 2a 90 3d
       -0.11167893 -0.1336482 0.052401602 0.070393726
000150 b2 19 98 3d b0 1f 0a 3c fb 64 1d 3e 7f d3 34 be
       0.07426776 0.008430406 0.15370552 -0.17658804
000160 aa fc b4 bd 40 32 14 be 5d a2 23 3e 00 9f fe ba
       -0.08837254 -0.14472294 0.15979905 -0.0019426048
000170 f0 5d 01 bc a0 de 50 3c 31 5c 15 be 40 28 ea 3b
       -0.007895932 0.01274839 -0.1458595 0.0071459115
000180 70 8c 11 be 46 ee ab 3d 26 83 9d 3d c8 74 d4 bc
       -0.14213729 0.083950564 0.0769103 -0.025934592
000190 e6 ca ec 3d 7e 3f b9 3d eb d4 bf bd 74 06 25 be
       0.11562137 0.09045313 -0.09366783 -0.16115743
0001a0 65 eb a1 bd 98 0f a4 3c 90 f8 be 3c 62 a3 e5 3d
       -0.07906226 0.020026967 0.023311883 0.112128034
0001b0 3a 18 eb 3d a6 ca 2b be e4 68 18 be 1e 46 a8 3d
       0.1147923 -0.16776523 -0.14883763 0.08216499
0001c0 ea 38 11 be cf ac 2a 3e 72 7e a9 3d 08 66 a7 3c
       -0.14181867 0.16667484 0.08276071 0.020434394
0001d0 62 5b 7e bd 00 95 21 bd 5a 06 d4 3d 90 2e 87 bc
       -0.06209887 -0.039448738 0.10352774 -0.016501695
0001e0 56 b1 77 bd 28 09 02 be d0 4c 45 3d 22 13 28 be
       -0.060471855 -0.12698805 0.048168957 -0.16413549
0001f0 7a b7 93 3d 10 56 ba bd eb ba b3 bd 2d d3 27 be
       0.0721273 -0.09098446 -0.08775886 -0.16389151

lstm.bias_hh_l0 f4 [128]
000000 d2 42 f3 3d fa 88 ec bd 98 38 45 3d d0 5e 66 3c
       0.11877979 -0.11549564 0.048149675 0.014060691
000010 80 49 fb bd 11 ea 15 be 20 e9 9f bb c0 d2 4d 3d
       -0.122698784 -0.1464007 -0.0048800856 0.050249815
000020 d1 8b 02 3e 15 74 e8 bd 7c 66 6c bd eb dd e6 bd
       0.12748648 -0.11350266 -0.057714924 -0.11272796
000030 36 4b ea 3d 78 bf 45 bd 9e 26 86 3d bf 9c 23 be
       0.114401266 -0.048278302 0.065503344 -0.15977763
000040 2d 51 99 bd 26 ad 90 3d 80 a0 96 ba 48 07 d3 3c
       -0.07486186 0.070642754 -0.0011491925 0.025760308
000050 c0 9f 17 bc 20 d7 cf bc 8d 7f 08 3e b6 91 c0 3d
       -0.009254396 -0.025371134 0.13329907 0.09402792
000060 62 20 f3 3d 44 db 06 be 1a 31 f4 bd a6 8c e2 3d
       0.11871411 -0.1316958 -0.11923428 0.11061983
000070 41 59 2a 3e 81 e0 1f be 3a 98 c8 3d 80 4a 9a bc
       0.1663561 -0.15612985 0.0979466 -0.018834352
000080 9b 31 0e 3e f2 10 df 3d e0 9a 1d 3d 00 1f 4a 3b
       0.1388611 0.10891904 0.03847778 0.0030841231
000090 68 a2 05 be 90 69 cc 3c 3a 7e da 3d c2 74 81 bd
       -0.13050234 0.02495268 0.10668607 -0.06321098
0000a0 b2 ed 0b be 52 ce d0 bd cf c3 98 bd bc e3 80 bd
       -0.13664892 -0.101956025 -0.074592225 -0.06293437
0000b0 b4 f8 3d 3d 71 f1 05 3e df e9 19 3e 84 83 44 3d
       0.04637976 0.13080384 0.15030621 0.047976986
0000c0 98 b3 f0 bd e0 a0 81 bb a0 c5 98 bc d8 73 a8 bc
       -0.11753005 -0.0039559454 -0.018648922 -0.020563051
0000d0 52 79 d0 3d 3d 31 28 3e 11 9f 0c 3e f0 9c 91 3c
       0.1017939 0.16425033 0.13732554 0.017775029
0000e0 00 c0 c9 39 40 d6 eb 3b 28 8f 47 bd 8e bb b2 bd
       0.0003848076 0.0071971714 -0.04872051 -0.087271795
0000f0 68 9b d9 bd 80 f1 d9 3a 70 84 80 3c d8 a5 cc bc
       -0.106253445 0.0016627759 0.015688151 -0.024981424
000100 c0 cc 43 3d 88 f1 1b be fd b0 1e 3e 90 c8 00 bd
       0.047802687 -0.15228856 0.15497203 -0.03144127
000110 19 f4 2f 3e 06 46 2f be 6c a4 fb bd 6f f0 0c 3e
       0.1718296 -0.17116556 -0.1228722 0.13763593
000120 1f 5b 08 3e 20 a7 fe bb a8 16 ae bc fe 3b b4 3d
       0.1331601 -0.0077713877 -0.021251038 0.08800505
000130 ee 1c cd 3d 55 b8 e8 bd 92 44 e5 3d 52 b7 dd 3d
       0.100152835 -0.113632835 0.111947194 0.10825981
000140 22 15 9a 3d a9 6a 1e 3e 3c 20 4e 3d c0 bd 0b 3c
       0.07523562 0.15470375 0.05032371 0.008529127
000150 48 88 5e bd 30 9a c7 bc ac 54 56 3d c1 9a be bd
       -0.054329187 -0.024365515 0.052326843 -0.09306861
000160 d9 24 0d be ba 16 f3 3d 9f 67 2a be ed e8 16 3e
       -0.13783588 0.11869569 -0.16641091 0.14737292
000170 f6 24 9d bd 77 b7 0b be 50 9d 31 bd 4c 1e a2 bd
       -0.07673065 -0.13644205 -0.043362916 -0.07915935
000180 ae 2f bb 3d b2 9a fb bd 76 3c eb bd e0 72 ea 3b
       0.091399536 -0.12285365 -0.114861414 0.0071548074
000190 91 1b 14 be 80 09 1b 3b 34 c7 00 3d c0 a5 f9 bb
       -0.14463641 0.0023656785 0.031439975 -0.007618636
0001a0 d2 b4 a7 3d 39 58 1d be 32 80 bd 3d 54 af f0 bd
       0.081887856 -0.15365686 0.09252967 -0.11752191
0001b0 50 86 13 be c7 f7 15 be eb 6c a4 bd 1c 7f 38 3d
       -0.14406705 -0.14645301 -0.08028587 0.045043096
0001c0 fc 09 70 3d df 33 01 3e 53 d8 14 3e ae 63 87 bd
       0.05860327 0.12617444 0.14535646 -0.06610809
0001d0 7f 51 a4 bd 3c 49 0e be 29 c1 01 3e e4 7d 03 bd
       -0.08023357 -0.13895124 0.12671341 -0.03210248
0001e0 b5 c1 05 be 71 a0 92 bd fc 97 6b 3d 50 f1 91 3d
       -0.13062175 -0.07159508 0.05751799 0.07126105
0001f0 b8 50 f6 3c 03 12 15 3e d9 d8 23 3e 6c a8 08 3d
       0.030067787 0.14557652 0.1600069 0.033363745

fc.weight f4 [1, 32]
000000 cf 0f b6 be 98 e7 36 bd 08 c3 6c 3d b9 70 b6 3e
       -0.35558936 -0.04465446 0.057803184 0.35632876
000010 96 c1 e2 3d e5 e2 12 3e 9a 3a ab 3d 10 84 73 3d
       0.1107208 0.14344366 0.08360787 0.059452116
000020 d0 ba 22 bc f0 b1 e9 be 42 c9 0a be 67 61 b1 bd
       -0.009932235 -0.45643568 -0.13553336 -0.08661156
000030 cd be c8 be 4d 73 13 3e e8 ca 34 bd 18 ed 0b bd
       -0.3920807 0.14399453 -0.04413882 -0.034161657
000040 70 aa 28 3d bd 43 27 be 98 d8 d1 3e 7b cc 94 be
       0.041178167 -0.16334434 0.4098556 -0.29062256
000050 2b 0c 1a 3e 63 f0 b7 3e f0 d5 9a 3c d5 1b ed be
       0.15043704 0.35925588 0.018900841 -0.46310297
000060 82 ae 12 be c2 cd 05 3f 93 84 12 3e a7 64 27 be
       -0.14324382 0.52267087 0.14308386 -0.1634699
000070 80 c3 33 3d d6 df 7e bd 78 f2 31 3d 48 da f2 3e
       0.043887615 -0.062225185 0.043444127 0.4743216
