project/onnx_models/LSTM/NASDAQ.onnx (onnx, 210245 bytes, 7 tensors)

fc.weight f4 [1, 64]
000000 40 c8 01 bf b5 94 e6 3e 36 d5 ee 3e 2c 1a 07 bf
       -0.5069618 0.4503533 0.46647042 -0.5277431
000010 2c 82 0d bf 1d 6d 09 3f 8e 8a ed 3e 65 df d8 3e
       -0.5527675 0.5368212 0.4639477 0.42357937
000020 f0 fe 06 bf bc f6 01 3f ef a5 e0 be b9 c0 04 3f
       -0.52732754 0.5076711 -0.43876597 0.5185657
000030 6c 97 02 bf 90 b0 f5 be e2 40 fc be 0e 89 da 3e
       -0.510123 -0.4798627 -0.49268252 0.4268269
000040 97 ef 00 bf 16 ee ee 3e 15 4a 07 3f a2 4c e1 3e
       -0.50365585 0.4666602 0.52847415 0.4400378
000050 b0 15 df 3e 82 bf e6 3e f4 65 08 bf 19 83 08 bf
       0.43571234 0.45067984 -0.5328057 -0.5332504
000060 ba 7d bf be 7b d1 00 3f bf a1 04 bf eb ec fd 3e
       -0.3740061 0.5031964 -0.51809305 0.49594817
000070 31 98 08 3f f4 b4 f2 3e c8 e7 e1 3e 8a e7 00 3f
       0.53357226 0.4740368 0.44122148 0.503533
000080 8d 0e 02 bf dd e6 02 bf 4f b8 08 3f da 25 0f 3f
       -0.5080345 -0.5113352 0.5340623 0.5591713
000090 54 99 f4 3e f7 be 0a 3f 6c 81 02 3f b6 55 ea 3e
       0.4777323 0.5419764 0.5097873 0.45768517
0000a0 58 25 03 bf 63 1e 04 bf 6a 2b 02 3f dd 78 d6 be
       -0.5122886 -0.51608866 0.50847495 -0.41889086
0000b0 0d 83 09 3f fc 7c ea 3e 67 16 f1 3e 51 38 fe be
       0.5371559 0.4579848 0.47087404 -0.4965234
0000c0 31 c5 f9 3e 09 65 c8 3e 53 1b 07 3f 26 d5 d8 3e
       0.48783258 0.39139584 0.5277607 0.4235012
0000d0 76 90 07 3f 94 3a f0 3e 4e ad fe 3e 2a c0 e7 3e
       0.52954805 0.46919692 0.49741596 0.45263797
0000e0 af 2a 03 bf c2 fb d6 be ca 2b 01 bf b3 17 03 3f
       -0.51237005 -0.4198895 -0.5045744 0.5120804
0000f0 1c 8a 03 bf 9a 9d 07 3f 6c 1c ec be 99 47 fc be
       -0.51382613 0.52974856 -0.46115434 -0.49273375

onnx::LSTM_193 f4 [1, 256, 5]
000000 4c 1d 22 3d 08 d2 25 bd bc 96 9b 3d 62 cc 9a 3d
       0.03957872 -0.040483505 0.0759711 0.07558514
000010 4e 51 cc bd 58 e4 bc 3c dc 4e 02 3d 44 a2 31 bd
       -0.09976445 0.023058102 0.031813487 -0.04336764
000020 a0 43 06 bd 00 6c 8b bb 40 b2 33 bb 18 02 3c bd
       -0.032779336 -0.004254818 -0.0027419478 -0.045900434
000030 d0 39 c8 3c 40 17 bc bc f4 1d e0 bd 44 f9 90 3d
       0.02444163 -0.022960305 -0.10943213 0.07078794
000040 40 b1 7b 3d fc 24 c6 bd ec a5 05 3d 7c 0f bc 3d
       0.061448336 -0.09675023 0.03262894 0.09182641
000050 78 54 37 3d 10 bb 54 3d 86 65 b2 bd 10 2f 31 3d
       0.04475829 0.05193621 -0.0871077 0.043257773
000060 28 57 95 3d 28 64 1f 3d 96 e0 ca 3d 80 a4 ac 3c
       0.07292014 0.038913876 0.099061176 0.021074533
000070 8a 10 e2 bd 04 50 15 3d ae aa c3 bd 00 f5 01 bb
       -0.11038311 0.036453262 -0.09554039 -0.001982987
000080 dc 8a 0d bd bc 61 dc 3d 6a a1 e2 bd a0 d9 3c bc
       -0.034556255 0.10760829 -0.110659435 -0.011526495
000090 84 04 09 bd 44 b5 01 bd 96 3f bf bd 40 04 91 bb
       -0.033451572 -0.03166701 -0.093383 -0.0044255555
0000a0 3a 69 8a 3d 10 71 91 3c f4 d7 93 3d e2 05 d4 bd
       0.067583516 0.017754108 0.07218924 -0.103526846
0000b0 cc 7d f8 3d 38 7c 65 3d dc 01 cb 3d c0 ca c7 3c
       0.12133369 0.056026667 0.09912464 0.02438867
0000c0 d4 81 27 bd c6 a3 ca bd a8 06 6a bd 88 53 de 3c
       -0.040895298 -0.098945186 -0.057135254 0.02713944
0000d0 bc a4 06 bd 64 01 b2 bd ca d1 ca bd 4a c2 b1 bd
       -0.032871947 -0.086916715 -0.09903295 -0.08679636
0000e0 60 27 c5 bd d8 d3 49 3d a0 b1 d3 3c 94 bf b2 3d
       -0.09626651 0.049274296 0.025841534 0.08727947
0000f0 a4 b3 5f 3d 44 11 cb bd 48 4d 82 bc a0 e4 ec bb
       0.054614678 -0.099154025 -0.015905991 -0.0072294027
000100 f0 1b d0 bc bc 3e 4d bd 28 91 88 bc 00 94 6a ba
       -0.025403947 -0.050108656 -0.016670778 -0.00089484453
000110 e6 43 b2 3d 18 47 b0 3c 98 cf b4 bd 42 78 d5 bd
       0.08704357 0.021518275 -0.08828658 -0.10423328
000120 3c 29 34 bd 58 1e d1 3d 80 aa af 3a ac 28 0b 3d
       -0.043984637 0.10210866 0.0013402253 0.033974335
000130 e4 da 09 3d 00 88 d1 b8 48 7a f4 bd d2 85 fb 3d
       0.033656016 -9.9912286e-05 -0.11937386 0.122813836
000140 48 29 34 bd 08 6f ca bc f4 97 fd bd ea 2c af 3d
       -0.04398468 -0.024711147 -0.123824984 0.085534886
000150 5c c6 7b bd 5a f5 d2 bd 40 0c 71 3b 9c 62 2e bd
       -0.061468467 -0.10300703 0.0036780983 -0.04257451
000160 18 22 45 3d 00 00 e7 b8 96 10 a2 3d f8 af e4 3c
       0.048128217 -0.00011014938 0.0791332 0.02791594
000170 fa 80 ff bd 76 be 9b bd c8 db b3 3d 7c df 87 bd
       -0.12475772 -0.07604687 0.08782154 -0.06634423
000180 dc 6b b9 3d c8 bc b3 3c 00 d7 3d bd 58 42 af bc
       0.09053776 0.021940604 -0.046347618 -0.02139394
000190 50 a3 6f bc 5c d5 03 bd b8 d0 92 bd cc 36 93 3d
       -0.014626339 -0.032185897 -0.07168716 0.07188186
0001a0 d8 b2 fe bd f2 bd ca 3d 3e bb d8 3d 40 45 99 bd
       -0.124364555 0.098995104 0.105825886 -0.074839115
0001b0 06 1c ad 3d b4 07 7c bd 24 e2 7e bd 90 45 0b bd
       0.08452611 -0.061530784 -0.062227383 -0.034001887
0001c0 0c 8e 84 bd 48 ba bf bc ee 3b 86 3d 48 46 72 bd
       -0.06472406 -0.023404256 0.065543994 -0.059149057
0001d0 80 b6 ee 3b ee e4 f8 bd a8 34 dd bd aa 79 98 bd
       0.0072849393 -0.1215304 -0.10801059 -0.074450806
0001e0 a4 51 1d 3d 6c f7 49 3d 92 74 e4 3d a8 9a ca 3c
       0.038407937 0.049308226 0.111550465 0.024731949
0001f0 14 d1 e5 bd 50 24 22 3c 8c 9f c7 3d 3e 7a b3 bd
       -0.11221519 0.009896353 0.09747228 -0.0876355
000200 7c e5 49 bd 0c 52 e5 3d f0 8e 4d bc fa 12 ad 3d
       -0.04929112 0.1119729 -0.012546286 0.08450885
000210 6a 50 9e bd 5c 75 6c bd 30 5c 36 bd 60 fb aa bb
       -0.077301815 -0.05772911 -0.04452151 -0.0052179545
000220 3c da 0c bd 1e 76 c3 3d 1c 84 bc bd 4c 18 9f bd
       -0.034387812 0.095440134 -0.09204885 -0.07768306
000230 9e 3c f9 bd f6 25 ec 3d d0 39 11 bc a4 c3 20 3d
       -0.12169765 0.11530678 -0.008863881 0.039249077
000240 80 12 b2 3d c0 65 7d bc f6 9e b0 bd f8 f4 ce bd
       0.08694935 -0.015466154 -0.086240694 -0.10105318
000250 00 32 a2 bb f0 16 f6 bd 0e 38 e3 3d 10 1e d9 bd
       -0.004949808 -0.12016094 0.11094676 -0.10601437
000260 a0 35 d0 3d f4 e4 f4 3d e0 f8 ba bd 48 b0 5b bd
       0.10166478 0.11957732 -0.091295004 -0.05363491
000270 90 0b d2 bc 38 4e 55 bd 34 24 c2 bd 64 aa f6 bd
       -0.025640279 -0.05207655 -0.094795614 -0.12044218
000280 48 70 c4 bd e6 dc d0 3d e4 7d b5 bd bc ad be bd
       -0.095917284 0.10198383 -0.08861902 -0.09310481
000290 e0 aa ef 3c 3e 96 84 bd 30 2a de bc 58 45 76 bd
       0.029256284 -0.06473969 -0.027119726 -0.060124725
0002a0 c2 7b d9 3d 90 db 2d bd 64 ac d5 bd d6 92 c9 3d
       0.10619308 -0.04244572 -0.104332715 0.0984246
0002b0 12 40 a8 bd c2 85 a2 bd 94 3f de bd 40 3f 62 bc
       -0.082153454 -0.079356685 -0.1085197 -0.013809025
0002c0 02 a4 a9 bd 66 f1 81 bd 28 ff c1 3d 24 b3 7a 3d
       -0.08283235 -0.06344871 0.09472495 0.061205998
0002d0 a8 1f 22 bd 2e 5c a6 bd fc 0e d8 3d 94 27 08 3d
       -0.03958097 -0.08123051 0.10549733 0.03324087
0002e0 68 32 59 bd 4c bf 44 bd f0 20 ab 3d 96 4a 9b 3d
       -0.053026587 -0.048033997 0.08355892 0.075825855
0002f0 b8 1a d4 3d 5c e5 09 3d d0 aa 56 bc a0 01 17 bd
       0.10356659 0.033666 -0.013102248 -0.036866784
000300 b2 fd 96 bd 9e 33 db 3d c2 22 8c bd 58 66 02 bd
       -0.07372607 0.107032046 -0.06842567 -0.031835884
000310 d0 5b 97 3c 60 bc 9e bb 10 8b b7 3c 7a bb f9 bd
       0.018476397 -0.0048442334 0.022405177 -0.121939614
000320 ba 88 b1 bd f0 90 7f 3d 40 8f 4d bd 4e 29 bc bd
       -0.08668657 0.062394083 -0.050185442 -0.09187566
000330 c4 f3 1e bd 00 d0 98 38 08 2d 54 bd 78 8c 91 3c
       -0.03880669 7.286668e-05 -0.051800758 0.017767176
000340 30 8c 59 bc e0 05 88 3d 3c 31 ad bd e8 a3 8a bc
       -0.013278052 0.066417456 -0.08456656 -0.01692386
000350 1c 00 e4 3d 70 01 33 bd 20 ca ff 3d 00 00 01 bb
       0.11132833 -0.043702543 0.12489724 -0.0019683838
000360 b2 96 bf bd 10 37 3c 3c 8c b6 59 3d 48 dc b4 3c
       -0.09354915 0.011487737 0.053152606 0.022077695
000370 80 6b 73 3c b6 83 94 bd a2 dc fc bd 8a d0 bb bd
       0.014857173 -0.07251684 -0.1234677 -0.09170635
000380 7c 67 81 3d b0 4c ff 3c aa aa a5 3d 80 4a 5f bb
       0.06318566 0.031164497 0.08089192 -0.0034071505
000390 0c 19 c0 bd 00 ea 66 3a b0 30 94 3d 34 b9 47 bd
       -0.09379777 0.00088086724 0.07235849 -0.048760608
0003a0 f8 dd 80 3d b2 e6 d3 bd 34 ca 15 3d 02 32 b9 bd
       0.06292337 -0.10346736 0.03656979 -0.09042741
0003b0 c0 d9 e8 bd 52 f7 86 bd 60 74 47 bc 24 b6 49 3d
       -0.113696575 -0.06590141 -0.012173742 0.04924597
0003c0 90 64 68 3d 80 a0 ec 3b 7c 3b 1b bd a0 8e f1 bd
       0.05673653 0.0072212815 -0.037898526 -0.11794782
0003d0 14 b7 ed 3d b8 cd 2c 3d 80 b1 12 bb 84 75 f7 3d
       0.11607185 0.042188376 -0.002238363 0.12082961
0003e0 70 74 fe bc 1c db 6d bd 12 ec b6 bd 78 96 89 bc
       -0.031061381 -0.058070287 -0.089317456 -0.016795382
0003f0 e0 88 e4 3c e0 a7 03 bc b0 cb 88 bc ee 02 bb 3d
       0.027897298 -0.00803563 -0.016698688 0.09131418

onnx::LSTM_194 f4 [1, 256, 64]
000000 c0 58 3b 3d 4c 5b 3f bd e0 77 4c 3c 7c c3 6e bd
       0.045738935 -0.046717927 0.012479752 -0.058291897
000010 9c e9 cb bd 94 22 27 bd 12 92 eb bd 40 65 a8 3d
       -0.09956667 -0.04080446 -0.1150247 0.08222437
000020 7a 9f eb bd e4 c0 91 3d ec bf 67 bd c4 37 b8 3d
       -0.11505027 0.07116869 -0.056579515 0.089950114
000030 80 54 6a bb 70 d0 b6 3c e4 b4 ee bd c8 d8 42 bd
       -0.0035755932 0.022316188 -0.11655596 -0.04757002
000040 b0 64 87 bc 30 52 7a 3d 44 eb a5 3d 16 3a 93 3d
       -0.016527504 0.061113536 0.08101514 0.071888134
000050 60 82 de 3d c4 fd 0e 3d b0 c1 1f 3d 40 d4 d1 3b
       0.10864711 0.03490998 0.039003074 0.006403476
000060 36 e6 81 3d 30 e5 1c 3c a8 a9 9b 3d 74 33 6e bd
       0.063427374 0.009576127 0.07600719 -0.05815454
000070 50 92 6c 3c 10 9c a2 3d d0 af 2f bc 18 c4 4f 3d
       0.0144391805 0.07939923 -0.010723069 0.05072412
000080 00 48 5d 3c 14 34 22 3d 88 ac f8 bc 54 a1 d6 bd
       0.013505936 0.039600447 -0.030355707 -0.1047999
000090 02 69 e6 bd 00 34 92 bd 18 14 66 bd 1c ce 72 3d
       -0.112504974 -0.071388245 -0.056171507 0.059278592
0000a0 46 ab e4 bd 00 34 e4 bb fc 60 62 bd 06 23 b6 bd
       -0.1116548 -0.0069642067 -0.055268273 -0.08893399
0000b0 7a 50 ae 3d 6c 1e a5 bd 6e 88 ac bd e8 b5 94 3c
       0.085114434 -0.08062443 -0.084244594 0.018153146
0000c0 ec 9b 64 bd 8e e0 8f 3d 0c 4f f2 bd 7c 20 cf 3d
       -0.05581276 0.07025252 -0.11831483 0.10113618
0000d0 d2 87 a0 3d 30 3c 2b 3c 6a 77 87 3d ec 00 42 3d
       0.07838406 0.010451362 0.06614573 0.04736416
0000e0 c8 2d a2 bc 90 9a 10 3c 0c 8d 2c bd 7c 28 51 bd
       -0.01979722 0.008825913 -0.0421267 -0.051064
0000f0 76 99 8f bd 18 84 4d 3d 86 85 81 3d 2c 85 d7 3d
       -0.07011692 0.050174803 0.06324296 0.105234474
000100 c0 a9 9a bd d8 f7 ab bc 78 35 43 bd 64 e1 0a 3d
       -0.075519085 -0.020992205 -0.047658414 0.033906356
000110 ce cf a7 bd 58 e7 86 3c fc 16 54 bd 32 44 df 3d
       -0.081939325 0.016467735 -0.051779732 0.10901679
000120 c4 e2 03 bd c8 b2 99 bd 80 79 54 bb 9e e6 d4 3d
       -0.032198682 -0.07504803 -0.0032421052 0.10395549
000130 04 f5 bd bd 40 2c 6c 3b 88 f4 d6 3c 94 1b f1 3d
       -0.09275249 0.0036037117 0.026239648 0.11772838
000140 20 91 fc bd 16 18 9d bd 84 98 b2 bd 4a 4c 8e 3d
       -0.12332368 -0.0767061 -0.08720496 0.06948145
000150 e0 3c 6b bc fc 64 fa 3d 24 fd f6 bd 00 73 0f bd
       -0.014357775 0.122262925 -0.120600015 -0.035021782
000160 9c 92 56 bd f6 ce dc bd 40 3e ce bd 72 8e ba bd
       -0.05238591 -0.10781662 -0.10070467 -0.091092005
000170 f8 b5 38 bd 0a 6d e3 bd 7c 40 ce bd 80 44 59 bc
       -0.045095414 -0.11104782 -0.10070893 -0.013260961
000180 80 6c a8 bd ea f7 b1 3d 30 2d 4c bd f8 bb 20 3d
       -0.0822382 0.08689864 -0.04984778 0.03924176
000190 f6 5f b2 bd 38 df ad bd 00 35 82 3d 16 ec 9b bd
       -0.08709709 -0.08489841 0.06357765 -0.07613389
0001a0 40 ff 5c bc c0 79 f0 3c 9c 12 7a 3d 70 67 7e 3d
       -0.013488591 0.02935493 0.061052904 0.062110364
0001b0 52 24 d7 3d ac d6 fe bd 80 af f2 bc de b9 ea 3d
       0.105049744 -0.12443289 -0.0296247 0.114612326
0001c0 ae 7b b4 3d 6c f6 0d bd e0 51 6d 3d 0c 66 b6 3d
       0.088126525 -0.034658834 0.05793941 0.08906183
0001d0 70 41 1b bd f8 f3 ec 3d c0 d2 0b 3c 40 71 b8 3b
       -0.037904203 0.11569971 0.008534133 0.005628735
0001e0 70 15 71 bc 28 b4 c1 bc 58 f1 12 3d 94 1b 3d bd
       -0.014714584 -0.023645476 0.035874695 -0.04616888
0001f0 18 63 6f 3d ea af b9 bd c0 5c 24 3c cc ac af bd
       0.058444113 -0.09066756 0.010031879 -0.0857788
000200 00 8f 1a 3a 02 b5 da 3d 76 0c ef bd b0 dc 3c bc
       0.00058959424 0.10679056 -0.116722986 -0.011527225
000210 e8 c9 e5 bc 22 cc 94 3d 48 29 1e 3d 60 a4 98 3d
       -0.028050378 0.07265498 0.038613588 0.07453227
000220 62 cb bd bd 40 3d ae bb 1c f0 a0 bd 7c 2c 36 3d
       -0.09267308 -0.00531736 -0.07858297 0.044476017
000230 c0 5e b2 bc 1c 16 14 bd 20 4a 00 bd 34 bf 7c 3d
       -0.021773696 -0.036153898 -0.03132069 0.061705783
000240 b4 54 a5 bd 70 29 eb 3d fa e4 fe 3d 06 a2 91 bd
       -0.080727965 0.11482513 0.124460176 -0.07110982
000250 e4 7f 97 3d 7c ba e6 3d 38 f1 d1 3c c6 6a c4 bd
       0.0739744 0.11266038 0.025627717 -0.09590678
000260 36 1d c6 bd c6 80 8c bd c0 50 4d 3c e8 ac bd bd
       -0.0967354 -0.06860499 0.012531459 -0.09261495
000270 00 d8 f7 bd 32 75 f6 3d 74 2b 7a bd d0 51 0f bc
       -0.121017456 0.12034072 -0.061076596 -0.008747533
000280 2a f7 8d bd 1c 01 35 3d 68 8e f0 bd d8 ab 82 bc
       -0.069319084 0.04419051 -0.11745912 -0.015951082
000290 f8 82 b6 bc 26 22 d6 3d 38 58 df bd 58 82 8f bc
       -0.022279248 0.10455732 -0.10905498 -0.017518207
0002a0 48 32 a7 bc 58 c6 61 3d 88 6c d5 bd f0 c1 03 bd
       -0.020409718 0.055120796 -0.10421091 -0.032167375
0002b0 14 a5 1e 3d 00 4a a9 b9 00 24 b7 3d 98 e0 5e 3d
       0.03873165 -0.00032289326 0.08942413 0.054413408
0002c0 36 1d e7 bd 54 58 9d 3d e0 81 d8 bb 22 b3 de 3d
       -0.112848684 0.07682863 -0.006607279 0.108740106
0002d0 c2 e8 b0 bd 70 e9 6e 3c 84 90 7b bd 7c bb bf bd
       -0.08638145 0.014582023 -0.061417118 -0.09361932
0002e0 b0 dc 0e 3c f8 ef b7 bd e4 f3 7e 3d ac 40 23 3d
       0.008719608 -0.08981317 0.06224431 0.039856598
0002f0 18 4a cf bc c2 11 ee bd 48 be d5 bd 0c 18 28 3d
       -0.025303885 -0.11624481 -0.10436684 0.041038558
000300 d0 10 7c 3d 54 93 dc 3d 10 65 51 3c 0e 53 ce bd
       0.06153947 0.10770288 0.012780443 -0.10074435
000310 60 de df bc fc 7f 0d 3d 66 32 c1 3d 10 e0 5f 3d
       -0.027327716 0.034545884 0.09433441 0.054657042
000320 42 3c f4 3d f2 d2 b9 bd b0 81 e4 bd b4 c2 c4 bd
       0.11925556 -0.09073438 -0.111575484 -0.09607449
000330 48 50 ad bc 00 a3 e8 ba 46 3e f8 3d f8 b1 96 bd
       -0.021156445 -0.0017748773 0.12121253 -0.073581636
000340 10 87 d9 bd d0 f9 b7 bc 14 b0 91 bd 2c 0c 2f bd
       -0.10621464 -0.022457987 -0.07113662 -0.042736217
000350 40 89 f3 3c f0 2e 1e bc 2e 39 f0 bd c0 13 2c bc
       0.029728532 -0.009654745 -0.11729656 -0.010502756
000360 42 d0 bc bd cc 12 47 bd c0 af ac 3d 18 1e 84 bc
       -0.092194095 -0.04860191 0.08431959 -0.016127631
000370 a2 ae fc 3d b0 7d d3 bc 60 72 aa 3b 9c 50 42 bd
       0.12337996 -0.025816768 0.005201623 -0.047440156
000380 c0 75 d8 3d fc a6 ee 3d b0 1b b0 3c 1e 34 ae bd
       0.10569334 0.116529435 0.021497577 -0.08506034
000390 88 41 a7 3c 2c b9 e3 3d 8a bb f3 bd f0 b9 cc 3d
       0.02041699 0.11119303 -0.119010046 0.09996402
0003a0 78 c7 a3 bd d4 b2 6b bd aa 20 bd bd e8 ca a0 3c
       -0.0799703 -0.05754359 -0.09234746 0.019628003
0003b0 4a 5e eb bd 08 e0 8c bd 00 6e 3d 3d d8 17 24 3d
       -0.114925936 -0.06878668 0.046247482 0.0400618
0003c0 c0 a4 df 3c 8a bd b9 3d da 49 e7 3d 80 11 f2 3b
       0.027300239 0.09069355 0.11293383 0.00738734
0003d0 b6 a5 ff bd e8 ec f9 3c 92 4e bf 3d 84 11 e7 3d
       -0.12482779 0.030508474 0.09341158 0.11282638
0003e0 68 1a de bd 68 e8 d9 3d 74 fb 42 3d c8 9d 78 bd
       -0.1084488 0.10640031 0.047603086 -0.060697347
0003f0 c8 69 f8 3d f0 9d 46 bd 18 76 4c bd 20 47 fb 3c
       0.12129551 -0.048490465 -0.04991731 0.030673563

onnx::LSTM_195 f4 [1, 512]
000000 e0 87 ad bb 02 e3 f8 3d 88 5d f2 bd 54 86 46 3d
       -0.0052957386 0.12152673 -0.11834246 0.04846795
000010 78 eb fc 3d e8 f7 3b bd 84 56 2e 3d 30 79 1e bc
       0.123495996 -0.04589072 0.042562976 -0.009672448
000020 98 b0 ec bd 44 d5 b4 3d c4 49 46 bd ce 99 a9 3d
       -0.1155712 0.0882974 -0.048410192 0.08281289
000030 00 92 66 bd 52 09 ff 3d 30 a4 7f bd 32 12 b6 bd
       -0.05629158 0.124529496 -0.06241244 -0.08890189
000040 d4 e1 a7 3d 3c 64 c9 bd 48 73 55 bd 84 d3 2e 3d
       0.0819737 -0.09833571 -0.052111894 0.042682186
000050 2c 7e f5 bd be a8 b7 3d 76 7a d0 3d ec ce 31 bd
       -0.11986956 0.08967732 0.101796076 -0.043410227
000060 a2 98 f5 bd e4 95 da 3d c8 43 f7 3d 82 04 98 bd
       -0.11992003 0.106731206 0.12073475 -0.07422735
000070 40 2a 3d bd 50 7b 8c 3c 0a 72 b5 3d 84 96 3c bd
       -0.04618287 0.017148644 0.08859642 -0.04604198
000080 66 9e f5 3d e0 a1 97 bb d0 5f c8 3c d0 ae 5a 3d
       0.11993103 -0.0046274513 0.02445975 0.05338937
000090 00 d0 ea bd b0 fd 9c bc 00 8a 02 ba a0 cc cb 3d
       -0.11465454 -0.019163936 -0.000497967 0.099511385
0000a0 60 aa 1c bc f0 3d 3d bc 94 0f 55 bd ac fe 41 bd
       -0.009562105 -0.011550412 -0.05201681 -0.047362015
0000b0 7c 68 9a 3d 80 29 62 bb ea 17 c2 bd 7c 34 31 bd
       0.0753946 -0.00345096 -0.094772175 -0.043262944
0000c0 ea 51 ba bd ac 02 fe bd c0 fc ec 3b 00 3e 39 3c
       -0.09097655 -0.12402853 0.0072322786 0.011306286
0000d0 e0 63 d5 bb 58 42 f6 3c 9c f4 83 3d c0 2b 2d bd
       -0.00651215 0.030060932 0.0644314 -0.04227805
0000e0 20 7c a5 3d f6 bc c4 3d 52 84 8d 3d 4e 97 cd bd
       0.080803156 0.09606354 0.06910004 -0.10038625
0000f0 38 6f cb 3c e8 56 bc 3c ae 4e b4 bd 66 12 c6 bd
       0.024833307 0.022990659 -0.088040695 -0.09671478
000100 80 ed 9f 3b 28 f3 e1 bc 90 c8 2b bc 0c a9 8e 3d
       0.004880607 -0.027581766 -0.01048483 0.06965837
000110 de 6e ab bd 60 06 60 bd 3a 9a a3 bd 40 c8 04 bb
       -0.083707556 -0.05469358 -0.07988401 -0.002026096
000120 58 c1 5e bd 60 87 e4 bb 2c f5 29 3d 14 a0 0d bd
       -0.054383606 -0.006974146 0.04149358 -0.03457649
000130 c0 c3 6d 3d a0 b3 ce 3c 34 ae 1b bd 00 7f 6a 3a
       0.05804801 0.025232136 -0.03800793 0.0008945316
000140 56 6b c3 3d 58 7a 13 bd e8 07 9a bc 20 93 e9 3d
       0.09541957 -0.036005348 -0.018802598 0.11405015
000150 64 03 eb 3d 2c 29 95 bd 50 36 7b 3c 30 18 f5 3c
       0.11475256 -0.072832435 0.015332773 0.02991876
000160 6a 78 ba bd f6 9e e1 3d 80 3d 64 3c 98 5b f7 bc
       -0.091049984 0.110166475 0.013930678 -0.030195042
000170 dc a5 80 bd 46 ed ba 3d b0 00 90 bd 84 dc 85 3d
       -0.06281635 0.091272876 -0.07031381 0.06536201
000180 00 e2 7e ba c0 d5 5c bd 3c 2e e8 bd 90 fe 9d bc
       -0.00097230077 -0.053914785 -0.113369435 -0.019286424
000190 86 68 ca 3d c8 53 d3 3c 18 a6 a0 3d 64 4e 1f bd
       0.098832175 0.025796786 0.0784418 -0.03889312
0001a0 b4 aa 1a 3d 16 c3 b5 3d 80 f5 46 bc b4 1a 9a bd
       0.03776045 0.088751 -0.012143493 -0.075246245
0001b0 e0 35 f4 3c 80 a2 5f bb d8 19 b1 3d 08 a2 52 bd
       0.029810846 -0.0034123957 0.086475074 -0.051424056
0001c0 5e e8 bc 3d 04 2a 86 bd ea fb cd 3d b8 bd be bc
       0.09224008 -0.065509826 0.100578144 -0.023283824
0001d0 78 9a 44 3d 36 6f bc bd 3e 24 da bd 74 86 a8 bd
       0.047998875 -0.09200899 -0.10651444 -0.0822877
0001e0 d4 a8 21 3d 30 a9 2f 3c 02 d5 de bd cc d1 51 3d
       0.039467648 0.01072149 -0.10880472 0.05122547
0001f0 58 09 c3 bc e0 b0 62 3d f8 dc ee 3c c2 b5 8e bd
       -0.023808166 0.055344462 0.0291581 -0.06968261
000200 54 56 5d 3d 32 5f 91 3d f0 b0 df bd 8c 16 b2 bd
       0.054037407 0.07098235 -0.1092242 -0.08695707
000210 a4 e1 83 bd aa b2 9c 3d e4 bd af bd 4c 4b 78 3d
       -0.06439522 0.07651265 -0.08581141 0.060618684
000220 48 64 c7 bc b8 fc f3 bd 14 9b ba bd 92 4a a9 3d
       -0.02433981 -0.11913437 -0.0911161 0.08266176
000230 d0 71 f2 bd 90 94 11 bc f0 e8 b7 bc 02 71 e5 3d
       -0.11838114 -0.008885518 -0.02244994 0.11203195
000240 42 a3 d6 3d 68 d0 db 3d f8 bd 38 3d 54 21 63 bd
       0.10480358 0.1073311 0.045103043 -0.055451706
000250 a6 45 c8 3d 34 05 b6 bd 50 f8 f9 bc 0c 98 78 3d
       0.097789094 -0.08887711 -0.030513912 0.06069188
000260 da 70 8f 3d 68 c6 71 bd 30 a3 4d 3c de eb b4 bd
       0.070039466 -0.059027106 0.012551114 -0.088340506
000270 58 01 70 bd ec 77 64 3d 10 87 de 3d 5e 35 ec bd
       -0.05859503 0.05577843 0.10865605 -0.115336165
000280 20 36 15 3d 9c 3d 10 3d b8 35 8a bc c0 dd 78 bc
       0.03642857 0.035215005 -0.016871318 -0.015189588
000290 80 6e 48 bc a0 3a d9 3c 80 88 bf 3c 12 15 fc bd
       -0.0122333765 0.026517212 0.023380518 -0.12308706
0002a0 90 bb 05 3c 40 c0 62 3c 20 f4 1c 3d 24 41 97 3d
       0.008162394 0.013839781 0.038318753 0.073854715
0002b0 e6 e3 96 bd 90 34 70 3c ea b2 86 3d d8 7e 01 3d
       -0.07367687 0.014660969 0.06577094 0.03161511
0002c0 3e f8 a3 bd 06 93 bb 3d c8 5c 27 3d b0 c8 07 3c
       -0.08006333 0.09158902 0.040859967 0.008287594
0002d0 04 fe 84 3d 76 6d 87 bd 58 de 93 bd 7c 5e 57 3d
       0.06493762 -0.06612675 -0.07220143 0.05258034
0002e0 e4 a8 35 bd 74 fd c2 3d d0 5d 80 bd 52 b3 d9 3d
       -0.04435052 0.095209986 -0.06267893 0.10629906
0002f0 b4 1e c6 3d 44 c6 c7 3d 90 23 98 3d f8 e7 ae bc
       0.09673825 0.09754613 0.07428658 -0.021350846
000300 02 a6 d7 3d 90 51 c4 3c 80 9c 65 bc f8 cc b9 bd
       0.1052971 0.023964673 -0.014014363 -0.09072298
000310 54 69 49 3d c0 4c 18 3c ec 27 3e 3d 66 31 88 3d
       0.049172714 0.009295642 0.04642479 0.06650047
000320 60 79 4c bd 02 5f f4 bd a0 53 a2 bb 84 1b c0 3d
       -0.04992044 -0.11932184 -0.0049538165 0.09380248
000330 d2 aa 96 3d 6c cf ca bd 00 94 2e bd 40 f7 ad 3d
       0.073568 -0.09902844 -0.042621613 0.08494425
000340 c0 b7 8d bd 60 b0 fb 3c 00 70 32 b8 64 2a 79 3d
       -0.06919813 0.03072375 -4.2542815e-05 0.060831442
000350 38 f0 68 bd 50 6b e2 3c 8a a9 b5 bd 00 ac 8c b9
       -0.056869715 0.027639061 -0.08870228 -0.0002683103
000360 68 37 bd bd 80 6a 80 3a 66 ad da bd a2 2e ad bd
       -0.092390835 0.0009797364 -0.106776044 -0.0845616
000370 72 78 d7 3d bc 12 0d bd 7c ce 2a bd 7a 3d e6 bd
       0.1052102 -0.034441695 -0.041700825 -0.112421945
000380 1c 4d 83 3d dc a2 f3 3d d4 ca be bd 34 d1 1b 3d
       0.06411192 0.11896297 -0.0931603 0.03804131
000390 84 de fc 3d e6 62 80 3d 94 8c fc bd b2 21 ab bd
       0.12347129 0.062688634 -0.12331501 -0.08356036
0003a0 26 66 f7 bd 96 89 9c 3d 62 fc f7 3d d0 6b b6 3d
       -0.1208003 0.0764343 0.12108685 0.08907282
0003b0 12 e5 9a bd 40 09 41 3c a4 b4 9e bd 26 a3 c1 bd
       -0.07563223 0.0117819905 -0.07749298 -0.09454946
0003c0 88 c3 d8 bd e0 c0 d9 3b fc a7 72 3d e0 04 92 3d
       -0.105841696 0.006645307 0.059242234 0.07129836
0003d0 40 c6 a9 bb 34 5e 96 3d 40 f7 84 3b a4 dd 92 3d
       -0.005181104 0.073421866 0.004057795 0.07171181
0003e0 1c 48 3c bd b4 01 c9 bd c8 2b d6 bd 20 56 58 bd
       -0.045967206 -0.09814778 -0.10457569 -0.05281651
0003f0 4c 28 d6 3d b8 31 d1 bc 04 60 85 3d b0 17 87 3c
       0.10456905 -0.025536403 0.06512454 0.016490787

onnx::LSTM_213 f4 [1, 256, 64]
000000 92 b1 df 3d 20 86 12 bd f8 65 93 bc 10 aa 1b 3c
       0.10922541 -0.035772443 -0.017992958 0.009500995
000010 f2 24 bd 3d 08 d5 08 be 18 8f 8c 3c 0c 0b 30 3d
       0.092355624 -0.13362515 0.017158076 0.042979285
000020 53 9a 0c 3e 36 c2 ef 3d 80 a2 75 bc 84 d7 68 bd
       0.13730745 0.11706965 -0.014992356 -0.056846157
000030 32 b1 c5 bd d4 1a c0 bd c0 b9 48 3c 40 5c 63 3d
       -0.09652938 -0.09380117 0.0122513175 0.0555079
000040 00 d1 b9 3c e0 8d a9 bd 5c d5 f2 bd e8 7c 00 bd
       0.022682667 -0.08279014 -0.11857101 -0.03136912
000050 5c e1 9a 3d 20 63 14 3c ac 34 03 3e 3c e6 ba bd
       0.07562515 0.009056836 0.12813061 -0.09125945
000060 c4 20 c8 bd fa 86 21 3e 20 fe cb bb a0 d3 ce bb
       -0.097718745 0.15774146 -0.0062253624 -0.0063118488
000070 d0 fe 00 3d 7a 5e 94 3d 48 54 97 bd d8 19 5c 3d
       0.031493008 0.072445825 -0.07389122 0.053735584
000080 7a 27 b1 bc cc 30 0f bd e0 d9 93 3d 9c ea 0b 3d
       -0.02162527 -0.034958646 0.07219291 0.034159288
000090 28 75 11 3d c4 1a fb bd 08 89 ca bc b8 72 f5 bc
       0.03551212 -0.122609645 -0.024723545 -0.029961929
0000a0 d8 26 c4 3c b8 94 fd bd bf cf 3e bd e2 5a fc 3d
       0.023944303 -0.123818815 -0.04658484 0.12322022
0000b0 73 20 9b 3d e0 74 3a 3c 00 b4 04 bb d9 b3 97 3d
       0.075745486 0.011380404 -0.002024889 0.0740735
0000c0 42 a0 ab bd d8 5c c4 bc 00 6e b7 39 c8 94 df bd
       -0.08380176 -0.023970053 0.00034986436 -0.1091705
0000d0 80 51 f2 3b a0 90 06 3d 00 32 75 3b b0 9b 51 3c
       0.0073949695 0.03285277 0.0037413836 0.012793466
0000e0 38 3f 88 bc d8 60 ff 3d 48 9e d5 bc b8 a0 34 bd
       -0.016631708 0.12469643 -0.026076451 -0.044098586
0000f0 80 53 75 3c ac d8 98 3d cb 1d 6a bd 72 8e 4d 3c
       0.014973521 0.07463202 -0.05715732 0.012546169
000100 50 15 6e 3c 08 0f 9b bd c8 e4 e6 bd 20 b1 f1 bb
       0.0145314485 -0.07571226 -0.11274105 -0.0073758513
000110 d0 1e 35 3d 6e ec 0a be 2a 22 93 3d 38 b8 c4 3d
       0.04421884 -0.13566753 0.07184251 0.096054494
000120 5d 5d 4b 3d 78 2b 17 bd ac 34 c2 3d e8 ef 08 3d
       0.049649585 -0.03690669 0.094827026 0.033431917
000130 84 74 28 bd 30 6d 45 bd 9c 21 85 bd 54 ec 61 bd
       -0.041126743 -0.048199832 -0.06500551 -0.05515702
000140 28 3f d6 bd 64 70 a3 bd 86 89 bb 3d 18 29 d6 bd
       -0.10461265 -0.07980421 0.0915709 -0.10457057
000150 bc d2 5b 3d 74 0a c9 bd 89 97 6f 3c 70 38 e7 3c
       0.05366777 -0.09816447 0.014623531 0.028225154
000160 7a 93 df 3d 46 57 7a bd f8 68 e6 3d ca a6 e0 bd
       0.10916801 -0.061118387 0.1125049 -0.109693125
000170 40 33 25 3c 30 4e bd 3c d8 44 a4 bd 08 38 71 3d
       0.01008302 0.023108572 -0.080209434 0.058891326
000180 5a 01 4b bd 6a 78 89 bd 60 29 1a bc 64 97 62 3d
       -0.049561836 -0.0671242 -0.009409279 0.05532016
000190 d0 09 b3 bd c4 9f 1a 3d ec 25 a1 3d e8 3d bf 3d
       -0.08742106 0.03775002 0.07868561 0.093379796
0001a0 e4 60 d2 bd e0 6f a8 bd ae 16 7c bd 38 96 e4 3d
       -0.10272387 -0.082244635 -0.061545067 0.111614645
0001b0 7b 30 d0 bd 82 16 ac bd 78 c8 dd 3d 32 3a 67 3d
       -0.10165497 -0.084027305 0.10829252 0.056451984
0001c0 00 0f 99 3c 44 32 85 bd d4 f9 0c bd 42 3b 82 3d
       0.01868391 -0.06503728 -0.034417942 0.06358959
0001d0 80 d7 a4 3c e0 d0 b3 3d 80 57 89 ba 98 d2 c2 bd
       0.02012229 0.08780074 -0.0010478348 -0.09512824
0001e0 10 25 47 3c b0 81 b1 3c f0 ed a4 3c de 68 f1 bd
       0.0121548325 0.021668285 0.020132989 -0.1178758
0001f0 8a d6 cc 3d f8 9d 70 3d 7a 42 e4 3c fb 54 a5 bd
       0.100018576 0.0587444 0.02786373 -0.08072849
000200 64 fb 3d 3d 10 4e 9e 3d 56 a8 b3 bd 28 24 85 bd
       0.046382323 0.07729733 -0.08772342 -0.06501037
000210 38 4d 9e bc c3 42 20 be f0 0d 24 bd cc 17 0c 3d
       -0.01932393 -0.15650468 -0.040052354 0.034202382
000220 06 ba 96 bb fe eb 9c bd 54 ec 39 bd c4 2e a5 bd
       -0.0045998124 -0.076621994 -0.045391396 -0.080655605
000230 26 a1 af 3d 5c 40 0e 3d 20 8f 09 bd 40 3b 17 bc
       0.085756585 0.034729347 -0.03358376 -0.009230435
000240 94 68 f9 bd 6c f3 81 bd d0 ad d9 3c 68 5c 7f bd
       -0.1217815 -0.06345257 0.026572138 -0.062343985
000250 e4 92 d8 3d c2 00 f8 bd a1 7a 1f 3e 74 41 84 3d
       0.10574892 -0.121095195 0.15574123 0.06457797
000260 54 cd b1 bd 3b 4a 9b bd 00 3b 57 3d 70 86 99 bc
       -0.08681741 -0.07582518 0.0525465 -0.018740863
000270 e4 4b aa 3d 12 d4 80 3d 08 34 f9 bd 98 5e 84 bc
       0.08315256 0.06290449 -0.12168127 -0.016158387
000280 4b 96 14 be 24 b7 e7 bd 6e 56 dc bd 4a f4 bd bd
       -0.14510457 -0.11314228 -0.10758673 -0.0927511
000290 90 c5 53 3c 20 f6 61 3d c8 2d f4 3c 90 5b 0f bc
       0.012925521 0.055166364 0.029806986 -0.008749858
0002a0 b8 76 97 3d 98 7b b7 3d 51 43 77 bd 30 25 9c 3d
       0.07395691 0.089591205 -0.060366932 0.076242805
0002b0 98 9c a9 bd 96 5a 84 3d e6 be 80 bd fb 91 9b 3d
       -0.08281821 0.064625904 -0.06286411 0.07596203
0002c0 24 24 37 3d 78 62 05 3d 26 26 84 3d 10 35 de bd
       0.0447122 0.03256461 0.06452589 -0.108499646
0002d0 a4 1f ef 3d 80 5e 93 3a 00 09 a9 bc c8 f3 c4 bd
       0.11675957 0.0011243373 -0.020634174 -0.0961681
0002e0 7c f8 e7 bd d0 2f 90 3d 0a 45 f6 3d b4 76 68 bd
       -0.113266915 0.070403695 0.12024887 -0.05675383
0002f0 90 8d 55 3c a0 6d b7 3c a7 d6 10 3e 11 6b ca bd
       0.013034239 0.02239114 0.14144383 -0.098837025
000300 e4 44 5d 3d 2c 47 3c 3d 3a fa 8e 3d 7c 20 86 3d
       0.054020777 0.045966312 0.06981321 0.06549165
000310 fc da 49 bd 4d 18 60 bd ea c2 dc 3d 80 64 d2 3c
       -0.049281105 -0.054710675 0.107793644 0.025682688
000320 64 31 9e bd 44 2f 88 bd a2 da e7 bd 8c 7f dd 3d
       -0.07724264 -0.0664964 -0.11320998 0.10815343
000330 48 83 ab 3d 24 05 31 3d 18 27 86 3c 3c f6 af bd
       0.08374649 0.043217793 0.016376063 -0.08591887
000340 1c 47 cb bd a0 4b e8 3c 7c 59 38 bd 8a 58 c6 bd
       -0.099256724 0.028356373 -0.045007214 -0.09684856
000350 dc 5b 22 3d e0 84 30 bd bc 49 94 bd 8e 14 db bd
       0.039638385 -0.04309547 -0.07240626 -0.1069728
000360 aa a2 a3 bd cb d0 a0 bc 40 d0 e2 3d 32 22 84 bd
       -0.0799001 -0.01963081 0.11074877 -0.06451835
000370 9e 30 e7 bd 62 4c b3 bd 98 a5 b9 bd d0 a5 8e bc
       -0.1128857 -0.08754803 -0.090647876 -0.01741305
000380 62 a5 54 bd 0a ec bc bd 00 cc 29 bd b4 3d 6b bd
       -0.051915534 -0.092247084 -0.041454315 -0.05743189
000390 40 05 ee bd 80 71 b5 3d f8 bf a9 3c 36 49 e8 bd
       -0.11622095 0.08859539 0.02072142 -0.11342089
0003a0 a2 7d a7 bd 28 61 c2 3d b4 1b 91 bc a6 67 c3 3d
       -0.081782594 0.09491187 -0.017713405 0.09541254
0003b0 02 4d 8f 3d 4a b0 e1 3d 38 40 c2 bd 52 ae b9 bc
       0.0699711 0.110199526 -0.09484905 -0.02266613
0003c0 0c 66 ed 3d 00 d9 23 3b c8 8c 20 3d 8a 19 ab 3d
       0.115917295 0.0025001168 0.03919676 0.083544806
0003d0 e0 ba 69 3c d4 58 c1 3d 44 42 1e bd ba c1 e1 bd
       0.014265746 0.09440771 -0.038637415 -0.110232785
0003e0 bc b3 89 3d 10 a3 2d bc 20 46 89 bd 0a c2 c4 bd
       0.06723735 -0.010597959 -0.067028284 -0.096073225
0003f0 94 38 fd 3d 20 89 69 bc a0 6f 8e bd 44 ea 9b bd
       0.12364307 -0.014253885 -0.069548845 -0.07613042

onnx::LSTM_214 f4 [1, 256, 64]
000000 46 e4 29 3d 37 08 02 3d 92 bd 69 bd 3b 65 a0 bd
       0.041477464 0.031746116 -0.057065554 -0.07831808
000010 4a f8 da 3b d7 b2 bc 3d d6 04 86 bd 63 fa 20 3e
       0.0066824304 0.092137985 -0.06543891 0.15720515
000020 7b 3f f6 bd 1e 28 b0 bd c7 f3 13 be b5 e5 e7 3d
       -0.12023827 -0.08601402 -0.14448462 0.1132311
000030 eb 95 45 bd 1d 19 ae 3b f4 db 03 bc 1e 0e 17 3e
       -0.048238676 0.0053130523 -0.008048046 0.14751479
000040 16 e2 59 bd 3c d7 15 bd 37 fb c6 3d 37 85 1b 3e
       -0.053194128 -0.036582217 0.09715884 0.15187536
000050 a6 e8 5f bd 6c d3 18 3e 96 ad a9 3d 40 ae c5 bc
       -0.05466523 0.14924401 0.08285062 -0.02413094
000060 e9 03 57 3d c2 18 09 3e 65 5f 34 bd 50 7d 60 3d
       0.052493963 0.1338835 -0.044036288 0.054807007
000070 c6 d3 e3 3d 42 47 9a bb 98 e9 ac 3d 30 d4 83 bd
       0.11124377 -0.0047082016 0.08442992 -0.06436956
000080 60 1f 29 3c f0 d3 33 bd d3 ca a8 3c 22 4d 22 3c
       0.010322422 -0.04390329 0.020604527 0.009906085
000090 cb bc 40 bd 7b bc 8c 3d 2d 14 02 bd dd ed d0 3d
       -0.047055047 0.06871887 -0.031757522 0.10201619
0000a0 13 1e 0d be 70 08 1b bd 2c bc 32 bd a9 c8 20 3b
       -0.13781004 -0.037849844 -0.043636486 0.0024533665
0000b0 24 b8 4f bb 8b 01 03 3d 7b e0 c0 bd de 0d 93 3b
       -0.003169545 0.031983893 -0.09417816 0.004487737
0000c0 fe a1 24 bd 20 d4 a0 bd d8 e2 ed bc eb b6 13 3d
       -0.04019355 -0.0785296 -0.029038832 0.036063116
0000d0 18 a6 d9 bd 15 1e c8 3d b8 f4 18 bd 1d b4 88 bd
       -0.10627383 0.09771363 -0.037342757 -0.06674979
0000e0 62 53 18 be bb 3a b3 bd 4c 27 d8 bb f1 09 ff 3d
       -0.14875558 -0.08751436 -0.0065964814 0.12453068
0000f0 7f 4f b1 bd 23 ff 9a bd b5 d0 04 3c 81 c2 67 bc
       -0.08657741 -0.07568195 0.0081064 -0.014145494
000100 b3 f4 97 3d 49 5c 40 bd 74 ee 79 3c 4d 71 93 bd
       0.074197195 -0.04696301 0.015254606 -0.07199345
000110 eb df af 3d 0d 02 f4 3d 76 ab f6 3d e8 9e f3 3d
       0.08587631 0.11914454 0.12044422 0.11895543
000120 a2 29 92 3c 74 17 db 3c 4f 44 be 3d 96 a6 4d 3c
       0.017842118 0.026744582 0.092903726 0.012551924
000130 60 ce d5 bd ff 89 8f bc f5 fe 96 bc 03 f9 96 bd
       -0.104397535 -0.017521856 -0.01843212 -0.07371714
000140 c7 83 17 be d0 7a 90 3d 2c 77 e1 3d 87 03 75 bd
       -0.14796363 0.070546746 0.11009058 -0.059817817
000150 7f ec 9a 3d 2c 8c 01 3e 4c 98 27 3c 35 7b f6 bd
       0.07564639 0.12651128 0.0102291815 -0.120352186
000160 b6 81 8d bd 98 e2 9a 3d db 9c e2 bd d0 b7 8b bd
       -0.06909506 0.075627506 -0.11065074 -0.06822169
000170 30 91 91 3d bf 02 f1 3d 39 f3 d8 3d 2d 3e 48 3d
       0.071077704 0.11768102 0.10593266 0.04888742
000180 1d 96 1f 3d 2a 54 5c bb 84 bb f6 3d 85 6a 2d 3d
       0.03896152 -0.0033619502 0.120474845 0.042337913
000190 53 8c 9c bb 2b 45 f4 3b c5 98 ba bc b3 00 c8 3d
       -0.00477747 0.0074545345 -0.022777924 0.09765758
0001a0 65 01 a5 3b 33 3b 6f 3d 0e f4 0d bb a1 8a e9 bd
       0.0050355666 0.058406066 -0.002166036 -0.114033945
0001b0 e2 c1 0b 3c 26 e7 46 3d b3 c3 c1 3d fc a7 84 3b
       0.008530112 0.048560284 0.09461155 0.0040483456
0001c0 d4 95 f1 3d 43 08 96 3d d5 a2 d9 3c 36 8a 99 3d
       0.117961556 0.073257945 0.026566902 0.07497065
0001d0 b1 6a 32 3c 52 4e c2 3d 87 30 76 3d b6 db 9a 3b
       0.010889695 0.09487595 0.060104873 0.0047258986
0001e0 7a fa ed 3c 1e 25 57 3c 60 09 14 be d7 fd cc bd
       0.0290501 0.013131408 -0.14456701 -0.100093536
0001f0 e1 ee 00 be 96 5b a7 3d af a2 9d bd c6 46 f8 bd
       -0.12591125 0.081717655 -0.07697045 -0.12122874
000200 95 fa 19 be 18 1c ba bd e9 8b 6a bd 21 f3 9c bd
       -0.15036996 -0.0908739 -0.057262335 -0.07663561
000210 4e a2 48 bd 81 0c 31 bc 3d 52 31 3b 78 a3 84 bd
       -0.04898291 -0.010806204 0.0027057074 -0.06476492
000220 8d e5 86 3d 5e 8d 41 3d 0e d1 fc bd ca 27 cd 3d
       0.06586752 0.04725396 -0.123445615 0.10017355
000230 33 d8 57 3d c2 83 04 be c9 76 31 3d be 43 ad 3d
       0.052696418 -0.12940887 0.043326173 0.084601864
000240 c3 36 02 be db 7e fe 3d 5e 6d d4 bd b8 44 f0 3d
       -0.12716202 0.124265395 -0.10372423 0.11731857
000250 5f 04 95 bd c1 48 ac 3c bc 6d 13 be 5d 34 3f 3d
       -0.07276224 0.021030786 -0.14397329 0.046680797
000260 ab 83 c9 bc 35 a8 47 bd 95 8b f2 bc 3b 6e 30 bd
       -0.024598917 -0.0487444 -0.029607574 -0.043073874
000270 0a d6 c0 3c 38 6b e8 3d 3d 48 10 3e 79 55 1d 3e
       0.023539562 0.11348575 0.14090057 0.15364636
000280 84 d7 d4 3c a7 e3 ca 3a f7 be e9 3d 0f 97 f5 3d
       0.025981672 0.0015479223 0.11413377 0.11991703
000290 37 29 a8 3d c9 6b 8e bd ae 3d 0b 3e 4c 73 1b 3e
       0.08210986 -0.06954152 0.13597748 0.15180701
0002a0 76 25 96 bd 75 64 91 bd 21 ab bb bd 4e cd e2 bd
       -0.07331364 -0.07099239 -0.091634996 -0.11074315
0002b0 22 ae b9 bd 9b a2 c7 3c 8d 27 01 bc 7d db 75 3d
       -0.09066416 0.024369529 -0.007882965 0.060023773
0002c0 a7 95 b5 3d a9 0d 3b bd 1f 2e 0d 3d 92 d9 1f 3e
       0.088664345 -0.045667324 0.034467813 0.1561034
0002d0 61 b7 d3 3d 55 5c 8e bd 3a ba f8 3d 80 de a3 bd
       0.10337711 -0.06951205 0.12144895 -0.08001423
0002e0 fd 4f 09 be 7e c6 df bd 35 fc af bd d4 52 46 bd
       -0.1340942 -0.10926531 -0.085930265 -0.048418835
0002f0 02 3f 9b 3d b3 66 91 3d 5e 6d df bb 25 79 6c bd
       0.07580377 0.070996664 -0.0068184575 -0.05773272
000300 60 0e 8f 3d 53 c6 08 3e 9c 39 34 3d 07 41 eb bd
       0.06985164 0.13356905 0.044000253 -0.11487012
000310 44 07 38 3b b2 79 49 3d ad 14 01 3d de a3 1a 3e
       0.0028080503 0.049188323 0.03151386 0.15101573
000320 d7 31 13 bd d8 26 2b 3d 3e 81 5b bc 5d a4 b6 bd
       -0.035936203 0.04178509 -0.013397513 -0.089180686
000330 2a 71 c5 3c be 3e a7 bd aa 3b ec 3a 53 64 31 3c
       0.024101812 -0.08166264 0.0018023152 0.010827142
000340 61 b1 ec bd be 24 cf 3b 36 43 8b bd 6a 7d f6 3d
       -0.1155727 0.0063215187 -0.06799929 0.120356396
000350 ec 1b d4 3c 0f 69 c3 bc fd bc 3a 3b 1c 63 90 3c
       0.02589222 -0.023853807 0.0028493993 0.017625384
000360 0b a7 ba bd e0 5c 60 3d b2 0a 80 3c 10 c0 19 bd
       -0.09113892 0.054776073 0.0156301 -0.03753668
000370 5f d6 a7 3d 88 e5 54 3c 2c b1 47 bd 2d 6c 5a 3d
       0.08195185 0.012994178 -0.04875295 0.05332582
000380 da 28 64 bd ad 17 5b 3d ff 66 04 bd d8 82 e3 3c
       -0.05570302 0.053489376 -0.032324787 0.027772352
000390 af 20 5c 3d c6 fc f4 3d 86 46 a9 3b f9 54 69 bd
       0.053742107 0.11962275 0.0051658778 -0.056965802
0003a0 4c ae 04 3d 61 2b ef bd ef f4 3c 3c 26 e3 2a 3d
       0.032392785 -0.11678196 0.011533006 0.041720532
0003b0 45 4a 4d bd 16 8b 91 bc dc 57 f1 3d f3 7d c8 bd
       -0.050119657 -0.017766517 0.11784336 -0.09789648
0003c0 29 6b 1d bc 68 53 e1 3b e5 62 c7 bd ca c4 d7 bc
       -0.0096080685 0.006876398 -0.097356595 -0.026338954
0003d0 0e 0b 98 bd 3e d8 4b bd ec 92 83 bd 7b 43 ef bc
       -0.074239835 -0.04976677 -0.064245075 -0.029206982
0003e0 0f 47 45 bd 4a ec b0 bd 22 a8 a9 bd bd 4c 1b bd
       -0.04816347 -0.086388186 -0.08284022 -0.03791498
0003f0 29 94 41 3d 95 5f b8 3d 45 e3 44 bb 1d 41 2c bd
       0.047260437 0.09002606 -0.003004269 -0.042054284

onnx::LSTM_215 f4 [1, 512]
000000 ac 28 78 3c 58 57 7b 3d 9f 03 18 3e 48 df e4 3d
       0.015146416 0.061362594 0.14845131 0.111754
000010 05 69 5e bd a8 4b b6 bb 8c 16 79 bd 2e a1 15 bd
       -0.054299373 -0.005563218 -0.060812518 -0.036530666
000020 7d 2b 12 3e ea af ae bd cd a8 c5 bb 3a 94 08 3e
       0.14274402 -0.08529647 -0.0060320855 0.13337794
000030 28 5d 16 3e c8 5b 79 3c b1 1a 26 3d dc b4 5a bc
       0.14683974 0.015219636 0.0405528 -0.013348784
000040 cf c1 0d 3d 8d 72 78 bd 1d 8e bf 3d a0 4d 45 3c
       0.03460866 -0.06065612 0.09353278 0.012042433
000050 79 06 d2 3d 7d 3e b6 3c a9 a9 27 3e 6f 6b cb 3d
       0.10255141 0.022246594 0.16373314 0.09932601
000060 7f 36 38 3d e4 16 21 3d 79 90 f0 bb 7f 2f 16 bd
       0.044973847 0.03932847 -0.007341441 -0.03666639
000070 a5 90 49 3d 9e 72 10 3e 54 41 90 3d fc 9a 96 bd
       0.04921021 0.14106223 0.0704371 -0.0735378
000080 50 53 e1 3c 8b 67 8b 3d b5 44 e4 3d 98 88 1e 3e
       0.027505547 0.06806859 0.11145917 0.15481794
000090 0a ae 13 3e 02 88 bd 3b 02 89 bb bd 3f 13 48 bc
       0.1442186 0.0057840357 -0.091569915 -0.01221162
0000a0 02 f1 e5 3d 32 1c 91 3d 77 d6 90 3d 21 e0 e1 3d
       0.11227609 0.07085456 0.07072156 0.11029077
0000b0 2f e9 97 bd 77 df 5b 3c 41 98 d1 bd 88 ab 60 3d
       -0.07417523 0.013419977 -0.10234118 0.054851085
0000c0 20 11 51 bd 27 15 ef 3d b2 d2 46 bd 68 32 0e 3e
       -0.051041722 0.11673956 -0.04854078 0.13886416
0000d0 b9 46 ed 3d 8a 03 0e 3e 5d 12 87 bd 40 16 f0 3d
       0.11585755 0.13868538 -0.065952994 0.11722994
0000e0 80 cc 55 bd 5d 19 97 bd 95 1d 93 3d 1a 38 19 bd
       -0.05219698 -0.073778845 0.07183377 -0.03740702
0000f0 50 d5 f4 bc 5b f1 60 bd ef e0 bf 3d 25 a3 ee bc
       -0.029886872 -0.054917675 0.093690746 -0.029130528
000100 d2 e8 49 3e a9 2f 2c 3e 3e 88 c4 3d 1c f5 3d 3e
       0.1971772 0.16815056 0.09596299 0.18550533
000110 9f 5e 33 3e 05 80 fe 3d 73 82 08 3d 36 47 ea 3d
       0.17516564 0.124267615 0.03332753 0.11439364
000120 03 97 2c 3e 73 1a 36 3e 24 34 52 3c 0a e2 59 bc
       0.16854481 0.17783527 0.012829814 -0.013298521
000130 b3 b6 1a 3e 44 8b e3 3d 8f 19 3a 3e 77 9c d2 bc
       0.15108757 0.11110547 0.18173812 -0.025709374
000140 85 49 f6 3d e1 33 86 3d e9 ec 47 3c ae 02 a5 bc
       0.120257415 0.06552864 0.01220248 -0.02014288
000150 93 8d b9 3d 49 ff 14 3d 8c 40 2f 3e 25 6b 8a 3c
       0.09060206 0.03637627 0.17114466 0.016896794
000160 f3 13 e0 3d 97 cd a7 3d 9c e1 a4 3d 0f dd 2d 3e
       0.10941305 0.0819351 0.08050844 0.16978858
000170 82 84 06 3e 2e ff 53 3d a1 67 ca 3d f8 1a 38 3e
       0.13136485 0.05175703 0.09883047 0.17979038
000180 b9 1b 39 3e 21 f9 34 3e 6b cc 72 3d 29 f8 c3 3c
       0.18076982 0.1767316 0.05927698 0.023922043
000190 0a a6 1e 3e 27 ea 00 3c c0 e5 8a bb b6 3e 2d 3e
       0.15493026 0.007868326 -0.004238814 0.16918454
0001a0 a1 42 3c 3e a8 e0 5e 3d ac c1 81 bc 3b 07 97 3d
       0.18384792 0.054413468 -0.01583942 0.07374426
0001b0 cc e4 6a 3d 5f fa 2a 3e cb 8a f4 3d eb a3 38 3e
       0.057347104 0.16697071 0.11940535 0.1803128
0001c0 e0 16 40 3e 55 c0 03 3e 9f f4 51 3e 80 52 45 3e
       0.18758726 0.12866338 0.20503472 0.19269753
0001d0 97 b2 60 3d 19 5b fa 3d 39 e1 9e 3b 10 ae 0a 3e
       0.054857817 0.12224407 0.004848626 0.13542962
0001e0 c4 0f 37 3e 63 da cb 3d d3 57 12 3e 0d c4 07 3e
       0.17877108 0.09953763 0.14291315 0.13258381
0001f0 21 a5 5d 3d 3e d1 34 3e b5 02 23 3e ef f3 bb 3d
       0.054112557 0.17657945 0.15919001 0.09177386
000200 d9 36 8c 3d 64 98 d2 3b 06 c1 96 bd 98 01 19 bc
       0.06846399 0.006426858 -0.07361035 -0.009338759
000210 03 bc a7 3d 60 7d 50 bd 68 16 a8 bd 76 f3 0e 3d
       0.08190157 -0.050900817 -0.08207399 0.03490015
000220 a9 cc ad 3d bb ce 0b 3e 41 eb 04 3e c9 ef de 3d
       0.084863015 0.1365308 0.12980367 0.10885579
000230 9f 8c 1a 3e 60 eb f5 3d 1b 07 93 3d 3c 66 c0 3d
       0.15092705 0.12007785 0.0717909 0.093945
000240 44 83 9c 3c fd 23 fd 3d 23 67 0a bd 3a 84 91 3d
       0.019105561 0.1236038 -0.033789765 0.07105298
000250 9f c6 0e 3e 3e 7b 66 3d 39 cd 8e bd c9 c2 c2 bc
       0.13942955 0.056269877 -0.06972737 -0.023774521
000260 96 63 2f bd ab d7 00 3e 74 e1 c9 3c 42 e2 a5 bc
       -0.042819582 0.12582271 0.024643637 -0.02024949
000270 0e 39 04 bd cc 5d 14 3d 81 b7 9d bd 3f 43 1a 3d
       -0.032280974 0.036222264 -0.07701016 0.037661787
000280 88 6d aa b9 6f 7c 05 bd 94 ff 60 bd 2d 5a af bb
       -0.00032506534 -0.032589372 -0.05493124 -0.005351326
000290 2d 0f 31 3d f1 ea 13 3e b4 22 b6 bd d6 c7 0d 3c
       0.043227363 0.14445092 -0.08893338 0.008653602
0002a0 8c c3 9f 3d 18 4c 15 3d a3 59 e2 bb a5 a7 b7 3d
       0.078009695 0.03644952 -0.006907658 0.089675225
0002b0 39 04 04 3d ca 40 48 bd 0b 46 3c 3a 5d db fa bc
       0.03223059 -0.048889913 0.0007182068 -0.030622179
0002c0 b9 c0 a2 bc ee 73 f6 3c e3 91 9d bd b6 47 cb bc
       -0.019867288 0.030084576 -0.07693841 -0.024814468
0002d0 74 56 f9 3d 6b 76 39 3d 1c 19 31 3d 01 74 0e 3e
       0.12174693 0.045278948 0.043236837 0.1391144
0002e0 97 0e 93 bd 83 5b 9e bd f3 d2 5b 3d 69 34 7a bc
       -0.07180517 -0.07732298 0.053667974 -0.015271285
0002f0 13 75 02 3e a8 5b 68 3d 30 08 78 3c 0b 03 bc bd
       0.12739973 0.056728035 0.015138671 -0.09180268
000300 e3 fa 8b 3d c9 f8 b7 bc 76 0e ab bc ef 8a 53 bd
       0.06834962 -0.022457497 -0.020880919 -0.05164617
000310 c9 f4 c0 3c 41 4c 9c bd 30 da 6c bd b3 13 90 3d
       0.023554223 -0.07631732 -0.057825267 0.07035007
000320 a1 3f 20 be e6 c1 de 3d 51 99 c0 3d be a5 a6 bd
       -0.15649273 0.10876827 0.09404243 -0.081370816
000330 ce 80 18 be 09 20 5a 3d 27 7b bd 3d 35 d9 59 3d
       -0.14892885 0.053253207 0.09252005 0.05318566
000340 49 33 dd bc c4 ac 36 bd b0 2c 14 3e 66 af aa bb
       -0.027001994 -0.044598356 0.14470172 -0.0052088974
000350 32 6a a1 bd ed fb ef 3d fb 0d 62 bd be fe 49 bd
       -0.07881583 0.11717973 -0.055189114 -0.049315207
000360 f3 4b f7 bd a6 d4 58 bd 40 a4 30 3d 7f a6 c0 bc
       -0.12075033 -0.052937172 0.04312539 -0.023516892
000370 49 09 b4 3d 79 12 30 3d 4d a1 01 3e 49 d4 04 bd
       0.087908335 0.042986367 0.12659188 -0.032429013
000380 f5 01 02 be 99 41 c2 bd a3 72 7c 3c 75 b3 f9 3d
       -0.12696059 -0.09485168 0.015408191 0.12192432
000390 75 20 12 3e 9e c7 72 3d d6 af d2 3d b7 7c 09 3e
       0.14270194 0.0592724 0.10287444 0.13426481
0003a0 ae e9 83 3d 8f ad 80 3d ee 45 df bc 49 5f d5 bd
       0.06441055 0.06283104 -0.027255025 -0.10418565
0003b0 1d 87 33 3d ab d2 09 3e 6a ed 4e bd 63 17 38 3d
       0.043830026 0.1345927 -0.050519384 0.04494418
0003c0 ab d7 0d 3e d3 47 9b 3d ec 21 22 3e 43 c2 cb 3d
       0.13851802 0.07582059 0.15833253 0.09949162
0003d0 19 2c 0e bd 4d e0 b3 3b 47 da 32 3d d9 5d 97 3d
       -0.034710024 0.005489385 0.043665197 0.07390947
0003e0 93 01 0a be a2 71 05 be 2a 59 ac bb 13 65 20 3e
       -0.13477163 -0.13031629 -0.0052596526 0.15663557
0003f0 32 a6 cc 3b ef a7 80 3c 92 bb f8 3b 9d b3 7e bc
       0.006245398 0.015705077 0.0075907195 -0.015545753
