project/onnx_models/LSTM/NASDAQ.onnx (onnx, 22036 bytes, 6 tensors)

fc1.weight f4 [1, 32]
00000000: 8575 2b3d 8c8b da3d 38ed 49bc f969 c73c
00000010: 5682 4d3c 2d58 1fbe 5a21 16be ac33 08be
00000020: 14b6 a93d 755b 063e 1a83 873d 2f3c cebd
00000030: 93a4 babd 8df5 9cbd 4f66 ffbd 4f95 d73d
00000040: b6a0 8d3d a889 2d3d 401d 393d acb7 d4bc
00000050: ff18 0abd 5947 a33c 853a 0c3e 31af 123d
00000060: 39fa 833c 132d 963d 938f 073e 819c 053e
00000070: 540a 41bd a9eb f5bc c5a5 a73d c180 20be
0.041860122 0.10671148 -0.012324624 0.024342524 0.012543282 -0.1556098 -0.1466116 -0.13300961
0.08286682 0.13120826 0.066168025 -0.10070073 -0.09113421 -0.076640226 -0.12470686 0.10526525
0.06915419 0.042367607 0.04519391 -0.025966488 -0.033715244 0.019931482 0.13694198 0.035811607
0.016110526 0.07332816 0.13238363 0.13047983 -0.04712899 -0.030019598 0.08185915 -0.15674116

fc2.weight f4 [1, 32]
00000000: 06d9 16bd e0d0 243e 3cbc 333d db97 9f3d
00000010: 59e9 a83b 8b24 1e3e 8e49 103e f18c 343d
00000020: b5c2 483d f28b c1bd a09e 193c 9199 993c
00000030: aa43 69bd ec79 953d 02a5 85bc e312 cf3d
00000040: a5cf b7bd 743d 923d c8c6 e83c 9932 0c3e
00000050: d5aa 303e f5cc d03d 99fc 663c 5d26 aa3d
00000060: c94c 85bd d3ef b0bc 19f5 89bd 4beb a8bd
00000070: 4694 bebd 9606 a83c 4dae c93d d4f1 5b3d
-0.036828063 0.16095304 0.043880686 0.07792636 0.0051547703 0.15443628 0.14090559 0.044079725
0.049013812 -0.094505206 0.009376198 0.018749984 -0.056949295 0.072986454 -0.016314033 0.10111024
-0.08975152 0.071406275 0.028415099 0.13691176 0.17252667 0.101953425 0.01409831 0.083080985
-0.06508786 -0.021598732 -0.06736202 -0.082480036 -0.09305625 0.020510953 0.09847698 0.053697422

onnx::LSTM_122 f4 [1, 128, 5]
00000000: 2543 7a3c 8a47 f83d 1414 ae3c 5c4a 9b3d
00000010: 88d9 273e 1383 943d 25bb 2c3d 58e4 0dbe
00000020: 2672 713d 1c9b 7fbd daa4 4d3d a8bf 94bd
00000030: bd96 bdbd c806 873c 2bd9 20bd 3338 2bbd
00000040: 28d5 40bd 9be9 f93b fee5 cd3d d6e4 6cbd
00000050: e466 7fbc 6f59 053e 4b0d a2bc fca4 273e
00000060: e5f9 07bc c330 e03d 02a8 6f3d 0780 a5bc
00000070: 7754 213e 2a73 233e 0f24 d1bd 994f 6b3d
00000080: f664 10be e630 173e 7cec c33d d076 ec3d
00000090: 3d18 03be 146d 25be 69d4 15bd 8b1a 9fbc
000000a0: b0e9 223d 5b44 b73b 06a6 26be e79e 3dbd
000000b0: 343d 243e 5ce3 6f3d d268 3fbd 2eea 4bbd
000000c0: e309 02be d536 8dbc 3866 893d 9a89 1fbc
000000d0: a406 28be 6cdf 2d3d 8700 92bd 235c 2d3e
000000e0: 4f0a 113d c1df d7bd 9486 55bd 4b04 0f3e
000000f0: 5849 023e 2ba4 d73d f55a f33d c8a1 053e
00000100: 42f0 053e 79b5 013e 9f10 ef3d 4fec 25be
00000110: 6b4b 393d cfa8 003e 54bc bcbd bfe9 083e
00000120: bbd7 983d 0016 31be c212 9abd afe7 d3bc
00000130: 0145 e43d 5c6e a3bd a643 33bd 1b8f b03c
00000140: 5bd4 e3bd a5ce 863d d4ab e7bc e2a7 b3bd
00000150: 2b48 07be dc29 afbd 1c9b 6abd ba3a 953c
00000160: 2399 e0bd 563d 213e f6b9 1f3e dada ce3d
00000170: 2e8d 173e 8a4e b2bd 36b3 733d 216c 1bbe
00000180: cb73 6fbd 96f9 633d f745 30be 3fda 2c3e
00000190: 22fb af3d 15fb 0cbb e5e5 90bd b171 4ebc
000001a0: 5654 953d 31d1 9e3d a743 19bd a37a ad3d
000001b0: 5793 18bd 5739 b13d 1b35 e03d 3d94 9cbd
000001c0: 4256 95bd ae62 c3bd af9a 82bd 3928 a7bd
000001d0: 0cdd 1f3e 04d9 803d f340 a73c c825 e4bd
000001e0: ee92 d13c 73ed ef3d 09b3 113e 7cb8 29bd
000001f0: 97b8 c3bd 4650 e63d 25af ef3c 7af5 78bd
00000200: b700 f93d cc19 223d d351 5fbd 5d46 343d
00000210: 1a25 25be 9ef3 c03d 8034 1cbe 4180 29be
00000220: cbf5 e63d b281 bcbc 2123 113e c516 c03c
00000230: 343d 26be 619b e73d 0dff 233d d3bf cebb
00000240: 835c 7a3c 01e7 353d 3b51 06be bebd 0fbe
00000250: 9b3c cb3d 754c 2cbe 19a9 a2bd 07ed 323d
00000260: ba60 f93d 3fba 113c 34d9 ce3d 6173 2d3e
00000270: fc13 1e3d 06db 83bd 1b8b 0a3e a243 a3bd
00000280: c677 813c 58c1 5c3d 2aab 0cbe 9bca ff3d
00000290: ef9a 22bc a882 12be b947 10bd 2643 5cbd
000002a0: c5e1 843d 79b2 bc3d b929 28bc 6bfe 31be
000002b0: 577c dbbc 6f6d 8d3d 203d dcbd dba0 db3d
000002c0: 8eea 0e3e 3aa7 abbd 08ca 31be 694b 21bd
000002d0: df13 f33d 4e5c 11be 72bc df3d f131 523c
000002e0: c16a edbd fc66 183e 99ec c7bd ecf2 5d3d
000002f0: ced5 09be 4fa9 f23d 9e38 4dba b18c 8bbd
00000300: 98aa cbbd 6acb 0cbe e16d f43d 542b 94bc
00000310: a8a1 90bd 5a57 ce3d 15a2 003e 44a5 24be
00000320: b010 0e3d bf3a 2abe f2ca ba3d 57ce 283e
00000330: a93a 36ba f338 24be 6d65 27be b445 51bd
00000340: d85d e8bc 32e7 34be 33e9 053e 3890 083e
00000350: c794 bebc ca29 bd3d c7c5 6abd 77a4 853d
00000360: 78ef 4ebd 6d0e cfbd 942d 693d bb6a 2c3e
00000370: 78a0 c63d d761 08bc 0768 883d a342 153a
00000380: c7fd 2a3e 4d19 8fbd f535 01be 3a81 123e
00000390: 1bb4 8cbc 443f d0bd 4967 d2bd 7783 9e3d
000003a0: 28d7 063e 4f9a cfbd 5a9c 3f3b 3465 043e
000003b0: f13f 713d 5c46 063d e678 8c3d cf26 32be
000003c0: dd69 eabd 318c b1bd 54f5 24be ecb1 833d
000003d0: 46ed f53d 7625 bcbd bf0e 4d3d 96bd 8abd
000003e0: d72d 59bd 0ee7 2f3d 0074 29be c41b c8bd
000003f0: ca64 06bd 61c7 e8bc 07fb 493d 16ba fdbd
0.015274798 0.1212302 0.021249808 0.07582542 0.16391575 0.07251563 0.042170662 -0.13856637
0.05894675 -0.062403783 0.050206043 -0.07263118 -0.09257267 0.016482726 -0.039269608 -0.041801643
-0.04707828 0.007626725 0.10053633 -0.057835422 -0.015588496 0.13022397 -0.01978173 0.1637153
-0.008299326 0.109468006 0.058509834 -0.02020265 0.15754877 0.159619 -0.10211956 0.057448957
-0.14101014 0.14764747 0.0956659 0.11546099 -0.12802215 -0.16154891 -0.036579523 -0.019421836
0.039773643 0.0055928654 -0.1627427 -0.04629412 0.16038972 0.058566436 -0.046730824 -0.049783878
-0.12699084 -0.01723806 0.0670895 -0.009737397 -0.16408783 0.0424494 -0.07129007 0.16929679
0.03541022 -0.105407245 -0.052130297 0.13966481 0.12723291 0.105293594 0.11882583 0.13049996
0.13079932 0.12666883 0.11673092 -0.16203426 0.04523794 0.12564395 -0.09215608 0.13370417
0.07463022 -0.17293549 -0.07523109 -0.025867311 0.11145974 -0.07980034 -0.043765686 0.021552613
-0.11124488 0.06582383 -0.028280176 -0.087722555 -0.13211124 -0.08552906 -0.05727683 0.01821648
-0.109667085 0.15746054 0.15598282 0.101003364 0.1479995 -0.087063864 0.05949708 -0.15177967
-0.05846004 0.055657946 -0.1721419 0.1688013 0.08592822 -0.0021511961 -0.07075099 -0.012600348
0.072914764 0.07754744 -0.037418034 0.08470657 -0.03724989 0.08653515 0.10947629 -0.07645462
-0.07291843 -0.09540306 -0.0637716 -0.08161969 0.15611666 0.062913924 0.020416712 -0.11140019
0.025582757 0.11715212 0.14228453 -0.041435704 -0.09556692 0.1124578 0.02925832 -0.06078098
0.121583395 0.039575383 -0.054521393 0.044012416 -0.16127434 0.09421466 -0.15254402 -0.16552831
0.1127735 -0.023011062 0.14173557 0.023448357 -0.16234285 0.11308933 0.040038157 -0.0063094883
0.015280846 0.044409756 -0.13116924 -0.14037225 0.09923669 -0.16826041 -0.07942409 0.04368308
0.12176652 0.008894502 0.10100022 0.16938545 0.038593277 -0.0643826 0.13529627 -0.07971884
0.015804183 0.053895324 -0.13737169 0.12489816 -0.009924634 -0.14307654 -0.03522465 -0.053774975
0.064883746 0.092137285 -0.010263854 -0.17382209 -0.026792688 0.069056384 -0.10753846 0.1072404
0.13956663 -0.08381505 -0.17362225 -0.039378557 0.118690245 -0.14195368 0.10924615 0.01282929
-0.11592627 0.14883035 -0.09761924 0.054186746 -0.13460466 0.11848699 -0.0007828566 -0.06813944
-0.099446476 -0.13749471 0.1193502 -0.018087067 -0.070620835 0.10075255 0.1256183 -0.16078669
0.034683883 -0.16623972 0.0912074 0.16484962 -0.000695149 -0.1603735 -0.16347285 -0.051091865
-0.02836506 -0.17666319 0.1307724 0.13336265 -0.023264302 0.09236486 -0.05731752 0.0652551
-0.050521344 -0.101101734 0.056928232 0.1683759 0.09698576 -0.008324108 0.06660467 0.00056938286
0.16698371 -0.069872476 -0.12618239 0.14307109 -0.017175725 -0.10168317 -0.10273606 0.07739919
0.13168013 -0.10136854 0.002923748 0.12929231 0.05889887 0.032781944 0.06858997 -0.17397617
-0.11445973 -0.086693175 -0.1610921 0.0643042 0.12008147 -0.091868326 0.05006289 -0.06774442
-0.053022232 0.04294496 -0.16548157 -0.09770921 -0.032810964 -0.028415384 0.049311664 -0.12389009

onnx::LSTM_123 f4 [1, 128, 32]
00000000: 398d 8f3c c151 883c 8e15 0ebe 8d14 a0bb
00000010: cf3c 8b3c 88b0 fd3c 7193 d73d 91d2 02bd
00000020: 2f29 d3bd 3bfd bebd 1fdf 26be 32b7 bbbd
00000030: 5a8d 1c3e 6608 bdbd bd92 d0bd be15 d7bd
00000040: fd47 98bd 9320 563d 746c 0abe e09f d6bd
00000050: da5c a03b 7fb1 fabc 83a7 c5bd a1d7 b03b
00000060: 6001 923d 3c60 05be 6eb0 e0bd 2af5 903d
00000070: 4399 cf3b 116a 273e d8a2 1cbe dca4 8e3d
00000080: d5b7 bcbc 493d 2fbe 1112 a63d 0a63 0ebe
00000090: 09a8 083e 3532 0a3d f46c 323d 941b a43d
000000a0: ed94 193e f8c2 133e 52bc 83bd 2ae1 e2bd
000000b0: 6914 b4bd 54e9 123c f3b4 29be 76ae eb3d
000000c0: a9d8 303e 46ed 64bd b21f 77bc d7fb 0a3e
000000d0: d804 30bd a092 48bd 1ff6 acbd 955a 403d
000000e0: 7f7c fcbc 5c0b b73d cff2 efbc ba34 2b3e
000000f0: 584a 1ebd 438e 28bd a145 acbd 2502 673d
00000100: 6a91 9fbd 28cf 243e 06fc cdbd 635e e13c
00000110: ad6c 6fbd 2ace 1c3e 655b 213e e4b5 afbc
00000120: 742b d93d 036d d33d db1b 2ebe 83eb 0bbe
00000130: 1ea7 19be e845 913d 585d 343e 9d2f 75bd
00000140: d740 273d d8d4 edbd 78d0 cd3b 078c 9c3d
00000150: e2f5 afbd ea96 a6bd 3f31 003d fef5 f53d
00000160: 330f 1abe 00f8 0f3e 1fed 533c 8c55 0ebe
00000170: 34e4 bc3d 7ab7 22be 4ca3 213e 1e60 abbd
00000180: d7af 313e 9e93 dd3c 6eb9 a63d 0bc4 e83d
00000190: cafc b3bd f3ec 88bd ea95 d53b 10b0 dc3d
000001a0: 8ee0 1d3e c1ff b93d cce4 c5bc 4a42 c8bd
000001b0: 658a 203d daf7 72bd 7323 0a3e ce60 c63d
000001c0: 66c8 0bbe d947 b53d 47dd 14be 7754 d5bc
000001d0: 7a81 093e 2601 f23d 7c9e 90bd a260 1abe
000001e0: a332 febd b00d 553d 9a57 1bbe 29ac d03d
000001f0: 1913 0cbe 2e7f 10be 0761 46bc 6cff d23d
00000200: d511 a4bc afa1 2d3d 3eeb 1a3e 5a32 b63b
00000210: f81d 333e 8175 aabc dfd5 213d 944c 0ebe
00000220: a645 74bd 3ad8 b6bd 05e2 a6bd 1bcd fa3d
00000230: 2f95 3c3c 7f4a e63d eb81 d3bd 3e6f de3d
00000240: 190f e4bd d4d8 723a 260b 323e d2fb 80bd
00000250: 0464 2b3e 70a2 15be f166 edbc fbfc 973d
00000260: b364 863d 8f32 353c 51da 1e3e 8c48 a43d
00000270: c712 c73d a049 0a3e b45d aabd 219e ac3d
00000280: 3a9c 243e c856 2bbe 9dc1 07be 50c4 8f3d
00000290: 5f80 15be 2158 24be 9421 16be d07a 01be
000002a0: 7c45 0dbe 5a54 023e 5081 63bd 95cf 93bb
000002b0: 4f1b 2c3e 7048 fabd e622 833d c2a2 d4bd
000002c0: 2e4d 0a3e 9941 05be 45a4 0c3e ebff 11be
000002d0: cbb6 77bd 45a1 cbbd 1453 54bd 15ef 1bbe
000002e0: 971f 063e f471 c63d e652 143e 365b f3bd
000002f0: 1fcd 6dbc 768a b53c eca3 273e 8770 c8bd
00000300: 9cf8 e03d ad7f a03c 375a 2f3e 4606 1b3e
00000310: 0509 023d dde9 553d 3627 0d3d c49d 80bd
00000320: fa02 60bc f86d 1dbd d044 d03d 6f17 f8bd
00000330: bdcd aebc b139 d5bd a879 00bb 941e 42bd
00000340: 8696 98bd 0c41 dcbb 16dd 6b3d 0af1 49bd
00000350: 3d5c 30be 9205 fc3c f2ca 1d3e 5d42 813d
00000360: eb24 103e 2a63 1cbe e6d7 d53d e53d a2bd
00000370: 64ab bc3d 8fcf 823d b4c9 353c bd2e 2f3e
00000380: 78a9 abbd 11b0 e4bc 3454 65bd b4ac ed3d
00000390: de94 87bc d85d 1abe 02ab 0f3e 5678 363d
000003a0: 668d 1a3e f2b1 d53d fc70 023e a350 c13d
000003b0: 4432 323d 3a43 6a3c 37ce 623c ca01 1cbe
000003c0: 3017 2a3e f6a4 f13d c066 83bc 3138 1c3d
000003d0: acfa 633d 86d5 8fbb 7dd8 06be 1ac6 d6bc
000003e0: 8e0d 0d3e cee9 5c3d 8eb3 e43d e982 ad3d
000003f0: 1e80 ca3d d48b b5bd 24c3 63bd 5d99 c8bd
0.017523395 0.016640546 -0.1387541 -0.0048852623 0.01699677 0.030967966 0.10526169 -0.031939093
-0.103105895 -0.09325644 -0.16296051 -0.09165801 0.15288296 -0.092301175 -0.10184238 -0.10502194
-0.07435606 0.05227716 -0.13517934 -0.104797125 0.0048938813 -0.030602215 -0.09651091 0.0053967987
0.071291685 -0.13024992 -0.10971151 0.07078011 0.006335409 0.16349055 -0.15296495 0.06965038
-0.023036877 -0.17113222 0.08108915 -0.13904968 0.1334535 0.033739287 0.043560937 0.080130726
0.14998217 0.14429843 -0.064324036 -0.11078103 -0.087929554 0.008966763 -0.16572933 0.11507885
0.1727015 -0.055890344 -0.01508324 0.13572632 -0.04297337 -0.048967957 -0.084453814 0.046961386
-0.030821083 0.089377135 -0.029290585 0.16719332 -0.03864512 -0.041151296 -0.08411718 0.05639853
-0.077914074 0.16094649 -0.10057835 0.027510827 -0.05845325 0.1531302 0.1575752 -0.021449037
0.10603991 0.10323527 -0.17002814 -0.1366406 -0.15005156 0.07093412 0.17613733 -0.05985986
0.04083332 -0.11612862 0.006280955 0.076438956 -0.0859182 -0.08134253 0.031296965 0.1200981
-0.1504486 0.14059448 0.012934952 -0.13899821 0.09223214 -0.15890303 0.15784949 -0.08367942
0.17352234 0.027047928 0.08140837 0.11365517 -0.0878845 -0.066858195 0.0065181153 0.10775769
0.15417692 0.09081984 -0.02415695 -0.09778269 0.039194483 -0.0593184 0.13490085 0.09686433
-0.13650665 0.088515945 -0.14537536 -0.026041253 0.13428298 0.11816625 -0.070614785 -0.15075925
-0.12412002 0.052015007 -0.15170136 0.10189087 -0.1367916 -0.14111015 -0.012108094 0.10302624
-0.020028034 0.04239052 0.151288 0.0055602016 0.17491901 -0.020807983 0.039510604 -0.138964
-0.059636734 -0.08927961 -0.081485786 0.12246152 0.0115101775 0.11244678 -0.10327514 0.108610615
-0.11135692 0.00092638773 0.17387065 -0.06298031 0.16737372 -0.14612746 -0.02897975 0.07421299
0.065621756 0.011059417 0.15512969 0.0802165 0.09720378 0.13504648 -0.08318654 0.08428598
0.1607522 -0.16732323 -0.13257451 0.070198655 -0.14599751 -0.16049244 -0.14661247 -0.12644506
-0.13796037 0.1272749 -0.055543244 -0.0045108297 0.16807292 -0.122208476 0.06403141 -0.10382606
0.13506004 -0.13013305 0.13734539 -0.14257781 -0.06047706 -0.09942869 -0.051837042 -0.15227921
0.13097988 0.096897036 0.14484748 -0.118826315 -0.014514237 0.02216075 0.16371125 -0.09787088
0.109849185 0.01959213 0.17124258 0.15139112 0.031746883 0.052224983 0.034461223 -0.062800914
-0.013672585 -0.038434952 0.10169375 -0.121138446 -0.021338338 -0.104113944 -0.0019603763 -0.047392443
-0.07450585 -0.0067216214 0.05758389 -0.04930214 -0.17222686 0.030764375 0.15409449 0.06311486
0.14076583 -0.15272203 0.1044157 -0.07921962 0.09212378 0.06387245 0.011095453 0.17107673
-0.08381933 -0.027915986 -0.055988505 0.11605206 -0.016550478 -0.15074861 0.14030078 0.044548355
0.15093002 0.10434331 0.12738413 0.09439208 0.04350497 0.014298255 0.013843111 -0.15235057
0.16610408 0.11799042 -0.016040206 0.038139526 0.05565898 -0.0043894676 -0.13168521 -0.026217509
0.13774702 0.05393391 0.1116706 0.08472235 0.09887718 -0.08864561 -0.055606022 -0.09794877

onnx::LSTM_124 f4 [1, 256]
00000000: b548 2fbd d2fd 50bb 446f 49bd 6dd7 fc3d
00000010: 0242 343e 1ac8 4c3c dc4d a63d b51a d8bd
00000020: 7129 cc3d 7b4f a93d 46c0 e03d 33d3 903d
00000030: 8463 22bb 6a6f f6bd 4f3f a23d da37 5d3d
00000040: 6ce1 2d3e f8fa 183e 2a63 0abe 655d 933d
00000050: 3391 9c3c 81a7 85bd e529 30be e0f7 7abd
00000060: e3fd 43bd 188b 9bbd f1db b5bd 02bf d2bd
00000070: a3de bebd b945 83bd 3ee6 80bc e3b9 2bbe
00000080: 070a cfbc 5a88 fabb 2c75 2ebe 304a 113e
00000090: ad23 d03d cc53 e23d 15fb 583d 3c40 1fbe
000000a0: e1c5 bb3d 30d3 ef3d 720e 713d cebb 25be
000000b0: 0c15 9cbd 2993 06be c07e 52bd 0862 553c
000000c0: 9343 d03d 5410 d93d d2a5 0fbe 7a23 003e
000000d0: 4ff1 5d3d 08f7 d3bd bad8 ad3d 679c a6bd
000000e0: 7a78 fcbd 59f9 043e d74b 273e fd92 313e
000000f0: a477 15be 8319 333b 0d47 1abd 986e 833d
00000100: 0b4f f8bc 97d6 dc3d 5447 ffbd 123d 12be
00000110: a62b 13be 7a70 dabd 39b0 1cbe 7915 79bb
00000120: 35ba 32bd 3bca d5bd a343 323e 9518 6ebd
00000130: 719f 26bd b5ab a6bb eaac 6bbc e9ed 2abd
00000140: 5faf e43d d993 c0bd 985d 1bbe 8bdd c83d
00000150: 1f26 d23d 4fd4 463d 00b1 f83d b994 9a3d
00000160: 7889 95bd 04d8 f3bd 067b 2fbd 87ac 2c3e
00000170: d5a3 b4bd dada e9bd b1b0 dabd 701e 30be
00000180: a745 fa3d b4c9 e3bd b43f 153e bf7e cf3c
00000190: 2bb7 bcbd 3c24 b43d 403e e3bd 3c39 1ebe
000001a0: 3a73 2ebd 692f e1bc de15 143e 4333 313e
000001b0: 029a d43c 0b2b ec3c dfbe 813d 175a 70bd
000001c0: 4415 af3d f1b7 0c3e 076e d13d 409e 3bbd
000001d0: e6a4 9ebc 805e e53b 021c 8d3c 7a95 e1bd
000001e0: 6ea3 a6bd 3c64 e7bd ac67 f1bd 0601 05be
000001f0: bd32 863c d3a9 ad3d a10c 153e ed6a 31be
00000200: cc23 ecbc 989b 44bc 4a51 e03d 5a79 a3bd
00000210: 3d83 33be bf8c e13d c4d2 ed3d f7bd 813d
00000220: 899f b2bb 71ef cf3d 65cc 29be df16 393b
00000230: 3b1f 1b3e f39f 87bd 1614 26be 6ee0 fabd
00000240: a2bc 80bd 0544 30bd 5805 ffbd aa03 9abd
00000250: 1929 423c 0382 c53d 48ca 23be 6542 02be
00000260: 0b2c 2fbe 2443 c03c 20bc 76bd 5bf1 cc3d
00000270: 6fa2 573d 607d 75bd 06ee dcbd f427 12be
00000280: 4d50 95bd 438f b63d 7d92 fd3d ba1f 0f3e
00000290: f5d1 2ebe c677 e0bd 0cf8 ab3d c222 e3bd
000002a0: 7bfd f5bd 76bd db3d dcb0 e03d 427d 113e
000002b0: 7119 19be 4c07 d8bd 82e2 11bd bda7 0e3e
000002c0: a675 e73c 734d f6bd 794c de3d a068 7d3c
000002d0: 4e66 f13a c989 06be 6522 343e ec03 373c
000002e0: 0b04 873c eec8 0c3e bf63 e5bd 0679 873d
000002f0: 7da0 fb3d 830d 1cbe c8db edbd 6249 073e
00000300: 9bbf 2c3c 9ba7 cabd 60c6 dbbd 4aee 113e
00000310: 3a40 b93d e26f 103e 0a31 f7bd 6b9f ddb9
00000320: 241f 90bd 451e bcbd ff0a 2e3e 43e2 dbbd
00000330: 4ae3 df3c 24dd 2e3d 0c92 2a3e 8228 6f3d
00000340: 29ce f9bc f814 0d3e abb6 653d 9b4f f2bd
00000350: a0f9 6d3d fc09 25bc 9d8d a1bc e61e de3d
00000360: f4c9 32be 193b 26be eba4 083e 8050 b13c
00000370: 4225 f8bd 4459 233e 5428 f6bd d56b 423b
00000380: a4d3 d33d 98e8 0d3e 53cb c43c 96fc d13d
00000390: 5737 b5bd 47a9 993d 2eef b5bd d26f c8bd
000003a0: 9705 0c3e f46b 81bd aa19 ad3d 5f01 52bd
000003b0: 0575 6d3d 8b3e 89bb 42ad 323d 8132 fc3d
000003c0: 901a aa3d 793a d23c 4f3d 8dbd c998 a7bd
000003d0: 7730 e0bd 084d 243e d044 bd3c d555 b6bd
000003e0: 3150 12be 389d 313e 92ff 90bb a6a1 923b
000003f0: 1564 f3bc 2b74 ac3d 3fbb 2dbc d18e 283e
-0.04279395 -0.003188957 -0.049178377 0.12345777 0.17603305 0.01249888 0.08120319 -0.10551969
0.09968842 0.08267113 0.10974173 0.07071533 -0.0024778554 -0.12032969 0.079222314 0.054008342
0.16980523 0.14939487 -0.1351439 0.07195548 0.019112205 -0.065260895 -0.17203481 -0.06127155
-0.047849547 -0.075948894 -0.08879841 -0.10290338 -0.09319808 -0.06409783 -0.015734788 -0.16770129
-0.025273336 -0.007645649 -0.17036885 0.14188457 0.101630546 0.11051139 0.052973825 -0.15551847
0.09168602 0.11710203 0.058851667 -0.16184923 -0.07621202 -0.13142075 -0.05139041 0.013023861
0.10169139 0.105988175 -0.14028099 0.12513533 0.054185208 -0.10349852 0.08488603 -0.081353
-0.123276666 0.12985744 0.16337524 0.17341228 -0.1459642 0.0027328439 -0.037665416 0.064175785
-0.030311128 0.10783117 -0.12464777 -0.14281109 -0.1437212 -0.106659845 -0.15301599 -0.0038007183
-0.043634612 -0.10438963 0.17408614 -0.058128912 -0.0406794 -0.005086387 -0.014384488 -0.041730795
0.11166262 -0.094032 -0.15172422 0.09807881 0.10261177 0.048542317 0.12143135 0.07547898
-0.07301611 -0.11906436 -0.042841934 0.16862689 -0.08820311 -0.11418696 -0.106782325 -0.17199111
0.122203164 -0.11122456 0.14575082 0.025328992 -0.09214624 0.08795974 -0.110958576 -0.1545152
-0.042590357 -0.027488427 0.14461467 0.17304711 0.025952343 0.028829118 0.06335234 -0.058679666
0.08548978 0.13742043 0.10226064 -0.045805216 -0.01936574 0.0069997907 0.01722527 -0.110148385
-0.081366405 -0.11298415 -0.11787352 -0.12988672 0.016381616 0.08479657 0.14555599 -0.17325945
-0.028825663 -0.011999987 0.10953005 -0.0798213 -0.17530532 0.11013173 0.11612466 0.06335061
-0.005451147 0.10153092 -0.16581877 0.0028242392 0.15148632 -0.06622305 -0.162186 -0.12249838
-0.06285979 -0.04303362 -0.12452191 -0.0752023 0.011850619 0.096439384 -0.15995133 -0.1272064
-0.17106645 0.023469515 -0.060238004 0.100069724 0.052645143 -0.05993402 -0.10787587 -0.14273053
-0.07290707 0.08914044 0.12381456 0.13976946 -0.1707228 -0.10960345 0.083969206 -0.11090614
-0.12011238 0.10729496 0.10971233 0.14207938 -0.14951111 -0.10548267 -0.035616405 0.13931175
0.028254341 -0.12026491 0.1085443 0.015466839 0.001841733 -0.13138498 0.17591245 0.011170369
0.01648142 0.13748524 -0.11200666 0.0661488 0.1228647 -0.1523953 -0.116141856 0.13211587
0.010543729 -0.098952495 -0.107311964 0.14251056 0.09045453 0.1410518 -0.120699 -0.0004227118
-0.070371896 -0.09185461 0.16996382 -0.107365154 0.02733006 0.042691365 0.16657275 0.05838824
-0.030493813 0.1377753 0.05608241 -0.1183159 0.05809939 -0.010073181 -0.019720847 0.10845737
-0.17459852 -0.16233481 0.13344161 0.02164483 -0.12116481 0.15952021 -0.12019411 0.0029666324
0.103431016 0.13858259 0.024022734 0.10253255 -0.08848446 0.0750299 -0.088835105 -0.09786953
0.13674007 -0.063194185 0.08452161 -0.05127084 0.057972927 -0.004188364 0.043622263 0.1231432
0.08305848 0.025662648 -0.06896459 -0.08183438 -0.10946744 0.1604501 0.023104101 -0.0890309
-0.14288403 0.1734513 -0.0044249976 0.0044748364 -0.029710809 0.08420595 -0.010603725 0.1646073

/lstm/Expand_output_0 f4 [1, 1, 32]
00000000: 0000 0000 0000 0000 0000 0000 0000 0000
00000010: 0000 0000 0000 0000 0000 0000 0000 0000
00000020: 0000 0000 0000 0000 0000 0000 0000 0000
00000030: 0000 0000 0000 0000 0000 0000 0000 0000
00000040: 0000 0000 0000 0000 0000 0000 0000 0000
00000050: 0000 0000 0000 0000 0000 0000 0000 0000
00000060: 0000 0000 0000 0000 0000 0000 0000 0000
00000070: 0000 0000 0000 0000 0000 0000 0000 0000
0.0 0.0 0.0 0.0 0.0 0.0 0.0 0.0
0.0 0.0 0.0 0.0 0.0 0.0 0.0 0.0
0.0 0.0 0.0 0.0 0.0 0.0 0.0 0.0
0.0 0.0 0.0 0.0 0.0 0.0 0.0 0.0
