project/onnx_models/LSTM/NASDAQ.onnx (onnx, 226520 bytes, 9 tensors)

lstm.weight_ih_l0 f4 [256, 5]
000000 f0 53 00 bc be 88 84 3d d4 89 a0 3d 90 85 fc bd
       -0.007832512 0.06471394 0.07838789 -0.123301625
000010 d0 0a 89 3c cc 63 46 3d 70 b5 db bd 60 86 b5 3c
       0.016728789 0.048435017 -0.10727966 0.022158802
000020 c6 88 8c 3d e0 04 a2 3b 20 1c f0 3d 44 af 52 3d
       0.06862025 0.004944429 0.117241144 0.051436678
000030 c0 92 f8 bc 40 34 d3 3c c0 75 d7 3b c4 7b 15 3d
       -0.030343413 0.02578175 0.006575316 0.036494985
000040 80 54 b7 bc 10 aa 47 bd e8 d6 9b bd 12 66 9b 3d
       -0.02237916 -0.04874617 -0.076093495 0.07587828
000050 4e 00 b0 3d 9a a1 96 bd 40 7c 66 bb 1c bf 11 bd
       0.08593808 -0.07355042 -0.0035169274 -0.035582647
000060 00 c3 e5 3c 4c f0 62 3d d8 65 8e 3c dc 5b f7 3d
       0.028047085 0.055404946 0.017382547 0.12078068
000070 a8 44 3e 3d 76 3a ea 3d 90 0b 63 bc 80 eb 48 bc
       0.046452194 0.11436932 -0.013857737 -0.012263179
000080 76 72 b5 3d ac 85 2d 3d d2 bf a0 3d 98 f7 06 bd
       0.08859722 0.042363808 0.07849087 -0.032950968
000090 c8 6d cc 3d a8 03 25 3d 4c 17 03 bd 6a cd ed bd
       0.099818766 0.04028669 -0.03200464 -0.11611445
0000a0 58 c7 9b bd ca ac d3 3d 00 2a 53 bc 80 15 c3 3a
       -0.07606381 0.10335691 -0.012888432 0.0014883727
0000b0 00 44 66 3b 00 34 22 39 58 92 c2 3d 80 94 d0 3a
       0.0035135746 0.00015468895 0.09500569 0.0015913397
0000c0 90 ea 41 bd 6a 2f e5 bd 02 e1 ed bd ac 7e 61 3d
       -0.047342837 -0.11190684 -0.116151825 0.055052444
0000d0 50 65 b5 3c 20 8f b8 3c f6 b1 c8 3d c0 e1 47 3d
       0.022143036 0.022529185 0.09799568 0.048799276
0000e0 62 f0 c7 bd fa a8 b6 3d b0 8d e5 3d 60 6a 04 3c
       -0.09762646 0.089189485 0.11208665 0.008082002
0000f0 da d9 e0 bd c0 6a 11 bc f8 0d f9 bd e0 01 26 3d
       -0.10979052 -0.008875549 -0.121608675 0.040529132
000100 e8 13 04 3d c0 03 ea 3c 4c d9 cd 3d 68 2a 8d bc
       0.032245547 0.028566241 0.10051212 -0.017232135
000110 d8 0a 2f 3d 28 08 81 3d b8 64 8b 3d de 5c d2 bd
       0.04273495 0.06300384 0.0680632 -0.10271619
000120 c8 b2 78 3d 5c 80 12 bd 78 36 82 3d 70 52 04 3d
       0.060717374 -0.035766944 0.06358045 0.03230518
000130 ea ec 8e bd 24 e3 d8 3d c6 e3 d5 3d b0 5f 74 3d
       -0.069787815 0.10590199 0.10443835 0.059661567
000140 58 e2 6e 3d 10 fe 8c bc 04 84 ca bd 9a fb ea bd
       0.058321327 -0.01721099 -0.09888461 -0.114737704
000150 44 70 00 3d 70 5d 39 3c ac 99 71 3d 32 89 83 bd
       0.031357065 0.011313781 0.058984444 -0.06422652
000160 98 6a c3 bd b2 1f e0 3d 40 13 23 bb c6 38 93 3d
       -0.095418155 0.109435454 -0.00248833 0.07188563
000170 56 26 fc bd 6c a9 e5 3d 22 0c cb 3d dc 64 0e bd
       -0.123119995 0.11213955 0.099144235 -0.034764156
000180 f0 d4 b2 bd 48 cc dc 3c ec 40 84 bd c8 4a 42 3d
       -0.08732021 0.026952878 -0.06457695 0.0474346
000190 4c bd 02 bd dc cb 06 3d 5c 12 fe bd 00 f3 7e ba
       -0.03191881 0.03290926 -0.124058455 -0.0009725541
0001a0 2c f4 85 3d ae d3 ad bd 28 51 5a 3d c0 1f f0 bb
       0.06540713 -0.0848764 0.053300053 -0.0073280036
0001b0 52 aa d4 3d fc 7a 4f 3d a0 d2 51 bc c8 ab d8 bc
       0.103840485 0.050654396 -0.012806565 -0.0264491
0001c0 68 ef 33 3d 80 0b e1 bd c4 04 4e 3d 20 69 6b bc
       0.043929487 -0.109885216 0.050297514 -0.0143683255
0001d0 24 82 e1 3d 88 73 ae bc 36 6f e2 bd dc eb 0c bd
       0.110111505 -0.021295324 -0.11056368 -0.03440462
0001e0 80 2f 05 bd 20 5d d4 3c f6 3e 9e 3d e8 2e 80 bd
       -0.032516003 0.025923312 0.077268526 -0.06258947
0001f0 aa 1f 8c bd a0 ed 9c bc 00 5b f3 bb 40 56 04 bc
       -0.06841977 -0.019156277 -0.0074266195 -0.008077204
000200 58 99 c4 3c 56 2b ab bd ec cc 0d bd 80 a4 88 3c
       0.023998901 -0.08357875 -0.034619257 0.016680002
000210 46 37 aa bd 40 f7 29 3b e4 61 11 bd 16 36 c7 3d
       -0.08311324 0.0025934726 -0.035493746 0.09727113
000220 58 2b b2 bc 98 0b be 3c b0 46 c4 3d c6 dc ee bd
       -0.021749184 0.023198888 0.09583795 -0.11663203
000230 d0 ea ed bd 5c 32 33 3d c0 24 20 bd b2 4a 99 bd
       -0.116170526 0.0437492 -0.039097548 -0.0748495
000240 68 d7 a4 3c 7a 2c cc bd 9c c6 f0 bd 48 b5 66 3d
       0.020122245 -0.09969421 -0.11756632 0.056325227
000250 44 67 84 bd 50 67 0f bd 80 1a 59 3d f2 0b 97 bd
       -0.06465009 -0.035010636 0.053003788 -0.07375325
000260 40 38 aa bb d2 fb a6 3d 98 86 c9 3d 60 72 d2 3c
       -0.005194694 0.081535 0.09840125 0.025689304
000270 b2 85 a7 bd 28 39 b4 bd 50 b5 00 3c 60 87 1c bd
       -0.08179797 -0.08799964 0.007855728 -0.03821504
000280 0e 19 fa bd a8 65 f9 bd 70 ec 16 bc 2e 36 88 3d
       -0.1221181 -0.121775925 -0.0092116445 0.06650959
000290 b8 3d 69 3d 48 87 98 3c 28 ce d8 3d 40 18 07 3d
       0.056943625 0.018619195 0.10586196 0.03298211
0002a0 00 f9 4c 3a 70 74 c5 bd 40 fb 7a 3c 80 31 7e 3c
       0.00078190863 -0.09641349 0.015318692 0.015514731
0002b0 dc b0 6f 3d 6a 0b cf 3d c4 5b 62 bd 44 dd 46 bd
       0.058518276 0.10109599 -0.055263296 -0.04855086
0002c0 ec 5c 32 3d 10 c2 d8 3d c0 b5 40 bd 50 b4 d7 3c
       0.04354565 0.105838895 -0.04704833 0.026331097
0002d0 66 db a5 3d 0c aa cb bd 98 d3 c1 3c fc b8 47 bd
       0.080984876 -0.09944543 0.023660466 -0.0487604
0002e0 30 f0 56 3c c0 8e 4d bc aa 42 f1 bd a0 33 29 3c
       0.013118789 -0.012546241 -0.11780293 0.01032725
0002f0 ee 8a fb bd e0 62 f3 3b 30 16 00 3c ec 4b f1 bd
       -0.12282358 0.0074275583 0.00781779 -0.11782059
000300 80 20 5e bb 20 42 d1 3d a0 e5 af bc 64 cc e7 3d
       -0.0033893883 0.102176905 -0.021471798 0.11318281
000310 64 4f 46 bd 90 37 77 3c 78 9e 63 bd a8 ea 1e 3d
       -0.048415557 0.015088931 -0.05557105 0.038798004
000320 d0 65 12 bc f4 c2 a3 bd 00 48 d3 b8 64 04 a7 bd
       -0.008935407 -0.07996169 -0.00010074675 -0.08155134
000330 2c c7 90 3d 9c 02 49 bd 44 a5 ba 3d bc fb b8 bd
       0.07069239 -0.049074754 0.09113553 -0.090323895
000340 08 40 aa 3c 20 27 76 bd 84 22 d7 3d 58 97 dd bc
       0.020782486 -0.060095906 0.1050463 -0.027049705
000350 60 9b 91 bb b8 fb 18 bd e0 52 1e 3c 6c d6 03 bd
       -0.004443571 -0.037349433 0.009663314 -0.03218691
000360 d8 4a f0 bd de 9f c9 bd e0 a8 b4 bb 08 eb 36 bd
       -0.11733025 -0.09844945 -0.0055132955 -0.044657737
000370 b8 bf 11 3d 88 52 1f bd 90 56 11 3d d0 85 72 3d
       0.035583228 -0.038897067 0.035482943 0.059209645
000380 30 3a 0c bc b4 b1 71 3d c0 12 6d 3d 00 e3 64 3b
       -0.008558795 0.05900736 0.05787921 0.0034925342
000390 ac b3 d4 3d 80 9b b2 3d 68 c3 b9 bd 12 9d 86 bd
       0.10385832 0.087210655 -0.09070474 -0.065729275
0003a0 4a 46 fc bd fc d6 0e 3d c8 ec b5 bd 98 ee b9 bc
       -0.12318094 0.034872994 -0.08883053 -0.022696778
0003b0 10 bc 3a 3c 00 37 93 3a 70 f8 29 bd 7e cf 86 bd
       0.011397377 0.0011231601 -0.041496694 -0.06582545
0003c0 d0 c8 f9 bc 10 48 c5 3c 76 df 91 3d 32 fc 8f bd
       -0.030491263 0.024082214 0.071227 -0.07030524
0003d0 70 6d 38 3d b0 4d 69 3d 88 09 ce bc 20 0f b2 bd
       0.045026243 0.056958854 -0.02515103 -0.08694291
0003e0 82 11 e8 3d 90 38 71 3d c8 6c 07 bd 9c fa ad 3d
       0.11331464 0.058891833 -0.033062726 0.084950656
0003f0 38 fb e5 bd e0 d0 7a 3d e4 59 d0 bd 76 bf c4 3d
       -0.11229557 0.061234355 -0.10173395 0.09606831

lstm.weight_hh_l0 f4 [256, 64]
000000 a8 b8 1d bd 4a 09 f6 3d d4 ce 2b 3d 00 58 30 3c
       -0.03850618 0.120134905 0.041945294 0.010763168
000010 62 19 dc bd 46 5b 88 bd 60 bb a1 bc a8 ad c9 3c
       -0.10747029 -0.06658034 -0.019742668 0.024618939
000020 00 f6 11 ba bc cf 61 3d 50 ab fa 3c 9c 3b 40 3d
       -0.0005567968 0.05512975 0.030599266 0.046931848
000030 80 b0 63 bc 7c dd 24 3d 66 df 86 bd ce 5f bb bd
       -0.013897061 0.040250286 -0.065855786 -0.09149133
000040 06 ea d1 bd 20 f1 eb 3d f0 dd e9 3c 3e ae f2 bd
       -0.102497146 0.115206 0.02854821 -0.1184964
000050 84 98 42 3d 04 72 ab 3d 40 33 62 bb 8c d1 89 bd
       0.04750873 0.08371356 -0.003451541 -0.06729421
000060 96 02 c7 3d 70 07 9a 3c ea ef b8 3d 00 4a 42 3b
       0.0971729 0.018802375 0.09030135 0.0029646158
000070 6c 0b 0d bd 94 5c 73 3d 04 a7 59 bd de db 80 bd
       -0.03443472 0.05941446 -0.053137794 -0.06291936
000080 40 67 4e bc d2 db a7 bd d0 8c 45 3d 60 e4 b3 bc
       -0.012597859 -0.08196224 0.048229992 -0.021959484
000090 c0 6c 17 bb 3c 4e 15 bd 6c 04 b9 bd 38 5d 3d bd
       -0.0023105592 -0.036451563 -0.090340465 -0.04623148
0000a0 6c 50 a2 bd 00 12 a0 b9 00 81 ee 3a ec f7 0e bd
       -0.079254955 -0.0003053099 0.0018196404 -0.034904405
0000b0 3a 04 95 3d 7e ca 91 bd 28 9c 44 3d c0 99 c4 3b
       0.07276197 -0.071187004 0.048000485 0.0059997737
0000c0 28 bb b8 3c 24 8d d4 3d b8 5d b1 bc 2e 36 d7 3d
       0.02255018 0.10378483 -0.021651134 0.10508381
0000d0 58 03 aa bc d0 5f 48 bc 2a 3b f5 bd 8a cf c8 bd
       -0.020753548 -0.012229875 -0.11974175 -0.0980521
0000e0 38 3c 96 3c 34 4e 89 3d 46 3c 81 bd 26 76 af 3d
       0.018339261 0.06704369 -0.06310324 0.08567457
0000f0 30 b0 a7 bd 90 8b 28 bc 94 5b e1 3d d0 a3 b4 bd
       -0.08187902 -0.010287181 0.11003795 -0.08820307
000100 2c 63 1b 3d e2 9c f7 3d 80 77 54 3c 00 02 5d 3b
       0.037936375 0.1209047 0.012967944 0.0033723116
000110 2e ae a6 bd c0 93 be bb 1a 89 92 3d c8 cf fa bd
       -0.08138691 -0.005815953 0.07155056 -0.122466624
000120 38 03 f5 bd 40 3e 71 bc c2 d5 8e 3d 78 a0 d7 bd
       -0.119635046 -0.014724314 0.06974365 -0.10528654
000130 de 12 b0 bd 38 15 70 bd e4 c6 2b 3d 26 c2 f2 3d
       -0.08597349 -0.058613986 0.041937724 0.11853437
000140 a2 02 9b 3d 98 96 52 bd d0 ea 40 3d cc 46 2d bd
       0.075688615 -0.05141315 0.047098935 -0.042303845
000150 58 2d f8 3d 30 fd 06 bd d8 99 5d 3d ec db 86 3d
       0.12118024 -0.032956302 0.054101795 0.065849155
000160 88 93 81 3d 96 11 a9 bd 6e 95 dc 3d d8 b3 a7 bd
       0.063269675 -0.082553074 0.10770689 -0.08188599
000170 c2 39 b6 bd e2 ea f7 bd a0 05 97 bc dc b0 28 bd
       -0.08897735 -0.12105347 -0.0184353 -0.04118429
000180 a0 1b 96 3b e0 da 22 3d 1c d8 a1 3d 02 77 cc 3d
       0.00458093 0.039759517 0.07902548 0.099836364
000190 48 7f 2c bd e8 f1 ab 3d 46 ef bb 3d ec 69 26 bd
       -0.042113572 0.08395749 0.09176497 -0.04062836
0001a0 30 6d 4c 3d e4 74 bc bd 8c 86 4e 3d 72 e8 a7 bd
       0.049908817 -0.092019826 0.050421283 -0.08198632
0001b0 b6 f8 ac 3d 40 87 55 3c f4 10 db 3d a0 05 b9 3d
       0.08445875 0.013032734 0.10696593 0.09034276
0001c0 74 c0 e9 bd 76 28 f1 3d 68 44 67 bd 78 cb d3 bd
       -0.11413661 0.117752954 -0.05646172 -0.10341543
0001d0 aa b9 9d bd 28 56 ef bd e0 44 73 3c e2 f0 b2 bd
       -0.07701428 -0.11686355 0.014847964 -0.08737351
0001e0 4e a1 9a 3d 98 15 6f bd a0 d9 17 3c 80 97 f1 bb
       0.07550298 -0.058370203 0.009268194 -0.0073727965
0001f0 14 fd cf bd 28 a2 31 3d 3a 17 bf bd f6 a6 e3 bd
       -0.10155693 0.043367535 -0.09330602 -0.1111583
000200 74 1a 70 3d 58 2d f0 bc 30 18 21 bd e6 4d e2 bd
       0.058618978 -0.029318497 -0.039329708 -0.11050014
000210 ae 48 b2 bd d0 ea dd 3d 28 00 fd 3d 76 ed ab bd
       -0.08705269 0.108358026 0.123535454 -0.083949015
000220 98 c1 81 bd c0 02 14 bc c2 26 ec bd 70 4c 73 3d
       -0.06335753 -0.009033859 -0.1153083 0.05939907
000230 3c 06 b7 3d 60 bb e7 bd f0 f6 a7 3c 5e ce ee 3d
       0.08936736 -0.11315036 0.020503491 0.11660455
000240 22 ab a4 3d 36 8b 81 bd 30 a4 80 3c 3e fb 87 bd
       0.080404535 -0.063253805 0.01570329 -0.066397175
000250 7a 37 83 3d 12 f1 fa 3d 4a af cb 3d b0 3b 94 3c
       0.06407066 0.12253012 0.09945543 0.018094867
000260 b8 7b 6a 3d 50 d3 41 3c bc c8 5c bd 3c f0 76 bd
       0.057246894 0.011830166 -0.053902373 -0.0602877
000270 48 ae 26 3d 50 07 48 bd 6c fe cb bd 34 a9 4b 3d
       0.04069355 -0.0488351 -0.099606365 0.04972191
000280 50 b4 14 bc ec a5 5a 3d 48 4b 27 3d 50 33 cd bc
       -0.009076193 0.05338089 0.04084328 -0.025048882
000290 c4 e5 5d bd 44 b2 94 3d d4 ca ff bd 1c 07 a5 3d
       -0.0541742 0.07260564 -0.12489858 0.08057997
0002a0 80 cd 5f bd 48 56 cf 3d 22 96 a9 3d f0 75 45 3c
       -0.05463934 0.10123879 0.08280589 0.012052044
0002b0 88 7c 70 bd a2 46 e8 3d 8a 69 a7 3d 34 9d 97 3d
       -0.058712512 0.11341597 0.08174427 0.07403031
0002c0 70 a5 87 3d 94 9e c8 bd 9e c2 ee 3d 30 d7 a8 3c
       0.066233516 -0.097958714 0.11658214 0.020610422
0002d0 38 e2 24 bd b8 de 86 bd 30 f4 31 bd 90 bd 02 bc
       -0.0402548 -0.06585449 -0.043445766 -0.007979766
0002e0 60 97 68 3c d0 6b 8b 3d 50 65 b8 bc ee 61 80 3d
       0.014196247 0.06807673 -0.022509247 0.062686786
0002f0 aa 06 cb bd c0 a1 21 bd 80 95 83 3a 18 56 fe 3c
       -0.099133804 -0.039460897 0.0010039061 0.031046912
000300 54 1b 49 3d 28 4c 88 bd 52 c8 8d bd 94 56 78 3d
       0.049098328 -0.06655151 -0.06922974 0.060629442
000310 90 e6 ac 3d a8 f1 dd bd c0 53 c4 bb 0c d9 9b 3d
       0.08442414 -0.10837108 -0.005991429 0.07609758
000320 bc 90 e2 bd 24 e0 36 3d 80 d9 b6 ba 00 c3 af 3c
       -0.11062762 0.04464735 -0.0013950318 0.021455288
000330 38 23 6c bd 52 b6 e7 bd d8 cc 24 3d c0 08 a4 3b
       -0.057650775 -0.11314072 0.040234417 0.005005926
000340 46 93 97 bd a8 0c a2 3c 30 c3 3e bd 9c e2 d8 bd
       -0.07401137 0.019781426 -0.046572864 -0.10590097
000350 38 4a c9 3d 5a 92 d7 3d 28 18 e5 3d 92 37 ed bd
       0.09828609 0.10525961 0.11186248 -0.11582865
000360 b6 3d e5 bd 10 f3 61 3c 78 8b d7 bd 04 56 74 3d
       -0.11193411 0.013790861 -0.105246484 0.059652343
000370 bc 74 1e bd 88 57 f5 3c 68 0d 41 3d 00 5a 4a bd
       -0.038685545 0.029948965 0.047131926 -0.049402237
000380 b0 74 4c bd de c6 f5 3d 48 a2 ea 3d f6 8c 97 bd
       -0.04991597 0.120008215 0.11456734 -0.07399933
000390 06 51 b5 bd ec 24 ca bd 94 1f 8f bd 7a 21 ab 3d
       -0.088533446 -0.098703235 -0.06988445 0.083559945
0003a0 a6 77 ec 3d 7c 7b bd 3d 40 55 d9 3c 30 aa 9e 3c
       0.11546259 0.092520684 0.026529908 0.019368261
0003b0 30 30 dd 3d a0 db 36 bd 6e 76 d9 3d 5e 73 9b 3d
       0.10800207 -0.044643044 0.10618292 0.07590364
0003c0 86 fb fa 3d 56 29 98 bd 28 dc f3 3d b8 96 6f bd
       0.122550055 -0.07429759 0.11907226 -0.058493346
0003d0 00 12 0e bb 80 2b f0 ba 00 de f3 3c 74 90 4f bd
       -0.002167821 -0.0018323511 0.029768944 -0.05067487
0003e0 0e 4a ea bd 60 fb 95 3c 70 8d ed 3d e8 13 a5 3d
       -0.11439906 0.018308342 0.11599243 0.080604374
0003f0 90 c9 0e 3c 58 a1 a5 3d 32 94 b0 3d 50 30 b7 3d
       0.008715048 0.080874145 0.08622016 0.08944762

lstm.bias_ih_l0 f4 [256]
000000 8a ba a9 3d c2 8b a2 bd 34 ae 58 bd 74 89 91 bd
       0.08287533 -0.07936813 -0.052900508 -0.07106295
000010 60 39 c5 bc 92 96 a4 bd 08 85 9e bc 20 13 ce bd
       -0.02407521 -0.080365315 -0.019350544 -0.100622416
000020 80 6d 90 bd 36 30 92 3d 24 bf 96 bd d0 c6 84 3c
       -0.070521355 0.07138102 -0.07360676 0.016208082
000030 00 03 d6 3a c8 31 f8 bc 20 3e 07 bd 64 6f 45 bd
       0.0016327798 -0.030297175 -0.03301823 -0.048201934
000040 0c f0 5f 3d 28 44 9e bd 22 92 ff bd 3c 3c b6 bd
       0.054672286 -0.077278435 -0.124790445 -0.088982075
000050 50 3b 4a 3c e6 41 aa bd f4 09 1e bd c4 73 43 bd
       0.012343243 -0.083133504 -0.03858371 -0.047717825
000060 70 d3 7c 3d 40 05 37 3c f8 01 80 3c de 6d c5 3d
       0.06172508 0.011170685 0.015625939 0.09640096
000070 36 de 8b bd c2 35 b6 bd 80 b1 b0 bd 8c 10 ee 3d
       -0.06829493 -0.08896972 -0.086276054 0.1162425
000080 b8 0d 82 3d 8a da f8 3d 18 24 83 3c 42 66 d4 3d
       0.06350273 0.12151058 0.016008422 0.10371067
000090 d8 80 9f 3d e8 b5 cf 3d 40 e1 02 bc 9a b4 c3 3d
       0.07788247 0.10142118 -0.007988274 0.095559314
0000a0 c6 8f a6 3d d8 4b f3 3d 3e 26 8c 3d 20 60 ae 3b
       0.08132891 0.118797004 0.068432316 0.0053215176
0000b0 b8 67 fb 3c 88 e9 41 bd 16 34 8c bd 50 96 63 3c
       0.030689105 -0.047341853 -0.06845872 0.013890818
0000c0 00 de eb 3b 30 59 42 bc a8 43 ef bd c8 7c d8 bd
       0.0071980953 -0.011862084 -0.11682826 -0.10570675
0000d0 20 4e b6 3c 0c a2 1c bd e0 70 35 3c 80 fe 97 ba
       0.02225405 -0.038240477 0.011074275 -0.0011596233
0000e0 70 51 dd bd cc cd 90 3d 38 93 cc 3c f0 3d 17 bc
       -0.108065486 0.07070503 0.024972543 -0.009231076
0000f0 00 7e 97 bb 2e f7 80 3d 20 b3 36 bd a8 dc 9f 3d
       -0.0046231747 0.06297146 -0.04460442 0.07805759
000100 a0 9a d7 bb 28 d3 8d bd 02 bb e9 bd 8c 35 88 3d
       -0.006579712 -0.069250405 -0.11412622 0.06650838
000110 68 78 a8 bc c4 50 9d 3d 16 7a 8d bd 82 ee f0 3d
       -0.020565227 0.076814204 -0.06908052 0.11764242
000120 c6 0e c4 3d 30 0f 69 bc d0 ca 72 3d 90 a7 be bd
       0.0957313 -0.014224812 0.05927545 -0.09309304
000130 80 6e 7c bb 00 a2 e9 3d 60 e8 d4 3b c6 44 c9 bd
       -0.0038518012 0.11407852 0.006497428 -0.098275706
000140 60 f5 cf 3c 86 e0 a2 bd ec e2 af 3d 50 1f f6 3c
       0.025385559 -0.07952981 0.08588204 0.030044228
000150 b4 8f c7 3d 60 12 a7 bc 50 b3 2c bd 80 bd 23 3d
       0.09744206 -0.020394504 -0.042163193 0.039975643
000160 e0 19 2b bc 12 2a fe 3d 36 88 ed 3d e0 25 3a 3d
       -0.010443181 0.12410368 0.11598246 0.045446277
000170 a4 b9 a2 3d 40 d2 8d 3c 8a ad 9b bd 20 fa c3 3d
       0.079455644 0.01731217 -0.07601459 0.09569192
000180 38 b2 b2 bc ec b0 7e 3d f8 69 fe 3d 10 b6 3c 3c
       -0.021813497 0.062180445 0.12422556 0.011518016
000190 22 d6 b9 3d 6a 52 be bd 8c 72 24 bd a0 c2 09 bc
       0.09074046 -0.09293063 -0.040148303 -0.008408219
0001a0 ec ee fe 3d 18 f7 f7 3d b6 80 97 bd 20 6e 9a bd
       0.124479145 0.12107676 -0.073975965 -0.07540536
0001b0 b2 2a 8f bd e2 1c 8e 3d 90 12 89 bd b8 6c 7a bd
       -0.06990565 0.06939103 -0.06692994 -0.06113884
0001c0 9c 53 99 bd 90 fa 79 bd 7c 2b 74 3d 10 35 32 bc
       -0.0748665 -0.06102997 0.059611782 -0.010876909
0001d0 40 e5 dc bd 32 0b 9f bd 76 31 e1 3d 48 a1 d2 bd
       -0.107859135 -0.07765807 0.10995762 -0.10284668
0001e0 2c af 1b 3d 00 e7 95 bd 18 60 ae 3d f0 28 1c bd
       0.038008854 -0.073194504 0.08514422 -0.03812498
0001f0 02 22 bd bd 30 65 fb 3d 68 6c a8 bc b2 2a ea bd
       -0.09235002 0.12275159 -0.020559505 -0.11433925
000200 f2 57 80 3d a0 73 d0 3d 1c 1c 30 bd ac 9d 4a 3d
       0.06266774 0.10178304 -0.042995557 0.049466774
000210 98 c0 1b bd 36 e4 cf 3d ec 5d 05 3d 48 ce 80 bc
       -0.03802547 0.1015095 0.032560274 -0.015723363
000220 e2 02 a0 bd 24 e4 99 bd 34 04 e4 bd 52 ad 8a bd
       -0.0781305 -0.075142175 -0.11133614 -0.067713395
000230 bc d9 68 bd ec cb 9d 3d 8e d2 ac bd c0 45 c7 bd
       -0.056848273 0.07704911 -0.084385976 -0.09730101
000240 20 dd 78 3d e0 c1 81 bd 3a 1e c6 bd 2c f0 3e 3d
       0.060757756 -0.06335807 -0.09673734 0.046615764
000250 ca 44 f0 3d 3c 3b 77 bd 42 e9 b4 bd 1a 76 ce bd
       0.117318705 -0.060359225 -0.08833553 -0.1008112
000260 7e 1b e8 bd e0 d9 91 3d e8 8d ca 3c 6a 6d ce 3d
       -0.11333369 0.071216345 0.02472587 0.10079463
000270 80 d2 c6 bb 50 59 97 bd 50 ac 43 bd 74 a3 e8 bd
       -0.006067574 -0.07390082 -0.047771752 -0.11359301
000280 bc 53 9b bd 40 05 18 bd 80 79 22 3c 18 3b 3d 3d
       -0.075843304 -0.03711438 0.009916663 0.046198934
000290 8c 4c 50 bd b6 b9 b7 bd 76 c7 eb 3d c4 d7 98 3d
       -0.05085425 -0.089709684 0.115126535 0.07463029
0002a0 80 1b a0 3c 80 2c 6e 3b 5c c2 e0 3d f8 e7 90 bc
       0.019544363 0.0036342442 0.10974571 -0.017688736
0002b0 dc 68 30 3d da df ad bd f0 6f 6f bd f4 47 fd 3d
       0.04306875 -0.08489962 -0.05845636 0.123672396
0002c0 a0 a6 c8 bd bc 3b de bd 50 c1 6f 3d ce 8d 93 3d
       -0.09797406 -0.10851237 0.058533967 0.072047815
0002d0 48 4a 12 bd 84 e0 b3 3d 38 73 4a 3d d8 33 b2 bd
       -0.03571537 0.08783057 0.049426287 -0.08701295
0002e0 c0 32 6f bc 60 6c b5 bb 8c 7e 7e 3d c4 c4 df 3d
       -0.014599502 -0.005536601 0.062132403 0.10926202
0002f0 7e c7 df 3d f0 1e 0d bd 80 ee 91 bb f4 7e f5 3d
       0.10926722 -0.034453332 -0.0044534802 0.11987105
000300 98 84 ac 3d f0 90 71 3c 38 22 1d bd 7c d0 e6 3d
       0.08423728 0.014744028 -0.03836271 0.11270234
000310 68 47 2c bd 62 b7 ab 3d 9c 71 a5 3d 20 9b 49 3c
       -0.042060286 0.08384587 0.0807831 0.012305051
000320 e4 e6 08 3d 04 76 da 3d 50 60 9e 3d 88 d1 82 3c
       0.03342332 0.10667041 0.07733214 0.015969053
000330 d0 ae 2a bc c4 2e 4a 3d a4 f9 88 3d c0 7c df bb
       -0.010417655 0.049361005 0.0668824 -0.0068202913
000340 06 de c9 3d c0 81 fa bb 98 3e 0d bd 40 c6 f4 bd
       0.09856801 -0.007644862 -0.034483522 -0.11951876
000350 46 e6 88 3d 10 b1 b7 bd 74 9d 7d 3d 0e f8 be 3d
       0.06684546 -0.08969319 0.061917737 0.093246564
000360 84 f7 d5 3d e8 8f 20 bd 20 e1 6f bc 46 e3 fa 3d
       0.104476005 -0.03919974 -0.014641076 0.1225038
000370 80 db 30 bd 96 b3 e0 bd 6c 99 80 3d ce d9 af 3d
       -0.04317808 -0.10971753 0.06279263 0.08586465
000380 56 55 bc 3d f0 ff c2 bc a8 f3 b3 3d 4e 35 cc bd
       0.09195964 -0.023803681 0.08786708 -0.099711046
000390 52 9d ad 3d 14 76 d5 bd 98 98 17 bd 58 72 6b bd
       0.08477272 -0.10422912 -0.03701076 -0.057482094
0003a0 20 6d 6a 3c 50 d6 be bc 14 da f1 bd 84 c6 ed bd
       0.014308244 -0.023295552 -0.11809173 -0.116101295
0003b0 90 4c aa bc 1a ad 86 3d cc 5c 68 3d 0e 0c 8c 3d
       -0.020788461 0.06575985 0.056729123 0.06838237
0003c0 40 27 f1 bb fc e4 67 bd f0 83 3b bd 5c 00 f7 3d
       -0.0073594153 -0.05661486 -0.045780122 0.120606154
0003d0 b0 b1 e6 bc 70 bb 3d 3d 58 15 a2 3c 60 c1 b1 3d
       -0.0281609 0.046321332 0.019785568 0.086794615
0003e0 20 ab a9 bc c6 6e 8e 3d 10 ab ca 3d 28 71 cb bd
       -0.020711482 0.06954722 0.09895909 -0.09933692
0003f0 22 c2 fd 3d 00 fe d7 39 f4 4a 8c bd 16 07 9c bd
       0.123905435 0.0004119724 -0.06850234 -0.07618539

lstm.bias_hh_l0 f4 [256]
000000 c0 ad cb 3c 7c 13 08 bd 28 e2 c5 3c a0 ce ca bd
       0.024863124 -0.033221707 0.024155691 -0.09902692
000010 a4 04 20 3d cc 87 11 bd 18 b2 b9 bd e8 23 97 bd
       0.039066926 -0.035529897 -0.09067172 -0.073798954
000020 a0 25 4a 3d 1a ca a6 3d bc 28 fb 3d a8 e1 93 bd
       0.04935229 0.081440166 0.12263629 -0.07220775
000030 28 68 5e bd ec a4 20 bd 20 df 93 bb 70 68 2b 3c
       -0.05429855 -0.03921978 -0.0045126826 0.010461912
000040 06 fa d6 3d ac 70 5c 3d 1c 4a dc bd d0 f2 58 3c
       0.10496907 0.05381839 -0.10756323 0.013241485
000050 40 c1 48 bb 3c 7b 9e 3d 90 eb 9a 3d 84 4a 98 bd
       -0.0030632764 0.07738349 0.07564461 -0.07436088
000060 f8 5f 60 bd d0 6c 0e 3d 18 48 ef 3c 84 d0 04 bd
       -0.054779023 0.03477174 0.029209182 -0.03242542
000070 4c 22 5f 3d a0 00 71 bd bc d6 07 bd a6 78 eb 3d
       0.054476067 -0.058838487 -0.03316377 0.11497621
000080 cc 53 78 bd 78 4e bc bd 7c 49 b0 bd 18 10 22 bd
       -0.06062679 -0.09194654 -0.08607766 -0.03956613
000090 60 51 98 3d a8 20 7f bd 74 5e 75 3d c0 30 fe 3c
       0.07437396 -0.062287003 0.05990453 0.031029105
0000a0 ea 1f cd 3d 40 cd a2 bb 22 4c b9 3d 50 8e e4 bc
       0.10015853 -0.0049683154 0.09047724 -0.027899891
0000b0 c8 41 20 bd bc a2 78 bd 28 fd 9f bd ec 12 c8 bd
       -0.039125234 -0.06070207 -0.078119576 -0.09769234
0000c0 24 f1 06 3d ae 62 b9 bd ac e8 16 bd e6 14 b0 3d
       0.032944813 -0.09052025 -0.036842987 0.08597736
0000d0 28 5b fc 3d b4 ac e0 bd 5c 2c bf 3d e0 c6 57 bc
       0.12322074 -0.109704405 0.09334633 -0.013169974
0000e0 00 8a 88 3c 00 6e 58 3c b0 e9 6e bd bc b5 a8 bd
       0.016667366 0.01320982 -0.05832833 -0.08237788
0000f0 78 d5 87 3c b0 6f 64 3c 80 97 56 bc bc 76 36 bd
       0.016581282 0.013942644 -0.013097644 -0.044546828
000100 60 fd 61 3d 00 07 59 bc 20 44 bf bb 8c 58 06 3d
       0.055173278 -0.013246298 -0.0058369786 0.03279929
000110 1a 0e c9 3d 40 df 0d 3c 12 c2 ba bd 10 70 ed bc
       0.09817143 0.008659184 -0.09119047 -0.0289841
000120 00 14 f1 b9 e2 e4 dd 3d ca 0b dd bd 60 c5 c7 3b
       -0.00045982003 0.108346716 -0.10793264 0.006096527
000130 08 4c 64 bd 1a 44 92 3d 48 c1 91 3d ec 1c be bd
       -0.05573657 0.071418956 0.071169436 -0.0928286
000140 bc 6b ef bd 20 5d f4 3d 38 d9 2c bd e6 4f 89 3d
       -0.116904706 0.11931825 -0.042199343 0.067046925
000150 8e 1e a5 3d b8 8e 4a 3d 50 2a 59 3c d0 c9 56 bd
       0.080624685 0.049452513 0.013254717 -0.052438557
000160 a0 21 0f bd 9c 48 83 3d 14 a8 3e 3d 3a 77 da bd
       -0.034944177 0.064103335 0.04654701 -0.10667272
000170 2c c6 f8 bd 00 0d 88 3c ec a8 f9 bd 60 40 78 bc
       -0.12147173 0.016607761 -0.121904224 -0.015152067
000180 88 03 32 bd 68 9d db bc d0 0e d7 3d b6 29 eb 3d
       -0.0434604 -0.026808456 0.10500872 0.11482565
000190 40 a3 89 3b a8 65 bc bc da 33 e4 3d d4 59 bf 3d
       0.004200369 -0.022997692 0.111427024 0.09343305
0001a0 e8 fc d8 3d 68 87 d0 3d 26 97 f2 3d e2 05 e9 bd
       0.10595113 0.10182077 0.118452355 -0.11378075
0001b0 48 bc f6 bc 8e 09 80 3d 18 da a9 3c f4 e6 af bd
       -0.030119076 0.062518224 0.020733878 -0.08588973
0001c0 92 25 db bd 24 7d c2 bd f8 29 92 bd 18 9c 4a 3d
       -0.10700525 -0.09496525 -0.07136911 0.04946527
0001d0 7c 47 4f bd ee 19 fc bd 2c d2 a2 bd 20 f0 50 bd
       -0.050605282 -0.12309633 -0.07950243 -0.05101025
0001e0 20 49 50 3d a8 8e db 3d b8 ae 14 bd ba 12 a0 bd
       0.050850987 0.10720569 -0.036299437 -0.07816072
0001f0 74 b5 ab bd 12 4d b6 3d 20 df c2 3c 90 41 f1 bd
       -0.08384219 0.08901419 0.023788035 -0.11780083
000200 60 52 a5 3c 08 c4 cc 3c c8 de 92 3c e0 91 06 3c
       0.020180881 0.024995819 0.017928496 0.00821349
000210 dc 91 fb bd 44 ce b6 3d 28 74 cd 3c e8 ff 1b 3d
       -0.1228368 0.08926061 0.025079802 0.038085848
000220 34 1c c9 bd 04 24 ad bd fc 24 47 3d 40 3b 49 bd
       -0.098198324 -0.08454135 0.048619255 -0.04912877
000230 58 c5 95 bc a8 d2 f2 3d a4 d3 a5 bd 78 0f 80 bd
       -0.018282577 0.11856586 -0.08097008 -0.062529504
000240 38 31 be 3d 9a 60 84 3d 10 bf 63 bc d8 92 6e 3d
       0.092867315 0.06463738 -0.013900533 0.05824551
000250 88 49 0c 3d ac 78 b6 3d ce 0d ac 3d 60 d4 cc bb
       0.034249812 0.08909735 0.084010705 -0.006250903
000260 40 62 2c 3c dc a8 1b 3d 4c 06 5f bd 70 5f f6 3d
       0.0105214715 0.038002834 -0.054449365 0.12029922
000270 50 f6 92 bc b8 82 98 3c 9e f3 98 3d 20 f7 d6 bc
       -0.017939717 0.018617019 0.07468341 -0.026240885
000280 80 bc 97 bc 40 6e 1d 3d 0c ad 26 3d 60 42 48 3c
       -0.018522501 0.03843522 0.040692374 0.012222856
000290 88 4d cf bd ec de bd bd 60 3f 5c bc 54 a6 2e bd
       -0.1012221 -0.092710346 -0.013442844 -0.04263909
0002a0 48 09 4d bd 14 51 d9 bd f6 71 f0 3d d0 e9 2f 3c
       -0.05005768 -0.106111676 0.11740486 0.010736898
0002b0 22 14 90 3d 68 8e e4 bc bc 8d 2f bd 00 f5 a3 3a
       0.0703509 -0.027899936 -0.042859778 0.0012508929
0002c0 d0 22 12 bc 0e d9 d3 3d 3c 08 81 bd 30 9e bf 3d
       -0.008919433 0.10344134 -0.06300399 0.09356344
0002d0 4a d9 d1 bd 90 75 2c bc ae 81 e8 bd 24 67 55 bd
       -0.10246523 -0.010526076 -0.113528594 -0.052100316
0002e0 40 dc c0 3b 4c e9 58 3d 8c 50 62 3d c6 90 fe bd
       0.005885631 0.052956864 0.055252597 -0.12429957
0002f0 88 01 ba bd 28 3f 8e 3c 7c 2a a5 3d 5c da 53 3d
       -0.09082323 0.0173641 0.08064744 0.051721916
000300 0c e4 6c bd d0 42 01 bc 42 6b be bd f4 ca 74 3d
       -0.05783467 -0.0078894645 -0.092978016 0.059763864
000310 ec 24 0f 3d 94 8d da bd 28 70 e7 bc 40 5c 6c 3c
       0.03494732 -0.10671535 -0.028251722 0.014426291
000320 16 a7 fb 3d a4 22 b0 bd 60 7e 20 bc 88 2c e4 bc
       0.122877285 -0.08600357 -0.009795755 -0.027853265
000330 1c 1f 94 3d ac 66 46 3d b8 38 a9 3d 70 03 1b 3d
       0.07232496 0.04843776 0.08262771 0.037845075
000340 d2 54 82 bd 3a 62 95 bd 0e 1c ac 3d 06 de 97 3d
       -0.063638344 -0.07294126 0.084037885 0.074153945
000350 64 8f 9f bd b4 f8 fb 3d 48 76 d1 bc c8 80 95 3d
       -0.077910215 0.12303296 -0.025569096 0.07299954
000360 fe cc e8 bd 10 53 e5 3d ac e2 af 3d 60 39 ce bd
       -0.11367224 0.111974835 0.08588156 -0.10069537
000370 50 f0 53 bc ea ae c9 3d 90 48 c7 3d b0 b1 21 3c
       -0.012935713 0.09847815 0.09730637 0.009869024
000380 52 8a 8b 3d 3e b0 e8 bd 98 0f f4 3d 28 f7 d8 bd
       0.06813492 -0.113617405 0.11917037 -0.10594016
000390 58 9d d4 3c a8 69 69 bd 42 49 c4 bd 6e 42 a5 3d
       0.025953934 -0.056985527 -0.09584285 0.08069311
0003a0 00 ae 09 ba ca 3d e0 bd 00 8f f4 bd 30 5e 89 bd
       -0.0005252063 -0.10949285 -0.119413376 -0.06707418
0003b0 38 08 e2 3c ee fd f2 bd b0 08 d0 3d 00 52 0a 3d
       0.02759181 -0.118648395 0.10157907 0.033769608
0003c0 f0 80 77 bd 90 13 57 bc c0 cc 11 3c e0 82 a9 3c
       -0.0604257 -0.013127223 0.008898914 0.020692289
0003d0 10 74 e0 bc 70 7f 54 3c 00 f3 e1 bb f0 b7 d5 3d
       -0.027399093 0.012969837 -0.006895423 0.10435474
0003e0 c2 14 b2 bd 44 9b 00 bd 60 bd 7f 3c 7a eb da bd
       -0.086953655 -0.031398073 0.015609115 -0.10689445
0003f0 24 8c 67 bd 0e 63 ab bd 88 e8 42 bd 0c cf 04 3d
       -0.056530133 -0.083685026 -0.04758504 0.032424018

lstm.weight_ih_l1 f4 [256, 64]
000000 3c 6f 67 bd 08 b0 43 bd 66 49 a3 3c 02 70 80 bd
       -0.056502566 -0.0477753 0.01993246 -0.06271364
000010 0c 6c 1c 3d e0 ff 1e 3e 62 8d a9 3d 80 a1 db 3b
       0.03818898 0.15527296 0.0827892 0.006702602
000020 2c cc aa 3d 00 9b 34 bc 1c f6 fd 3d 5e 6d a9 3d
       0.08339724 -0.011023283 0.12400457 0.08272813
000030 57 3a 6f 3d e8 29 44 bd a0 da a8 3c 08 12 c9 3d
       0.058405247 -0.047891527 0.020612061 0.09817892
000040 cc 93 80 3d f8 36 c2 3d 2c f1 72 bc 58 ab a2 bd
       0.0627819 0.09483141 -0.014828008 -0.079428375
000050 65 11 5d bd 98 66 1c bd e8 85 65 bd 00 29 98 3c
       -0.053971667 -0.03818378 -0.056035906 0.018574238
000060 e4 2a f4 bd ce ba 83 3d 38 0d c0 3c a0 23 9a 3b
       -0.11922243 0.064321145 0.023443803 0.004703954
000070 94 08 55 3d ee 8f bd bd 78 4f c7 bc 80 00 97 bd
       0.052010134 -0.09255968 -0.024329886 -0.07373142
000080 22 1f b2 bd 14 5a cb bd 10 88 13 3d 40 19 e4 bd
       -0.08697344 -0.099292904 0.03601843 -0.111376286
000090 4b 85 f1 bc 33 55 32 bd 58 6f 6a bd 10 eb 9c 3d
       -0.029482504 -0.043538284 -0.057235092 0.07662022
0000a0 38 40 97 3d 30 26 e4 bd 10 55 91 bc 56 9d 93 bd
       0.07385296 -0.11140096 -0.017740756 -0.07207744
0000b0 00 e2 80 3a 75 54 16 3d 8a 55 bf 3d b6 7d 93 3d
       0.0009832978 0.03670164 0.09342487 0.07201712
0000c0 80 bf 57 bc 7e ee 94 3d 20 5f 03 3d 38 ef 52 bd
       -0.013168216 0.07272051 0.03207314 -0.051497668
0000d0 50 c8 0b bc e6 bb 82 bd f8 76 a0 3c 3a df b7 3d
       -0.008531645 -0.06383495 0.019587979 0.08978124
0000e0 94 9d fa bd 00 a9 f3 3d e8 e6 cd bd 58 61 a4 3c
       -0.12237087 0.118974686 -0.100538075 0.020065948
0000f0 50 30 61 3c 80 78 80 3c 10 d7 76 3d 9c 59 1b 3d
       0.013744429 0.015682459 0.060263693 0.037927255
000100 4a a9 8f 3d e0 02 0e 3c 9b b0 54 3c d0 96 d5 3d
       0.07014711 0.008667678 0.012981559 0.10429156
000110 54 97 33 bd 96 16 99 bd e4 65 97 bd c0 45 66 3d
       -0.04384549 -0.07475011 -0.07392481 0.056218863
000120 a6 75 d5 3c 5e 82 81 bd 38 78 2a bd 68 9f cc 3d
       0.026057076 -0.06323694 -0.041618556 0.09991342
000130 ae 9c a3 bd 2e c1 83 bd 42 14 a5 3d f8 6a aa 3d
       -0.07988869 -0.064333305 0.080605045 0.08321184
000140 16 62 70 3d 3c 0b 67 bd 36 08 81 3d 7f 3d 2d bc
       0.058687292 -0.0564072 0.06300394 -0.010573744
000150 26 e9 91 bc 54 33 5d 3d 24 d5 20 3e 50 de 78 3c
       -0.01781137 0.05400403 0.15706307 0.015189722
000160 d0 53 3c bd d4 78 38 3d f4 90 79 bd 64 fe d1 3d
       -0.045978367 0.045037106 -0.060929254 0.10253599
000170 5c 58 ec bd 6c 45 9e 3d 88 4d c7 bc 80 1f d0 bb
       -0.11540291 0.07728085 -0.024328962 -0.0063514113
000180 d8 84 ba 3d 7c a9 26 3d c8 28 ca bc e4 90 9d bd
       0.09107369 0.040688977 -0.02467765 -0.07693651
000190 0e 15 9d 3d b6 99 74 bd a0 7d 54 3c e6 a4 e6 bc
       0.076700315 -0.059716903 0.012969404 -0.028154802
0001a0 0f 02 21 3e c8 3a e3 3d 1c d0 d7 3d 58 63 96 bc
       0.15723442 0.11095196 0.105377406 -0.018357918
0001b0 d0 ac e9 3c f1 97 19 be 20 e5 c1 3c 40 23 30 3c
       0.028524786 -0.14999367 0.023668826 0.010750592
0001c0 80 45 da bc a6 9c f5 bc 80 57 e0 ba d6 42 a6 3d
       -0.026644468 -0.029981922 -0.0017115921 0.08118217
0001d0 b4 9c 71 bd 84 a7 d6 3d 0c 89 03 bd 20 b8 50 3d
       -0.058987334 0.1048117 -0.03211312 0.050956845
0001e0 86 7a ff bd df 84 a1 3d 16 6f f6 3d 98 e7 c9 3c
       -0.12474541 0.07886671 0.12032907 0.024646565
0001f0 f8 f8 ce bc 2a a1 e7 bd a0 c2 c9 bc d6 1e c1 3d
       -0.025265202 -0.113100365 -0.024628937 0.094297096
000200 62 84 d6 bd 80 70 2c 3b 29 f1 00 be 7e 02 f8 3d
       -0.10474469 0.0026312172 -0.12591995 0.1210985
000210 04 97 89 3d 78 4f f6 3c b5 41 40 3d ea 42 f7 bd
       0.06718257 0.03006719 0.046937663 -0.1207331
000220 d8 9b 8f bd 18 5a bc 3d 00 e8 f3 b8 f8 31 d3 bd
       -0.07012147 0.091968715 -0.00011630356 -0.10312265
000230 bf 07 bf bc 2e bf fc 3d 90 52 2c 3c 59 89 90 bd
       -0.023319123 0.12341152 0.010517731 -0.07057447
000240 5a 60 2b bd 00 97 02 bd 61 33 ac bd 65 13 c7 3d
       -0.041839935 -0.031882286 -0.08408237 0.09720496
000250 e8 4c 15 3d 98 0f d6 3c 89 ef 3e 3c d6 4f fc bd
       0.036450297 0.026130483 0.011653789 -0.12319915
000260 4c 00 e4 3d d0 74 dc bd a0 3b b0 3b 10 d4 08 bd
       0.11132869 -0.10764468 0.0053782016 -0.033405364
000270 8d 39 dd bd c0 05 cb 3d 82 a3 bd bd e4 08 5d bd
       -0.108019926 0.09913206 -0.09259702 -0.053963557
000280 18 9e 93 bd c8 0e bf bd 94 d7 fd bd d0 e3 0f 3d
       -0.07207888 -0.09328991 -0.12394634 0.03512937
000290 68 85 12 3d 8b 32 17 bd 9e 9f da bd 49 04 98 bd
       0.035771757 -0.036913436 -0.10674976 -0.07422692
0002a0 09 6b d6 3d 98 94 48 3d f8 c1 d4 3c 60 43 de 3b
       0.10469634 0.048969835 0.025971398 0.006782934
0002b0 ec 7d 73 3d 7f 8c cd 3d a0 05 f9 bb 18 03 2e bd
       0.05944626 0.10036563 -0.0075995475 -0.04248342
0002c0 86 1e ae 3d 7f ab 52 bc 20 c9 79 3d 30 94 86 bd
       0.08501916 -0.012858271 0.060982823 -0.06571233
0002d0 18 e0 8d bc 00 43 cd bd 20 6f 87 bc f8 15 a1 bd
       -0.01731877 -0.10022545 -0.01653248 -0.07865518
0002e0 84 cd 5a bd 8c 44 18 bd 22 5e b2 3d 50 b8 63 3c
       -0.05341865 -0.037174746 0.08709361 0.013898924
0002f0 c0 28 16 3b 10 df 31 bc 82 08 9d 3d 3c f2 46 bd
       0.0022912472 -0.010856405 0.07667638 -0.048570856
000300 80 fa f4 3c 40 86 04 bb 26 cd 94 bd b4 c5 d3 3d
       0.029904604 -0.002022162 -0.072656915 0.10340443
000310 d6 f2 b5 3d 89 3e bb bb 3b 1b 03 bd ce c3 e1 3d
       0.08884208 -0.005714242 -0.03200839 0.11023675
000320 a1 b2 4f 3d 00 bc 07 3c e8 11 f7 3d 1e ae c6 3d
       0.050707463 0.008284569 0.12063962 0.09701179
000330 83 d0 36 3d c8 6e f3 3d 80 9d 50 bd 15 27 89 3c
       0.044632446 0.11886364 -0.050931454 0.016742269
000340 fc 84 95 bd 70 58 fc bc ee db 39 bd 45 dc 0b 3e
       -0.073007554 -0.030803889 -0.045375757 0.13658245
000350 87 b0 ee bd 40 a4 bd 3b f5 52 a9 3c 2a 96 b3 bd
       -0.11654764 0.0057874024 0.02066944 -0.08768876
000360 80 a9 dd 3b b0 54 9a 3d f4 0c 12 bd 38 58 42 3d
       0.0067645907 0.07535684 -0.035656884 0.047447413
000370 ad 90 1a be e6 6d ea 3d a0 e4 fb 3d 5c 0d 63 3d
       -0.15094252 0.11446743 0.12299466 0.055432662
000380 a0 c7 c5 3b e0 29 9b bd 4e 14 e1 3d cf 11 52 bd
       0.00603576 -0.075763464 0.10990201 -0.051286515
000390 51 0e 40 3c 75 47 89 bc c8 0c 62 3d 2a 67 94 3d
       0.011722163 -0.016757706 0.05518797 0.072462395
0003a0 de f4 c7 39 34 07 31 3d a6 6d f6 3d 98 74 cb 3c
       0.00038138678 0.04321976 0.120326325 0.02483587
0003b0 00 90 9c bb a7 8f 40 bd c0 0a 53 bc 2c 77 2d 3d
       -0.0047779083 -0.047011998 -0.012880981 0.04234998
0003c0 a0 7b ca 3d fb 29 1e be 40 4e aa 3d a5 35 93 3d
       0.09886861 -0.15445702 0.08315706 0.07187966
0003d0 9a 23 c1 3d fc b4 9e 3d e8 a7 8c bd 1a 2f c2 3d
       0.094306186 0.07749364 -0.06867963 0.0948164
0003e0 f4 7f 1b 3d 74 94 ae 3d 70 34 b4 bd 40 e6 09 3c
       0.037963822 0.08524409 -0.08799064 0.008416712
0003f0 0c 8d 84 bd 60 5d 7d bd 08 06 cf bc b8 51 1d bd
       -0.06472215 -0.061856627 -0.02527143 -0.03840801

lstm.weight_hh_l1 f4 [256, 64]
000000 46 ce 92 3b 0c eb 65 bd b8 47 fa 3d 83 d9 bc bd
       0.004480156 -0.05613236 0.122207105 -0.092211746
000010 96 79 d6 3d bb 48 8a 3d 76 f6 fe 3d 4a 6f a8 bc
       0.104724094 0.067521535 0.124493524 -0.02056088
000020 0f 2a e2 3d d4 cf 5a 3d 77 70 af bd cb ff 73 3d
       0.11043178 0.053420857 -0.08566373 0.059570115
000030 1c 3e b5 3d 3b e5 83 bd 7f f0 81 3c 3e d3 2d 3d
       0.08849737 -0.064402066 0.015861748 0.042437784
000040 26 ae 05 bd 41 26 17 3d 90 c0 1e be e1 a0 2c 3d
       -0.032636784 0.036901716 -0.15503144 0.042145614
000050 79 a2 24 bc db 71 00 3d 59 f9 c4 bc f0 bc b0 3d
       -0.010048502 0.03135858 -0.02404468 0.08629787
000060 d1 09 85 3d e3 a5 a7 bc b6 69 ae bd b4 20 4f bc
       0.06496013 -0.020464843 -0.085162565 -0.012642074
000070 23 07 12 bd 1c 4b 73 3d 58 fd f7 3d 0d 32 e3 3c
       -0.035651337 0.0593978 0.12108868 0.027733827
000080 82 d6 a7 bd aa eb 1c be 52 56 52 3d a9 ca f3 3d
       -0.08195211 -0.15324274 0.051351853 0.11903889
000090 d4 a1 f3 3d c3 b3 33 3d 34 eb 13 be 51 5d bf bd
       0.11896101 0.043872606 -0.14445192 -0.093439706
0000a0 75 50 41 3d 6b be a1 bd d8 c0 11 bb 32 73 81 bd
       0.04719587 -0.078976475 -0.0022240188 -0.063208
0000b0 4f 69 1f bd 82 81 8b bd b1 c2 55 bc 7e 58 d7 3d
       -0.03891879 -0.06811811 -0.013046906 0.105149254
0000c0 33 d5 3b bd e0 52 20 be 37 53 a0 3d 4c ff 91 3d
       -0.04585762 -0.15656614 0.07828372 0.07128772
0000d0 f3 f4 d6 bd a5 c6 3f bc a3 d0 04 3d 12 83 9a 3d
       -0.10495939 -0.011705075 0.032425534 0.07544531
0000e0 f4 b2 06 3e 77 d1 0d be 2b 18 b5 3d 18 7c df 3c
       0.13154203 -0.13849436 0.088425 0.027280852
0000f0 75 ed 8d bd 90 98 b3 bb b1 64 84 3c b9 af e4 3d
       -0.06930057 -0.0054808334 0.016161295 0.11166329
000100 d5 d6 0c 3d c7 72 6b 3d 31 d4 90 bd c7 94 a5 3d
       0.034384567 0.057482507 -0.07071722 0.08085018
000110 12 29 8d bd 31 90 91 bd c3 5d 91 3c e6 2c 71 3d
       -0.06892599 -0.071075805 0.017744904 0.05888071
000120 d6 a7 f2 3d d1 e0 31 bc 28 66 a4 3d 47 8c 79 bc
       0.118484184 -0.010856823 0.08027297 -0.015231199
000130 2e 58 16 3c 59 c6 16 3d a8 95 e6 bd 1b 2d 12 be
       0.009176297 0.036810253 -0.112590134 -0.14275019
000140 91 64 96 3c f0 fd 09 3d 12 4b 24 bd 10 b2 2f bd
       0.0183585 0.03368944 -0.040110655 -0.042894423
000150 11 94 df bd f4 85 0c bd 66 45 8d 3c bf 28 67 3d
       -0.10916913 -0.034307435 0.017245006 0.056435343
000160 67 b3 d0 bc 23 4e 1e 3d b3 1b 2d bd ec 5f 11 3d
       -0.02547617 0.038648736 -0.042262744 0.03549187
000170 4a 0f a2 3d 42 8b ad bd 3c 34 23 3e e1 04 d8 bc
       0.079130724 -0.08473827 0.15937895 -0.026369514
000180 2b 2a 7f 3d 5d 6a 84 bc df 02 59 ba aa 6f 38 bd
       0.062296074 -0.016164 -0.0008278321 -0.045028366
000190 99 a4 56 bd 99 28 04 3e af f8 90 bd 75 53 96 3d
       -0.052403066 0.12906112 -0.07078683 0.07340137
0001a0 4a 37 80 bc 2c 71 01 3c 44 ac 99 bd d5 7f f1 bd
       -0.015651364 0.007900517 -0.0750356 -0.1179196
0001b0 f2 8f 15 bd 2d 8d 09 be 83 bf 0c 3e 25 3d 01 3e
       -0.03651423 -0.1343276 0.13744931 0.12620981
0001c0 ae 63 dd bc ed d5 63 3d c1 d7 34 3d 56 02 d0 bd
       -0.02702507 0.055623937 0.04415107 -0.101566955
0001d0 07 a9 8a 3c 1f 37 41 bc 96 d3 77 3d 27 28 49 bc
       0.016926302 -0.011792927 0.06050452 -0.0122776395
0001e0 19 fb f1 3d 5c 91 ea bd 22 6d 76 3d 8a c5 e2 3d
       0.11815471 -0.11453506 0.06016267 0.11072834
0001f0 ed 6d ff 3c 25 79 cc 3d 89 4d c8 3d 55 4a 77 bc
       0.031180346 0.09984044 0.09780414 -0.015093406
000200 a2 5a 12 bd 2c 0c a9 3c 25 e4 45 bd 17 8e 09 3d
       -0.035730965 0.020635687 -0.04831328 0.033582773
000210 4b 05 00 3e 97 f2 9b bd 9d 88 0c bd 14 f0 e0 bb
       0.12502019 -0.0761463 -0.034309972 -0.006864557
000220 5c 92 9b 3d 05 5c 14 3e 41 c6 5f bd 6b 62 84 3d
       0.07596275 0.14488228 -0.05463243 0.06464084
000230 50 40 e6 3b 59 0c c1 bd 75 62 16 3d 9b 3d b5 bc
       0.0070267096 -0.09426183 0.03671499 -0.022124102
000240 7b a4 a6 3d e6 f3 75 3c a4 c1 bf bd 71 4e ab bb
       0.08136841 0.015011763 -0.09363106 -0.005227857
000250 fd e4 7c 3d 90 90 c7 bd 9e 80 08 3e de 5e 3e 3d
       0.061741818 -0.0974437 0.13330314 0.04647719
000260 ea 54 b7 bd 84 61 7f bd b2 dc 2c 3d fb 4f 20 3d
       -0.08951743 -0.062348858 0.04220266 0.039138775
000270 ed d2 db 3c 58 f2 df 3d a0 82 39 3c e8 7a fe bc
       0.026833976 0.10934895 0.011322647 -0.031064466
000280 c4 38 23 be 45 63 3b 3d 91 fe ae bc a7 c6 be 3d
       -0.15939623 0.045748968 -0.021361621 0.09315234
000290 c1 e2 70 bd 20 9b 18 3e af 8a cf bc 83 39 84 bd
       -0.05881 0.14902925 -0.025334684 -0.06456282
0002a0 83 b0 b4 bd d1 a7 36 bc d1 be 25 3d 07 77 01 be
       -0.088227294 -0.011148409 0.04046518 -0.12643062
0002b0 8a f7 9f 3c ba 42 8b 3d c5 a3 87 3d 6d c2 2e bd
       0.019527216 0.067998365 0.066230334 -0.042665888
0002c0 00 23 dd 3d a7 a6 57 3c 1f cb f8 3d 15 a5 74 bc
       0.10797691 0.013162292 0.12148117 -0.014931937
0002d0 8c 2d 53 bd aa 7b df 3d 56 68 a3 bb 41 cb ed bc
       -0.05155711 0.10912259 -0.004986803 -0.029027583
0002e0 8c 05 c7 3d a4 c0 a0 bc 2f 08 d4 bc da c0 aa bd
       0.09717855 -0.019623108 -0.025882808 -0.08337565
0002f0 17 29 db bc ea ff c9 bd d6 c4 4e 3d e2 93 a6 3d
       -0.026752992 -0.09863265 0.050480686 0.08133675
000300 72 fa 9b 3d ff 19 a3 bd 90 b4 0a 3d 97 f8 2d bd
       0.07616128 -0.07963943 0.033863604 -0.042473402
000310 c7 35 df 3d e4 2d f2 bc 2d 08 d6 bd 1a 50 33 3d
       0.10898929 -0.029562898 -0.10450778 0.043777563
000320 0e 6c 14 3c 74 4f 42 3d 13 f2 13 3d 65 00 e4 3d
       0.009058965 0.047439054 0.03611953 0.11132888
000330 fd d8 b3 bb 8c 1e 7b bd 00 89 0f be f2 a7 c5 bc
       -0.0054885135 -0.06130843 -0.14017105 -0.024127934
000340 46 f1 08 3e 40 23 ed bd 34 2a b1 bd 3e 77 c0 3d
       0.13373289 -0.11578989 -0.08650628 0.09397744
000350 35 85 95 bc 0b bd bd bd 5c 07 fb 3c 84 e3 2c 3d
       -0.018251995 -0.09264573 0.030643158 0.042209163
000360 53 7e d1 3d d9 46 d2 bc a8 f8 1d 3d a0 c4 8c bd
       0.102291726 -0.025668548 0.038567215 -0.06873441
000370 49 db a2 bd 4b de 13 3e cd 48 bf 3d d5 b2 66 3d
       -0.079519816 0.14440267 0.093400575 0.05632289
000380 f8 9f 8b 3d d2 87 8b 3d 76 fb 97 bd 7a 38 bd 3c
       0.06817621 0.06813015 -0.07421009 0.02309822
000390 65 90 5b bd 26 9f b6 b9 0b 96 8b bd d1 98 ea 3d
       -0.053604502 -0.0003483232 -0.06815728 0.11454929
0003a0 e9 19 6e 3d f5 89 b5 bd 3b 15 69 bd df d4 00 bd
       0.05813018 -0.08864204 -0.056905013 -0.03145301
0003b0 18 2b 11 be a4 27 15 be 6d 12 e8 bc 51 b8 c5 3d
       -0.14176595 -0.14565903 -0.028329099 0.09654296
0003c0 10 cb 6b bd 68 82 6b 3d cd 27 23 3e fb be 9d 3d
       -0.057566702 0.057497412 0.15933152 0.07702442
0003d0 70 f5 cd 3d 52 f8 50 3d 11 37 03 3e 99 22 c8 3d
       0.10056579 0.051018067 0.12813975 0.09772224
0003e0 00 85 ac 3c 29 ec 15 be 68 9b ac 3c bd be 36 3d
       0.021059513 -0.14640869 0.021070197 0.044615496
0003f0 33 2a 86 bd ed 4d 0f bb e5 59 16 3c 72 47 54 3d
       -0.065510176 -0.0021866516 0.009176706 0.051825948

lstm.bias_ih_l1 f4 [256]
000000 ae fa 8a 3d 96 13 97 bd 9d 76 c1 3d 3a ba 08 3e
       0.067860946 -0.073767826 0.09446452 0.1335229
000010 91 39 ae 3c 58 64 24 3c 03 62 74 3d 4a 59 cc 3d
       0.021267684 0.010033689 0.059663784 0.09977968
000020 cd 45 ff bc 29 24 49 3d 0e 17 37 3d 1a c2 c4 3b
       -0.031161213 0.04910675 0.04469972 0.006004584
000030 9f a5 97 3a 3d 1c c9 3d 7f d0 d5 3d d6 40 fe 3d
       0.0011569745 0.09819839 0.10440158 0.1241471
000040 15 dd 81 bd ef e7 b1 3d d9 f7 10 3e cc 0a be bd
       -0.06340996 0.08686816 0.14157046 -0.09279403
000050 e3 2e 42 3d 20 0c a8 3d c8 a1 9a 3d 39 a6 ca 3d
       0.047407996 0.08205438 0.075503886 0.09894986
000060 d0 78 4b bc 00 4f 1f 3e cf aa 03 3e df 63 ea 3d
       -0.012418941 0.1555748 0.12858127 0.1144483
000070 80 31 fc 3b 18 fc 15 3e fe e0 87 bd 78 23 c5 3d
       0.0076963305 0.14646947 -0.06634711 0.09625906
000080 17 00 8f bd ed ee 00 3c 89 21 14 3e b0 a5 46 bd
       -0.06982439 0.007869464 0.14465918 -0.048497856
000090 d9 65 a3 bc 1f 2d 43 3d 7f 97 0c 3e 56 ec db 3c
       -0.019946026 0.047650453 0.13729666 0.026846092
0000a0 d3 10 87 bd 83 cd af bd 02 6e b1 3d d9 dc d9 bb
       -0.06595006 -0.0858412 0.086635605 -0.0066486415
0000b0 2b a1 da bc f1 90 17 3e 40 3a e6 3d a2 9f ce 3d
       -0.026688179 0.14801385 0.11241579 0.10089041
0000c0 99 1f 69 3d 6b d1 69 3d 07 2d 96 bd c8 a7 8c bd
       0.0569149 0.057084482 -0.07332807 -0.06867939
0000d0 5c 99 73 3d a6 d6 35 3c 1c ef 0a 3e 97 cc 7a bd
       0.059472427 0.011098539 0.13567775 -0.06123027
0000e0 51 5a 51 3c e7 90 b5 3d 07 ba e1 3d c6 a0 a6 3d
       0.012777881 0.088655286 0.1102181 0.08136134
0000f0 35 7a b6 3b 28 cc c7 bd b4 06 77 3d 43 d1 ea 3c
       0.0055687674 -0.097557366 0.060309127 0.028664237
000100 bc 2e ff 3d 48 14 02 3e 6f 5a ce 3d 87 5b 20 bd
       0.12460086 0.12703049 0.100758426 -0.039149787
000110 29 1a 96 bb 1b 1a 0b bd 24 71 4d 3d 22 24 c6 3d
       -0.0045807553 -0.033960443 0.050156727 0.096748605
000120 2d 64 8c bd a1 82 0e bd 71 0d d3 bc 7b 1b 49 3c
       -0.068550445 -0.034792546 -0.025763245 0.012274618
000130 11 a0 f8 3d ab 19 74 bd 81 0c e7 ba 18 9a 27 3d
       0.12139905 -0.05959479 -0.0017627628 0.04091844
000140 8c 1c 13 3e 28 c8 89 3d be a4 4d bd fc ae fa 3d
       0.14366359 0.0672763 -0.05020594 0.12240407
000150 02 12 a0 bd 2c 3f f5 3b 24 df 93 bd 37 bc 12 bd
       -0.07815935 0.0074843373 -0.07220295 -0.035824027
000160 53 5e 34 bd e5 c3 74 3c 61 be 75 bd 6e d2 0c 3e
       -0.044035267 0.014939283 -0.059996013 0.13752148
000170 23 07 05 3e 22 53 cf 3c 16 86 88 bd 90 7c 39 bd
       0.12991004 0.025308196 -0.066662 -0.045284808
000180 ac 49 04 3e 3b cd 56 3c 0b 05 0c 3e 6f e1 b7 3d
       0.12918729 0.013110454 0.13673799 0.08978545
000190 33 6c b7 3c 15 fa 11 3e ff d2 38 3d db 9d 93 3d
       0.02239046 0.14255555 0.045123097 0.07207843
0001a0 8c 01 bf 3d b9 75 89 bc 40 3c 50 3d 62 ed 51 bd
       0.09326467 -0.016779767 0.05083871 -0.051251777
0001b0 f3 06 54 bd c8 0e 74 bb 42 7b ca 3d 7c a2 80 bd
       -0.05176444 -0.0037240256 0.09886791 -0.062809914
0001c0 11 4f 2c bd ae c6 a6 bd 06 a2 1a 3e 3d 5e 3b 3d
       -0.04206759 -0.08143364 0.1510087 0.04574417
0001d0 1a 55 b6 bd c8 83 ae 3d 06 69 b5 bd 08 58 a8 bd
       -0.089029506 0.08521229 -0.08857922 -0.08219916
0001e0 b2 b2 69 3d 87 22 d3 3d af ed 90 bd 67 67 eb bc
       0.057055183 0.1030932 -0.070765845 -0.02873583
0001f0 56 df 74 3d 40 52 83 3d d9 16 03 bd e2 0e ac 3d
       0.059783302 0.06412172 -0.03200421 0.08401276
000200 b1 fa 8b bd 81 8d b4 3c 7f b5 85 3c 5b c0 2e 3d
       -0.06834925 0.02204013 0.016321896 0.042663913
000210 78 5c b1 3d 75 c4 db bd 28 f7 98 3d 6f 0d 31 bd
       0.08660215 -0.107308306 0.07469016 -0.043225702
000220 80 e4 a4 bd d5 f1 84 bd 05 88 67 bc e7 93 3a bd
       -0.080513954 -0.06491438 -0.014131551 -0.045551207
000230 e1 61 33 bc 1a 42 c7 3d bf 1b a6 bd 2e 6a ce 3d
       -0.010948629 0.09729405 -0.08110761 0.10078846
000240 c2 e1 b2 bc b7 4a e2 3c a9 34 b0 bd 55 c8 28 3d
       -0.021836165 0.027623517 -0.08603794 0.041206677
000250 cd 85 d1 bb bd 63 b8 bd 6b 08 7e bd 23 69 a6 3d
       -0.006394124 -0.090033986 -0.062019747 0.08125522
000260 52 c0 0b 3e 75 87 09 be 15 3d 17 3e b6 0b 1c be
       0.13647583 -0.13430579 0.14769395 -0.15238842
000270 d0 36 c3 bd 51 f7 99 bd 81 1b b0 3d 01 38 3c bb
       -0.09531939 -0.07517875 0.08598996 -0.0028719904
000280 a6 32 84 3d b1 d9 91 bd 8c 5b 0e bb a0 7d 56 bd
       0.06454973 -0.071215995 -0.0021722047 -0.0523659
000290 38 d6 43 bd 66 77 b7 bd b1 37 05 bd f0 ad 9c 3d
       -0.047811717 -0.0895832 -0.032523815 0.076503634
0002a0 04 a1 fa bd 15 4d 95 bc 99 68 a4 bd 2e c6 16 3d
       -0.122377425 -0.018225232 -0.08027763 0.036810093
0002b0 9d 3d 69 bd 8a e2 23 bd 3a f7 5d bd c2 b0 73 bd
       -0.056943525 -0.040010966 -0.05419085 -0.05949474
0002c0 f0 cd f1 3d 42 21 ab bd 9c 3a 23 3e 1b e2 c5 bd
       0.118068576 -0.08355953 0.15940326 -0.09662267
0002d0 08 c2 3c bd c4 b8 ce 3d b9 bb dc 3d 84 e2 2a bd
       -0.04608348 0.10093835 0.10777993 -0.04171993
0002e0 76 8c 10 39 cd 97 1b be 34 40 90 3d 7d bc 90 3c
       0.00013785236 -0.15194626 0.07043496 0.017668003
0002f0 28 a1 43 bd c7 c7 0b bd 70 b2 01 3e 13 4e 86 bd
       -0.047761112 -0.03412607 0.12665725 -0.0655786
000300 3c 51 f7 bc 6a 1f 8b 3d 79 39 7f bd 0f ef 54 3b
       -0.030190103 0.06793101 -0.06231067 0.0032491123
000310 02 80 03 3d cd 72 4e 3e 13 01 4d 3e 06 02 13 3e
       0.0321045 0.2016098 0.20019941 0.1435624
000320 10 cd 38 3c 0a a9 22 bc f2 39 94 3d 0e 55 98 3c
       0.011279359 -0.009927997 0.07237615 0.018595245
000330 9c 50 0c 3d 61 4f 39 3c 5a b8 0a bb a0 c8 03 3d
       0.034256563 0.011310429 -0.002116701 0.032173753
000340 fa 17 95 3d e1 40 3c bd 94 ec e6 3d ce 8c 8e 3a
       0.07279964 -0.04596031 0.112755924 0.0010875703
000350 b6 f5 d2 3d d0 fa c3 3d 6e a8 87 3d f5 2e 21 3d
       0.10300772 0.09569323 0.06623922 0.039351422
000360 72 8f 9f 3d 45 c6 99 3d b2 1d e6 3b d4 86 9c 3d
       0.07791032 0.0750852 0.007022583 0.07642904
000370 63 f3 39 3e 6c 0f fb 3d fe b4 11 3d 25 db 4b 3e
       0.18159251 0.12258801 0.035573 0.19907816
000380 c4 5f 1a 3d 2e 75 f7 bc fb 74 80 3d 51 10 d8 3d
       0.037688985 -0.030207243 0.06272312 0.10549987
000390 a4 60 1a 3e 74 77 28 3c db 4b 06 3c 36 fd 9d 3d
       0.15075928 0.010282386 0.008196796 0.07714312
0003a0 9d a3 6e 3d ea 3d c0 3b 4e 63 20 3e ac 26 2e 3e
       0.058261503 0.0058667557 0.15662882 0.1700694
0003b0 a5 fc c9 3b 9f 0b 94 3c df 4f ef bc 71 35 0f 3d
       0.006164151 0.018071948 -0.02921289 0.034963075
0003c0 63 65 e8 3d b1 ec 1c 3e f5 34 ce bb 5e 49 2a 3d
       0.11347463 0.15324666 -0.006292934 0.041573875
0003d0 42 8d 2e 3e ae 4b b5 ba 77 7e 0f 3e 87 a0 b8 3d
       0.17046073 -0.0013831758 0.14013086 0.09014993
0003e0 5b 06 d2 3d b2 a9 e4 3d 8c b0 b3 bc 11 47 66 bc
       0.102551185 0.11165179 -0.02193477 -0.0140550295
0003f0 d2 c1 03 3e 57 1f 1e bd f7 6d 53 3e a3 ab 49 3d
       0.12866905 -0.038604107 0.20647417 0.04923595
