project/onnx_models/LSTM/Tesla.onnx (onnx, 29609 bytes, 5 tensors)

lstm.weight_ih_l0 f4 [128, 5]
0.16635151 -0.08288471 -0.16500363 -0.12669317 0.13396294 -0.09405655 0.032265052 -0.0822984
0.13372175 -0.04441151 -0.03700748 -0.14165652 0.032827824 0.11371277 -0.027492806 -0.0780713
-0.078434356 -0.058942996 -0.17049201 0.0010903627 -0.15851796 0.1691929 0.005360052 -0.01272434
0.1627882 0.08951895 -0.111661814 -0.019986138 -0.08643876 -0.09869165 -0.15241656 -0.09256046
0.012296274 0.1533738 0.14105417 -0.1534877 -0.14787056 -0.12354415 -0.09835915 -0.02753
-0.022104487 -0.13245629 -0.15319923 0.12934358 0.061461717 0.07323684 -0.03755048 0.049796775
-0.069180556 0.106860206 -3.2797456e-05 0.16698156 0.11935677 -0.15131216 -0.14242901 0.03954263
-0.12807399 0.16123284 0.041153803 0.08084811 -0.1178554 -0.09936357 0.053257078 -0.16936342
-0.02785711 0.12176569 -0.15657054 -0.089689374 -0.05655536 -0.1523204 0.12425034 0.0018926859
0.047255844 -0.13699812 0.05258131 -0.023880318 -0.01668194 -0.08590004 -0.17041956 0.17646404
0.066355675 0.16688047 -0.007563174 0.14164172 0.16049738 -0.14901555 0.16546337 -0.12343604
-0.105377086 -0.1717516 0.0993412 -0.15787008 0.15357526 0.08814104 0.048126012 0.030351162
-0.1722114 0.007762268 -0.046289355 -0.15741456 0.075940505 -0.10547624 0.16478418 0.039096996
-0.07698269 0.09086381 -0.06706324 0.16210155 -0.16699786 -0.1469645 0.013279229 0.09709413
-0.016077444 0.026281044 0.07307741 -0.1536175 0.006455913 0.023570135 0.036673516 -0.009457484
-0.008418769 -0.07131533 -0.14687148 0.08613376 -0.016646698 0.10895084 0.09343402 0.16214402
0.03552161 0.15445723 0.108551785 -0.079316214 -0.11808234 0.10144393 0.026346222 0.010342628
0.08119808 0.15977414 -0.0336722 -0.13268891 0.13972645 0.17064221 0.11152612 0.013966933
-0.12750013 0.08303358 -0.12230638 0.15940331 -0.1668702 -0.16647841 -0.058156036 0.14659075
-0.10036071 -0.02536641 0.11959787 0.15449949 -0.16978545 0.060033187 0.1248963 0.168276
-0.06722629 0.025046676 -0.16459604 0.066106215 -0.07327739 -0.070575446 -0.03907831 0.04636939
-0.0579933 -0.13364668 0.09698908 -0.094290674 0.033217132 0.11989616 0.054953694 -0.06897138
-0.1094372 -0.111666664 -0.054030724 0.16002469 0.13077782 0.14117132 -0.089539036 -0.089461766
0.062617525 0.015606433 -0.0760649 -0.04488039 0.07265864 0.15642156 0.14747651 -0.07187146
0.08909164 0.046906516 0.03853625 0.04799001 0.042016506 -0.17595907 0.031169653 0.10776989
-0.11934839 -0.11979099 0.02232708 0.033790007 0.06662606 0.09828921 -0.033610284 -0.076744646
0.03782718 -0.09744619 0.0019830465 0.15102313 -0.078786686 0.0879821 -0.019558772 -0.13361064
0.09669082 0.079208896 0.115800396 0.098560914 -0.15955707 0.09356977 -0.11740439 -0.0855317
-0.10185089 -0.05681351 0.123347715 0.110694185 0.09526999 -0.14444323 0.05013877 0.04678467
-0.06827301 0.15279792 -0.011922732 0.119788095 -0.025276005 -0.16972624 0.026334763 -0.08288745
0.09169017 0.08361046 -0.108804554 0.10639216 0.16720898 -0.089754365 -0.14700605 -0.01677154
-0.15817025 0.028696269 -0.087953515 -0.06285579 0.15799089 0.048862606 -0.040113628 0.059342846
00000000: 0d58 2a3e 75bf a9bd b6f6 28be dbbb 01be
00000010: 952d 093e b8a0 c0bd 5c28 043d 108c a8bd
00000020: 5bee 083e d8e8 35bd 2895 17bd 680e 11be
00000030: 7876 063d 3ee2 e83d 9838 e1bc d9e3 9fbd
00000040: 31a2 a0bd 366e 71bd 7595 2ebe 80ea 8e3a
00000050: 8852 22be e740 2d3e 60a3 af3b c079 50bc
00000060: f3b1 263e b655 b73d f3ae e4bd f8b9 a3bc
00000070: ce06 b1bd d91e cabd 1613 1cbe 5790 bdbd
00000080: 5076 493c 050e 1d3e 8170 103e e12b 1dbe
00000090: 616b 17be b704 fdbd 8670 c9bd 9886 e1bc
000000a0: 7814 b5bc 9fa2 07be 42e0 1cbe a572 043e
000000b0: 48bf 7b3d 32fd 953d 88ce 19bd b4f7 4b3d
000000c0: 89ae 8dbd 86d9 da3d 0090 09b8 37fd 2a3e
000000d0: 5271 f43d 93f1 1abe e9d8 11be 74f7 213d
000000e0: d425 03be 391a 253e e490 283d b293 a53d
000000f0: 2c5e f1bd 217f cbbd 1824 5a3d 9b6d 2dbe
00000100: 9834 e4bc 4a60 f93d 0754 20be 10af b7bd
00000110: 98a6 67bd e1f9 1bbe f676 fe3d 0014 f83a
00000120: 588f 413d 3c49 0cbe 805f 573d a8a0 c3bc
00000130: 90a8 88bc 5cec afbd 7782 2ebe fdb2 343e
00000140: 7ce5 873d b7e2 2a3e 80d4 f7bb 870a 113e
00000150: 6d59 243e 8897 18be 3b6f 293e 09cc fcbd
00000160: f1cf d7bd a7df 2fbe 6673 cb3d b2a8 21be
00000170: d542 1d3e 4a83 b43d c81f 453d 00a3 f83c
00000180: 2f58 30be a05a fe3b e899 3dbd 4831 21be
00000190: b286 9b3d ed03 d8bd 2fbd 283e 2c24 203d
000001a0: 1aa9 9dbd ce16 ba3d 7458 89bd f3fd 253e
000001b0: 7d01 2bbe dd7d 16be 2091 593c 4ad9 c63d
000001c0: d8b4 83bc 584b d73c 9ca9 953d e84d 1dbe
000001d0: 208c d33b 2816 c13c f836 163d 90f3 1abc
000001e0: e0ee 09bc c60d 92bd 7a65 16be e666 b03d
000001f0: a85e 88bc 9e21 df3d 565a bf3d 1509 263e
00000200: 1c7f 113d 092a 1e3e 6650 de3d 8a70 a2bd
00000210: 27d5 f1bd d6c1 cf3d 08d4 d73c 2074 293c
00000220: 2e4b a63d d59b 233e dceb 09bd 9adf 07be
00000230: 7314 0f3e d5bc 2e3e ce67 e43d 90d5 643c
00000240: 658f 02be 820d aa3d c47b fabd 9f3a 233e
00000250: 06e0 2abe 5179 2abe 0635 6ebd e31b 163e
00000260: ea89 cdbd 38cd cfbc baef f43d 1d35 1e3e
00000270: 3ddc 2dbe 5ce5 753d a2c9 ff3d 8b50 2c3e
00000280: f0ad 89bd b02e cd3c dd8b 28be b262 873d
00000290: 7512 96bd dc89 90bd 9410 20bd d4ed 3d3d
000002a0: 628a 6dbd adda 08be 36a2 c63d 781b c1bd
000002b0: b00e 083d 1e8c f53d 2017 613d de40 8dbd
000002c0: 9c20 e0bd 7eb1 e4bd 524f 5dbd 83dd 233e
000002d0: 9fea 053e 378f 103e 3e60 b7bd bb37 b7bd
000002e0: 9e3d 803d 20b2 7f3c eac7 9bbd 80d4 37bd
000002f0: 0ece 943d f92c 203e 1504 173e 5831 93bd
00000300: ae75 b63d 0c21 403d 30d8 1d3d 2c91 443d
00000310: 8019 2c3d 9d2e 34be 8057 ff3c 76b6 dc3d
00000320: ee6c f4bd fb54 f5bd 48e7 b63c 6467 0a3d
00000330: 3e73 883d da4b c93d f0aa 09bd 4c2c 9dbd
00000340: acf0 1a3d de91 c7bd 00f6 013b cfa5 1a3e
00000350: ea5a a1bd f62f b43d b839 a0bc 3ad1 08be
00000360: d605 c63d 4638 a23d c228 ed3d 4eda c93d
00000370: ee62 23be 82a1 bf3d b671 f0bd 3e2b afbd
00000380: 3397 d0bd 48b5 68bd ba9d fc3d a2b3 e23d
00000390: ea1c c33d ede8 13be 505e 4d3d 48a1 3f3d
000003a0: b8d2 8bbd 0f77 1c3e 9057 43bc 7653 f53d
000003b0: a00f cfbc b7cc 2dbe 00bc d73c e5c0 a9bd
000003c0: 0ec8 bb3d f63b ab3d ecd4 debd 22e4 d93d
000003d0: d538 2b3e 23d1 b7bd c188 16be 7864 89bc
000003e0: 62f7 21be 7014 eb3c f920 b4bd 89ba 80bd
000003f0: 5dc8 213e 2824 483d 304e 24bd 7c11 733d

lstm.weight_hh_l0 f4 [128, 32]
0.079424456 -0.020261914 0.0641499 0.017404288 0.084996745 -0.091534376 -0.091839224 0.05669473
-0.14090548 0.007268876 -0.056166977 0.024760827 -0.11445967 0.05812387 -0.074383795 -0.007588789
-0.06987222 -0.1063527 -0.10185186 -0.105423786 -0.13370141 0.022838727 -0.056118883 0.10195036
-0.10746456 0.009256542 0.09586005 -0.14066748 0.12980594 -0.09812558 -0.09170471 0.16035332
0.038708866 -0.023372471 -0.15038475 -0.027239934 0.052218914 0.11247034 0.027586758 -0.07126474
0.15980501 0.11075179 0.14380248 0.112115905 -0.0132166445 -0.10740911 -0.12166246 0.0022716373
-0.03835158 -0.04161921 -0.0217423 0.026067778 0.16661887 0.08713548 -0.01727949 0.1577544
-0.06533748 0.109204814 -0.07660326 -0.020090774 0.051624194 0.075949594 -0.08368183 -0.07177031
-0.0773844 0.108316794 -0.055154547 -0.17176299 -0.097462244 -0.07605434 0.04636693 0.17398666
0.122054204 0.028678924 0.08141695 -0.11921033 -0.10922149 0.025053948 -0.08577644 0.11320616
0.12017433 -0.05346077 0.07807751 0.08716215 0.13795681 0.08983825 -0.047129914 0.16026314
-0.029806003 0.054532334 0.15820755 -0.057470895 -0.078604504 0.06901422 0.074455515 0.053970262
-0.15308823 0.07823391 0.03606482 0.042402595 -0.16724841 -0.0059490055 0.05609645 0.0029482394
-0.13122937 0.03284043 -0.041207865 -0.051350474 -0.058936596 0.06882131 0.0525759 0.13001792
-0.046462312 -0.10075845 -0.025023177 0.059169307 0.040658787 0.081196144 -0.050691843 -0.024561375
0.101488754 0.14374171 0.00077459216 -0.11392784 0.1731901 -0.14959097 -0.16420957 0.02247633
-0.08599342 -0.16513371 0.14685299 0.0639161 0.16908006 0.11549245 -0.16490941 -0.06675979
0.16585706 -0.10271874 -0.0073890537 0.15006123 0.09241654 0.0011604726 -0.044565126 -0.0022950172
-0.15611443 -0.114762604 -0.1272925 -0.13159403 0.1263649 -0.08627179 -0.07125258 -0.113024615
0.08493967 -0.111831374 0.07731487 0.16347082 0.15625112 0.0036531985 -0.14364198 -0.16169645
0.15964772 -0.12129517 -0.1653936 -0.06764696 -0.07291198 -0.029948473 0.13879775 -0.15985309
-0.11404176 -0.12823986 -0.15787345 -0.08544384 -0.1735798 0.09199037 -0.01273866 -0.121271886
0.10466944 -0.09121539 -0.12851076 0.06974998 0.018862039 -0.009851679 0.13905214 -0.074356034
0.10849883 0.12539725 0.018339604 0.031320423 -0.09190219 -0.06036257 0.11448179 -0.045827955
-0.0012286007 0.091971025 -0.048936978 0.09215926 0.1635421 0.085447 0.043629408 0.12289427
-0.071792245 0.02730994 0.009959787 0.12470503 0.15742563 0.115761295 -0.028883189 -0.10803413
0.08707337 0.01946807 -0.065451354 -0.16066644 0.03778653 -0.17523094 0.08185877 -0.15099297
-0.063260034 -0.011883512 0.13063781 -0.06393289 -0.041724324 0.124050155 0.03686361 -0.0005265027
0.1597571 0.03727524 -0.058256492 0.13349666 -0.06637555 0.15651174 -0.025128081 0.008435562
-0.03499362 0.1098464 -0.13930628 -0.17340872 -0.08622284 -0.16231242 0.025311649 -0.10657619
-0.09769192 -0.020929068 0.050252363 -0.057135828 0.12317963 -0.005154267 0.0998625 0.021365255
-0.06794228 -0.018971607 0.0131969005 -0.0033942163 0.058509976 -0.13213071 0.14626162 -0.089252606
00000000: 4aa9 a23d 50fc a5bc 0661 833d 7093 8e3c
00000010: c612 ae3d 6076 bbbd 3416 bcbd bc38 683d
00000020: 8749 10be c02f ee3b 580f 66bd 38d7 ca3c
00000030: d569 eabd 4c13 6e3d 8856 98bd 60ab f8bb
00000040: 2b19 8fbd 72cf d9bd b597 d0bd 6de8 d7bd
00000050: 06e9 08be 4818 bb3c eadc 65bd 5acb d03d
00000060: 6116 dcbd c0a8 173c 4652 c43d 230b 10be
00000070: d9eb 043e 10f6 c8bd aecf bbbd a933 243e
00000080: 308d 1e3d a077 bfbc 76fe 19be 4826 dfbc
00000090: 80e3 553d da56 e63d a0fd e13c 3ff3 91bd
000000a0: eda3 233e d6d1 e23d f540 133e 069d e53d
000000b0: a08a 58bc 4ff9 dbbd 2b2a f9bd c0df 143b
000000c0: 8c16 1dbd e878 2abd e81c b2bc 188c d53c
000000d0: 239e 2a3e 1674 b23d b88d 8dbc 5f8a 213e
000000e0: a8cf 85bd c6a6 df3d 2ce2 9cbd 6895 a4bc
000000f0: e473 533d 768b 9b3d 6161 abbd 50fc 92bd
00000100: b67b 9ebd 32d5 dd3d bce9 61bd a3e2 2fbe
00000110: 499a c7bd 61c2 9bbd 40eb 3d3d 8f29 323e
00000120: 8ef7 f93d 10f0 ea3c eebd a63d 8c24 f4bd
00000130: 84af dfbd f03d cd3c 8fab afbd a2d8 e73d
00000140: f61d f63d aef9 5abd 1ae7 9f3d 1282 b23d
00000150: 8d44 0d3e 1efd b73d 4c0b 41bd 051c 243e
00000160: b82b f4bc 4c5d 5f3d 2901 223e 9a66 6bbd
00000170: 66fb a0bd 5457 8d3d 227c 983d ec0f 5d3d
00000180: 29c3 1cbe 1a39 a03d b4b8 133d 58ae 2d3d
00000190: 2b43 2bbe e0ef c2bb 64c5 653d 4037 413b
000001a0: fe60 06be b083 063d 94c9 28bd e054 52bd
000001b0: 8067 71bd 30f2 8c3d d459 573d 6b23 053e
000001c0: 444f 3ebd 725a cebd 68fd ccbc 845b 723d
000001d0: d489 263d 2a4a a63d 40a2 4fbd f034 c9bc
000001e0: 56d9 cf3d 0731 133e 000e 4b3a 0053 e9bd
000001f0: bf58 313e 602e 19be 8e26 28be 4820 b83c
00000200: 511d b0bd d018 29be a160 163e 72e6 823d
00000210: 5323 2d3e 4e87 ec3d 03de 28be 5bb9 88bd
00000220: 6fd6 293e 345e d2bd e01f f2bb a7a9 193e
00000230: e244 bd3d 001b 983a ec89 36bd 0068 16bb
00000240: 76dc 1fbe a808 ebbd f758 02be 96c0 06be
00000250: cd65 013e 44af b0bd dfec 91bd 7379 e7bd
00000260: daf4 ad3d d907 e5bd 4257 9e3d e564 273e
00000270: 4b00 203e 806a 6f3b e216 13be c193 25be
00000280: b17a 233e 9a69 f8bd f15c 29be 7d8a 8abd
00000290: e052 95bd 8056 f5bc ff20 0e3e 87b0 23be
000002a0: ba8e e9bd 4f51 03be 94a9 21be 2efd aebd
000002b0: e7be 31be 7265 bc3d d0b5 50bc 655d f8bd
000002c0: ee5c d63d 22cf babd 5398 03be 14d9 8e3d
000002d0: 9084 9a3c f068 21bc af63 0e3e fa47 98bd
000002e0: a234 de3d 2368 003e f03c 963c d849 003d
000002f0: 3737 bcbd be3e 77bd 6e75 ea3d 18b6 3bbd
00000300: 0009 a1ba 4e5b bc3d 2472 48bd febd bc3d
00000310: 9577 273e d6fe ae3d c0b4 323d feaf fb3d
00000320: d007 93bd 18b9 df3c 602e 233c 5a65 ff3d
00000330: 2f34 213e 4214 ed3d 709c ecbc ff40 ddbd
00000340: 8653 b23d 807b 9f3c 5c0b 86bd be85 24be
00000350: 0cc6 1a3d bd6f 33be 92a5 a73d e79d 1abe
00000360: 7a8e 81bd 10b3 42bc ebc5 053e 3fef 82bd
00000370: 20e7 2abd 020e fe3d 4cfe 163d 0005 0aba
00000380: 5d97 233e ecad 183d 5c9e 6ebd 59b3 083e
00000390: e8ef 87bd 9d44 203e 68d9 cdbc 5035 0a3c
000003a0: 7855 0fbd 26f7 e03d 4ea6 0ebe 0e92 31be
000003b0: 9a95 b0bd 3a35 26be 605a cf3c 9e44 dabd
000003c0: b412 c8bd 7073 abbc 6cd5 4d3d 4207 6abd
000003d0: 9a45 fc3d 20e5 a8bb b684 cc3d 3006 af3c
000003e0: 5225 8bbd 586a 9bbc d037 583c 8071 5ebb
000003f0: 28a8 6f3d 464d 07be 9bc5 153e 12ca b6bd

lstm.bias_ih_l0 f4 [128]
-0.029293954 0.1070946 -0.15703772 0.058967933 -0.008574992 0.031408563 0.035526186 -0.059345774
-0.052247234 -0.11908474 0.011331156 0.13264613 -0.02760911 0.13217522 -0.025600538 -0.10848816
0.101269886 -0.08917438 -0.10889778 0.16636293 0.06813879 -0.026337817 -0.14283058 0.017851487
-0.10302504 0.11451833 -0.15849873 0.08684529 0.07383816 0.015911803 -0.032687858 0.05039096
-0.017181918 -0.055936746 0.025180697 -0.071794145 -0.17089358 -0.1457994 0.020466387 -0.010476753
-0.016932115 0.019641355 0.15242381 -0.08490084 0.116148725 -0.1379683 0.09990995 -0.019479051
0.1276858 0.05282852 0.04726982 -0.084673546 -0.040977716 -0.009032115 0.142734 -0.022849113
-0.16156118 0.04531698 0.016522348 -0.07466729 -0.13875979 -0.13733786 0.046163604 -0.16588363
-0.13442014 0.05381562 -0.05288808 0.08265002 -0.131504 -0.049478963 -0.10472398 -0.1231753
0.035182208 0.107437804 -0.111944556 0.11231764 -0.0277071 -0.030453369 0.17552625 -0.02523601
0.06215255 0.04471779 0.14782317 0.15495752 0.106435046 0.09548484 0.095609024 -0.108953625
-0.094173506 0.086641565 -0.17246294 0.09087242 -0.124260224 -0.106128715 0.15517803 0.15853451
-0.11470142 -0.007243082 -0.11443225 0.06778768 0.0012433082 -0.11843795 0.07853423 -0.060957305
-0.0061786026 -0.15990849 0.16460215 -0.120679066 0.13517962 -0.14296079 -0.16850318 -0.03308387
-0.11907169 0.14840282 0.014809206 0.15597953 0.1539992 -0.04746662 -0.16074519 -0.17048587
-0.089475185 0.058784634 0.040700734 -0.03871481 0.080094025 0.051998466 0.04156488 0.16321482
00000000: e0f9 efbc 6a54 db3d 7fce 20be 5c88 713d
00000010: 207e 0cbc 44a6 003d e883 113d 8e14 73bd
00000020: 3201 56bd b3e2 f3bd 50a6 393c 63d4 073e
00000030: 802c e2bc f158 073e 38b8 d1bc 0a2f debd
00000040: 9666 cf3d 0fa1 b6bd cd05 dfbd 0b5b 2a3e
00000050: 5a8c 8b3d 68c2 d7bc 2e42 12be 483d 923c
00000060: cbfe d2bd 9688 ea3d 7e4d 22be f2db b13d
00000070: 7638 973d 7859 823c b4e3 05bd c066 4e3d
00000080: 18c1 8cbc ee1d 65bd c047 ce3c cf08 93bd
00000090: bafe 2ebe 704c 15be 20a9 a73c b0a6 2bbc
000000a0: 38b5 8abc e8e6 a03c fd14 1c3e 7ee0 adbd
000000b0: 62df ed3d 9047 0dbe 969d cc3d 8892 9fbc
000000c0: 11c0 023e b862 583d 009e 413d 5369 adbd
000000d0: 40d8 27bd 70fb 13bc dd28 123e 102e bbbc
000000e0: 4b70 25be 4c9e 393d e059 873c 2aeb 98bd
000000f0: 0c17 0ebe 4ca2 0cbe 0c16 3d3d 66dd 29be
00000100: 6fa5 09be c46d 5c3d 2ca1 58bd 6a44 a93d
00000110: fca8 06be 74aa 4abd 8779 d6bd 5543 fcbd
00000120: 381b 103d 5a08 dc3d 3043 e5bd ca06 e63d
00000130: 00fa e2bc 5879 f9bc 27bd 333e c0bb cebc
00000140: ac93 7e3d 002a 373d f55e 173e 2fad 1e3e
00000150: 9efa d93d 8e8d c33d aace c33d 1423 dfbd
00000160: 0ade c0bd 2271 b13d 209a 30be 521b ba3d
00000170: 257c febd 035a d9bd fde6 1e3e df56 223e
00000180: 94e8 eabd 6057 edbb 755b eabd 44d4 8a3d
00000190: 80f6 a23a 998f f2bd 8ed6 a03d 5eae 79bd
000001a0: e075 cabb 0dbf 23be 778d 283e 9626 f7bd
000001b0: 876c 0a3e 5064 12be 198c 2cbe f482 07bd
000001c0: dcdb f3bd e9f6 173e 50a2 723c 19b9 1f3e
000001d0: f7b1 1d3e 5c6c 42bd 639a 24be d993 2ebe
000001e0: c43e b7bd 28c8 703d d0b5 263d 6c93 1ebd
000001f0: 5608 a43d 58fc 543d f03f 2a3d c921 273e

lstm.bias_hh_l0 f4 [128]
0.044937313 0.13051279 -0.058124296 -0.16584055 -0.09168037 -0.08730395 0.024687618 0.15436415
0.04549545 0.04902245 0.013197184 -0.14489241 -0.05962251 0.1744182 -0.16223411 -0.09938254
-0.12843822 -0.04754801 0.0777161 0.15837447 0.13465734 0.14082967 0.018947706 0.13028847
0.15948345 0.04909295 -0.005779743 0.17509426 0.030058682 0.10877232 0.07226285 -0.08559079
-0.13993299 0.03831309 0.03850597 0.14409702 -0.051096484 0.0061935186 0.08899416 0.06038794
0.09276627 -0.09520064 0.12596492 0.005304873 0.08461724 -0.0188175 -0.06231167 0.16072513
-0.16611518 -0.009476304 0.09020881 0.09715097 0.07095687 -0.11872729 -0.10796971 0.014674947
-0.17409268 0.13677312 -0.1745678 0.06884004 0.119160995 0.1601138 -0.16175552 -0.056420594
-0.12877676 -0.118918255 0.09981559 0.08236088 0.16228725 0.011308342 -0.112857625 0.17503779
-0.08150271 0.07854657 0.07881801 0.17528792 0.15969299 0.023311362 -0.051833227 -0.031402484
0.14219217 0.0758474 -0.14966531 -0.09623741 -0.084340036 0.092574194 -0.15517257 -0.11505678
-0.053457797 -0.0652684 0.06800486 -0.032582775 -0.017072886 0.14910854 -0.040439054 0.15803267
-0.09235607 0.17038281 0.12767486 0.055616006 0.0016137809 -0.0852926 0.069715485 -0.114398114
0.16088073 -0.09318832 0.16810282 -0.042629853 -0.0073007047 0.045257434 0.14711468 -0.06450276
0.16596176 0.081034556 -0.11354968 -0.07286885 0.08308165 0.021702886 -0.06501145 -0.15462367
-0.12434521 -0.14648136 -0.075248286 -0.013767645 -0.16391066 0.010175675 0.100160226 0.01754582
00000000: 3010 383d 25a5 053e be13 6ebd 1bd2 29be
00000010: ebc2 bbbd 6acc b2bd b03d ca3c a311 1e3e
00000020: 7059 3a3d c4cb 483d 0039 583c ad5e 14be
00000030: bc36 74bd af9a 323e b320 26be 1389 cbbd
00000040: 4f85 03be b4c1 42bd 9e29 9f3d eb2c 223e
00000050: 9de3 093e a735 103e 3838 9b3c 576a 053e
00000060: a14f 233e b015 493d 0064 bdbb e94b 333e
00000070: a03d f63c 06c4 de3d 8cfe 933d 394a afbd
00000080: 984a 0fbe 30ee 1c3d 70b8 1d3d 2b8e 133e
00000090: 8c4a 51bd 00f3 ca3b 9242 b63d 5859 773d
000000a0: 3efc bd3d 8ef8 c2bd f3fc 003e 80d4 ad3b
000000b0: ce4b ad3d 2827 9abc 863a 7fbd 2195 243e
000000c0: 191a 2abe 8042 1bbc 66bf b83d 16f7 c63d
000000d0: d651 913d 4b27 f3bd 391f ddbd 306f 703c
000000e0: 5a45 32be 410e 0c3e e7c1 32be 02fc 8c3d
000000f0: ae0a f43d dff4 233e 3da3 25be 4819 67bd
00000100: 0ede 03be 6a8b f3bd 1e6c cc3d d2ac a83d
00000110: a12e 263e a046 393c e621 e7bd 1b3d 333e
00000120: e5ea a6bd 06dd a03d 566b a13d ad7e 333e
00000130: 8f86 233e 78f7 be3c 144f 54bd e49f 00bd
00000140: d39a 113e e255 9b3d dd41 19be 1f18 c5bd
00000150: 78ba acbd 8a97 bd3d 8fe5 1ebe e4a2 ebbd
00000160: 90f6 5abd 70ab 85bd 2246 8b3d 8475 05bd
00000170: 70dc 8bbc e9af 183e 6ca3 25bd 51d3 213e
00000180: 2e25 bdbd d578 2e3e 33bd 023e 9ccd 633d
00000190: 8085 d33a e3ad aebd fec6 8e3d 8f49 eabd
000001a0: ebbd 243e 85d9 bebd 2523 2c3e a49c 2ebd
000001b0: c03a efbb dc5f 393d 3ba5 163e 061a 84bd
000001c0: e1f1 293e 72f5 a53d bc8c e8bd 433c 95bd
000001d0: b626 aa3d 40ca b13c b924 85bd ab55 1ebe
000001e0: b4a8 febd 36ff 15be c61b 9abd b091 61bc
000001f0: 32d8 27be e0b7 263c ce20 cd3d 40bc 8f3c

fc.weight f4 [1, 32]
0.026646852 0.057554886 0.11792667 -0.09581932 -0.12188065 0.020265982 -0.14685039 0.14579867
0.06934595 -0.0912545 -0.12147741 -0.34513718 0.17469044 0.101069644 -0.1379737 0.43301728
-0.11409628 0.055501685 0.16804318 -0.009935886 0.17270966 0.09018518 0.34840235 0.10188685
-0.1531965 0.07187687 0.0051205754 -0.070123106 0.07948463 0.13235058 0.27548164 0.53278553
00000000: 804a da3c acbe 6b3d 8a83 f13d eb3c c4bd
00000010: 909c f9bd d804 a63c f35f 16be 3f4c 153e
00000020: 4005 8e3d a4e3 babd 26c9 f8bd d2b5 b0be
00000030: 0de2 323e 9afd ce3d fa48 0dbe 71b4 dd3e
00000040: 4fab e9bd bc55 633d 8313 2c3e 20ca 22bc
00000050: cdda 303e 02b3 b83d cb61 b23e 0eaa d03d
00000060: 8bdf 1cbe 2e34 933d 80ca a73b b49c 8fbd
00000070: d6c8 a23d e986 073e ee0b 8d3e a264 083f
