project/models/LSTM/Apple.pth (torch, 209509 bytes, 9 tensors)

lstm.weight_ih_l0 f4 [256, 5]
000000 88 71 b1 3d 1c 28 81 3d 54 d3 45 3d ec a2 f8 3d
       0.086642325 0.063064784 0.04829724 0.1214045
000010 00 63 21 bc 50 78 a3 bd 92 96 b6 3d ea 03 86 bd
       -0.009850264 -0.07981932 0.08915438 -0.06543715
000020 1c 63 e4 bd e0 6c a3 3b 00 4e 12 3b 40 39 b7 3d
       -0.11151716 0.004987344 0.0022324324 0.089464664
000030 f4 12 c2 3d 52 ac d0 3d 28 b2 bc 3d 62 46 b7 3d
       0.09476271 0.101891175 0.09213668 0.08948971
000040 50 6a 93 3c 92 bf a4 bd 24 dc ab 3d 5e 1e b7 bd
       0.01799503 -0.08044352 0.08391598 -0.08941339
000050 cc 0a aa 3d a8 94 fa 3d 40 3b 1e bd f8 bb f6 3d
       0.083028406 0.12235385 -0.038630724 0.12047571
000060 10 5d 2d bd 74 22 9c bd e6 3a d9 bd 9a 50 ff 3d
       -0.04232508 -0.07623759 -0.10606937 0.124665454
000070 06 b8 f5 bd 00 69 4b bd 80 f8 e3 bb e0 74 04 3d
       -0.1199799 -0.049660683 -0.0069571137 0.032338023
000080 38 a2 ae bd c4 37 cd bd d8 a7 ba bd 40 ae 50 3c
       -0.085270345 -0.10020402 -0.09114045 0.012736857
000090 a0 28 01 bd 10 61 24 3c c0 10 8d 3d 16 83 9c 3d
       -0.031532884 0.010032907 0.068879604 0.0764219
0000a0 2c 39 df bd 90 9c 34 3c d0 35 39 bd 84 e8 78 bd
       -0.108995765 0.0110236555 -0.045217335 -0.06076862
0000b0 d4 de a1 bd b2 aa d0 bd dc e4 29 3d f0 e3 23 bc
       -0.07903829 -0.101888075 0.041478023 -0.010003075
0000c0 2a 4d fe 3d 88 c2 e1 3c fc 03 b1 bd fc 9d 9f bd
       0.124170616 0.02755858 -0.08643338 -0.07793805
0000d0 3c 61 77 bd 82 7f f0 bd 20 a9 5a 3c c0 d2 c1 bc
       -0.060395464 -0.1174307 0.013345987 -0.023660064
0000e0 dc 26 44 bd 30 84 b0 3d 9a f6 d5 3d 80 dd fd bb
       -0.04788862 0.08618963 0.10447426 -0.007747352
0000f0 74 26 e9 3d 76 16 98 3d 90 ee 39 bd 90 0b 6f 3c
       0.113842875 0.07426159 -0.045393527 0.014590159
000100 e4 c3 fd 3d 10 5c 77 3c cc a1 45 bd bc b4 fe 3d
       0.12390879 0.015097633 -0.048250005 0.12436816
000110 e0 57 f2 bc 80 79 96 3b 24 ac 43 bd e8 43 85 bd
       -0.029582918 0.0045921206 -0.047771588 -0.06507093
000120 18 01 67 bd ce 59 c7 bd 00 b8 a1 3d d8 4b d2 3d
       -0.056397527 -0.09733926 0.07896423 0.10268372
000130 d0 76 ef bc 5c 33 3a bd 70 68 6b 3c e2 ad fa 3d
       -0.029231459 -0.045459136 0.014368162 0.12240197
000140 80 70 e6 bc f8 c8 2c bd 26 d6 f3 bd 40 64 9c bd
       -0.028129816 -0.042183846 -0.1190608 -0.07636309
000150 da 15 a2 bd 7c a4 f5 3d e0 12 97 3d 48 19 fe bc
       -0.07914324 0.119942635 0.07376647 -0.031017914
000160 7a b9 96 3d da 68 b0 3d 70 af 38 3c 58 76 55 bd
       0.073595956 0.08613749 0.011272296 -0.052114815
000170 26 3f f5 3d 2c ae 4e bd 82 e2 ec 3d 04 93 a3 bd
       0.11974935 -0.050459072 0.115666404 -0.079870254
000180 fa 15 a8 3d 9a d2 bb bd 64 7c ec 3d 0a 04 a4 bd
       0.08207317 -0.091710284 0.11547163 -0.08008583
000190 c8 14 51 3d e6 0b cf bd c0 80 c5 3c 3a 06 98 3d
       0.05104521 -0.10109691 0.024109244 0.074230626
0001a0 16 60 b4 3d 24 49 4c bd 00 59 ce ba 82 e3 a8 bd
       0.088073894 -0.04987444 -0.0015743077 -0.08246519
0001b0 10 19 5a 3d d8 b6 0f 3d be da b0 bd c0 6b be bb
       0.053246558 0.035086483 -0.08635472 -0.0058111846
0001c0 1c f7 49 bd 34 e9 42 3d 26 42 d3 bd b0 c9 a5 bd
       -0.049307927 0.04758568 -0.10315351 -0.080951095
0001d0 60 4b 5b 3c 74 59 32 3d f0 e5 25 3c 78 56 25 3d
       0.01338467 0.04354234 0.010125622 0.040365666
0001e0 68 66 e4 bc e8 b3 d7 3d 88 83 a5 3d c4 48 48 bd
       -0.027880862 0.10532361 0.08081728 -0.04889752
0001f0 80 b4 90 bd fc 63 84 3d 72 f6 e4 bd 28 6b e9 bc
       -0.07065678 0.06464383 -0.11179818 -0.028493479
000200 08 8d 9e 3d 5c 19 9c 3d 58 bb 86 3d 1c 78 0b 3d
       0.07741743 0.076220244 0.06578702 0.034050092
000210 20 0c db bd 50 d2 1d 3c 68 35 5f bd 00 a5 e7 3c
       -0.10695672 0.009632662 -0.05449429 0.02827692
000220 5c ae 99 3d c6 16 a6 3d 68 53 eb 3c 20 92 4d 3d
       0.075039595 0.081098124 0.028726295 0.050188184
000230 e4 f2 e1 bd 92 7d e4 bd 50 e8 a7 bd aa f7 f7 bd
       -0.11032656 -0.11156763 -0.08198607 -0.12107785
000240 9e af fd 3d 2c 00 e7 3d d0 38 57 bc c0 a6 fe bd
       0.12387012 0.1127933 -0.013136104 -0.12434149
000250 ea e0 8f bd 14 ad 41 3d 30 fe c0 3d 6e b9 ad bd
       -0.07025321 0.0472842 0.094234824 -0.084826335
000260 b0 94 28 3d 86 bd da 3d 64 54 59 bd 20 a3 97 3b
       0.041157424 0.1068068 -0.053058997 0.0046276003
000270 b4 37 cc 3d d4 2d 7a bd 74 06 85 3d 78 2d 6c bd
       0.09971562 -0.06107886 0.064953715 -0.05766055
000280 62 2b db 3d 00 85 a5 3b e8 fe 9f 3d 70 95 e6 bd
       0.10701634 0.005051255 0.078122914 -0.11258972
000290 e2 1d c0 3d f6 a5 b0 3d b0 73 88 3d a8 d8 a9 3c
       0.093807 0.086254045 0.06662691 0.020733193
0002a0 54 af dd bd 1c 6f 44 3d 90 f0 18 bd 78 d0 38 bd
       -0.10824457 0.047957525 -0.037338793 -0.045120686
0002b0 1c aa 6a 3d 06 f7 ed bd 96 4b 8b 3d 24 7f e0 3d
       0.057291135 -0.116193816 0.06801526 0.1096175
0002c0 28 80 58 3d 5c 8d 45 3d e0 22 cf bc 32 b4 a8 bd
       0.052856594 0.048230514 -0.025285184 -0.082374945
0002d0 fc 5c f3 bd c0 b8 ca 3c 00 07 f6 ba b0 0a 76 3d
       -0.1188297 0.024746299 -0.0018770397 0.060068786
0002e0 e0 44 86 bc 88 24 2a 3d c0 da eb bd c0 5c cd bc
       -0.016390264 0.041538745 -0.115163326 -0.02506864
0002f0 3c cd d9 3d 2c 73 d0 3d c6 fa a8 bd 28 30 c4 bc
       0.106348485 0.10178217 -0.08250956 -0.023948744
000300 14 3e c4 bd 28 04 fa bc 78 0a d3 bd 74 07 c2 bd
       -0.09582153 -0.03051956 -0.10304731 -0.09474078
000310 2c b6 e1 3d 5a d8 fc 3d 90 6a a6 3c c8 e5 84 3c
       0.11021075 0.12345953 0.020314485 0.01622285
000320 66 f3 91 3d 58 c6 e7 bc d4 e5 e6 bd 20 c7 d9 3d
       0.07126503 -0.02829282 -0.11274305 0.10633683
000330 48 b8 42 3d 98 c4 e3 bd 6c 0e 65 bd 52 53 87 3d
       0.047539026 -0.11121482 -0.055921957 0.06607689
000340 3a 9d f7 3d 30 e7 ca bc 86 4c a8 bd 3e 71 ed bd
       0.120905355 -0.024768442 -0.08217721 -0.11593865
000350 34 6a c9 bd a4 02 bd bd f0 87 4f 3d 48 0f 15 3d
       -0.0983471 -0.09229019 0.05066675 0.036391526
000360 44 3c d8 3d b4 10 b9 bd 0e 5b f1 bd 78 ea 1b bd
       0.1055837 -0.09036389 -0.117849454 -0.038065404
000370 16 58 cb bd b0 86 58 bc ce 51 fb bd 58 29 f1 bd
       -0.099289104 -0.013215706 -0.122714624 -0.11775464
000380 20 bd 91 3b 08 4a b5 bd 3e e4 d2 bd 00 d7 79 3c
       0.0044475943 -0.08852011 -0.1029744 0.015249014
000390 20 9f 9e bd d8 fd f4 bc f4 6d 83 bd c0 80 cf 3d
       -0.077451944 -0.029906198 -0.06417456 0.10131979
0003a0 42 b5 c1 3d 98 bf 00 3d f0 c2 bf bd 0c 3e ef bd
       0.094584 0.031432718 -0.09363353 -0.116817564
0003b0 d6 8a f7 3d dc c5 87 3d 38 35 03 bd d0 12 bb 3c
       0.12087028 0.066295356 -0.032033175 0.022836119
0003c0 00 d0 b5 39 e8 70 09 3d a4 07 82 bd a6 0c ed bd
       0.00034677982 0.03355494 -0.063491136 -0.11574678
0003d0 94 01 bc bd 60 4d 7c 3c 5e 60 ec 3d 6e 90 a1 bd
       -0.091799885 0.015399307 0.11541818 -0.07888876
0003e0 00 38 bd b9 e6 8f da bd 4a 8f da 3d 00 2b c6 3b
       -0.00036090612 -0.10671978 0.106718615 0.0060476065
0003f0 10 e2 5d bc 40 af 0f 3b c2 ce 94 bd 3c 3d 69 3d
       -0.013542667 0.0021924525 -0.072659984 0.056943163

lstm.weight_hh_l0 f4 [256, 64]
000000 e0 21 c9 3d f4 a2 fb bd e6 1a 82 bd f4 c9 4d 3d
       0.09820914 -0.1228694 -0.06352787 0.050241426
000010 50 3d 23 bd cc 65 b2 bd 6c 38 74 bd f8 56 9c bd
       -0.039853394 -0.087108225 -0.05962412 -0.076337755
000020 a0 05 c5 3d 22 be b0 bd b0 39 3e 3d b0 d7 b5 3d
       0.096202135 -0.08630015 0.046441734 0.0887903
000030 3c 20 56 bd a0 6c 2c bd c0 2d 17 bc 10 d1 60 bd
       -0.052276835 -0.04209578 -0.009227216 -0.054886878
000040 68 77 4e bd fc af 48 bd 3c 88 74 bd 42 e2 f6 3d
       -0.050406843 -0.048995957 -0.059700236 0.12054874
000050 a4 16 cd bd 9a 1d ce bd 14 dd b3 3d d4 0b 15 3d
       -0.10014084 -0.1006424 0.08782402 0.036388233
000060 60 30 ae 3c 88 24 ae bc 2e d1 96 bd da 52 b9 3d
       0.021263301 -0.021257654 -0.073641166 0.09049006
000070 c4 b6 26 3d 80 cc cb ba 7c 27 97 bd 0c 5b 04 bd
       0.040701643 -0.0015548617 -0.07380578 -0.03231339
000080 78 be d3 3d f0 9b 38 3c 80 94 b3 bb 12 78 e7 3d
       0.103390634 0.011267647 -0.005480349 0.113021985
000090 10 34 ad 3d fc 1b bf bd 08 6b e7 3c 06 a9 e9 3d
       0.08457196 -0.093315095 0.028249279 0.11409192
0000a0 78 dc 29 3d 9c b7 1d bd 00 b0 a0 3d a4 a2 85 bd
       0.04147002 -0.03850518 0.07846069 -0.06525162
0000b0 48 ca fa bd b6 ad cc 3d d0 ab ad bc 08 57 b5 3d
       -0.12245613 0.0999407 -0.02120009 0.088544905
0000c0 40 80 55 3b 24 db 47 3d 30 f8 22 bd b8 92 73 bd
       0.0032577664 0.048792973 -0.03978747 -0.059466094
0000d0 3c 6e e5 bd f2 a0 9c bd 34 18 b4 3d c8 da df 3d
       -0.11202666 -0.076478854 0.08793679 0.10930401
0000e0 7c f7 d7 bd b8 fe ce bc c8 c1 ef 3c 00 a5 b6 3b
       -0.10545251 -0.025267944 0.029267207 0.0055738688
0000f0 9c 50 3b 3d 60 ea 81 3d 00 f6 5b ba 7a cc 9d 3d
       0.045731172 0.063435316 -0.0008390844 0.077050164
000100 90 26 a6 3c e2 c6 e9 3d 80 4d ad bb f2 37 98 3d
       0.02028206 0.11414887 -0.0052887797 0.07432546
000110 50 57 6e bc f6 c0 ce 3d 60 40 d2 3c e2 6a c9 3d
       -0.014547184 0.10095398 0.025665462 0.098348394
000120 14 11 40 3d 0c 27 c7 bd 22 6e 96 bd 48 3b a6 3c
       0.046891287 -0.097242445 -0.07345225 0.02029194
000130 98 56 0f bd 80 ee 6b bc 3e 9e 87 bd 78 71 a6 3c
       -0.03499469 -0.014400125 -0.06621979 0.020317778
000140 90 7d ea bc 3c 36 68 bd 76 87 c5 bd 22 74 d4 3d
       -0.028624326 -0.056692347 -0.09644978 0.10373713
000150 80 dd aa 3b 88 04 85 bc bc 7d c5 3d 00 8a c7 3c
       0.005214393 -0.016237512 0.096431226 0.024357796
000160 60 51 95 3b a0 47 c9 3b 64 8f 9f 3d 56 c7 93 3d
       0.00455682 0.0061425716 0.077910215 0.07215755
000170 c2 1b a4 bd 34 47 61 3d 68 7e 5a bd 68 39 5c bd
       -0.08013107 0.054999545 -0.053343207 -0.053765684
000180 8c 7e 80 3d b4 64 47 bd e4 da a5 3d bc c2 d9 3d
       0.06274137 -0.048680022 0.08098391 0.10632846
000190 34 5f 25 bd 8a 29 84 3d c8 8c 0c 3d 20 e2 3f bd
       -0.040373996 0.064532354 0.034313947 -0.04684651
0001a0 20 81 d3 3b 5e 63 e5 bd 84 c9 17 3d 6a 50 f7 3d
       0.006454602 -0.112005934 0.037057415 0.12075885
0001b0 f8 bb 40 3d ee 5b 97 3d 66 df 89 bd 46 41 b7 bd
       0.04705426 0.07390581 -0.06732063 -0.08947997
0001c0 e4 65 bb bd d8 10 f3 bc 24 40 2d bd 50 2e af 3d
       -0.091502935 -0.029671118 -0.042297497 0.08553755
0001d0 3c 45 dc 3d d4 05 35 bd 50 03 11 bd f4 e6 56 bd
       0.10755393 -0.04419501 -0.03540355 -0.052466348
0001e0 00 67 86 bc aa 37 80 bd 60 bb 2b bc 40 b6 8f 3c
       -0.016406536 -0.06260617 -0.010481685 0.017542958
0001f0 ac 63 08 bd 52 25 cb 3d 80 97 d0 ba 28 d7 e0 3d
       -0.03329818 0.09919228 -0.0015914291 0.10978538
000200 3c 4b 56 bd 54 7d ab 3d 3c 13 35 3d 6c c7 76 3d
       -0.052317843 0.08373514 0.044207796 0.060248777
000210 32 d4 c7 3d 10 16 3f bc 4e 4b d7 bd 94 83 2b bd
       0.0975727 -0.011662975 -0.1051241 -0.04187353
000220 b8 2d 7e bd 4e 5a d3 3d 10 87 4d 3c d0 4b b5 bc
       -0.06205532 0.103199586 0.012544408 -0.022130877
000230 a0 91 0d bd 9a 55 d2 bd 2c 6d 1c 3d 00 95 e4 ba
       -0.034562707 -0.102702335 0.038190052 -0.0017439425
000240 00 c0 01 3c dc 32 e2 3d 18 d2 a6 3c 80 25 66 bc
       0.0079193115 0.11044857 0.020363852 -0.014047027
000250 74 f5 6a 3d a0 a1 42 3c c8 4e ff 3c 1a 83 f2 3d
       0.05736299 0.011879355 0.031165496 0.11841412
000260 dc 3c 5e bd b0 7f 71 3d 54 bf bf bd 14 ac 98 bd
       -0.05425726 0.058959663 -0.09362665 -0.07454696
000270 18 8f bd bc 40 88 df 3b a2 0d 9b 3d 5e be f7 3d
       -0.023139521 0.006821662 0.0757096 0.120968565
000280 10 af 6d bc 70 38 d7 3d 10 a6 22 bc b4 fa e3 3d
       -0.01450707 0.105088115 -0.009927288 0.11131802
000290 80 e9 da ba 5e 0b cb 3d 60 f9 f1 3d 1c 0d 0e bd
       -0.0016701669 0.099142775 0.11815143 -0.03468047
0002a0 7c e5 e4 3d e4 09 56 3d fe 9f bf bd d0 11 2a bc
       0.11176583 0.052255526 -0.09356688 -0.010380223
0002b0 48 88 e7 3d 68 21 b8 3d be d2 fb 3d 96 52 d1 bd
       0.113052905 0.08990747 0.12296055 -0.1022083
0002c0 80 d5 ca bc 00 28 65 b9 90 a4 a9 bd 2a 52 8d 3d
       -0.024760008 -0.00021854043 -0.08283341 0.06900437
0002d0 74 b4 93 bd c6 13 ee 3d c0 3e 9b 3d 18 06 c2 bd
       -0.07212153 0.11624865 0.07580328 -0.094738185
0002e0 2c f0 0b bd b4 3d 5c 3d ea bd c3 3d 42 4d a4 bd
       -0.034164593 0.053769782 0.095577076 -0.08022548
0002f0 e6 a8 d1 3d 4c cb b2 3d 10 10 96 bd 00 c6 c1 3a
       0.10237293 0.08730182 -0.073272824 0.001478374
000300 e0 70 f7 bc 60 2d f3 3d 20 1f 91 3b a0 03 07 3d
       -0.03020519 0.11873889 0.004428759 0.03296244
000310 30 e6 f2 bc 7c dc 2a 3d 44 ca 63 bd 08 e7 bd 3d
       -0.029650778 0.041714177 -0.055612817 0.09272581
000320 d4 aa 13 3d 0e 59 8a 3d 7a 9b b3 bd cc b0 8b bd
       0.036051586 0.06755267 -0.08769889 -0.06820831
000330 88 23 5f bd 30 7f d3 bc c0 f5 c2 bd 40 7f ec 3c
       -0.054477245 -0.025817484 -0.09519529 0.028869271
000340 3a a4 e1 bd 14 cc f9 bd a0 d9 f7 bb ac 0f e8 3d
       -0.11017652 -0.12197128 -0.0075637847 0.11331114
000350 86 ef 90 bd 96 f5 a5 3d a8 22 e5 bd e0 c5 dd bc
       -0.070769355 0.081034824 -0.11188251 -0.027071893
000360 8e 4a f6 bd 14 88 f5 bd b8 54 ac bc 10 9b 10 3c
       -0.12025939 -0.119888455 -0.02103649 0.008826032
000370 b0 89 7e bc 68 34 e5 bd 00 15 e2 3b 38 b5 95 3d
       -0.015535757 -0.11191636 0.006899476 0.07309955
000380 90 57 6f bc 68 0e af bc a4 e2 17 bd f4 a9 ac bd
       -0.014608279 -0.021369174 -0.037081376 -0.084308535
000390 f8 da c4 bd c0 14 7d bc e4 46 b4 3d 34 77 22 3d
       -0.096120775 -0.015446842 0.08802584 0.039664462
0003a0 76 86 96 3d e4 24 57 bd e0 db 7d 3d 54 86 f9 bd
       0.07349865 -0.052525416 0.061977267 -0.12183824
0003b0 00 4f b4 3d c6 23 ae 3d b6 60 c9 3d 76 14 d8 3d
       0.088041306 0.08502917 0.09832899 0.105507776
0003c0 30 7b 60 bc e4 25 2e bd 80 0e 3f bb 42 60 8a bd
       -0.013701245 -0.042516604 -0.002915293 -0.06756641
0003d0 c4 fc 64 bd 78 af eb 3c 8e 2e ef bd 90 5f 83 3c
       -0.05590512 0.028770193 -0.116788015 0.016036779
0003e0 8c 09 6b 3d c4 55 88 3d b0 ca de bd 80 75 ba bc
       0.05738215 0.066569835 -0.10878503 -0.022761106
0003f0 30 e2 23 3c 90 95 5f 3c 38 f9 82 bc 00 10 05 ba
       0.010002658 0.013646498 -0.015987977 -0.00050759315

lstm.bias_ih_l0 f4 [256]
000000 90 bc a3 bd aa a4 c8 3d 80 e8 88 bd e6 0c b6 3d
       -0.0799495 0.09797032 -0.06684971 0.08889179
000010 04 f1 fa bd 4a 02 b0 3d 44 c6 af bd 80 57 57 3d
       -0.12253001 0.085941866 -0.08582738 0.05257368
000020 24 72 33 bd 90 8f 0f bd a4 d8 2f bd 9c b8 71 bd
       -0.043810025 -0.03504902 -0.042931214 -0.059013948
000030 60 fe 23 3d b8 c7 2f bd 7e 77 cf 3d f8 0c 98 bd
       0.040037513 -0.042915076 0.10130213 -0.074243486
000040 d0 06 51 bd 1c 01 e3 3d 6c 33 d4 bd f0 c4 d6 3c
       -0.051031888 0.11084196 -0.103613704 0.026216954
000050 18 f1 f0 3d 00 46 fb bd 24 c7 45 3d a2 4e 86 3d
       0.11764735 -0.12269211 0.04828562 0.06557967
000060 60 53 90 3c a0 2c 84 bd 60 01 34 3c 66 ad c7 3d
       0.017617881 -0.06453824 0.010986656 0.0974987
000070 90 28 f2 3d 90 ec 11 bd 30 68 65 3c 00 fc 44 bc
       0.11824143 -0.035625994 0.014001891 -0.012022972
000080 78 8d 01 bd b8 03 94 bd 98 3b 86 3c f8 a3 e9 3c
       -0.031629056 -0.07227272 0.016385838 0.02852057
000090 30 00 a6 3c d0 51 99 bd 40 90 37 bd 00 43 9a ba
       0.020263761 -0.074863076 -0.044815302 -0.0011769235
0000a0 1a ae cd 3d 86 59 d3 3d c8 bb 29 bd e4 60 3e 3d
       0.10042973 0.103198096 -0.041438848 0.04647912
0000b0 c6 31 95 bd 28 a0 a6 bd 30 f8 27 3c 3e aa f9 bd
       -0.07284884 -0.08136016 0.010252044 -0.12190674
0000c0 9e ac e4 bd 00 27 69 3d 78 9c 03 bd ec b3 fe 3d
       -0.111657366 0.05692196 -0.032131642 0.12436661
0000d0 84 5f 57 bd 16 8e f2 bd a8 c3 86 3d c6 62 c2 3d
       -0.052581325 -0.11843507 0.06580287 0.09491496
0000e0 10 a4 b9 3c 8e 10 8b 3d 10 b4 49 3d 56 d4 cf bd
       0.022661239 0.06790267 0.049243987 -0.10147922
0000f0 c0 86 5f 3b ba a9 c0 3d 88 6d 9e 3c fc c9 22 bd
       0.0034107417 0.09407373 0.019339338 -0.03974341
000100 3c 24 fe bd 34 30 1e bd 40 91 1d 3b ca e6 b8 bd
       -0.12409255 -0.03862019 0.0024042875 -0.090283945
000110 30 e9 a6 bd ac 46 13 bd e8 93 88 3d 16 fd 81 3d
       -0.08149946 -0.03595607 0.06668836 0.063471004
000120 66 ed ff 3d ec 56 2b 3d 50 4d a1 3d 46 d2 cd bd
       0.12496452 0.041830942 0.07876074 -0.10049872
000130 70 c2 92 3d 70 b3 19 bc 54 f1 14 3d 50 06 d6 3d
       0.07165992 -0.00938116 0.03636296 0.10450423
000140 b0 d7 e2 bd c8 a9 35 3d dc 5f 07 3d 86 53 d3 bd
       -0.110762954 0.04435137 0.033050403 -0.10318665
000150 a8 ce 83 bc b2 7f e9 3d fc aa 7b 3d da e9 83 3d
       -0.016089752 0.11401309 0.06144236 0.06441088
000160 ca 38 ff 3d 98 bf a3 bc c8 ab 70 3d 60 48 e9 bb
       0.124620035 -0.01998882 0.058757573 -0.0071192235
000170 bc d3 4c bd 48 09 93 bc 76 ab a3 3d a0 60 04 bc
       -0.050006613 -0.017948762 0.07991688 -0.008079678
000180 80 77 37 3b 32 05 b6 3d 90 99 97 bd 98 d4 96 bc
       0.0027994812 0.0888771 -0.074023366 -0.01841192
000190 48 76 8f 3c a8 ed 96 3c 20 a0 b6 3c 58 ad 77 bd
       0.017512456 0.01842387 0.02229315 -0.060468048
0001a0 80 1d cf 3a 46 dc ec 3d 74 2f ea bd 18 31 fc bd
       0.0015801638 0.11565451 -0.11434832 -0.123140514
0001b0 80 5d aa 3b 22 df 8b 3d 78 44 92 bc e0 57 db 3d
       0.0051991343 0.068296686 -0.017854914 0.1071012
0001c0 0a 2e dc bd f0 de e6 3d 8c 2a 57 bd f0 55 70 3c
       -0.10750969 0.11272991 -0.05253081 0.014668927
0001d0 44 40 0a bd e4 39 6e 3d 64 f0 3a 3d fe fa a2 3d
       -0.033752695 0.058160678 0.04563941 0.07958029
0001e0 f8 d5 a2 bc a0 7b 01 bc 00 db e0 ba 40 e4 80 bc
       -0.019877419 -0.00790301 -0.0017155111 -0.015733838
0001f0 60 19 14 bd 1a 81 d0 bd 90 c6 e6 3c 34 af 41 bd
       -0.036157012 -0.10180874 0.028170854 -0.047286227
000200 06 72 8a bd 58 c4 4c bd 00 d3 52 3d b6 22 cd bd
       -0.067600295 -0.049991935 0.051470757 -0.10016386
000210 9c 3c f2 3d 60 45 7d 3c e4 c7 5a 3d 88 40 39 bd
       0.118279666 0.015458435 0.053413287 -0.045227557
000220 e4 2a ac 3d 70 43 19 3d f6 bc ba 3d 90 ab 51 3c
       0.08406618 0.03741783 0.09118073 0.012797251
000230 d2 a9 ae bd 40 82 23 bc 90 1c 23 3d d8 cc 13 bd
       -0.085284844 -0.0099797845 0.03982216 -0.036084026
000240 10 0a e1 bc da 88 95 bd b6 ed bc bd 68 82 1e bd
       -0.027470618 -0.07301493 -0.09225027 -0.038698584
000250 8c 88 a7 bd 24 02 f7 3d ee e3 ed 3d ec 1b 87 3d
       -0.08180341 0.12060955 0.1161574 0.065971226
000260 60 7f 47 bd b4 9f d3 3d 70 a8 57 3d a4 58 41 bd
       -0.04870546 0.10333195 0.05265087 -0.047203675
000270 fc 4e 14 3d e8 3b c0 3d 30 93 9a 3c b8 5a 7c bd
       0.036208138 0.09386426 0.018869013 -0.061609954
000280 24 89 9e bd cc cb 94 bd 60 86 ad 3b 6c 1c 93 bd
       -0.07741001 -0.07265434 0.0052955598 -0.071831554
000290 90 39 ef bd f0 ea 06 bd 38 1d 1f bd 78 c9 a2 bc
       -0.11680901 -0.032938898 -0.038846225 -0.019871458
0002a0 9c 35 05 3d f8 b1 9b bd 90 fc 03 bc d0 6c 8c bd
       0.03252183 -0.07602304 -0.008055821 -0.06856692
0002b0 4c 4a 86 bd 12 6e a8 3d 5e 07 a5 bd f8 44 5c bd
       -0.0655714 0.08224119 -0.08058046 -0.05377671
0002c0 24 c9 33 bd 44 40 57 bd da 9a 9a 3d f8 df a8 3c
       -0.043892995 -0.052551523 0.07549067 0.02061461
0002d0 ac 5f 7b bd 54 02 4d bd 3e eb 94 3d 68 c1 b8 3c
       -0.061370537 -0.05005105 0.072714314 0.02255316
0002e0 d0 12 e4 bd e0 54 f7 bc 04 a6 c7 bd 46 f0 fa 3d
       -0.11136401 -0.030191839 -0.09748462 0.1225286
0002f0 78 ad 4b bd 48 d0 95 bd c0 66 13 bb 58 86 00 bd
       -0.04972598 -0.07315117 -0.0022491664 -0.03137812
000300 00 4c 6d 39 40 db 7e 3b 1c 03 75 3d 94 6a 16 3d
       0.00022630394 0.0038888007 0.05981742 0.036722735
000310 2a 42 e7 3d 20 bc d3 3d 40 f1 00 bd 00 7b 9a 3c
       0.11291917 0.10338616 -0.031480074 0.01885748
000320 88 cf d9 bd 20 3b e7 bd 6a 92 d5 3d 3e 7d b1 bd
       -0.106352866 -0.11290574 0.10428317 -0.08666466
000330 3e 53 9a 3d e4 73 29 3d 66 ae f7 3d 46 7d 87 bd
       0.075354084 0.041370288 0.12093811 -0.06615691
000340 18 16 f7 3d e0 cb f7 bb d8 97 e6 3d 70 6b 8c bd
       0.12064761 -0.0075621456 0.11259431 -0.068564296
000350 40 af 05 bc 40 2e 8b bc 50 42 92 3c be d8 c8 bd
       -0.008159459 -0.016989827 0.017853886 -0.09806965
000360 70 77 46 3d f6 09 e3 bd 72 11 9a 3d 84 47 f2 bd
       0.04845375 -0.11085884 0.07522859 -0.11830047
000370 80 6a bd 3b 98 4d b7 3c c8 2a 5c bd 42 d6 c3 bd
       0.005780518 0.022375867 -0.053751737 -0.09562351
000380 64 40 91 3d 28 7f a1 bd b4 41 ba 3d f0 04 19 bc
       0.0709236 -0.07885581 0.09094563 -0.009339556
000390 a0 c9 bc 3c a2 7a ba bd 34 df 71 3d 04 08 b6 bd
       0.023045361 -0.091054216 0.059050754 -0.088882476
0003a0 e6 c6 fa bd 90 49 9a 3c 40 a2 9a 3c 50 b8 81 3d
       -0.12244968 0.018833905 0.018876195 0.06333983
0003b0 a0 b8 0b 3c 2c dd 4f 3d ae 81 cd 3d 10 ee 6d bc
       0.008527905 0.050748035 0.100345 -0.014522091
0003c0 40 60 b4 3c 88 4e 33 3d 00 5d c8 3a aa fe c6 bd
       0.022018552 0.043776065 0.0015286505 -0.09716542
0003d0 7e 97 89 3d c8 9c 59 3d 74 47 3c bd 08 fa bb bd
       0.06718348 0.053128034 -0.04596658 -0.09178549
0003e0 a0 b1 ed bd e0 18 88 bb ae 0c a2 3d 0c 26 c6 3d
       -0.11606145 -0.004153356 0.07912575 0.096752256
0003f0 e8 10 bf 3c d8 d9 a7 3c 32 f7 ff 3d 40 df 33 bd
       0.023323491 0.020489618 0.12498321 -0.04391408

lstm.bias_hh_l0 f4 [256]
000000 be 5a ef bd 3c 9b 93 3d 02 1c 88 3d 7c 9c df bd
       -0.116872296 0.07207343 0.06645967 -0.10918519
000010 d0 a1 85 3d 50 c8 b9 3c 4c 4b 67 3d 2a 94 eb bd
       0.06525004 0.022678524 0.056468293 -0.115028694
000020 ba 04 99 3d 38 38 8b bc e0 b3 d1 bb ba b1 aa 3d
       0.07471605 -0.01699458 -0.0063996166 0.0833468
000030 e0 9f a4 3c cc e6 57 bd c0 2e 6b bd 00 0d e0 ba
       0.020095766 -0.05271034 -0.05741763 -0.0017093718
000040 30 69 19 bc 38 a8 cd 3c 00 c0 87 3b 3a 34 95 3d
       -0.009363458 0.025104627 0.004142761 0.07285352
000050 ea 26 f4 3d 84 30 7e 3d c0 50 ac 3c d8 87 4f bd
       0.11921485 0.062057987 0.021034598 -0.05066666
000060 00 c8 64 3a 4c cb a6 bd 8c 3a 5c bd aa cb e6 3d
       0.0008727312 -0.081442446 -0.053766772 0.112693146
000070 40 31 b1 bc 9c c4 b6 3d 60 ca 4a bc 06 77 98 bd
       -0.02162993 0.08924219 -0.0123773515 -0.07444577
000080 b4 13 36 3d 54 dd 40 3d 10 f1 4a bc 22 de e8 bd
       0.044452384 0.047086075 -0.012386575 -0.113704935
000090 0c 03 c2 bd 44 f1 da 3d 24 b6 68 bd fc 39 8b bd
       -0.094732374 0.10690549 -0.056814328 -0.06798169
0000a0 60 6e c2 bd 54 69 eb 3d 9a ec c9 bd a0 07 ea bc
       -0.094937086 0.11494699 -0.09859581 -0.028568089
0000b0 80 7e 8f bd d0 bd 68 bd a8 fc bc bc f0 11 ca 3d
       -0.0700655 -0.056821644 -0.023069695 0.098667026
0000c0 48 8b 1a bd d0 d4 a6 3d ec 94 53 3d a0 9b 54 3c
       -0.037730485 0.081460595 0.051655695 0.012976557
0000d0 b0 2c a4 bd a0 25 8e 3b a4 08 a0 3d 40 17 d9 bd
       -0.08016336 0.0043379813 0.07814148 -0.10600138
0000e0 48 bb 8c 3c 50 e3 13 3c b4 ff 2d 3d c8 fa 82 3d
       0.017179146 0.0090263635 0.042480186 0.06395489
0000f0 90 9c 83 bd ec 67 a0 bd e6 95 af 3d 80 06 f1 3a
       -0.06426346 -0.078323215 0.08573513 0.0018388778
000100 c2 fd b9 3d 28 ad c3 3c d4 ba d9 bd 78 88 96 3d
       0.090816036 0.023886278 -0.10631338 0.07350248
000110 04 30 4e 3d ac 60 f5 bd a0 99 82 3d 10 74 95 3c
       0.05033876 -0.11981329 0.06376958 0.01824382
000120 04 3e 62 bd 40 52 31 3b 10 4f c7 bc 0c 71 a1 bd
       -0.055234924 0.0027057081 -0.024329692 -0.0788289
000130 98 bb 82 bd 00 67 15 3b c0 c4 9d bd 38 3c 48 3d
       -0.06383437 0.0022796988 -0.07703543 0.048885554
000140 70 00 56 3c 86 0b f5 bd cc f6 91 3d 30 73 c6 3d
       0.013061628 -0.119650885 0.07127151 0.09689939
000150 88 5f fd bc 18 89 e4 bc 00 7b 9c 3b 70 8c 4b 3d
       -0.030929342 -0.027897403 0.004775405 0.04969448
000160 98 42 ce bd f4 e6 03 bd dc e9 7e bd c0 51 d4 3d
       -0.100712955 -0.032202676 -0.062234744 0.10367155
000170 f4 cf c3 3d 7c f8 a6 bd 3c 89 f9 bd 3c 90 d7 bd
       0.09561148 -0.081528634 -0.121843785 -0.105255574
000180 8c c0 1e bd 36 69 8e 3d 60 be 9b bc e0 3b 02 3d
       -0.038757846 0.06953661 -0.019011676 0.031795382
000190 54 8c 58 3d 04 ff 78 bd 4c 5f 15 bd a2 e5 f5 bd
       0.052868202 -0.060790077 -0.036467835 -0.120066896
0001a0 ae 95 83 bd 70 44 aa 3d a0 26 78 3d 60 10 bc 3c
       -0.064250335 0.08313835 0.06058371 0.022957027
0001b0 38 13 d2 3d d4 9f e4 3d bc e1 f9 bd 38 38 b2 3d
       0.10257572 0.11163297 -0.122012585 0.08702129
0001c0 ee c7 b9 bd 98 cd c1 3d 30 21 28 bd 40 87 07 3c
       -0.09071337 0.09463042 -0.041047275 0.008271992
0001d0 a0 dd f4 bb 2c 2b 1e 3d 52 e2 92 bd f0 bc 5c 3d
       -0.007472709 0.03861539 -0.071720734 0.053891122
0001e0 40 ed 86 3d 22 3c fb 3d 3a 10 c5 3d fc 9d 39 3d
       0.065882206 0.12267329 0.096222356 0.04531668
0001f0 8a 5b bf 3d 52 3a 9e bd 08 0e c7 3c ec f3 d2 3d
       0.093436316 -0.077259675 0.024298683 0.10300431
000200 20 7e dc 3b 28 fd 53 bd 90 60 56 bc 40 0a f4 bb
       0.0067289025 -0.0517551 -0.013084546 -0.007447511
000210 24 f7 7f bd 8c 41 00 3d 18 54 16 3d 50 87 a8 bd
       -0.06249155 0.03131251 0.03670129 -0.08228934
000220 94 71 e2 3d 4c d4 fd bd f0 b0 4a bd 10 70 46 3d
       0.110568196 -0.12394008 -0.049485147 0.048446715
000230 f0 d1 2f bd a8 60 ad 3c fa 10 c0 3d 0c a0 2f 3d
       -0.04292482 0.021164253 0.09378238 0.042877242
000240 78 df a6 bc 44 27 e6 bd 04 62 89 bd fc 24 24 3d
       -0.02037023 -0.11237958 -0.06708148 0.040074334
000250 a8 2f 2c bd b0 88 7f bd 86 23 8b bd 58 8b b0 3d
       -0.042037636 -0.062386215 -0.06793885 0.08620328
000260 c8 ea 82 3c 5e 6c b0 bd 44 a2 09 3d d8 b2 b8 3d
       0.015981093 -0.086144194 0.033602014 0.09018487
000270 fe 97 9b bd 40 d3 e4 bd a4 cb 1d 3d 6c 2c 1c bd
       -0.075973496 -0.11173105 0.038524285 -0.0381283
000280 40 74 7e bc 98 00 f5 3c e4 49 12 bd 7c de 48 bd
       -0.015530646 0.02990751 -0.035715 -0.049040303
000290 ec 43 a6 bd 28 ae bb bd a0 f4 82 3b d4 4b 04 bd
       -0.08118424 -0.09164077 0.0039964467 -0.032298878
0002a0 82 d3 b1 bd d0 96 fb bc 12 33 e4 bd 6e 49 9c bd
       -0.0868292 -0.030711561 -0.111425534 -0.07631193
0002b0 ea 31 dd bd 14 68 8c bd ac 26 8e 3d d4 56 b6 bd
       -0.10800536 -0.06855789 0.0694097 -0.0890328
0002c0 9c 62 f9 3d 3a af b7 3d 60 ee d8 3c 24 31 22 3d
       0.12177011 0.08968969 0.026480854 0.039597645
0002d0 e0 1d 37 3d b0 ca ea bd f8 7e 57 bd 1e 12 ef 3d
       0.044706225 -0.11464441 -0.05261132 0.116733775
0002e0 f8 24 b6 bc 94 ed 41 bd 5c 15 ef bd 88 62 1a bd
       -0.022234425 -0.047345713 -0.11673996 -0.037691623
0002f0 e4 86 30 bd 0e 8b e0 3d 00 1b 9f 3a 88 b3 ff 3d
       -0.04309739 0.109640226 0.0012138784 0.12485415
000300 cc b5 c8 bd 26 77 df bd 36 84 b4 3d 9c 45 ca 3d
       -0.098003 -0.10911398 0.0881428 0.09876558
000310 94 5f ee bd 00 44 ae 3d 3e da b7 bd a4 c7 a4 bd
       -0.11639324 0.08509064 -0.08977173 -0.08045891
000320 70 b3 40 bd a0 3b a9 3c 76 3c f1 3d 64 c7 4f 3d
       -0.047046125 0.020658314 0.1177911 0.050727263
000330 ec ba 97 3d 7a 75 d8 3d c0 cf e9 bd b0 af 29 bc
       0.074086994 0.10569282 -0.11416578 -0.010356829
000340 96 16 9d bd 54 c9 40 3d f0 fc b3 bd f8 57 78 bd
       -0.076703236 0.047067 -0.087884784 -0.06063077
000350 d8 f7 a2 bd fc fe a9 bd 04 df e6 3d f6 cd f6 bd
       -0.07957429 -0.083005875 0.112730056 -0.12051003
000360 84 7f e9 bd 00 e4 f0 bb 5a 61 c1 3d 24 39 f4 3d
       -0.11401275 -0.0073513985 0.094423965 0.11924961
000370 f0 65 96 bd b0 cd 68 bd 50 6b 49 3c 16 0b db bd
       -0.07343662 -0.056836784 0.012293652 -0.10695474
000380 08 19 ea bc b8 e7 bb 3d b0 1b 13 3c 28 84 96 3c
       -0.028576389 0.09175056 0.008978769 0.018373564
000390 18 19 ae bc ac 34 38 bd ec 7a c6 bd e0 b5 64 3d
       -0.0212522 -0.044972107 -0.09691414 0.055837512
0003a0 f0 c8 0a 3d 00 14 a6 ba 7a bb a9 3d 08 09 a3 bc
       0.033883035 -0.0012670755 0.082877114 -0.019901767
0003b0 a4 7e f1 bd 60 8d b6 3b a8 ac 99 bc 76 31 f7 bd
       -0.11791733 0.0055710524 -0.018759087 -0.12069981
0003c0 2c 72 95 3d 98 59 f8 bd c4 6b 4a 3d 2e 94 d0 3d
       0.07297167 -0.12126464 0.04941918 0.10184513
0003d0 38 84 92 3d 88 e9 ec bc 08 b2 fd 3d 70 cf ae 3c
       0.07154125 -0.02891995 0.123874724 0.021339148
0003e0 90 f1 52 bd 56 e8 8c 3d c8 7c 75 3d 80 c7 8c 3d
       -0.051499903 0.06880252 0.059933454 0.06873989
0003f0 1c 0f 1f bd be ae 94 3d 6a 6e e6 3d d8 06 2c bd
       -0.03883277 0.07259892 0.112515286 -0.041998714

lstm.weight_ih_l1 f4 [256, 64]
000000 c8 b7 07 3d 76 ee 98 3d 1e 41 93 bd c4 f7 e0 3d
       0.03313425 0.07467358 -0.071901545 0.109847575
000010 f0 d8 8e 3c 50 d7 81 3c 98 64 34 bd 58 8c f8 3c
       0.017437428 0.01584974 -0.044041246 0.030340359
000020 e4 65 70 3d b0 83 31 3c 00 0d 1c 3d 6e df 85 bd
       0.05869092 0.010834619 0.038098335 -0.065367565
000030 82 76 18 3d 32 2b f4 3d f8 12 56 3d 08 fa 52 3d
       0.037222393 0.11922301 0.052264184 0.05150798
000040 b4 04 e0 bd be 7f fb 3d 0c 60 96 3d 70 09 45 bd
       -0.10938397 0.12280224 0.07342538 -0.048104703
000050 24 15 c0 bd 3e 81 e6 3d d4 f0 cb bd f8 58 f3 bc
       -0.09379032 0.1125512 -0.09958044 -0.02970551
000060 f8 78 ba 3d 62 c9 a9 bd 02 c0 83 3d b8 72 b0 bc
       0.09105104 -0.08290364 0.06433107 -0.021539077
000070 6c 74 b3 3c 1c 3b a5 3d 4c 74 c8 3d 4a 6b f8 3d
       0.0219061 0.08067915 0.09787807 0.12129839
000080 7a 90 9f bd 70 af 7d bd 1e 8f 8f bd 78 c1 e9 bd
       -0.077912286 -0.06193489 -0.07009719 -0.11413854
000090 ea 10 ed bd 08 4e 33 bd f0 bf 37 bc a1 86 d4 bd
       -0.11575492 -0.04377559 -0.011215195 -0.10377241
0000a0 34 09 4a 3d f0 b5 cf 3d de 69 60 bd b0 7d e9 bd
       0.049325183 0.10142124 -0.054788463 -0.11400926
0000b0 42 3a 2f 3d c8 d2 53 3d 6c bf d4 bd 60 3b ad 3d
       0.04278017 0.05171469 -0.10388073 0.084585905
0000c0 90 52 61 bd 58 b9 89 bc c0 51 32 bb 86 17 cf bd
       -0.05501038 -0.016812012 -0.0027209371 -0.101119086
0000d0 14 c5 d6 3d c8 aa 0c 3d 14 ac b5 bd 70 37 48 3c
       0.104868084 0.034342557 -0.08870712 0.012220249
0000e0 4d 95 97 3d 78 5d d0 3d 88 fb 8a bd 2c 17 ab bd
       0.07401524 0.10174078 -0.06786257 -0.08354029
0000f0 60 b9 d3 3d dc 8a a7 bc b0 34 f7 bd d0 79 05 3d
       0.10338092 -0.020451955 -0.12070596 0.032586873
000100 f8 cc f6 3c 1e 4d bf bd c2 5d 8e 3d f6 df e0 3d
       0.030127034 -0.09340881 0.06951477 0.10980217
000110 22 44 aa 3d 32 29 d2 3d d8 89 d4 bd 70 5d 09 bc
       0.083137766 0.10261764 -0.10377854 -0.008384094
000120 4c 40 ef 3d 4e 7c f4 bd 88 a5 7c 3d 80 f0 d9 3c
       0.116821855 -0.11937772 0.0616813 0.026603937
000130 ee 8c 0f 3e 07 d1 8a 3d 84 90 34 bd cc cd b8 3d
       0.14018604 0.0677815 -0.044083133 0.09023628
000140 30 38 a2 bc 7a 64 aa 3d 10 07 b2 bc da 1b 94 3d
       -0.019802183 0.08319946 -0.021731883 0.07231875
000150 c0 7d 95 3d b8 7f ab bc f0 69 6c bc 58 4d 83 3d
       0.072993755 -0.020934924 -0.014429554 0.064112365
000160 6c 1f 17 3d f4 d9 60 bd c6 e0 ae bd 9e a3 ff 3d
       0.0368952 -0.054895356 -0.08538966 0.124823794
000170 26 49 22 3c 12 d3 8b 3d be 79 b7 3d 80 43 7e bc
       0.009905135 0.06827368 0.08958767 -0.015519023
000180 b9 27 91 bd 24 ee 70 bd 28 db bb 3c 38 0c e3 bc
       -0.070876546 -0.05882086 0.02293165 -0.027715787
000190 ee 7d d6 bd b5 33 a9 bd 92 25 f5 bd d3 da 81 ba
       -0.10473238 -0.082618155 -0.119700566 -0.0009907134
0001a0 ba c4 26 3d f2 be ef 3d 9c de 02 3d 18 31 f4 bc
       0.040714957 0.11706342 0.031950578 -0.029808566
0001b0 34 ab 04 bd 68 bc cd 3d 1a ef db 3d 66 49 9a bd
       -0.032389835 0.10045701 0.107389644 -0.07533531
0001c0 ae ee c2 3d 38 b3 a5 3c 78 67 f1 3d ce f3 95 bd
       0.09518181 0.02022706 0.11787313 -0.07321893
0001d0 c8 4b 9a 3c 00 1f 5d 3c d6 78 8a 3d 12 dc 9e bd
       0.018834963 0.0134961605 0.06761329 -0.07756819
0001e0 f7 eb a1 bc b0 3b fc bc f8 da 2f bd 60 6c 25 3c
       -0.019765837 -0.03079018 -0.042933434 0.010096639
0001f0 80 0a 9f bb e6 38 13 bd 18 7e 62 3c f8 fc be 3d
       -0.0048535466 -0.035942934 0.013824008 0.09325594
000200 a0 ba ad bd a8 6a 9d 3d b6 f4 e3 bd 30 3b 25 bc
       -0.084828615 0.07686359 -0.11130659 -0.010084912
000210 0e 10 94 bd 62 2f d5 bd 68 46 dc 3c b8 29 01 bd
       -0.07229625 -0.10409428 0.026889041 -0.031533927
000220 02 8d 9c 3d 6c 2b 5a bd c0 2b f9 bc f8 df b2 bd
       0.076440826 -0.053264067 -0.03041637 -0.08734125
000230 1d e3 b6 3d cb df 15 3d 00 a2 16 3a d6 43 b7 bd
       0.08930037 0.03659038 0.0005746186 -0.089484856
000240 bc 36 89 bd bc 74 08 3e c0 66 8f bc 76 9b 92 3d
       -0.06699893 0.1332578 -0.01750505 0.07158558
000250 30 a4 95 bc 58 d9 65 3d 20 49 4d 3c 40 e0 69 bb
       -0.018266767 0.05611548 0.012529641 -0.0035686642
000260 f0 ec 56 bd 00 5a 91 3a 88 55 b3 3d 54 74 cf 3d
       -0.052472055 0.0011089444 0.08756548 0.1012961
000270 a1 e4 bf 3d 68 a9 bb bc b0 04 95 bc 10 ff 65 3d
       0.093697794 -0.022907928 -0.018190712 0.05615145
000280 c6 84 90 3b 30 2f 18 3d 82 79 b0 bd e8 db ef 3c
       0.004410359 0.037154377 -0.08616926 0.029279664
000290 40 46 8d 3b 5a f3 15 be 8c c7 a8 3d 17 c1 95 3d
       0.004311353 -0.14643613 0.082411855 0.073122196
0002a0 d7 49 f7 3d 0e c3 da 3d 88 4c 28 3e 74 31 cf 3d
       0.12074631 0.10681735 0.16435444 0.10116854
0002b0 a9 2e 22 3e 80 d9 7e 3b 88 3c e1 bd 56 6e fc bd
       0.15838112 0.0038886964 -0.109978735 -0.123257324
0002c0 90 ad e6 3d d0 49 2d bd 8a 0f ae bd 8c d4 2b bd
       0.11263573 -0.04230672 -0.084990576 -0.041950747
0002d0 4a 47 a0 3d 00 c4 04 ba 10 da ec bc fc b2 69 bd
       0.07826097 -0.00050646067 -0.028912574 -0.05705546
0002e0 1a 37 01 3d 7c f7 70 3d 80 68 df bc a0 7e 91 3c
       0.03154669 0.05882977 -0.02727151 0.017760575
0002f0 1e b8 93 3d 57 0e e3 bd 4c ec 16 3e d8 73 e7 3d
       0.07212852 -0.110867195 0.14738578 0.11301392
000300 30 99 4a 3d b8 13 e4 3c 08 be 7d 3d c2 3e f6 3d
       0.049462497 0.027841434 0.061948806 0.12023689
000310 18 47 92 bd b8 83 ee bc 60 2a 96 bc 80 8d 87 bb
       -0.07142466 -0.029115543 -0.018330753 -0.004136741
000320 40 d9 a9 bd a0 ba 5e bd 28 af 63 bd 90 a0 a2 3d
       -0.0829339 -0.0543772 -0.055586964 0.07940781
000330 ef de 11 3d 0b e0 db 3d 4c d2 af bd 44 d8 c6 bd
       0.035612997 0.10736092 -0.08585033 -0.09709218
000340 1e 50 d2 bd 4c 60 29 3e 9c 9d c0 3d 80 e5 6b 3c
       -0.102691874 0.1654064 0.094050616 0.014397979
000350 a0 12 d1 bb f2 03 e8 3d 4c 9e 22 3d b8 67 68 bd
       -0.006380394 0.113288775 0.039701745 -0.05673954
000360 40 66 66 bb 8e 89 f1 3d 20 97 f2 3b 28 ee 35 3d
       -0.003515616 0.117938146 0.0074032694 0.044416577
000370 19 a7 a4 3d 40 cf 67 bd 70 78 7d bd 30 dd 5b 3c
       0.08039684 -0.056594133 -0.061882436 0.013419434
000380 47 be 46 bd 3e 30 85 bd f0 31 b7 bd bc cd 92 bd
       -0.048521306 -0.06503342 -0.08945072 -0.07168147
000390 e8 66 b9 3d ed 35 a4 bc 7c c4 4b bd 0f a4 9a bb
       0.09052831 -0.020045245 -0.04974793 -0.0047192643
0003a0 bd a1 0d 3e 50 a0 95 bc c2 08 29 3c e4 0c 93 3d
       0.1383123 -0.01826492 0.010317029 0.07180193
0003b0 04 03 d8 3c 78 0a 67 bd 10 84 8e bd 48 08 85 bc
       0.026368625 -0.05640647 -0.06958783 -0.0162393
0003c0 80 45 92 bc 10 c0 7b bd e0 bb 5f bc 80 ef 29 bb
       -0.017855406 -0.061462462 -0.013655633 -0.0025930107
0003d0 00 6a 20 3a 98 8f 95 3c 06 f3 cc bd 3c 83 40 3d
       0.0006119311 0.018256947 -0.100072905 0.047000155
0003e0 62 4d 59 3d cc e5 5e bd d0 3a 6c bd a0 92 38 bd
       0.053052314 -0.05441837 -0.057673275 -0.045061707
0003f0 40 f9 69 3b ce d9 ad bd c3 ca 41 3c dc 2a 0d bd
       0.0035701543 -0.084888086 0.011828127 -0.034464702

lstm.weight_hh_l1 f4 [256, 64]
000000 bc 58 e4 3c b7 fb 77 3d 02 11 8b 3b a8 d0 03 bd
       0.027874343 0.06054279 0.004243971 -0.032181412
000010 53 b1 b5 bd 8c a7 05 be 0d 34 06 3e 04 2c 06 be
       -0.088717125 -0.13052195 0.13105793 -0.13102728
000020 4d 5b 7b 3d cb 09 04 3e 77 dc 88 3d a1 83 35 be
       0.061366368 0.1289436 0.06682675 -0.17725994
000030 de 55 e5 3d f3 75 3d 3e 4f 69 d6 bd 1d 3d 10 3d
       0.111980185 0.18502025 -0.10469305 0.035214532
000040 d6 0a 95 3d dc eb c6 bd bf 69 0d 3e 96 ff e4 3a
       0.072774574 -0.09712955 0.1380987 0.001747119
000050 5e d6 c7 bd 06 b8 d4 bd 26 b9 c2 3d da 86 12 bd
       -0.09757684 -0.10386662 0.095079705 -0.035773136
000060 55 ec e0 3d 41 46 29 3e a3 42 38 3d 48 6d c5 3c
       0.10982577 0.16530706 0.044985425 0.02409996
000070 30 b4 b2 3c 34 f3 01 bd 8a 5d 1c 3e bb 80 c0 3d
       0.021814436 -0.031726077 0.15270057 0.093995534
000080 38 45 67 3d 0f 55 ab bd 91 da db 3c 5d 49 90 bd
       0.056462497 -0.08365833 0.026837619 -0.07045243
000090 0a 3f 51 bc 9a a2 65 bd f8 26 b9 3c 11 05 82 3a
       -0.012771377 -0.056063272 0.02260159 0.0009919723
0000a0 bc cb 0a bd 8c 61 fc bd f0 eb 00 3e 60 05 6d 3b
       -0.033885702 -0.12323293 0.12590003 0.0036166534
0000b0 76 7b 50 3d ab 8f e4 bd 68 1b 05 be 1d bf d5 3d
       0.05089899 -0.11160215 -0.12998736 0.104368426
0000c0 be cd 21 bd 65 c9 03 3d 06 dd 92 3c 21 26 18 bd
       -0.03950285 0.032174487 0.017927658 -0.037145738
0000d0 e9 46 8b bd 2c 00 11 be e3 b4 2c bd 98 44 ec 3d
       -0.068006344 -0.14160222 -0.042164695 0.11536521
0000e0 6a 5b 9c bd 38 be 9d 3d d7 45 9b 3c 13 10 74 bd
       -0.07634623 0.07702297 0.0189542 -0.059585642
0000f0 b2 44 8a 3d d2 26 40 bd e9 f4 b4 bc e5 c3 d9 3d
       0.06751384 -0.046912022 -0.022089439 0.10633067
000100 11 2e 44 3d e2 84 a5 3d f5 4b 5b bd 80 50 0a 3d
       0.047895495 0.08081986 -0.053539235 0.033768177
000110 d1 dd cb 3c 77 40 62 ba 84 da 0c 3d b7 62 15 3d
       0.024886044 -0.0008630822 0.03438808 0.036471095
000120 b7 20 ec 3c 26 6f cd 3b c0 d6 98 3b 1c 52 a1 3d
       0.028824193 0.0062693534 0.004664272 0.07876989
000130 e3 55 62 bc f3 61 d9 bc a8 d5 39 3d db e4 64 3d
       -0.013814422 -0.026535964 0.045369774 0.055882316
000140 e7 7e a7 3c 45 2c b7 bc 11 6d 0f bd 3f d4 09 3d
       0.020446254 -0.022359977 -0.035016123 0.03364968
000150 c1 34 ba 3b e4 f6 f6 3d e9 db ff bd c8 c3 0a be
       0.0056825583 0.120588094 -0.124931164 -0.13551247
000160 d7 78 8a 3d 0c 17 3b bd 67 a0 ba bb da b5 27 be
       0.067613296 -0.045676276 -0.005695391 -0.16377965
000170 f6 6a 3d bd 30 08 61 3d 95 55 f9 3d 1e 42 26 3d
       -0.046244584 0.05493945 0.121745266 0.040590398
000180 1f a6 28 be 2d ed d9 3c be d9 93 3c 67 0d 9b 3b
       -0.1646962 0.026602352 0.018048164 0.0047318223
000190 f9 ea 2d bd e4 a9 63 ba 29 ff c8 bd 71 46 6e bd
       -0.042460416 -0.00086846785 -0.09814293 -0.058172647
0001a0 0f 91 44 bd 4e c4 e7 3c 9c 19 8a 3d 34 e7 a2 3d
       -0.0479899 0.028291848 0.06743166 0.07954255
0001b0 92 cb 00 3e 60 aa d5 bd e9 23 7b 3c 22 f9 2e be
       0.12577656 -0.10432887 0.015328386 -0.17087224
0001c0 6e 8b 04 bc 0f c0 19 3e ce a9 51 3d 47 fd 1c bd
       -0.008089883 0.15014671 0.05118733 -0.03832748
0001d0 cd 0a c9 bd 8f e3 10 3d 48 f9 19 be fe 22 a8 bd
       -0.09816513 0.035373267 -0.150365 -0.08209799
0001e0 5e a8 1a 3d 87 cb 5c 3d 7d 94 2f 3d 8c 95 5f bd
       0.037758224 0.053905036 0.04286622 -0.05458598
0001f0 d4 b9 18 3e 74 ca 43 bd 85 e9 da bd 0e cd 83 3d
       0.14914638 -0.047800496 -0.106890716 0.064355955
000200 bc 71 71 bd d1 81 16 3e 41 61 59 bd f8 68 16 bd
       -0.058946356 0.14697959 -0.053071264 -0.0367212
000210 d5 c1 f9 bd 5e 81 86 3d e6 1e 74 bc 75 53 bb 3d
       -0.12195174 0.065676436 -0.014899945 0.091467775
000220 65 48 79 bd f9 10 2a 3d ec 6a dd bc 02 85 99 bd
       -0.060860056 0.041520093 -0.027028523 -0.07496072
000230 6c ce 06 3e fe 6e 72 3d ed 6e 75 bc 50 28 a4 3d
       0.13164681 0.05918788 -0.01498006 0.080155015
000240 28 b9 8b bd 14 3d c8 3d 34 b1 bc 3c c1 91 b0 bc
       -0.06822425 0.09777275 0.023033716 -0.021553876
000250 86 0e 90 bd 4d 20 90 bc 25 c0 b2 bd 97 2a 8a 3d
       -0.0703402 -0.017593527 -0.08728055 0.067464046
000260 b4 ad 1e bd 09 72 08 bd 4f 72 fe 3d 19 1d 5a 3d
       -0.038739875 -0.033311877 0.124241464 0.053250406
000270 56 34 42 3c 4f a7 97 3d d4 7c 60 3c 99 c1 0b be
       0.011853298 0.074049585 0.013701636 -0.1364807
000280 01 4f f0 bd 71 df 94 3c bc c4 22 3d b1 41 19 3e
       -0.11733819 0.018172951 0.0397384 0.14966466
000290 cd fd cf 3d 8a 89 a3 bb 74 4f 1c be a4 c3 7f b9
       0.101558305 -0.004990761 -0.15264684 -0.00024391577
0002a0 42 0d 14 be 30 9a c7 bb cf 0d b5 bd a5 14 6a 3c
       -0.14458182 -0.0060913786 -0.088405244 0.014287149
0002b0 c9 2b 88 3d f7 a1 cd bd 82 c1 01 be 06 ab f3 bc
       0.06648976 -0.10040658 -0.12671474 -0.029744636
0002c0 25 87 ae 3d d8 c2 55 3d 28 dc c5 3d 81 c7 e2 bd
       0.085218705 0.05218777 0.09661132 -0.110732086
0002d0 8e 86 0c be d7 06 13 be 5d 36 52 bd 67 92 61 bd
       -0.13723204 -0.14358078 -0.051321376 -0.05507126
0002e0 e6 e0 08 3e a1 38 63 3d ad b7 43 3d 2c 54 00 3e
       0.13367042 0.055473927 0.04778259 0.12532109
0002f0 33 2f c3 bc d1 e2 7a bd cc 1f 05 be c6 89 99 bd
       -0.023826217 -0.061251465 -0.13000411 -0.07496981
000300 9c ed 1e 3d cb 4a 60 3d 13 74 ab 3d e4 f3 29 3c
       0.03880082 0.054758828 0.08371749 0.010373089
000310 53 41 a8 3c b6 3c 50 bd 5d c9 9c bd e7 b1 7f 3d
       0.020538962 -0.05083915 -0.076555945 0.06242552
000320 4b 80 50 bb 92 af 30 3d 3b 23 cb bb f5 60 06 3e
       -0.003181475 0.043136187 -0.006199268 0.13122924
000330 53 3f 0a 3e 7c 97 10 3d dd fa 30 bd 9b ab c1 bc
       0.13500719 0.035300717 -0.043207992 -0.023641398
000340 65 78 16 3c 5f 73 0f bc 5c b4 72 bd d2 d7 6b bd
       0.009183978 -0.008755534 -0.059254035 -0.05757887
000350 02 a2 e4 bc 01 f7 ab 3d 89 f1 02 bd 29 ee 11 be
       -0.027909283 0.08396722 -0.031968627 -0.14251007
000360 82 80 24 bd b3 fe 82 3d 75 69 12 3a 4b ff 8f 3d
       -0.040161617 0.06396236 0.00055851723 0.07031115
000370 dc d9 09 3d 62 93 0c 3d 7c 21 69 3c 0e 5d c7 bd
       0.033655033 0.034320243 0.014229175 -0.09734546
000380 81 a9 80 3d a3 2e af 3d 87 ee ba 3d 91 48 ff 3d
       0.0628233 0.08553817 0.09127527 0.12465013
000390 1e e6 22 bd 7c 55 ae bd c8 ba 0a be c1 4b 21 3e
       -0.039770238 -0.085123986 -0.13547814 0.15751554
0003a0 05 6c cf bd 5a a5 17 3d fd 09 a3 3c 2b 09 1f 3d
       -0.10128025 0.037022926 0.019902224 0.038827103
0003b0 c1 ea c1 bc 7c d0 81 3c 87 62 66 3d 77 c1 89 3d
       -0.02367151 0.015846483 0.056246307 0.067263536
0003c0 f9 9b 10 3e 42 42 a5 3d a4 79 a1 bd 10 ec 2e be
       0.14121999 0.08069278 -0.07884529 -0.17082238
0003d0 2c 9a 06 be bc df e8 bd c7 a3 70 3d 27 4f 9e 3c
       -0.1314475 -0.11370799 0.05874994 0.019324852
0003e0 05 83 0e 3e 70 2a 9d bd 52 69 a8 bd 9b 77 83 3d
       0.13917167 -0.0767411 -0.08223213 0.06419297
0003f0 fe 7d 5a bd ca 60 23 3e cd 5a e6 bb ce c0 62 bb
       -0.05334281 0.15954891 -0.0070298673 -0.0034599784

lstm.bias_ih_l1 f4 [256]
000000 d9 cc 9d 3d 97 5f ab 3d 7e fc 5e bd af d9 a9 3c
       0.07705087 0.08367842 -0.054440014 0.020733682
000010 a1 3c 16 3d d6 f7 9f bb d9 20 e0 bd 02 2b b5 bd
       0.036678914 -0.0048818393 -0.10943765 -0.08846094
000020 6a 48 c9 3d 14 ea 85 bc 9e be a6 3c 7a 19 d2 bd
       0.09828265 -0.016346969 0.020354565 -0.102587655
000030 4d 3e 2d 3c 7f 31 11 bb 15 aa d1 bc c4 89 99 3d
       0.010573936 -0.0022154746 -0.025593797 0.0749698
000040 85 ea 2e bd 9c 1d ea 3d 0b 29 34 bd 00 13 3e 3d
       -0.042704124 0.11431429 -0.043984454 0.04640484
000050 a2 71 20 3e 35 e1 9e 3d aa 79 22 bd 69 af 18 3e
       0.15668347 0.077577986 -0.03966681 0.14910664
000060 b4 60 0d 3d a7 97 00 bc 4b 55 f5 bc f0 15 eb bc
       0.03451605 -0.007848657 -0.029947897 -0.028696984
000070 1d 91 8e 3b f1 50 9e 3d f3 9d 8b 3d 09 7c 91 3d
       0.004350795 0.07730282 0.06817236 0.07103736
000080 c7 5c a1 bd 29 83 c5 bd 0c fe 79 bc 3a 15 af bd
       -0.07879024 -0.096441574 -0.015258323 -0.085489705
000090 1a 46 b5 3d 13 46 fe 3d 50 eb dc 3c fc 57 cc bc
       0.088512614 0.12415709 0.026967674 -0.024944298
0000a0 08 f8 1d 3e e6 e6 05 3e 6e d0 a4 3d 88 42 f4 3d
       0.15426648 0.13076362 0.08047567 0.11926752
0000b0 18 76 fe 3c 91 20 bb 3d 7c 2a d8 3d e8 33 b8 3c
       0.03106217 0.09137071 0.10554978 0.022485688
0000c0 46 ad e3 bd 61 1c 34 bb 71 61 12 bd 09 0d 1c 3e
       -0.11117034 -0.0027482735 -0.03573746 0.15239348
0000d0 6c c2 cf 3c 7b e3 b8 3d 85 3c 55 bc f2 91 31 bd
       0.025361262 0.090277635 -0.013014917 -0.043352075
0000e0 7a 82 6b bd f0 62 ae 3d 89 f6 0b 3e 7b 94 0d 3b
       -0.05749748 0.085149646 0.13668264 0.0021603394
0000f0 05 e3 74 bd ab bc 12 3d 4a 0b 66 3d 01 d7 97 bd
       -0.059786815 0.03582446 0.05616311 -0.074140556
000100 06 5b a5 bd bc 76 94 3c 96 11 7a 3d e8 df eb 3c
       -0.08074002 0.018123023 0.061051928 0.02879329
000110 7a 58 11 3c ab 93 08 3e 20 bf cf 3c 58 1e 04 bd
       0.008871192 0.13337581 0.02535969 -0.0322555
000120 04 6f 3d 3d fd e8 b6 3d e8 16 21 3e 84 ed 85 bd
       0.04624845 0.08931158 0.15731394 -0.06539443
000130 94 03 bd 3d 29 39 cc bd 1d 48 aa bd d1 0b 01 bd
       0.09229198 -0.0997184 -0.08314536 -0.03150541
000140 10 bb a7 3d 5d cd 9a 3d a6 49 a5 3d c8 11 80 bd
       0.08189976 0.07558701 0.08070688 -0.062533915
000150 7d 0f 39 bd 1f 8f bf 3d 0a db 0a 3e 9a 15 82 bd
       -0.045180786 0.0935347 0.1356012 -0.063517764
000160 59 cc c0 3d 74 23 02 3e dd f1 1f 3d 05 18 f5 3d
       0.09413976 0.12708837 0.03904902 0.11967472
000170 a0 40 d7 bc c8 18 86 bd 46 c4 d3 3d 72 31 c4 3d
       -0.026275933 -0.065476954 0.103401706 0.095797434
000180 3a be ab 3d a6 4d 3d 3c 67 8b 33 3e ea 92 de 3d
       0.08385892 0.011554157 0.17533647 0.108678654
000190 78 8e d1 bc ce 51 cf 3d 83 f8 f5 3d 47 15 0c 3e
       -0.02558063 0.10123025 0.120102905 0.13679992
0001a0 ac fe 29 3e b9 c8 92 3d 12 24 13 3d 0e 03 c6 3d
       0.16601056 0.07167191 0.03592307 0.096685514
0001b0 75 8c 69 bb 2b b3 97 bd ee ba bb 3c 18 7b 6f bd
       -0.0035636697 -0.074072205 0.022916283 -0.058467
0001c0 07 db 42 bd 4f 33 68 3d 0a 80 8c 3c d5 26 25 3d
       -0.047572162 0.056689557 0.017150898 0.040320236
0001d0 57 a7 5d bd 50 25 83 bd 98 a2 f1 bb 51 e5 1a 3e
       -0.054114666 -0.06403601 -0.007374119 0.1512654
0001e0 95 62 24 bc 58 86 01 3e 0b f5 46 3d 00 cf 58 3d
       -0.010033269 0.12648904 0.048573535 0.052931786
0001f0 03 7c 04 bc 0d 5e cc bc c0 c0 b3 3b cf ce 25 3e
       -0.008086207 -0.02494719 0.005485624 0.16192172
000200 ad 40 99 3d 28 72 13 3e ff 7f 4c bc 59 8e 0b 3d
       0.07483039 0.14399016 -0.0124816885 0.0340713
000210 d3 df 1e 3d 00 1b e7 bd cb 29 2f 3c 3b 8a 7c bc
       0.038787674 -0.11284447 0.010691117 -0.015413816
000220 45 20 d2 bd 61 84 22 3e e2 ca 03 bd e1 1f ee bd
       -0.10260061 0.15870811 -0.032175906 -0.11627174
000230 a2 98 b0 3d be 91 93 3d 1e df 5b bd 15 86 8f bd
       0.086228624 0.072055325 -0.053679578 -0.07007996
000240 85 08 0d be 26 6b 95 3c eb c3 1c 3e 74 84 36 3d
       -0.13772781 0.018239569 0.15309112 0.04455991
000250 fd 13 8e bd b7 cc ec 3d 0c 55 04 be be 8e ce bd
       -0.06937406 0.11562484 -0.12923068 -0.1008582
000260 ec e1 05 3c 01 56 09 bd 0a 91 80 3d 44 3e 0d 3c
       0.00817154 -0.033529285 0.06277664 0.008620802
000270 d2 85 72 bd b0 82 5d bc 5b 78 aa 3d 7a 2f b6 3d
       -0.059209652 -0.013519928 0.08323737 0.08895774
000280 2f 76 3a 3d 72 75 59 3c 71 cb 74 3d 4d b1 e7 3d
       0.045522865 0.01327263 0.05976433 0.11313114
000290 43 0c ec bd 5d c0 0e 3c 37 46 56 bd 90 d9 d5 3d
       -0.11525776 0.008712855 -0.052313056 0.104418874
0002a0 14 9c 04 be 6d 86 4b bd ec d5 7f bd ea 9f 93 bd
       -0.12950164 -0.049688745 -0.06245987 -0.072082356
0002b0 7d 2f 86 3d 5f 9c a9 3d 39 a1 26 3c 00 93 12 bd
       0.065520264 0.082817785 0.010170274 -0.03578472
0002c0 1e 0b 1b 3d 90 ed ea 3c 30 d0 75 3d 80 83 1e 3b
       0.0378524 0.028677732 0.060012996 0.0024187267
0002d0 c8 06 00 be 50 68 9b 3d 8d d0 b3 3d ef e5 b6 3d
       -0.12502587 0.075882554 0.08780012 0.08930575
0002e0 19 3c 98 bc 1c f7 5f bd 6f 73 35 bd 4c ff ec 3a
       -0.018583344 -0.05467902 -0.04429954 0.0018081455
0002f0 e2 df a9 3d f8 84 5f 3d 10 38 2d 3d ec 5b 92 3c
       0.082946554 0.05457017 0.042289793 0.017866097
000300 90 e4 b0 3d 6a 79 24 3e b9 6d d9 3d b5 11 6f 3d
       0.08637345 0.16061941 0.10616631 0.058366496
000310 95 b4 6a 3d 28 61 0a 3e 86 84 ef 3d 50 47 00 bb
       0.057301123 0.13513625 0.11695199 -0.0019573756
000320 3e e5 6b 3d cf b5 90 bb 8c fc 95 3c ff 37 26 3e
       0.05759167 -0.0044162045 0.0183089 0.16232298
000330 f0 69 94 3c 30 8b a4 3d 13 68 dd 3d f8 48 3a 3e
       0.018116921 0.080343604 0.10810866 0.18191898
000340 c3 2b e4 bc 3e 2a a2 3d 27 d4 7f 3d 96 11 1d 3e
       -0.027852898 0.07918213 0.062458184 0.1533874
000350 2e 72 43 3e 78 cf 1f 3d fc a7 85 bc fa a0 df 3c
       0.19086525 0.039016217 -0.016315453 0.02729844
000360 04 d9 7e 3d aa 23 76 bc 0d 40 c4 3d 8c 60 02 3e
       0.06221868 -0.015023151 0.09582529 0.12732142
000370 1b f8 f4 3c 25 4f 0e 3e fc 88 13 3e 76 7a 08 3e
       0.029903462 0.13897379 0.14407724 0.13327965
000380 48 5d 92 3d 5d 9d 42 bc f6 35 30 3e 7c 68 28 3d
       0.07146698 -0.011878339 0.17208084 0.04111527
000390 ca fb d5 3c 81 e2 23 3e 24 14 fa 3d 3e 05 8b 3b
       0.026121039 0.16004373 0.12210873 0.0042425683
0003a0 ff fb 47 3d 91 73 d7 3d 34 cf 2d 3e 04 68 45 3d
       0.048824307 0.105200894 0.16973573 0.0481949
0003b0 23 28 3a 3e a2 63 28 3e 3f c2 d7 3c 74 80 b5 bc
       0.18179373 0.16444257 0.026337741 -0.022155978
0003c0 b1 b8 84 bd 12 b4 82 3d bb 4f 80 ba a7 a3 cb 3d
       -0.064805396 0.06382002 -0.0009789387 0.099433236
0003d0 72 a5 36 bd d3 86 0f 3d 4e e2 a5 3d c2 18 67 3d
       -0.044591375 0.035040688 0.08099805 0.056420095
0003e0 50 d8 b4 3d 16 6c 35 bd fd 8a 9b 3d b0 40 f9 3d
       0.08830321 -0.044292532 0.07594869 0.12170541
0003f0 78 8f 25 bd f7 51 ca 3c dc 80 e4 3d b8 9d b1 3d
       -0.040420026 0.024697287 0.111573905 0.086726606
