project/models/LSTM/NASDAQ.pth (torch, 209525 bytes, 9 tensors)

lstm.weight_ih_l0 f4 [256, 5]
000000 06 7a cd 3d 6c 45 4c bd 18 06 de bc 4e 69 8f 3d
       0.1003304 -0.049870893 -0.027102515 0.07002507
000010 d0 c6 49 bc 64 bf 6a bd 48 9c a7 3c ba 81 ce bd
       -0.012315467 -0.05731143 0.020460263 -0.10083337
000020 58 cf b7 3d 1c c5 f5 bd d2 58 bc 3d 82 3d c6 3d
       0.089750946 -0.12000486 0.09196629 0.096797004
000030 82 52 bf 3d 80 55 54 bc 6e e4 bc 3d 4c 05 2c 3d
       0.09341909 -0.012959838 0.09223257 0.04199724
000040 94 be 32 bd c0 82 bd bc c0 29 cc 3c 88 a9 3a bd
       -0.04363878 -0.023133636 0.024922252 -0.045571834
000050 a0 0e 8b 3d 10 5c ab 3c 7e a1 dc bd 2e 73 bc 3d
       0.06789899 0.020917922 -0.1077299 0.09201656
000060 1c dd b8 3d a8 18 c6 bc 82 1c f0 3d a0 23 aa bc
       0.09026548 -0.024181679 0.117241874 -0.02076894
000070 50 5b 75 bc c0 20 f2 3d c6 39 a6 3d 90 d7 73 3d
       -0.014975384 0.11822653 0.08116488 0.05953175
000080 8c 1b 12 bd 70 a3 88 bd 52 ef 8c bd 80 ec 97 bb
       -0.035670802 -0.06671798 -0.06881584 -0.0046363473
000090 6e 60 d6 bd 46 b9 9f bd 88 7c 16 bd 2a 0a a1 3d
       -0.10467611 -0.0779901 -0.036739856 0.07863267
0000a0 34 d1 09 3d 80 ed 80 3c cc 2d 69 bd 60 e3 63 3c
       0.033646777 0.015738249 -0.05692844 0.013909191
0000b0 d8 07 76 bd c0 52 e3 3d fe a1 bc 3d 74 a3 4b bd
       -0.060066074 0.11099768 0.09210585 -0.049716428
0000c0 5e 36 b9 3d 92 3d a0 3d b4 38 23 3d 48 ea 59 3d
       0.09043573 0.078242436 0.039849 0.053201944
0000d0 02 31 9f 3d 22 99 bc 3d 5e 76 b2 bd 6c 2e 1a 3d
       0.077730194 0.09208895 -0.08713983 0.037641928
0000e0 4c b8 6e bd 42 a0 ec 3d 54 64 d8 3d e8 9a 51 3d
       -0.058281228 0.11554004 0.10566011 0.05117312
0000f0 be c6 f4 3d 92 e7 c0 3d 6c c7 8a bd b4 17 3d 3d
       0.119519696 0.094191685 -0.06776318 0.046165183
000100 38 9a 49 bd ac 9a 63 bd 50 ea cd 3c f0 11 2d bd
       -0.04921934 -0.05556743 0.025136143 -0.042253435
000110 16 10 b9 3d 4e 1b b1 bd 68 9e 8d bd ba 9b e8 3d
       0.09036271 -0.08647786 -0.06914979 0.113578275
000120 62 e4 fd bd d0 7b 48 3c ca 53 f4 3d 10 d7 4e 3d
       -0.12397076 0.01223655 0.11930044 0.05049807
000130 d4 28 5c 3d e8 9e 51 3d e0 1a 0a bd 34 2b 41 3d
       0.053749874 0.051176935 -0.033717036 0.047160342
000140 28 c5 79 bd ec d7 dd 3d ba 3a ba 3d 80 f3 d1 ba
       -0.06097904 0.108321995 0.090932325 -0.0016018003
000150 44 1e 7b bd a4 f4 b4 3d 38 99 af 3c 60 f3 9c 3c
       -0.06130816 0.08835724 0.021435365 0.019159019
000160 96 4c c6 bd ee 4a b3 bd 9c da 76 bd f2 3e a6 bd
       -0.09682576 -0.08754526 -0.060267076 -0.081174746
000170 42 b7 d9 3d 0c 96 53 bd b2 3b bf bd b0 9a 24 3c
       0.10630657 -0.051656768 -0.09337558 0.010046646
000180 fc e0 6a 3d 70 96 02 bd c0 2e 1c 3b 90 c3 80 bd
       0.057343468 -0.03188175 0.0023831576 -0.062873006
000190 54 6c fb bd 2e e7 f5 bd 84 94 8a 3d 90 ad 17 3d
       -0.12276521 -0.12006985 0.06766608 0.037030756
0001a0 24 1c 76 bd 90 1b b1 3d 24 d1 e8 3d 34 39 07 3d
       -0.06008543 0.08647835 0.113680154 0.033013538
0001b0 90 87 06 bc b0 76 f6 3c 68 16 2a 3d 04 8e a6 3d
       -0.008211032 0.030085891 0.041525275 0.08132556
0001c0 50 88 11 bc e4 25 e0 3d 38 67 83 bc 14 45 ef 3d
       -0.008882597 0.10944727 -0.01604043 0.116830975
0001d0 d0 c7 34 bc d6 54 ca bd 48 0e f3 bd 88 46 ea 3c
       -0.011033967 -0.098794624 -0.11867958 0.028598085
0001e0 e6 94 de bd da 83 97 3d c2 36 af 3d d4 97 e1 bd
       -0.10868244 0.073981956 0.08555366 -0.11015287
0001f0 00 f8 24 ba a8 59 38 3d 90 ba 23 3d e0 73 22 bd
       -0.00062930584 0.045007378 0.03997284 -0.03966129
000200 26 5f 94 3d a0 79 cf 3d 8c ea fa 3d 08 4c f4 bd
       0.072447106 0.1013062 0.122517675 -0.11928564
000210 b0 12 3e bc 74 51 e6 3d e6 32 87 bd 20 a3 72 3d
       -0.011601135 0.11246005 -0.06601505 0.0592376
000220 92 03 af bd 18 ed ba bc dc 34 1c bd 04 5d 50 3d
       -0.08545603 -0.022818133 -0.038136348 0.050869957
000230 d0 d8 09 3c 80 17 fa 3d 9c fe 3a bd f6 a6 bb bd
       0.008413509 0.122115135 -0.04565297 -0.09162705
000240 36 f4 e4 3d 7e 0d e7 3d 8a 62 d7 bd 4a e1 80 3d
       0.11179392 0.1128187 -0.10516842 0.062929705
000250 ce 61 9d 3d 9c 26 c0 bd e0 f0 1b bc 46 f4 c8 bd
       0.076846704 -0.09382364 -0.009517878 -0.098122165
000260 06 bf d8 3d 1e ce b2 bd 68 89 8c 3d dc 1b 44 3d
       0.1058331 -0.0873072 0.06862146 0.04787813
000270 50 4b 5d 3c 94 de 63 bd 42 c2 dd 3d 74 cf 8f bd
       0.013506725 -0.05563219 0.10828067 -0.070219904
000280 68 9f 3c bd 94 60 89 3d 1c 6a a3 bd 9c e4 4a bd
       -0.04605046 0.06707874 -0.07979223 -0.049534425
000290 6c a0 59 bd d2 72 80 bd 78 7b d0 bd 88 70 d5 bd
       -0.053131506 -0.062719 -0.101798 -0.10421854
0002a0 10 8c 31 bd d0 74 bf 3c a0 b8 ef 3c 40 4d 15 3b
       -0.043346465 0.02337113 0.02926284 0.002278164
0002b0 60 3d 85 bd 00 0f 34 bb c0 a0 5b 3c d0 de cb bd
       -0.06505847 -0.002747476 0.013405025 -0.099546075
0002c0 26 ff 9a bd 9a 05 da 3d c2 c8 cc bd 1c 29 3d bd
       -0.07568197 0.106456 -0.09999229 -0.046181783
0002d0 6e 0b bd 3d a0 c9 f3 3d 6e 6f 9f bd 14 c5 93 bd
       0.09230696 0.11903691 -0.077849254 -0.07215324
0002e0 90 77 a4 bd ec 7e b7 3d 08 6e c3 3d 08 97 83 3d
       -0.08030617 0.08959755 0.09542471 0.06425291
0002f0 a0 99 4c 3d ce 39 81 3d 54 cc 35 3d f4 d4 00 bd
       0.049951196 0.063098535 0.044384316 -0.031453088
000300 c0 27 f9 3d 90 3c 08 3d 46 c9 a4 3d a8 21 4e bd
       0.12165785 0.033260882 0.08046202 -0.050325066
000310 5e 53 a5 bd b8 1f cf 3c f2 c4 af bd 20 c4 ba bb
       -0.08072542 0.02528368 -0.08582486 -0.0056996495
000320 80 21 38 3b 20 fc 7c 3c 6c 52 2e bd dc 19 e5 bd
       0.002809614 0.015440971 -0.042559072 -0.11186573
000330 00 c2 8b 3a 20 74 23 3c 14 b3 8d 3d 6e 63 8f 3d
       0.0010662675 0.009976417 0.06918922 0.070013866
000340 a8 72 62 3d f0 2e b0 bc f2 4f 9e 3d a6 b2 b0 3d
       0.055285126 -0.021506757 0.07730092 0.086278245
000350 84 62 e5 3d d0 e7 d3 bd d0 a8 89 3c a4 a7 0d 3d
       0.11200431 -0.10346949 0.016804129 0.034583703
000360 08 fc bc bd 3c 4a 96 bd 0e fe d1 3d d0 67 88 bc
       -0.09227759 -0.07338378 0.10253535 -0.016651064
000370 9a 91 e3 3d fe 0d 86 3d ec 00 fd 3d 42 64 99 3d
       0.11111756 0.065456375 0.123536915 0.07489826
000380 56 49 bd 3d 40 8c 79 bd c0 d2 69 bb 5c dc 84 3d
       0.09242503 -0.06092477 -0.0035678595 0.06487343
000390 4a c6 9c bd 28 16 23 3d 80 20 f7 ba 20 8d e0 3c
       -0.07655008 0.03981605 -0.001885429 0.027411044
0003a0 f0 57 e2 bc 24 65 ba 3d 00 e0 f6 b7 9c a5 a8 bd
       -0.027629822 0.09101322 -2.9429793e-05 -0.082347125
0003b0 20 4b d1 3d 96 6d de bd c8 74 48 3d ae bb e5 bd
       0.10219407 -0.108607456 0.048939496 -0.11217438
0003c0 a6 4c 9b 3d 72 32 d2 3d ea 85 8c 3d b6 ff fc 3d
       0.07582979 0.10263528 0.068614796 0.123534605
0003d0 14 08 01 bd 00 2b a8 bc 28 00 dd bd 5a c1 90 3d
       -0.031501845 -0.020528316 -0.107910454 0.07068129
0003e0 4a d6 cd bd 70 cc 9a bd 4e fc 81 3d 60 10 1f bc
       -0.10050638 -0.075585246 0.063469514 -0.009708494
0003f0 dc 48 42 bd 0e 5c 8f bd f4 c6 7b 3d dc 86 7a 3d
       -0.047432765 -0.0699998 0.061469033 0.06116377

lstm.weight_hh_l0 f4 [256, 64]
000000 c8 1c 9c 3d e8 f7 cf bc ec cf 27 3d 84 ad 98 3d
       0.07622677 -0.025386766 0.040969774 0.074549705
000010 48 ce 67 bd b0 52 ac 3d 0a 0e e5 3d 7c 27 b0 bd
       -0.05659321 0.08414209 0.11184318 -0.08601281
000020 10 57 c9 3c 7c d3 40 3d e8 4c 10 bd b2 dc 9b bd
       0.024577647 0.047076687 -0.035229594 -0.07610454
000030 a4 c5 c3 bd 9a ca 98 bd c8 e2 86 3d c0 5d f3 bc
       -0.09559181 -0.07460518 0.06586224 -0.02970779
000040 2c 14 0a bd e0 3f f3 bd bc cf ea 3d 3e 1e f6 bd
       -0.033710644 -0.118774176 0.114654034 -0.12017487
000050 14 d8 0b bd 5e 99 f2 3d c2 ce e6 bd c0 7b fd 3d
       -0.034141615 0.11845659 -0.11269905 0.12377119
000060 6c eb e9 bd 4e c5 c8 3d 18 c1 b3 3c 30 66 02 3d
       -0.11421856 0.09803258 0.02194266 0.031835735
000070 5c b7 a0 3d 78 d3 65 bd 6c f0 f7 3d 80 23 70 3d
       0.07847473 -0.056109875 0.12106404 0.058627605
000080 d0 c0 d5 3d 16 cc ed bd a2 dc e5 bd 52 12 ff 3d
       0.10437167 -0.11611192 -0.11223723 0.12454666
000090 48 fa e7 3d b4 44 fe 3d c0 ed f3 bc 80 27 97 3d
       0.11327034 0.12415448 -0.029776454 0.07380581
0000a0 84 35 34 bd 80 bd 02 bb dc ec 19 3d 58 e6 fb bc
       -0.04399635 -0.0019949377 0.037579402 -0.030749485
0000b0 20 87 3f 3c e6 51 ee 3d 9e 2e e2 bd 20 7a 5d 3c
       0.011689931 0.11636715 -0.11044048 0.013517886
0000c0 ba 3d ac 3d 24 5f 75 3d 78 d3 84 3d 68 11 16 bd
       0.08410211 0.059905186 0.06485647 -0.036637694
0000d0 00 71 c3 3d 5c 92 5f 3d 2c 34 e0 3d 40 fe 3b 3c
       0.095430374 0.05458294 0.10947451 0.011474192
0000e0 64 45 a2 3d 38 bd d9 bd 0e 75 fe bd 56 58 e0 3d
       0.079233915 -0.10631794 -0.1242467 0.10954349
0000f0 5a a8 ca bd 86 16 95 bd cc 23 16 3d 5a 1e df 3d
       -0.09895392 -0.07279687 0.036655232 0.10894461
000100 cc be ae bd 90 52 e7 3d 48 5c 66 3d c0 ec a3 3d
       -0.08532485 0.112950444 0.05624035 0.08004141
000110 60 e1 a5 bb 20 2a 6a 3d a4 72 be 3d 44 f1 b4 bd
       -0.005062267 0.05716908 0.0929921 -0.0883508
000120 5c 8b 08 3d 6c fa c0 bd 4c da 34 3d 78 12 c6 bc
       0.03333603 -0.09422764 0.044153497 -0.024178728
000130 ec 1d 50 bd e0 41 89 bd 08 0a 92 3c 50 a0 60 3c
       -0.050809786 -0.06702018 0.017827049 0.0137100965
000140 9e 9b f3 bd f8 a1 c2 3d ae 5e b6 bd a8 94 b1 bd
       -0.11894916 0.09503549 -0.089047775 -0.08670932
000150 7e 0e d8 3d ea 04 cb 3d a4 31 3a 3d 28 ca 5e bd
       0.10549639 0.09913047 0.045457497 -0.05439201
000160 10 8a 23 bd ba f7 bd bd 58 f3 66 bd c8 36 f8 3d
       -0.03992659 -0.09275766 -0.056384414 0.12119824
000170 4e 35 f7 bd 48 f5 f2 bc 38 2e 02 bd 72 0d a6 3d
       -0.12070714 -0.029657975 -0.03178236 0.08108033
000180 54 41 ab bd 7c 17 94 3d 38 40 c9 bc b8 d0 f2 bc
       -0.0836207 0.07231042 -0.024566755 -0.02964054
000190 80 b5 50 3c 60 e5 ba 3b 82 80 dd bd 20 7c b2 3d
       0.0127385855 0.005703613 -0.108155265 0.08715081
0001a0 9c bc 90 3d ca 63 f6 bd 88 d1 90 bc 10 1f 28 3d
       0.070672244 -0.12030752 -0.017678037 0.04104525
0001b0 f0 23 aa bc 36 a3 a6 3d b2 c9 9a bd e4 3f 0c bd
       -0.02076909 0.08136599 -0.075580016 -0.03424062
0001c0 66 d6 9a bd c0 34 1f 3b 98 fa f8 bd 00 68 e7 b9
       -0.075604245 0.0024292916 -0.12157172 -0.0004413724
0001d0 a0 d2 f8 3c 9c 2f 4b 3d 00 80 a9 bb a6 7d ba bd
       0.030373871 0.04960595 -0.0051727295 -0.09105997
0001e0 fc 9b 84 3d 36 1e 92 bd c0 1a 21 3d 52 be aa 3d
       0.06475064 -0.071346685 0.03933215 0.08337082
0001f0 58 7e dd 3d 9e 57 fc bd 00 df 22 3a c8 b6 a6 3c
       0.10815114 -0.12321399 0.0006213039 0.020350829
000200 90 9c b4 3c 12 8f f6 3d 90 2d 43 3d b6 21 f5 3d
       0.022047311 0.12039007 0.047650874 0.119693205
000210 1c 59 19 3d ee af cb 3d 72 f4 fe 3d 94 64 6c 3d
       0.037438497 0.09945665 0.12448968 0.057713106
000220 2c b9 cb 3d a8 56 a9 bc 76 5a d2 3d 00 0a 2e bc
       0.09947428 -0.020671204 0.1027116 -0.010622501
000230 78 f2 db bd 9e 63 f9 bd 74 96 c7 3d 10 9b ff bc
       -0.107396066 -0.121772036 0.097454935 -0.03120187
000240 00 4b 27 3a dc 69 94 3d d8 4f e9 3d 1c df 8d 3d
       0.00063817203 0.072467536 0.11392182 0.0692732
000250 b4 fd 9c bd c8 92 9d bc 7e 7c d5 bd dc 75 da bd
       -0.076655775 -0.01923503 -0.104241356 -0.10667011
000260 c0 6a 44 bd 24 94 45 3d d0 9b 4f 3c 84 2a 14 bd
       -0.047953367 0.04823698 0.012671426 -0.03617336
000270 f8 28 25 bd 70 08 64 3d 08 ed e1 3c 52 a6 db 3d
       -0.040322274 0.05567211 0.027578846 0.107250825
000280 c4 b6 7b 3d fc 5d 23 3d 4c cb 60 bd fc 0b 3f 3d
       0.061453596 0.039884552 -0.05488138 0.04664229
000290 54 c3 10 bd 58 1b b4 bd 40 65 b5 3b 36 0e d4 bd
       -0.03534253 -0.08794278 0.0055357516 -0.10354273
0002a0 aa 21 b9 3d ee 77 eb bd cc 81 b6 bd 0e 4e de bd
       0.09039624 -0.11497484 -0.089114755 -0.108547315
0002b0 d4 5d df bd 10 b5 31 3c fc 66 60 3d 10 ee 22 bc
       -0.10906568 0.010846391 0.054785714 -0.009944454
0002c0 70 6b 99 bc 48 f9 fb 3d 20 8f a0 bb 70 ea 75 bc
       -0.018727988 0.12303406 -0.0048998743 -0.015009508
0002d0 b4 71 0b bd 08 20 8c 3d f0 84 6a 3c 34 e7 33 3d
       -0.034043983 0.06842047 0.014313921 0.043921664
0002e0 1c 66 9c bd 8e 33 92 bd 2c ac e4 bd 78 6f c8 bc
       -0.07636663 -0.071387395 -0.11165652 -0.024467215
0002f0 58 14 db 3c ec 2e be bd 90 aa 46 bc f0 ec 54 3d
       0.0267431 -0.092862934 -0.012125626 0.051983774
000300 94 af e8 bd b8 b8 9d bd 30 c8 47 bd d0 36 3f 3d
       -0.11361614 -0.07701248 -0.048774898 0.046683133
000310 18 ee 84 bc 14 66 2f bd 44 cc 9e 3d d8 7d a1 3c
       -0.016226813 -0.04282196 0.07753804 0.019713327
000320 d6 30 e6 bd e8 b8 b8 bc 4c e7 81 bd 3e a2 b7 3d
       -0.112397835 -0.022549108 -0.063429445 0.08966492
000330 c6 76 ca bd fa ee fd bd 90 66 76 bc 70 07 f3 bc
       -0.098859355 -0.12399097 -0.015039101 -0.029666632
000340 36 43 bf bd 6c 47 3a 3d e6 e0 a5 3d 8c 4b 0c 3d
       -0.09338991 0.04547827 0.080995366 0.034251735
000350 d6 67 ac 3d b8 a7 e8 bc 80 cb 92 3a d0 eb af 3d
       0.08418243 -0.028400287 0.0011199564 0.085898995
000360 2a 13 a5 3d 4e b4 f6 bd 60 73 9e 3b fe b7 94 3d
       0.08060296 -0.12046109 0.004835531 0.07261656
000370 14 30 f4 bd 00 7d ec bc f4 af c3 3d 12 9c de 3d
       -0.11923233 -0.028868198 0.09555045 0.10869612
000380 d8 b6 4a 3d 00 8d 5b 3d e6 ec a7 bd 32 d2 f6 3d
       0.04949078 0.053601265 -0.08199482 0.1205181
000390 c0 19 a6 bb 00 cb 17 bd 00 66 e4 3d 66 78 ee bd
       -0.0050689876 -0.03705883 0.111522675 -0.11644058
0003a0 e8 02 8e bc 08 1d 36 3d 40 a1 c9 3d 04 d3 ec 3d
       -0.01733537 0.04446128 0.09845209 0.115636855
0003b0 e8 ee a8 3d 26 d1 c5 3d 98 70 ac 3c 24 79 6f 3d
       0.08248693 0.096590325 0.021049783 0.058465138
0003c0 dc 1b af bd 2e 73 e7 bd 66 6e da 3d 58 ce 72 3d
       -0.08550236 -0.11301266 0.10665588 0.059278816
0003d0 f8 e6 b1 bc c2 d3 8c 3d 60 3d 1c bd 28 93 12 bd
       -0.02171658 0.06876327 -0.03814447 -0.03578487
0003e0 24 aa c9 bd 34 26 ee bd 42 37 ca bd 7e 50 f5 bd
       -0.09846905 -0.116283804 -0.09873821 -0.11978243
0003f0 00 d3 e6 bd 18 dd 56 3d e8 d2 56 bd f2 73 f6 3d
       -0.11270714 0.052456945 -0.05244723 0.120338336

lstm.bias_ih_l0 f4 [256]
000000 9c be 52 bd e0 26 bb 3b 20 41 99 3d 30 61 d7 bc
       -0.05145131 0.0057114214 0.07483125 -0.02629146
000010 d4 92 38 3d 00 d4 40 3c 96 46 95 bd f0 89 35 3c
       0.0450619 0.011769295 -0.07288854 0.01108025
000020 14 99 b1 3d 28 12 c8 3d 92 4c 98 3d ee 72 f4 3d
       0.086717755 0.09769088 0.0743648 0.119359836
000030 cc 02 8c bd d2 93 c4 bd 96 79 a0 3d 18 68 7e bd
       -0.06836471 -0.09598507 0.07835691 -0.06211099
000040 1e 2c f6 3d b0 13 ad bd a0 53 82 bd 22 fb 97 3d
       0.120201334 -0.08451021 -0.063636065 0.07420947
000050 6c 57 1d bd 24 ce 28 bd c0 02 5c 3b 78 d1 8f 3d
       -0.03841345 -0.041212216 0.0033570975 0.07022375
000060 0c 17 ca bd ea 00 b4 bd 66 f3 86 3d 86 c6 d1 bd
       -0.09867677 -0.08789237 0.06589393 -0.102429435
000070 b2 57 d8 3d d4 5f ec bd 8c ce d6 bd 42 68 d6 3d
       0.105636016 -0.11541715 -0.104886144 0.10469104
000080 04 3b 09 bd 90 e9 22 bc 4c f1 ff bd 40 03 c3 bc
       -0.033503547 -0.009943381 -0.124971956 -0.02380526
000090 56 99 8d bd ac 41 12 bd 90 97 fb bc 80 59 b1 3d
       -0.06914012 -0.03570716 -0.03071192 0.08659649
0000a0 6a a7 a2 bd 80 c9 40 bb ac 50 ab bd 7e fc 9e 3d
       -0.07942088 -0.0029416978 -0.08364996 0.07763003
0000b0 08 dd e1 bc 5e e9 f2 3d 78 74 fd bc 66 d8 f0 3d
       -0.027571216 0.118609175 -0.030939326 0.11760025
0000c0 90 60 1c 3c 10 38 e2 3d e4 71 c6 3d b8 a6 ca bd
       0.009544507 0.11045849 0.09689692 -0.0989508
0000d0 da 7e f1 bd 7c 11 c5 bd 64 3b 07 bd 56 9f fe bd
       -0.11791773 -0.096224755 -0.033015624 -0.12432735
0000e0 00 a0 e1 b7 1e e8 aa bd 3e d2 e3 bd a2 56 bb 3d
       -2.6896596e-05 -0.08345054 -0.11124085 0.09147383
0000f0 3c 44 8c bd dc 0c cf 3d 54 73 d3 bd 40 e7 fc bd
       -0.06848952 0.101098746 -0.103247315 -0.12348795
000100 08 07 2e bd f0 f8 ba bc d8 4d a5 bd f8 1e 95 3c
       -0.042487174 -0.02282378 -0.08071488 0.018203244
000110 c8 ec 30 3d 46 39 f9 3d d0 60 7a bc c0 09 3d 3b
       0.043194562 0.12169127 -0.015281871 0.0028844923
000120 00 df 69 3a 36 f5 c9 bd 6c 51 00 3d c0 35 81 bd
       0.0008921474 -0.098612234 0.03132765 -0.0630908
000130 68 fc 7b bd 7a 94 9f 3d 14 be b5 3d 64 9a 39 bd
       -0.06152001 0.077919915 0.08874145 -0.045313254
000140 fc dd ca 3d ec 92 2f bd 80 4d 5c 3d 60 9b 8c 3c
       0.099056214 -0.042864725 0.053784847 0.017163932
000150 ec eb 3f bd 24 67 01 3d 4c 3b d0 bd 18 16 9c 3d
       -0.046855852 0.031592503 -0.1016756 0.076214015
000160 e4 af 23 3d d2 52 fd 3d 60 75 ef 3c 00 99 47 bb
       0.039962664 0.12369312 0.029230773 -0.0030456185
000170 88 60 e3 3c 7a 86 cb bd 40 0b fb bb e6 3e d8 bd
       0.02775599 -0.09937759 -0.007661253 -0.10558872
000180 a2 76 e8 bd 90 d0 d0 3c 4a 46 e3 3d c0 e6 bc bc
       -0.113507524 0.025490075 0.11097391 -0.023059249
000190 88 70 c5 3c 90 a5 ff bc 6c c3 e1 3d b6 91 af 3d
       0.02410151 -0.031206876 0.11023602 0.08572714
0001a0 26 e1 92 3d b4 b0 3c bd 6c 82 a1 bd 74 a8 8e bd
       0.0717185 -0.046066955 -0.07886204 -0.06965724
0001b0 00 5f 18 3a 48 31 41 bd c0 99 8e 3c 82 78 a2 3d
       0.0005812496 -0.04716614 0.017407298 0.07933141
0001c0 10 cd 6f 3d f0 89 2a 3c c6 b1 fa bd 14 7a 2b 3d
       0.058545172 0.010408863 -0.12240939 0.04186447
0001d0 50 a3 45 3c 3e 86 d3 bd 38 71 d8 3d dc e4 39 3d
       0.0120628625 -0.10328339 0.1056847 0.045384273
0001e0 f2 f8 99 bd 90 a1 63 bd ba ec a2 3d 40 6c fa 3b
       -0.07518186 -0.055574 0.07955308 0.007642299
0001f0 c0 bc 17 bd 62 78 e5 bd bc 6d e1 3d b8 12 b5 bd
       -0.03704524 -0.11204602 0.11007258 -0.08841461
000200 00 8b c1 bb 08 16 27 3d 06 94 e0 bd 8a 0d cd 3d
       -0.0059064627 0.040792495 -0.10965733 0.10012348
000210 fc d4 a9 bd 00 98 3b 3a f8 f7 50 3d 8c 25 8b bd
       -0.08292577 0.00071561337 0.05101773 -0.06794271
000220 c4 cd 71 3d c2 48 8e 3d 72 84 e3 3d ae 21 c8 bd
       0.059034124 0.06947471 0.11109246 -0.09772049
000230 f6 4a 90 bd f8 8f a5 bd 5c 10 7d bd ec a0 d9 bd
       -0.07045548 -0.080841005 -0.06178318 -0.106263965
000240 44 33 9c bd 00 3d 75 bd 68 63 b5 bd 74 bd 7e bd
       -0.07626966 -0.059872627 -0.08856851 -0.062192395
000250 00 ac 26 bb 48 e4 9e 3c ac 91 fd bd f0 ad 5c 3d
       -0.002543211 0.019395962 -0.123813 0.053876817
000260 66 9b fd 3d 3c f9 0f bd fc ce 95 bd e8 49 a1 bd
       0.123831555 -0.035149798 -0.0731487 -0.078754246
000270 d0 8e 02 bd 00 bc e8 bb 3c a9 29 3d 00 6d d2 3d
       -0.031874478 -0.0071024895 0.04142116 0.10274696
000280 88 fe bb 3c c0 71 0d 3d f4 50 62 3d c8 5a 66 bd
       0.022948518 0.03453231 0.055252984 -0.05623892
000290 e0 18 35 bd 28 3e a2 3c b0 a8 1a 3c 90 f7 e8 3c
       -0.044213176 0.019805029 0.009439632 0.02843836
0002a0 e0 d5 c0 3c 40 90 e4 bd 76 40 e6 bd f8 81 24 bd
       0.023539484 -0.11160326 -0.11242764 -0.04016301
0002b0 d6 41 db bd a0 c1 6d bc 80 c0 80 ba 6e 2c 9b bd
       -0.107059166 -0.014511496 -0.0009822994 -0.07576834
0002c0 90 f2 35 3c 54 ca df 3d d4 57 0e 3d cc c1 75 3d
       0.011105195 0.10927263 0.03475173 0.059999272
0002d0 ae 21 95 3d b8 86 ba 3c fc ea 0b bd 16 18 e7 3d
       0.072818145 0.022769317 -0.034159645 0.11283891
0002e0 d0 a5 71 3c 1a c1 ae bd a4 d6 3a 3d 9c 23 c0 bd
       0.014749005 -0.08532925 0.045614854 -0.09381792
0002f0 9c 08 f5 3d 0c 71 1f bd 60 a8 ee 3c 64 04 12 3d
       0.11964533 -0.03892617 0.029133022 0.03564872
000300 ce 10 95 bd f0 62 b9 bc d2 97 81 bd 3e 5d ad bd
       -0.07278596 -0.022630185 -0.063277856 -0.0846505
000310 e2 5f f5 3d 88 c0 64 3d 40 65 66 3d 6c 4d 12 bd
       0.11981179 0.055847675 0.056248903 -0.035718367
000320 fa 43 dd bd dc b7 0e 3d ea 53 ce bd ce 59 bc 3d
       -0.10803981 0.03484331 -0.10074599 0.091968164
000330 34 7e b4 3d 40 8f 4c bd d0 10 1e 3d a0 a0 23 bd
       0.08813134 -0.0499413 0.038590252 -0.039948106
000340 04 58 95 3d d2 d0 88 3d a0 8f 07 3d e8 7b 47 3d
       0.07292178 0.06680454 0.033095956 0.04870215
000350 16 a8 f4 3d 80 76 2e 3c 68 e0 a8 3c c8 e7 08 3d
       0.11946122 0.01064837 0.020614818 0.03342417
000360 40 e5 78 3b 80 38 07 bb c4 6d d8 3d 70 60 cb bd
       0.003797844 -0.0020633042 0.10567811 -0.09930503
000370 00 56 1d 3a da 61 be 3d 40 3f df 3c 54 12 a2 3d
       0.00060018897 0.092960075 0.02725184 0.07913652
000380 b6 e8 f2 3d 32 a0 c2 bd 0e 3c 8b 3d 38 2a 53 3d
       0.11860792 -0.09503211 0.06798564 0.051553935
000390 aa e2 f0 3d 9c 3d eb 3d ba d9 83 bd 72 a4 e9 bd
       0.11761983 0.114863604 -0.064380124 -0.114083186
0003a0 a8 01 c0 bc e0 5d cf bc ba 10 a8 3d 64 bb 97 3d
       -0.02343829 -0.025313318 0.08206315 0.07408789
0003b0 ea ef d5 3d f4 77 90 bd e8 45 c3 3c d0 da 75 bc
       0.104461506 -0.07054129 0.023837045 -0.015005782
0003c0 b0 bc ee 3c 88 16 62 3d 00 78 45 3a 62 8b d3 3d
       0.029142708 0.05519727 0.0007532835 0.103293195
0003d0 d0 0b 45 3d ce 77 d1 3d 34 66 d8 bd e2 6c c0 bd
       0.04810697 0.10227929 -0.10566369 -0.09395768
0003e0 8e b4 ce bd 40 23 a1 bc d4 ed 07 bd 50 10 bf bc
       -0.10093032 -0.019670129 -0.033185795 -0.023323208
0003f0 08 b3 d9 3c cc ff cd bd a6 41 a0 3d 28 a0 ce 3d
       0.026574627 -0.10058555 0.078250214 0.10089141

lstm.bias_hh_l0 f4 [256]
000000 76 a7 d1 3d 98 a3 bc bd 88 92 8e bc e6 d4 ff bd
       0.10237019 -0.092108905 -0.017403856 -0.12491779
000010 5e 96 f2 3d a0 7a 84 bd 9c e3 f8 bd 1a 4a c9 3d
       0.118450865 -0.06468701 -0.12152788 0.09828587
000020 58 05 87 bd 30 a2 4c bc 40 86 50 3d bc ee d5 3d
       -0.06592816 -0.01248984 0.05090928 0.104459256
000030 84 ee ab bd 42 02 f2 bd 58 0e fc bc 64 04 4e 3d
       -0.083951026 -0.11816837 -0.030768558 0.050297156
000040 14 fb 06 3d 3a d9 cd 3d 80 79 d5 3d 78 4b 90 bd
       0.03295429 0.10051198 0.10423565 -0.070456445
000050 4c e3 25 bd a0 2c 70 3d f0 40 a1 bd a0 56 ac bd
       -0.04049997 0.058636308 -0.07873714 -0.0841496
000060 80 cd 14 3c a8 f3 99 3d 28 54 92 3d 48 fa d5 3c
       0.009082198 0.07517177 0.07144958 0.02612032
000070 94 6b 27 bd f0 61 05 bc 64 04 5b 3d 00 7f 0e 3d
       -0.04087408 -0.008141026 0.053470984 0.034789085
000080 bc 38 43 3d 9c 79 1f 3d 90 b2 d9 bc fa 86 d3 3d
       0.047661528 0.038934335 -0.026574403 0.10328479
000090 00 d8 b4 3d 48 4d 0c bd 90 64 fe 3d 94 eb 6b bd
       0.08830261 -0.03425339 0.124215245 -0.05759771
0000a0 20 60 6f 3d ea 12 f6 3d 30 6e 4e 3c 3c 0a 84 bd
       0.05844128 0.12015326 0.012599513 -0.064472646
0000b0 c6 09 fb bd 7c 02 b2 3d 66 e7 b8 bd e0 2c 21 bc
       -0.122577235 0.0869188 -0.09028511 -0.009837359
0000c0 b8 10 a9 3d 00 c3 0f bb 78 94 fb 3c 24 d4 73 3d
       0.08255142 -0.0021936297 0.030710444 0.059528485
0000d0 c2 5f fb 3d 86 52 fe 3d d4 fc 56 bd a8 e1 40 bd
       0.12274124 0.12418084 -0.05248721 -0.047090203
0000e0 30 b7 8e 3c 7c d9 82 3d 8c dc d4 bd 70 9b be 3d
       0.017421335 0.06389138 -0.103936285 0.09306991
0000f0 42 75 eb bd 1a 73 ef bd 98 a6 e6 bc b6 8c ea bd
       -0.114969745 -0.11691876 -0.02815561 -0.1145262
000100 f0 7b e0 bd 8e 30 fb bd ce 1d f0 3d c8 d1 a1 3c
       -0.10961139 -0.122651204 0.11724435 0.019753352
000110 e8 1c 91 3c 90 48 9e bc 08 e3 a5 3c a8 a4 0b bd
       0.017713979 -0.01932171 0.020249858 -0.034092575
000120 fa 8d 8a bd 94 cb 83 bd 48 d0 ff 3d 00 b3 b8 ba
       -0.06765361 -0.06435314 0.12490898 -0.0014091432
000130 f2 fc d9 bd c8 d6 cb bc 60 e4 ca bc 48 71 8d 3c
       -0.106439486 -0.02488269 -0.0247671 0.01726593
000140 8e 54 e9 bd 12 bd 88 3d d8 79 9c 3c 90 f8 08 bd
       -0.11393081 0.06676687 0.019101068 -0.033440173
000150 a0 eb d8 bd e4 e2 06 3d a8 ee 21 bd 08 ab fd 3d
       -0.10591817 0.032931224 -0.03953424 0.12386137
000160 48 a5 d6 bd de 7b c4 3d 38 f9 d1 3c f0 a2 e5 bd
       -0.10480744 0.09593938 0.025631532 -0.112127185
000170 be 0c f2 bd c8 26 c7 3c 7e 15 b0 3d f4 8f 15 3d
       -0.11818837 0.024310485 0.08597849 0.036514238
000180 78 5d ac bd c8 0d b4 3c b0 a1 38 bc 20 7c 52 3d
       -0.08416265 0.021979228 -0.011269018 0.051387906
000190 9a 2f 87 3d 00 a5 db 3d 00 5c 4b bc 80 1c a9 3d
       0.06600876 0.107248306 -0.012412071 0.08257389
0001a0 c0 52 82 bd de 27 9f 3d 90 ce 1f bd fe 8d d8 3d
       -0.063634396 0.07771276 -0.039015353 0.10573958
0001b0 84 99 8c bd e8 04 9a bc 86 52 a7 bd a6 5d df 3d
       -0.06865218 -0.018801168 -0.08170037 0.10906534
0001c0 c8 de e3 bc ac 3a 1c bd 88 49 6b 3d d8 d0 d2 bc
       -0.027816191 -0.03814189 0.05744317 -0.02573435
0001d0 ae 3f fd 3d e0 7c b3 3d 38 6b 95 bd a2 06 ec bd
       0.123656616 0.087640524 -0.07295841 -0.115247026
0001e0 80 cd ca bd 4c 3b ca bd 74 04 44 3d 94 5f 30 bd
       -0.09902477 -0.09874591 0.04785581 -0.0430599
0001f0 30 97 b4 bc 38 c7 91 3d 02 cb 8f bd 74 2e 24 bd
       -0.022044748 0.07118076 -0.070211425 -0.040083364
000200 60 b7 ec bd 4c 0e d9 bd de 76 9a 3d 88 f3 d7 3d
       -0.115584135 -0.1059843 0.07542203 0.10544497
000210 90 b9 27 bd 98 59 b1 bc b0 a1 3d bd 9c ea 3c 3d
       -0.04094845 -0.021649167 -0.046296775 0.04612218
000220 f0 9e ce 3c 14 ef 59 bd 62 db d6 3d 30 c0 f8 bc
       0.025222272 -0.05320652 0.10491063 -0.03036508
000230 f6 0e b4 bd 08 80 1a 3d 46 ce f9 bd 58 6d 9b 3d
       -0.08791916 0.037719756 -0.12197547 0.07589215
000240 7c 75 c2 3d 80 39 1e 3b 22 e1 fa bd a8 d9 ae bd
       0.094950646 0.002414316 -0.12249972 -0.085376084
000250 b0 32 21 bc 58 7c 95 bc b0 c8 b4 3c 50 1d f9 3d
       -0.009838745 -0.018247768 0.022068352 0.12163794
000260 dc 63 b7 3d 40 b7 af 3b 96 7f bc 3d c0 8e f8 3c
       0.089545935 0.0053624213 0.092040226 0.030341506
000270 30 b0 b0 3d a8 9e f3 bc 60 fa 46 bc a6 9d bb bd
       0.08627355 -0.02973874 -0.012144655 -0.091609284
000280 20 64 91 bd ea 48 f8 3d 90 f3 ae bd 44 54 a0 bd
       -0.070991755 0.12123282 -0.085425496 -0.078285724
000290 f2 3a 94 bd 84 a9 9b bd 10 b3 a3 bc 00 00 3e ba
       -0.072378054 -0.07600692 -0.019982845 -0.0007247925
0002a0 a4 83 09 bd 90 f2 52 bd 14 91 dc bd 00 9a c2 3b
       -0.033572808 -0.051500857 -0.10769859 0.0059387684
0002b0 cc b6 a6 bd 80 44 bd 3a c0 7e aa bc d2 b4 fe 3d
       -0.081403345 0.001443997 -0.020812392 0.124368325
0002c0 18 20 be 3c 98 28 5e bd 7c 8e b8 3d 48 2e e4 bc
       0.023208663 -0.054237932 0.09011552 -0.0278541
0002d0 98 98 7c bd 2c f8 17 3d 90 76 61 3d e8 46 4b 3d
       -0.061668962 0.03710191 0.05504471 0.04962817
0002e0 16 dd ec bd 28 4d 8b bd e2 99 95 bd 90 07 53 bd
       -0.11565606 -0.06801826 -0.073047414 -0.051520884
0002f0 c4 2f 9d bd 00 00 77 37 bc f2 e5 bd 18 18 76 bd
       -0.07675126 1.4722347e-05 -0.112279385 -0.06008157
000300 d4 a1 f1 bd 80 92 7e 3c cc 20 c8 3d c2 36 f8 bd
       -0.117984444 0.015537858 0.097718805 -0.12119819
000310 e0 de 37 bc 30 b4 a3 bc e0 c9 f4 3d 78 83 47 3d
       -0.011222571 -0.019983381 0.11952567 0.048709363
000320 a0 bb 0a 3d 36 20 b3 3d 40 54 72 3d 78 08 9d bc
       0.03387034 0.08746378 0.05916238 -0.019169077
000330 66 4e e3 3d 70 f6 21 3d 64 50 8b bd 9c 3c bc bd
       0.11098938 0.03954166 -0.06802443 -0.09191248
000340 48 ad b8 bd 70 31 9b bd e6 f1 c6 3d 5a 3f 8c 3d
       -0.09017426 -0.07577789 0.09714107 0.06848021
000350 30 23 63 3d 1c b7 05 bd 64 56 9d bd 24 23 43 3d
       0.05545348 -0.03264533 -0.07682493 0.047640935
000360 f0 b1 17 3d b0 de 76 bc 80 8b 9a bb 02 e7 ba 3d
       0.03703493 -0.015067741 -0.0047163367 0.091260925
000370 74 e9 a3 bd 5a 60 ab bd b6 09 b3 3d 34 47 ea 3d
       -0.08003512 -0.08367987 0.087420866 0.11439362
000380 dc 01 bd 3d 4c 0e be 3d 2a 9d ef 3d 20 55 99 3d
       0.0922887 0.09280071 0.116998985 0.074869394
000390 00 fa 7f bc 90 e3 c7 3d 32 ae f3 bd 18 42 92 bc
       -0.0156235695 0.09760201 -0.118984595 -0.017853782
0003a0 e8 14 96 bc 8c 1e 91 bd 40 b0 63 bd 64 57 f6 3d
       -0.018320516 -0.070859045 -0.055588007 0.12028387
0003b0 80 f0 d5 bc 40 b3 19 bc 76 b2 8f 3d c8 ac ef 3d
       -0.026115656 -0.009381115 0.070164606 0.11702877
0003c0 a0 0c da 3c 2c 41 a1 3d b0 3d b0 3c b4 42 8a 3d
       0.026617348 0.07873759 0.02151379 0.06751004
0003d0 ca 7f c0 bd 40 d4 c4 bd 08 0d 8a 3d b0 2a 75 3c
       -0.09399374 -0.09610796 0.06740767 0.014963791
0003e0 66 8e b2 bd 2a 21 ad 3d 80 86 55 bd 7a 78 fd 3d
       -0.087185666 0.08453591 -0.052130222 0.12376495
0003f0 4e 9f 8f bd 1c 4b ab bd 14 c6 d7 bd 0c 14 e5 bd
       -0.07012807 -0.08363935 -0.10535827 -0.11185464

lstm.weight_ih_l1 f4 [256, 64]
000000 6c 2e ff bd 76 2c e2 3d a6 cb 9b bd 60 23 2d bd
       -0.12460026 0.110436365 -0.07607202 -0.042270064
000010 4c 0f ff bd 50 94 fe 3d f0 7d 1f 3d ba 56 b5 bd
       -0.124540895 0.12430632 0.038938463 -0.088544324
000020 60 cd b4 bb 28 4b f3 3c ee 9c 85 bd e0 98 81 bb
       -0.0055176467 0.029698923 -0.065240726 -0.0039549917
000030 b0 84 c8 bc 00 52 8e ba a4 6c 83 3d e4 fd 7b 3d
       -0.024477333 -0.0010858178 0.06417206 0.061521426
000040 b8 d9 93 bd b8 b4 fe bd 8a 38 cd 3d 52 94 be bd
       -0.07219261 -0.12436813 0.100205496 -0.093056336
000050 c6 9c a2 bd c0 63 54 3c e0 6c 6c bc 49 b4 76 bc
       -0.079400584 0.012963235 -0.014430255 -0.015057632
000060 20 55 4a 3d 73 e3 67 3c d8 d1 54 3d 82 80 b4 bd
       0.049397588 0.014153349 0.051957935 -0.088135734
000070 20 ca 91 bd b6 c3 f1 3d ff 63 90 bd ae c5 ba 3d
       -0.071186304 0.11804907 -0.07050323 0.09119736
000080 58 83 e9 3d da ee d4 bd 49 a9 be 3c e8 c5 99 bd
       0.11402005 -0.1039712 0.02327408 -0.07508451
000090 ac 14 41 bd c2 99 24 bd 84 55 b3 3d e0 58 43 3d
       -0.047138855 -0.040185697 0.08756545 0.04769218
0000a0 a2 02 b1 3d 04 7b b3 bd 20 cd f7 3c 14 f5 00 3d
       0.0864308 -0.08763698 0.030249178 0.031483725
0000b0 52 02 ae 3d 5f 09 bb bd 08 aa da bc 78 c2 6b 3d
       0.08496536 -0.09132647 -0.026692405 0.057558507
0000c0 68 96 d7 3c e8 a8 8c bc a2 3a aa bd 92 e0 a6 bd
       0.026316836 -0.017170385 -0.083119646 -0.08148302
0000d0 80 9c 69 3d 48 40 35 3d f8 81 3a bd 20 0a e7 3d
       0.057034016 0.044250757 -0.045534104 0.11281228
0000e0 68 58 b4 3d 54 be a8 bd e0 64 a8 bb 14 73 f3 3d
       0.08805925 -0.08239427 -0.0051389784 0.11887184
0000f0 fe 0a e9 bd f8 93 7e 3d d8 9d 1e 3d d0 ef 98 3d
       -0.1137905 0.062152833 0.03872475 0.074676156
000100 f0 db 64 bc 22 0a a7 bd 1c 45 3b 3d 00 64 b1 bd
       -0.013968453 -0.081562296 0.045720205 -0.086616516
000110 be 65 ca bd e2 4a a7 3d 26 92 e5 bd 21 3b d4 bd
       -0.09882687 0.0816858 -0.11209516 -0.103628404
000120 54 39 c7 bd 78 94 0b bd 32 a8 f9 bd 9c 1b 9b 3d
       -0.09727731 -0.034077138 -0.12190284 0.075736254
000130 b8 32 8a 3d 38 dc 9e 3c 0c 78 de 3d 90 56 9c bc
       0.06747955 0.019392118 0.10862741 -0.019084245
000140 e4 56 f8 3d 70 54 ed bc 80 ef 72 bc ac 54 20 3d
       0.12125948 -0.028970927 -0.014827609 0.03914325
000150 ac 4f d4 3d 1e a5 e9 bd d0 0a 20 bd 44 45 95 3d
       0.10366759 -0.11408447 -0.03907281 0.07288602
000160 d0 cd 13 3d 03 e5 20 3e e8 38 a2 bd b8 c8 97 3d
       0.03608495 0.15712361 -0.0792101 0.07411331
000170 60 cf 2c bc 04 17 c6 3d 80 73 81 3d 38 c9 c9 3c
       -0.010547489 0.09672359 0.06320858 0.024632081
000180 00 aa 5f bc ce 28 9c 3d a7 b4 11 be c2 aa 80 3d
       -0.013651371 0.076249704 -0.1422907 0.062825695
000190 bc d0 1c 3d 89 e5 81 3d 07 d4 40 3d 56 8c f9 3d
       0.038285002 0.063426085 0.047077205 0.1218497
0001a0 f2 4d 1e bb 58 8f de 3c e0 f8 07 bc 60 35 bc 3b
       -0.0024155346 0.027167961 -0.0082990825 0.0057436675
0001b0 5b c2 10 be aa fd 0a 3e 1c 32 98 bd 6e 56 bb 3d
       -0.1413664 0.13573328 -0.074314326 0.091473445
0001c0 20 84 0c 3d 76 ad b1 bd ce 11 c5 bd 8e c2 0a 3d
       0.03430569 -0.08675663 -0.096225366 0.033876948
0001d0 8d 23 0a bd 5c a2 b8 bd 9c 01 b0 3d 7c 18 1a 3d
       -0.03372531 -0.090153426 0.08594057 0.037621006
0001e0 b0 23 60 3c d0 c2 4c 3c a8 61 cf 3c ff f0 0d 3e
       0.013680384 0.012497619 0.02531512 0.13861464
0001f0 0c da b0 bd 9c 40 4d bd e2 1d e2 3d 58 6f a7 bd
       -0.08635339 -0.050110444 0.11040856 -0.08175534
000200 14 44 63 3d 0a cd e8 bd 9a a3 8b bd 26 f6 f5 3d
       0.055484846 -0.11367233 -0.06818314 0.1200984
000210 80 8c 57 3b 66 fd a9 bd 48 fe be 3d d3 af 20 be
       0.003289014 -0.08300285 0.09325844 -0.15692072
000220 d6 ed c5 3d f6 f5 f0 3d a6 75 ca 3d d2 2a c3 3d
       0.09664504 0.11765663 0.09885721 0.09529652
000230 2c 1e 91 3d 30 a9 e2 3d d6 ea ff bd 29 1c 06 be
       0.07085833 0.11067426 -0.12495963 -0.1309668
000240 ca 3e 8b 3d d0 6a c6 bd 16 43 e9 3d f8 f0 ba 3d
       0.067990854 -0.096883416 0.11389749 0.091279924
000250 64 7b 8f bd a4 d6 9d bd 44 9f fb 3d 01 05 71 3d
       -0.07005957 -0.07706955 0.12286237 0.058842663
000260 28 d8 9a bd 79 2f 65 bd e8 32 b1 bc c8 9b 4d bd
       -0.0756076 -0.055953477 -0.02163072 -0.050197393
000270 68 56 f1 3d 52 61 ba bd fc 63 0e bd 88 6e 41 3d
       0.11784059 -0.091005936 -0.03476332 0.04722455
000280 58 42 ae bc 76 17 b9 bd d6 1c ee bd 50 3a b1 3d
       -0.02127187 -0.09037678 -0.11626594 0.086537
000290 6e 57 fb bd e2 a8 b1 3d 8a 2d bd bc dc 52 77 bd
       -0.12272535 0.0867479 -0.023093004 -0.060381755
0002a0 2b 97 25 be 1c 85 95 bd 00 b4 cc 3b 0e b0 ca bd
       -0.16170947 -0.07300779 0.0062470436 -0.09896861
0002b0 6d 15 8e 3d 49 04 94 3b ce 67 a2 3d c4 b4 97 bd
       0.069376804 0.0045171124 0.079299554 -0.07407525
0002c0 34 43 9b bd 32 48 b3 3d 10 31 b7 3c 37 2c 8b 3d
       -0.07581177 0.087540045 0.022362262 0.06795543
0002d0 b5 11 f5 3c 50 81 00 3d 60 f5 60 bc d8 28 37 3d
       0.02991567 0.031373322 -0.013730377 0.044716686
0002e0 98 40 a4 3c d4 33 de bd 60 57 ce bb d3 83 bc bc
       0.020050332 -0.10849729 -0.006297037 -0.023012077
0002f0 b2 7f f3 3d 10 76 da 3c 15 e1 98 3d f2 e4 ff bd
       0.1188959 0.026667625 0.07464806 -0.1249484
000300 dc c3 ac bd 78 e6 89 3c f8 d4 8b bd a8 6e ab bc
       -0.08435795 0.016833529 -0.0682773 -0.020926788
000310 20 44 50 3c 84 e9 72 3d c2 98 ed 3d aa cb 2f bd
       0.012711555 0.05930473 0.11601402 -0.04291884
000320 4a 46 b8 3d 1c 8e 5c 3d ee 8c c7 bd 7c f5 ec 3d
       0.089977816 0.053846464 -0.09743677 0.1157026
000330 5e f4 96 bd 84 a9 b5 3d 90 cd 3c bd 02 e4 68 3d
       -0.07370828 0.08870223 -0.046094477 0.05685807
000340 20 0c ce 3c 18 59 13 3d ac f1 3f 3d fe 7e bf bd
       0.025152266 0.03597364 0.046861336 -0.09350394
000350 64 92 8b bd de cc 88 bd d8 2b c1 bc 4d 8d 22 bd
       -0.06815031 -0.066797 -0.023580477 -0.039685536
000360 0c 20 7b bd 74 bd c9 3d 00 28 99 bd 1e d1 a8 bd
       -0.06130986 0.098505884 -0.074783325 -0.08243011
000370 9a 7b d7 3d c4 9c 5d 3d f5 42 1c 3d 94 af 68 3d
       0.10521622 0.05410458 0.038149793 0.05680807
000380 20 83 ac bc a0 be bb 3b 02 6f b8 3c 9c 6d 72 3d
       -0.021058619 0.0057295114 0.02251387 0.059186563
000390 dc 80 2c bd f6 66 d9 bd f3 09 e8 3c de 91 87 3d
       -0.042115077 -0.10615341 0.028325057 0.06619619
0003a0 0c a7 87 bd 70 ea bb bc 94 fe 16 3d 7a 8b a3 bd
       -0.066236585 -0.022938937 0.03686388 -0.079855874
0003b0 a0 85 eb bd 4d e5 65 3d 4a 17 a0 3d fa 73 ea bd
       -0.11500096 0.05612688 0.07816942 -0.11447902
0003c0 c4 ca 77 3d 70 5f 4f 3c 36 29 f8 bd da f5 07 3d
       0.060496107 0.012657031 -0.12117235 0.033193447
0003d0 54 6e ba 3d c4 d7 4a bd 7e e9 95 bd c0 c4 17 3d
       0.09103075 -0.049522176 -0.07319926 0.03705287
0003e0 cc 58 43 bd b0 60 da bd c0 b8 5e bc 3c cb 8e 3d
       -0.047692105 -0.10662973 -0.0135938525 0.06972358
0003f0 88 c0 41 3d 26 12 e2 bd ef 0e 01 3e 00 1b 30 bd
       0.047302753 -0.11038618 0.12603353 -0.0429945

lstm.weight_hh_l1 f4 [256, 64]
000000 6b fe 29 3d 36 70 b8 3d 36 c3 9d bd c7 13 23 3e
       0.041502398 0.090057775 -0.07703249 0.15925513
000010 61 ef 53 bc 1f 9b 37 3d c2 75 a6 bb e1 5c cb 3d
       -0.01293549 0.04482567 -0.005079956 0.099298246
000020 66 7d fe 3d b5 9d 0d bd 7f 29 e8 bc aa 3a 7f bc
       0.124262616 -0.03457423 -0.0283401 -0.015577951
000030 28 35 bb bd 9d cf 2a 3c 28 91 ef 3c 28 77 0b be
       -0.09140998 0.010425475 0.02924402 -0.13619673
000040 33 99 07 3e 13 a3 80 bd 15 fc 28 3d c2 2b 1d bd
       0.13242035 -0.06281104 0.04125603 -0.03837181
000050 e0 05 09 be bd 00 6f bd f5 b2 22 3d a6 08 f7 bd
       -0.13381147 -0.058350313 0.039721448 -0.120621964
000060 55 3e a2 bd e3 3d 9a 3c 64 45 2f 3d 08 b1 c7 3c
       -0.07922045 0.018828338 0.042790785 0.024376407
000070 73 f7 0f 3d d9 c7 00 bd 06 dc 8c 3d fa 88 48 3d
       0.035148095 -0.03144059 0.06877904 0.048958756
000080 6d 81 f3 bc b6 48 bf bc d9 8c c2 bc d5 8d b3 3b
       -0.029724801 -0.023350101 -0.023748802 0.005479554
000090 ed 53 b0 3c 8e b9 0f bd 41 f9 1c 3d 56 4e 96 bc
       0.021524394 -0.035089068 0.038323645 -0.0183479
0000a0 1b 9f ac 3c eb c8 94 bd 6e 8e 09 3e 5d 17 76 3c
       0.021071961 -0.072648846 0.13433239 0.015020219
0000b0 c1 a3 49 bd 3a 57 00 3e ef 44 99 bc 91 2d aa bc
       -0.049228434 0.12533274 -0.018709628 -0.02077368
0000c0 e0 54 11 bd b9 06 30 bd 80 ef 0b 3d df 25 5e bb
       -0.035481334 -0.04297516 0.034163952 -0.0033897085
0000d0 9b e1 bc 3d 78 e7 a3 3d e8 11 11 bd f3 62 e1 3c
       0.09222718 0.080031335 -0.035417467 0.027513003
0000e0 0c 8d 78 3d 89 c0 cf 3d 43 08 83 bc 08 20 d2 bd
       0.060681388 0.10144145 -0.01599515 -0.10260016
0000f0 8e 1a 67 3b a7 69 2e 3c 8e b5 b0 3d 04 12 22 3e
       0.003526363 0.010645307 0.08628379 0.15827185
000100 11 61 e7 3c 50 c0 a2 bc 2a b2 1f 3e 60 86 75 3d
       0.028244527 -0.019867092 0.15595308 0.059942603
000110 8d 01 97 3d 69 34 94 3d e0 87 bf bd c3 96 1a 3e
       0.07373343 0.07236559 -0.09352088 0.15096574
000120 34 a0 2e 3c 9f 08 96 3d eb ae e3 bc 32 78 ff bd
       0.010658313 0.07325863 -0.027793368 -0.12474097
000130 5d ac 60 3d 36 71 a1 bd db 0a 22 bd 20 69 cd bd
       0.05485188 -0.078829214 -0.039561134 -0.10029817
000140 de e0 cc 3c b0 da a3 3d 5d af e6 3c a0 b0 02 bc
       0.025009569 0.08000696 0.028159792 -0.007976681
000150 f6 9f b4 bc 34 f9 f4 bd 03 dd 73 bc ff 4f dd bd
       -0.022048932 -0.11961594 -0.014884236 -0.10806274
000160 62 98 97 3d 6b b6 c7 3c d1 d1 13 3e 32 29 06 bd
       0.074021116 0.024378976 0.14435507 -0.03275413
000170 f2 6d 2f 3d a2 55 27 be 91 cd d1 bd 01 e4 0d bd
       0.04282946 -0.1634126 -0.10244287 -0.03464127
000180 75 b5 1a bd 7c 39 00 3c 8a cb 8d bc d9 9b 4d bd
       -0.037770707 0.007826205 -0.017308969 -0.050197456
000190 4a b5 9d 3c 40 0b 87 3d 8e 51 c9 bd bd 23 d9 bd
       0.019251484 0.06593943 -0.098300084 -0.1060252
0001a0 36 9a 86 3d f8 d9 5d bd f2 72 8f 3b 51 ea 09 3e
       0.06572382 -0.05416295 0.004377716 0.13468291
0001b0 c1 34 3a bd c0 1c 1f 3e 1e a4 45 3d be d2 5d bd
       -0.045460466 0.15538311 0.048252217 -0.054156058
0001c0 dc 4c 04 bd da 6a b0 3b cb 7a a4 bd 33 6f 08 3e
       -0.03229986 0.0053838314 -0.080312334 0.13323669
0001d0 2f fa d1 3c 76 45 f3 3d 50 41 cc 3d 81 cf 0c bd
       0.025631992 0.11878483 0.09973395 -0.03437758
0001e0 a3 e7 d5 bd ad 7f 25 3e 5d 4a 7d 3d 5c 74 13 3c
       -0.10444572 0.16161986 0.061838496 0.00899991
0001f0 f8 06 9d 3d c3 15 88 bd ed 12 56 3d f1 dc ac bd
       0.07667345 -0.06644776 0.052264143 -0.08440579
000200 b6 b7 0b be 2f 0d cd 3c 66 d8 21 3e 4d 4e e8 bc
       -0.13644299 0.0250307 0.15805206 -0.02835765
000210 a9 43 b4 bc c0 4b 69 3c 6f bf 80 3d 50 f5 e6 3c
       -0.02200492 0.014239252 0.06286513 0.028193146
000220 1b 19 25 3e 8d 87 82 3c b6 fc 1e be 4e c2 a4 3d
       0.16122858 0.015933776 -0.15526089 0.08044873
000230 42 5a cd 3a 90 bb 09 3d 9a 1d a4 bc fb f7 7c bd
       0.0015667158 0.03362614 -0.020033646 -0.06175993
000240 8d 6b a6 3c fa eb 99 bd df 69 24 be 4e 51 e9 3d
       0.020314956 -0.07515712 -0.16056012 0.11392461
000250 56 7b 90 3c 6d 7a fa bd 84 21 11 3e 18 8f c2 bd
       0.017636936 -0.12230382 0.14172941 -0.09499949
000260 bd db b3 3d 4e aa b8 bd 69 44 0f 3e 92 09 be 3d
       0.08782146 -0.09016858 0.1399094 0.09279169
000270 d8 b5 76 bd 74 f8 89 3d a3 9e 89 3d 4e 9a d2 3c
       -0.060232013 0.06736842 0.06719711 0.025708344
000280 91 e8 4f 3c b7 37 a3 3d 88 04 42 bd 5e 8f 08 bc
       0.0126897255 0.07969611 -0.047367603 -0.008334963
000290 02 9b 31 3d 71 d3 96 bc c9 84 02 3e 21 95 b1 bd
       0.043360718 -0.01841137 0.12745966 -0.08671022
0002a0 66 2b 48 bd c2 ac 63 3d e2 b5 21 bd 40 a6 e6 bc
       -0.048869513 0.055584677 -0.039480098 -0.028155446
0002b0 7f da 40 3c 11 fc 5e 3d 38 61 1d be 0a ac 17 3d
       0.0117708435 0.054439608 -0.15369117 0.037029304
0002c0 cb f3 f7 bc 49 14 d5 3d f0 ba 63 bd 3b 8b 59 bd
       -0.030267617 0.1040426 -0.0555982 -0.053111296
0002d0 8e 24 98 bd 89 34 9b bd 91 cf ad bd 82 35 13 bd
       -0.07428847 -0.0757838 -0.08486856 -0.0359397
0002e0 54 3f b3 bd 82 1b 86 bd 2a c7 dd bd f1 69 9c 3d
       -0.08752313 -0.065482154 -0.10829003 0.07637394
0002f0 98 a6 1f bd 92 67 93 bd 61 a1 4f 3d 42 37 f4 3d
       -0.038977236 -0.07197489 0.050691012 0.11924602
000300 9f 8a f8 3c 7b 49 1d bd b0 97 31 3d 66 a7 09 3e
       0.030339537 -0.038400155 0.04335755 0.13442764
000310 79 c8 b3 3d bb 21 a9 bd 4b a2 fd bd ae e1 85 bd
       0.087784715 -0.08258387 -0.123844706 -0.065371856
000320 33 9c e6 bc ad 0a 31 be 59 3b 12 3d 63 a7 a7 bd
       -0.028150653 -0.17289229 0.03570113 -0.08186223
000330 2a 77 a1 bd ec 60 c6 39 2c 34 1e be 71 05 3e 3d
       -0.07884057 0.00037837715 -0.1544959 0.046391908
000340 17 71 9c 3d 05 a7 86 3d 7c 7c 09 be d0 4c 9d bd
       0.07638758 0.06574825 -0.13426393 -0.076806664
000350 f1 c8 28 bc 60 90 18 be 7b 30 0c 3d ad 79 8e 3d
       -0.010301814 -0.14898825 0.034225922 0.069568016
000360 9e c0 c1 bd 3e 7a 58 3d 53 ae 93 3c f8 89 cc bc
       -0.09460567 0.052850954 0.01802746 -0.024968132
000370 e1 fc 1c 3d 2a de 38 3d a7 b1 d8 bd 13 c6 0f 3e
       0.0383271 0.045133747 -0.105807595 0.14040403
000380 15 4c 49 bd 77 ec ec 3c 9f 7e 82 3c 5e a5 eb 3a
       -0.049144823 0.028921349 0.015929518 0.001797836
000390 68 18 83 bd e9 04 96 3a f5 c8 18 3d 38 a2 05 be
       -0.064011395 0.0011445555 0.037301023 -0.13050163
0003a0 3a 3a 0c 3c 55 1c 9e bd be 16 1a 3e 3e c1 dc 3d
       0.008558804 -0.07720248 0.15047738 0.107790455
0003b0 8d 06 17 bd ef 67 80 3c b2 06 43 3d 64 81 43 bd
       -0.03687148 0.01567456 0.047613807 -0.04773082
0003c0 0f ce 2d be 42 48 85 bd 0c 37 07 3e 44 05 a6 3c
       -0.16973136 -0.06507923 0.13204592 0.020266183
0003d0 31 57 af bc 67 b4 04 3d 67 ed 04 3e d0 7d 3c be
       -0.02140388 0.032398608 0.12981187 -0.18407369
0003e0 18 27 c6 bc 82 d5 f2 3c e4 50 f9 3c 4d 7f 92 bc
       -0.024188563 0.029642824 0.03043408 -0.017882967
0003f0 2d 6d ae bc a9 d0 71 bd b2 0a 9c bd 77 f3 b7 3c
       -0.021292293 -0.059036884 -0.076192275 0.02245496

lstm.bias_ih_l1 f4 [256]
000000 02 74 08 3e b0 9a 82 3d 9e 11 b1 bc 08 20 fb 3d
       0.13325503 0.063771605 -0.021614846 0.12261969
000010 c6 05 16 bd 00 af a2 3d 81 8f f3 3c 9b 7d fd 3d
       -0.0366266 0.07943535 0.029731514 0.12377473
000020 3a 5a 4a 3d ce c0 2e bd 5e 13 75 3c d3 e0 c5 3d
       0.049402453 -0.04266434 0.014958231 0.096620224
000030 8a a9 4b 3d b1 bc b9 3c d1 5f e7 3c 36 43 9d bd
       0.049722232 0.022672983 0.028243931 -0.07678835
000040 52 27 88 bd 85 a6 60 3d 5a 2d f4 bc 20 dc 29 bc
       -0.06648125 0.054846305 -0.029806782 -0.010367423
000050 75 39 c3 3d 80 5a ff 3c 71 9f 1a 3e 43 d5 47 3b
       0.095324434 0.031171083 0.15099885 0.0030492104
000060 d3 02 69 3d 89 dc 04 3e 15 6f 18 3e ad 49 e7 bc
       0.05688746 0.12974752 0.14886124 -0.028233374
000070 25 9e 2b 3d 91 15 e2 bc ac 41 cd 3d 5a 75 07 3e
       0.041898865 -0.027598174 0.100222915 0.1322836
000080 1a cb 73 3c 40 80 18 3e fe 7e fc 3b 2e 73 71 3d
       0.014879966 0.14892673 0.0077055683 0.058947735
000090 6e 21 b3 bb 0e b7 09 3e 55 f1 0b 3d fd 00 14 3e
       -0.0054666316 0.13448736 0.0341657 0.14453502
0000a0 bc 4c 49 3d 1f 4d 97 3c 88 7d 0d 3e 71 fa b9 3d
       0.049145445 0.018469391 0.13817418 0.09080971
0000b0 da 4e 0d 3d 24 11 9b 3d 14 bb b0 3d 18 fd 81 3b
       0.034499027 0.07571629 0.08629432 0.0039669387
0000c0 5e eb e9 3d c1 01 92 bd 15 a9 9e 3c 44 2d 81 bc
       0.11421846 -0.07129241 0.019367734 -0.015768655
0000d0 ad c7 c2 3d c7 6d a3 3c 3b 7d 20 3c 34 6f 3c 3c
       0.095107414 0.019949807 0.009795482 0.011501122
0000e0 1b de be 3c 77 07 7a 3d f6 c0 d0 3c 6e d3 51 bc
       0.023299268 0.061042275 0.025482636 -0.012806756
0000f0 a8 3b fd bc 7c 83 12 3e c0 04 c9 3d 0f 6b a9 3d
       -0.030912235 0.1430797 0.09815359 0.08272373
000100 09 3b a8 bd 10 db 1a 3e 8f 8d 0f 3d 08 35 79 3d
       -0.08214385 0.15122628 0.03504711 0.06084159
000110 11 c1 4f bd eb 96 a0 bd 9d fb 25 bd a7 fc e6 3b
       -0.05072123 -0.07841285 -0.04052316 0.0070491615
000120 35 d2 9c 3d 3e a6 7e bd 54 29 aa 3d 2f 79 82 bd
       0.07657281 -0.06217026 0.08308664 -0.0637077
000130 16 61 dd 3d 2e ed d2 3c b7 35 a8 bc 8d 66 37 3d
       0.10809533 0.025747862 -0.020533426 0.044775534
000140 98 b8 93 3d cd b5 52 bd d0 a5 71 3c ce 33 f2 3c
       0.07212943 -0.05144291 0.014749005 0.029565718
000150 8f 70 1b 3d 2a 6c e3 3c f2 80 1b 3e e1 e1 ae bd
       0.03794914 0.027761538 0.15185907 -0.08539177
000160 9e 01 90 bd ee 6f 01 3c 49 80 54 3d 58 ca 92 bd
       -0.070315585 0.007900221 0.051880155 -0.071675
000170 6e f0 91 bd 8e 35 78 3b 35 3f 70 3d 60 52 bd bd
       -0.071259364 0.0037873718 0.05865403 -0.092442274
000180 97 15 e8 3d aa ad 0f 3d a3 61 0b 3e 49 0d cd 3d
       0.11332243 0.03507773 0.13611464 0.100122996
000190 07 18 f5 3d b6 db 4f 3d 33 d9 4a bd 5c da 82 3d
       0.119674735 0.050746642 -0.049523544 0.06389305
0001a0 cb 41 e2 3d 60 a5 8f bd 0a d0 97 bd d1 39 c9 3d
       0.11047705 -0.07013965 -0.07412727 0.09825481
0001b0 17 00 b5 bd 7b e0 05 bd ef 39 69 bd 3e 88 ce 3d
       -0.08837908 -0.032684784 -0.056940015 0.1008458
0001c0 b6 3f 83 bd 34 17 30 bd 94 a9 ed bc 5c ac 90 bd
       -0.06408636 -0.04299088 -0.029011525 -0.07064125
0001d0 40 98 cf 3c 76 40 cb 3d 8f b1 a6 bc 45 8a 35 3d
       0.025341153 0.09924404 -0.020348338 0.044321317
0001e0 80 07 cc 3d 73 ab 16 bb 88 55 29 3c 1e 8b 6b bd
       0.09962368 -0.0022990375 0.010335334 -0.05750572
0001f0 fc 63 03 3d dc 91 a6 bd 5d 56 59 3d 83 95 29 3d
       0.032077774 -0.08133289 0.053060878 0.04140235
000200 d1 c1 08 be 52 74 08 3e 7c 98 2c 3d f0 5b ca 3d
       -0.13355185 0.13325623 0.042137608 0.09880817
000210 8f ef 9b bd 86 93 c1 bc 3a 03 7d 3c 96 c1 00 bd
       -0.076140516 -0.023629915 0.015442664 -0.031434618
000220 1d 32 7c bb 13 25 5b bb e4 16 bd 3d b0 e3 0e bd
       -0.0038482018 -0.0033438846 0.09232882 -0.03488511
000230 7b 63 49 bd 71 ba b7 3d 01 fa c5 bd 96 e6 82 bd
       -0.049167138 0.08971108 -0.09666825 -0.06391637
000240 05 2b fc 3d 82 97 87 bd 57 99 d2 bd 95 d5 b1 3d
       0.12312893 -0.06620695 -0.102831535 0.08683316
000250 04 e2 58 3d 76 83 84 bd 1b fb c8 3d e2 99 b2 bd
       0.05294992 -0.06470387 0.098135196 -0.08720757
000260 07 56 a7 3d 15 3e 7a 3d dc a6 ab bd 6b 42 ea 3d
       0.08170705 0.061094362 -0.08381435 0.114384495
000270 f0 60 a4 3d f2 19 81 bd bd 47 1e be e9 98 b6 3d
       0.08026302 -0.06303777 -0.15457053 0.08915884
000280 dc e8 a5 3d 8b 6c 9d bd 28 97 34 bd 23 c7 76 bc
       0.08101055 -0.076867186 -0.044089466 -0.015062126
000290 0c 34 a2 3c 0c ee 1f be b1 22 17 3e 22 1f 28 3d
       0.019800209 -0.15618151 0.14759327 0.041045316
0002a0 de 90 8b 3d d4 3b c5 3d 27 f6 78 3d a7 98 7c 3d
       0.068147406 0.09630552 0.060781624 0.061669018
0002b0 98 73 cd bd 85 54 56 3d 83 7c 5b bd 36 f4 69 bd
       -0.100318134 0.052326698 -0.05358554 -0.057117663
0002c0 6c b4 ac 3c 6a 39 7b 3d fe ab 7c 3d a7 a6 17 3e
       0.021082126 0.06133405 0.061687462 0.14809667
0002d0 fc b8 0a 3c 47 ac 6d bd 23 88 8e bd 82 83 85 3c
       0.008466955 -0.058025625 -0.0695956 0.01629806
0002e0 a1 94 51 3c 0a a1 6e 3d ec 4d 88 3d 7a 84 18 3d
       0.012791784 0.058259048 0.066554874 0.037235714
0002f0 6c 49 bf bc e2 08 f4 3b 82 40 26 3d 35 2f 11 3b
       -0.02335044 0.007447348 0.040588863 0.0022153382
000300 8e bb 20 3e 07 c2 31 bc b8 37 4e 3e 46 8b da bc
       0.15696546 -0.010849482 0.20138443 -0.026677739
000310 7d 1a 38 3e 75 3f fd 3c 6d 84 17 3e 96 8c 44 3e
       0.17978854 0.030914048 0.1479661 0.19194254
000320 b2 60 a3 3d 9b 75 ba bc b3 4c 28 bd 88 04 a0 bc
       0.079774275 -0.022761157 -0.04108877 -0.01953341
000330 64 f7 20 3d bd a7 24 3e 24 1f e9 3d 05 c6 13 3d
       0.03929843 0.16079612 0.11382893 0.036077518
000340 5c 83 16 bd ac 2e bb bc 68 81 f8 3d a3 9a 44 3e
       -0.036746368 -0.022849403 0.12134057 0.19199614
000350 1e 6e 18 3e 6f 95 88 3b 88 f9 54 3e ca 50 b5 3d
       0.14885756 0.0041682045 0.20798314 0.088533
000360 5c fc 3d 3e 2b ee e2 3a 18 2a fc bc ad a2 32 3e
       0.18553299 0.0017313411 -0.03078179 0.17444868
000370 3d f7 1d 3e 50 f4 70 3d ab 35 46 3e e4 5e 1c 3e
       0.15426345 0.058826745 0.1935641 0.15270573
000380 fa 23 13 3e bc 21 e1 3d 18 d0 09 3d e6 f4 d9 3d
       0.14369193 0.109927624 0.03364572 0.10642414
000390 be a8 35 3e f4 78 1f 3e 4e 29 a4 3d e7 60 65 3d
       0.17740151 0.15573484 0.08015691 0.056000616
0003a0 b5 93 16 3e d2 61 35 3e fa 69 4d 3e 94 13 a4 3d
       0.14704783 0.17713097 0.20059958 0.08011547
0003b0 5a 70 8a 3d 25 1f ee 3d e9 eb cb 3d 7d 93 0f 3d
       0.067597106 0.11627034 0.09957106 0.035052765
0003c0 26 df 0a 3c 30 85 ea bb 52 32 bd 3d c2 71 15 3e
       0.008476054 -0.0071569905 0.092381135 0.14594176
0003d0 1b a4 29 3d 3a ea a1 3c 09 67 e3 3d ee f1 ca 3a
       0.04141627 0.019765008 0.11103637 0.0015483478
0003e0 1a 5c 19 3e 2c 28 22 3e b7 12 04 3e d8 0d 0a 3e
       0.1497654 0.15835637 0.12897764 0.13481843
0003f0 a1 34 9d 3c c7 91 35 3c 57 b8 23 3e aa db e4 3d
       0.019190134 0.011082119 0.15988289 0.1117471
