project/models/LSTM/Samsung.pth (torch, 209541 bytes, 9 tensors)

lstm.weight_ih_l0 f4 [256, 5]
00000000: 5a8d fa3d f460 72bd 6c4e 7b3d 8813 793d
00000010: e0af ab3b 987d 55bd 241f dfbd 6e50 b0bd
00000020: 56eb 9abd d259 cd3d eef4 8e3d 08e2 25bd
00000030: 5adb d83d 00a1 57bb 0a8a 9e3d a230 edbd
00000040: 8472 783d f8ec efbc 3088 d3bd ba17 ebbd
00000050: d61f c4bd 8868 a1bc c84b d23c 0024 a8bd
00000060: 3e67 e9bd 9ccb 223d 1045 e6bd f2d8 823d
00000070: 2684 dbbd 18cb 873d 0453 3a3d 8033 44bd
00000080: b8ad 12bd 64a6 263d 80a2 9d3d 00ca fd3d
00000090: ec1b 093d 3241 d43d c8dd c9bc 7064 673d
000000a0: 10ac 9ebd 3c7e b5bd 422a d8bd 405b 503d
000000b0: 1299 dd3d 0092 ee3c c8bb a3bd 20a6 14bc
000000c0: 90e7 5f3d f4d3 3f3d 746a a1bd be41 8fbd
000000d0: b879 1abd 8caf 343d 2070 8ebc 289b c5bd
000000e0: 98f1 5cbd 6418 bbbd 44e6 c23d 0a69 afbd
000000f0: ecb4 28bd c4b9 b63d 2a3c bebd 604e f8bc
00000100: f0e1 973c c052 053d 0487 933d d0c8 9cbd
00000110: 4af7 8cbd 4e1c c6bd 00de febd f0ae 1fbc
00000120: b065 4b3c 826f c53d 347c 4c3d f0ca d4bd
00000130: cc85 bfbd 2827 3abd 3873 ad3c a4e3 ccbd
00000140: b0b0 ce3d c049 9abd f2ce f7bd 62e3 bb3d
00000150: 9abd e1bd ecf8 02bd a02d 65bc fe7d f0bd
00000160: 9427 c5bd b22b 97bd 2a3d 963d b033 afbc
00000170: 64b7 8a3d 12ed cfbd 4c5a 0e3d 004f eebd
00000180: da7a b73d a000 50bd fcaf f93d ac11 95bd
00000190: aa3b f6bd 48dd 3f3d a030 b63c e46b 933d
000001a0: fe20 a5bd 50af 96bc f0d0 75bc 0089 4dbb
000001b0: f428 853d 1063 92bd 80be 05bc f89d a6bd
000001c0: bac6 efbd e0e5 ecbd d075 593d 883b 393d
000001d0: 00d8 7eb9 30cc 35bd 08b5 20bd 70a1 5d3d
000001e0: a813 2dbd ec9f 54bd 20e8 d63c 982a 56bd
000001f0: 4c9f dabd 8aaf a53d 3497 b73d 3852 323d
00000200: a892 d6bd ce81 bf3d 4090 7b3d 6c0b 5dbd
00000210: 226a b9bd 400e 293b 6085 e9bd 9ae7 8bbd
00000220: 1036 e63c dea8 cd3d 4441 3ebd 32a9 f03d
00000230: 10fc 95bc 9eb0 ab3d 9a8a a13d b0a5 903d
00000240: 58ac f5bc 42bd 80bd 0048 5a3c a0e2 913b
00000250: 8843 c0bc dc48 a2bd e268 a0bd b814 d53d
00000260: 8cf4 b93d d8a1 fe3d d010 763c ec4a 60bd
00000270: 4e67 933d 625b b83d 1cd1 0e3d 20c0 4cbd
00000280: 54b1 a33d cc6f 283d 3cc0 ab3d 0033 223d
00000290: f082 04bc b0bf f0bc f2e8 e13d b84e 9c3d
000002a0: d06c e1bc 1228 94bd 00ba 973b ac2f 83bd
000002b0: ee22 813d da6b b03d 54d0 d1bd aa1a e03d
000002c0: f832 833c 2e3e e7bd b85f 713d cc88 00bd
000002d0: 12cf 8abd 3433 b6bd 6466 ebbd d612 89bd
000002e0: 307d 7dbc 54cc 6abd 1678 893d 5008 f6bd
000002f0: 207c cebb 8884 a3bd 14c1 25bd fce5 a2bd
00000300: b002 893d 101f 3bbc 883b 43bd 540a 3d3d
00000310: 0888 5bbd 2443 a73d 003f e63b 2af2 8fbd
00000320: b85f bc3c 9472 3b3d d03d 633c 2868 edbc
00000330: a091 3f3d 4015 cebb 400e acbd 243d 9cbd
00000340: cc8a c1bd 2a8c e43d c4da 3b3d ec99 9c3d
00000350: 6015 0b3d a018 39bc 50c9 b4bd 2ce3 1ebd
00000360: 0092 27bd 38fa 563d 5a21 ec3d ccec 75bd
00000370: be8b 973d da63 b63d 5441 a8bd d899 c83c
00000380: 04ab 333d b4dd 60bd c8bc e8bc dc94 47bd
00000390: ce3f e33d b034 093c 584f 44bd 5407 44bd
000003a0: faa1 df3d 1e7c b83d 1863 b03c f666 893d
000003b0: 606f 9a3c 042e ec3d 7055 f6bd 96a1 a83d
000003c0: a852 a3bc 00bb d03b 52ea cd3d 98a1 ecbd
000003d0: 9412 56bd 508e 2c3c 48a7 f63c cc03 f5bd
000003e0: 7af5 d8bd 303c bbbd f0eb 953d dc33 1f3d
000003f0: 306f 24bc a88c b2bc 8c9d 58bd ae3a e63d
0.12233992 -0.059174493 0.061354086 0.060809642 0.005239472 -0.05212173 -0.108946115 -0.08609091
-0.07564418 0.100268975 0.069803104 -0.040498763 0.10588713 -0.003290236 0.077411726 -0.115815416
0.060656086 -0.0292878 -0.1032871 -0.11479135 -0.09576385 -0.019703165 0.025670901 -0.082099915
-0.11396645 0.03974496 -0.112436414 0.06389035 -0.10718565 0.06630534 0.045489326 -0.047900677
-0.035810202 0.040686026 0.0769701 0.12392044 0.033473894 0.103639975 -0.024641886 0.05649227
-0.07747662 -0.08861968 -0.10554935 0.050868273 0.108202115 0.029122353 -0.07994801 -0.00907281
0.054664195 0.046832994 -0.078816324 -0.06994961 -0.037713736 0.044112727 -0.01738745 -0.09648734
-0.05394134 -0.091355115 0.09516576 -0.085649565 -0.041188166 0.08922151 -0.09288819 -0.03031081
0.018540353 0.03254962 0.072034866 -0.076554894 -0.06883104 -0.096733674 -0.12444687 -0.009746298
0.012414381 0.09640409 0.049923137 -0.1039027 -0.093516916 -0.0454475 0.021173105 -0.100043565
0.10092294 -0.07533598 -0.121000186 0.09174229 -0.11022492 -0.03197567 -0.013987929 -0.11742781
-0.096266896 -0.07381381 0.07335885 -0.021386951 0.0677326 -0.101526394 0.034754083 -0.11636162
0.08958979 -0.050781846 0.121917695 -0.07278761 -0.12023099 0.04684189 0.022239983 0.07198313
-0.080629334 -0.018394142 -0.015003428 -0.0031362176 0.06501952 -0.07147801 -0.0081630945 -0.08135599
-0.11707826 -0.11567283 0.05309087 0.04522279 -0.00024303794 -0.04438418 -0.039235145 0.054109037
-0.042255074 -0.051910326 0.026233733 -0.052286714 -0.10674915 0.08090122 0.089643866 0.04353544
-0.10477191 0.0935093 0.061416864 -0.05396597 -0.09053446 0.0025795847 -0.114023924 -0.06831284
0.02810195 0.100419745 -0.04644896 0.117510214 -0.01830867 0.083832964 0.07887764 0.070628524
-0.029989406 -0.06286098 0.01332283 0.0044520646 -0.023469701 -0.07924053 -0.07832505 0.104043424
0.09079847 0.12433213 0.015018657 -0.05475895 0.07197438 0.09001805 0.03486739 -0.049987912
0.07992807 0.041122243 0.08386275 0.03959942 -0.008087859 -0.029388279 0.11030759 0.07632202
-0.027517706 -0.07234205 0.004630327 -0.06405577 0.063054904 0.08614321 -0.102448136 0.10942586
0.016015515 -0.11291157 0.058929175 -0.03138046 -0.06777777 -0.08896485 -0.11494139 -0.06693046
-0.015471742 -0.05732377 0.06712358 -0.12013304 -0.006301418 -0.07984263 -0.040467337 -0.07954022
0.06689966 -0.01142098 -0.047664195 0.046152428 -0.053596526 0.08167103 0.007026553 -0.07028611
0.022994861 0.045763567 0.013869718 -0.02898033 0.04676974 -0.0062891543 -0.084011555 -0.07628849
-0.094503015 0.11159547 0.045862928 0.07646546 0.03395593 -0.011297375 -0.0882746 -0.038790867
-0.04091072 0.05248472 0.11529799 -0.06004028 0.073997006 0.08905764 -0.08215585 0.02448742
0.043864265 -0.054898933 -0.02841033 -0.048725948 0.11096154 0.008374378 -0.04792723 -0.04785855
0.109195665 0.090080485 0.021531627 0.06709091 0.018851936 0.11532214 -0.12028015 0.08233945
-0.019936875 0.0063699484 0.10054459 -0.11554259 -0.05226381 0.010531977 0.030109063 -0.11963615
-0.10593696 -0.09142339 0.07320392 0.038867816 -0.010036275 -0.021795586 -0.052884623 0.11241661

lstm.weight_hh_l0 f4 [256, 64]
00000000: 50b8 07bc a027 943c 0068 1d3d 184c 8f3d
00000010: 4237 a8bd b02a c6bd 48ff f5bc 90b5 27bc
00000020: 40a0 6cbc c085 d13d 80a3 bbbd e07f 023d
00000030: 3a8b f53d d034 ac3c 7aa1 803d 2802 bfbc
00000040: 12c1 a9bd 7c07 74bd ae01 97bd 44d0 50bd
00000050: e87b 703d 98e9 5f3d de34 f83d 00ff a8bd
00000060: 644d cb3d 6ceb c7bd 8066 f0bd 18c0 41bd
00000070: c00d e73c 78cd dc3d 34ff 7bbd 6418 783d
00000080: 640c 4abd 0266 82bd 5079 83bd 06b9 8c3d
00000090: f24b e4bd c8ac 90bd 606c e4bd 5407 74bd
000000a0: 0c2a 26bd 504b 6dbc 3c52 843d 5229 f33d
000000b0: 40c7 1abd 4073 a2bc c4d2 a03d fc38 7dbd
000000c0: 60ce ff3d a8bb 0f3d e0ca ed3d e0d7 f23c
000000d0: a6ab e43d b402 543d 2e90 d0bd d07c 873d
000000e0: 5456 87bd a0a0 b63d 0098 7639 e000 0cbd
000000f0: f458 e33d 88c7 a6bd a020 a3bd 4c1f fe3d
00000100: 064f d0bd d025 bebd 6674 a8bd cc6d 683d
00000110: 78c8 c73c 6ed0 f7bd 4260 a2bd d0af d53d
00000120: 2c03 6ebd 80b5 e2bc 7e30 e4bd f887 1cbd
00000130: 5667 b1bd 18e3 67bd e041 8dbd 64d3 4ebd
00000140: caf9 e73d f059 4dbc 58af f03c a071 e2bd
00000150: 2054 843c a09c a6bc 9eb4 bfbd 2a32 e73d
00000160: 20b7 0abc f016 83bd 30dc 8fbd 4c09 e63d
00000170: eae7 f3bd 0a91 d5bd a0df 243d a0d4 bc3b
00000180: 4806 1fbd 2e45 ee3d 00e0 08b9 883a 87bc
00000190: 30d6 aa3c d0fc af3d 0673 f7bd a425 be3d
000001a0: d0c1 9b3c 6052 8d3c c266 fbbd c82b aebd
000001b0: cce1 9b3d 989f 513d 3084 0a3c 84ea 23bd
000001c0: bc72 6fbd 8085 843a 140e eabd 746f 6ebd
000001d0: 3063 01bd ae8a a83d 4818 193d 7cea 4bbd
000001e0: d0d3 143c f680 a33d 967c bb3d 46bf c7bd
000001f0: c427 dc3d ec71 39bd bc05 133d 60be fb3b
00000200: c663 853d 1038 553c 628e 8cbd 904b d83d
00000210: a68b abbd 8424 f63d f493 41bd 0086 d23c
00000220: ecf2 59bd d273 a83d 3812 193d 808a 963a
00000230: 16ca 85bd 4e1f bf3d 5815 e3bc 58c6 dabd
00000240: b011 793c 1445 ec3d 0c13 debd 28be 9e3d
00000250: 8012 22bb f2f9 a03d 6c8a eebd 406a f3bb
00000260: ceb8 afbd eed5 c73d b859 293d f06c bb3c
00000270: 68b7 2ebd e8d1 45bd 88b2 b33c 30e3 4b3c
00000280: 7c44 3dbd 5813 e3bc e802 65bd a85c 88bc
00000290: 7006 c1bc 42ce e83d 54eb bc3d 804f 0d3d
000002a0: 6441 f43d 6e48 e53d 1011 4b3d 1cd8 863d
000002b0: 4caf 3abd 64fd 0b3d 0058 ddbb 3818 ae3d
000002c0: 387f ac3d a0ce 033d 4013 ba3c 50d2 0fbc
000002d0: 104a be3d b01e 083c b056 6e3c b830 de3d
000002e0: 1489 a4bd 2090 c43b 6828 7bbd 1a36 ffbd
000002f0: aab7 debd d2af 81bd e4aa f23d f009 ab3d
00000300: 90f8 b03c 284a b4bc a0a7 dfbd 2cf2 4bbd
00000310: 888a ecbc d809 ffbc f649 d2bd 00db 11bc
00000320: bc58 433d 6095 a53d ea23 f63d 98d6 1b3d
00000330: 08f4 5d3d 1031 a83c e092 953c c4ff 53bd
00000340: a06f f5bc f82f cabd 80ec c13b ca1b 8a3d
00000350: 24d9 96bd fc5c 92bd 802d 84bd c0c3 7fbd
00000360: c089 023b 0cb4 d63d 3ccf efbd ace9 b83d
00000370: 02d1 dbbd c05c 613d f00f 39bd 943a aabd
00000380: baeb a33d c041 23bb f284 923d 1ec7 be3d
00000390: 30f9 c3bc 844e c5bd d06b 91bd 2acc f1bd
000003a0: 4894 4d3d 20ce b5bc dee0 d2bd 5495 e63d
000003b0: 8004 08bc 18b1 203d 8022 2cbd ea90 bebd
000003c0: b22a b8bd 4488 e2bd b846 12bd a819 babd
000003d0: 46d0 d83d 12c8 97bd d04c 80bc 92d7 c9bd
000003e0: 4e19 bdbd 62b5 c43d 5cb5 2c3d 60f7 c4bc
000003f0: 20c8 61bd c233 ac3d ce5d df3d 00c1 ccbd
-0.00828369 0.0180853 0.03842926 0.069969356 -0.082136646 -0.09676111 -0.030028954 -0.010236159
-0.014442503 0.10230589 -0.091620445 0.031860232 0.11989446 0.021021277 0.06280799 -0.023316458
-0.08288778 -0.05957745 -0.07373367 -0.050979868 0.058711916 0.05466613 0.121194586 -0.082517624
0.099268705 -0.097617 -0.117383 -0.047302336 0.028204799 0.107813776 -0.061522678 0.060570136
-0.049328223 -0.06367113 -0.06419623 0.06871228 -0.11147298 -0.070642054 -0.111534834 -0.0595773
-0.040567443 -0.014483288 0.064609975 0.118731156 -0.037787676 -0.019830346 0.078527 -0.061821923
0.12490535 0.035091072 0.11610961 0.029643953 0.11165552 0.05176039 -0.1018375 0.06615603
-0.06608263 0.089173555 0.00023517013 -0.034180522 0.11100951 -0.08143526 -0.07965207 0.12408313
-0.101713225 -0.09284556 -0.08225326 0.056745335 0.024387583 -0.12100302 -0.07928516 0.10433924
-0.058108494 -0.027674437 -0.11142062 -0.038215607 -0.08662288 -0.056613058 -0.0689733 -0.050494567
0.1132694 -0.01253365 0.029380485 -0.110568285 0.016153395 -0.020338356 -0.09360622 0.11288865
-0.008466512 -0.06400859 -0.07024419 0.11232242 -0.119094685 -0.10428055 0.040252328 0.0057626516
-0.03882435 0.11634289 -0.00013053417 -0.016507402 0.020854086 0.08593142 -0.12082486 0.09284523
0.019013315 0.017251194 -0.12275459 -0.08504444 0.07611427 0.05117759 0.0084543675 -0.040018573
-0.05845903 0.0010110587 -0.114284664 -0.05821176 -0.031588733 0.08229576 0.037376672 -0.04978417
0.009083703 0.07983582 0.09154622 -0.097532794 0.10749772 -0.04527466 0.03589414 0.0076826066
0.06513171 0.013013855 -0.06863095 0.105612874 -0.08376245 0.120186836 -0.04726024 0.025698662
-0.053210184 0.08225216 0.03737089 0.0011485368 -0.065326855 0.09332143 -0.027720138 -0.10682362
0.015201971 0.11536613 -0.10843477 0.07751113 -0.0024730265 0.07860173 -0.116474956 -0.0074284375
-0.085801706 0.09757601 0.041345328 0.022879094 -0.04265538 -0.048295885 0.021935716 0.012444302
-0.04620789 -0.027719185 -0.055910975 -0.016645744 -0.02356264 0.113674656 0.09224573 0.034499645
0.11926535 0.111954555 0.04957682 0.06584188 -0.045577332 0.0341772 -0.006754875 0.08500713
0.084227026 0.032179475 0.022714257 -0.00877817 0.0929147 0.008308098 0.014547035 0.10849136
-0.08033958 0.0059986264 -0.06131783 -0.12461491 -0.10874875 -0.06332363 0.11849001 0.08351505
0.021602899 -0.022008017 -0.10920644 -0.0497915 -0.02887465 -0.031132624 -0.10268013 -0.008902311
0.047692046 0.08085132 0.12018569 0.03804645 0.054187804 0.020531207 0.018258512 -0.05175759
-0.029960454 -0.098724306 0.0059180856 0.067435816 -0.07365635 -0.071466416 -0.06453991 -0.06244254
0.0019918531 0.1048356 -0.11709449 0.090289444 -0.107332245 0.055020094 -0.045181215 -0.08311954
0.08003946 -0.0024911016 0.071542636 0.09315322 -0.023922533 -0.09634116 -0.07100642 -0.11806519
0.05019024 -0.022193015 -0.10296796 0.11258951 -0.008301854 0.03923139 -0.04202509 -0.09304984
-0.089925185 -0.11061147 -0.035711974 -0.09086925 0.105866 -0.07411207 -0.015661627 -0.0985557
-0.09233342 0.096049085 0.042165145 -0.024043739 -0.055122495 0.084083095 0.10906564 -0.09997749

lstm.bias_ih_l0 f4 [256]
00000000: 00ee f6b9 b422 ab3d 8048 f23a 6802 a3bd
00000010: 264c c1bd 5411 713d e850 e73d e0a7 36bc
00000020: 3a6d c3bd 74f4 05bd 8038 fabd 066e df3d
00000030: 884a a83d 8c0c 2bbd 3ab6 ad3d d23f cabd
00000040: 88a4 bfbd 20ba f7bb 80ba f23c d21a a83d
00000050: a87a f1bd 1c2a fa3d 1e0e df3d e037 e73b
00000060: 0eb4 a03d 5c7b 673d 94d2 e73d b884 723d
00000070: 7816 2d3d f846 e3bc c8b8 a0bc 8c68 23bd
00000080: 887e edbd 90ae c6bc 68b4 8a3d 8cb0 8c3d
00000090: 705e 833c d072 1e3d 2024 f33c 22fe edbd
000000a0: b090 ba3c a850 883c 004a 103d 242e 37bd
000000b0: 9a36 f03d a855 f63c aad2 d3bd 7895 cc3d
000000c0: 884f cebc 5a51 983d 5676 f7bd 886a 5dbd
000000d0: 30e3 a13d a07c 433c 7473 b33d 2e28 8bbd
000000e0: c841 d1bc 8069 df3d 6a96 abbd 6876 8a3d
000000f0: a061 313c 8089 a0bd b2cf fe3d 8e7d a8bd
00000100: 6a80 c63d 4c98 87bd d848 8d3d d031 78bd
00000110: f097 e2bc a0ae bd3c 88b9 afbc c4de 8b3d
00000120: ac30 6a3d bc25 50bd 38d3 f43c 4444 203d
00000130: e093 013d 8c45 8cbd 227c 8abd c2ea d73d
00000140: cc0e c03d a01e a23c 7024 a03d 8ebd f7bd
00000150: 2e02 823d c4e4 d83d 7cb6 27bd 588f d1bc
00000160: a074 d33b 3aa1 8bbd 30b8 203c 9835 debc
00000170: 8036 8b3d 40ab 1e3c 6eb6 e33d eed2 be3d
00000180: 4824 18bd cc07 70bd ded9 d7bd 5e02 c0bd
00000190: 486b f33d c44c 443d 8e3d 863d 3e3e c6bd
000001a0: 2cbd 8c3d b4ef 02bd 367e cf3d 42f6 dc3d
000001b0: 02aa ffbd 7ac2 f43d 584a 49bd 0e3c e43d
000001c0: e41a 0a3d ac67 473d 50d6 ac3d 9407 e2bd
000001d0: 0cb3 483d c8f1 fa3d 10ed cfbd 78cf f23c
000001e0: 5cdc 62bd e010 40bd 60ae cc3d b8a6 963c
000001f0: 2071 6bbd ac7c d83d 0489 773d 406d 623b
00000200: 7c18 773d e896 64bd 30a2 73bd f8b8 11bd
00000210: a06b 403d fa14 c2bd 4421 a2bd 44c7 58bd
00000220: 080e c4bd d852 6c3d 025f e03d 50da 19bd
00000230: c0b3 703b 8063 4b3d 946a 0ebd 4e81 b9bd
00000240: 3c2c 2dbd 80da db3a f6e9 9b3d 80e6 123c
00000250: 4c28 353d f05c 64bc 72b9 d63d 9ebb 803d
00000260: 406b f2bc 4aed e13d e22b d83d 4ad3 c7bd
00000270: d851 f23d 2c70 873d 5e7f d73d 88dc 80bd
00000280: e071 663c 8e1c dbbd 0848 b33d 865e 9cbd
00000290: 0cd3 ba3d 848c 283d 006a c039 4066 f13c
000002a0: a459 b7bd 18d2 6a3d e267 8e3d 0c0a ec3d
000002b0: 1eeb 9f3d 9e6c f93d 1813 9ebd 9cf0 783d
000002c0: 64d8 923d 68c4 ddbc c0bc f33b 4ce7 c73d
000002d0: 9cbb 7bbd 2cd9 2a3d ec80 92bd 8640 863d
000002e0: 4e56 f9bd e43e 8dbd d0fa 9b3d 1405 8a3d
000002f0: 202e e6bb 50c8 d53d 00cb 97bc 885c ed3d
00000300: 2c82 5c3d b8b8 9a3c e4d8 6abd aa2a d13d
00000310: 6097 abbb 60ad e4bb a8da db3c d037 053c
00000320: f852 fbbd e274 c23d fccc a1bd b87c 7a3d
00000330: 804b bdbc 30b8 7f3c 627b e4bd 68bd c23d
00000340: deef ab3d 9099 8cbd b87a 3fbd f4fb 213d
00000350: cca1 843d a418 ddbd 7823 aebc 7205 92bd
00000360: 2c1e 243d c2ce ecbd 64ad 71bd ac06 e6bd
00000370: 044d 77bd aaed e7bd 10ec 7e3c 501c 81bc
00000380: caa9 fa3d 503f 29bd 2898 b33d 705f cf3d
00000390: e0ca d8bc befa f53d 0c89 55bd 94d0 3c3d
000003a0: 00ee 803b 74a2 a93d 28e0 c23d 20b1 aebb
000003b0: 8c21 513d fc68 e33d 8ce7 43bd 4ce5 3a3d
000003c0: 0018 8d39 3091 73bd 00e7 7c3b 2c81 63bd
000003d0: b816 9b3c 70b2 373d 4ccd f0bd 72cb 9cbd
000003e0: 0c76 bcbd bc02 2cbd ec80 dc3d 1cf2 59bd
000003f0: b8f0 c7bd 8ead b4bd 7250 ab3d b07a 2d3c
-0.000470981 0.083562285 0.0018484741 -0.07959443 -0.09438352 0.058854416 0.112947285 -0.011148423
-0.09542318 -0.03270383 -0.12217808 0.10909657 0.08217341 -0.041760013 0.084820226 -0.09875454
-0.09357554 -0.0075600296 0.029629946 0.082082406 -0.11790973 0.12215063 0.108913645 0.0070562214
0.07846843 0.05651413 0.113194615 0.0592086 0.042257756 -0.027743801 -0.01961936 -0.039894626
-0.115963995 -0.02425316 0.06772691 0.06869611 0.016036242 0.038683712 0.029680312 -0.116207376
0.02277407 0.016640022 0.035226822 -0.044721738 0.117291644 0.030070141 -0.10342915 0.099894464
-0.025184408 0.074373916 -0.12083118 -0.054056674 0.07904661 0.011931568 0.08762255 -0.06794773
-0.025544062 0.109087944 -0.083782986 0.067608654 0.010826498 -0.07838726 0.124419585 -0.08227073
0.09692462 -0.06620845 0.068986595 -0.06059438 -0.02766034 0.023154557 -0.021450773 0.068295985
0.057175323 -0.050817236 0.029885873 0.039127603 0.031635165 -0.068492025 -0.06761958 0.105428234
0.09377822 0.019789994 0.0781945 -0.120967016 0.06348072 0.105905086 -0.040945515 -0.025581047
0.006453112 -0.06817861 0.009809539 -0.027125165 0.067975044 0.009684384 0.1111878 0.093175754
-0.037143975 -0.058601186 -0.10539602 -0.093754515 0.11885697 0.047924772 0.065547094 -0.096798405
0.06872019 -0.03196688 0.10131495 0.107891575 -0.12483598 0.11951156 -0.049143165 0.11144267
0.03371705 0.048682854 0.08439314 -0.11036602 0.048998877 0.12253147 -0.10152638 0.029639944
-0.055385932 -0.046891093 0.09994197 0.018390045 -0.05748093 0.10570654 0.060433403 0.0034549981
0.060326084 -0.055807978 -0.059480846 -0.03557679 0.04697764 -0.09476657 -0.07916501 -0.05292441
-0.09572989 0.057696193 0.10955621 -0.037561715 0.0036728233 0.049655437 -0.03476961 -0.09057866
-0.042278513 0.0016773492 0.07612984 0.008966088 0.044227883 -0.013938174 0.1048459 0.06285785
-0.029592156 0.110315874 0.10555245 -0.09757097 0.11832017 0.06613192 0.1052234 -0.06292063
0.014065236 -0.10698806 0.08753973 -0.076352164 0.09122285 0.04114963 0.0003670007 0.029467702
-0.089526445 0.057329267 0.06953408 0.11525354 0.07808517 0.1217892 -0.077184856 0.060776338
0.071701795 -0.027071193 0.0074382722 0.09760913 -0.061458215 0.041711017 -0.07153496 0.065552756
-0.121746644 -0.06896761 0.07616198 0.0673925 -0.0070245415 0.10438597 -0.018529415 0.115899146
0.05383508 0.018886909 -0.05733575 0.10213216 -0.005236551 -0.0069786757 0.026837662 0.0081309825
-0.122716844 0.0949495 -0.07900426 0.061154097 -0.02310729 0.015607879 -0.11156346 0.095087826
0.083953604 -0.06865227 -0.046747893 0.03954692 0.06476173 -0.107957155 -0.021257147 -0.07129945
0.040067837 -0.115628734 -0.05900325 -0.11231741 -0.060376182 -0.11324628 0.015559211 -0.01576057
0.12239416 -0.041320145 0.08769256 0.10125625 -0.026463926 0.12010716 -0.05213265 0.046097353
0.003934622 0.082829386 0.09515411 -0.0053311735 0.051057383 0.111040086 -0.047828242 0.04562883
0.00026911497 -0.059464633 0.0038589835 -0.05554311 0.018931732 0.044847906 -0.11757907 -0.076559916
-0.09202203 -0.041994795 0.107667774 -0.05320941 -0.0976271 -0.088221654 0.08364953 0.010588333

lstm.bias_hh_l0 f4 [256]
00000000: cc94 f53d 40e9 7e3d 82e6 fabd 3ead c5bd
00000010: e843 403d 00f2 25ba b40e 25bd d037 e3bc
00000020: 88a3 b7bc 5830 483d a06c d33c 02e3 ae3d
00000030: f838 bebc dea3 91bd 9871 f4bc 04a6 a83d
00000040: b8ba 3ebd 5edf b7bd 00db 39bd 58a6 b03d
00000050: e052 b2bc 8c18 663d fe6c ac3d 100f bc3c
00000060: b0db 633c 6257 81bd 0445 6d3d 5444 c3bd
00000070: 5ac8 b7bd 28e3 943d 7c54 bbbd b2c3 c63d
00000080: 2ccf 4cbd e8dd 0cbd a087 70bd 60cc c13c
00000090: d465 e23d 5e48 8fbd 447c 1f3d 1804 903d
000000a0: 94ce 87bd aafa 95bd e05d 74bd 90bc e6bc
000000b0: cce3 2a3d 6043 733c a80a c8bc 7806 cabc
000000c0: 007c 1dbc 4826 623d 7e1e b43d a2e0 cc3d
000000d0: 2cd0 503d 9c75 e33d d0ad 4bbc 4028 823d
000000e0: 76d4 8dbd e881 0b3d 12f2 e93d cc55 f73d
000000f0: 08f2 b8bc ac15 863d 709e fd3d bc48 c83d
00000100: 4048 4ebb 7c47 1f3d 58b9 303d 0450 03bd
00000110: c8dd 623d eaba c8bd 2871 c0bc 406d 963c
00000120: 92be 82bd d88c d1bc c017 dd3d b63a fbbd
00000130: 0a65 d03d 2e4f f1bd b8ea 8e3c 0cf9 a63d
00000140: f409 88bd feec f53d 8ad4 a33d 02b0 e73d
00000150: da6f babd d025 63bd 3c30 eebd 8a0b c0bd
00000160: 48d9 e5bc ec92 8e3d 6014 eb3d 5c90 713d
00000170: 18ee 99bc d48b 25bd 8099 7a3c 664d 85bd
00000180: 704b 2ebc 5014 19bc 78b8 f23d ead0 cdbd
00000190: c0af 26bc a44f e43d 32f8 c1bd 2e33 aebd
000001a0: a01c 83bc 90ca 22bc 58e8 aa3c 14c5 4f3d
000001b0: d88d 703d 0c77 b6bd f6b4 90bd 0e15 a83d
000001c0: e278 c43d c8de e0bc 3e74 91bd 5064 2fbc
000001d0: 7ca8 9dbd 023a d93d 8434 5c3d f8bd 883c
000001e0: 00de e2ba e0a4 e03b baf3 9fbd bce8 f03d
000001f0: a2c1 ffbd 8c38 4b3d e40c 1cbd 3066 dabc
00000200: 7646 fabd 9a11 b73d 4ce5 ae3d caf5 973d
00000210: 60e5 54bd 80a5 a7ba d42e 55bd 148c 22bd
00000220: 786e 903d ce7d debd ec7c adbd cc28 bf3d
00000230: f4f5 193d 08ca 33bd 0027 993a 6acc f93d
00000240: 1c70 c73d b007 463c 404e 2dbc 1402 7ebd
00000250: 9a30 d63d 5e10 91bd cc94 a33d 946f ed3d
00000260: 04ac a73d 4c80 123d 10c5 aa3d 14bb b53d
00000270: ac1d 053d 848c dc3d 1827 bebc e087 d23d
00000280: 027e a33d dce2 373d b4a0 423d eca7 443d
00000290: 505a 693d 5abd cfbd 605b 7a3d 72d2 953d
000002a0: a8ac febc 6c41 5dbd b02e fdbc 3ce7 ac3d
000002b0: b0a8 bb3d 005d 813d 302e e23d c219 b23d
000002c0: e415 4a3d 405f 583b c23c ee3d f0ac 61bd
000002d0: d86e d93c 10e8 5e3d 2010 4ebd a8c1 903d
000002e0: 2056 913c 66ee e43d 2452 0cbd 7671 fb3d
000002f0: 1476 b23d 6003 203c e0de 583c e014 ea3b
00000300: 24b2 aebd 1860 74bd 3649 aebd 9829 12bd
00000310: b082 02bc 54c8 a1bd b4da 8d3d 38db 27bd
00000320: 20e9 ebbc 5afb bc3d 602c b6bb 900a af3c
00000330: e2cb fa3d f03e 1dbc 00a8 7739 80f4 4ebb
00000340: c671 803d a231 b2bd 320d fcbd b0eb 14bd
00000350: 8607 b7bd 2070 133d b887 213d d0db a7bc
00000360: 42d3 bdbd 8429 673d 507c b9bd 0035 a13a
00000370: 4ce1 13bd 6052 4ebc 0ce7 de3d 3e1c 943d
00000380: c027 4bbd dee1 9ebd bc94 b53d a030 3ebc
00000390: dc2e 623d d045 4abd 0874 993d 9869 ce3d
000003a0: 90c0 78bc 680d 5c3d 80d9 463d cc5d 2fbd
000003b0: 4afa c83d fc42 31bd 1c07 83bd 6cc7 d1bd
000003c0: 3c66 c03d 3e75 a3bd a8c6 d0bc ec36 ba3d
000003d0: c014 613b b857 d9bc cc16 80bd 801f 1fbc
000003e0: ca0e a73d f61e 9e3d 3092 74bd ec35 6d3d
000003f0: f82c 9cbd 3878 ee3d 4081 53bb 947b fa3d
0.119912714 0.062234163 -0.12250997 -0.09652184 0.04693976 -0.00063303113 -0.040297225 -0.027736574
-0.022416845 0.04887423 0.025808632 0.08539392 -0.023220524 -0.07111333 -0.029839322 0.0823479
-0.046564788 -0.08978151 -0.04537487 0.086254776 -0.021768034 0.056175753 0.08419226 0.022956401
0.013907358 -0.06315495 0.057927147 -0.09534517 -0.08973761 0.07269889 -0.091469735 0.09705295
-0.050002262 -0.034391314 -0.058723092 0.023657024 0.110545784 -0.06996225 0.03893687 0.07032031
-0.066311985 -0.07323201 -0.05965984 -0.028166085 0.04172115 0.014847606 -0.024419144 -0.024661288
-0.009612083 0.05521229 0.087948784 0.10003783 0.05097978 0.111064166 -0.012431577 0.06355333
-0.06925289 0.034059435 0.114231244 0.12076911 -0.022576347 0.06547102 0.12383735 0.09779498
-0.003147617 0.038886532 0.043145508 -0.03205873 0.05538729 -0.09801276 -0.023491457 0.018362641
-0.06384005 -0.025579855 0.107955456 -0.122670576 0.10175522 -0.117826805 0.017445907 0.08152971
-0.066425234 0.12008093 0.07999523 0.11312868 -0.09103365 -0.055455983 -0.11630294 -0.09377201
-0.02805771 0.06961617 0.114784956 0.058975562 -0.01879029 -0.040416554 0.015295386 -0.06508903
-0.010638103 -0.009343222 0.11851591 -0.10049613 -0.010173738 0.11148003 -0.094711676 -0.085058555
-0.01600486 -0.00993599 0.020862743 0.050725058 0.058729023 -0.08909425 -0.070657656 0.08207141
0.09593369 -0.02744998 -0.071022496 -0.010705069 -0.076981515 0.10606767 0.05376102 0.016692147
-0.0017308593 0.006855592 -0.07810159 0.117631406 -0.124881044 0.049614474 -0.03809823 -0.026660055
-0.122204706 0.08938904 0.08539829 0.074199274 -0.05197656 -0.0012790412 -0.052046612 -0.03968437
0.0705232 -0.10863839 -0.084710926 0.09333953 0.037588075 -0.043893844 0.0011684597 0.12197192
0.0973818 0.012086794 -0.010577738 -0.0620137 0.10458489 -0.070832 0.07987365 0.115935475
0.08187106 0.035766885 0.08338368 0.08873573 0.032499 0.10768989 -0.023212 0.10279822
0.079830185 0.044894084 0.04751654 0.048011705 0.056970894 -0.10143538 0.0611223 0.0731553
-0.031088188 -0.05401747 -0.030906051 0.08442542 0.09163034 0.063165665 0.11043966 0.08696319
0.049337283 0.0033015758 0.116326824 -0.055096567 0.026542112 0.05442053 -0.050308347 0.07068187
0.017741263 0.111782834 -0.034258023 0.122775 0.08713928 0.00976643 0.013236731 0.007143602
-0.085300714 -0.059661955 -0.08510058 -0.0356842 -0.007965729 -0.07899538 0.0692648 -0.040980548
-0.028797686 0.09227629 -0.005559489 0.021367341 0.12245919 -0.009597525 0.0002361834 -0.0031578839
0.062717006 -0.08700873 -0.12307204 -0.03635758 -0.08936982 0.035995603 0.039436072 -0.020490557
-0.0926881 0.056436077 -0.09056914 0.001229912 -0.03610353 -0.012592882 0.108839124 0.07231949
-0.049598455 -0.077579245 0.088662595 -0.011608273 0.05522047 -0.049382985 0.07492834 0.10078734
-0.015182629 0.053723723 0.048547268 -0.04281406 0.09813364 -0.043276772 -0.063978404 -0.10243115
0.093945 -0.079813465 -0.025485352 0.09092507 0.0034344643 -0.026531085 -0.06254348 -0.0097121
0.08157118 0.07720749 -0.059709728 0.057912752 -0.076257646 0.11644024 -0.0032273084 0.12230602

lstm.weight_ih_l1 f4 [256, 64]
00000000: 5352 0abe 52d2 5a3c ec20 62bd fcae 143d
00000010: 7087 d13d 6496 423d c07a 09bc 6202 81bd
00000020: e81a 413d 90dc a3bc b20f a5bd c2da 91bd
00000030: a6ec ae3d 3424 a43d b8d6 33bd 6c7b 0ebd
00000040: 4898 0fbd 2072 17bd d1e4 a93d ecb9 7e3d
00000050: fc37 413d c0c5 c9bc c028 68bd b0ba d93c
00000060: f0ca e8bd dc85 96bd 786a bb3d 20b6 cc3c
00000070: 448f 82bd e496 d53d 48fb acbc e080 97bc
00000080: 71c8 09be 861d bbbd f641 d23d 480d 67bd
00000090: 68c2 913d f249 b6bd 86fb 9dbd 81f9 abbd
000000a0: 2da2 e8bc 5883 10bd 882c d7bd 2e21 93bd
000000b0: 6a3a d83d d5b8 b33c 9f20 4e3c bb55 a03d
000000c0: 50c2 6c3c 1420 ed3d fc17 ed3d 2651 703c
000000d0: 4cd6 883d 3853 0abe b163 143e ba22 8dbd
000000e0: 3ef1 d53d 4fec d4bd ed1b a13c 0f11 6abd
000000f0: f430 f53b eae5 babd bcdc 3bbd a0a6 c5bc
00000100: b26c 523d 74ca e83c 985b 6cbd bc51 12bd
00000110: d4e0 bc3d 2880 72bd 16ee d9bd e18f 12be
00000120: d660 9b3d c076 653b 9805 1f3d 3c62 7bbd
00000130: 9c85 ae3d 888b 013d c855 5c3d e0e5 063d
00000140: 38ac d53c 74b6 46bd a322 083e bcb0 44bd
00000150: c5c1 3bbd f4d3 743d b854 67bd 0c2a 7cbd
00000160: 7281 cabd 30bf 6a3c 06dd f5bd 9a85 9e3d
00000170: 6e6f d33d 8050 68bc 009c 47bb ee6c c33d
00000180: 3ff7 05be be16 a9bd a40c 303d 80f5 653c
00000190: 7021 483d e202 e6bd 98ec 4cbd a4e5 12be
000001a0: 187d 2fbd c08a 87bd b05b 26bd 3528 51bc
000001b0: e00f b83b 23ad 933d e0d6 40bc c6fb 673d
000001c0: 7491 0abd 8863 c2bc 7803 d53c 0b53 e83a
000001d0: 105d 5f3d 5a50 e6bd 9bb0 cbbc a84e 8e3d
000001e0: 765d e5bd 5e79 43bd 4464 65bd d50e 5bbd
000001f0: 9ebb b7bb f09f b8bd 80a5 61bc 002f cb3b
00000200: 4cd9 ce3d 8ac6 27bd ef9e 903d 2afd fd3d
00000210: 9431 15bd 9a7f b43d 8afc abbd 3833 3e3c
00000220: 0021 3bba 000b bd3c 407a a2bd 306e 713c
00000230: acf1 ee3d 107d 97bc 9052 49bd c20d 83bd
00000240: 706f a33c 30d7 233d 031a 50bc 30c4 c43c
00000250: 9439 5f3d 3c2d 29bd ea7d b03d 221f a6bd
00000260: 8ad8 a63d 8094 cd3c 56ce e9bd b886 ee3c
00000270: 7403 a93d 2020 8dbd 48af d23c e0db 8ebd
00000280: 1aec edbd 2683 e1bd 64fd 8bbd d05e 0fbd
00000290: 0a5e 9dbd 084e 0abd 4848 5c3d 7197 523c
000002a0: 28cd 91bd 45c8 933d bb27 493d 2c88 593d
000002b0: d0cf 1e3c 95ce 543b 7501 10bd 5f56 633c
000002c0: 0047 15ba 18e0 dfbc 0a7d 993d 8d54 ec3c
000002d0: 7b96 ba3d f152 f9bd 7d66 77bc 581f 21bd
000002e0: 3032 33bd 14ca 89bd db49 d73d b87a f53d
000002f0: 1b43 e3bd 6ace a3bd 3ae5 debd 980b ddbc
00000300: a962 dabd d100 903c 755b 103e fca3 64bd
00000310: 06fe da3d f487 6cbd 088e 40bd 134a 2a3d
00000320: ea16 ad3d a22f bcbd 8e76 8f3d 009d 893a
00000330: f0d1 683c 20c0 db3b 202f 643c b421 4cbd
00000340: 0009 55bd 1280 f9bd 7cc8 a0bc 282c c5bc
00000350: 6c7e bebc 0cbd 3abd 5013 abbd a882 263d
00000360: d055 d43d b43e 193d f8b6 d4bc bc2c 0c3d
00000370: 7619 df3d 8495 d43d 3add e8bd 20bd dabb
00000380: 07fa 4fbc b03d 753d 7496 aa3d eead e2bd
00000390: 84af f8bd 8296 fe3d dc63 e43d 32fc c63d
000003a0: d717 be3c e590 97bc 08f6 263d 2020 14be
000003b0: 6229 92bd 3368 2abd 81d3 833d 69a1 a6bc
000003c0: fc0c c7bd c01e cabb 5ea1 bd3d 5e9a f6bd
000003d0: 0e69 a5bb b5c2 693c 87b4 aebd 6c3f eabd
000003e0: 84d6 e5bd 6c06 d2bd cf39 083e 87b4 a9bd
000003f0: 5510 78bd 70a8 2cbc 0c0e 113d 0004 abbd
-0.13507967 0.013355808 -0.055207178 0.03629969 0.10230911 0.047506705 -0.008391082 -0.062992826
0.0471448 -0.020002633 -0.08059634 -0.07121803 0.08541231 0.08014718 -0.043905944 -0.034785673
-0.035057336 -0.036974072 0.082955964 0.062189028 0.04717253 -0.024630427 -0.056679487 0.026578277
-0.11366832 -0.073497504 0.09151167 0.024989188 -0.06374982 0.10429171 -0.021115914 -0.01849407
-0.13455369 -0.091364905 0.10266487 -0.05640915 0.07117158 -0.08900823 -0.0771399 -0.083971985
-0.028397644 -0.03528151 -0.105065405 -0.07184063 0.105580166 0.02193872 0.01258102 0.07828852
0.014450625 0.11578384 0.1157684 0.014667785 0.06681499 -0.13508308 0.14491154 -0.06891389
0.10446404 -0.10396635 0.019666636 -0.057145175 0.0074826423 -0.09125884 -0.045864806 -0.024127305
0.05137319 0.02841685 -0.057704538 -0.03572248 0.0922257 -0.05920425 -0.106411144 -0.14312698
0.07586829 0.0035013407 0.038823694 -0.06137298 0.08521578 0.031627208 0.053792745 0.03293407
0.026083097 -0.048513845 0.13294463 -0.04802011 -0.04583909 0.059772447 -0.05647728 -0.061563537
-0.09887971 0.014327809 -0.120050475 0.07740326 0.10323988 -0.014179349 -0.0030457973 0.09542261
-0.13082598 -0.08256291 0.042980805 0.014035583 0.048860013 -0.112310186 -0.05003032 -0.14345413
-0.042843908 -0.06618261 -0.040614784 -0.012765934 0.005617127 0.072107576 -0.01176998 0.056636594
-0.03383012 -0.0237291 0.02600263 0.0017724944 0.05453211 -0.112457946 -0.024864485 0.06948596
-0.11199467 -0.047723167 -0.056003824 -0.05348094 -0.0056070825 -0.09014881 -0.013772368 0.006200671
0.1010004 -0.040960826 0.07061564 0.12401803 -0.036424235 0.088134006 -0.083977774 0.011608891
-0.0007138401 0.023076534 -0.079334736 0.014735743 0.11667189 -0.018492252 -0.049151003 -0.063991085
0.019950598 0.04000014 -0.012701514 0.02401933 0.05449827 -0.041302904 0.08617766 -0.08111407
0.0814677 0.025095224 -0.114163086 0.029116973 0.08252612 -0.06890893 0.025718346 -0.069755316
-0.116172984 -0.11011343 -0.0683544 -0.03500253 -0.07683952 -0.033765823 0.05377987 0.012853489
-0.071192086 0.07215933 0.049110156 0.05310838 0.009693101 0.0032471765 -0.03515764 0.013875573
-0.0005694479 -0.027328536 0.074945524 0.02884891 0.09110733 -0.12174023 -0.015100119 -0.039336532
-0.043749034 -0.067279965 0.10512134 0.11986297 -0.11096784 -0.07998355 -0.10883565 -0.026983067
-0.10663349 0.017578514 0.14097388 -0.05582045 0.106929824 -0.057746843 -0.04701045 0.04157455
0.08451636 -0.09188773 0.070050344 0.001049906 0.014210209 0.0067062527 0.013927251 -0.04983683
-0.052010536 -0.121826306 -0.019626848 -0.024068907 -0.023253642 -0.045590445 -0.08353293 0.040651947
0.1036793 0.037413314 -0.025966153 0.03422235 0.10893528 0.1038008 -0.113703206 -0.0066753775
-0.0126938885 0.059873283 0.08329478 -0.11068331 -0.12142852 0.12431051 0.11151859 0.09716071
0.023204727 -0.018501708 0.040761977 -0.1446538 -0.071367994 -0.04160328 0.064368255 -0.020340638
-0.097192734 -0.0061682165 0.09259294 -0.12041162 -0.005047924 0.014267613 -0.085305266 -0.11437878
-0.11222556 -0.10255131 0.13303302 -0.08286386 -0.06056245 -0.0105382055 0.035413787 -0.08350372

lstm.weight_hh_l1 f4 [256, 64]
00000000: d529 02be b53a 253e 6b35 d8bc c6f2 163e
00000010: 328f 2bbe caf4 293e 366f 3dbd 1fc0 e03d
00000020: 2c88 fabb d49a 28bd 7af2 00be 7f7c d23c
00000030: ae4e 853d ea12 29be be0d 2b3d 65ff 45bd
00000040: 2c0e dcbd 219e 92bd 3352 af3d 923d 753c
00000050: 49ef 943d 9094 213d bfc2 be3d eff7 ae3c
00000060: 238d 823d 09b8 b13d ab7e d8bc f468 6c3c
00000070: afd1 f43c b20c 9e3d 6234 52bd d702 62bd
00000080: f7e7 13be 6524 adbd 61b3 90bd d33a 22bd
00000090: 9c5e e43d 0613 823c 0391 4cbd 2a35 973c
000000a0: 19f5 a0bd f7fe 36bd 940e 183e 4a92 1ebd
000000b0: 1f87 d93c a439 9abd aaed 90bd e769 0d3d
000000c0: f734 1dbd b53b 1c3d d8b0 edbd 7c60 19be
000000d0: 6f37 57bd 2bd8 c93c b1a0 7ebd a9ab e6bd
000000e0: 0768 253d 7273 e3bc bd67 843c 33d5 f2bc
000000f0: a362 183e 53a1 923d 20ef 1a3e 92ee c03d
00000100: b0f0 e4bc 6aaf fb3d 61fd 2d3d a1eb 53bd
00000110: 3d0e 11be e8e3 5cbd 8146 6bbc 4787 a13d
00000120: 1927 7b3c 4ddd 83bd 4940 95bd 8407 4d3d
00000130: 52ae 26be 9e1c 14be 8a03 883b 6633 2ebe
00000140: cbc6 9ebd 6e31 a5bc c2a8 47bd c22a a23c
00000150: 564c 3abd ff84 eb3d 626c 1b3d 75c9 b53d
00000160: f1f4 95bc 305c 013e 0870 e5bd c393 5d3d
00000170: 80db 2f3c 950b 31bd 8ed5 87bb cfd0 10bd
00000180: 5064 ca3c 2e8a eebc 1fed 083e 671b f93d
00000190: 6cb0 333c 9f66 b3bc 307a 70bd 472a 773d
000001a0: d6fc 52bd 7ef8 4fbd ed09 c03b a0b9 23bd
000001b0: 4656 df3c ab5c 88bd ef1c 00bd 0a69 3bbd
000001c0: 2f03 afbd 1e07 933d afbc dbbd b334 aa3c
000001d0: 5ac6 c6bc 89ed 163c f85b 913d 6fab 33be
000001e0: 295a 0fbd 4a7f b73d b7cc 003d bf8c 2f3e
000001f0: 313b ac3d 10aa b4bc ac6f 433d e978 133e
00000200: 2aee 54bb 2018 073e c164 c3bc 74c9 cfbc
00000210: c700 cabd c271 c3bd f0c4 9abd 9539 9fbd
00000220: e303 94bd 2519 7b3d d28d 553d 1cf0 553d
00000230: b81c e83c 2765 c4bd 83d4 803d d7e7 30bd
00000240: 95bf 17bd d633 0e3d d5b3 8c3d 8268 743d
00000250: 999d 46ba b53b 8dbd 3fa3 063e d4e0 e5bc
00000260: e215 bcbd feca 80bd 40e7 3c3c aa69 abbb
00000270: 3ea8 fcbd 4a84 0f3e 3695 23be ba09 11be
00000280: 531b 5f3c 2462 9a3c ea74 123e 3a5b a63c
00000290: f071 a73d 70f1 76bc b2c8 0f3d 1f81 febd
000002a0: bbdb 79bd fe01 8b3d 7099 d73c 03fc f03c
000002b0: 85f5 a73d 664a a6bd fee6 963d 5b9d 39be
000002c0: 95e6 203d 66a5 413d 3195 1b3d b1b4 5ebd
000002d0: 3cb2 783d db65 27bd cced bbbd 1c91 b9bd
000002e0: 1e41 7abd 95d0 0cbd 42f7 863c d074 be3d
000002f0: bf4d 083e d70d 803d 71fc 09bd 3172 113e
00000300: 9509 2a3d 6200 903d 6ba2 083e 2ec5 a73d
00000310: 67eb 4a3d 131a 61bc 15f9 dd3d dc34 8b3c
00000320: 4100 db3c e50c cf3d a6c7 2b3d 6026 9bbc
00000330: 9456 fabd 61a4 393d 899b 393c c8d5 c2bd
00000340: d2a6 91bd 70cf 203e 9c2f b4bd e868 223e
00000350: 969e 3cbd 1299 8dbd 3f24 203e 5073 b33c
00000360: 72b3 65bd 4157 54bd f7cd 10be d4fc 91bd
00000370: a41d 00be 6fd4 a7bb 1861 33bc c12f 1cbe
00000380: 7256 2c3d c33c 07be 64b3 673d 1570 543d
00000390: 1188 43bd 0169 cabd 9b47 133d 22f0 d3bd
000003a0: d87d cdbd 10b5 cf3d 089b 233e 28da 05bd
000003b0: 9235 233d 4c2a d7bd 603f 12bd 22ff b9bc
000003c0: d7de c1bd a5fa 8bbd 794c d8bd 14d9 9fbd
000003d0: 1adb 21bc 6539 5dbd bfc5 8abd c6e2 a23d
000003e0: 13f8 793d 8ac2 ec3d a942 843d f6dd 013b
000003f0: 1e8e e23d c2ce 4c3c bf8f 10bd c52c 183e
-0.1271127 0.16135676 -0.02639266 0.14741048 -0.16753843 0.16597286 -0.046248637 0.10974144
-0.0076456275 -0.04116328 -0.12592497 0.02569413 0.065091476 -0.16511121 0.041761152 -0.048339266
-0.107448906 -0.07159067 0.085606 0.014968293 0.072722025 0.03944832 0.093144886 0.021358458
0.06374576 0.0867768 -0.026427587 0.01442932 0.029885141 0.07717265 -0.051319487 -0.05517849
-0.14443956 -0.08454207 -0.07065464 -0.03960688 0.11150858 0.015878212 -0.04994298 0.018457968
-0.07859249 -0.044676747 0.14849311 -0.03871373 0.026553689 -0.07530525 -0.07076581 0.034524824
-0.03838059 0.03814288 -0.11605996 -0.14978212 -0.0525431 0.02463921 -0.062164966 -0.1126321
0.04038241 -0.02776501 0.016162748 -0.029642677 0.14881377 0.071596764 0.15130281 0.09420504
-0.0279468 0.12289317 0.04247797 -0.051738385 -0.14165588 -0.053928286 -0.014360071 0.0788713
0.015329146 -0.06438694 -0.07287652 0.050055996 -0.16277435 -0.14464042 0.0041508125 -0.17011794
-0.077527605 -0.020165171 -0.048744924 0.01979578 -0.045482956 0.11499976 0.03794516 0.088763155
-0.018305274 0.12632823 -0.11203009 0.054095995 0.010733485 -0.043223936 -0.0041453307 -0.035355385
0.024706036 -0.029118624 0.13371705 0.1216343 0.010967355 -0.02189952 -0.058710277 0.060343053
-0.051510654 -0.05077409 0.0058605582 -0.039971948 0.027262818 -0.066583 -0.031277593 -0.04575447
-0.08545529 0.07179092 -0.10729348 0.020777082 -0.024264503 0.009211906 0.0709762 -0.17545865
-0.034998093 0.08959825 0.03144523 0.17143534 0.08409727 -0.022053748 0.04771392 0.14401592
-0.003249059 0.13192797 -0.023851754 -0.025364615 -0.098634295 -0.09543182 -0.07557094 -0.07774655
-0.07227304 0.061303277 0.052137204 0.05223094 0.028334007 -0.09589606 0.062905334 -0.04318985
-0.03704794 0.034717403 0.06870238 0.05966998 -0.00075765845 -0.06896154 0.13148211 -0.028061308
-0.09183861 -0.06288718 0.011529744 -0.005231102 -0.12336777 0.14015308 -0.15974888 -0.14163867
0.013617354 0.018845625 0.14302412 0.020307172 0.08176029 -0.015072212 0.035103507 -0.12426972
-0.061000567 0.06787489 0.026318282 0.029417044 0.08201126 -0.08119659 0.07368277 -0.18126433
0.0392824 0.047276877 0.037984077 -0.05437154 0.060716853 -0.04086862 -0.091762155 -0.090608805
-0.061097257 -0.034378607 0.016475324 0.09299624 0.13310908 0.0625264 -0.033688013 0.14203717
0.041513044 0.07031323 0.13343208 0.08191906 0.049540903 -0.013739127 0.10838524 0.016992979
0.02673352 0.10109881 0.041938446 -0.018939197 -0.12223545 0.04532278 0.011328586 -0.09513432
-0.071118966 0.15704131 -0.08798143 0.15860331 -0.046049677 -0.069139615 0.15638827 0.021905571
-0.056079336 -0.051841024 -0.1414107 -0.07128301 -0.12511307 -0.0051217596 -0.010948442 -0.15252592
0.04207463 -0.13206773 0.056567565 0.051864702 -0.047737185 -0.09883309 0.03595696 -0.10348536
-0.100337684 0.10141957 0.15977108 -0.032678753 0.03984601 -0.10506114 -0.03570497 -0.022704665
-0.094663315 -0.06834916 -0.10561461 -0.07805076 -0.009878898 -0.054009814 -0.06775998 0.0795341
0.061027598 0.11560543 0.06458027 0.0019816137 0.11062263 0.012500467 -0.035293337 0.14860828

lstm.bias_ih_l1 f4 [256]
00000000: c496 be3d 73c8 253e f047 66bb 6fad 203e
00000010: 6efb 023e 8cf6 04bd 2d0b 96bd ff86 81bd
00000020: 97fb 153e a258 fa3d 9a49 013d 1af0 6dbd
00000030: 2b07 c13d 0f6c 39bd e94a 903b f940 36bc
00000040: 4de9 413d 1de8 aebc 3de6 93bd b9c2 33bd
00000050: 8d90 8ebd 4f3a 0d3e 15f9 cc3d fa9f 4c3d
00000060: d431 ee3b b972 42bd 8cb7 d63d c148 ae3d
00000070: 119b 033e a535 003e 657c 303d 1282 4a3d
00000080: 33f4 0fbd e397 82bb 12e4 1fbd f46d edbc
00000090: 8234 0f3d 0e5e 863d 8d79 f53d 3616 5fbd
000000a0: 5ba6 8f3d 4b88 b33d 0771 0dbd 69d6 7cbd
000000b0: 32d3 123e 0e5c 9c3c adcc 2dbd 614c 93bd
000000c0: f14a 1a3d ed98 8bbd b85e 9d3d 3e59 863a
000000d0: f210 a03d d35d f73d c8f5 57bb 6815 82bd
000000e0: 181c a5bd 3872 2d3d 1972 3e3d 00ca 6fbd
000000f0: 4b11 5cbd ec61 ad3d c05a de3d 6f6f 9c3c
00000100: e3e8 9a3c f7e8 3c3d e12f 9f3d 8dca 893d
00000110: c8dd 3cbd 4314 c93d 6d12 a1bd 9710 e73c
00000120: f767 f53d f631 1c3e da50 9d3d 440e 10bc
00000130: d668 57bd 8fce 013e d070 1a3b 0a04 e53d
00000140: 99e8 943d 3540 f23d f36b f3bc 8c95 c73d
00000150: 8ef2 113e ec4a 8f3d 4911 973a c3ee d83d
00000160: 30e4 8e3d 3e8e 963c 2246 c83c 9332 1d3e
00000170: c876 463a ace5 ca3c 79f0 273d 9301 3fbd
00000180: ed95 6f3d 9d50 973d 32b7 6f3c f493 483d
00000190: 7875 81bd d92c 72bd 893a e5bc 7002 b7bd
000001a0: 5999 fe3d 744a 26bd 7bf0 aabc 664a aa3d
000001b0: 85a1 c3bc d007 273e eb3d d83d f0b0 9b3d
000001c0: 2624 763c 3290 9ebc 29a6 0bbd 7598 143d
000001d0: 2fc7 0b3e 0633 663d 584f 04bb ea68 c73d
000001e0: a2fe fb3d 1017 85bd cdc5 9e3d c4c3 103e
000001f0: 4b74 c6bc 31d6 f33d 7a07 a33c 4f13 9abd
00000200: 00c9 0c3d 5fbe f53d 52ca d93b 22f1 8cbc
00000210: db21 79bd a366 0e3e b05d 6fbd d326 4f3d
00000220: 3329 a33d 8fa9 7f3d 9833 043c 9745 983b
00000230: d021 65bd 847b 10bd be2d d93d 8191 523c
00000240: 8d46 edbd 6f54 97bd feb9 d6bd 3f01 ab3d
00000250: a1c4 de3c eaac 093e b60f 893d 2202 49bd
00000260: 2d30 173e dcf1 cd3d 6c8a 04be bddc 00be
00000270: 8611 55bc 8ef3 8a3c 989a c43c a0a9 0fbe
00000280: 46f5 90bd b175 bb3d 150b db3d 9bd7 073e
00000290: 24dc 123e a997 41bd 5062 b8bd c7f3 9abb
000002a0: 6534 e5bc 0134 83bd 0bd3 19bd 160e 9fbc
000002b0: ecb5 07bd d7cf 0fbe 861d 95bd 081f ad3d
000002c0: d22a 10be de1f a3bd d2f6 c5bd 819a 8ebd
000002d0: 2617 9dbd aa29 0a3e 6900 7bbd 5ab7 04be
000002e0: e828 af3c 6180 6c3d 4a0b 96bc 0543 c43d
000002f0: 5753 84bd ee1a 55bd cee0 f53b 18c3 de3c
00000300: d2d9 403e 0210 ed3c b3da 15bd f5c2 3d3d
00000310: 70f0 0fbd 9b88 e5bc d6a9 043e ab92 493e
00000320: c6f7 293e 01a0 803c a580 d23d f100 863d
00000330: ccba df3c 0e27 27bc e0bb 363d 2a25 ba3d
00000340: c4c8 0f3e 6374 4b3e d12c 1a3e a4ff 893d
00000350: c9f8 2a3e 884c 473d b026 913b d9dd e93d
00000360: 4fe7 163e df5d b43d 8c4e 163e 2558 3bbd
00000370: fc54 d6bc 181c 123d 1b8e 753d 01af 0d3d
00000380: ef54 f2bc b7b4 1d3e 630e ef39 9fbc ee3d
00000390: 9fd1 cc3c b0d4 8b3d 9c5d 363e 81ad ca3b
000003a0: 5493 193e 997e 2dbd b59d 2f3e 3c65 013e
000003b0: ebd4 263e c24d 713d 0549 c13d 2ade ed3d
000003c0: 1299 cc3c 7671 203e cbc5 f73d 3d0e 8c3d
000003d0: 35fd 5a3d f02a b23d 95c4 e43d 4aff 353e
000003e0: 2739 1a3e ee8e 89bc a14d bb3d 4fb8 b93d
000003f0: c994 2d3e 1bcb 533d 8677 433d fc10 313c
0.093061 0.16189747 -0.0035138093 0.1569116 0.12791225 -0.032461688 -0.0732635 -0.063245766
0.14646755 0.122239366 0.031564333 -0.058090307 0.09425195 -0.04526907 0.0044034612 -0.011123889
0.047341634 -0.021350915 -0.07221649 -0.043886874 -0.069611646 0.13791774 0.10008446 0.049957253
0.0072691236 -0.04747269 0.104842275 0.085099705 0.12852122 0.12520464 0.043087382 0.04944045
-0.035144996 -0.0039853915 -0.039035864 -0.028983094 0.034962185 0.06560908 0.119860746 -0.05446454
0.07014152 0.0876623 -0.03453162 -0.061727915 0.14338377 0.019086864 -0.042431522 -0.071923025
0.037669126 -0.06816278 0.07684082 0.0010249985 0.07815732 0.120784424 -0.0032952894 -0.06351739
-0.08061999 0.042345256 0.04649553 -0.05854225 -0.05372743 0.08465943 0.10857153 0.019096104
0.018909877 0.04612061 0.07772804 0.067280866 -0.046109945 0.09818318 -0.078648426 0.028206153
0.1198272 0.15253434 0.07681437 -0.008792464 -0.052590214 0.12676452 0.0023565777 0.11182411
0.07270927 0.11828653 -0.02971456 0.09745321 0.14252684 0.06996712 0.0011525537 0.10592415
0.06977117 0.018378373 0.024447504 0.15351324 0.00075708004 0.02476772 0.041000817 -0.04663236
0.05849259 0.07388423 0.0146310795 0.048969224 -0.063212335 -0.0591248 -0.027982013 -0.08936012
0.124315925 -0.040598348 -0.020866623 0.083149716 -0.02388073 0.16311574 0.10558685 0.076021075
0.015023267 -0.019355867 -0.03409401 0.036278207 0.13650201 0.056201003 -0.0020188894 0.09736808
0.12304427 -0.064985394 0.07752571 0.14137179 -0.024225375 0.11906088 0.019901026 -0.07523214
0.034371376 0.11999201 0.006646433 -0.017204825 -0.060823303 0.1390634 -0.058438957 0.050574135
0.079668425 0.062417563 0.0080689415 0.0046469676 -0.05594045 -0.035274044 0.10604428 0.012852074
-0.11585722 -0.07389151 -0.10484694 0.08349847 0.02719337 0.13444868 0.0669245 -0.0490743
0.14764471 0.10055897 -0.12943429 -0.12584205 -0.013004666 0.016961839 0.023999497 -0.1402955
-0.07078032 0.09153307 0.10695473 0.1326584 0.1434179 -0.047263775 -0.090031266 -0.0047287676
-0.027979085 -0.06406403 -0.037554782 -0.019415896 -0.03313248 -0.14044128 -0.07281022 0.08453184
-0.14078835 -0.079650626 -0.09666218 -0.06963063 -0.07670431 0.13492456 -0.061279688 -0.12960568
0.02138181 0.05773962 -0.01831593 0.095830955 -0.06461208 -0.052027635 0.0075036054 0.027192637
0.18833092 0.028938297 -0.03658552 0.046328504 -0.03514141 -0.02801924 0.12955412 0.19684856
0.16598424 0.015701296 0.10278443 0.06543148 0.027310751 -0.010202182 0.044612765 0.0908912
0.1404143 0.19868617 0.15056159 0.06738213 0.16696467 0.04865697 0.0044296607 0.11419267
0.14736675 0.08806967 0.14678401 -0.045738358 -0.02616357 0.035671324 0.059949975 0.034590725
-0.029581515 0.15400968 0.0004559635 0.1165707 0.025002299 0.06827676 0.17809147 0.006185234
0.14997607 -0.04235706 0.17150004 0.12636274 0.1629216 0.058912046 0.094377555 0.1161464
0.024975333 0.15668282 0.12098273 0.06838653 0.053464133 0.08699596 0.111703075 0.17773166
0.15060864 -0.016791787 0.09145666 0.09068357 0.16951288 0.05170737 0.04772141 0.010807272
