project/models/BiLSTM/Apple.pth (torch, 15461 bytes, 9 tensors)

forward_lstm.weight_ih_l0 f4 [64, 5]
0	0xbe6e6d96	-0.23283991
1	0x3e328f02	0.17437366
2	0xbc1401c0	-0.00903362
3	0x3dec7d98	0.115473926
4	0xbe5fdcb4	-0.21861535
5	0x3ddbb224	0.10727337
6	0x3d97e4c4	0.074166805
7	0x3dc586d8	0.0964486
8	0xbe44fcce	-0.19237062
9	0x3c237960	0.0099776685
10	0xbded828c	-0.115971655
11	0x3e01a19e	0.12659308
12	0xbcebbe20	-0.028777182
13	0x3a1e7800	0.0006045103
14	0x3e7d58a8	0.24740851
15	0xbd937e38	-0.07201809
16	0x3e3e170c	0.18563479
17	0xbaf46f00	-0.0018648803
18	0xbca52250	-0.020157963
19	0xbc693f40	-0.014236271
20	0xbd384730	-0.044989765
21	0xbd4c0a78	-0.04981467
22	0xbe62bd3c	-0.221425
23	0xbe7c1b58	-0.24619806
24	0xbe41366c	-0.18868417
25	0xbd24e2b8	-0.04025528
26	0xbe63b574	-0.22237188
27	0x3b216f00	0.0024632812
28	0xbd8f1340	-0.069860935
29	0xbe425fb4	-0.1898182
30	0xbd06d908	-0.03292182
31	0x3deacb14	0.11464515
32	0x3e661c96	0.22471842
33	0x3e29fe2c	0.16600865
34	0x3c0d8320	0.00863722
35	0xbdb6dd50	-0.08928931
36	0xbe3c9df4	-0.1841963
37	0xbded4284	-0.115849525
38	0x3dd416c8	0.10355908
39	0xbd8e7470	-0.069558024
40	0xbdfc5468	-0.12320787
41	0x3e4022e0	0.18763304
42	0xbe13b588	-0.14424717
43	0x3e098faa	0.1343371
44	0x3d15f128	0.036606938
45	0xbe655af6	-0.2239798
46	0x3df2c384	0.11853698
47	0xbd9fd620	-0.07804513
48	0xbe71059c	-0.23537296
49	0x3df46644	0.11933568
50	0xbd74bef0	-0.059752405
51	0x3e38eb0a	0.1805841
52	0x3d199d10	0.037503302
53	0xbe0bc5ca	-0.1364967
54	0xbe52cb6c	-0.20585412
55	0xbe2214c2	-0.15828231
56	0x3e7d9b12	0.24766186
57	0xbe6de6e8	-0.23232615
58	0xbdeac8d8	-0.11464089
59	0x3e539736	0.20663151
60	0x3e6f4484	0.2336598
61	0xbdc29bc4	-0.09502366
62	0x3dbfa468	0.0935753
63	0xbe2654d4	-0.16243297
64	0x3dc9dfa4	0.09857109
65	0x3da1df18	0.0790388
66	0x3e00c3d4	0.12574703
67	0xbd2650f0	-0.04060453
68	0xbc46c820	-0.012132674
69	0x3cda87a0	0.026676
70	0xbd8dd770	-0.06925857
71	0xbce85520	-0.028360903
72	0x3deb4b4c	0.11488971
73	0xbc290f00	-0.010318518
74	0xbe1fbf54	-0.1560033
75	0xbe045cd6	-0.12926039
76	0x3d8ab248	0.06772286
77	0x3d91f9bc	0.07127711
78	0xbe1b0b22	-0.15140966
79	0x3d1997f0	0.037498415
80	0x3d8806b4	0.066419035
81	0xbd6529f8	-0.055948228
82	0xbd766730	-0.060157
83	0xbd143818	-0.036186308
84	0xbd89e9c0	-0.067340374
85	0x3e179904	0.14804465
86	0xbe473ea6	-0.19457492
87	0x3e305d8a	0.17223182
88	0x3e31123e	0.17292115
89	0x3c6a53c0	0.014302194
90	0x3d8868e4	0.06660631
91	0x3e16f8ea	0.1474339
92	0xbe59ff66	-0.21288833
93	0x3d9d2b38	0.07674259
94	0xbc901820	-0.017589629
95	0xbdcccca8	-0.099999726
96	0x3e33e7c0	0.17568874
97	0x3d834d20	0.06411195
98	0x3c867700	0.016414165
99	0x3e4e7a28	0.20163786
100	0x3bdf10c0	0.0068074167
101	0xbe7a7da2	-0.24461988
102	0xbe126d34	-0.1429947
103	0x3e0b35a6	0.13594684
104	0xbe3b183a	-0.1827096
105	0xbd6cff08	-0.057860404
106	0xbe2a8b56	-0.16654715
107	0x3c849510	0.01618436
108	0xbdc9eb8c	-0.0985938
109	0xbd1aba28	-0.03777519
110	0x3dd122c0	0.10211706
111	0xbe535514	-0.20637923
112	0x3e0bfab2	0.13669851
113	0xbd9e546c	-0.07730946
114	0xbe3aa07e	-0.18225285
115	0x3e6ca398	0.23109281
116	0xbe5d67ee	-0.21621677
117	0x3d83c8bc	0.064347714
118	0x3e03a110	0.12854409
119	0xbd753e78	-0.059874028
120	0xbdf59948	-0.11992127
121	0x3c858850	0.01630035
122	0x3e26f866	0.16305694
123	0x3a8e0300	0.0010834634
124	0x3e329846	0.174409
125	0x3e520670	0.20510268
126	0x3d609350	0.05482799
127	0xbe2c59e2	-0.16831163
128	0x3dc4ea74	0.09615031
129	0xbdbc766c	-0.09202275
130	0xbe62efe0	-0.22161818
131	0xbcf04650	-0.029330403
132	0xbdfad6cc	-0.122480005
133	0xbdbce01c	-0.09222433
134	0xbd86b960	-0.06578326
135	0xbe06d57c	-0.13167375
136	0xbe161b00	-0.14658737
137	0xbdc63c58	-0.096794784
138	0x3d3ff2f0	0.046862543
139	0x3cde5570	0.02714035
140	0x3db0a7dc	0.08625767
141	0x3d95b08c	0.07309064
142	0x3db57820	0.08860803
143	0x3cb53740	0.022121072
144	0x3e62fd5e	0.22166964
145	0xbe4a94d6	-0.19783339
146	0x3e687b92	0.22703388
147	0x3d5b1910	0.0534907
148	0x3e5c4e76	0.21514305
149	0x3de307b8	0.110854566
150	0xbe0e3cc6	-0.1389037
151	0xbe2465c0	-0.1605444
152	0x3d309b98	0.043117136
153	0x3e5dee72	0.21672991
154	0xbdd4d050	-0.10391295
155	0xbddb250c	-0.107004255
156	0xbd1b8768	-0.03797093
157	0xbe3778f2	-0.1791723
158	0x3def5f9c	0.11688158
159	0xbc924650	-0.017855793
160	0x3e42c3b0	0.19019961
161	0xbdb03c9c	-0.0860531
162	0xbdadec98	-0.08492392
163	0xb9a9b800	-0.00032371283
164	0x3de55794	0.11198345
165	0xbe31d416	-0.1736606
166	0xbd9637ec	-0.07334885
167	0x3e7a0ecc	0.24419707
168	0xbd9065a8	-0.070506394
169	0xbd1a5d80	-0.037686825
170	0xbd8236c8	-0.06358105
171	0xbce58410	-0.028017074
172	0xbe3bde82	-0.18346599
173	0xbdeb15b8	-0.11478752
174	0xbe15e83a	-0.14639369
175	0xbe491d6e	-0.19640133
176	0x3d5b9788	0.05361131
177	0xbcf053e0	-0.02933687
178	0x3dcaa4a4	0.09894684
179	0x3e139586	0.14412507
180	0xbe2bb788	-0.1676923
181	0xbdc9f590	-0.098612905
182	0xbb887a00	-0.004164934
183	0xbddd6e48	-0.1081205
184	0x3e4b931a	0.19880334
185	0xbe28bc7e	-0.16478154
186	0x3e6c7ab0	0.23093677
187	0xbe2dc612	-0.16970089
188	0xbd9cb384	-0.076514274
189	0x3d270c10	0.040782988
190	0x3d8f3704	0.06992915
191	0x3d93ec44	0.072227985
192	0xbe05d082	-0.1306782
193	0xbd176c90	-0.036968768
194	0xbe67e25c	-0.22644943
195	0xbdef4664	-0.11683348
196	0x3db79aec	0.08965096
197	0xbc0b7d40	-0.008513749
198	0xbe5620f8	-0.20911014
199	0xbe5089bc	-0.20365041
200	0x3e10ed26	0.14152965
201	0xbe4f8fe8	-0.2026974
202	0xbbacf380	-0.005278051
203	0xbe56e23e	-0.20984742
204	0x3e1ae500	0.15126419
205	0x3ddca5b0	0.1077379
206	0x3e12b962	0.1432853
207	0xbd838c54	-0.0642325
208	0xbc671f20	-0.014106542
209	0x3d120d68	0.035657316
210	0x3e0302f8	0.12794101
211	0xbc6660c0	-0.014061153
212	0xbe198ec6	-0.1499587
213	0x3d4ac060	0.04949987
214	0xbda6388c	-0.08116254
215	0x3e69fbf8	0.22850025
216	0xbe14553e	-0.14485642
217	0xbe11ead6	-0.14249739
218	0x3e152e88	0.14568532
219	0xba33e200	-0.0006861985
220	0xbdc921f0	-0.09820926
221	0xbdaefdb4	-0.08544484
222	0xbd788140	-0.060670137
223	0xbe3e84e2	-0.18605378
224	0xbe067220	-0.13129473
225	0x3d9ede38	0.077572286
226	0xbd8879ac	-0.06663832
227	0xbd8731c4	-0.06601289
228	0x3df63934	0.120226294
229	0xbd890248	-0.06689888
230	0xbe616304	-0.22010428
231	0xbe4c3830	-0.19943309
232	0x3d9145cc	0.07093391
233	0xbe1b3e94	-0.1516059
234	0x3e7f3a72	0.24924639
235	0xbcad56a0	-0.02115947
236	0x3e66bc32	0.22532728
237	0x3e25355e	0.16133639
238	0x3c722d40	0.014781296
239	0xbd9a9794	-0.075484425
240	0xbc66bc80	-0.014083028
241	0xbe55d992	-0.20883778
242	0xbe1032d2	-0.14081886
243	0xbd8b3104	-0.06796458
244	0xbe1642e2	-0.14673951
245	0xbd6737d0	-0.05644971
246	0xbe618e14	-0.22026855
247	0x3e48b332	0.19599608
248	0xbdbc8770	-0.0920552
249	0xbe65eff8	-0.22454822
250	0x3e46ecbe	0.19426247
251	0x3e697d4a	0.228017
252	0xbcc44290	-0.02395752
253	0xbcfbea60	-0.030751407
254	0xbe30379a	-0.1720871
255	0x3e27f592	0.16402271

forward_lstm.weight_hh_l0 f4 [64, 16]
0	0x3e474d3a	0.19463053
1	0x3e7ed686	0.24886522
2	0xbe39e840	-0.18155003
3	0xbe758420	-0.23976183
4	0x3dc8a564	0.09797171
5	0xbe71d386	-0.23615846
6	0x3e0455a8	0.129233
7	0x3e0d71f0	0.13812995
8	0x3e3b6d1e	0.18303344
9	0x3dd52b28	0.10408622
10	0xbad0ef00	-0.0015940368
11	0x3e43e64e	0.19130823
12	0x3e161b04	0.14658743
13	0x3e006500	0.12538528
14	0xbd14a908	-0.036294013
15	0x3b914780	0.0044335723
16	0xbc397b60	-0.011320919
17	0xbe71ceec	-0.2361409
18	0x3dbff9e0	0.09373832
19	0xbe5ae8f0	-0.21377921
20	0x3d8e9134	0.06961289
21	0xbdadd138	-0.08487171
22	0x3b5ae100	0.003339827
23	0x3dd7c16c	0.10534939
24	0x3de94408	0.11389929
25	0xbd6d1b38	-0.057887286
26	0x3dec2b20	0.11531663
27	0xbe3139aa	-0.17307153
28	0xbe2b8fdc	-0.16754097
29	0xbd7ba278	-0.06143424
30	0xbe4cdfa2	-0.20007184
31	0x3db38528	0.08765632
32	0xbe565068	-0.2092911
33	0xbe06b46e	-0.13154766
34	0x3e018256	0.12647375
35	0x3cf2e4a0	0.029650033
36	0x3d31d110	0.04341227
37	0x3d29d128	0.041459233
38	0xbe29a140	-0.16565418
39	0xbdde93b0	-0.10868013
40	0x3e60857a	0.21925917
41	0xbdc27180	-0.09494305
42	0xbdd09e44	-0.10186437
43	0x3e12e30c	0.14344424
44	0x3d95edf8	0.073207796
45	0x3db6a694	0.08918491
46	0x3e236b38	0.1595887
47	0x3dabadfc	0.08382794
48	0xb9edb400	-0.00045338273
49	0xbde45144	-0.11148313
50	0x3c8aceb0	0.01694426
51	0xbdc9023c	-0.09814879
52	0x3e282062	0.16418603
53	0xbe4481ca	-0.19190136
54	0x3e1c1bdc	0.15245003
55	0xbd94c5fc	-0.07264325
56	0xbda514fc	-0.08060643
57	0x3d232608	0.03983119
58	0xbcf207d0	-0.02954474
59	0x3e70caea	0.23514906
60	0x3e4a0594	0.1972869
61	0x3e379474	0.17927724
62	0x3c452020	0.012031585
63	0xbdd12498	-0.10212058
64	0xbe508e0e	-0.2036669
65	0x3e274004	0.16333014
66	0xbe586ebe	-0.21135995
67	0x3dca9664	0.09891966
68	0xbe465d38	-0.19371498
69	0xbdcb96dc	-0.099408835
70	0x3e7ce286	0.24695787
71	0xbcda71d0	-0.026665598
72	0x3d9f0edc	0.07766506
73	0xbc805930	-0.015667528
74	0x3d1cf150	0.03831607
75	0x3e42509e	0.18976066
76	0xbe7455ea	-0.23860899
77	0xbe2847aa	-0.16433588
78	0x3e1e22a4	0.15442902
79	0xbe364548	-0.17799866
80	0x3bf00980	0.0073253512
81	0xbde202b4	-0.11035672
82	0xbe6457a4	-0.22299057
83	0xbde273f8	-0.110572755
84	0x3e25ff90	0.1621077
85	0xbe5b17a4	-0.21395737
86	0x3dbf5fb4	0.09344426
87	0x3e0fff30	0.1406219
88	0x3e17ee24	0.14836937
89	0xbe6b1fe6	-0.22961387
90	0x3e74c744	0.23904139
91	0x3e711b46	0.2354556
92	0xbdaaf8c8	-0.083482325
93	0x3d14b460	0.03630483
94	0x3de393c8	0.111121714
95	0xbda33ccc	-0.079705805
96	0xbdfc2720	-0.1231215
97	0xbd5c2d08	-0.053753883
98	0x3dad8ba8	0.08473903
99	0x3d832474	0.06403437
100	0x3d419188	0.04725793
101	0xbe739eca	-0.23791042
102	0xbe4ee35e	-0.20203921
103	0x3e5c9e5c	0.21544784
104	0x3e39280c	0.18081683
105	0xbd187020	-0.037216306
106	0xbd1bc800	-0.03803253
107	0xbd0319a8	-0.03200689
108	0xbd946e64	-0.07247618
109	0xbe3eb008	-0.18621838
110	0x3e5ee50a	0.21767059
111	0xbe546b90	-0.20744157
112	0x3e4ed07c	0.20196718
113	0x3e48d98a	0.19614235
114	0xbe0ba120	-0.13635683
115	0x3e68ee1e	0.22747084
116	0xbd985938	-0.07438892
117	0xbdedb87c	-0.11607453
118	0x3d893424	0.06699398
119	0x3e4a000e	0.19726583
120	0xbe3bec0a	-0.1835176
121	0xbe3d02d2	-0.18458107
122	0x3dba6760	0.091017485
123	0xbe746034	-0.23864824
124	0xbd042cb8	-0.03226921
125	0xbdd64e00	-0.10464096
126	0x3e11d6f2	0.14242151
127	0x3dbf6fb0	0.093474746
128	0xbde3b660	-0.1111877
129	0xbe74f50a	-0.239216
130	0x3e4f7272	0.20258501
131	0x3deb087c	0.11476228
132	0x3e3e5f3a	0.18591014
133	0x3d111020	0.03541577
134	0x3e75c58c	0.2400114
135	0xbe4b49d6	-0.19852385
136	0x3e565cf2	0.20933893
137	0x3e19f770	0.15035796
138	0x3e31b24c	0.17353171
139	0x3d357e10	0.044309676
140	0x3e19ff54	0.15038806
141	0x3cdbb3f0	0.0268192
142	0x3d0d4650	0.034490883
143	0xbe658d02	-0.22417071
144	0xbc6ac380	-0.014328837
145	0xbe00e7f4	-0.12588483
146	0xbe203ce8	-0.15648234
147	0xbcb76b20	-0.022389948
148	0x3e7f70d6	0.24945387
149	0x3e03658a	0.12831703
150	0xbe61c126	-0.22046337
151	0xbe4c5e3a	-0.1995782
152	0x3e2b148e	0.1670706
153	0x3e08ca24	0.1335836
154	0x3e7b4292	0.24537113
155	0xbde46dcc	-0.111537546
156	0xbd46a3b0	-0.04849595
157	0xbd9e44f4	-0.077279955
158	0x3c77b700	0.015119314
159	0x3d2a4138	0.041566104
160	0x3ddaedf4	0.10689917
161	0xbe7cea5a	-0.24698773
162	0x3be624c0	0.007023424
163	0x3e788dfa	0.2427291
164	0xbe1f5f26	-0.1556364
165	0xbe4e8fc0	-0.20172024
166	0xbdec8d1c	-0.11550352
167	0xbcf61310	-0.030038387
168	0xbe5582c2	-0.20850661
169	0x3e046fcc	0.12933272
170	0x3e1c1a78	0.15244472
171	0x3cffeb10	0.031240016
172	0xbe7742a2	-0.24146512
173	0xbe0356c6	-0.1282607
174	0xbdfe6010	-0.12420666
175	0xbb50ab00	-0.0031840205
176	0xbbc4e280	-0.006008446
177	0x3d9bb238	0.07602352
178	0x3e226bb6	0.15861401
179	0xbe2c80da	-0.16846028
180	0x3df1efc4	0.1181331
181	0x3d88dd8c	0.06682882
182	0x3e52aaa2	0.20572904
183	0xbe186b3c	-0.14884657
184	0xbe21078a	-0.15725532
185	0xbda63584	-0.08115676
186	0x3da76a58	0.0817458
187	0xbdaa188c	-0.08305463
188	0x3d284f38	0.041091174
189	0xbc14d9c0	-0.009085119
190	0x3e5e6494	0.21718055
191	0xbe1baec2	-0.15203384
192	0xbca2b730	-0.019862741
193	0xbdb3e8e4	-0.08784655
194	0x3e7f1da4	0.24913651
195	0xbe468840	-0.19387913
196	0x3d71dd20	0.05904877
197	0x3db793a0	0.08963704
198	0x3c95e850	0.018299252
199	0xbdc8057c	-0.09766671
200	0xbd278e40	-0.040907145
201	0xbe6699a6	-0.2251955
202	0xbe6b89aa	-0.23001733
203	0x3e27ce12	0.16387203
204	0xbe75bbe8	-0.23997462
205	0x3e52a858	0.2057203
206	0xbe24e9ea	-0.16104856
207	0xbe5ce96e	-0.21573421
208	0xbd9a4868	-0.07533342
209	0x3de84a7c	0.11342332
210	0x3e1dfc84	0.15428358
211	0xbdbf05e8	-0.093272984
212	0x3e51fe40	0.20507145
213	0x3d1f19b8	0.038842887
214	0x3e45583c	0.1927194
215	0x3c7570e0	0.014980525
216	0xbcac6400	-0.021043777
217	0xbdd560e8	-0.10418874
218	0xbcc77420	-0.024347365
219	0x3df57024	0.1198428
220	0xbde09b24	-0.10967091
221	0x3d8f8800	0.07008362
222	0xbe06f65a	-0.13179913
223	0xbe597dea	-0.21239439
224	0xbdf0f96c	-0.117663234
225	0xbdecbf54	-0.115599304
226	0x3dc63de4	0.096797734
227	0xbe64df82	-0.22350886
228	0x3e0ba7f2	0.13638285
229	0x3e226ea4	0.15862519
230	0x3de52e5c	0.11190483
231	0x3db25bd0	0.08708918
232	0xbd516ec0	-0.05113101
233	0x3c316880	0.010828137
234	0xbe6a7114	-0.22894698
235	0x3e20d9b6	0.1570805
236	0xbe32312c	-0.1740157
237	0x3e5ff2a0	0.21869898
238	0xbe60dfc4	-0.2196036
239	0xbde75254	-0.11295
240	0x3db9822c	0.090580314
241	0x3e372480	0.17885017
242	0x3e03020a	0.12793747
243	0x3e4d6ac0	0.20060253
244	0xbe6b1ac0	-0.22959423
245	0x3d84f6dc	0.06492397
246	0xbe54c3f8	-0.20777881
247	0xbe03e136	-0.1287888
248	0x3e679e5c	0.22619003
249	0x3df9c3ac	0.121955246
250	0x3e266110	0.16247964
251	0xbe2460d0	-0.16052556
252	0x3e237d4a	0.15965763
253	0xbc5c93c0	-0.013462961
254	0x3e5a9b8c	0.21348399
255	0x3e000cc8	0.12504876

forward_lstm.bias_ih_l0 f4 [64]
0	0x3d677d40	0.056515932
1	0x3e025c80	0.12730598
2	0x3d5ece50	0.054395974
3	0xbdf4e918	-0.119585216
4	0x3e1fe676	0.15615258
5	0xbe1fb80a	-0.15597549
6	0xbd9bd91c	-0.0760977
7	0x3e0640d8	0.13110673
8	0xbe64db64	-0.22349316
9	0x3c72c260	0.01481685
10	0xbbb37dc0	-0.005477637
11	0xbe617f5c	-0.2202124
12	0xbd7666b8	-0.060156554
13	0x3c8f1500	0.017466068
14	0x3d890d34	0.066919714
15	0x3e5c5564	0.21516949
16	0x3db077fc	0.08616635
17	0x3cbd0c80	0.02307725
18	0xbe7c98e0	-0.24667692
19	0xbe2384c0	-0.15968609
20	0x3e59667a	0.21230498
21	0x3e263186	0.16229829
22	0x3e4662fe	0.193737
23	0xbe4967a8	-0.19668448
24	0xbdb6e638	-0.089306295
25	0x3e553420	0.20820665
26	0xbe00a854	-0.12564212
27	0x3e40da74	0.18833333
28	0x3e417832	0.18893507
29	0x3e5c7434	0.21528703
30	0x3ddf5738	0.109053075
31	0xbe0718c0	-0.13193035
32	0xbdf3f79c	-0.11912462
33	0xbdced3b8	-0.10098976
34	0x3e4f7148	0.20258057
35	0xbdeba3b0	-0.1150583
36	0xbd8ced1c	-0.068811625
37	0x3e047c78	0.12938106
38	0x3df0c2a8	0.11755878
39	0xbd92b910	-0.07164204
40	0x3e6fd26a	0.2342011
41	0xbcae5e70	-0.021285266
42	0xbe7fde44	-0.24987131
43	0x3d487b48	0.048945695
44	0x3dc60008	0.09667975
45	0x3d94c5c8	0.07264286
46	0x3d635ab8	0.055506438
47	0x3e30ffa8	0.17285025
48	0xbd8f5df0	-0.07000339
49	0x3defa970	0.117022395
50	0x3e3a7b46	0.18211088
51	0xbe192256	-0.14954504
52	0x3d0b0268	0.03393784
53	0x3dcbf3e0	0.09958625
54	0xbd6c3238	-0.05766508
55	0xbd519d00	-0.051175117
56	0xbe583c1c	-0.2111668
57	0x3e65f7e4	0.22457844
58	0xbdf41230	-0.119175315
59	0xbe56437a	-0.20924178
60	0x3e31164a	0.17293659
61	0x3d8ecf44	0.069731265
62	0xbd310cd0	-0.04322511
63	0xbc2db420	-0.010602027

forward_lstm.bias_hh_l0 f4 [64]
0	0xbd795e50	-0.06088096
1	0xbe57b5fc	-0.21065515
2	0xbe19439c	-0.14967197
3	0xbdbd70e4	-0.09250048
4	0x3c88e7a0	0.01671201
5	0x3e089c1a	0.13340798
6	0x3d8c556c	0.068522304
7	0xbdc39880	-0.095505714
8	0xbe065706	-0.13119134
9	0x3e3a4398	0.18189847
10	0x3c8cd9d0	0.017193705
11	0x3da13124	0.07870701
12	0x3e13353a	0.14375773
13	0xbe01338c	-0.1261732
14	0xbd19c628	-0.037542492
15	0xbd1f76a0	-0.03893149
16	0x3e08c7b2	0.13357428
17	0xbd1a81a8	-0.037721306
18	0x3e55a2ee	0.20862934
19	0x3e6099e2	0.21933702
20	0x3d27b740	0.040946245
21	0x3defd75c	0.117109984
22	0xbe252e1a	-0.16130868
23	0xbe3910fe	-0.18072888
24	0xbe14c2c8	-0.14527428
25	0x3e1dce58	0.15410745
26	0x3e584a3a	0.21122065
27	0x3e3fef8a	0.1874372
28	0xbe7c2c44	-0.24626261
29	0x3e694200	0.22779083
30	0x3d1599d8	0.03652367
31	0x3de32f34	0.11092988
32	0x3da0ca14	0.07851043
33	0x3e533006	0.20623788
34	0x3e757b4c	0.23972815
35	0xbd814cdc	-0.06313488
36	0xbe6bb4d4	-0.23018199
37	0xbd81c730	-0.0633682
38	0xbdd1be44	-0.102413684
39	0x3e5f4ada	0.21805897
40	0xbe62c2dc	-0.22144645
41	0x3cd961d0	0.026535898
42	0xbe1f8376	-0.15577492
43	0x3ce15bd0	0.0275096
44	0x3e0a4bf6	0.1350554
45	0xbc744d60	-0.014911026
46	0xbc35e220	-0.011101276
47	0x3e4fd840	0.20297337
48	0xbe19ac78	-0.15007198
49	0xbda4edd4	-0.080531746
50	0xbdea2ce0	-0.114343405
51	0x3c84f700	0.01623106
52	0xbe50dcca	-0.20396724
53	0x3e7622de	0.24036738
54	0x3e1b0ace	0.1514084
55	0xbe753a6e	-0.2394807
56	0xbe2ff884	-0.17184645
57	0x3e49b838	0.1969918
58	0x3e3635da	0.1779398
59	0x3d3a3e58	0.045469612
60	0x3e12e662	0.14345697
61	0xbda31074	-0.079621226
62	0x3d7e1588	0.062032253
63	0x3e07e276	0.13269982

backward_lstm.weight_ih_l0 f4 [64, 5]
0	0x3cc3b5a0	0.023890316
1	0xbdc12b88	-0.09432131
2	0x3e4c3070	0.19940352
3	0x3e7f74dc	0.24946922
4	0x3d1aca88	0.037790805
5	0xbe0d8f72	-0.13824251
6	0x3d528850	0.05139953
7	0x3dca1250	0.09866774
8	0x3da5e030	0.08099401
9	0x3d88c528	0.066782296
10	0x3e18d9e0	0.14926863
11	0xbe514e30	-0.20439982
12	0xbe340012	-0.17578152
13	0x3e63805c	0.22216934
14	0xbe268f9a	-0.16265717
15	0xbe33626c	-0.17518014
16	0x3e749650	0.23885465
17	0xbe1f17ee	-0.15536472
18	0x3d3763f0	0.044773042
19	0x3e39abd4	0.18131953
20	0x3ddab268	0.106785595
21	0x3afb6a00	0.0019181371
22	0xbe005dbe	-0.1253576
23	0x3df72738	0.12068027
24	0x3d7a76c8	0.061148435
25	0xbe717b32	-0.23582152
26	0xbe4c1ca0	-0.19932795
27	0xbdb245c8	-0.08704716
28	0xbe24f9e2	-0.16110948
29	0x3e79f594	0.24410087
30	0xbe7ee3d8	-0.24891603
31	0xbd3bda90	-0.045862734
32	0x3e67e964	0.22647625
33	0x3dfeb53c	0.124369115
34	0xbe4238a2	-0.18966916
35	0x3d4cedb0	0.050031364
36	0x3e7fa836	0.24966511
37	0x3e61e0b4	0.22058374
38	0x3e769b3c	0.24082655
39	0xbe387c22	-0.18016103
40	0x3d94a6e0	0.072583914
41	0xbddaf910	-0.10692036
42	0xbd616eb8	-0.05503723
43	0x3e0a916c	0.13532037
44	0xbd0e7560	-0.034779906
45	0x3c822a70	0.015889376
46	0x3e508a1a	0.20365182
47	0x3d2de1f0	0.0424518
48	0x3c6686a0	0.014070183
49	0xbdfca6e8	-0.12336522
50	0xbdd13808	-0.10215765
51	0x3e3d7790	0.1850264
52	0xbe6d4c08	-0.23173535
53	0xbdfd0c74	-0.12355891
54	0x3cc7a560	0.02437085
55	0xbe201404	-0.15632635
56	0xbe1f48b4	-0.15555078
57	0xbe6f3660	-0.23360586
58	0xbcd42d20	-0.025900424
59	0x3e0416e8	0.12899363
60	0xbe137a62	-0.14402154
61	0xbcde9e00	-0.02717495
62	0x3dbeeba8	0.093222916
63	0x3e24e3a6	0.16102466
64	0x3db1ffac	0.08691344
65	0x3e726af2	0.23673609
66	0x3d2d4ce0	0.04230964
67	0x3d1c37f0	0.038139284
68	0x3e5e5d4c	0.21715277
69	0xbc302e60	-0.010753244
70	0xbe521fc8	-0.20519936
71	0x3e5aebea	0.21379057
72	0xbd767db0	-0.06017846
73	0xbc01ac20	-0.007914573
74	0xbe520218	-0.20508611
75	0x3e57e0e6	0.21081886
76	0xbe414988	-0.18875706
77	0x3e089f1e	0.13341948
78	0xbd856524	-0.06513432
79	0x3e67d5dc	0.22640175
80	0x3df47060	0.11935496
81	0x3e10b66c	0.14132088
82	0x3e47e808	0.19522107
83	0x3defb4e4	0.11704424
84	0xbbe97380	-0.0071243644
85	0x3e58323c	0.21112913
86	0x3db228e8	0.086992085
87	0x3d8c3c4c	0.06847438
88	0x3ce6da40	0.028180242
89	0x3d6807b0	0.056647956
90	0x3e189cf8	0.14903629
91	0x3d4e12d0	0.05031091
92	0xbc0f9e20	-0.008765727
93	0xbe3a7eca	-0.18212429
94	0x3e58028c	0.21094722
95	0xbe4ab0d0	-0.19794011
96	0xbd9e83cc	-0.07739982
97	0x3e144518	0.14479482
98	0xbdbaac40	-0.09114885
99	0x3e7f06a0	0.24904871
100	0xbdacc89c	-0.08436701
101	0x3d8e8ee8	0.06960851
102	0xbe522498	-0.20521772
103	0x3e2a2868	0.16616976
104	0x3e6097f0	0.2193296
105	0xbda24c60	-0.079247236
106	0x3d751870	0.05983776
107	0x3c537560	0.012906402
108	0xbe2dc9aa	-0.1697146
109	0x3e5ba800	0.21450806
110	0xbda82ea4	-0.08212021
111	0xbc869e60	-0.016432941
112	0x3e727c60	0.23680258
113	0x3db24aac	0.08705649
114	0xbe34a744	-0.17641932
115	0x3c99fc50	0.01879707
116	0xbe22ea50	-0.15909696
117	0xbe68fee0	-0.22753477
118	0xbe382c98	-0.17985761
119	0x3e534eb2	0.20635489
120	0xbe5b6fa4	-0.21429306
121	0xbe73ec58	-0.23820627
122	0xbe6631b2	-0.22479895
123	0xbe413286	-0.1886693
124	0x3db141e8	0.08655149
125	0x3dc78210	0.09741604
126	0x3e3cdffa	0.18444815
127	0x3e4050cc	0.18780822
128	0x3dd6ae44	0.10482457
129	0x3b760180	0.0037537515
130	0x3e6bf168	0.23041308
131	0xbe33064e	-0.17482874
132	0xbe5ed4f0	-0.21760917
133	0x3b8f9f80	0.0043830276
134	0x3e668d9c	0.22514957
135	0x3dd1dbd4	0.10247007
136	0xbacf9e00	-0.0015839934
137	0xbdccb63c	-0.09995696
138	0x3e52f08c	0.20599574
139	0x3e22a88c	0.15884608
140	0x3e4d277a	0.2003459
141	0xbd977d1c	-0.073969096
142	0xbe4d1502	-0.20027545
143	0xbe777398	-0.2416519
144	0x3da37e14	0.07983032
145	0xbdd50ec0	-0.10403204
146	0x3e3f4b92	0.18681172
147	0xbe549cca	-0.20762935
148	0x3c6f8240	0.014618456
149	0x3d0df330	0.03465575
150	0xbe571f58	-0.2100805
151	0x3e3ca7b2	0.18423346
152	0xbe41098e	-0.18851301
153	0xbe003166	-0.12518844
154	0xbdf3daf8	-0.11906999
155	0x3e0e038e	0.13868544
156	0xbe5fc2c2	-0.21851638
157	0xbd208028	-0.03918472
158	0xbda89c4c	-0.08232936
159	0x3d347038	0.044052333
160	0xba9a6300	-0.0011778772
161	0x3cce9db0	0.025221676
162	0xbdd4b49c	-0.10386011
163	0xbe0d6dbc	-0.13811392
164	0x3e3c5da2	0.18395093
165	0x3e3bc27a	0.18335906
166	0x3e1d7eae	0.15380356
167	0xbe47ba20	-0.19504595
168	0xbe2cb38a	-0.16865364
169	0xbdd9a91c	-0.10627958
170	0x3de9e0ec	0.114198536
171	0xbc980c40	-0.018560529
172	0x3e0f6cde	0.14006373
173	0xbdc8308c	-0.097748846
174	0x3ddccf74	0.10781756
175	0x3e3823fa	0.17982474
176	0x3d02bd00	0.031918526
177	0xbe352ed8	-0.1769365
178	0x3e6cd098	0.23126447
179	0xbe131446	-0.14363202
180	0x3d4df160	0.05027902
181	0xbe6b9f98	-0.23010099
182	0xbc174920	-0.009233743
183	0x3d911110	0.070833325
184	0x3e495434	0.19661027
185	0xbdc06208	-0.09393698
186	0x3e17b638	0.14815605
187	0xbe2a3b4e	-0.16624185
188	0x3e3d6cee	0.18498585
189	0x3e0211ec	0.12702149
190	0x3d2c20f0	0.0420236
191	0x3cf7e2b0	0.03025946
192	0xbe2daf70	-0.16961455
193	0xbe028136	-0.12744603
194	0x3df92254	0.12164751
195	0xbe3ae9da	-0.1825327
196	0x3d7ea438	0.06216833
197	0xbde34a70	-0.11098182
198	0xbe37ca42	-0.17948249
199	0x3df0805c	0.117432326
200	0x3dfb8a54	0.12282243
201	0xbc960ea0	-0.01831752
202	0x3e0efe72	0.1396425
203	0xb90ef000	-0.00013631582
204	0x3e3014aa	0.17195383
205	0xbe2a3968	-0.16623461
206	0xbe5bc056	-0.21460089
207	0xbd9c2af0	-0.07625377
208	0x3d868988	0.06569201
209	0xbcf1abe0	-0.029500902
210	0xbd0bcdb8	-0.034131736
211	0xbe5e2954	-0.21695453
212	0xbddbf1a8	-0.10739452
213	0x3b44fc00	0.003005743
214	0x3dec4ac4	0.11537698
215	0xbe291b84	-0.16514403
216	0xbe23e6d8	-0.16006029
217	0xbd4aec48	-0.04954174
218	0xbe1e93ce	-0.1548607
219	0x3d918898	0.07106131
220	0xbd9a1e38	-0.07525295
221	0xbe36d14c	-0.17853278
222	0x3e113cfa	0.14183417
223	0xbd2245e8	-0.03961745
224	0x3d0d3dd8	0.034482807
225	0xbe22c8ce	-0.15896913
226	0xbda92ae0	-0.08260131
227	0x3dc97440	0.09836626
228	0xbe01a6ea	-0.12661329
229	0x3e735406	0.23762521
230	0x3e715f6e	0.2357156
231	0xbd8ab834	-0.06773415
232	0xbd6647d8	-0.05622086
233	0x3d0cc510	0.03436762
234	0xbe64ee24	-0.22356468
235	0x3ddd3308	0.10800749
236	0x3e7a7afa	0.24460974
237	0xbd9f136c	-0.07767376
238	0x3e5da3dc	0.21644539
239	0xbdb3822c	-0.08765063
240	0xbde8ca50	-0.11366713
241	0x3e260710	0.16213632
242	0xbd2202e0	-0.039553523
243	0xbe70fddc	-0.2353434
244	0xbe72c586	-0.23708162
245	0xbdce1928	-0.10063392
246	0xbdbcc79c	-0.0921776
247	0x3d8a9f50	0.06768668
248	0x3e77c678	0.24196804
249	0xbd481778	-0.048850507
250	0x3e31cd34	0.17363435
251	0xb9b42800	-0.00034362078
252	0xbda89ea8	-0.08233386
253	0xbe097aa2	-0.13425687
254	0xbe78265e	-0.24233386
255	0x3e7b28d2	0.2452729

backward_lstm.weight_hh_l0 f4 [64, 16]
0	0x3d8be31c	0.06830427
1	0x3e4473ea	0.19184843
2	0x3e0bf2a8	0.13666785
3	0x3d9236f4	0.07139388
4	0xb8d54000	-0.000101685524
5	0xbd55e688	-0.052221805
6	0xbde00b04	-0.10939601
7	0x3cb25420	0.02176863
8	0xbe4c3dac	-0.19945401
9	0x3e377706	0.17916498
10	0x3dbd8b6c	0.09255108
11	0xbe2eec6c	-0.17082375
12	0x3e24aff8	0.16082752
13	0x3dc8e568	0.09809381
14	0x3e51cf2c	0.20489186
15	0xbde19ac8	-0.1101585
16	0xbe0bf2be	-0.13666818
17	0x3cea4290	0.028596193
18	0x3db5bdec	0.08874115
19	0x3e2ad83a	0.16684046
20	0x3d4eefb8	0.050521582
21	0xbe66e660	-0.22548819
22	0x3e66ac0a	0.22526565
23	0x3d0b74b0	0.03404683
24	0xbd7c61e8	-0.06161681
25	0xbc1c1be0	-0.00952813
26	0x3cbf2700	0.023334026
27	0xbd966218	-0.07342929
28	0xbda8cf80	-0.082427025
29	0x3d0d3758	0.034476608
30	0x3e0e5e90	0.1390326
31	0xbd120658	-0.03565058
32	0xbde756d4	-0.11295858
33	0x3cc4b040	0.024009824
34	0x3d0bb3b8	0.03410694
35	0xbe128426	-0.14308223
36	0xbe048cae	-0.1294429
37	0xbe278f5a	-0.16363278
38	0xbde8c4d4	-0.11365667
39	0x38af7000	8.365512e-05
40	0xbda1dc50	-0.079033494
41	0xbe6de7ec	-0.23233002
42	0xbe56fc5a	-0.20994702
43	0xbd9aabc8	-0.07552296
44	0x3c389960	0.011267036
45	0xbe7f952e	-0.24959251
46	0xbe128db8	-0.14311874
47	0x3c67a580	0.014138579
48	0x3e7c9c9c	0.24669117
49	0x3df0454c	0.11731967
50	0xbe6c47ce	-0.23074266
51	0x3e00fc5c	0.12596267
52	0xbe6d2110	-0.23157144
53	0xbe05f4b2	-0.13081625
54	0xbe305568	-0.1722008
55	0x3d8c4d88	0.068507254
56	0xbdb5a524	-0.08869389
57	0x3e254956	0.16141257
58	0xbd4cdc40	-0.050014734
59	0x3e65ea7a	0.22452727
60	0x3e7a906c	0.24469155
61	0xbc61b8a0	-0.013776928
62	0x3dab8f78	0.08376974
63	0x3d9fe7ec	0.078079075
64	0xbd9adbc0	-0.07561445
65	0x3e1807a6	0.14846668
66	0x3df5a2b0	0.11993921
67	0x3c690ec0	0.014224708
68	0x3e0f42dc	0.13990349
69	0xbe72d45a	-0.23713818
70	0xbdaa29b8	-0.083087385
71	0x3c9abcf0	0.01888892
72	0xbe7fadb8	-0.24968612
73	0xbe5ccafa	-0.21561804
74	0xbe61acda	-0.22038594
75	0x3e6f6a0e	0.233803
76	0xbc953030	-0.018211454
77	0x3d9eeedc	0.077604026
78	0x3df742fc	0.12073323
79	0x3e1dffbe	0.15429589
80	0x3e7d432a	0.24732652
81	0x3db1cddc	0.08681843
82	0xbe672cb0	-0.2257564
83	0x3e4e2d0a	0.20134369
84	0xbe7c0214	-0.24610168
85	0xbd7c6460	-0.061619163
86	0x3e219d20	0.15782595
87	0xba994c00	-0.0011695623
88	0x3e0f4384	0.13990599
89	0xbe0d4e2a	-0.13799348
90	0xbd4373d8	-0.0477179
91	0x3e687a74	0.22702962
92	0xbe4a85b2	-0.19777563
93	0x3df2af8c	0.11849889
94	0x3d2f6600	0.042821884
95	0xbd10b340	-0.035327196
96	0xbdcac270	-0.09900367
97	0xbd202558	-0.039098114
98	0x3e55b92a	0.20871416
99	0x3db7e3c4	0.0897899
100	0x3d5dc070	0.0541386
101	0x3e542796	0.20718226
102	0xbdb3f7b4	-0.0878748
103	0xbe19650a	-0.1497995
104	0xbe2c9122	-0.16852239
105	0x3e211d30	0.1573379
106	0x3d96dc50	0.0736624
107	0x3e1b4870	0.15164351
108	0x3e281986	0.16415986
109	0x3e0da03c	0.13830656
110	0xbdc24e74	-0.0948762
111	0x3e598396	0.21241602
112	0x3e70c4f0	0.23512626
113	0xbd0f9208	-0.035051376
114	0x3e0aa2bc	0.1353864
115	0xbbef5800	-0.0073041916
116	0x3db1c4a4	0.08680084
117	0x3ddac924	0.10682896
118	0x3e3a540a	0.18196121
119	0xbc0430a0	-0.008068234
120	0x3db1d278	0.08682722
121	0x3de74ca8	0.11293918
122	0xbe49d0ea	-0.197086
123	0xbd7e6558	-0.062108368
124	0x3e0305d2	0.12795189
125	0x3d8bd244	0.06827214
126	0xbd5b5508	-0.05354789
127	0xbc0609e0	-0.008181065
128	0xbd61be30	-0.055113018
129	0x3e5a8d1a	0.21342888
130	0xbce75850	-0.028240353
131	0x3cad1050	0.021125942
132	0xbc4c6940	-0.012476265
133	0xbc8251c0	-0.015908122
134	0x3d785eb0	0.060637176
135	0xbbf74840	-0.0075464547
136	0x3e292c66	0.16520843
137	0x3e26c84c	0.16287345
138	0x3e555d04	0.20836264
139	0x3e49044a	0.19630542
140	0x3e662374	0.22474462
141	0xbe22ce96	-0.15899119
142	0x3e6c39ae	0.23068878
143	0x3ca63300	0.02028799
144	0x3da233dc	0.07920048
145	0x3d09bf70	0.033629835
146	0x3e33391c	0.17502254
147	0x3df0df30	0.1176132
148	0xbdc9d01c	-0.09854147
149	0xbb64f000	-0.003493309
150	0xbe6ed70a	-0.23324218
151	0x3bd12780	0.0063828826
152	0xbe161a4a	-0.14658466
153	0x3d8df1e8	0.069309056
154	0xbe7715fc	-0.2412948
155	0xbe02bcec	-0.1276738
156	0xbe6221b4	-0.22083169
157	0x3d407d80	0.046994686
158	0x3e5d2232	0.21595076
159	0xbe054fc6	-0.13018712
160	0x3d31d930	0.043420017
161	0xbd9dd330	-0.077062964
162	0xbb62fc00	-0.0034635067
163	0x3d0cb900	0.034356117
164	0x3e4c9840	0.19979954
165	0x3d765460	0.06013906
166	0xbd91924c	-0.07107982
167	0xbe73d190	-0.2381041
168	0x3e743e42	0.23851874
169	0x3d1e16b8	0.038595885
170	0x3e23ed7c	0.16008562
171	0x3e03d242	0.12873176
172	0xbd99a4f4	-0.075021654
173	0xbe398e8c	-0.18120784
174	0x3cae3560	0.021265686
175	0xbe685a84	-0.22690779
176	0x3e325ec0	0.17418957
177	0x3e7f4840	0.24929905
178	0x3da4b580	0.08042431
179	0x3e18084c	0.14846915
180	0x3e1330fc	0.14374155
181	0x3ddc97a8	0.10771114
182	0xbe4bb56a	-0.19893423
183	0x3d8b1f9c	0.067931384
184	0xbe2f639c	-0.17127842
185	0x3db097c4	0.08622697
186	0x3e2a5f80	0.16637993
187	0xbe682d98	-0.22673643
188	0x3d974fe0	0.07388282
189	0x3e371de4	0.17882496
190	0xbe6268d0	-0.22110295
191	0xbe7c4106	-0.2463418
192	0x3d58a4f0	0.05289167
193	0x3d9b6aa8	0.075887024
194	0xbcb47850	-0.022030026
195	0x3d3ecd80	0.0465827
196	0xbd2c3c60	-0.042049766
197	0xbe706cda	-0.23479024
198	0xbd565150	-0.05232364
199	0x3e720060	0.23632956
200	0xbd00b3b8	-0.031421393
201	0xbe78dcf8	-0.24303043
202	0xbe67de6c	-0.22643441
203	0xbe527d5a	-0.2055563
204	0xbd8968dc	-0.067094535
205	0xbe3c473e	-0.18386552
206	0x3d4e4228	0.05035606
207	0x3e69281e	0.2276921
208	0x3e7051d4	0.23468715
209	0x3e200926	0.1562849
210	0x3e3504c8	0.17677605
211	0x3e1c09de	0.15238139
212	0xbe5937ee	-0.21212742
213	0x3debdc0c	0.1151658
214	0xbd83b4f4	-0.064309984
215	0xbe52bee4	-0.20580631
216	0xbe770dee	-0.24126408
217	0x3dac4dfc	0.08413312
218	0x3e3e1ece	0.18566439
219	0xbdb2147c	-0.08695313
220	0xbd639c48	-0.055568963
221	0x3d082cf0	0.03324598
222	0xbd86c56c	-0.06580624
223	0x3e48083a	0.19534388
224	0xbdf80360	-0.12110019
225	0xbd1b90c8	-0.03797987
226	0x3e070346	0.13184842
227	0xbca43f10	-0.020049602
228	0x3d5eb040	0.054367304
229	0x3e79d8d4	0.2439912
230	0x3d2c4520	0.04205811
231	0xbe79ac30	-0.2438209
232	0xbd8af368	-0.06784707
233	0xbd883854	-0.06651369
234	0xbd111778	-0.035422772
235	0xbe6c6332	-0.23084715
236	0x3df1fc18	0.11815661
237	0x3d36f558	0.04466757
238	0xbe34e6ee	-0.17666218
239	0x3c12dae0	0.008963317
240	0xbb2bee80	-0.0026234686
241	0xbe6872d0	-0.22700047
242	0x3d865af8	0.0656032
243	0xbdc0ee1c	-0.09420416
244	0x3e13874c	0.1440708
245	0x3dfd6f3c	0.12374732
246	0xbe194e18	-0.14971197
247	0x3e5c8c74	0.21537954
248	0x3df8d184	0.12149337
249	0x3e301220	0.17194414
250	0x3dd46db8	0.1037249
251	0xbde1aa8c	-0.11018857
252	0x3e57dcbe	0.210803
253	0x3d531a68	0.051538855
254	0x3bd42dc0	0.0064751804
255	0x3b901a00	0.0043976307

backward_lstm.bias_ih_l0 f4 [64]
0	0xbdb1a180	-0.08673382
1	0xbe6539d4	-0.22385341
2	0xbe1764d2	-0.14784554
3	0x3e26109e	0.16217276
4	0x3bcda200	0.0062754154
5	0x3cefd540	0.02927649
6	0xbe17ceb0	-0.14824939
7	0xbe56d1a2	-0.20978406
8	0x3c42f200	0.011898518
9	0xbd930d68	-0.071802914
10	0x3e2f2eda	0.17107716
11	0xbd63a848	-0.055580407
12	0xbe39e994	-0.18155509
13	0xbe26bb02	-0.16282275
14	0x3e121bc2	0.14268401
15	0xbd9c87c0	-0.0764308
16	0x3ddbf168	0.10739404
17	0xbe7fba82	-0.24973491
18	0x3e39923a	0.18122187
19	0x3c031360	0.008000225
20	0x3d84cfe4	0.064849645
21	0x3de37ca0	0.11107755
22	0xbe3b1bb8	-0.18272293
23	0x3d613ac0	0.05498767
24	0x3dd6677c	0.10468957
25	0xbdcb3488	-0.09922129
26	0xbe19df0e	-0.15026495
27	0x3e502224	0.20325524
28	0xbe3883a6	-0.1801897
29	0xbd73af88	-0.05949357
30	0x3df51f38	0.11968845
31	0x3e531d8e	0.20616743
32	0x3d9ac9d8	0.0755803
33	0xbd068df0	-0.032850206
34	0xbdfeab60	-0.12435031
35	0xbe3be830	-0.18350291
36	0x3dd6fed8	0.10497826
37	0x3dcf6b3c	0.10127875
38	0x3dfc793c	0.12327811
39	0x3e58a278	0.21155727
40	0x3e0ccea8	0.13750708
41	0xbd83d9bc	-0.06438014
42	0x3e6737f2	0.22579935
43	0x3e1e9130	0.15485072
44	0xbe198b08	-0.14994442
45	0xbe76ebf8	-0.24113452
46	0xbe6e1c44	-0.2325297
47	0x3cdae4f0	0.026720494
48	0x3e2f4150	0.17114758
49	0x3e47efd4	0.19525081
50	0xbe4e029c	-0.20118183
51	0x3e6497fa	0.223236
52	0xbd66bb00	-0.05633068
53	0xbd489370	-0.048968732
54	0x3d56ad58	0.052411407
55	0xbb397900	-0.0028300881
56	0xbe7f4d74	-0.2493189
57	0x3d916710	0.07099736
58	0xbe52f29a	-0.20600358
59	0x3e466b98	0.19376981
60	0x3e0aab6c	0.13541955
61	0x3e061a10	0.1309588
62	0x3e4bcd50	0.19902539
63	0x3e7b688a	0.24551597

backward_lstm.bias_hh_l0 f4 [64]
0	0xbe5cb748	-0.21554291
1	0x3ca68a90	0.020329744
2	0xbdad1264	-0.08450773
3	0xbda5e4a8	-0.08100253
4	0x3e7c8b42	0.24662498
5	0x3e25d7ba	0.16195574
6	0x3e4f6712	0.20254162
7	0x3e189d7a	0.14903823
8	0x3db43620	0.08799386
9	0xbd50b298	-0.05095157
10	0x3d282d58	0.04105887
11	0xbd9e7e64	-0.07738951
12	0xbb674280	-0.003528744
13	0xbe10f4de	-0.1415591
14	0xbdcbea60	-0.09956813
15	0xbdc395f0	-0.09550083
16	0x3e168094	0.14697486
17	0xbe247da6	-0.16063556
18	0x3e579c04	0.21055609
19	0x3df673d0	0.12033808
20	0xbddb5f50	-0.10711539
21	0xbd72c710	-0.059271872
22	0x3d161d38	0.03664896
23	0x3d0f9d30	0.035062015
24	0x3e4d3bcc	0.20042342
25	0xbd1a2600	-0.037633896
26	0xbe3b6232	-0.18299177
27	0x3d009dd8	0.03140053
28	0xbe33c6e4	-0.1755634
29	0x3dee8eb0	0.11648309
30	0x3e4af364	0.19819409
31	0x3e302d5c	0.17204803
32	0xbde344b0	-0.110970855
33	0xbe4677f0	-0.1938169
34	0x3dc1a75c	0.094557494
35	0xbd0e7880	-0.034782887
36	0x3bfe8f40	0.0077685416
37	0xbde6552c	-0.11246714
38	0xbdb03210	-0.08603299
39	0x3e58e20c	0.2117998
40	0x3d7cc9d8	0.06171593
41	0x3dcd9b30	0.10039365
42	0x3e46b4b2	0.19404867
43	0xbdecc440	-0.11560869
44	0xbe2599ca	-0.16171947
45	0x3e0b325a	0.13593426
46	0x3d8b6f8c	0.06808385
47	0x3caf3f40	0.021392465
48	0xbd491cf8	-0.049099892
49	0x3d99b9a4	0.07506111
50	0x3e6f17ac	0.23348874
51	0x3e387878	0.18014705
52	0xbb2ed000	-0.002667427
53	0xbd5abea8	-0.05340448
54	0x3d44ab98	0.048015207
55	0xbda8c504	-0.08240703
56	0x3e7f91e8	0.24958003
57	0xbe3a31aa	-0.18183008
58	0x3e6f7638	0.2338494
59	0xbdf32a34	-0.11873284
60	0x3d8d8418	0.069099605
61	0xbcafbee0	-0.021453321
62	0x3c96abb0	0.018392414
63	0x3e66b42a	0.22529665

fc.weight f4 [1, 32]
0	0x3dc3e9be	0.09566067
1	0x3dcd4346	0.10022597
2	0xbe33b473	-0.17549305
3	0x3ca05ed8	0.019576475
4	0xbe2dec4e	-0.16984674
5	0xbccea568	-0.025225356
6	0xbf066547	-0.52498287
7	0x3dc60eee	0.09670816
8	0x3e29814d	0.1655323
9	0xbe010b47	-0.12601958
10	0x3df91f02	0.121641174
11	0x3dce55fe	0.100749955
12	0x3c281450	0.010258749
13	0xbeb9feb1	-0.36327127
14	0xbdebef50	-0.115202546
15	0xbea897bb	-0.3292826
16	0xbde63357	-0.11240261
17	0x3dc757c6	0.09733538
18	0xbd92a2eb	-0.071599804
19	0x3d80092a	0.06251748
20	0xbe25430b	-0.16138856
21	0x3e9fa6c9	0.31181934
22	0xbd97f33c	-0.0741944
23	0xbdaede80	-0.08538532
24	0x3e0f88f5	0.14017089
25	0xbd822c68	-0.06356126
26	0x3d7acd84	0.06123115
27	0xbe2f1ad7	-0.17100082
28	0xbc1e6400	-0.009667397
29	0xbc890790	-0.016727239
30	0xbc0cb320	-0.008587629
31	0x3d911e4c	0.07085857
