project/models/BiLSTM/KOSPI.pth (torch, 148687 bytes, 9 tensors)

lstm.weight_ih_l0 f4 [256, 5]
000000 a6 81 92 bd d4 6e 17 bd a4 27 08 3d ae 17 e2 bd
       -0.07153635 -0.03697093 0.03324093 -0.11039673
000010 f4 9b d1 bd 98 95 c0 3c ea 47 c5 bd e0 f8 b5 3b
       -0.10234824 0.023508832 -0.09632857 0.00555335
000020 4c 58 96 3d b6 25 9f bd 6a 5d 9e 3d 04 40 ef bd
       0.0734106 -0.07770865 0.07732661 -0.11682132
000030 50 c6 58 bd 88 4f 86 3d 5a e7 d4 3d 28 66 5e 3d
       -0.0529235 0.06558138 0.10395689 0.054296643
000040 1a c8 8e bd 14 22 79 bd e0 ae a3 bb e0 79 91 bb
       -0.0697176 -0.060823515 -0.004995212 -0.0044395775
000050 08 0c 36 bd 94 54 45 bd 5e a7 eb bd f4 f1 83 3d
       -0.044445068 -0.048176363 -0.11506532 0.06442633
000060 74 8c 88 bd ba 3e af 3d 60 ad eb bc fc b7 4a 3d
       -0.06667414 0.08556886 -0.028769195 0.049491867
000070 82 77 d3 bd b0 53 df bd 12 f6 7e 3d 5b 14 9f 3d
       -0.10325529 -0.10904634 0.06224639 0.077675544
000080 88 2b db bb 9a 00 91 bc f7 b7 aa 3b 14 68 ce bd
       -0.006688539 -0.017700482 0.0052099186 -0.10078445
000090 de ab d7 bd 94 cc 54 3d 10 38 59 bd 38 1b 30 3d
       -0.10530828 0.051952913 -0.05303198 0.042994708
0000a0 44 23 a6 3d 56 a0 bb bd 3c 16 cd 3d 64 78 1a 3d
       0.08112195 -0.09161441 0.100140065 0.03771247
0000b0 14 bb af 3d d6 60 e5 3d dc 9e 9a bd 6c 3d e4 bd
       0.08580604 0.112001106 -0.07549831 -0.11144528
0000c0 4c 48 bd 3d 4e 95 c0 bd 70 6b b1 bc d4 11 bf 3d
       0.09242305 -0.094034776 -0.021657676 0.09329572
0000d0 60 16 f3 bc 72 21 ce 3d 78 be f8 bc ce cb e3 3d
       -0.029673755 0.10064973 -0.03036426 0.11122857
0000e0 d0 97 4d 3c cc 5c aa bd e0 6b e5 bb c8 fe f5 3c
       0.012548402 -0.08318481 -0.007001385 0.030028716
0000f0 cc 76 0f bd 58 32 bc 3d 84 4f fa 3d 98 69 89 3c
       -0.035025403 0.0918929 0.12222198 0.016773984
000100 b6 e5 9a 3d ee 61 81 bd 7a b2 88 3d 4e ed ca bd
       0.07563345 -0.06317507 0.06674667 -0.099085435
000110 10 14 81 bd 8c e9 a6 3d 18 5f 51 bd ac e6 63 bd
       -0.06302655 0.08150014 -0.05111608 -0.055639908
000120 38 d6 8a bc 1c b6 78 bd 74 c0 95 bd 1e 2b 87 bd
       -0.01694785 -0.060720548 -0.07312098 -0.06600021
000130 58 a9 99 bd 6c 94 9d 3d 78 74 83 3c 34 a1 61 3d
       -0.07503003 0.07694325 0.016046748 0.055085376
000140 08 d2 d9 bc 4e b1 ca bd b4 19 66 bd be c8 e9 3d
       -0.026589409 -0.098970994 -0.056176856 0.11415242
000150 10 ff 59 3c ac e5 2b 3d 10 3f 54 bc 04 5f 80 3d
       0.013305441 0.04196708 -0.012954488 0.06268123
000160 4c 46 ba 3d 90 c9 bd 3c 90 7b cd 3c 7c 27 5b 3d
       0.09095439 0.023167402 0.025083333 0.053504452
000170 c0 43 98 bc d0 45 1d 3d 1c eb cd bd f8 60 b1 3c
       -0.018586993 0.038396657 -0.10054609 0.021652684
000180 60 a3 6b 3d 74 ad 7f 3d b8 a4 6a 3d 18 e3 8d bd
       0.057528853 0.062421277 0.057285994 -0.0692808
000190 8c b9 29 bd 28 d3 3f 3d 50 67 18 3c c8 45 dd bc
       -0.041436717 0.046832234 0.009301975 -0.027010813
0001a0 bc 8f 05 bd 32 07 a4 3d be 36 cd bd f2 5f ef bd
       -0.03260778 0.08009185 -0.10020207 -0.11688222
0001b0 f0 dd 94 bd 90 2f a6 3d 48 f3 c9 3c 80 6d e3 ba
       -0.07268894 0.081145406 0.024652138 -0.0017351359
0001c0 bc 2d 51 3d e8 d8 f7 3d 84 77 30 bd 08 bd f4 bc
       0.051069006 0.121019185 -0.04308273 -0.029875293
0001d0 ea 75 c5 3d 36 1c da 3d 4e db 8f bd 76 bc f0 bd
       0.09641631 0.10649912 -0.07024251 -0.11754696
0001e0 f8 4f f0 3d c8 7b eb bd 7c d4 04 3d c0 9b f2 bd
       0.11734003 -0.11498219 0.032429203 -0.11846113
0001f0 d0 6f 1f 3d f0 3b 1b bc d4 de 64 bd c8 85 38 3d
       0.038924992 -0.009474739 -0.055876568 0.04504946
000200 6c 71 bb 3d c0 c0 bd 3b e0 67 e9 bd 30 5e a7 3d
       0.09152493 0.0057908 -0.11396766 0.08172262
000210 40 9c 75 bd 5a 75 b6 3d a8 b8 f9 bd f0 86 d2 bc
       -0.059963465 0.08909102 -0.121934235 -0.025699109
000220 ae d9 d1 3d c0 1d cd bc 00 b6 22 bd 00 a9 a6 bd
       0.10246597 -0.0250386 -0.03972435 -0.08137703
000230 92 1f 80 3d e0 8a 85 bc ba df c5 3d 80 2b 17 3d
       0.062560216 -0.016301572 0.09661813 0.03690672
000240 e8 37 9b 3d d4 bc 29 bd 9c 20 95 3d 44 86 e8 3d
       0.07579023 -0.041439846 0.0728161 0.11353734
000250 b0 f2 e1 bc 60 73 8b 3c 00 37 28 3d 00 7c 66 3b
       -0.027581543 0.017022789 0.041068077 0.0035169125
000260 74 58 c9 3d 9e e4 8a bd 58 fa 45 3d 6c 0a 45 3d
       0.09831324 -0.067818865 0.04833445 0.048105642
000270 54 6d 9e 3d a8 a5 bf 3c f8 63 ae 3c 44 f9 41 3d
       0.077356964 0.02339442 0.021287903 0.04735686
000280 b0 0e 4d 3d 00 02 15 bc 76 d7 95 3d 28 99 f8 bd
       0.050062835 -0.009094715 0.073164865 -0.12138587
000290 68 a9 0e 3d 30 a5 d9 bd 70 d8 57 3d e8 a0 b1 3d
       0.034829527 -0.1062721 0.052696645 0.086732686
0002a0 e8 01 f9 3c 34 3a 51 bd 7a c9 b0 3d f2 0d 84 3d
       0.030396417 -0.051080897 0.086321786 0.06447972
0002b0 d4 b2 19 3d fc ef 33 3d b6 a3 be 3d 94 a2 65 bd
       0.03752406 0.04393004 0.09308569 -0.05606325
0002c0 6c 96 1f 3d e0 62 ce bc f0 34 3f 3c 76 81 ab bd
       0.038961813 -0.025193632 0.011670336 -0.08374302
0002d0 44 c3 e8 3d e0 ab 87 bc 18 eb e1 3c a8 18 7d 3d
       0.11365369 -0.016561449 0.027577922 0.061791092
0002e0 a6 8c 82 bd 90 e3 da bc 1a 0a 90 bd 28 95 34 bd
       -0.06374483 -0.026719838 -0.07033177 -0.04408756
0002f0 8e 28 96 bd 9e 62 a4 bd c8 a2 a9 bd 20 4c 6a bd
       -0.07331954 -0.08026622 -0.08283001 -0.057201505
000300 08 84 11 bd c8 0b 8d bd d0 f6 9f bc 78 4f 5c bd
       -0.035526305 -0.06887013 -0.019526869 -0.053786725
000310 22 3e 8a bd 80 90 5f 3d 50 b6 3f 3c d4 81 f7 bd
       -0.06750132 0.054581165 0.0117011815 -0.120853096
000320 58 e3 02 3d f0 e6 23 3c b8 1d ab bc 48 b1 93 3d
       0.031955093 0.01000379 -0.020888194 0.07211548
000330 a0 d7 1c 3d 00 10 c7 b9 76 06 8f bd 3c 82 0e bd
       0.038291574 -0.0003796816 -0.06983654 -0.03479217
000340 04 9a 76 bd f6 da cf 3d 0c 16 70 bd 94 8f 31 bd
       -0.060205474 0.10149185 -0.058614776 -0.043349817
000350 e6 7a a8 bd 6c 9f 6a bd 10 c1 a7 bd b8 c1 ac 3d
       -0.08226566 -0.057280943 -0.081911206 0.084353864
000360 00 5c 41 bc a0 59 db bc 74 74 96 bd 00 d4 49 39
       -0.01180172 -0.026776135 -0.073464304 0.0001924783
000370 f4 21 3f 3d e0 bd e2 bb 68 9b 0d bd b0 02 0b bd
       0.04666324 -0.0069196075 -0.034572035 -0.03393811
000380 00 be 41 bc 1a ee a5 3d d4 5e 31 3d ac 97 42 bd
       -0.011825085 0.08102055 0.043303326 -0.047507927
000390 b4 0e 9b 3d 92 74 f0 bd fa 72 b4 3d f0 dd 79 bd
       0.07571164 -0.11740984 0.088109925 -0.06100267
0003a0 8c c9 e4 bd c0 20 4f bd 52 e7 95 3d 60 84 cd bb
       -0.111712545 -0.050568342 0.073195115 -0.006271884
0003b0 c4 5e c7 bd 20 7f ff 3c b4 2b de bd b6 0c af 3d
       -0.09734872 0.031188548 -0.108481795 0.08547346
0003c0 c0 e7 89 3b 72 8b d3 3d 18 99 fc 3c 8e 21 97 3d
       0.004208535 0.103293315 0.03083472 0.07379447
0003d0 54 49 62 3d 98 fa d2 3d 68 4f 46 bd 40 4b b4 3d
       0.055245712 0.10301703 -0.04841557 0.08803415
0003e0 e0 90 e6 bb e4 aa c9 bd f0 3f 02 3c 80 da 98 bb
       -0.0070363134 -0.09847048 0.007949814 -0.004664719
0003f0 30 20 9d 3c 4e b3 c2 3d 9e e1 9b 3d f4 81 e3 bd
       0.019180387 0.09506856 0.076113924 -0.11108771

lstm.weight_hh_l0 f4 [256, 64]
000000 50 90 07 bd 3c 0e 71 bd e0 74 75 bc d0 41 7f 3d
       -0.03309661 -0.058851466 -0.014981478 0.062318623
000010 e8 46 ea bd 8c a2 ff bd ce 6b e5 bd 00 6b bc bd
       -0.114393055 -0.12482175 -0.11202203 -0.09200096
000020 4c c8 bc bd 74 9e f1 bd 00 c5 8f bc dc 02 e0 3d
       -0.09217891 -0.11797801 -0.017549992 0.109380454
000030 ba b2 b6 bd 1c ec 00 bd 0a 00 ef 3d 8c b6 6d bd
       -0.08920808 -0.03147517 0.11669929 -0.05803542
000040 8e c7 ae bd 70 7d 2b bc 82 f5 d5 3d 70 b8 88 3c
       -0.08534156 -0.010466918 0.104472175 0.01668951
000050 da 06 ae bd c4 9f 7f bd d8 18 6e bd b0 76 ac bd
       -0.084974006 -0.062408224 -0.05812916 -0.08421075
000060 f8 dd 65 3d e8 db ad bd 2c ad 39 bd ec bc ef 3d
       0.05611989 -0.084892094 -0.045331165 0.11705956
000070 d0 20 9f bc 38 12 73 3d d8 b6 a6 3d 8a bf f9 bd
       -0.019424826 0.059343547 0.081403434 -0.12194736
000080 1e 61 fb 3d ae 3b 99 3d 7a 57 af 3d b0 24 f4 bc
       0.12274383 0.07482086 0.08561607 -0.02980265
000090 a8 8a 46 3d 90 74 e1 bd 04 1a c3 3d a8 43 6a bd
       0.048472077 -0.11008561 0.095264465 -0.05719343
0000a0 00 ff 45 bd ea 75 a7 3d c8 74 c2 bc ee 7f b3 bd
       -0.04833889 0.08176787 -0.023737326 -0.08764635
0000b0 60 df 61 3c e0 dc 35 bc 60 66 0c 3c 00 e5 61 3d
       0.013786167 -0.011100024 0.00856933 0.055150032
0000c0 9c 38 f9 bd 74 85 fa bd 68 bc 5a bd 5a 01 9b 3d
       -0.121690005 -0.122324854 -0.053402334 0.07568617
0000d0 d4 d1 c7 3d 40 1a 54 3d 80 d9 5a bb 48 68 c1 bc
       0.097568184 0.051782846 -0.00333938 -0.023609295
0000e0 80 28 12 bb 58 d2 1e 3d ea 6b cc 3d c0 0d da bb
       -0.0022301972 0.03877482 0.099815205 -0.006654471
0000f0 90 78 f5 bc b4 01 51 bd 40 93 95 bc 44 6f fe 3d
       -0.029964715 -0.051027015 -0.01825869 0.12423566
000100 7a 67 be 3d 14 a0 86 bd f8 b7 12 bd ee 2f c4 3d
       0.0929708 -0.06573501 -0.035819978 0.09579454
000110 2a c7 ea 3d d8 a3 8c 3c d8 d2 85 3d 80 d0 f6 3b
       0.11463769 0.01716797 0.06534356 0.0075321794
000120 a8 37 82 3d 5a bf 8c bd a0 7b 48 bd 4e ed 95 bd
       0.06358272 -0.06872435 -0.048946023 -0.07320653
000130 b4 d7 1a bd a0 f6 ee bb 80 1d d4 bd 70 22 96 3c
       -0.037803367 -0.0072925836 -0.10357189 0.018326968
000140 70 f0 57 bd 68 d0 a1 bc 1c a3 12 bd 44 84 68 bd
       -0.052719533 -0.019752696 -0.035800084 -0.056766763
000150 20 9e e6 bb 20 f0 72 3d 38 b4 c6 bd 2c 1b 86 3d
       -0.007037893 0.059311032 -0.09702343 0.065481514
000160 cc 11 17 bd aa 14 8c bd 80 7d e8 bb bc ca 57 3d
       -0.036882207 -0.06839879 -0.007095039 0.052683577
000170 0c 4c fc 3d 12 99 ea bd f8 b3 6b bd 3e c2 c8 bd
       0.12319192 -0.11454977 -0.05754468 -0.09802674
000180 e8 80 8f 3c ca 64 f3 3d a4 62 b3 bd ea 6b a6 3d
       0.017517522 0.11884458 -0.087590486 0.08126052
000190 c4 c8 3f bd 18 32 e9 3c 98 b9 d8 3c f4 32 77 bd
       -0.046822324 0.02846627 0.026455685 -0.060351327
0001a0 78 f9 a5 3d 38 cb e0 3c ba 66 b4 bd 0a 48 cf 3d
       0.08104223 0.027440652 -0.08808656 0.10121162
0001b0 d0 b3 2a 3d d0 eb ca 3c 00 25 5f bd ec 7d e2 3d
       0.04167539 0.024770647 -0.054478645 0.11059174
0001c0 60 c1 38 3d e8 06 bf 3d 38 cd 31 3d 90 c1 95 3c
       0.04510629 0.09327489 0.043408602 0.018280774
0001d0 20 49 82 bc 28 91 9c bd e0 6c ff 3b 9a 63 a0 3d
       -0.01590401 -0.07644874 0.0077949613 0.078314975
0001e0 f8 c9 8f 3d f0 0f ec bc 8a cd a9 3d c0 26 a4 3c
       0.07020944 -0.028816193 0.082911566 0.020038009
0001f0 c8 98 72 bd 94 e1 c1 bd b0 08 d0 bd be 71 e2 bd
       -0.059227735 -0.09466854 -0.10157907 -0.11056851
000200 86 b1 b0 bd 18 49 ce bc 40 e8 18 3c 00 cc f4 bb
       -0.0862761 -0.025181338 0.009332716 -0.0074706078
000210 d0 f6 50 3c 82 e5 bc 3d 40 da 14 3b d0 c1 6e 3d
       0.012754157 0.09223463 0.0022713095 0.058290303
000220 6e 4b de bd f2 1b 8a bd 8e 97 c7 3d ac 0c bc bd
       -0.10854231 -0.067436114 0.09745704 -0.091821045
000230 e0 37 48 3d 44 90 a8 3d 4a 49 84 bd 50 57 39 bc
       0.04888141 0.082306415 -0.06459291 -0.011312321
000240 e0 3d 4b 3d 2c ad 26 bd 5c e2 fa 3d d0 0a ff 3c
       0.049619555 -0.040692493 0.12250206 0.031133085
000250 e4 6d 5d 3d 20 c3 88 bb 80 d6 cd ba 5e cd d6 bd
       0.054059878 -0.0041736513 -0.0015704185 -0.104883894
000260 40 61 33 3d f0 89 aa bc 9e 81 a1 3d 60 f4 50 3d
       0.043793917 -0.020817727 0.07886051 0.051014304
000270 82 8b e6 3d f4 ce 1e bd 38 34 28 bd 54 36 04 3d
       0.11257078 -0.038771585 -0.041065425 0.032278374
000280 b0 99 67 bd c4 b3 cf bd e0 0f da bd c6 97 af bd
       -0.056543052 -0.101417094 -0.10647559 -0.0857387
000290 3c 4c 5c bd 62 0d f7 3d 26 2c b4 bd ee 21 80 3d
       -0.05378364 0.120630994 -0.08797483 0.062564716
0002a0 2c 49 ee 3d ec d8 20 bd ba b9 e2 bd a8 f2 9a bd
       0.1163505 -0.039269373 -0.11070581 -0.07565814
0002b0 e0 57 ab bb 12 15 fe 3d 00 f3 7c 3b c0 4e af bc
       -0.0052289814 0.124063626 0.0038596988 -0.021399856
0002c0 96 d1 e4 3d e0 89 7b bd b8 5e 98 3c 20 56 ce bd
       0.11172788 -0.061410785 0.018599853 -0.10075021
0002d0 e4 85 ff bd b0 34 72 3d 70 b9 56 3c 80 9b 96 3a
       -0.124767095 0.059132278 0.013105735 0.0011490434
0002e0 d0 f3 15 bc 10 fe 90 3c 70 1b b8 bc e2 8d a4 3d
       -0.009152368 0.017699271 -0.02247402 0.080348745
0002f0 50 dd 25 3d 80 99 b8 bb d0 65 55 3c 78 19 88 3d
       0.040494263 -0.005633533 0.013024762 0.06645483
000300 48 78 88 3c a6 ad ed 3d 5c 40 f7 3d c8 2b d2 bc
       0.016658917 0.116053864 0.120728225 -0.025655642
000310 c0 8b d3 bd d0 44 34 bd 88 b5 d1 bd e8 fb 1c 3d
       -0.103293896 -0.044010937 -0.102397025 0.038326174
000320 88 72 4d 3d 00 c9 86 3b d0 dd d4 3d d6 9c dd bd
       0.050158054 0.0041133165 0.1039387 -0.1082093
000330 30 8f a0 3c a6 2a d7 bd f8 7c e9 bd 32 d8 c5 3d
       0.019599527 -0.105061814 -0.11400789 0.096603766
000340 dc 74 3e bd d0 41 eb 3d 80 64 86 bc 1e 6a e8 3d
       -0.046498165 0.11487162 -0.016405344 0.11348365
000350 08 01 f8 bc 46 11 ac 3d 00 9e 3d bb 18 b2 a6 bc
       -0.03027393 0.08401732 -0.0028933287 -0.020348594
000360 70 63 ee 3d 80 33 7c bb f0 d0 61 bc 3a 8e 87 bd
       0.1164006 -0.0038482845 -0.013782725 -0.066189244
000370 c8 a1 2f bd 88 88 8f 3d f8 75 ec bc 42 e1 d3 bd
       -0.042878896 0.07008463 -0.028864846 -0.10345699
000380 08 50 d2 3c 56 66 9e 3d 44 0b a8 3d b0 ce 5f bd
       0.025672927 0.07734363 0.08205274 -0.054640472
000390 90 f5 bf 3d 24 a3 cf 3d 10 08 87 bd cc 30 09 bd
       0.09373009 0.101385385 -0.06593335 -0.033493802
0003a0 0c 4e a2 3d 3c 87 9b 3d 92 69 83 bd 40 8e 77 3d
       0.079250425 0.07594153 -0.0641662 0.060438395
0003b0 d4 02 62 3d de e9 ed 3d 48 72 3b 3d 28 59 f6 3c
       0.05517848 0.11616872 0.045763284 0.03007181
0003c0 48 80 9b 3c 7a 6f f2 3d 58 73 2a 3d 28 6e 33 3d
       0.018982068 0.11837669 0.041613907 0.043806225
0003d0 b0 ba 23 3d 64 72 a7 bd dc d2 83 3d 90 3a 36 3d
       0.03997296 -0.08176115 0.064367026 0.044489443
0003e0 00 f7 e6 bb 1e b6 e6 bd 60 3d d7 3d 52 f0 fc bd
       -0.0070484877 -0.11265205 0.10509753 -0.12350525
0003f0 a0 8e da bc 64 a4 9b bd 34 54 e6 bd 78 93 76 bd
       -0.026679337 -0.075997144 -0.11246529 -0.06019923

lstm.bias_ih_l0 f4 [256]
000000 74 c3 17 3d b4 ee 62 bd 68 a1 ed bd 80 3d ec ba
       0.037051633 -0.055403426 -0.116030514 -0.00180237
000010 b8 cb a3 bd be 7f c3 bd 8d dd ba 3d 00 ea d8 3c
       -0.07997841 -0.09545849 0.09124289 0.026478767
000020 ce 23 b1 3d a0 e5 59 bc 38 d2 92 bc b0 09 53 bc
       0.08649407 -0.013299376 -0.017922506 -0.012880728
000030 40 20 47 bd 5e bb b7 3d 8c f8 98 3d 96 82 d0 bd
       -0.04861474 0.08971284 0.074692816 -0.10181157
000040 80 48 ac 3c 20 9d 46 3d 20 86 1d 3d f0 7a c0 bc
       0.021030664 0.04848969 0.03845799 -0.023496121
000050 b2 a0 c6 3d 66 6a 98 3d 64 b2 64 3d 54 de 7f 3d
       0.09698619 0.07442169 0.05583419 0.062467888
000060 90 6e 33 bd 5a d1 d5 bd ce f8 c8 3d 58 b3 90 3d
       -0.043806612 -0.10440321 0.09813081 0.07065457
000070 a0 2a 95 bc 6c 3c b4 bd d8 9f b2 3c 94 c0 a8 3d
       -0.018208802 -0.08800587 0.021804735 0.08239856
000080 c0 d9 74 bb 80 83 3b 3c 60 17 38 bd 9a 10 b7 bd
       -0.0037361234 0.011444926 -0.044944167 -0.08938713
000090 f8 f2 5c 3d fa a6 c9 3d 80 f2 23 3b 50 a1 18 3d
       0.05394265 0.098463014 0.0025016367 0.037263215
0000a0 6c 1a e4 bd 3e 93 b7 bd 70 cc 22 3c 38 83 ec bd
       -0.11137852 -0.08963631 0.009936437 -0.115484655
0000b0 dc 0b 71 3d 60 d8 09 3d 90 f1 3c bc 44 c6 83 bd
       0.0588492 0.033653617 -0.011532202 -0.064343005
0000c0 c0 8a a8 bd 40 dd ef bc 30 a5 23 bd fa 5c 9a 3d
       -0.082295895 -0.029280305 -0.039952457 0.07537265
0000d0 8e cc 9a bd 66 6a b5 3d 78 c2 9b bd 40 73 41 bd
       -0.07558547 0.088581845 -0.07605451 -0.04722905
0000e0 36 88 8b bd 9c a5 17 3d c0 fe cb 3c 20 ca f6 3d
       -0.068130895 0.03702317 0.024901748 0.12050271
0000f0 cc 78 ab 3d 6a f6 a5 3d 7c 26 3f 3d e0 fd 9b 3d
       0.083726496 0.081036404 0.04666756 0.07616782
000100 c4 ec 82 bd b0 14 4f 3d 70 54 7d bc 80 c1 ca 3b
       -0.06392816 0.05055684 -0.015462026 0.006187618
000110 e0 ef 81 3d 14 ae 38 bd 42 06 9c bd 40 24 5c 3d
       0.06344581 -0.04508789 -0.07618381 0.05374551
000120 80 65 01 bd f0 c5 d9 3d 14 8c e9 bd 98 03 36 3d
       -0.03159094 0.10633457 -0.11403671 0.04443702
000130 58 a7 b3 3d 9c c8 0e 3d 48 35 ab 3d 72 2f e8 bd
       0.08772153 0.034859285 0.08359772 -0.113371745
000140 10 77 61 3d 48 ad 81 bc c0 87 80 bb 48 37 28 3d
       0.055045187 -0.015829697 -0.0039224327 0.041068345
000150 36 f2 d6 bd 0a 97 ee bd 80 69 4f 3b c8 42 b7 3c
       -0.10495417 -0.11649902 0.0031648576 0.022370711
000160 0a 76 b8 3d 7a 26 ea bd 2c 64 b2 3d e2 05 ad bd
       0.09006889 -0.1143312 0.087105125 -0.08448388
000170 98 94 53 3d ec 7e d8 3d 24 5b aa 3d c0 5d f4 3b
       0.051655382 0.105710834 0.08318165 0.007457465
000180 5c 25 07 bd ba a2 ce 3d 30 b4 71 bd 9c 80 23 bd
       -0.032994613 0.100896314 -0.05900973 -0.039917573
000190 10 21 45 bd 28 b6 c6 3d d4 55 cd bd 60 40 e2 3d
       -0.048127234 0.09702712 -0.10026136 0.11047435
0001a0 32 95 fb 3d f8 0b 79 3d b0 30 bb 3d c4 4a 51 3d
       0.12284316 0.06080243 0.09140146 0.051096693
0001b0 4c fa 32 bd 04 e5 51 3d dc 77 a1 bd 80 c5 ba bb
       -0.043695733 0.051243797 -0.078841895 -0.0056998134
0001c0 94 35 bf bd 66 b8 9b bd 6c 92 30 3d a4 50 70 3d
       -0.09336391 -0.076035306 0.04310839 0.058670655
0001d0 8c 97 96 bd 58 51 f8 3d 38 08 b6 3d 10 e3 f6 3c
       -0.07353124 0.1212489 0.08888286 0.030137569
0001e0 12 b0 e6 3d cc 29 08 3d e0 43 80 bd a8 16 d9 3d
       0.112640515 0.033242986 -0.06262946 0.106000245
0001f0 a8 89 37 bd fc fa be 3d 66 46 cd bd e6 ad c3 bd
       -0.044809014 0.09325215 -0.10023193 -0.09554653
000200 b8 de c3 bc ec fd 10 bd c0 4c 63 3b c0 b0 a9 3d
       -0.023909912 -0.03539841 0.0034683198 0.082856655
000210 54 3b 3f bd 1a ea c3 3d a4 8a a2 bd e8 80 c4 bc
       -0.04668744 0.09566136 -0.079366 -0.023987249
000220 a4 36 3a 3d 60 c2 84 3c 54 4d bc bd 5a a2 fb bd
       0.045462266 0.016205966 -0.09194437 -0.122868255
000230 08 9a 76 3d 60 2e 8c 3c 28 92 b0 3d 3a d3 a3 bd
       0.06020549 0.017111957 0.08621627 -0.07999273
000240 60 e7 bf bc d0 dd 08 3c 10 8e 6b bd f0 0d 5a 3d
       -0.023425758 0.0083536655 -0.05750853 0.053235948
000250 32 67 a4 3d 66 03 8e bd d2 02 b8 3d 60 a0 3e bd
       0.080274954 -0.06934242 0.08984913 -0.046539664
000260 20 d2 9b 3c ee 28 fe bd 70 b6 08 bd ec 2c 1c bd
       0.019021094 -0.124101505 -0.03337711 -0.03812878
000270 d0 f1 a4 3d b0 1e 98 3d d2 b1 c0 bd 02 11 a7 bd
       0.080539346 0.07427728 -0.094089165 -0.08157541
000280 84 08 0c bd 40 40 d5 3c 70 0b ce 3c 58 52 59 bd
       -0.03418781 0.026031613 0.025151938 -0.053057045
000290 2c 68 0b 3d e8 4b f8 3c 48 35 e2 bc f4 85 30 3d
       0.034034893 0.030309632 -0.027613297 0.043096498
0002a0 96 f3 c7 3d cc bf 0e 3d c8 0f ba 3c ca 6e f5 3d
       0.09763257 0.03485088 0.022712603 0.11984022
0002b0 00 12 da 3b 34 33 b1 3d 78 39 e2 3c 2a 94 bf bd
       0.006654978 0.08652344 0.027615294 -0.09354432
0002c0 60 60 92 3d 6e c1 a6 bd b8 8d 8c bc dc b4 de bd
       0.07147288 -0.081423625 -0.01715742 -0.1087434
0002d0 ae ae f3 bd 80 77 5f 3b 16 c5 b1 3d f0 fa df bd
       -0.11898552 0.0034098327 0.08680169 -0.109365344
0002e0 16 01 9b bd f4 de 00 bd b0 9b 85 bd e4 4a ef 3d
       -0.075685665 -0.031462625 -0.06523836 0.11684206
0002f0 fc ad 8b bd a0 03 fa bb 78 97 1f 3d a4 62 ef bd
       -0.06820294 -0.0076298267 0.03896281 -0.11688736
000300 fe 0b e6 3d ce f9 b3 3d 96 ee 89 3d 04 9a 4e bd
       0.11232756 0.08787881 0.0673496 -0.05043985
000310 6a 06 95 bd 82 88 f2 3d 7c 67 65 3d 28 96 13 3d
       -0.07276614 0.11842443 0.056006894 0.036031872
000320 88 79 bd 3c 30 be 09 bd f8 1d f5 bd b0 7a 21 bc
       0.02312924 -0.033628643 -0.11968607 -0.009855911
000330 b0 33 9e bd 60 0d ab 3c 18 f0 7b bd bc 28 bf 3d
       -0.07724702 0.020880401 -0.061508268 0.09333941
000340 4e 1c cf 3d f8 6e 88 bd f8 cd 22 3d 80 ba 96 3c
       0.101128206 -0.066617906 0.03974721 0.018399477
000350 88 40 4e bd 82 77 bf bd a0 48 f0 3d a4 8e e9 3d
       -0.05035451 -0.09348966 0.11732602 0.1140416
000360 68 32 1e bd 70 4e ce 3c 06 a6 cd 3d 14 88 d0 bd
       -0.03862229 0.025183886 0.10041432 -0.10182205
000370 f0 21 3a bc 52 00 c9 3d a0 08 4b 3c a4 82 69 bd
       -0.01136063 0.09814514 0.012392193 -0.057009354
000380 d0 ef f1 bd 52 dc f1 bd ea 6e e7 bd b8 21 fe bd
       -0.11813319 -0.11809601 -0.11300452 -0.12408775
000390 d8 7d b3 3d 5a b2 d3 bd a6 82 c5 bd 28 65 cf bc
       0.08764237 -0.10336752 -0.0964406 -0.02531679
0003a0 40 d3 0b 3c 98 08 96 bd f8 92 72 bd 92 ab bd bd
       0.008534253 -0.07325858 -0.05922219 -0.0926124
0003b0 6e 64 a1 3d fc fe 29 3d 44 cb a4 bd dc 1d dc bd
       0.078804836 0.041502938 -0.08046582 -0.10747883
0003c0 46 b9 f1 bd 6a 29 fa bd 06 5a b3 3d 1c 22 3c bd
       -0.11802916 -0.1221493 0.08757405 -0.045930967
0003d0 b6 87 9c bd 70 0e c6 bc 72 a2 b8 3d 1c 6b 0e 3d
       -0.07643072 -0.024176806 0.09015359 0.034770116
0003e0 5c cd 5f bd 60 40 30 3d e8 39 c6 3d f8 c0 ce bd
       -0.054639205 0.043030143 0.096790135 -0.100953996
0003f0 e6 bc af 3d 50 0a 82 3c b8 15 46 3d 26 d5 b2 3d
       0.085809514 0.015874058 0.048360556 0.08732061

lstm.bias_hh_l0 f4 [256]
000000 92 07 94 bd 56 6f e2 bd 88 a1 bb 3d 4c 0e ca bd
       -0.072280064 -0.11056392 0.09161669 -0.09866008
000010 20 08 c2 bb 42 a9 f6 bd 61 e0 86 bd 38 b0 0c bd
       -0.0059213787 -0.12044002 -0.06585766 -0.034347743
000020 78 97 9c 3c d4 97 01 bd 70 c0 82 3c ae 76 ec 3d
       0.019115195 -0.031638935 0.015960902 0.11546074
000030 84 68 6c bd 68 04 f0 bd 80 ca 1d bd 96 cc 8d bd
       -0.05771686 -0.117195904 -0.038523197 -0.06923787
000040 88 06 59 3d 38 de a6 3d d4 12 5d bd a4 59 ee 3d
       0.052984744 0.081478536 -0.053973034 0.11638191
000050 c4 de cf bd 7c 0b a9 3d 40 72 ef bb 90 d2 2d 3c
       -0.10149911 0.082541436 -0.007307321 0.010609284
000060 b8 d1 c2 3d e0 93 76 3d 7a c9 93 bd ec aa 89 bd
       0.09512657 0.06019962 -0.07216163 -0.06722054
000070 20 17 fb 3d 74 83 75 bd 50 7c a6 bc f4 07 aa 3d
       0.1226027 -0.059939817 -0.020322949 0.08302298
000080 24 1c 44 3d 24 50 db 3d 28 c7 d7 bc 60 84 97 bd
       0.0478784 0.10708645 -0.026340082 -0.073982954
000090 6c e1 36 3d b2 85 e7 3d ca c2 a4 bd 00 d2 7c ba
       0.044648573 0.11304797 -0.080449656 -0.00096443295
0000a0 04 81 0c 3d 00 f1 16 ba 06 12 d2 bd 90 ee 61 bd
       0.034302726 -0.00057579577 -0.10257344 -0.05515915
0000b0 d8 f0 9f bc f4 bf bd bd 7a 02 9b 3d 7c 18 49 3d
       -0.019524023 -0.09265128 0.07568832 0.049095616
0000c0 a6 29 f2 3d 0a 4a 8d 3d 98 c6 71 3d e0 34 49 3d
       0.1182435 0.068988875 0.059027284 0.04912269
0000d0 c0 16 25 3c cc ac cd bd 68 fc a7 bc 40 2a a6 3b
       0.010076225 -0.10042724 -0.020506099 0.0050709546
0000e0 f4 60 74 3d 30 3f 22 bc 68 65 df 3c c8 54 83 bc
       0.059662774 -0.00990276 0.027270034 -0.016031638
0000f0 32 cf d6 bd a0 7b fe bb f4 96 93 bd 90 8a c5 3c
       -0.10488738 -0.007766202 -0.072065264 0.024113923
000100 60 11 40 3c 56 42 c0 bd bc ef ab 3d c0 7a 04 3b
       0.0117228925 -0.093876526 0.08395335 0.0020214766
000110 7c 3a f7 bd b8 7c 4e 3d b0 33 5c bd ee 2a 92 bd
       -0.12071702 0.05041191 -0.05376023 -0.071370944
000120 88 a6 23 3d 56 89 fe 3d 84 4f 4f bd 7e ea c2 3d
       0.03995374 0.124285385 -0.05061294 0.09517382
000130 22 f2 cc bd 82 fd 83 3d e0 dc 7a bc 58 ad c2 bd
       -0.10007121 0.06444837 -0.01531145 -0.09505719
000140 8c 6d 6a bd 7e 34 af bd 72 61 fd 3d 48 97 41 bd
       -0.05723338 -0.08554934 0.12372102 -0.047263414
000150 f0 4d a1 bd a0 9f 3d bc 54 79 a3 bd 88 88 cb bc
       -0.078761935 -0.011573702 -0.07982126 -0.024845377
000160 ac d3 d8 3d c8 fd 10 bd 60 9c 24 3c 3e 97 97 3d
       0.10587248 -0.035398275 0.010047048 0.07401894
000170 c0 3e 7d 3b f0 f7 5a 3d 56 60 a5 3d f0 cf 6e 3d
       0.0038642138 0.053459108 0.08075015 0.058303773
000180 30 18 45 3d 76 ee cb 3d 4c 8e 70 bd e8 fc 8a 3c
       0.04811877 0.09957592 -0.058729455 0.016966298
000190 62 17 a6 bd 48 5f 06 bd 70 b2 37 3d 20 9e 4d bd
       -0.08109929 -0.03280571 0.044847906 -0.050199628
0001a0 aa bd 8a 3d 60 31 74 bd 74 4c 78 bd ce cd ca bd
       0.06774457 -0.0596174 -0.060619786 -0.099025354
0001b0 40 5c 67 bb 44 e3 b0 bd 60 16 f4 bb a0 d4 8b 3c
       -0.0035302788 -0.086370975 -0.0074489564 0.017069161
0001c0 80 d5 1b bb 1c 31 ef 3d 24 08 1d 3d d6 f1 97 bd
       -0.002377838 0.11679289 0.03833784 -0.074191734
0001d0 ea 8a ff bd 56 88 db bd c0 db 9c 3b 18 9d a4 3c
       -0.12477668 -0.107193634 0.0047869384 0.02009444
0001e0 18 6d b2 3d 04 df f4 3d 02 7e a0 bd f4 e8 6f bd
       0.08712214 0.11956599 -0.07836534 -0.05857177
0001f0 80 00 d5 ba 12 ec b3 bd 9a 17 b7 3d b0 03 0b 3d
       -0.0016250759 -0.08785261 0.089400485 0.033939064
000200 be c8 89 bd 0e 27 b7 3d 40 cd 91 3b b8 24 a8 bc
       -0.06727742 0.08942996 0.0044495165 -0.020525321
000210 3e 46 b7 3d 12 9c ff bd 6c e0 a2 bd 6a 1b 88 3d
       0.089489445 -0.1248094 -0.07952961 0.06645854
000220 10 09 e5 3d 08 d7 11 bd a2 50 92 3d 7a 69 d8 3d
       0.11183369 -0.03560546 0.07144286 0.10566993
000230 d8 db c7 3c aa dc d3 bd f6 25 94 3d ee 13 a1 3d
       0.024396822 -0.10344823 0.07233803 0.078651294
000240 c8 7e a4 3d 58 e5 a5 bc f0 4a 07 3c 88 53 80 bd
       0.08031994 -0.020250961 0.008257613 -0.06265932
000250 24 47 ee 3d 30 ea 7e bc 78 0c 90 bd 70 37 10 bd
       0.11634663 -0.015558764 -0.07033628 -0.03520912
000260 1c b9 1a bd 18 ec 73 3d d4 0a 75 3d 6c 91 79 3d
       -0.03777419 0.05955133 0.05982478 0.0609297
000270 a0 16 b3 bd e6 9c f6 3d 26 8b d2 3d 40 21 0c 3d
       -0.0874455 0.12041645 0.10280447 0.034211397
000280 78 51 1a 3d b0 2d 16 bc b0 c4 5a 3d a4 4c 8c 3d
       0.03767535 -0.009166166 0.053410232 0.068505555
000290 58 89 f8 bd 94 2c c1 bd c0 5c e5 bd ec 2d 3b 3d
       -0.12135571 -0.09432331 -0.11199331 0.04569809
0002a0 e0 cd 8c 3b 20 3d 2b bc 24 7d 3d 3d 38 e3 31 3d
       0.004297003 -0.010451585 0.04626192 0.043429583
0002b0 4e fd ca bd 96 44 fb bd 40 9c 75 3b b4 70 c6 bd
       -0.09911595 -0.12268941 0.0037477165 -0.09689465
0002c0 6c a7 fe 3d 52 f7 a4 bd f6 68 ce 3d c0 9b c7 3c
       0.12434277 -0.08054985 0.100786135 0.02436626
0002d0 00 f4 87 bb b4 83 4a bd ee ca ec bd 02 92 ab bd
       -0.00414896 -0.04944201 -0.11562143 -0.08377458
0002e0 20 b7 36 3c 78 ca b5 bc 88 d8 63 bd 62 9d b4 3d
       0.011152059 -0.022191271 -0.055626422 0.08819081
0002f0 d8 af b6 3d 0c 85 47 bd 7c 97 e9 3d b8 1a a5 3d
       0.08920258 -0.048710868 0.114058465 0.08061737
000300 a0 8b 3a 3d b8 ec bc 3d f0 16 84 bc b0 bf 43 3c
       0.045543313 0.09224838 -0.016124219 0.011947557
000310 c2 fe 8d bd 9c f9 01 bd 40 45 1f 3d ac 9f d6 bd
       -0.06933357 -0.031732187 0.0388844 -0.10479674
000320 30 cd 3e bc 60 8c c7 3b 20 02 dc 3d 92 28 bc bd
       -0.0116456 0.006089732 0.10742593 -0.09187426
000330 40 af 52 3d 60 32 f7 bb 20 4d 5c 3d 78 bf 94 3d
       0.051436663 -0.007543847 0.05378449 0.07263082
000340 30 6c af bd 22 bf a3 3d dc 65 70 3d d0 2c b3 3c
       -0.08565557 0.0799544 0.05869089 0.021871954
000350 d4 bd fd bd 28 af ad 3d 22 07 92 bd f2 66 aa 3d
       -0.123897225 0.08480674 -0.07130267 0.083204165
000360 f8 8b 46 3d 80 18 7e 3b c0 63 82 bd ec 6c 8d 3d
       0.04847333 0.0038771927 -0.06366682 0.06905541
000370 20 b4 c2 bd a0 f9 52 3c 28 15 24 3d 78 3b db bd
       -0.09507012 0.012876898 0.04005924 -0.10704702
000380 60 14 59 bc 00 ea da b9 52 af 8a bd 64 d2 cc bd
       -0.013249487 -0.00041754544 -0.06771721 -0.10001066
000390 c8 c3 b3 3d 96 02 b9 bd 0c b0 dc bd b2 f5 c8 bd
       0.08777577 -0.09033696 -0.10775766 -0.09812488
0003a0 ca be a0 3d c0 c9 59 3d 64 8a 9c bd 58 2e dc 3c
       0.0784889 0.05317092 -0.076435834 0.026877567
0003b0 b4 58 b4 3d 20 b8 0f bd 6c 46 6a bd 2e b4 f4 bd
       0.08805981 -0.035087705 -0.057196066 -0.11948429
0003c0 08 fd 80 bd 60 c5 df bd 4e d4 92 3d 20 d2 d5 bb
       -0.06298262 -0.10926318 0.071694 -0.006525293
0003d0 d0 c5 23 3d 4a 55 e6 bd 8c 37 b8 bd c0 7d e6 bd
       0.03998357 -0.11246736 -0.0899497 -0.11254454
0003e0 44 20 34 bd 24 db 81 bd 68 c7 d3 bd 10 85 f9 bc
       -0.043976083 -0.06340626 -0.10340768 -0.030458957
0003f0 ce 0c f4 bd 44 fc b4 bd 26 ce f4 3d fc 08 e7 bd
       -0.11916505 -0.08837178 0.11953382 -0.112810105

lstm.weight_ih_l0_reverse f4 [256, 5]
000000 ee ab e4 3d 38 a2 cc bd 40 f9 bc bd c0 b8 05 3d
       0.111656055 -0.09991878 -0.09227228 0.032646894
000010 f8 11 dd bc 3c 6a c1 3d 38 c6 f4 bc f0 b7 29 3c
       -0.026986107 0.09444091 -0.029879674 0.0103587955
000020 fc cd 78 bd 96 c2 df bd e8 67 b2 3c 70 97 a1 bd
       -0.060743317 -0.10925786 0.021778062 -0.078902125
000030 68 eb 80 bd 80 90 87 ba dc 70 1b 3d da 60 87 bd
       -0.062949 -0.0010342747 0.037949428 -0.0661027
000040 00 06 fd ba 9a 90 c6 bd 28 09 f0 bd 60 ba 7e 3c
       -0.0019304156 -0.09695549 -0.117204964 0.015547365
000050 38 65 dc bd 40 cb d5 bd 56 ab a6 3d f8 39 24 3d
       -0.107614934 -0.104391575 0.081381485 0.040094346
000060 d8 84 89 bd 32 47 dc bd e0 fd e7 bc 90 5c 91 3d
       -0.06714791 -0.10755767 -0.0283193 0.07097733
000070 86 45 8d bd ac dc 54 bd fa a7 f4 3d 88 d3 e1 3c
       -0.06898026 -0.05196826 0.119461015 0.027566686
000080 30 68 1e 3c 4a a5 97 bd 20 48 d5 bd 3a a3 cc 3d
       0.009668395 -0.07404573 -0.104141474 0.099920705
000090 00 ba 74 bd 64 84 f6 3d aa 88 98 bd d8 61 91 bc
       -0.059747696 0.1203697 -0.074479416 -0.01774685
0000a0 68 86 b1 bc 28 05 c4 bc b0 a5 ad 3c 24 ba 29 bd
       -0.021670535 -0.02392824 0.02119717 -0.041437283
0000b0 b0 8c 6f 3d ca 0d fd 3d 70 21 a8 bc 60 14 f5 bd
       0.05848378 0.12356146 -0.020523757 -0.11966777
0000c0 70 89 6d 3c 2e 94 8e 3d 8c f8 4a bd c0 47 ab bd
       0.0144981 0.06961857 -0.04955344 -0.083632946
0000d0 9c 48 28 3d 20 20 64 3d 60 0c fa bd c0 ca 31 3b
       0.04108487 0.0556947 -0.122093916 0.0027128905
0000e0 3c 95 1a bd b2 37 fe bd c4 4c 5b bd 58 58 bc bd
       -0.037739977 -0.12412967 -0.053540006 -0.09196538
0000f0 b6 00 ac bd 6c c7 6e bd 60 22 c7 bb 64 af 2c 3d
       -0.08398573 -0.058295652 -0.006077096 0.042159453
000100 f8 9a 91 bd 5c 22 5f 3d 14 fd cc bd e4 76 29 bd
       -0.07109636 0.054476127 -0.10009208 -0.04137315
000110 92 9a a5 3d 94 0e 68 3d 80 7b 68 3d e6 92 ab 3d
       0.080861226 0.056654528 0.056758404 0.08377628
000120 d0 1a 48 bc 00 d6 2b bc 1c c4 9c bd 48 d4 46 bd
       -0.012213424 -0.010488033 -0.076545924 -0.04854229
000130 48 e1 b8 3d 12 b8 ec bd d6 ce 8d 3d 9e 66 b4 3d
       0.09027344 -0.11558546 0.069242164 0.08808635
000140 b4 4b c3 bd 62 0c a7 3d 48 4a d2 bc 30 64 7d bc
       -0.095359236 0.08156659 -0.025670186 -0.015465781
000150 b0 06 0d 3d 28 94 d9 bd 0c 2e 00 bd 76 09 cd 3d
       0.034430206 -0.10623962 -0.031293914 0.1001157
000160 f0 b4 cd bc 78 4a 4e 3d d8 fa 79 3d cc aa ba bd
       -0.025110692 0.050363988 0.06103024 -0.09114608
000170 0c 77 22 bd 70 e3 af bc ac 77 d1 bd f8 97 bc 3d
       -0.039664313 -0.021470755 -0.10227904 0.09208673
000180 2a fe d7 bd 20 6a 75 3d f0 a6 5f 3c 5e 5c c7 3d
       -0.10546525 0.05991566 0.013650641 0.097344145
000190 68 b8 f2 3c 54 f0 d3 3d 64 46 4f 3d 90 a6 07 3c
       0.029628947 0.10348573 0.05060424 0.008279458
0001a0 30 35 49 3d cc 7a ce 3d 72 78 dc bd 00 45 dd bc
       0.04912299 0.100820154 -0.107651606 -0.02701044
0001b0 e0 74 74 bd 50 ad 80 3c 30 03 49 bc 28 aa 9a 3d
       -0.059681773 0.015707642 -0.012268826 0.07551986
0001c0 00 ad b0 bb be 67 cb bd 18 05 07 3d 24 7b f8 bd
       -0.005391717 -0.099318966 0.032963842 -0.12132862
0001d0 9e 62 95 bd 38 85 5d 3d 00 26 1a 3d a8 28 a1 bd
       -0.072942 0.054082125 0.037633896 -0.07869083
0001e0 4a 5b 8e bd f0 5f a7 bc 0c 39 44 bd 50 99 1a 3c
       -0.06951006 -0.020431489 -0.047905967 0.009435967
0001f0 a0 49 34 bd 76 34 97 3d b4 df a8 bd 76 e0 c3 3d
       -0.044015527 0.07383053 -0.08245793 0.09564297
000200 98 a7 b8 3c d4 8e 42 3d a0 d7 32 bd 20 b5 95 bc
       0.022540852 0.047499493 -0.043662667 -0.018274844
000210 48 96 95 bd 60 b7 e1 3b e4 b8 76 bd d0 75 56 3d
       -0.073040545 0.006888315 -0.06023492 0.05235845
000220 98 5a b1 3d 40 60 92 3c d8 c9 ef bd c8 e0 8b 3d
       0.086598575 0.017868161 -0.117084205 0.06829983
000230 60 02 be 3b b4 9c 13 3d 80 f3 32 3c c8 63 83 bc
       0.005798623 0.036038116 0.010922313 -0.01603879
000240 04 05 83 bd f0 fd 88 bd d0 b2 bb bc 38 67 e5 3d
       -0.06397441 -0.0668906 -0.022912413 0.11201328
000250 50 3b 68 bc 00 76 60 bb ee 00 b9 3d e8 f5 d5 bc
       -0.014174297 -0.003425002 0.090333804 -0.026118234
000260 a0 97 e2 bb 40 8a f6 bb a4 58 61 bd 40 00 a9 3d
       -0.0069150478 -0.007523805 -0.055016175 0.08252001
000270 58 ec c3 bd f0 c3 6d 3d a4 85 65 bd ec b4 d6 bd
       -0.09566563 0.05804819 -0.056035653 -0.10483727
000280 be a0 c1 3d dc 2b a5 3d 3c 1a c5 3d 92 78 c5 bd
       0.09454487 0.08065006 0.096241444 -0.096421376
000290 2c 37 36 3d 80 5f a3 3d 34 60 46 bd ae 21 98 3d
       0.04448621 0.079771996 -0.04843159 0.07428299
0002a0 80 52 79 bb ac 59 59 3d 8c 1f a0 bd 7c b6 6b bd
       -0.0038043559 0.053064033 -0.07818517 -0.057547078
0002b0 e6 ca c1 3d e0 f0 8a 3c 92 dc fe bd 44 fe ef bd
       0.09462528 0.016960561 -0.12444414 -0.11718419
0002c0 b8 46 8f 3c 04 ec f8 bd 94 98 c0 bd e0 b3 df 3d
       0.017489776 -0.121543914 -0.09404102 0.1092298
0002d0 0c 89 bb bd f8 20 d7 bc 28 74 bb bc ac 98 66 bd
       -0.09156999 -0.026260838 -0.022882536 -0.056297943
0002e0 38 62 5d bd 64 b8 0f 3d 38 77 c1 bd 0a 6f dd bd
       -0.054048747 0.035087958 -0.09446567 -0.10812195
0002f0 be 99 96 bd 3c 07 16 bd 3a 57 8f 3d f0 6d ae bd
       -0.07353543 -0.036627993 0.06999059 -0.08517063
000300 d0 05 1a 3c ac d6 93 bd 5c 4d d9 3d a0 a9 ac bc
       0.0094008 -0.0721868 0.10610458 -0.021076977
000310 f2 58 8b 3d 94 f7 9b bd 5e d9 80 3d a4 7f 26 bd
       0.06804074 -0.07615581 0.062914595 -0.04064907
000320 60 a6 dc bd 62 24 fe 3d 60 60 cd 3c 78 4f 17 bd
       -0.10773921 0.12409283 0.02507037 -0.03694102
000330 80 89 80 ba 86 fb d0 bd b0 d8 7b 3d c2 39 d4 bd
       -0.0009806603 -0.10204224 0.061485946 -0.10362579
000340 80 b7 df 3b 2c f4 40 bd 24 1b 63 3d b8 ee c3 3d
       0.006827295 -0.04710786 0.055445805 0.09567016
000350 a4 16 ce 3d 54 93 19 bd 8e 3d 8e bd 90 3e 14 3d
       0.10062912 -0.03749402 -0.069453344 0.036192477
000360 ec c0 29 bd 38 b0 bc bd a2 21 ac 3d 98 ad 3d bd
       -0.04144375 -0.092132986 0.084048524 -0.04630813
000370 60 4b 3b bc a8 2e 76 3d 28 a1 17 3d ae a4 81 3d
       -0.011431545 0.06010309 0.037018925 0.06330238
000380 60 46 c6 bd c6 29 bf bd 78 1d c9 bd 5c 33 63 3d
       -0.09681392 -0.093341395 -0.09820074 0.055468902
000390 b2 eb 98 bd 40 c4 51 3d 54 a8 6b bd 40 f1 a2 3b
       -0.0746683 0.05121255 -0.057533577 0.004972607
0003a0 80 10 b2 bb 78 a0 a8 bd 2e a2 ab bd a0 5b 84 3c
       -0.005434096 -0.08233732 -0.08380543 0.016156971
0003b0 4c 4c 9b 3d 56 e6 fe 3d e0 d2 24 bc 60 92 b1 3b
       0.07582912 0.12446277 -0.010060042 0.0054190606
0003c0 00 05 a2 3b 1a 1c 92 bd 94 93 a9 3d 90 6a 9d bd
       0.0049444437 -0.07134266 0.082801014 -0.07686341
0003d0 08 5c 7b bd 56 54 a8 bd 50 8a 3f bd ac 51 ed bd
       -0.061367065 -0.08219211 -0.046762764 -0.11587843
0003e0 48 d4 14 bd 46 1f 92 bd 80 a6 a3 3d 2c 66 72 bd
       -0.03633526 -0.07134871 0.07990742 -0.05917947
0003f0 ce 6a c9 3d 30 8d aa 3d 58 2f 92 bc d2 ba e8 3d
       0.098348245 0.08327711 -0.01784484 0.11363758

lstm.weight_hh_l0_reverse f4 [256, 64]
000000 80 c5 ad 3a b6 3c 9f 3d 90 6d 27 3c 90 8e 3a 3d
       0.0013257712 0.077752516 0.010218993 0.045546114
000010 fc d3 57 3d 10 79 7d 3c c0 7a 0a 3d ae 10 fd bd
       0.0526924 0.015470758 0.03380847 -0.12356697
000020 40 bb 3d bd 70 b3 ef bc e6 4b f9 3d 0c f0 6b bd
       -0.046321154 -0.029260367 0.121726796 -0.057601973
000030 50 ed e5 3c 6c f6 c5 3d 08 21 bb 3d 00 02 a0 3c
       0.028067261 0.09666142 0.091371596 0.019532204
000040 ce a6 af 3d b8 ed 83 bc 7a 24 87 3d 00 d1 10 3b
       0.08576737 -0.016104564 0.06598754 0.002209723
000050 68 5d 10 bd 30 16 0c 3c a0 71 67 bc e8 27 75 bd
       -0.03524533 0.008550212 -0.014126211 -0.05985251
000060 60 84 fb bc e0 05 09 3d f0 e5 b5 3c 6a 2a ad bd
       -0.03070277 0.03345287 0.02220437 -0.084553555
000070 e8 5e bd bd 78 c6 c2 bc 00 01 41 3c 8c f7 8f 3d
       -0.092466176 -0.023776278 0.011780024 0.07029638
000080 d8 96 e3 bc c0 3e 1c 3b 96 34 84 bd 58 b9 b6 bc
       -0.027781889 0.0023841113 -0.064553425 -0.022305176
000090 a0 9a 40 bd 38 8c 3b 3d 92 03 8a 3d cc b0 d6 3d
       -0.047022462 0.04578802 0.06738962 0.1048294
0000a0 58 80 b9 bc 28 99 fe 3d 80 78 3d 3b fc c5 a3 bd
       -0.022644207 0.12431556 0.0028910935 -0.07996747
0000b0 fc 5c 19 3d 74 55 b4 3d ee fc a0 3d c0 bc cb bb
       0.037442192 0.088053614 0.078607425 -0.006217569
0000c0 20 4f da bd 88 37 cf 3c 10 3f fa bc 52 5e c9 bd
       -0.10659623 0.025295034 -0.030547649 -0.09832443
0000d0 2c 30 81 3d ba 59 a6 bd c0 b8 ed bb c2 93 84 bd
       0.06308016 -0.08122583 -0.00725469 -0.06473495
0000e0 70 52 2a bc 3a 7b 9e bd 10 91 05 3c e0 b5 99 bd
       -0.010395631 -0.07738347 0.008152261 -0.07505393
0000f0 4c 17 46 3d fc 58 8e 3d 3a 89 a1 bd dc f7 c6 bd
       0.04836206 0.06950566 -0.07887502 -0.09715244
000100 30 45 b4 3c e0 54 0e bc 1c ac 34 3d 58 89 88 3c
       0.022005647 -0.008687228 0.04410945 0.016667053
000110 8c d3 f4 3d a0 a0 1c 3c 92 89 a8 bd 00 de b4 bd
       0.11954412 0.00955978 -0.082293645 -0.08831406
000120 4c f2 6d bd e0 59 d3 bb 48 27 d8 3c 2e 5d 83 3d
       -0.0580924 -0.006449923 0.026385918 0.06414257
000130 fa 9b 81 bd 60 ab b8 bb 20 66 bb bc 64 ea 03 bd
       -0.06328578 -0.005635664 -0.022875845 -0.032205954
000140 18 0d 80 bc 10 83 fb bd 90 bf 3d 3d 9c cc 85 bd
       -0.015631244 -0.122808576 0.046325266 -0.06533167
000150 76 2d 8f bd 16 8f ba 3d 80 d5 27 bd 18 4b f7 bc
       -0.06991093 0.09109323 -0.040975094 -0.030187175
000160 90 98 1a bc b4 1b 20 3d d0 8f 4e 3d 00 bf 86 ba
       -0.009435788 0.03908892 0.05043012 -0.0010280311
000170 98 88 e4 3c 3c 78 2f bd 66 9d a3 bd b8 0d a7 bc
       0.027897164 -0.042839274 -0.07989006 -0.020392284
000180 d4 8c fb bd c6 66 c5 bd 80 b1 f6 bc 0e b7 f1 bd
       -0.1228272 -0.09638743 -0.030113935 -0.11802493
000190 50 f4 2d bc 36 6f 85 bd 98 6c ff 3d ae e9 d4 3d
       -0.010617331 -0.065153524 0.124718845 0.10396133
0001a0 82 f6 9e 3d 7c a6 02 3d a0 ab e1 bb 96 5e fa 3d
       0.077618614 0.031897053 -0.0068869144 0.12225072
0001b0 38 44 da 3d f8 88 ca bc 6c 71 9c 3d fe d0 80 bd
       0.10657543 -0.024723515 0.07638821 -0.06289862
0001c0 10 20 e9 bc f0 45 db bc aa 81 97 bd 80 49 9b 3b
       -0.028457671 -0.026766747 -0.07397778 0.0047389865
0001d0 30 61 75 3d a2 6a cb bd 34 8c c5 3d 26 a0 d6 3d
       0.05990714 -0.09932448 0.09645882 0.10479765
0001e0 9c 43 1a 3d e0 cc 67 3d 14 fc 38 3d d2 fa b3 3d
       0.037662134 0.05659187 0.045162275 0.087880746
0001f0 84 4a 92 bd 58 1f dc bd 10 a9 a2 3d a0 1d e5 bd
       -0.07143119 -0.10748166 0.07942402 -0.11187291
000200 56 e5 fb bd 30 72 1b 3d e2 7a 80 3d 80 81 b3 bd
       -0.12299602 0.037950695 0.06273438 -0.087649345
000210 14 b2 bd bd f6 34 fc bd 64 81 2c bd b0 d5 7c bd
       -0.09262481 -0.12314789 -0.042115584 -0.061727226
000220 7c 44 05 3d c6 f1 ce bd c0 87 b4 3d 46 35 ca 3d
       0.032536015 -0.101047084 0.08814955 0.09873442
000230 38 2f 03 3d 28 69 c4 bd 88 04 6e bd f8 a0 d1 3d
       0.032027453 -0.095903695 -0.05810979 0.102357805
000240 00 4b 0f 3c 3e c4 cc 3d 04 f3 91 3d 90 04 65 bd
       0.008745909 0.09998368 0.0712643 -0.055912554
000250 20 03 b2 3c a8 15 eb bd 60 45 9a 3b 7c 1f 06 3d
       0.021730006 -0.1147874 0.004707977 0.03274487
000260 50 7e 57 3d 00 a1 e8 3b e8 a2 b4 bc 90 5d 77 3c
       0.052610695 0.007099271 -0.022050336 0.015097991
000270 70 c8 b7 bd 80 05 12 3c a8 40 32 bd 00 b9 4f bb
       -0.08973777 0.008912444 -0.043518692 -0.0031695962
000280 c4 46 c9 3d 92 3f 81 3d e0 a4 e4 3d 50 52 d9 3d
       0.098279506 0.06310953 0.1116426 0.10611403
000290 38 1b 8b bc 7c 8c d2 3d 40 73 8c 3c ec 4e 82 3d
       -0.016980752 0.102807015 0.0171448 0.063627094
0002a0 3c 15 eb bd aa 9c e0 3d a0 54 d2 3c 3c 0c 22 3d
       -0.114786595 0.10967381 0.025675118 0.03956245
0002b0 30 d7 ac 3d 28 6e c0 bd d0 1a 31 bd a0 59 7a bd
       0.08439481 -0.09396011 -0.04323846 -0.06112063
0002c0 48 02 5e 3d ae 43 cc 3d 3e f2 d6 3d ca 4e e5 bd
       0.054201394 0.099738464 0.10495423 -0.111966684
0002d0 56 16 94 3d b8 55 8b 3c 6c ba 55 bd 4a 7a c5 3d
       0.07230823 0.017008647 -0.05217974 0.096424654
0002e0 a6 77 d2 3d 82 41 bd 3d 42 ed bf bd 00 e4 a9 3a
       0.102767274 0.0924101 -0.09371425 0.0012961626
0002f0 d0 b7 75 3c f4 68 9b bd f2 c5 fd bd 84 e3 96 3d
       0.014997438 -0.075883776 -0.12391271 0.07367614
000300 c4 e4 14 bd 6a a8 9c 3d 08 dd 32 3d 6a e9 a3 3d
       -0.03635098 0.0764931 0.043667823 0.080035046
000310 3a 97 ed 3d 32 a3 f3 3d 1a 1e e7 bd b0 bc c8 3d
       0.1160111 0.118963614 -0.11285038 0.09801614
000320 5e 38 f2 bd f4 92 cf 3d de 32 89 bd 30 46 ba 3c
       -0.118271574 0.10135451 -0.06699155 0.022738546
000330 00 85 5d bd cc a1 ba 3d 24 71 82 bd 7e 45 c1 bd
       -0.054081917 0.091128916 -0.06369236 -0.09437083
000340 10 76 ae bd 62 4c b3 3d f0 30 60 bd 34 7f 65 3d
       -0.085186124 0.08754803 -0.05473417 0.056029513
000350 ec 31 15 3d 4e a5 91 bd 60 eb a1 3b a0 e8 97 bd
       0.036424562 -0.071116075 0.004941389 -0.074174166
000360 e0 d7 7c 3d 68 f3 f2 bc a4 21 d8 3d 84 04 71 bd
       0.061729312 -0.02965708 0.105532914 -0.058842197
000370 14 0d ce 3d 16 31 c6 3d 20 3f 3e bc 00 99 64 bc
       0.10061088 0.09677331 -0.01161173 -0.013952494
000380 68 af 90 bc 20 0d e4 bc 00 ba 8e 3d b0 9c 50 bd
       -0.017661765 -0.02783829 0.069690704 -0.05093068
000390 ca 29 ec bd 94 72 46 bd 80 60 53 bc 50 29 f3 3c
       -0.11531408 -0.048449114 -0.012901425 0.029682785
0003a0 e0 eb 62 3d b0 bb 6f 3c f8 ae 28 3d a4 28 91 bd
       0.05540073 0.0146321505 0.04118249 -0.0708783
0003b0 c0 df 99 3b ae 0a a9 bd 08 8e 07 3d da 71 b3 3d
       0.0046958625 -0.0825399 0.033094436 0.0876195
0003c0 80 ef a5 bd 3a 35 a2 bd 8e bc a9 3d 38 7f 2b bd
       -0.081023216 -0.079203084 0.08287917 -0.041869372
0003d0 14 aa 18 bd 3e 21 b1 3d b0 82 eb 3d d8 67 d5 bc
       -0.037271574 0.086489186 0.11499536 -0.026050493
0003e0 00 63 fa bb 20 5f 0b bd cc 0c ae 3d 00 0d df 3a
       -0.0076411963 -0.034026265 0.084985346 0.0017017424
0003f0 6e 7e 95 bd 80 9a 09 3c f0 24 3e bc 60 aa 3b 3c
       -0.07299505 0.008398652 -0.011605486 0.011454195

lstm.bias_ih_l0_reverse f4 [256]
000000 3e 2e cb 3d 00 6e d0 bc 30 5f 92 bc 04 e4 bc bd
       0.09920929 -0.025443077 -0.017867655 -0.09223178
000010 6a 5f ed bd 04 ac cc bd b2 f1 94 bd 10 47 b4 3c
       -0.115904644 -0.09993747 -0.07272662 0.022006541
000020 98 95 24 3d fa a4 80 3d 90 da 2c bc 54 21 77 3d
       0.040181726 0.06281467 -0.010550156 0.06033452
000030 58 1f 3d bd f0 26 bd 3d 70 c8 0e 3c 14 c9 a6 3d
       -0.04617247 0.09235942 0.00871478 0.08143821
000040 d0 47 34 3d 72 a7 9f bd c6 6a 91 bd b8 95 4b 3d
       0.0440138 -0.077956095 -0.071004435 0.04970333
000050 10 0e d4 3d 98 97 27 bd 60 12 2e bc 80 9e 07 3c
       0.10354245 -0.040916055 -0.010624498 0.008277535
000060 00 ef 0c 3d 32 0c 9c bd 80 4d 68 3d 50 c6 4c 3d
       0.034407616 -0.076195136 0.056714535 0.049993813
000070 d2 92 ca 3d 02 db c5 bd f4 a1 ae bd e4 38 ef bd
       0.09891285 -0.09660913 -0.08526984 -0.11680773
000080 e0 03 43 bd 98 56 21 3d a0 33 fe bb cc de 42 bd
       -0.047611117 0.039389223 -0.007757619 -0.047575757
000090 f0 13 6b bc d4 b0 b8 3d 28 7b 82 3d 00 1c 42 bc
       -0.014348015 0.09018102 0.063711464 -0.011847496
0000a0 34 7a 33 3d 40 b1 c8 bd e8 38 bb 3c d6 ca 93 bd
       0.043817714 -0.09799433 0.022854283 -0.07216422
0000b0 52 25 81 bd 94 29 e5 bd 68 99 f7 bc ea 9e f3 bd
       -0.063059464 -0.11189571 -0.030224517 -0.11895545
0000c0 78 2e bb 3d 44 bf db bd 1c 10 34 3d a8 26 c7 bd
       0.091397226 -0.107298404 0.043960676 -0.0972417
0000d0 9c b1 b8 bd 32 20 f1 3d c0 0e b4 bc 28 f6 71 3d
       -0.09018251 0.11773719 -0.02197969 0.059072644
0000e0 e0 b3 4b 3c 9a 49 be 3d e0 bb e5 bd e4 3e 63 3d
       0.012433022 0.09291382 -0.11217475 0.0554799
0000f0 00 80 09 3c 18 81 6c 3d 40 16 d7 3d 28 f3 bf bd
       0.008392334 0.0577403 0.10502291 -0.0937255
000100 f0 40 79 bc 90 d5 46 3c b0 b3 d2 bd 3c c6 a6 3d
       -0.015213236 0.012135878 -0.10288179 0.08143279
000110 f2 af 84 3d a0 f5 30 bd e4 9d 8e 3d 6c 2b 15 bd
       0.064788714 -0.043202996 0.06963709 -0.036418363
000120 5e 32 8f bd 18 e2 fc 3c 72 37 93 bd a0 9c 86 bd
       -0.06992029 0.030869529 -0.0718831 -0.065728426
000130 22 5f ab bd 38 10 20 bd 94 eb f8 3d 3c 2f 77 3d
       -0.083677545 -0.039077967 0.12154308 0.06034778
000140 e2 ac a5 3d 58 ae 6a 3d 32 0d bb 3d 00 eb 83 bc
       0.080896154 0.057295173 0.09133376 -0.016103268
000150 ca bb be bd 20 86 e7 3b 00 59 60 3b 00 78 fb ba
       -0.09313162 0.0070655495 0.0034232736 -0.0019185543
000160 54 5b 72 bd c0 34 6e bd b6 73 e5 3d 0a b9 9e 3d
       -0.05916913 -0.058155775 0.11203711 0.07750137
000170 38 ea f8 bd 10 4f 7e 3d 44 90 2f bd 00 a3 2f ba
       -0.12154049 0.06208712 -0.04286219 -0.0006700009
000180 00 98 00 3d cc 2c 77 3d c6 c9 b7 bd 98 0f a4 bc
       0.03139496 0.060345456 -0.08974032 -0.020026967
000190 60 41 90 bb f0 d0 10 bc b4 08 b1 bd bc 59 ed 3d
       -0.0044023246 -0.008838877 -0.08644238 0.11589381
0001a0 5e 39 9c bd 90 fe 3a 3d a4 87 b6 bd 52 8e b6 3d
       -0.076281294 0.045652926 -0.0891259 0.08913864
0001b0 68 a9 4f 3d 70 2b 93 3d 18 4a b6 bd 92 15 ba 3d
       0.050698668 0.071860194 -0.08900851 0.090861455
0001c0 4e 4f ef bd 10 b9 92 3d 7c 81 a2 3d 50 67 e0 bd
       -0.11685048 0.07164204 0.079348534 -0.10957205
0001d0 00 29 53 3b 98 50 96 3c 60 98 9b 3c 14 b4 46 3d
       0.0032220483 0.018348977 0.018993556 0.04851158
0001e0 e2 82 fb bd f0 cc 95 bc 00 87 a6 3c 5c c2 db bd
       -0.12280823 -0.018286198 0.020328045 -0.107304305
0001f0 04 1a 6f 3d a2 1f 86 3d 88 e8 bf bc 30 61 69 3d
       0.05837442 0.06549002 -0.02342631 0.05697745
000200 24 ed 37 bd ec 52 4e bd dc 07 c6 3d 88 b9 c8 3d
       -0.04490389 -0.05037205 0.09669468 0.09801012
000210 22 71 f7 3d 78 31 c2 3c fa d0 ac 3d 40 0b 79 3c
       0.12082125 0.02370523 0.084382966 0.015200436
000220 b8 26 61 bd 88 48 f8 bc 98 0e fc bd 56 6d b6 3d
       -0.054968566 -0.030308023 -0.12307471 0.08907573
000230 a2 63 f2 bd b8 30 44 3d 90 f1 6e bc 08 9a d4 3d
       -0.1183541 0.047898024 -0.01458396 0.10380942
000240 9c 1e 5d 3d ca 79 bf bd 10 5b e2 3c 2c c0 ba bd
       0.05398427 -0.09349401 0.027631313 -0.09118685
000250 30 27 bf 3c 32 46 f6 3d 10 90 ab bd d0 89 61 3d
       0.023334116 0.120251074 -0.08377087 0.05506307
000260 f0 3c 12 3d 60 fd dd 3b 80 a9 a8 bd a4 dc ad 3d
       0.035702646 0.0067745894 -0.082354546 0.084893495
000270 7c fb b1 3d 4c fe f0 bd cc 4f 53 3d dc 38 6f 3d
       0.08690545 -0.11767253 0.051589772 0.058403835
000280 c0 9a 06 bc 9e 80 cc bd 40 9d 50 bc 60 0c dc 3c
       -0.008215606 -0.09985469 -0.012732804 0.02686137
000290 08 e4 87 3d 96 0e 98 bd 1a d5 d7 3d 12 27 b7 bd
       0.066352904 -0.07424657 0.10538693 -0.08942999
0002a0 4e f8 f7 3d 78 ca c4 3c 5c 0a 84 3d 10 08 06 bc
       0.12107907 0.024022326 0.064472884 -0.008180633
0002b0 34 85 18 bd da b2 cd bd 60 30 c8 bb 68 2d 91 3c
       -0.037236407 -0.10043879 -0.0061092824 0.017721847
0002c0 24 f3 43 3d 28 c4 b9 3d 36 1e e8 3d 54 29 86 3d
       0.0478393 0.09070617 0.11333887 0.065508515
0002d0 14 62 bc bd a8 f8 7d bd e2 56 8b bd 94 45 7e 3d
       -0.091983944 -0.062004715 -0.06803681 0.062078074
0002e0 ae f9 b1 3d cc c8 80 bd 3e ad f6 3d 58 b8 9b 3c
       0.08690201 -0.06288299 0.12044762 0.0190088
0002f0 a0 8f 2d 3c 76 1d db bd d0 76 26 bc 14 07 1c 3d
       0.010593325 -0.106989786 -0.010160163 0.038092688
000300 d4 7c 7d bd d4 05 49 3d 0e 72 9b 3d 0c 06 06 bd
       -0.061886624 0.049077824 0.075901136 -0.03272061
000310 94 01 19 bd 18 71 c1 3d a8 cd 80 bd d0 31 3f 3c
       -0.03735502 0.09445399 -0.06289226 0.011669591
000320 9c cd 00 3d 3e 0c 89 3d 80 8f 36 3c 14 b6 fd bd
       0.031446084 0.06691788 0.0111426115 -0.12388244
000330 30 59 0e 3c 48 5a ef bd f0 0c 61 bc 3e 0a c9 3d
       0.008688256 -0.11687142 -0.013735995 0.09816407
000340 08 37 2d bd b2 44 d3 3d 10 52 7b bd ec 5b e1 3d
       -0.04228881 0.10315837 -0.061357558 0.11003861
000350 80 5b 87 3b 00 d5 dd 3a 48 af fb 3d 8e 36 cc bd
       0.0041307807 0.0016924441 0.122892916 -0.09971343
000360 34 71 86 bd 98 ba e0 bd 62 8a c3 bd 50 7f ae 3c
       -0.065645605 -0.1097309 -0.09547879 0.021300942
000370 a8 88 12 bd d0 6a c8 bd 8c 44 3f bd 30 d2 03 bc
       -0.035774857 -0.09785998 -0.04669623 -0.008045718
000380 a0 bb 8d 3b 2e 3a bc bd ae d8 df bd 84 2e fa bd
       0.004325345 -0.091907844 -0.1093 -0.122159034
000390 c6 63 87 3d 00 ed 55 3b e4 42 ea 3d e0 ae 91 bd
       0.06610827 0.0032642484 0.114385396 -0.07113433
0003a0 9e 68 fc bd 58 ca 98 bd 90 ec 44 bd c0 fd 00 3c
       -0.12324642 -0.07460469 -0.048077166 0.007872999
0003b0 aa 9a a4 bd ba 97 d4 bd 38 f9 f5 3c 58 03 81 3c
       -0.08037312 -0.10380502 0.030026063 0.015748665
0003c0 78 80 40 3d 70 13 9c bd 50 3a 68 bc 14 14 31 3d
       0.046997517 -0.07620895 -0.014174059 0.04323204
0003d0 84 02 7b 3d 32 a0 b4 3d 6a 1e b4 3d 10 08 d8 bd
       0.061281696 0.08819617 0.087948635 -0.10548413
0003e0 50 b9 1e 3c b8 41 cf bd 24 02 1a 3d b0 54 03 3d
       0.009687737 -0.10119957 0.037599698 0.032063186
0003f0 fa a3 c2 bd d6 ce 82 bd 38 1e af 3d 56 5e 92 bd
       -0.09503932 -0.06387107 0.08550686 -0.071468994
