project/models/BiLSTM/KOSPI.pth (torch, 15397 bytes, 9 tensors)

lstm.weight_ih_l0 f4 [64, 5]
000000 16 6a 70 be 38 88 52 3d 62 a7 38 be 10 7a 6b 3e
       -0.23477969 0.05139944 -0.18032601 0.22995782
000010 94 23 f7 3d 80 73 4a 3b f0 65 80 bd 72 c3 7b be
       0.12067333 0.0030891597 -0.06269443 -0.24586275
000020 30 59 8d 3c ce fa 23 be b0 4d 86 3c e0 3d 5c 3c
       0.017254442 -0.16013643 0.016394466 0.0134424865
000030 ea 85 7a be 1c ae 14 3e be 5f 77 be ae 26 2b 3e
       -0.24465147 0.14519542 -0.24157616 0.16713974
000040 c8 8a 95 3d 96 d5 19 be 82 37 50 be 86 cb 2b be
       0.07301861 -0.15022883 -0.20333675 -0.16776857
000050 50 c3 03 be f8 c1 fb 3d 98 83 08 3d 46 5f 60 be
       -0.12867475 0.12292856 0.033328623 -0.21911344
000060 0e c8 3a 3e ac 51 42 be ec 7d d4 bd ac 77 ca bd
       0.18240377 -0.18976468 -0.1037558 -0.09886107
000070 60 88 51 3d 84 71 4f be 6c 3f 63 3e ee 07 18 be
       0.051155448 -0.20258147 0.22192162 -0.14846775
000080 80 6f b4 3d 2e 92 22 3e 4a 2d 18 be 76 ae 05 be
       0.088103294 0.15876076 -0.14861026 -0.13054833
000090 f0 21 2d 3e c0 60 1c 3d 90 6b 07 3d c2 c4 3b 3e
       0.16907477 0.038178205 0.033061564 0.18336776
0000a0 b6 63 61 3e 18 14 36 bd 2a e1 2c 3e 18 51 d1 3d
       0.22010693 -0.044452757 0.16882768 0.102205455
0000b0 7c 5d 90 bd 44 61 79 be d0 03 c2 bd 3c 6e 15 3e
       -0.07049081 -0.2435351 -0.094733834 0.14592832
0000c0 90 cd 4f 3d 60 11 2d be c8 b0 38 bd 54 b7 77 3e
       0.05073315 -0.1690116 -0.045090467 0.24191028
0000d0 58 ca 7c be 0c df 93 3d 80 e4 0e 3b f8 b6 af bd
       -0.24686563 0.07220277 0.0021803677 -0.085798204
0000e0 d4 15 af bd fc b9 19 3e 48 3c 1e 3e c6 e1 49 3e
       -0.08549085 0.15012354 0.15452683 0.19715032
0000f0 1a da 70 be 04 61 c5 3d 94 f1 23 3e ee b7 5e be
       -0.23520699 0.09637645 0.16010123 -0.21749851
000100 8c 4d c3 bd d8 b7 74 3d 9c 10 6c be 50 b8 a6 3d
       -0.09536275 0.05974564 -0.23053211 0.081406236
000110 66 e8 0d 3e dc 90 9c 3d ae 48 47 be dc 68 0c be
       0.13858184 0.07644817 -0.19461319 -0.13711876
000120 b2 4f 72 3e 18 d2 7e 3e 88 9b d2 bd 00 18 4d 3d
       0.23663214 0.24884832 -0.102835715 0.050071716
000130 24 11 92 3d 1a a6 1e 3e 08 7e 66 3d 48 78 3d bd
       0.071321756 0.1549305 0.056272537 -0.046257287
000140 a6 fe 3a 3e d0 ab 74 be 94 a9 e8 bd 9a 20 40 3e
       0.18261203 -0.23893666 -0.113604695 0.18762437
000150 a0 c7 2b be f0 0d 82 bd d0 e8 6d 3d e4 6c 4c 3e
       -0.1677537 -0.063503146 0.058083355 0.19963413
000160 60 e0 0e 3e 00 eb 3b bd 4c 85 7b be ac 49 db 3d
       0.1395278 -0.04587841 -0.24562567 0.10707411
000170 44 62 92 3d 90 69 2e 3e d8 d9 9b 3d 8e dd 6d 3e
       0.07147649 0.17032456 0.0760991 0.23229048
000180 52 60 67 3e 40 af 6b be 7c 27 be bd 7c 92 62 be
       0.22595337 -0.23016071 -0.09284875 -0.22126192
000190 c0 d4 1e 3d 9e 88 68 be b4 f8 53 3e f0 e0 eb bd
       0.038777113 -0.22708365 0.20700341 -0.11517513
0001a0 40 ae 14 3e 98 a4 ff bd 12 52 60 3e 00 9d 73 3e
       0.14519596 -0.12482566 0.21906307 0.2379036
0001b0 28 03 2c 3e 62 bb 25 be 04 65 19 3e 08 1f 0e bd
       0.16798079 -0.16184762 0.1497994 -0.034697562
0001c0 e0 ef 0d bd 98 e8 d9 3d d8 1b 67 3d 1c 05 b5 3d
       -0.03465259 0.10640067 0.05642304 0.08838865
0001d0 5c fc 22 be 8e ba 76 3e a8 4f 31 3e a0 13 ef bd
       -0.1591658 0.24094602 0.17315543 -0.11673665
0001e0 88 ec 51 3e 00 1d ec 3b 12 bb 3f be 00 6d 02 be
       0.20500386 0.0072056055 -0.18723705 -0.12736893
0001f0 d0 0a 28 3d 94 fa 5a 3e 66 03 46 be cc cd 78 be
       0.041025937 0.2138465 -0.19337234 -0.24297255
000200 ac be 50 3e 30 98 a5 bd 5c f0 64 be 24 7d f3 bd
       0.20385236 -0.08085668 -0.22357315 -0.11889103
000210 80 10 1c bd c8 44 43 3d c0 ef b8 3d f8 a9 0b be
       -0.038101673 0.047673017 0.09030104 -0.13639057
000220 3c 64 11 3e be ff 2c be b8 ef 1d 3d e0 13 7b bd
       0.14198393 -0.16894433 0.03855869 -0.06129825
000230 74 16 6e 3e dc 5b 2a 3e 30 ac d7 3d 5e 18 3a 3e
       0.23250753 0.16636604 0.10530889 0.18173358
000240 10 aa 05 3e f6 29 4b 3e a0 dc fa bc 90 62 ca 3c
       0.13053155 0.19840226 -0.03062278 0.024705201
000250 d8 9a 94 3d 18 a0 71 3d 74 47 d2 3d 48 dd 71 bd
       0.072560966 0.058990568 0.10267535 -0.05904892
000260 dc b6 9f bd 80 c3 3c be 2c 5a 36 be e8 24 67 3e
       -0.077985495 -0.18433952 -0.17807835 0.22572672
000270 ac 91 da 3d 80 69 5e bd d6 a5 51 be d4 d5 48 3e
       0.10672316 -0.05429983 -0.20473418 0.19612819
000280 70 75 ae bc 6e 97 58 be ee e0 44 3e 5c 81 97 bd
       -0.021296233 -0.21151516 0.19226429 -0.0739772
000290 90 2a 2c bd b8 1f d1 3d 0c 5e cd bd ec 1e 4a be
       -0.04203278 0.10211128 -0.10027704 -0.19738358
0002a0 60 fc d0 3c 04 c7 a3 3d ea e7 7f 3e 96 d1 2e 3e
       0.025510967 0.079969436 0.24990812 0.17072138
0002b0 ac 9a c8 bd 3c e6 01 be aa fa 63 3e f8 8c 2c 3d
       -0.09795126 -0.12685484 0.2226359 0.042126626
0002c0 cc b9 e7 3d 40 4b a8 bc c8 ae d0 3d c2 34 0e 3e
       0.11314735 -0.020543694 0.10189587 0.13887313
0002d0 c0 f8 90 bd 90 66 82 bd 30 3b f1 3d 00 7c 55 3e
       -0.07078695 -0.063672185 0.11778867 0.20848083
0002e0 60 92 9e bd 7a a7 61 be 74 d3 74 be 18 0b 1c 3d
       -0.077427626 -0.22036543 -0.23908788 0.038096517
0002f0 16 49 15 be 40 e0 14 3e 88 1b c5 3d d0 16 8a 3c
       -0.14578661 0.1453867 0.09624392 0.016856581
000300 2c 2a 22 be a0 1b 1d 3c 96 dd 15 be 1c c8 5e be
       -0.158364 0.009589106 -0.1463531 -0.21756023
000310 64 31 56 be 44 a6 49 3e be fb 24 3e e4 b4 77 be
       -0.20917279 0.19692332 0.16111657 -0.24190098
000320 38 b2 16 bd 4a b9 55 3e 0c 0e 49 be 90 14 e4 3c
       -0.036791056 0.20871463 -0.19634265 0.027841836
000330 6a 57 76 3e da 35 36 3e a4 5c 68 be ce a8 50 be
       0.24056783 0.1779398 -0.2269159 -0.20376894
000340 fa 7f 09 3e 00 a6 06 bc 30 6e 87 3d b6 9f 60 3e
       0.13427725 -0.008218288 0.066128135 0.21935925
000350 e4 7e 5f 3e f4 5e 01 3e 1a d5 5c 3e 64 07 29 3e
       0.21825749 0.12633878 0.21565667 0.16506726
000360 22 21 7f be ee 94 1e be f8 23 4e 3e 38 d6 7f 3e
       -0.24914983 -0.154865 0.20130908 0.24984062
000370 d8 6e 0c bd e0 16 3c 3d 0c c0 7c be e8 a1 c5 3d
       -0.034285396 0.045920253 -0.24682635 0.09650022
000380 38 46 93 3d a4 a9 b5 3d 78 15 51 be 2c 99 90 bd
       0.071911275 0.08870247 -0.20418346 -0.07060465
000390 a4 de 54 be 24 1d 2d be 80 37 4f bc 38 15 4a be
       -0.20788056 -0.16905648 -0.01264751 -0.19734657
0003a0 68 d8 05 3d 2c 0c cf bd 70 63 10 3e 2c 64 ff 3d
       0.032677084 -0.101097435 0.14100432 0.12470278
0003b0 48 f0 81 bd a0 c5 59 bd 40 b8 60 be 78 21 26 bd
       -0.06344658 -0.053166986 -0.21945286 -0.040559262
0003c0 bc 88 09 3e 58 e2 66 3e 60 8b 40 3e fc 35 de bd
       0.13431066 0.22547281 0.18803167 -0.108501405
0003d0 66 cb 6d 3e 2c 4f a8 3d d0 2c 5a 3d a8 ef 0e 3d
       0.23222122 0.08218226 0.053265393 0.034896523
0003e0 40 22 aa 3c 30 34 e6 bd 22 77 6f be e0 4e 74 be
       0.020768285 -0.11240423 -0.2338529 -0.23858213
0003f0 9c bf 99 3d 00 43 58 be f0 ee 65 bd c2 ed 10 be
       0.0750725 -0.21119308 -0.05613607 -0.14153197

lstm.weight_hh_l0 f4 [64, 16]
000000 40 7a 90 3b ee 5e 0f be 30 13 db 3c 26 ea 01 be
       0.0044091046 -0.14001057 0.026742548 -0.12686977
000010 80 d2 0d 3b b0 e5 c8 bc e8 be 5c 3e c4 b7 07 be
       0.002164036 -0.024523586 0.215572 -0.13253695
000020 bc 92 75 3e e0 d6 74 3c ac f5 fa bd 38 1a 64 be
       0.23981756 0.014943808 -0.122538894 -0.22275627
000030 c0 33 98 bb 14 ad 6c 3e 40 f7 cf 3d 80 af 6b be
       -0.004644841 0.23112899 0.10154581 -0.23016167
000040 10 a3 a1 bd 60 4a 42 3c f4 13 20 be ac e0 b6 3d
       -0.0789243 0.011858553 -0.15632612 0.089295715
000050 b8 01 3a 3d 40 fd 98 bc 3a f6 1e be 6a 83 5e be
       0.045411795 -0.018675447 -0.15523615 -0.21729818
000060 b0 39 9c 3c 48 6c 5c bd 00 c8 11 be 58 7c ae 3d
       0.019070476 -0.053814203 -0.1423645 0.085198104
000070 a0 fd 42 3e 30 c7 49 bd 2c d4 7a be e8 0d dd 3d
       0.19042063 -0.049262226 -0.24495 0.10793668
000080 6e a5 00 be d8 0d 6f bd 14 5a 0a be 6c 9d c9 bd
       -0.12563106 -0.05836281 -0.13510925 -0.09844479
000090 74 4f 20 3e 58 62 3f be d2 b2 52 be d0 f2 2d 3e
       0.15655309 -0.18689859 -0.20576027 0.16987157
0000a0 78 dc 34 3d 60 51 11 3c a4 c7 cc 3d 36 2a 75 be
       0.044155568 0.008869499 0.09999016 -0.23941883
0000b0 e8 1d 28 3e 5a 3f 31 3e 4a 30 46 be 88 a6 19 3d
       0.16417658 0.17309323 -0.19354358 0.037512332
0000c0 5c 41 2d be 40 30 36 bc 56 74 60 be ce 9a 7c be
       -0.16919464 -0.011119902 -0.21919379 -0.24668428
0000d0 76 bc 63 3e c0 a0 68 3d 00 a5 51 be a6 ac 15 3e
       0.22239861 0.05679393 -0.20473099 0.14616641
0000e0 18 e5 ce bd 14 a4 e1 bd e4 30 ad 3d c4 47 7b be
       -0.1010229 -0.110176235 0.08456591 -0.24539095
0000f0 e0 87 79 3e 0c 48 06 be 82 a9 2c be 18 09 22 3e
       0.24368238 -0.13113421 -0.16861537 0.15823781
000100 60 7f 0a bc 00 40 50 be 16 fe 35 be 3c 4b e2 3d
       -0.00845322 -0.20336914 -0.17772707 0.11049506
000110 8c b0 9f 3d e8 cb 1c 3e d8 14 6c be a0 91 3e 3c
       0.077973455 0.15312159 -0.23054826 0.011631399
000120 c6 69 46 be ba bb 48 3e 7e 2e 6c 3e 86 95 54 be
       -0.19376287 0.19602862 0.2306461 -0.20760164
000130 cc d6 6f be 28 28 7e 3d 90 a7 87 bd 50 bb 5e 3d
       -0.23421782 0.062050015 -0.06623757 0.054377854
000140 bc 38 b6 3d 18 4c b6 bd 52 6c 19 3e 2e 46 78 3e
       0.0889754 -0.089012325 0.14982727 0.24245521
000150 ee 67 30 3e 40 4c fe bd b6 e7 68 be 16 d4 6b be
       0.17227146 -0.12416887 -0.2274464 -0.23030123
000160 5c 2a 47 3e 4a 54 67 be 20 9d 7a bd 7a c0 3e 3e
       0.19449753 -0.22590747 -0.061185002 0.18628111
000170 20 98 32 bc c8 1e 37 3e 24 84 de 3d f4 93 b6 3d
       -0.010900527 0.17882836 0.108650476 0.089149386
000180 3a 2d 47 be a8 99 9a bd f0 ea ed bc e0 7f 5d 3c
       -0.19450846 -0.07548839 -0.029042691 0.013519257
000190 fc 5d 87 3d 20 d2 12 bd e4 0d 17 be 80 bd 39 3d
       0.06609723 -0.035844922 -0.14751393 0.045346737
0001a0 7c a6 0f be f6 37 4b be 42 e2 2b 3e 00 a8 2b 3d
       -0.14028352 -0.19845566 0.1678553 0.041908264
0001b0 0c e4 1d be 04 0c a5 bd 80 46 36 3e 04 fd ae 3d
       -0.15419024 -0.080589324 0.17800331 0.08544353
0001c0 34 3d 83 3d 8c dc fb bd 3c 33 82 3d 7c bd 6d 3e
       0.06408158 -0.12297925 0.063574284 0.23216814
0001d0 f0 dd 44 3e 94 72 23 be 00 a1 6c 3b 10 7f 63 bd
       0.19225287 -0.15961677 0.0036106706 -0.055541098
0001e0 d0 b6 c1 bd b8 ba cb 3d e8 90 bf bd 48 33 fb bd
       -0.09458697 0.09947723 -0.093538105 -0.122656405
0001f0 20 0a 6b 3d 1c 96 40 be 70 c4 d4 3d 34 02 54 be
       0.057382703 -0.18807262 0.1038903 -0.20703965
000200 26 a2 11 be 50 9b 37 3e 88 9c e3 bd 28 e3 15 bd
       -0.14222011 0.17930341 -0.1111384 -0.036593586
000210 60 9a e1 3d 0e 1f 4b 3e 40 46 2d 3c aa eb 08 3e
       0.11015773 0.19836065 0.010575831 0.13371149
000220 94 c9 f5 bd 00 93 51 bc 58 df 65 bd 98 cd 9a 3d
       -0.120013386 -0.012791395 -0.0561212 0.07558745
000230 a8 f1 06 3e 64 6f 88 3d e4 33 a8 3d d8 0f 6c bd
       0.13178122 0.06661871 0.08213022 -0.057632297
000240 36 96 7f be f4 db 33 be 20 a5 6a 3e d2 15 70 3e
       -0.24959645 -0.17564374 0.22914553 0.23445824
000250 c0 39 2b 3d ce d8 12 be c2 fe 45 be 56 66 0f 3e
       0.04180312 -0.14340517 -0.19335464 0.14003882
000260 68 b6 17 3e 0e 25 29 3e 4a f2 4b 3e a8 a6 7e 3d
       0.14815676 0.16518041 0.19916645 0.062170655
000270 e8 72 a4 3d a4 34 95 bd 0c 1b 3d be 00 ad f7 ba
       0.08029729 -0.07285431 -0.18467349 -0.0018896163
000280 c8 c9 a1 bd 9e a4 36 3e 82 10 1c 3e b0 7e 22 3e
       -0.07899815 0.17836234 0.15240672 0.1586864
000290 b0 fa dc bd f2 ba 68 be 70 82 64 3e 10 e6 b1 3d
       -0.10790002 -0.22727564 0.22315383 0.08686459
0002a0 a4 3e 66 be 1e f1 17 be 00 de 00 bd f0 f4 3d 3e
       -0.22484833 -0.14838073 -0.031461716 0.18550467
0002b0 50 0b 86 3d 58 75 0b 3e 70 a3 73 3d a6 12 38 be
       0.065451264 0.13618982 0.059482038 -0.17975864
0002c0 40 81 b1 3d 5a f5 0c 3e 90 53 6a be 16 31 51 be
       0.086672306 0.13765469 -0.22883439 -0.20428881
0002d0 ee 60 0c be 22 4a 02 3e 24 61 b8 bd 40 2a ce 3d
       -0.1370885 0.12723592 -0.09002903 0.10066652
0002e0 a2 ec 27 3e 7c 42 cc 3d 68 f7 3c 3d 10 b7 e4 bc
       0.16398862 0.099736184 0.046134382 -0.027919322
0002f0 b2 dd 00 3e 4c 02 2a 3e 3e aa 17 be 3c 19 74 be
       0.1258457 0.16602439 -0.14811036 -0.23837751
000300 38 6e 75 be c8 72 99 bd 40 cc d0 3d 4c d5 f8 bd
       -0.23967826 -0.07492596 0.101952076 -0.12150058
000310 ea 0a 54 be f8 7f 99 3d 9c f2 7f 3e 1c 56 e6 bd
       -0.20707288 0.07495111 0.24994892 -0.11246893
000320 cc 69 f9 bd ae 3c 5c be 12 f5 61 be 26 ad 50 be
       -0.12178382 -0.21507522 -0.22066143 -0.20378551
000330 30 d3 fd bc 84 4c a7 bd 84 18 2b 3e a0 36 29 be
       -0.030984491 -0.08168891 0.1670857 -0.16524744
000340 d2 e5 63 be 80 91 27 3e 12 9b 62 be 4e a2 6b 3e
       -0.22255638 0.16364098 -0.22129467 0.23011133
000350 88 99 20 bd 48 34 28 bd 0e 2f 5e 3e 26 f2 3d 3e
       -0.03920892 -0.041065484 0.21697637 0.18549404
000360 b6 49 4c 3e 5c bf 29 3e bc 41 5d be 88 16 06 3d
       0.19949993 0.16576904 -0.21607107 0.03273633
000370 f8 dc 4b bd 28 74 b2 bd 74 8f 86 3d 08 02 46 bd
       -0.04977128 -0.08713561 0.0657033 -0.04834178
000380 f4 7d 7e be 5a 50 04 be c0 35 a7 3d 90 a0 9f 3c
       -0.24852735 -0.12921277 0.08164549 0.019485742
000390 8c 9c 06 3e 94 10 d1 bd dc d5 67 3e 26 bd 23 3e
       0.13145655 -0.1020824 0.22640175 0.15990123
0003a0 ee fd 2a be 62 1d 00 be ac cf af 3d 8e f7 35 be
       -0.16698429 -0.12511209 0.08584532 -0.17770216
0003b0 dc 61 d9 bd e8 58 44 bd 9c 89 61 3e cc 1e ed bd
       -0.10614368 -0.04793635 0.2202515 -0.1157814
0003c0 ea a8 6e 3e 52 53 77 be 20 f4 e6 3d 32 d3 3f 3e
       0.23306623 -0.24152878 0.11277032 0.18732908
0003d0 18 e1 f1 bd 70 df 1a bd f8 29 62 bd 6c 2b 44 3e
       -0.11810511 -0.037810743 -0.055215806 0.19157189
0003e0 fc c4 ec 3d 30 31 e3 bd 50 d0 50 be bc e6 c2 bd
       0.11561009 -0.11093366 -0.20391965 -0.09516665
0003f0 b4 ca 57 3e c4 1e 8c 3d e0 94 05 be c8 0e 7e 3d
       0.21073419 0.068418056 -0.13045073 0.062025815

lstm.bias_ih_l0 f4 [64]
000000 e8 5a 74 3e 2c a6 02 be c4 a5 3f be 38 17 2f 3d
       0.23862803 -0.12758702 -0.18715578 0.042746753
000010 b2 37 25 3e 0e f7 49 3e 04 e9 2d 3e 74 ce 34 be
       0.16134527 0.1972315 0.1698342 -0.1765688
000020 4c 30 1d 3e 46 ce 78 be 10 a3 b1 3c 98 9e 05 3d
       0.15350455 -0.24297437 0.0216842 0.03262195
000030 60 97 0e be 60 51 4c bd 80 11 b8 bb b4 6d 16 be
       -0.13924932 -0.049882293 -0.0056173205 -0.14690286
000040 60 4c c4 bd 9c 9e 1d 3e 6a d0 46 be 44 50 6f 3e
       -0.0958488 0.15392536 -0.19415441 0.23370463
000050 4a 90 2a be 8a fb 21 3e b0 4c 2b 3d 88 76 26 3e
       -0.16656604 0.15818611 0.04182118 0.16256154
000060 00 10 d4 ba 84 c8 e0 bd c0 77 0a 3c c8 e4 50 bd
       -0.0016179085 -0.10975745 0.008451402 -0.050999433
000070 54 d3 99 3d a4 ef c6 3d 2c 8e cb bd 4c 0a c0 3d
       0.07511011 0.097136766 -0.099392265 0.09376964
000080 f4 99 9e 3d b8 6a c2 3d e4 c1 79 be a4 7a cf 3d
       0.07744208 0.09493011 -0.2439037 0.10130814
000090 de 2d 12 3e 24 d7 d6 3d 58 32 6d bd a8 7e 6e 3e
       0.1427531 0.104902536 -0.05790934 0.23290503
0000a0 1e 6c 63 be 40 d9 0a bd f0 b0 f0 bd e0 ca 02 bd
       -0.22209212 -0.033898592 -0.11752498 -0.031931758
0000b0 bc 9e 41 be d2 3a 37 be 04 2c db bd 72 11 3b be
       -0.18908209 -0.17893532 -0.10701755 -0.18268374
0000c0 52 84 37 be 10 ff e9 3d 94 ce 9f bd 00 a0 c7 bc
       -0.1792157 0.114256024 -0.078030735 -0.024368286
0000d0 28 42 0e be ba 2f 4d be 70 38 cd 3c 30 58 30 be
       -0.13892424 -0.20037737 0.025051326 -0.17221141
0000e0 fe 24 07 3e 12 a4 0e 3e 34 77 50 be 4e 43 55 3e
       0.13197705 0.13929775 -0.20357972 0.20826456
0000f0 28 a5 06 3e c0 98 dd bc d0 71 fe bd 10 3d a0 bc
       0.1314894 -0.027050376 -0.12424052 -0.019560367

lstm.bias_hh_l0 f4 [64]
000000 3c bd 04 3e 74 72 92 bd 20 de c2 bc 9c e0 3a 3e
       0.12962812 -0.071507365 -0.023787558 0.18249744
000010 b8 02 39 3e 22 be 19 3e b0 b0 8b 3d ba b7 2a be
       0.18067443 0.15013936 0.0682081 -0.16671649
000020 ee 57 1e 3e 18 d3 b7 3d 28 2a 61 3d 88 c4 06 bd
       0.1546323 0.0897581 0.054971844 -0.03290227
000030 7e c4 34 3e b0 84 13 3d 36 c5 7d be d4 d2 e9 3d
       0.17653081 0.036015213 -0.24782261 0.114171654
000040 70 43 4d 3d 30 c3 1d be 68 b4 27 be b4 08 cd 3d
       0.05011314 -0.1540649 -0.16377413 0.100114256
000050 6c 1d b8 bd 80 6a 25 3b d6 c3 38 be b4 0e d5 3d
       -0.08989987 0.002524048 -0.18043455 0.10403195
000060 90 cd 2e 3e 52 c0 6c be 60 eb 2c bc bc 7f 19 3e
       0.17070603 -0.2312024 -0.010554165 0.14990133
000070 18 8e 1d be 6e 42 10 be 68 40 de bd 20 71 8c bd
       -0.15386236 -0.14087841 -0.10852128 -0.068575144
000080 d4 fc 33 be 80 0f a8 bd 48 f4 1b 3e be 07 41 be
       -0.17576915 -0.082060814 0.15229905 -0.1885061
000090 6c 26 76 3e e8 c5 74 be 8c 20 c8 bd 3a 4b 6b be
       0.24038094 -0.2390362 -0.09771833 -0.22977915
0000a0 72 fa 3b 3e 70 35 15 3e 14 1b 9d bd a4 e0 a2 3d
       0.18357256 0.14571166 -0.0767118 0.07953003
0000b0 50 dd fb 3c 2e 50 3f 3e 16 af 3f be 1c f6 d0 bd
       0.030745178 0.1868293 -0.18719134 -0.10203192
0000c0 6a 59 53 3e f0 57 02 3d 40 47 20 bd bc b1 43 3e
       0.20639578 0.031822145 -0.03913045 0.19110769
0000d0 3a 62 0a 3e 54 93 29 be b0 f8 ad 3c 10 0c 6e bd
       0.13514033 -0.16560107 0.021236748 -0.058116972
0000e0 f0 0b 08 bd 80 be 07 bb 08 8b 0b bd 74 cd bb 3d
       -0.03321451 -0.0020712912 -0.034068137 0.091700464
0000f0 40 61 46 be 04 fc bf bd 2e 9e 0b be bc 6b f8 3d
       -0.19373035 -0.0937424 -0.1363456 0.12129924

lstm.weight_ih_l0_reverse f4 [64, 5]
000000 aa b3 62 3e 40 07 49 bd ec 89 92 bd 82 1e 26 be
       0.22138849 -0.04907918 -0.07155213 -0.16222575
000010 70 06 35 3d ec 90 e8 bd d4 8f db bd e6 62 06 be
       0.044195592 -0.11355767 -0.107207924 -0.13123664
000020 b0 a1 10 bd ea 84 2d be 90 c5 97 bd 90 d0 40 3e
       -0.035310447 -0.16945234 -0.07410729 0.1882956
000030 6e 4a 22 3e 2a 5d 18 be 32 de 1c be 30 2b 29 be
       0.15848705 -0.1487929 -0.15319136 -0.16520381
000040 a8 eb 46 3e e0 17 b6 bc 80 e3 3f 3b 1c d9 8b bd
       0.19425833 -0.022228181 0.0029279888 -0.0682852
000050 e6 18 76 be 12 e1 59 be 60 97 42 3c 40 96 f8 bd
       -0.24032936 -0.21277264 0.011876911 -0.12138033
000060 e4 80 ee 3d d4 95 09 be 84 ef 35 be 66 a3 28 3e
       0.11645678 -0.13436061 -0.17767149 0.16468582
000070 a8 e8 18 3e 3c fd 16 be d0 2d c6 bd 82 7a 03 3e
       0.14932501 -0.14745039 -0.09676707 0.12839702
000080 30 8e 4b 3e aa 31 19 3e 10 d8 ff 3d 28 b9 79 bd
       0.19878459 0.14960352 0.124923825 -0.060967594
000090 d8 05 3b bd 00 ca 42 3a 00 fe 25 3b 38 16 ff bd
       -0.04565987 0.0007430613 0.0025328398 -0.1245541
0000a0 d8 0d ab bd ee 02 38 3e 90 12 8c bc 08 f1 16 bd
       -0.0835225 0.17969868 -0.017098695 -0.03685096
0000b0 00 22 43 3c 80 dc d0 3c cc 25 f5 bd d6 24 51 3e
       0.011909962 0.025495768 -0.119701 0.20424208
0000c0 2e 02 01 be cc 91 28 be c4 bd 70 be 80 bf f7 bc
       -0.12598488 -0.16461867 -0.2350989 -0.030242682
0000d0 86 6e 19 3e 8e d5 39 be 2e ae 67 be 94 3d 6f be
       0.14983568 -0.18147871 -0.22625038 -0.23363334
0000e0 e4 30 98 bd 66 ce 5b be 60 33 ea bc 68 fa 70 3d
       -0.074312 -0.21465454 -0.02858895 0.058832556
0000f0 40 4b 86 bb 12 0e 31 be 48 d4 9e bd 7e c2 16 be
       -0.004098326 -0.17290524 -0.07755333 -0.1472263
000100 f0 19 b7 3d fc b4 ad 3d 3c 91 bb 3d 60 a7 a7 bd
       0.08940494 0.08481786 0.09158561 -0.08186221
000110 98 0f 50 be 14 63 1a 3e d0 5d f7 bd c0 cc de bc
       -0.20318449 0.15076858 -0.1207844 -0.027197242
000120 80 4d 54 3c 3a 2c 74 3e 08 f3 c4 3d 00 42 51 bc
       0.012957931 0.23844996 0.09616667 -0.012772083
000130 90 70 2d 3d 74 0e 02 3e 3a 43 1a 3e 00 a9 2b 3c
       0.042343676 0.12700826 0.15064707 0.010477304
000140 90 53 aa bd c0 69 9f 3b 6c 3c 01 be 26 e6 69 be
       -0.083167195 0.0048649013 -0.12620705 -0.22841701
000150 06 bc 25 3e 8e 2b 2b 3e 50 bf 1f 3e 68 e3 af 3d
       0.16185006 0.16715834 0.15600324 0.08588296
000160 3c f7 89 bd 10 86 f5 bc 90 40 e3 bd 68 59 48 3d
       -0.06736609 -0.029971153 -0.11096299 0.04891339
000170 76 81 5c be 18 e5 d3 3d f4 c2 ec bd 80 51 dd 3b
       -0.2153376 0.103464305 -0.11560622 0.0067541003
000180 f8 1e c6 3d 6a 87 61 be 58 1f 98 3d ce bd 52 3e
       0.096738756 -0.22024313 0.07427853 0.20580217
000190 70 90 cd 3d b6 6f 1c be a8 af 42 3e 70 69 0e bd
       0.10037315 -0.1527699 0.1901232 -0.03476852
0001a0 64 9b 1d be 04 3a 5a 3e 4e 4f 6a be c0 25 21 3d
       -0.15391308 0.21311194 -0.22881815 0.03934264
0001b0 ec 9a 8f 3d 94 1a 23 be dc 3b e7 bd 74 69 f6 bd
       0.07011971 -0.15928108 -0.11290714 -0.12031832
0001c0 a4 6a ab bd a8 8d f3 bd b0 f6 de bc 5c f6 7d be
       -0.083699495 -0.11892253 -0.02721724 -0.2480101
0001d0 34 0f 83 3d c0 86 d8 3b 68 2b a1 bd 8c 3f ad bd
       0.06399384 0.0066078603 -0.07869607 -0.08459386
0001e0 26 3f 6a 3e 2a c9 2d 3e 64 23 2b be 9c 41 31 3e
       0.22875652 0.16971269 -0.16712719 0.17310184
0001f0 aa 03 3d be e6 69 2e 3e 60 bc 70 bd 8c ce 64 3e
       -0.18458429 0.17032585 -0.0587734 0.22344416
000200 b0 0c 97 3c 40 67 34 bc 64 17 81 3d 00 e7 bb 3b
       0.018438667 -0.011010945 0.063032895 0.0057343245
000210 d8 e8 07 be 80 f5 35 be 7c a3 4c 3e 2a 86 16 be
       -0.13272417 -0.17769432 0.1998424 -0.14699617
000220 e0 27 49 3c d0 14 7a be b4 03 93 bd 48 d6 4e bd
       0.012277573 -0.24422002 -0.07178441 -0.050497323
000230 a2 90 0e be dc 2f 4a be c8 af a2 bd 8c d2 06 3e
       -0.1392236 -0.1974482 -0.07943684 0.13166255
000240 52 b5 76 3e 26 24 7f be 24 5c 49 3e 78 7b 6f 3d
       0.24092606 -0.24916133 0.19664055 0.05846736
000250 50 a0 e5 bc 40 11 4d bc e4 04 70 3e 98 13 49 bd
       -0.028030545 -0.01251632 0.23439366 -0.04909095
000260 dc 40 d6 3d 94 ca 34 be b8 fe 5d be 80 4f 70 bc
       0.1046159 -0.17655402 -0.21679199 -0.014667392
000270 98 fd b5 3d fe 87 7b 3e 98 bd 7d 3d 4e 42 17 3e
       0.0888626 0.24563596 0.06194839 0.14771387
000280 00 70 06 bb 1c af ed 3d 68 a9 e2 bd 6c 27 f7 bd
       -0.0020513535 0.11605665 -0.11067468 -0.12068066
000290 46 cd 79 3e 6e 40 3b 3e 58 e9 85 bd 20 a1 b4 bc
       0.24394712 0.18286297 -0.065386474 -0.022049487
0002a0 a0 1a a1 3d 00 10 b5 bb be ca 73 3e 40 c1 fb 3d
       0.078664064 -0.005525589 0.23807809 0.12292719
0002b0 a0 0a 06 bd 9c a4 a0 bd e8 11 17 be 82 5b 53 3e
       -0.032724977 -0.07843897 -0.14752924 0.20640376
0002c0 c0 af 61 3c 00 86 85 3d 14 87 71 be 18 9a 5e 3d
       0.013774812 0.06519699 -0.23586684 0.054346174
0002d0 a0 de 00 be 24 2b 72 3e d8 e2 e8 bd 00 01 81 3c
       -0.12584925 0.2364927 -0.11371392 0.015747547
0002e0 a0 71 9a 3d 2c aa b7 3d 14 64 86 bd 20 da a2 bc
       0.075412035 0.089680046 -0.06562057 -0.0198794
0002f0 28 eb 06 3d 04 85 f1 3d c6 e2 2a be c2 a3 35 be
       0.032939106 0.11792949 -0.1668807 -0.1773825
000300 28 64 6c 3e 10 1b d1 3c 64 91 0a 3e 14 54 06 be
       0.23085082 0.0255256 0.13532025 -0.13118011
000310 c0 41 40 bc 14 5b 5c be 6c 17 71 be 48 2e b1 3d
       -0.011734426 -0.21519119 -0.23544091 0.086514056
000320 84 4d 0d be 80 42 6a bb 06 28 4e be 5e c0 66 3e
       -0.13799101 -0.0035745203 -0.20132455 0.2253432
000330 40 fe 39 3d 36 d5 32 be 40 93 b6 3d 84 84 5d be
       0.045408487 -0.17464146 0.089148045 -0.21632582
000340 c0 55 0d 3c bc 96 e3 3d 44 84 40 3e d0 92 cc bc
       0.008626401 0.11112735 0.18800455 -0.02497235
000350 28 6b 8b 3d f4 32 78 be a0 52 eb bd 44 ac 09 be
       0.06807548 -0.24238187 -0.11490369 -0.1344462
000360 be 0f 3b 3e 60 29 df bc ba b4 13 3e 40 8a 68 bc
       0.18267724 -0.027241409 0.1442441 -0.014193118
000370 64 cd 7e be 00 7f e0 3b 80 05 ee 3d a6 1d 09 3e
       -0.24883038 0.006851077 0.11622143 0.13390216
000380 34 f6 dd bd dc 70 46 be a0 b5 bf bc dc c2 0a 3e
       -0.10837975 -0.1937899 -0.023402035 0.13550895
000390 78 5f c3 bd 68 57 9b bd 68 d8 15 3e d4 bf b4 bd
       -0.095396936 -0.07585031 0.14633334 -0.08825651
0003a0 54 04 17 be 60 0a e5 bc 9c 9e 96 bd 5e 2e 0d 3e
       -0.14747745 -0.027959049 -0.07354471 0.13787219
0003b0 08 dd 29 3d dc 25 c7 bd cc 74 e4 bd 00 72 9d 3d
       0.041470557 -0.09724018 -0.1115509 0.076877594
0003c0 20 a0 fa 3d 9e 1e 61 be f8 a9 07 be 44 5c ff bd
       0.12237573 -0.21984336 -0.13248432 -0.1246877
0003d0 30 ad 92 bd 74 5c 90 bd 74 f4 ba 3d 9c 93 e9 3d
       -0.07161939 -0.07048884 0.09128657 0.114051074
0003e0 48 8e bc bd 28 b6 70 bd 28 4d 76 3e 06 e6 5a be
       -0.092068255 -0.058767468 0.2405287 -0.2137681
0003f0 a2 7e 38 be c2 41 1d 3e 58 65 6c 3e c8 d8 d2 bd
       -0.18017057 0.15357116 0.23085535 -0.10295254

lstm.weight_hh_l0_reverse f4 [64, 16]
000000 00 fd 10 bb 90 84 55 3e b4 25 8c bd e8 52 04 3e
       -0.0022123456 0.2085135 -0.06843129 0.12922251
000010 02 96 77 3e 34 de cc 3d 10 31 04 be b8 9d 5f 3d
       0.24178317 0.100033194 -0.12909341 0.05459377
000020 b8 20 b4 bd 80 13 b0 3c 84 8f e9 3d 68 9d 48 3e
       -0.08795303 0.021493673 0.114043266 0.19591296
000030 60 ef d6 bc 70 bd b3 3c de 23 6a be 00 fa 60 ba
       -0.02623719 0.021940917 -0.22865245 -0.0008582175
000040 ac 35 d1 bd 98 9b 95 bd c2 bb 00 be 96 d6 03 3e
       -0.10215315 -0.07305068 -0.12571624 0.12874827
000050 4e dd 2e be b8 e7 81 bd 72 93 7d 3e 60 e8 88 3c
       -0.17076609 -0.06343025 0.24763277 0.016712368
000060 30 bc 54 3e 9c 1a 85 3d f6 8d 3e be f6 3c 64 3e
       0.20774913 0.06499216 -0.18608841 0.2228888
000070 18 d1 66 3d b4 f0 5d be 78 b4 f7 bd 2c 9a 74 be
       0.05635175 -0.21673852 -0.120949686 -0.23886937
000080 32 cd 6b 3e a0 ed 05 3e 78 5e 54 3e 00 7e fc 3a
       0.23027495 0.13078928 0.20739162 0.0019263625
000090 5a 42 3f be 40 f4 fb 3c 40 83 24 3c f4 2d 35 be
       -0.18677655 0.030756116 0.010041058 -0.17693311
0000a0 14 c7 c1 3d 12 bb 5c 3e ac 14 da bd 56 72 60 3e
       0.09461799 0.21555737 -0.10648474 0.21918616
0000b0 a8 f5 ae 3d 90 ca 96 3d 60 a5 1d 3d f4 0a 58 3e
       0.08542949 0.073628545 0.038487792 0.21097928
0000c0 de 05 54 be 18 c1 1c be 50 b1 e0 3c fc 30 12 3e
       -0.20705363 -0.15308034 0.0274283 0.14276499
0000d0 ea 60 64 3e 64 3d d4 bd fc 3e 7d be b4 d5 99 bd
       0.22302595 -0.10363272 -0.24731058 -0.07511464
0000e0 b0 9c d0 3c 78 7a 44 3e ec c5 e5 3d 80 5b df 3b
       0.02546534 0.19187343 0.11219391 0.0068163276
0000f0 d8 22 68 bd 26 e5 5f be 88 09 38 bd 3a e4 29 3e
       -0.056673855 -0.21864757 -0.044930965 0.16590968
000100 c8 63 77 3d 00 9e 54 3e 50 1c f7 bc d8 90 8d bd
       0.060397893 0.20763397 -0.030164868 -0.069123924
000110 e8 82 93 bd b0 3d b3 3c 68 45 dd 3d 4a a4 7f 3e
       -0.07202703 0.02188 0.10804254 0.24965015
000120 ac a5 87 bd 20 f3 64 3e 82 96 4e be 7c 44 a2 bd
       -0.06623396 0.2235837 -0.20174602 -0.079232186
000130 40 45 ae bc 40 b2 2a bd 9a c3 59 3e ae 45 7f 3e
       -0.021273255 -0.0416739 0.21266022 0.24928924
000140 28 76 5b bd 68 79 cc bd 06 1b 73 be 9a 27 1a be
       -0.05357948 -0.09984094 -0.23740777 -0.1505417
000150 b8 db 8d bd 4c b3 04 3e 28 7d 4b 3e 12 51 4b 3e
       -0.06926674 0.12959021 0.19871962 0.19855145
000160 7a dc 43 3e 08 c3 b7 3d 80 b6 da 3d 8e c7 00 3e
       0.19127074 0.08972746 0.1067934 0.12576124
000170 50 c3 1a be a8 c1 7a 3d d0 40 09 be fa cd 40 be
       -0.15113568 0.06121984 -0.1340363 -0.18828574
000180 70 8a ae 3c d8 b3 b7 bd 10 6f ff bc 78 e5 91 3d
       0.021306247 -0.08969849 -0.031180888 0.07123846
000190 8c 99 ef 3d 48 32 3f 3e 40 36 b5 3c 44 3b c1 bd
       0.116992086 0.18671525 0.022120595 -0.09435132
0001a0 a8 e8 5a 3e c8 fd 63 be 40 f4 15 3d 30 6f 64 3e
       0.21377814 -0.22264779 0.036609888 0.2230804
0001b0 00 ea 5d bb fc 30 ef 3d 98 7a 68 3e ec 46 eb 3d
       -0.0033861399 0.11679265 0.22703016 0.11488137
0001c0 f6 a2 0f 3e b8 59 25 bd 6a f6 49 be 08 61 cd 3d
       0.14027008 -0.040368766 -0.19722906 0.10028273
0001d0 98 f9 f5 bd 74 47 42 be 88 f7 d8 3d ea ee 44 3e
       -0.12010497 -0.1897257 0.10594088 0.19231763
0001e0 d0 1a d5 bd 40 c1 52 be e8 b3 a4 3d 06 b1 02 be
       -0.10405505 -0.20581532 0.08042127 -0.12762842
0001f0 22 3d 72 be 88 9a 65 3e 50 db 7a bd 24 c2 a2 bd
       -0.23656133 0.2242223 -0.06124431 -0.07947186
000200 b2 77 27 3e 98 8a d0 bd a8 0a a7 3d 60 fd 93 bc
       0.16354254 -0.10182685 0.081563294 -0.018065155
000210 fe 20 3c be 18 29 88 3d b4 4d d7 bd 20 28 42 3e
       -0.1837196 0.06648463 -0.105128676 0.18960619
000220 f6 12 64 be 80 f9 4b bc 5a d0 3c be 00 78 3d bc
       -0.22272858 -0.012449622 -0.18438855 -0.011564255
000230 c6 40 57 3e 44 1e 6f be 46 50 02 3e 40 9a f6 bd
       0.21020803 -0.23351389 0.12725934 -0.120411396
000240 68 11 24 be b4 10 80 bd 30 bf 96 3d b6 08 45 be
       -0.16022265 -0.06253186 0.07360685 -0.19241604
000250 c4 97 90 bd 20 fc 0c 3e c8 1f 78 bd 50 62 17 3e
       -0.07060197 0.13768053 -0.060577184 0.14783597
000260 12 1e 6c be d0 50 24 bd 26 81 1d 3e e8 c3 08 3d
       -0.23058346 -0.04011613 0.15381297 0.033389956
000270 40 5f e8 bb a2 b7 39 be 72 08 11 3e 08 1d fd bd
       -0.007091433 -0.18136457 0.14163378 -0.12359053
000280 f0 6f 6b 3d ec 4d cf bd a4 28 f7 3d 8a 85 1d be
       0.0574798 -0.10122284 0.120682985 -0.15382972
000290 6c 3b 94 bd 52 fb 1d be 96 59 1f be 88 57 80 3d
       -0.07237896 -0.15427902 -0.15561518 0.06266695
0002a0 20 2c 77 be 40 23 f3 3c 42 ca 54 be f4 cd 1d 3e
       -0.24137926 0.029679894 -0.2078028 0.15410596
0002b0 90 ba 60 3e 0e 36 76 be 08 b8 7d be 5e ed 02 3e
       0.21946168 -0.24044058 -0.24777234 0.12785861
0002c0 1c 25 3e be 68 fd f7 3d e6 40 61 be 70 af 69 bd
       -0.18568844 0.1210888 -0.21997413 -0.057052076
0002d0 8c aa 5f be b0 13 8d bd c0 f9 7a bc f4 2d 69 be
       -0.21842402 -0.06888521 -0.015318334 -0.22771436
0002e0 c2 bf 55 be 90 cd 38 3e a0 67 9c bd fe 16 77 be
       -0.20873931 0.18047166 -0.076369524 -0.24129865
0002f0 22 b3 37 be e0 d8 d8 bd 9a ff 1c be e4 ae 88 bd
       -0.17939427 -0.105882406 -0.1533188 -0.06673983
000300 e4 0a cc bd 04 e1 14 3e b4 c1 99 bd 1c 40 ab bd
       -0.09963015 0.14538962 -0.07507649 -0.08361837
000310 a8 fc 3c 3e c0 1a 60 3e ee ad 48 3e 28 46 23 bd
       0.18455756 0.21885204 0.19597599 -0.039861828
000320 5c 03 56 3e 28 fb be bd 88 e8 5f 3d 68 4f bf bd
       0.20899719 -0.09325248 0.05466512 -0.093413174
000330 e2 b4 76 be 00 9e 26 ba 64 1d a8 bd 7e 1d 64 be
       -0.24092439 -0.00063559413 -0.08208731 -0.22276875
000340 0c c8 3f 3e f6 b8 7a 3e 78 74 68 be 48 20 0a be
       0.18728656 0.2448462 -0.2270068 -0.13488877
000350 40 5f 29 3e 80 4a 3b bb e0 62 c4 bd 1a 79 7d 3e
       0.16540241 -0.002857834 -0.095891714 0.24753228
000360 8e 16 15 be 38 c2 d8 3d d0 3e d4 bc 5c 42 cf 3d
       -0.14559385 0.10583919 -0.025908858 0.10120079
000370 a4 43 db 3d a0 58 7c 3d c0 0a 83 bc 60 ed 9e bd
       0.10706261 0.061607957 -0.015996337 -0.077601194
000380 dc 18 d0 bd 52 ff 43 be 66 d3 11 be 60 e7 15 3d
       -0.101609915 -0.19140366 -0.14240798 0.03659761
000390 28 f1 16 bd 90 7e 0e 3d d0 bd 67 3e c4 f1 19 3e
       -0.03685108 0.03478867 0.22631001 0.15033633
0003a0 50 b2 e5 bd d0 3a c4 bc 92 06 37 3e 5c 83 04 be
       -0.11215651 -0.023953825 0.178736 -0.12940735
0003b0 e8 37 24 be 08 43 ab 3d 84 30 2e be be 0e 3a 3e
       -0.16036952 0.083623946 -0.17010695 0.18169686
0003c0 32 de 77 be c8 4a ac bd 38 83 6a 3d b8 a6 01 bd
       -0.24205855 -0.08412701 0.057254046 -0.031653136
0003d0 c8 43 c4 bd d2 3a 5b 3e 50 a2 48 bd 00 d9 50 bb
       -0.09583241 0.21409157 -0.04898292 -0.0031867623
0003e0 0a ae 3b be ec a1 d4 bd 44 4c 7b be ea 97 5a be
       -0.1832811 -0.10382447 -0.24540812 -0.21347013
0003f0 4a e5 17 be 9e 77 09 be 90 51 92 bd 40 14 78 bc
       -0.1483356 -0.13424537 -0.07144463 -0.015141547

lstm.bias_ih_l0_reverse f4 [64]
000000 58 5b 8a 3d 1c e4 da bd 34 85 33 be 44 3d a0 bd
       0.06755704 -0.1068804 -0.17531282 -0.078241855
000010 e2 83 1d be d2 dc 69 be f8 7a 0b be b4 b6 60 be
       -0.1538234 -0.22838143 -0.13621128 -0.21944696
000020 52 94 54 3e 00 2f 25 3e fe e9 4d 3e 20 ce 44 bd
       0.20759705 0.1613121 0.20108792 -0.04804814
000030 88 58 02 bd 40 40 d8 bd 80 bf a6 bc f8 fd 7c 3d
       -0.03182271 -0.1055913 -0.020354986 0.06176564
000040 da 55 34 3e 68 41 b7 3d 2e 77 0e 3e e0 24 70 bd
       0.17610875 0.08948022 0.13912651 -0.058628917
000050 14 0e 4e be 42 ec 24 3e 38 2f 70 be 80 6f 57 3b
       -0.20122558 0.1610575 -0.23455513 0.0032872856
000060 b8 6e 51 3d 70 0d 5e 3e fe 08 39 be b4 27 3a 3e
       0.05113098 0.21684813 -0.18069836 0.18179208
000070 48 28 31 bd 8e 3b 15 be c0 eb 77 3e 88 d6 6a be
       -0.043251306 -0.145735 0.24211025 -0.229334
000080 6e 1c 76 be 3e 09 61 be 5c 8b 5c be 10 c3 38 3d
       -0.24034283 -0.21976182 -0.21537536 0.0451079
000090 90 ba 4b 3d b4 7f 68 3e a8 b3 a8 bd 3c ca 69 3e
       0.049738467 0.22704965 -0.08237392 0.22831053
0000a0 e4 17 bf bd 28 7d de 3d 64 76 f4 3d 70 f6 13 be
       -0.09330729 0.108637154 0.11936644 -0.14449477
0000b0 3c 9e fc bd 5c 35 59 be 80 61 da bd 94 f3 60 3e
       -0.12334868 -0.21211761 -0.10663128 0.21967918
0000c0 98 b2 63 3e 3c ae 4d be 58 fe ad 3d 58 b7 04 bd
       0.22236097 -0.20085996 0.08495778 -0.032401413
0000d0 aa 06 62 be 68 36 4b 3d 30 e5 7f 3d a4 5b 5a be
       -0.22072855 0.049612433 0.06247443 -0.2132402
0000e0 18 3b 60 be ec 68 f8 bd d0 1c 99 3d 28 f8 51 3e
       -0.21897542 -0.12129387 0.07476199 0.2050482
0000f0 0e 7d 26 be 00 02 a5 bb 4a 1a 31 3e 7e 95 60 3e
       -0.16258642 -0.005035639 0.17295185 0.21932027

lstm.bias_hh_l0_reverse f4 [64]
000000 60 dc 5f bd 28 ab 27 3d b0 fe fd 3c 72 4e 16 be
       -0.054653525 0.04093471 0.031005234 -0.14678362
000010 16 12 45 be 8a 31 7a 3e b4 63 49 be 60 99 ff bc
       -0.1924518 0.2443296 -0.1966694 -0.031201065
000020 40 57 3b 3c 90 3c 9b 3c d0 22 47 3e f8 1d 75 bd
       0.011434376 0.018949777 0.19446874 -0.059843034
000030 08 a7 88 bd 1c ca 83 3d 14 b5 7a 3e 68 1f 98 bd
       -0.06672484 0.06435034 0.24483138 -0.07427865
000040 86 b7 25 3e 98 4c 3c bd 46 8a 04 be 60 66 22 be
       0.1618329 -0.045971483 -0.12943372 -0.15859365
000050 f8 76 2d bd c0 93 36 bd 20 2d 4a 3c 90 5f ed bd
       -0.042349786 -0.0445745 0.01233986 -0.11590493
000060 24 ac 13 be 4a 3b 17 be f0 99 b9 bd d0 b3 9b bc
       -0.14421135 -0.1476871 -0.090625644 -0.01900664
000070 a0 2f d0 bd 78 04 4d 3e 00 67 1e bc 40 bb 08 3c
       -0.10165334 0.20021236 -0.009668112 0.008345425
000080 8e aa 52 be 30 ea 70 bd 58 43 78 bd e0 20 25 3d
       -0.20572874 -0.05881709 -0.0606111 0.040314555
000090 74 2b 2c 3e 30 48 23 bd 2a de 3b 3e 20 ea 3b bd
       0.16813451 -0.039863765 0.18346468 -0.045877576
0000a0 52 66 38 3e d8 de e1 3d 40 0c e6 bc a8 b5 21 3d
       0.18007782 0.11028832 -0.028082013 0.03947988
0000b0 ca 9d 04 be 04 d2 f8 3d 38 1e 14 3e 76 f0 7d be
       -0.12950817 0.12149432 0.14464653 -0.2479876
0000c0 20 ac 2f 3e 84 58 11 3e b6 fa 73 3e ec 4b ca 3d
       0.17155504 0.14193922 0.23826107 0.09877762
0000d0 8c f5 b0 bd 00 80 46 39 dc 96 0a 3e e4 b9 29 be
       -0.08640584 0.00018930435 0.13534111 -0.16574818
0000e0 8c 51 5c 3e 54 c2 c5 bd 4c 02 a7 3d 20 e7 da bd
       0.21515483 -0.09656206 0.08154735 -0.10688615
0000f0 ca 24 7e be d8 a2 df 3d 52 4b 60 be c0 c0 f9 3d
       -0.24818721 0.10919732 -0.21903732 0.12194967

fc.weight f4 [1, 32]
000000 45 47 ea be 00 31 55 3b bc e5 51 3d e0 29 c4 3c
       -0.457575 0.0032530427 0.051244482 0.023945749
000010 4a f7 0e bf e9 5e 15 be 48 fc 4a 3d 43 78 ff be
       -0.55846083 -0.14586987 0.049557 -0.4989644
000020 42 7e c9 bd 6f e8 1a 3e e0 c3 ab 3e 60 06 cd 3c
       -0.09838535 0.15127729 0.33547878 0.025027454
000030 ec c4 95 3d 6b a5 27 3e 10 56 2c 3c d0 08 77 3c
       0.073129505 0.16371696 0.010518566 0.015077785
000040 08 ac 8a bc 30 01 c5 bc 86 0c f2 3d 45 87 15 3e
       -0.016927734 -0.024048418 0.11818795 0.14602382
000050 aa db 90 3e b4 bf 1e bd 81 cb fe 3e 8e 2d fd 3d
       0.2829259 -0.03875704 0.49764636 0.123622045
000060 a5 d0 fd 3e 5e 3a 20 be 0e 5c 90 3d ce 29 ae 3d
       0.49573246 -0.15647265 0.07048808 0.08504067
000070 d0 bd d3 be 4e b9 87 bd 27 50 b3 be f0 55 88 bc
       -0.41355753 -0.06627141 -0.3502209 -0.01664254
