project/models/BiLSTM/KOSPI.pth (torch, 15461 bytes, 9 tensors)

forward_lstm.weight_ih_l0 f4 [64, 5]
0.08683851 -0.20024389 -0.11107722 0.20126933 0.1937181 0.17509225 0.0047432184 0.117811084
-0.05446276 0.20283523 -0.06195572 -0.24888426 0.19339779 -0.21751243 0.17111146 -0.018172622
-0.048803926 0.09419948 -0.22578391 -0.12992 0.21181622 -0.19064432 -0.24898309 0.20091617
0.092372924 0.09001759 -0.02668196 -0.17722821 0.12475872 0.2042399 0.09829134 -0.01770404
-0.04670611 -0.044540286 0.24247554 0.12661317 0.14914176 0.23700663 0.09987545 -0.18468708
0.070053756 0.04538226 -0.05862549 0.18183121 0.16797975 -0.22028515 -0.19994333 0.20442432
-0.093381435 0.22780612 -0.021707594 -0.106583655 -0.18832114 0.05941868 -0.04530835 0.016174108
-0.02311027 -0.057706952 0.14173585 0.2090806 0.1371029 0.1178481 -0.07089561 -0.20492151
0.20529792 0.088363975 0.21336314 0.017846882 0.20195717 -0.019724935 0.081597984 0.13650033
0.17938754 0.120302826 -0.021183819 0.016856164 0.19017944 0.20106125 0.21368012 -0.0884096
-0.010600567 0.21825364 0.0581733 0.0067022145 0.017011255 0.011107087 0.118121296 0.055042326
0.09118196 0.12335315 0.020116031 -0.08837873 0.24957463 0.15374756 0.020786852 0.067487925
0.24147409 0.17741102 0.10610974 0.06299797 -0.14371222 -0.15028718 0.057971865 -0.044610888
0.21098417 0.13214451 0.08557689 -0.034305125 -0.09753978 -0.24913335 0.15702933 0.17655367
0.0065613687 0.12958223 -0.24812335 -0.23344058 0.2245214 -0.17006251 0.24009594 0.19869831
0.22394565 -0.1140286 -0.20158237 0.049771667 0.19219452 -0.18740255 -0.12772831 -0.14367968
0.0006007254 -0.15157932 -0.15556374 -0.11969647 0.100406945 0.11401245 0.18287799 -0.1946666
0.16375643 -0.155487 -0.18208557 -0.10199922 -0.21618837 0.18441275 -0.057977676 -0.14241073
0.050224096 0.08303061 -0.08556408 -0.20366156 0.23712412 0.1920602 0.16425774 0.05672118
-0.14760253 -0.23044467 -0.014339089 0.010656685 -0.198387 -0.06327608 0.040460795 0.16653052
0.19143787 0.08631426 -0.16817194 0.08297667 0.028365105 0.105899245 0.17572019 -0.08115101
-0.026865125 0.036252737 0.23933926 -0.16258013 0.027062505 -0.10746521 -0.07781878 0.12125385
0.1030024 -0.18255815 -0.1533558 0.18718529 -0.070310414 0.031814843 -0.13523084 0.24628079
-0.092200965 0.06891248 -0.0752528 -0.16548201 -0.24951029 -0.03306949 0.011355311 0.03339097
0.13246354 0.21814269 -0.062963694 -0.15991315 -0.12818804 -0.021762848 0.013399273 -0.13849825
-0.18273392 0.23760185 -0.15950593 0.1426943 -0.18619984 -0.028428108 -0.21564916 -0.17267823
0.08158466 -0.077839434 -0.08097252 -0.046648413 0.15033689 0.1265769 -0.016047359 -0.15893635
0.10165906 0.031674355 -0.015981734 -0.071054816 -0.16403282 0.24800044 -0.16928315 -0.10871744
0.22510713 -0.050774485 0.092439175 0.24238697 -0.004003197 -0.03428772 -0.14050859 -0.042083323
0.06335941 0.046958327 0.09420025 -0.066622525 -0.2192789 -0.004998982 0.14775747 0.09055108
0.23530617 0.11829767 0.17001936 0.21511477 0.21160808 -0.0760352 0.0684019 0.17290473
-0.0076233447 0.16031492 0.05012119 0.04976213 0.01830709 -0.045743793 -0.100786775 -0.18408874
00000000: 64d8 b13d bc0c 4dbe 747c e3bd 8c19 4e3e
00000010: 0a5e 463e 624b 333e 006d 9b3b f046 f13d
00000020: 5814 5fbd 0ab4 4f3e 48c5 7dbd 84db 7ebe
00000030: 120a 463e 94bb 5ebe d837 2f3e c0de 94bc
00000040: a0e6 47bd a8eb c03d e633 67be c009 05be
00000050: 5ae6 583e 4438 43be 6cf5 7ebe f8bc 4d3e
00000060: 042e bd3d 245b b83d 2094 dabc 507b 35be
00000070: 8081 ff3d 4424 513e f84c c93d 1008 91bc
00000080: e84e 3fbd e06f 36bd 824b 783e e2a6 013e
00000090: 9eb8 183e deb1 723e 808b cc3d 9c1e 3dbe
000000a0: 5878 8f3d c0e2 393d 4821 70bd f631 3a3e
000000b0: e202 2c3e 6e92 61be f2bd 4cbe 9c54 513e
000000c0: c43e bfbd 0246 693e 20d4 b1bc 8848 dabd
000000d0: 42d7 40be 0061 733d 4095 39bd 907f 843c
000000e0: c051 bdbc 205e 6cbd 3423 113e 3a19 563e
000000f0: b464 0c3e 585a f13d b831 91bd f2d6 51be
00000100: 9e39 523e 2cf8 b43d de7b 5a3e a033 923c
00000110: dccd 4e3e 3096 a1bc d81c a73d bec6 0b3e
00000120: 5eb1 373e 5461 f63d b089 adbc f015 8a3c
00000130: 66be 423e 00e3 4d3e f6ce 5a3e 1810 b5bd
00000140: 00ae 2dbc e27d 5f3e 2047 6e3d 409e db3b
00000150: 305b 8b3c 80fa 353c 94e9 f13d 1074 613d
00000160: 9cbd ba3d 94a0 fc3d 60ca a43c e8ff b4bd
00000170: 7e90 7f3e 0070 1d3e 3049 aa3c 1c37 8a3d
00000180: fc44 773e 3cab 353e 1050 d93d 1405 813d
00000190: 4c29 13be e2e4 19be e873 6d3d e8b9 36bd
000001a0: 3c0c 583e e450 073e f042 af3d 8883 0cbd
000001b0: f0c2 c7bd d01c 7fbe 4ccc 203e 7cca 343e
000001c0: c000 d73b 34b1 043e 0c14 7ebe 0c0b 6fbe
000001d0: f0e8 653e de24 2ebe b6db 753e 9277 4b3e
000001e0: 0252 653e d487 e9bd 9c6b 4ebe 60dd 4b3d
000001f0: a4ce 443e 74e6 3fbe 36cb 02be c420 13be
00000200: 007a 1d3a 9c37 1bbe 1a4c 1fbe 6c23 f5bd
00000210: 28a2 cd3d 5c7f e93d 5e44 3b3e ae56 47be
00000220: c4af 273e fc37 1fbe a474 3abe f8e4 d0bd
00000230: 7c60 5dbe b2d6 3c3e 007a 6dbd 1ed4 11be
00000240: c8b7 4d3d f40b aa3d 383c afbd a88c 50be
00000250: aad0 723e 6eab 443e 2e33 283e 7854 683d
00000260: 1e25 17be b0f9 6bbe 80ee 6abc 6099 2e3c
00000270: f625 4bbe e496 81bd 38ba 253d fa86 2a3e
00000280: 4a08 443e 88c5 b03d 4435 2cbe acef a93d
00000290: f05d e83c b4e1 d83d feef 333e 8032 a6bd
000002a0: 4014 dcbc c07d 143d 5a15 753e 687b 26be
000002b0: 30b2 dd3c b816 dcbd 745f 9fbd f053 f83d
000002c0: ecf2 d23d 86f0 3abe 4e09 1dbe 80ad 3f3e
000002d0: e8fe 8fbd 4850 023d f479 0abe 0831 7c3e
000002e0: dcd3 bcbd fc21 8d3d 241e 9abd 1e74 29be
000002f0: a07f 7fbe e073 07bd a00b 3a3c f8c4 083d
00000300: 86a4 073e cc60 5f3e 1cf3 80bd 46c0 23be
00000310: ba43 03be 0048 b2bc a088 5b3c 7cd2 0dbe
00000320: 9a1e 3bbe e64d 733e 8655 23be 741e 123e
00000330: 2cab 3ebe 10e2 e8bc 22d3 5cbe 90d2 30be
00000340: dc15 a73d 486a 9fbd ecd4 a5bd 6812 3fbd
00000350: eaf1 193e 609d 013e c075 83bc 36c0 22be
00000360: a032 d03d f8bc 013d 20ec 82bc 3085 91bd
00000370: 38f8 27be d4f3 7d3e 9058 2dbe 40a7 debd
00000380: 7c82 663e e8f8 4fbd c050 bd3d 4a34 783e
00000390: 402d 83bb 4871 0cbd 7ce1 0fbe 905f 2cbd
000003a0: 94c2 813d 6057 403d 10ec c03d 6471 88bd
000003b0: a68a 60be 80ce a3bb bc4d 173e d872 b93d
000003c0: 1af4 703e 0c46 f23d 8e19 2e3e 0c47 5c3e
000003d0: caaf 583e 58b8 9bbd 4c16 8c3d f00d 313e
000003e0: 40cd f9bb 9829 243e e04b 4d3d 60d3 4b3d
000003f0: c0f8 953c d85d 3bbd 4c69 cebd c281 3cbe

forward_lstm.weight_hh_l0 f4 [64, 16]
0.0044196546 -0.00011712313 -0.032446563 -0.01666513 -0.061299026 -0.07021138 -0.07860237 0.21991497
0.23853227 -0.05434513 0.06480965 0.04601124 -0.015393406 -0.24711788 -0.08521721 0.14655143
0.19807416 0.23370191 0.03381303 -0.018791795 -0.23881963 -0.022886574 -0.050399482 -0.030067384
-0.24601686 0.09496507 0.06787154 0.10375172 -0.23140788 0.17418084 0.07582846 -0.04396224
-0.21171969 -0.18473318 -0.010440737 -0.15248883 -0.19881886 -0.12206903 -0.081526935 -0.10140878
0.005865097 -0.12026128 -0.09694609 -0.23683834 -0.17179945 0.2442401 0.123224795 0.12984306
0.14247909 0.22963619 -0.2217358 0.16699615 0.06835595 -0.214012 0.22298357 0.16820759
0.0693202 -0.086419284 0.20395696 -0.054465532 0.16344297 -0.1968461 0.15942425 -0.123324245
0.033998817 -0.22121996 -0.03331083 0.21117511 0.24369204 0.19530728 0.21642679 0.23546007
-0.012499034 0.057109267 0.23368123 0.043319434 0.013013691 -0.04669535 -0.23281363 0.18706143
0.22188026 -0.2476328 0.13417676 -0.22184935 0.20975953 0.23883945 -0.20245844 0.041044414
0.021852434 -0.20604077 0.19928378 -0.1365296 -0.16292852 -0.106995404 -0.15403083 -0.0045660436
-0.19188806 -0.17982474 0.15447655 0.100001365 0.07910451 0.1470077 0.24516484 0.22458762
0.007324815 0.12387949 0.08386484 -0.17319605 -0.22399351 -0.16584706 -0.066004336 0.11634117
-0.062187076 -0.034556955 -0.05891946 0.22678554 0.040680826 0.0036559403 0.13901204 -0.12970427
-0.026288003 -0.23284844 -0.08243936 -0.14679033 -0.11542225 -0.12494889 -0.0069607794 0.2099047
-0.16937354 -0.08757344 -0.01891002 0.11885622 -0.23127559 -0.22806355 -0.22772959 -0.19169554
0.19602242 -0.08977905 0.10896695 -0.14869726 0.13882855 -0.065452814 -0.06860685 -0.037683994
0.22237751 0.061317295 0.11542392 0.13039282 -0.033725232 -0.028769553 -0.22680843 -0.03722936
-0.1477839 -0.16603976 -0.21647498 0.02187705 0.2342146 -0.057084084 0.24174866 -0.058858126
-0.059598148 0.016150177 0.13271332 -0.061345816 0.24642345 0.06401038 -0.18438372 0.04645413
-0.00094619393 -0.072520584 -0.14445466 -0.11116883 0.19398242 -0.01525116 -0.085371405 -0.11004719
-0.034822017 -0.19761172 0.026174068 0.13808638 0.24877003 -0.06529182 -0.23612055 -0.07862267
-0.105097026 -0.19677398 -0.048953146 -0.04522404 -0.17252329 -0.2435691 0.07995969 -0.17705977
0.0919781 -0.1952132 0.24618089 -0.2041035 -0.16194493 -0.09900886 -0.17406693 -0.10175571
0.075877786 -0.24473998 0.23693529 -0.095680356 0.022804767 -0.19306195 -0.18782982 -0.14618397
0.21884623 0.0833056 0.111929595 -0.11428034 0.18243054 0.052981704 0.24940512 0.21526828
-0.15885702 -0.047660828 0.20692107 0.2312558 -0.122097135 -0.16482705 -0.15516743 0.21104646
0.05816233 0.1151627 -0.005915731 -0.114994675 -0.24728885 0.08242202 0.21053615 0.011516452
0.15671071 -0.0769943 0.13309094 0.16809633 0.14969999 -0.231424 0.09255904 0.17120594
0.015509218 0.0741508 -0.10494965 -0.10417017 -0.20943707 0.008646011 -0.1603553 0.1378887
0.02531445 0.14929259 0.073063016 -0.21187079 0.13544005 -0.1637753 0.06673449 0.0071095824
00000000: c0d2 903b 00a0 f5b8 b0e6 04bd 5085 88bc
00000010: b014 7bbd fcca 8fbd 48fa a0bd 6431 613e
00000020: ce41 743e 0099 5ebd ecba 843d 4876 3c3d
00000030: a034 7cbc 780c 7dbe 5c86 aebd 9411 163e
00000040: f4d3 4a3e 8e4f 6f3e 887f 0a3d 40f1 99bc
00000050: 228d 74be a07c bbbc b06f 4ebd e04f f6bc
00000060: d8eb 7bbe 0c7d c23d 3c00 8b3d c87b d43d
00000070: 30f6 6cbe 765c 323e f44b 9b3d c011 34bd
00000080: 0ccd 58be b22a 3dbe a00f 2bbc 0826 1cbe
00000090: 2c97 4bbe 54ff f9bd 98f7 a6bd 68af cfbd
000000a0: 0030 c03b 8c4b f6bd ac8b c6bd c085 72be
000000b0: 32ec 2fbe 141a 7a3e 485d fc3d 94f5 043e
000000c0: 0ae6 113e c025 6b3e b60e 63be 0a01 2b3e
000000d0: 34fe 8b3d f625 5bbe ce55 643e 9c3e 2c3e
000000e0: c0f7 8d3d 98fc b0bd 18da 503e 4017 5fbd
000000f0: 985d 273e 0692 49be 1c40 233e 6c91 fcbd
00000100: 5842 0b3d 7c87 62be f070 08bd 4a3e 583e
00000110: 688a 793e a2fe 473e fc9e 5d3e 721c 713e
00000120: c0c8 4cbc 68eb 693d 224a 6f3e b86f 313d
00000130: 6037 553c a043 3fbd b266 6ebe 088d 3f3e
00000140: 9434 633e 7493 7dbe a265 093e 7a2c 63be
00000150: 34cb 563e 5492 743e 4451 4fbe 301e 283d
00000160: e003 b33c 5afc 52be 0c11 4c3e 6ace 0bbe
00000170: bcd6 26be 6820 dbbd 42ba 1dbe c09e 95bb
00000180: 4e7e 44be fa23 38be 1a2f 1e3e 84cd cc3d
00000190: 8c01 a23d 3089 163e 7e0c 7b3e 4cfa 653e
000001a0: 0005 f03b 88b4 fd3d 54c1 ab3d 4e5a 31be
000001b0: 8e5e 65be d0d3 29be 482d 87bd 4844 ee3d
000001c0: e0b7 7ebd 988b 0dbd 8855 71bd 783a 683e
000001d0: f0a0 263d 8098 6f3b 2c59 0e3e 32d1 04be
000001e0: f059 d7bc d26f 6ebe f8d5 a8bd 3450 16be
000001f0: 8062 ecbd 34e5 ffbd 4017 e4bb 42f1 563e
00000200: 4270 2dbe b459 b3bd 30e9 9abc e46a f33d
00000210: 82d3 6cbe 7e89 69be f231 69be d64b 44be
00000220: 1aba 483e 14de b7bd 102a df3d 1844 18be
00000230: 1229 0e3e 200c 86bd c081 8cbd 885a 1abd
00000240: eeb6 633e d827 7b3d 6063 ec3d b285 053e
00000250: 7823 0abd 20ae ebbc 7840 68be d07d 18bd
00000260: aa54 17be 5406 2abe 9eab 5dbe 8037 b33c
00000270: f4d5 6f3e 00d1 69bd f68c 773e 3815 71bd
00000280: 301d 74bd 604d 843c 00e6 073e c045 7bbd
00000290: 6e56 7c3e e017 833d 16cf 3cbe b046 3e3d
000002a0: 000a 78ba ac85 94bd eceb 13be 7cac e3bd
000002b0: 54a3 463e 00e0 79bc 34d7 aebd 6c60 e1bd
000002c0: 88a1 0ebd ba5a 4abe 006b d63c 8466 0d3e
000002d0: 92bd 7e3e b8b7 85bd 96c9 71be ec04 a1bd
000002e0: 1c3d d7bd 1e7f 49be 1883 48bd d83c 39bd
000002f0: f2a9 30be 2e6a 79be e8c1 a33d 284f 35be
00000300: 045f bc3d f8e5 47be d816 7c3e 8200 51be
00000310: e4d4 25be 28c5 cabd 9a3e 32be 4c65 d0bd
00000320: d065 9b3d 1e9d 7abe 2a9f 723e 10f4 c3bd
00000330: 10d1 ba3c 08b2 45be 7656 40be 40b1 15be
00000340: 3a19 603e 209c aa3d 583b e53d d00b eabd
00000350: 12cf 3a3e 5803 593d 0e64 7f3e 4a6f 5c3e
00000360: 6aab 22be 0038 43bd 1ee3 533e 52ce 6c3e
00000370: 100e fabd 6cc8 28be 36e4 1ebe 901c 583e
00000380: a03b 6e3d 6cda eb3d c0d8 c1bb 5482 ebbd
00000390: 4a39 7dbe e0cc a83d ca96 573e 80af 3c3c
000003a0: c678 203e 30af 9dbd fe48 083e 7221 2c3e
000003b0: f44a 193e 6afa 6cbe 988f bd3d 9c50 2f3e
000003c0: 601a 7e3c 60dc 973d d8ef d6bd 2c57 d5bd
000003d0: ac76 56be 00a8 0d3c 2e34 24be b232 0d3e
000003e0: 4060 cf3c 28e0 183e 10a2 953d a8f4 58be
000003f0: ccb0 0a3e b6b4 27be 18ac 883d 80f7 e83b

forward_lstm.bias_ih_l0 f4 [64]
-0.19780368 -0.04616064 -0.08533123 -0.22017223 0.23609939 -0.13494325 -0.020682454 -0.050534874
0.10279152 -0.18326738 0.14022857 0.071840465 0.19008821 -0.13269499 -0.022799492 0.028596282
-0.20297709 -0.07009244 0.14642829 -0.17874786 -0.050620943 0.13923013 -0.1353555 0.21973866
0.07966101 0.0010170937 -0.15942022 0.026378572 -0.17640668 0.0865311 0.023403138 -0.22924718
0.23163942 0.03382224 0.007891774 0.0442515 0.18142432 0.010388851 -0.22324347 -0.18979397
0.17792666 -0.10348302 0.11579725 0.106556565 -0.055300444 -0.105473906 0.18317935 0.21024433
-0.031520516 -0.0596157 -0.107893616 0.106836766 0.05268863 0.24879211 -0.13562503 -0.1258722
-0.21918991 0.17139784 -0.075053155 -0.17044652 0.1608713 0.23134395 -0.13917795 -0.21718264
00000000: 0c8d 4abe f012 3dbd 24c2 aebd d474 61be
00000010: 0ac4 713e 902e 0abe 406e a9bc a8fd 4ebd
00000020: 5c84 d23d 72aa 3bbe 1498 0f3e 1821 933d
00000030: 7ca6 423e 32e1 07be 00c6 babc c042 ea3c
00000040: 3ad9 4fbe a08c 8fbd 4cf1 153e ae09 37be
00000050: e857 4fbd 5892 0e3e a29a 0abe 2c03 613e
00000060: 5025 a33d 0050 853a 0e3f 23be e017 d83c
00000070: f4a3 34be 3837 b13d f0b7 bf3c c6bf 6abe
00000080: e232 6d3e 3089 0a3d 804c 013c 1041 353d
00000090: 4cc7 393e 0036 2a3c f099 64be 5a59 42be
000000a0: 6832 363e e8ee d3bd 1c27 ed3d 543a da3d
000000b0: b882 62bd b402 d8bd 5e93 3b3e 4a4a 573e
000000c0: a81b 01bd 982f 74bd 54f7 dcbd 3ccd da3d
000000d0: 08d0 573d 5cc3 7e3e 4ae1 0abe a4e4 00be
000000e0: 5273 60be ea82 2f3e 78b5 99bd 8889 2ebe
000000f0: 72bb 243e 6ee5 6c3e aa84 0ebe 2065 5ebe

forward_lstm.bias_hh_l0 f4 [64]
0.24677816 0.08390796 0.17117843 -0.2139678 0.24626175 -0.22377166 0.016337007 -0.03183958
-0.14069182 0.09497258 -0.07086077 0.06732535 0.07771453 0.21082708 -0.16978654 -0.02252993
0.103054196 -0.21306428 0.08716479 -0.19553813 -0.06430587 -0.11175567 0.10433206 0.11188835
-0.09124982 0.092449605 -0.2430838 -0.21847731 -0.058740914 -0.115545034 0.15416253 0.06980473
0.014716119 -0.037896305 0.0726375 -0.099705815 -0.23690313 -0.069276184 0.14972907 0.12791234
-0.009083599 -0.07888833 -0.17925209 0.04666087 -0.20160618 -0.15163869 0.043988556 0.08464494
0.20913225 -0.22032624 0.24658382 0.067445666 -0.07087171 -0.24911493 -0.06946334 0.13612765
-0.089265555 -0.22279805 0.23445937 -0.14781404 0.026901633 0.13814315 -0.049547195 0.20940289
00000000: 6ab3 7c3e f0d7 ab3d 6649 2f3e 601a 5bbe
00000010: 0a2c 7c3e 6624 65be 30d5 853c 386a 02bd
00000020: 8411 10be fc80 c23d 741f 91bd e0e1 893d
00000030: cc28 9f3d 0ee3 573e 86dc 2dbe b090 b8bc
00000040: 140e d33d 862d 5abe 7483 b23d 263b 48be
00000050: ccb2 83bd 28e0 e4bd 0cac d53d b825 e53d
00000060: 30e1 babd 3856 bd3d f6ea 78be 84b8 5fbe
00000070: 509a 70bd e0a2 ecbd c8dc 1d3e c8f5 8e3d
00000080: e01b 713c 2839 1bbd f8c2 943d 9032 ccbd
00000090: bc96 72be ace0 8dbd 9452 193e 74fb 023e
000000a0: 60d3 14bc 3490 a1bd dc8d 37be 781f 3f3d
000000b0: da71 4ebe 2c47 1bbe 582d 343d 545a ad3d
000000c0: c426 563e 349d 61be 7880 7c3e f420 8a3d
000000d0: 3025 91bd fc17 7fbe cc42 8ebd 0c65 0b3e
000000e0: dcd0 b6bd 2c25 64be 1e16 703e 905c 17be
000000f0: d060 dc3c 6675 0d3e 00f2 4abd b66d 563e

backward_lstm.weight_ih_l0 f4 [64, 5]
0.076310754 -0.20556721 0.005569488 -0.09023419 0.18132123 -0.19541591 -0.025290638 0.09753892
0.24056593 -0.0976558 0.047674 0.10321221 -0.11074442 0.040928006 -0.1192444 -0.1441428
-0.2379652 -0.15959927 -0.19014046 -0.24367768 0.1742039 0.04009539 -0.054249138 0.15907714
0.12560543 0.091537595 -0.19500759 -0.08671039 0.022399247 -0.0148926675 0.024394482 0.15197429
0.058536053 -0.14565486 0.026475161 0.11135268 -0.021312296 -0.07325706 -0.13639882 0.0011109114
0.19933513 -0.06277487 0.006020218 -0.07850605 -0.1965124 0.09859261 0.13039002 -0.09027484
-0.1874052 0.010280341 -0.1304721 0.11768755 -0.018488586 -0.010819882 -0.16263399 0.09657791
-0.11016294 0.0049293935 -0.0963929 0.1676651 0.1641359 -0.15746713 -0.0024619997 0.021272182
0.108193934 0.2355004 0.15526956 -0.004414946 -0.14862981 -0.13283443 -0.06885198 0.11399025
-0.18492919 0.12568805 -0.24334419 -0.18877855 0.04739991 0.16761631 0.20448998 0.0061734915
0.15266764 0.10846341 0.07991499 0.10754225 0.11733329 0.057914525 0.04570943 -0.1390517
-0.08794254 -0.24497578 0.08911273 0.05313027 0.19758978 0.104411006 -0.13475236 0.22388735
0.14339492 0.035016567 -0.19093028 0.018088996 -0.24980074 -0.00030466914 -0.14397904 -0.18556148
0.069021255 -0.09547931 -0.034035593 -0.2403233 0.13970867 0.09634125 0.22647506 0.1935825
0.063387066 0.060748965 0.24536836 0.0049580634 -0.0082798 0.0034358203 -0.067007035 -0.1161685
-0.070685774 -0.15718079 0.23371068 0.07213366 -0.14678523 -0.23921052 0.097450286 0.15745658
0.23405194 -0.079945624 0.13267475 -0.023790449 -0.10339415 -0.12733832 -0.15967134 -0.17697808
-0.0730975 -0.11907539 0.029698491 0.18470109 0.01840195 -0.016703278 -0.20216283 -0.14715058
-0.092862695 0.12620988 0.11772922 -0.0020389855 -0.1760045 -0.19940704 0.21709427 -0.097952425
0.09473047 0.16436037 -0.030892253 -0.009245217 0.14012009 -0.1753692 0.084843814 -0.24376327
-0.19116583 -0.009157687 0.2486797 0.11143091 -0.09173173 0.13511145 -0.029984832 0.23203275
0.0895015 -0.21373251 -0.22695422 -0.0831092 0.029444456 -0.18356985 -0.17393711 0.13937366
-0.007472098 -0.24077392 -0.041685194 -0.14145261 0.17858475 -0.06853515 0.19081175 0.20180118
0.12250885 0.1441446 -0.048427194 -0.034900278 0.14896959 -0.11028534 0.2146607 -0.23867372
0.22336048 0.023368597 0.08872649 0.18110815 0.15801197 -0.18831584 -0.22640121 0.04435888
0.15319327 0.18620545 -0.10874218 0.031142354 -0.07040334 -0.19378182 -0.12561727 0.103017
-0.21589604 -0.2448329 0.09113693 -0.053379655 -0.12953669 0.024900645 0.018417358 0.22682646
0.11305335 0.022162467 0.044414967 -0.016647398 0.17876026 -0.058838308 -0.0086018145 -0.23444402
-0.085207015 0.14710963 0.015049487 0.10716289 -0.17166981 -0.13935801 -0.024614364 -0.11456913
0.2461921 0.14879769 -0.15617052 -0.029882729 0.07443887 -0.10962397 -0.20082265 -0.011416942
0.0099597275 0.14403808 -0.09182507 -0.2248266 -0.13096839 -0.0044233203 0.13081568 -0.099458635
-0.021464616 -0.1399526 -0.0725196 0.22687495 -0.14751762 -0.12307912 -0.08970985 0.032031834
00000000: d048 9c3d 3680 52be 4080 b63b b4cc b8bd
00000010: 46ac 393e 1c1b 48be 502e cfbc 7cc2 c73d
00000020: ea56 763e c4ff c7bd d045 433d ec60 d33d
00000030: f8cd e2bd 20a4 273d 6836 f4bd 2c9a 13be
00000040: 26ad 73be fe6d 23be 2eb4 42be a486 79be
00000050: 8262 323e 103b 243d 5834 5ebd 1ee5 223e
00000060: b69e 003e 1078 bb3d 12b0 47be 3895 b1bd
00000070: a07e b73c 6000 74bc f0d6 c73c 269f 1b3e
00000080: 80c3 6f3d 8c26 15be 70e2 d83c e00c e43d
00000090: 2097 aebc cc07 96bd 22ac 0bbe 009c 913a
000000a0: 821e 4c3e 1c90 80bd 4045 c53b c8c7 a0bd
000000b0: 8c3a 49be ecea c93d f684 053e 04e2 b8bd
000000c0: 26e7 3fbe e06e 283c 7a9a 05be 2c06 f13d
000000d0: 6075 97bc e045 31bc 8689 26be a4ca c53d
000000e0: 1c9d e1bd c086 a13b a469 c5bd 66b0 2b3e
000000f0: 3e13 283e 103f 21be 8059 21bb 0043 ae3c
00000100: c894 dd3d 0427 713e fcfe 1e3e 40ab 90bb
00000110: 6a32 18be c005 08be 4402 8dbd b873 e93d
00000120: 145e 3dbe 5eb4 003e 382f 79be 2a4f 41be
00000130: 6826 423d 9ca3 2b3e d265 513e 004b ca3b
00000140: e854 1c3e 1022 de3d 78aa a33d 1c3f dc3d
00000150: 704c f03d c837 6d3d d039 3b3d 9263 0ebe
00000160: 381b b4bd eeda 7abe bc80 b63d 209f 593d
00000170: fa54 4a3e 70d5 d53d 86fc 09be ba42 653e
00000180: 1ed6 123e 886d 0f3d 3a83 43be 602f 943c
00000190: c4cb 7fbe 00bc 9fb9 3e6f 13be d403 3ebe
000001a0: 045b 8d3d a88a c3bd e868 0bbd 5017 76be
000001b0: ca0f 0f3e 904e c53d 14e9 673e 7e3a 463e
000001c0: 14d1 813d e8d3 783d d841 7b3e 4077 a23b
000001d0: 00a8 07bc 802b 613b fc3a 89bd c0e9 edbd
000001e0: b4c3 90bd 00f4 20be da51 6f3e d0ba 933d
000001f0: de4e 16be 9af3 74be 0494 c73d 4c3c 213e
00000200: 50ab 6f3e 88ba a3bd e4db 073e 30e4 c2bc
00000210: 50c0 d3bd fa64 02be e280 23be be39 35be
00000220: 24b4 95bd ccdd f3bd 404a f33c 4822 3d3e
00000230: b0bf 963c 50d5 88bc c603 4fbe a4ae 16be
00000240: cc2e bebd 2a3d 013e 041c f13d 80a0 05bb
00000250: 863a 34be 5c31 4cbe f64d 5e3e 489b c8bd
00000260: 0c02 c23d 164e 283e c011 fdbc 4079 17bc
00000270: a47b 0f3e fc93 33be 98c2 ad3d 149d 79be
00000280: fac0 43be 200a 16bc e4a5 7e3e e435 e43d
00000290: d8dd bbbd a85a 0a3e c0a2 f5bc fe99 6d3e
000002a0: 904c b73d b2dc 5abe b066 68be 2835 aabd
000002b0: 8035 f13c bcf9 3bbe 921c 32be f8b7 0e3e
000002c0: 80d8 f4bb 708d 76be 18be 2abd f4d8 10be
000002d0: ecde 363e 285c 8cbd 2864 433e f8a4 4e3e
000002e0: ece5 fa3d a49a 133e 985b 46bd 98f3 0ebd
000002f0: 7c8b 183e 48dd e1bd 04d0 5b3e e266 74be
00000300: 9cb8 643e 806f bf3c 3cb6 b53d 6a74 393e
00000310: e4cd 213e ded5 40be b8d5 67be a8b1 353d
00000320: b2de 1c3e a4ac 3e3e 38b4 debd 401e ff3c
00000330: a02f 90bd be6e 46be d0a1 00be 94fa d23d
00000340: da13 5dbe 7ab5 7abe 00a6 ba3d a0a4 5abd
00000350: 44a5 04be 70fc cb3c 00e0 963c 3245 683e
00000360: 8488 e73d 108e b53c 78ec 353d 2060 88bc
00000370: ee0c 373e 7000 71bd a0ee 0cbc 1812 70be
00000380: 0481 aebd e8a3 163e 2092 763c 3878 db3d
00000390: 36ca 2fbe deb3 0ebe 10a4 c9bc 38a3 eabd
000003a0: c819 7c3e 6c5e 183e 2aeb 1fbe a0cc f4bc
000003b0: 6873 983d 8882 e0bd 74a4 4dbe 200e 3bbc
000003c0: 202e 233c b87e 133e c80e bcbd f238 66be
000003d0: 941c 06be 80f1 90bb 8cf4 053e f8b0 cbbd
000003e0: 90d6 afbc bc4f 0fbe 2885 94bd e851 683e
000003f0: dc0e 17be e810 fcbd ccb9 b7bd d033 033d

backward_lstm.weight_hh_l0 f4 [64, 16]
-0.11019242 0.114213735 0.18623558 -0.018279701 0.19530162 0.05246091 0.07608044 -0.020697206
0.107094795 0.18985838 0.115529954 0.24230668 0.22365934 0.1431511 0.23823488 -0.021178633
0.12469405 0.059021235 -0.21568653 0.055110276 -0.2490476 0.15404269 -0.043070465 -0.023410827
-0.04481578 -0.006107092 -0.10023448 0.01495716 -0.24421471 0.06432676 -0.22824419 0.23881438
-0.16175249 0.0775806 0.005966842 0.08854103 -0.16900626 0.20337343 -0.11897865 -0.06108424
-0.22327131 -0.21824247 0.16814083 -0.05564779 0.10163602 0.10968843 0.1568963 -0.17804843
-0.146617 -0.13709828 -0.045019656 -0.08136973 0.16697708 -0.097605646 0.10730991 0.16905391
-0.055393696 0.121790856 0.006137252 0.1712178 -0.12707078 -0.1003305 -0.19734815 0.091293424
-0.12697443 0.025994182 0.059765488 -0.025564522 -0.09963301 0.1125834 0.016872227 -0.074516416
-0.11497575 -0.22088102 0.2424556 -0.2155774 -0.03854242 0.051560193 -0.20322168 0.026216477
-0.18080607 0.18209878 0.19489428 0.16781804 -0.20239756 0.044044524 -0.123951286 -0.21607137
0.0030733645 0.10164386 -0.008497298 0.08081451 0.054935455 -0.18882775 0.18206206 -0.23638141
0.09952602 0.13510141 -0.13784882 0.039723337 -0.07136944 0.026254594 0.15953815 0.19772801
-0.018707037 -0.2260158 -0.17519063 0.1896385 -0.21318585 0.07877922 -0.11789483 -0.0667831
-0.034048527 -0.016353667 -0.17212823 -0.15420881 0.13591808 0.24129754 -0.2451891 -0.17957518
-0.17240539 -0.018348932 0.22646502 0.22922543 0.14745009 0.004065782 0.15408388 -0.06051469
-0.15877295 -0.23427051 -0.056881815 -0.24340537 0.16841945 0.16272563 -0.20087913 -0.022192448
0.21012053 0.16765612 -0.19258681 -0.025264531 0.046793133 -0.05314073 0.03206891 -0.0070956945
0.16891155 0.20711496 -0.12850982 0.18698347 0.18752736 -0.07422122 0.1485846 -0.00029700994
-0.14857316 -0.14652818 -0.10780838 0.064822614 -0.11907315 0.15729025 -0.061054647 -0.0032236278
0.026801884 0.10773653 0.07654855 -0.10160494 -0.009471744 0.2016274 0.027623087 0.2329523
0.027070135 0.23541898 -0.03929764 0.010866582 -0.12858823 0.030517668 0.24535862 -0.22045732
0.08713788 -0.01539433 0.20916739 0.03895387 -0.11130941 -0.14577106 0.02479279 -0.08559531
-0.18290061 0.15839002 -0.19026113 -0.07972449 -0.13357005 -0.20105961 -0.2472634 -0.17537382
0.0062280297 0.034564763 0.18853301 0.03629172 -0.09104204 -0.15620917 -0.068201035 0.0063168705
-0.16587806 -0.2194857 -0.09530944 0.07403916 0.033474863 -0.08235031 -0.19694012 0.16251159
-0.08305654 -0.13679987 0.09109682 0.042053074 0.24285358 0.13408148 0.2301149 -0.1947951
0.18467638 -0.068936616 0.23376408 0.15930018 0.16818133 0.2495422 0.11907464 -0.10094708
0.23880559 0.015690684 -0.13826784 0.19089049 -0.023609072 0.13921383 -0.087767065 0.15897241
-0.08058876 -0.17757326 -0.19958866 0.1970106 0.202643 0.039275378 0.22497481 -0.12062091
-0.09584257 0.14710435 -0.022446156 0.0805814 0.18018979 -0.112983316 0.16439152 -0.11027917
0.24475488 -0.037800044 0.059898496 -0.0603891 0.0968765 -0.17042369 0.09773561 0.1889841
00000000: 90ac e1bd e4e8 e93d 8ab4 3e3e 50bf 95bc
00000010: 26fd 473e 40e1 563d 10d0 9b3d 308d a9bc
00000020: 8454 db3d 3c6a 423e f89a ec3d 3e1f 783e
00000030: f406 653e 3496 123e d8f3 733e d07e adbc
00000040: 985f ff3d 40c0 713d eedc 5cbe 50bb 613d
00000050: 5606 7fbe 5ebd 1d3e a86a 30bd 10c8 bfbc
00000060: c090 37bd 001e c8bb bc47 cdbd e00e 753c
00000070: 6c13 7abe c0bd 833d d8b8 69be c28b 743e
00000080: 72a2 25be 94e2 9e3d 8085 c33b 0055 b53d
00000090: fa0f 2dbe 2041 503e 14ab f3bd 7833 7abd
000000a0: 3ca1 64be f47a 5fbe 1c2d 2c3e f0ee 63bd
000000b0: 8c26 d03d 54a4 e03d 6ca9 203e 5452 36be
000000c0: c422 16be 7e63 0cbe 8866 38bd 2ca5 a6bd
000000d0: 0afc 2a3e 78e5 c7bd 4cc5 db3d 781c 2d3e
000000e0: 80e4 62bd 7c6d f93d 001b c93b b853 2f3e
000000f0: d81e 02be 147a cdbd a215 4abe 0cf8 ba3d
00000100: 9605 02be c0f1 d43c a8cc 743d b06c d1bc
00000110: 640c ccbd 2092 e63d a037 8a3c 109c 98bd
00000120: 6878 ebbd a22e 62be 4846 783e 52c0 5cbe
00000130: a8de 1dbd c830 533d 5819 50be f0c3 d63c
00000140: 3a25 39be 1a78 3a3e 5e92 473e 7ed8 2b3e
00000150: 4e41 4fbe 0868 343d 2cda fdbd d041 5dbe
00000160: 806a 493b a82a d03d 4038 0bbc 1482 a53d
00000170: 0004 613d 105c 41be 7a6e 3a3e f80d 72be
00000180: 4cd4 cb3d 0658 0a3e 3e28 0dbe f0b4 223d
00000190: 242a 92bd e013 d73c f85d 233e 3679 4a3e
000001a0: 803f 99bc b070 67be 2c65 33be 9830 423e
000001b0: 644d 5abe 0057 a13d d872 f1bd 94c5 88bd
000001c0: 7876 0bbd 20f8 85bc 6242 30be eae8 1dbe
000001d0: 1c2e 0b3e b416 773e da12 7bbe 8ee2 37be
000001e0: 0a8b 30be 8050 96bc 72e6 673e 12ba 6a3e
000001f0: 28fd 163e 403a 853b 2ac8 1d3e 40de 77bd
00000200: 6095 22be 9ce4 6fbe e8fc 68bd 423f 79be
00000210: 2676 2c3e 8ca1 263e 42b3 4dbe f0cc b5bc
00000220: d629 573e 0cae 2b3e 7a35 45be 90f7 cebc
00000230: 28aa 3f3d 18aa 59bd b05a 033d 0083 e8bb
00000240: 26f7 2c3e f215 543e 1498 03be 9878 3f3e
00000250: 2c07 403e 4c01 98bd 9026 183e 00b8 9bb9
00000260: 9023 18be 7c0b 16be a4ca dcbd b8c1 843d
00000270: a0dc f3bd b210 213e 7014 7abd 8043 53bb
00000280: a08f db3c f8a4 dc3d 7cc5 9c3d 4016 d0bd
00000290: 602f 1bbc 6a77 4e3e d049 e23c 0c8b 6e3e
000002a0: 30c2 dd3c ac11 713e 90f6 20bd c009 323c
000002b0: a2ac 03be 3000 fa3c 4a3f 7b3e 90bf 61be
000002c0: 5875 b23d 8038 7cbc fa2f 563e 188e 1f3d
000002d0: 30f6 e3bd 0245 15be 401a cb3c 984c afbd
000002e0: 4c4a 3bbe fe30 223e d0d3 42be 9846 a3bd
000002f0: 96c6 08be 92e2 4dbe 9e32 7dbe 3295 33be
00000300: 8014 cc3b c893 0d3d cc0e 413e a0a6 143d
00000310: 4074 babd 4cf5 1fbe fcac 8bbd c0fd ce3b
00000320: f0db 29be dcc0 60be 9831 c3bd d8a1 973d
00000330: f01c 093d 48a7 a8bd acaa 49be 7069 263e
00000340: 8c19 aabd 4415 0cbe f890 ba3d d83f 2c3d
00000350: 9cae 783e a84c 093e 3ea3 6b3e 5e78 47be
00000360: ce1b 3d3e a42e 8dbd da5f 6f3e 961f 233e
00000370: ba37 2c3e fe87 7f3e 68dd f33d 58bd cebd
00000380: 7489 743e c089 803c 1696 0dbe cc78 433e
00000390: d067 c1bc 128e 0e3e 38bf b3bd aac9 223e
000003a0: b80b a5bd c4d5 35be f860 4cbe 26bd 493e
000003b0: a681 4f3e 38df 203d cc5f 663e 1808 f7bd
000003c0: 1c49 c4bd 86a2 163e 00e1 b7bc dc07 a53d
000003d0: ac83 383e cc63 e7bd 4056 283e 0cda e1bd
000003e0: 06a1 7a3e 38d4 1abd 2058 753d 905a 77bd
000003f0: 3067 c63d 8c83 2ebe 9c29 c83d 0c85 413e

backward_lstm.bias_ih_l0 f4 [64]
-0.24147224 0.18034643 0.10888454 -0.19372034 0.05320844 -0.23730445 -0.16172236 0.081395924
0.11503574 -0.053527713 0.04675874 -0.0736576 -0.009923518 0.13113403 -0.07095355 0.19862035
0.12809384 0.06956595 -0.028475553 -0.018444628 0.19409269 0.23670444 -0.062003464 -0.19086969
-0.037595034 -0.0016681254 0.037850797 0.07778156 0.10040319 -0.053141832 -0.24540079 0.08692002
-0.22930816 0.23975155 0.056888342 0.08543107 0.23483756 -0.14432973 -0.09915811 -0.08027595
-0.23078263 -0.20024204 -0.07945365 -0.06096387 -0.12139797 -0.16535065 -0.23700026 0.15433472
-0.22349367 -0.16410127 -0.11564034 0.10376224 -0.026855022 0.23463938 0.24357468 0.17697093
0.048351675 0.006188065 0.17505279 -0.24549136 -0.10716167 -0.099613756 -0.07515654 0.10235286
00000000: 8044 77be bcac 383e dcfe de3d a05e 46be
00000010: 18f1 593d f0ff 72be 8c9a 25be e8b2 a63d
00000020: dc97 eb3d e03f 5bbd 1886 3f3d ccd9 96bd
00000030: 4096 22bc 0048 063e 1850 91bd 2263 4b3e
00000040: 082b 033e 9878 8e3d 9045 e9bc 3019 97bc
00000050: 3cc0 463e a662 723e 58f7 7dbd 5873 43be
00000060: 40fd 19bd 00a5 daba 7009 1b3d f04b 9f3d
00000070: 30a0 cd3d 40ab 59bd 584a 7bbe 2003 b23d
00000080: c2cf 6abe 6e81 753e c003 693d 7cf6 ae3d
00000090: 4279 703e 2ccb 13be 6813 cbbd b867 a4bd
000000a0: 4852 6cbe 400c 4dbe 98b8 a2bd 40b5 79bd
000000b0: 809f f8bd ae51 29be 32b0 72be ec09 1e3e
000000c0: 86db 64be 2a0a 28be d8d4 ecbd 4c81 d43d
000000d0: 10ff dbbc 4e45 703e a46b 793e de37 353e
000000e0: 680c 463d 40c5 ca3b 0a41 333e 1662 7bbe
000000f0: 9477 dbbd 4c02 ccbd aceb 99bd 609e d13d

backward_lstm.bias_hh_l0 f4 [64]
0.011390626 0.019913942 0.20969933 0.212919 -0.17001969 -0.16463229 0.0027223825 -0.19904289
-0.17412135 0.18824583 -0.20897245 0.14697647 0.1207422 0.15675199 -0.20807678 0.0045683086
-0.054019928 0.10374096 -0.005491823 -0.066917896 -0.20393944 0.15473476 -0.17654145 0.10290754
-0.13235286 0.15862614 0.07142386 0.04828322 -0.18791884 -0.07952869 -0.044908524 -0.14914036
0.16554764 0.21044824 0.15971911 0.018775374 0.24860004 -0.1088686 -0.046783358 0.17435071
-0.2421647 0.20433584 -0.14356804 -0.01734081 0.08035171 0.035813183 -0.16013631 -0.111944735
-0.09988904 -0.23653618 0.13487086 0.22721449 0.22660753 0.10714549 0.19244301 -0.18687284
-0.23686972 0.17161763 0.015165746 0.109837055 -0.235499 -0.15866059 -0.20555592 -0.1106416
00000000: c09f 3a3c 9022 a33c 6cbb 563e 7007 5a3e
00000010: a419 2ebe 5e95 28be 006a 323b e6d1 4bbe
00000020: de4c 32be 84c3 403e e0fc 55be 0081 163e
00000030: b047 f73d 9883 203e 1412 55be c0b1 953b
00000040: 0044 5dbd 2476 d43d c0f4 b3bb 400c 89bd
00000050: 80d5 50be ca72 1e3e 48c7 34be 30c1 d23d
00000060: 8287 07be e46e 223e ac46 923d a0c4 453d
00000070: cc6d 40be f0df a2bd 00f2 37bd 40b8 18be
00000080: 5285 293e be7f 573e 688d 233e d0ce 993c
00000090: 0291 7e3e 80f6 debd e89f 3fbd fe88 323e
000000a0: 06fa 77be 6a3d 513e 8003 13be 500e 8ebc
000000b0: 708f a43d d8b0 123d c6fa 23be 4843 e5bd
000000c0: a092 ccbd 8a36 72be 961b 0a3e eaaa 683e
000000d0: ce0b 683e 186f db3d c80f 453e 985b 3fbe
000000e0: fa8d 72be 88bc 2f3e c079 783c 40f2 e03d
000000f0: a626 71be ec77 22be 407d 52be 1098 e2bd

fc.weight f4 [1, 32]
0.38604167 0.3093196 -0.013251796 0.03984025 0.1338119 -0.5748468 0.07539581 0.008124128
-0.26564303 0.113309965 0.04553248 -0.48153755 0.07935639 -0.062489554 -0.12903462 0.14301993
0.1525655 -0.08611977 -0.14439778 0.10345255 0.3614895 0.04490216 0.46689746 0.08518456
0.04549244 -0.09138136 0.06255846 0.14368363 0.04208222 -0.15239872 -0.047189996 -0.16062279
00000000: 41a7 c53e 235f 9e3e 101e 59bc 882f 233d
00000010: fd05 093e 2929 13bf 1e69 9a3d 101b 053c
00000020: 5d02 88be 0e0f e83d 4480 3a3d 178c f6be
00000030: 9a85 a23d 0cf5 7fbd a721 04be d173 123e
00000040: 213a 1c3e 905f b0bd 03dd 13be eede d33d
00000050: 2715 b93e 54eb 373d 2f0d ef3e 3e75 ae3d
00000060: 4856 3a3d 2726 bbbd a61e 803d cd21 133e
00000070: 685e 2c3d 690e 1cbe 4c4a 41bd 4d7a 24be
