project/models/BiLSTM/Tesla.pth (torch, 548349 bytes, 17 tensors)

lstm.weight_ih_l0 f4 [256, 5]
0	0x3de56236	0.11200373
1	0xbdd767d2	-0.10517849
2	0xbd8b5dfe	-0.06805037
3	0xbb5936c0	-0.0033144206
4	0xbdbe7cbe	-0.093011364
5	0x3de464fa	0.11152072
6	0xbdb74dc0	-0.089503765
7	0x3d13cd74	0.036084607
8	0xbdbef946	-0.09324889
9	0xbbad04c0	-0.0052801073
10	0xbdb7bbca	-0.08971365
11	0x3dbd0170	0.0922879
12	0x3d27867c	0.04089974
13	0xbcdea990	-0.027180463
14	0x3dd3f2dc	0.10349056
15	0x3d02e7f8	0.031959504
16	0xbdc5eeac	-0.09664664
17	0x3de56208	0.112003386
18	0x3d0ac8a0	0.033882737
19	0x3d9e72ae	0.07736717
20	0xbd51ce08	-0.051221877
21	0x3d5f66d4	0.054541424
22	0x3d721e18	0.05911073
23	0x3bd102c0	0.0063785017
24	0x3b987b80	0.004653394
25	0x3dc24d94	0.09487453
26	0x3d1ed1c8	0.03877428
27	0x3d84d7ea	0.06486495
28	0x3dec4ab4	0.11537686
29	0xbccb3608	-0.024806038
30	0xbdbcf8c8	-0.09227139
31	0xbc4715b0	-0.012151167
32	0xbdca0a6a	-0.098652676
33	0xbdba4a28	-0.090961754
34	0x3cb80060	0.022461116
35	0x3dd85518	0.10563105
36	0xbce8e5a8	-0.028429821
37	0xbda36be8	-0.07979566
38	0x3d8eecf4	0.06978789
39	0xbc766b50	-0.015040234
40	0x3d20a1b4	0.039216712
41	0x3d953700	0.07285881
42	0x3bcdf0e0	0.006284818
43	0xbd22646c	-0.03964655
44	0xbd34a1d4	-0.044099644
45	0x3d02d2a4	0.031939164
46	0xbda5d3d6	-0.08097045
47	0x3db41a6c	0.08794102
48	0x3c98dcf0	0.018660039
49	0x3df8a3d2	0.12140621
50	0xbde3fc14	-0.111320645
51	0xbd3177d8	-0.043327183
52	0xbdd108ce	-0.102067575
53	0xbccb8e38	-0.024848089
54	0xbd642898	-0.055702776
55	0xbd22c524	-0.03973879
56	0x3ba21ba0	0.004947141
57	0xbd836688	-0.06416041
58	0x3cf9e9e8	0.030507043
59	0x3abdba80	0.0014475137
60	0xbd0af5e4	-0.033925906
61	0xbc93d310	-0.018044978
62	0xbcfa0aa0	-0.030522645
63	0x3d16b304	0.036791816
64	0xbd8621d4	-0.06549421
65	0x3ddd6f4c	0.10812244
66	0x3dfbca5c	0.12294456
67	0xbd8b0ce6	-0.067895696
68	0xbda7a256	-0.0818526
69	0x3dc8a314	0.0979673
70	0xbdaf8842	-0.08570911
71	0xbdde710c	-0.10861406
72	0x3d7d13d8	0.061786503
73	0xbc7f2960	-0.015573829
74	0x3d9e17e2	0.07719399
75	0x3dd076fe	0.10178946
76	0x3de66cf4	0.1125125
77	0x3d4e6244	0.050386682
78	0x3c5f0ca0	0.01361385
79	0xbc4d1210	-0.0125165135
80	0x3d7e0d64	0.06202449
81	0x3dd5872e	0.10426174
82	0x3da62f80	0.08114529
83	0xbc8ea1a8	-0.017411068
84	0x3d87cb82	0.06630613
85	0xbdb736a4	-0.08945969
86	0xbc1c9530	-0.009557053
87	0x3d89baf8	0.067251146
88	0xbbc32280	-0.0059550405
89	0x3d8a1c60	0.06743693
90	0x3dfe3c52	0.12413849
91	0x3d91d40c	0.07120523
92	0x3dffffde	0.12499975
93	0x3dc3b92c	0.09556803
94	0x3dd4f1ba	0.10397668
95	0x3dcda3e8	0.10041028
96	0xbdc6950a	-0.09696396
97	0xbd5cd204	-0.053911224
98	0xbd962656	-0.07331531
99	0x3b197440	0.0023415238
100	0x3d682dd4	0.05668433
101	0x3decf626	0.115703866
102	0xbcb2c1b8	-0.021820888
103	0x3c2d6ec0	0.010585487
104	0xbd0324c8	-0.0320175
105	0x3d89d2f8	0.06729692
106	0xbdf410d8	-0.11917275
107	0x3d5ba800	0.053627014
108	0x3b016540	0.0019744188
109	0x3d9eadbe	0.077479824
110	0xbdce2fa0	-0.100676775
111	0xbd8703c8	-0.06592518
112	0xbd904752	-0.07044853
113	0xbcd68590	-0.026186734
114	0x3de522f6	0.11188309
115	0x3ddc82f6	0.10767166
116	0xbb829f40	-0.0039862692
117	0xbd71da88	-0.0590463
118	0x3dd9d02c	0.10635409
119	0xbd9b0dd8	-0.07571
120	0xbdac7fa0	-0.0842278
121	0xbca2dc08	-0.01988031
122	0xbdd0442e	-0.10169254
123	0x3dbb2e1e	0.091396555
124	0xbcc808a8	-0.02441819
125	0x3d97c1e0	0.074100256
126	0xbdae4ade	-0.085103735
127	0xbd273664	-0.040823355
128	0xbddb4f32	-0.10708465
129	0x3d943744	0.072371036
130	0x3d8c8d1c	0.06862852
131	0xbdca8866	-0.09889297
132	0x3dca5ed2	0.09881367
133	0x3dfca726	0.123365685
134	0xbde2fbee	-0.11083208
135	0x3d29e65c	0.041479453
136	0xbde08a8a	-0.10963924
137	0xbd296194	-0.041352823
138	0x3cd132d0	0.025536925
139	0xbdca6b0a	-0.09883697
140	0xbd7f9724	-0.0624
141	0xbd9061b0	-0.070498824
142	0x3d7746fc	0.06037043
143	0x3d34bd2c	0.04412572
144	0x3d363be8	0.044490725
145	0xbdc1ea16	-0.094684765
146	0xbdbc9e28	-0.092098534
147	0xbdb6f7c0	-0.08933973
148	0xbd4951b0	-0.04915017
149	0x3d951336	0.07279055
150	0x3de0f398	0.10983962
151	0xbbf9c8a0	-0.0076227933
152	0x3c86c390	0.016450673
153	0x3ad62080	0.001633659
154	0xbd14b358	-0.036303848
155	0xbd9bc45c	-0.07605812
156	0x3df2175c	0.11820862
157	0xbdde56fc	-0.10856435
158	0xbdd106ae	-0.10206352
159	0x3d592d7c	0.053021893
160	0xbcde8218	-0.027161643
161	0xbd8bbcfa	-0.06823154
162	0x3d939cac	0.07207617
163	0x3dfae640	0.12250948
164	0xbde17dce	-0.110103235
165	0xbc47d380	-0.012196422
166	0x3d6e6784	0.05820419
167	0x3d9d5a24	0.076832086
168	0x3d3cce4c	0.046095178
169	0x3c6fcbf0	0.014636025
170	0xbd551b40	-0.05202794
171	0x3da6f162	0.08151509
172	0x3c4f03f0	0.012635216
173	0xbde3906c	-0.11111531
174	0xbdfe59e2	-0.124194875
175	0xbd8543a8	-0.06507045
176	0x3cb12128	0.021622255
177	0xbc81ee18	-0.015860602
178	0xbd9cb11e	-0.0765097
179	0xbddf6818	-0.10908526
180	0x3c01d120	0.007923394
181	0xbd3b70fc	-0.045762047
182	0xbd3d3bf0	-0.04619974
183	0x3d8a5ae8	0.0675562
184	0x3c7339b0	0.014845297
185	0x3bda2040	0.0066566765
186	0x3d79b7fc	0.060966477
187	0xbd3ba224	-0.045808926
188	0x3c32f520	0.0109227
189	0x3d98306a	0.07431109
190	0xbdc9bf5a	-0.098509505
191	0xbddae03a	-0.10687299
192	0x3d51d0b8	0.05122444
193	0x3d2fd044	0.042923227
194	0x3d665898	0.056236833
195	0x3daa7df8	0.08324808
196	0x3c0922d0	0.008370116
197	0x3d623b44	0.0552323
198	0xbc7f1850	-0.015569761
199	0x3d63f094	0.055649355
200	0x3dacffe8	0.08447248
201	0x3d3b60e4	0.0457467
202	0xbd9a1f7c	-0.075255364
203	0x3dc92f72	0.098235026
204	0xbd9e9874	-0.07743922
205	0x3d7172d0	0.058947384
206	0x3da88df8	0.082302034
207	0xbd2696a8	-0.04067102
208	0xbd54d758	-0.05196318
209	0x3d60af48	0.05485466
210	0x3d4b32ac	0.04960887
211	0x3dc6b938	0.097032964
212	0x3d11dd4c	0.035611436
213	0x3dd49306	0.10379605
214	0x3d7792bc	0.06044267
215	0xbcf6f210	-0.030144721
216	0x3d8de586	0.06928544
217	0x3d5611cc	0.052263066
218	0x3d9c2b82	0.07625486
219	0xbdbdaa72	-0.092610255
220	0xbd88befe	-0.06677054
221	0xbddd8d98	-0.108180225
222	0xbd936de6	-0.07198696
223	0x3d15a0e4	0.03653039
224	0xbd909192	-0.07059015
225	0x3cddb868	0.02706547
226	0x3d34bb2c	0.044123814
227	0x3bbe23a0	0.0058025867
228	0xbce64dd0	-0.028113276
229	0xbce89800	-0.028392792
230	0x3de5eb32	0.112265006
231	0xbd323980	-0.043511868
232	0x3d83d94e	0.06437932
233	0xbd8b55c8	-0.06803471
234	0xbd05d164	-0.032670394
235	0xbcc2fd40	-0.0238024
236	0xbd83ea08	-0.06441122
237	0xbd8af2d6	-0.067845985
238	0x3bcf1bc0	0.0063204467
239	0x3cef94a8	0.02924569
240	0xbd2011e4	-0.03907956
241	0xbdba5cbc	-0.09099719
242	0x3da32c4a	0.07967432
243	0xbdf2cf0a	-0.11855896
244	0x3bcb6700	0.006207347
245	0x3d0d3af0	0.034480035
246	0xbc88b4f8	-0.016687855
247	0xba81ea80	-0.0009911805
248	0xbd29600c	-0.041351363
249	0xbd816912	-0.06318869
250	0xbdab4f9a	-0.08364792
251	0x3aea3e00	0.0017871261
252	0xbce7ccb0	-0.028295845
253	0xbc3e0a50	-0.011599138
254	0x3de74e7e	0.11294268
255	0x3db0f18e	0.08639823

lstm.weight_hh_l0 f4 [256, 64]
0	0x3de15afc	0.11003682
1	0xbce05ed8	-0.027388975
2	0xbde47992	-0.11156
3	0xbdef6c08	-0.11690527
4	0x3d858dac	0.065211624
5	0xbdb0c606	-0.0863152
6	0xbc8a8ad0	-0.016911894
7	0xbdacac0a	-0.08431251
8	0x3dd3c5f6	0.103404924
9	0x3deb70d0	0.11496127
10	0xbb52fb40	-0.0032193214
11	0x3c3528c0	0.011057079
12	0x3d00dd5c	0.031461105
13	0xbdadc446	-0.08484702
14	0x3cb6b478	0.022302851
15	0xbda94cb4	-0.08266583
16	0xbdce6da2	-0.100795045
17	0xbdc2e374	-0.095160395
18	0x3cd264e0	0.025682867
19	0xbd8d2f04	-0.06893733
20	0x3d32690c	0.04355721
21	0xbd4b437c	-0.049624905
22	0x3d92704e	0.07150327
23	0x3d24e070	0.040253103
24	0xbd679158	-0.056535095
25	0xbd4a142c	-0.049335644
26	0x3d2b3444	0.04179789
27	0xbde12a6c	-0.109944195
28	0xbd29c364	-0.041446105
29	0xbbdb7d40	-0.0066982806
30	0x3db75494	0.08951679
31	0xbd183bc4	-0.037166372
32	0xbcd2b130	-0.025719255
33	0xbd3facd0	-0.046795666
34	0x3dd34a8c	0.10316953
35	0x3d05706c	0.032577917
36	0x3dbb92c8	0.09158856
37	0x3d8a67e4	0.06758097
38	0xbcf698c0	-0.030102134
39	0x3da469fa	0.08028026
40	0x3d80f6b2	0.062970534
41	0x3dfd3cb0	0.12365091
42	0x3d8db4e8	0.06919271
43	0xbde148c8	-0.1100021
44	0x3dec0916	0.115251705
45	0xbd9dd18c	-0.077059835
46	0xbc147b70	-0.009062633
47	0xbdcc9afe	-0.099905
48	0x3de71a9a	0.11284371
49	0xbdeb8a1a	-0.1150095
50	0xbdce552e	-0.100748405
51	0xbd405598	-0.04695663
52	0xbdef8708	-0.11695677
53	0xbce70d80	-0.02820468
54	0x3daa4b08	0.08315092
55	0xbdf69aa8	-0.12041217
56	0x3d48b83c	0.049003825
57	0xbd406180	-0.046967983
58	0x3d3a1410	0.04542929
59	0xbd34fb00	-0.044184685
60	0xbdd7ed2c	-0.10543284
61	0xbde7f244	-0.113255054
62	0x3dc153de	0.094398245
63	0x3d8d8d7c	0.06911752
64	0x393ff800	0.00018307567
65	0x3c15d1f0	0.009144291
66	0xbdeaeb14	-0.11470619
67	0x3cc7d8d8	0.024395391
68	0xbdfe5dac	-0.1242021
69	0xbda6f3ae	-0.08151947
70	0xbd7cd8ec	-0.06173031
71	0xbc329550	-0.010899857
72	0x3cf55868	0.029949382
73	0x3de90cd2	0.113793984
74	0xbcd69170	-0.026192397
75	0xbdb1571a	-0.086591914
76	0x3dba8e7e	0.091092095
77	0xbd529f00	-0.051421165
78	0x3d809b68	0.062796414
79	0x3cf6f360	0.030145347
80	0xbd4ebf8c	-0.050475642
81	0x3caecd60	0.021338165
82	0x3d62e038	0.055389613
83	0xbcc7b8a0	-0.024380028
84	0x3dcdfe2c	0.10058245
85	0xbb9c7420	-0.0047745854
86	0xbcf470f0	-0.029839009
87	0xbc9d8b48	-0.019231454
88	0x3d219a18	0.039453596
89	0x3d55371c	0.05205451
90	0x3d1fd8a4	0.039024964
91	0x3db55c42	0.088554874
92	0xbdd28884	-0.102799445
93	0xbddb1fac	-0.106994
94	0xbdf5f934	-0.12010422
95	0xbd1ea584	-0.038732067
96	0xbda693b8	-0.08133644
97	0x3dce6364	0.10077551
98	0x3dff8ce4	0.12478045
99	0xbca6e080	-0.020370722
100	0x3d454d44	0.04816939
101	0x3ddf4c9a	0.109032825
102	0xbc4320e0	-0.0119096935
103	0xbded19b2	-0.115771666
104	0x3d68f0e8	0.05687037
105	0x3d2f161c	0.042745695
106	0x3ddc89dc	0.10768482
107	0xbdacb6ac	-0.084332794
108	0xbc432530	-0.011910722
109	0xbd889608	-0.06669241
110	0x3da6afd0	0.08139002
111	0x3d854c9e	0.06508754
112	0xbd555880	-0.052086353
113	0xbd4fe9bc	-0.050760016
114	0x3cd908d8	0.026493475
115	0xbdc6aa0c	-0.097004026
116	0x3cd7bcf0	0.02633521
117	0xbd811948	-0.0630365
118	0xbdc4aec8	-0.096036494
119	0xbd403038	-0.046920985
120	0x3db6ae04	0.089199096
121	0x3c8b6258	0.017014667
122	0xbdc51dda	-0.09624834
123	0x3cc8e7c8	0.024524584
124	0x3db8122c	0.08987841
125	0x3db09de8	0.08623868
126	0x3dace046	0.08441214
127	0xbcfccb70	-0.030858725
128	0x3d656ed8	0.056013912
129	0x3cab7488	0.02092959
130	0xbc48c790	-0.012254611
131	0xbd8ab6ae	-0.06773125
132	0xbd7b05e8	-0.06128493
133	0x3b886320	0.0041622072
134	0xbd646644	-0.05576159
135	0x3cc2b420	0.02376753
136	0x3dbe69e0	0.09297538
137	0xbdef8e76	-0.11697094
138	0x3dc899a8	0.097949326
139	0xbc49a510	-0.01230742
140	0x3d35a2b0	0.044344604
141	0x3d2a4d30	0.041577518
142	0xbcfd3ac0	-0.030911803
143	0xbb9b7f00	-0.004745364
144	0xbde709d0	-0.112811685
145	0x3db75520	0.08951783
146	0xbdc9be5e	-0.09850763
147	0xbdae38ba	-0.085069135
148	0x3d964a6c	0.073384136
149	0x3d487fd8	0.048950046
150	0x3dea1e84	0.11431602
151	0xbd2e43d8	-0.04254517
152	0x3cf6f268	0.030144885
153	0x3de23bae	0.11046539
154	0x3d2fe25c	0.042940482
155	0x3c290ab0	0.0103174895
156	0xbd7c81e4	-0.06164731
157	0xbd72eca4	-0.05930771
158	0x3d3bf878	0.045891255
159	0x3ca36620	0.019946158
160	0x3dd0206a	0.101624325
161	0xbd9fbcc0	-0.07799673
162	0xbd0ff960	-0.035149932
163	0xbcdde218	-0.027085349
164	0x3c5ff650	0.013669565
165	0xbdfa9d94	-0.12237087
166	0xbdb4d268	-0.08829194
167	0x3d5d706c	0.054062292
168	0x3dfa3f4a	0.12219103
169	0xbd025778	-0.031821698
170	0x3b356840	0.0027680546
171	0xbdea4cd2	-0.114404336
172	0xbdd96da4	-0.106166154
173	0xbd0ab774	-0.03386636
174	0x3de76b62	0.112997785
175	0xbb19b840	-0.0023455769
176	0x3c8c62f0	0.01713702
177	0xbb083300	-0.0020782351
178	0x3da8e034	0.08245888
179	0x3ddacaf0	0.106832385
180	0x3c8790a8	0.01654847
181	0xbda19af8	-0.07890886
182	0xbd55c918	-0.05219373
183	0xbd078f98	-0.033095926
184	0x3d386a40	0.045023203
185	0xbcd0d190	-0.025490552
186	0xbdde28ce	-0.108476266
187	0x3dfbd410	0.12296307
188	0xbd90b852	-0.07066406
189	0xbdc65f6e	-0.096861705
190	0x3d0c716c	0.034287855
191	0x3d55f4f4	0.05223556
192	0xbda6b08e	-0.08139144
193	0x3d8aab4e	0.06770955
194	0x3dbf2a84	0.09334281
195	0xbd81845e	-0.06324075
196	0x3ddd722c	0.10812792
197	0x3dbf7858	0.093491256
198	0xbd81ca44	-0.06337407
199	0xbd0a0cf4	-0.03370376
200	0xbccddd88	-0.025130048
201	0x3dc12b84	0.09432128
202	0x3dc2742e	0.09494816
203	0xbd1e1090	-0.038590014
204	0xbdb8a4c8	-0.090158045
205	0xbdcdcc04	-0.100486785
206	0xbd80cdee	-0.06289278
207	0xbdd5da32	-0.10442008
208	0xbddf96e8	-0.10917455
209	0xbd69194c	-0.05690889
210	0xbd9d56fe	-0.07682608
211	0x3df782f8	0.12085527
212	0x3df8e1b2	0.12152423
213	0x3d7bcfc0	0.061477423
214	0xbcad9c08	-0.021192566
215	0x3d20ece8	0.03928843
216	0xbd87faa8	-0.06639606
217	0x3db11fae	0.086486205
218	0xbd856194	-0.06512752
219	0x3cf20cf0	0.029547185
220	0x3dab83ac	0.08374724
221	0xbd50ced0	-0.05097848
222	0x3ded64ac	0.11591467
223	0x3caa8f50	0.02082029
224	0x3ddd076e	0.10792433
225	0x3d5cddf0	0.053922594
226	0x3dafb5ce	0.08579598
227	0xbd613fa4	-0.054992333
228	0x3d5c8484	0.053837314
229	0xbcc04f20	-0.02347523
230	0xbd8740ba	-0.066041425
231	0x3db0862c	0.08619341
232	0xbcef0140	-0.0291754
233	0xbd853c3a	-0.06505628
234	0x3d197338	0.037463397
235	0xbd466d38	-0.048444003
236	0xbba9c000	-0.005180359
237	0x3dd0b488	0.101906836
238	0xbd4a8cd8	-0.049450725
239	0x3c88e320	0.016709864
240	0xbde625dc	-0.1123769
241	0x3bef7a80	0.0073083043
242	0xbcca83f0	-0.024721116
243	0xbd749b14	-0.059718207
244	0x3d6e028c	0.058107898
245	0x3cbaf2c8	0.022820845
246	0xbcb11590	-0.021616727
247	0x3db74de8	0.08950406
248	0xbc2bccf0	-0.010485873
249	0xbdc1dd64	-0.09466055
250	0x3db72c8e	0.08944045
251	0x3d028904	0.03186895
252	0xbd5b07c8	-0.053474218
253	0x3dc8f9e0	0.09813285
254	0x3c59a9f0	0.013285145
255	0x3d36c6a0	0.044623017

lstm.bias_ih_l0 f4 [256]
0	0xbcf22210	-0.029557258
1	0xbd1a4a34	-0.037668422
2	0x3c880ad0	0.016606718
3	0xbdbc562c	-0.091961235
4	0xbd6c9694	-0.05776079
5	0x3db706f8	0.08936876
6	0x3cca2b28	0.024678782
7	0xbd0e9428	-0.03480926
8	0x3d9602e8	0.07324773
9	0xbda97660	-0.08274531
10	0xbca65110	-0.020302325
11	0xbc5f4980	-0.013628364
12	0x3df4e5f4	0.119579226
13	0xbcd67aa8	-0.026181534
14	0xbdffb972	-0.12486543
15	0xbd40b640	-0.047048807
16	0xbd63615c	-0.05551277
17	0xbd7dc584	-0.061955944
18	0xbdfacf7c	-0.12246606
19	0x3da20318	0.07910746
20	0x3b6e8880	0.0036397278
21	0x3d37b9a8	0.04485479
22	0x3df56a12	0.11983122
23	0xbcfe9df8	-0.031081185
24	0x3d8702c4	0.065923244
25	0xbc334020	-0.010940582
26	0x3cd02ba0	0.025411427
27	0xbd6d8560	-0.057988524
28	0xbc3483c0	-0.01101774
29	0x3c0ebe50	0.008712366
30	0x3d1cce50	0.038282692
31	0x3d463230	0.048387706
32	0x3d9a1354	0.07523218
33	0xba444400	-0.00074869394
34	0xbafb8500	-0.0019189417
35	0x3df6a37c	0.12042901
36	0xbd91cd78	-0.07119268
37	0xbdf27e04	-0.11840442
38	0x3cf10c48	0.029424801
39	0x3db0dd2e	0.08635937
40	0x3dd30250	0.103031754
41	0xbcf1da98	-0.029523179
42	0xbd3b2810	-0.045692503
43	0xbd44871c	-0.047980413
44	0x3d9bea04	0.07612994
45	0xbdfaa0a2	-0.122376695
46	0x3cf62bf8	0.030050263
47	0x3db4087c	0.08790681
48	0x3db3c2c6	0.087773845
49	0xbd9350ac	-0.07193121
50	0xbcdc0988	-0.026860014
51	0xbd39b004	-0.045333877
52	0xbbaaed80	-0.0052163005
53	0x3cc567c8	0.024097338
54	0x3d27109c	0.040787324
55	0x3ded7c1a	0.11595936
56	0x3db625aa	0.088939026
57	0x3d1df3d4	0.03856261
58	0xbcb12a80	-0.02162671
59	0x3c4af7e0	0.0123882
60	0x3c498500	0.012299776
61	0xbd34d3ec	-0.044147417
62	0x3dfba462	0.12287213
63	0xbd5ca428	-0.05386749
64	0x3c8b5788	0.017009512
65	0xbc5192d0	-0.0127913505
66	0x3c8d5208	0.01725103
67	0xbdf9382e	-0.121689186
68	0x3bf281a0	0.0074007064
69	0x3d48f314	0.049059942
70	0xbdfa2e00	-0.12215805
71	0xbd956a90	-0.07295716
72	0x3bc31ee0	0.0059546083
73	0xbd8f3faa	-0.06994565
74	0x3d69ec74	0.057110265
75	0x3cdfa3f8	0.027299866
76	0xbd9dc7da	-0.07704134
77	0x3d6ad74c	0.05733423
78	0xbd4024bc	-0.046910033
79	0x3daa97be	0.08329724
80	0xbd7bdf54	-0.06149228
81	0xbd85637c	-0.06513116
82	0xbdf87e54	-0.1213347
83	0x3d41ae88	0.047285587
84	0xbda1cc26	-0.07900266
85	0x3d917dbe	0.071040615
86	0x3da63014	0.08114639
87	0xbdfe7f7a	-0.12426658
88	0xbd9421a8	-0.07232982
89	0x3d7bf790	0.06151539
90	0x3d2e24d0	0.042515576
91	0xbd3658b8	-0.044518203
92	0xbd32f7bc	-0.04369329
93	0x3dc553de	0.09635137
94	0x3cc54dc0	0.024084926
95	0xbd872afc	-0.065999955
96	0xbd2eacb0	-0.042645156
97	0x3d9af80c	0.075668424
98	0x3d798038	0.060913295
99	0xbda859b8	-0.082202375
100	0x3b9d8a00	0.0048077106
101	0x3d9d4398	0.07678908
102	0xbde5d504	-0.1122227
103	0x3ddf2db4	0.10897389
104	0xbc35b190	-0.0110896975
105	0xbcc4fc38	-0.024046049
106	0xbceb5c70	-0.028730601
107	0xbdf4edde	-0.11959432
108	0xbdb87162	-0.09006001
109	0x3dd76f2c	0.10519251
110	0xbd1a8fc0	-0.037734747
111	0xbd1bb9cc	-0.038018987
112	0xbd23e3d8	-0.04001221
113	0x3c7dccd0	0.015490726
114	0xbd8ec0e6	-0.06970386
115	0x3d113068	0.035446554
116	0x3cd64be8	0.026159242
117	0xbd1da494	-0.038487032
118	0xbdc9fc9a	-0.09862633
119	0x3caf7270	0.021416873
120	0x3d59741c	0.053089246
121	0xbdfc9690	-0.12333405
122	0x3dd66532	0.1046852
123	0xbd771204	-0.060319915
124	0xbd6d14c4	-0.05788113
125	0x3d7b0060	0.061279655
126	0xbd8efd9c	-0.06981966
127	0x3dc36d84	0.09542373
128	0xbdc77abe	-0.09740208
129	0xbd092254	-0.033480003
130	0xbba74da0	-0.005105689
131	0xbdfd959c	-0.12382051
132	0x3dcdad28	0.100427926
133	0x3dabf962	0.08397175
134	0x3d545e14	0.051847532
135	0xbb26d780	-0.0025458038
136	0xbd2d6258	-0.042330116
137	0xbdf25d5a	-0.11834212
138	0x3de3e04a	0.11126764
139	0x3d34add8	0.044111103
140	0xbce7a5f0	-0.028277367
141	0x3d85c6d6	0.065320656
142	0xbd9cedd4	-0.076625496
143	0xbdfe2d62	-0.12411
144	0xbdf7858e	-0.120860204
145	0xbdc139a4	-0.09434822
146	0xbdbac5e4	-0.09119776
147	0xbbe6b900	-0.0070410967
148	0x3d99cf7a	0.07510276
149	0xbdf9825c	-0.12183067
150	0xbd9c2f8a	-0.07626255
151	0x3deb3d9e	0.11486362
152	0xbd3c8d34	-0.0460331
153	0xbc20bbb0	-0.009810373
154	0x3be57c80	0.007003367
155	0x3d9945c0	0.07484007
156	0xbc6e5670	-0.0145469755
157	0xbd839634	-0.06425133
158	0xbd8b9408	-0.06815344
159	0xbc4067a0	-0.011743456
160	0xbd8e21ca	-0.069400385
161	0xbd4fa1e4	-0.0506915
162	0xbde2b07c	-0.11068818
163	0xbd3d0738	-0.046149462
164	0x3d060a54	0.032724693
165	0xbd89a744	-0.067213565
166	0x3d61358c	0.054982707
167	0xbd2efed0	-0.042723477
168	0x3c80cab8	0.015721664
169	0x3cfbca78	0.030736193
170	0xbca6a2d8	-0.020341322
171	0x3d0b1f30	0.03396529
172	0x3c655ed0	0.013999656
173	0xbcd24798	-0.025668904
174	0x3d860cd6	0.06545417
175	0x3d247f20	0.0401603
176	0x3d1e5a7c	0.03866051
177	0x3dfc58fc	0.1232166
178	0xbddbed40	-0.10738611
179	0x3d5117ac	0.051047966
180	0x3d08a41c	0.033359632
181	0xbdb99ee8	-0.09063512
182	0xbdbd0af4	-0.09230605
183	0xbdd75c3c	-0.10515639
184	0x3aaf6780	0.0013382286
185	0x3dac8cd0	0.08425295
186	0x3da78a9e	0.08180736
187	0x3dfb62f0	0.1227473
188	0x3c079030	0.008274123
189	0xb9524000	-0.00020051003
190	0xbda5d5be	-0.08097409
191	0x3dfb22ae	0.12262474
192	0xbb579f80	-0.0032901466
193	0x3d2d8668	0.042364508
194	0x3c5e7d80	0.013579726
195	0x3deb4b8e	0.1148902
196	0xbd23ec7c	-0.04002045
197	0xbdf0f1b4	-0.11764851
198	0x3caac1d8	0.020844385
199	0xbacc9380	-0.0015607923
200	0x3df978f4	0.12181273
201	0x3cb89200	0.022530556
202	0x3d869f70	0.06573379
203	0x3dfde644	0.12397435
204	0x3c430bd0	0.011904672
205	0x3c478460	0.012177557
206	0xbd6a7c48	-0.05724743
207	0xbd5cc208	-0.05389598
208	0xbdda4ff2	-0.106597796
209	0xbaf05500	-0.0018335879
210	0xbcdd5488	-0.027017847
211	0xbd57deac	-0.05270259
212	0xbd2b38cc	-0.041802213
213	0xbd082e74	-0.033247426
214	0x3d5d2620	0.053991437
215	0xbdbdc684	-0.092663795
216	0xbda555ec	-0.08073029
217	0x3d18040c	0.037113234
218	0x3bdad800	0.0066785812
219	0xbd40a9d8	-0.047036976
220	0xbdd00334	-0.10156861
221	0xbdda6202	-0.10663225
222	0x3cbd8740	0.023135781
223	0xbd7d5b34	-0.061854556
224	0xbd6a0738	-0.05713579
225	0xbdae2884	-0.085038215
226	0x3d91373c	0.07090613
227	0xbb80bb40	-0.003928572
228	0x3dbc260c	0.09186944
229	0xbd367884	-0.044548526
230	0xbc332de0	-0.01093623
231	0x3c3f2480	0.011666417
232	0xbda6fc0a	-0.081535414
233	0xbd6988a4	-0.057015076
234	0xbda73fee	-0.081664905
235	0x3dde245a	0.10846777
236	0x3d6deb40	0.05808568
237	0xbc8f3950	-0.017483383
238	0x3d85996a	0.06523402
239	0x3cada850	0.021198422
240	0x3ca88628	0.020571783
241	0xbbc95b00	-0.0061448812
242	0xbca45930	-0.02006206
243	0x3da22f0e	0.07919131
244	0xbdd5ab8a	-0.10433109
245	0xbddd52f0	-0.10806835
246	0xbdd11c06	-0.10210423
247	0xbdbe402a	-0.09289582
248	0xbd033560	-0.032033324
249	0xbcabd090	-0.020973474
250	0xbde0130e	-0.109411344
251	0x3ddbf5b8	0.107402265
252	0x3d3c4b64	0.045970336
253	0x3b612300	0.0034353137
254	0xbd2af87c	-0.04174088
255	0x3de82334	0.113348395

lstm.bias_hh_l0 f4 [256]
0	0x3d9bd8fc	0.07609746
1	0xbd75db1c	-0.060023412
2	0xbd42b29c	-0.047533616
3	0xbc24f080	-0.010067105
4	0x3d33205c	0.043732032
5	0x3bffbf40	0.007804781
6	0xbdbf0c06	-0.09328465
7	0x3dc718d2	0.09721531
8	0x3d5accd4	0.053417996
9	0x3d83b078	0.06430143
10	0xbdc67fd8	-0.09692353
11	0x3de19a8a	0.11015804
12	0x3c1c82c0	0.009552658
13	0x3d5291a4	0.051408425
14	0xbd27661c	-0.040868863
15	0x3ddef5e8	0.10886747
16	0x3c0fc590	0.00877513
17	0x3d959172	0.07303132
18	0xbbbaac00	-0.0056967735
19	0x3ca6c6d0	0.020358473
20	0x3d0c3dcc	0.03423862
21	0xbca0d760	-0.019633949
22	0x3dc5a352	0.096502915
23	0x3cb5c8a0	0.022190392
24	0xbcc6b758	-0.024257347
25	0x3d1a2330	0.037631214
26	0x3c8b70b8	0.017021522
27	0x3d6212dc	0.055193767
28	0x3c2abc70	0.010420904
29	0xbd7967dc	-0.060890064
30	0x3d65c8c8	0.056099683
31	0x3d0961d8	0.033540577
32	0xbd842cfc	-0.064538926
33	0x3d5d0f8c	0.053969905
34	0xbdffbd0e	-0.12487231
35	0x3d85575a	0.065108016
36	0xbd0d8828	-0.034553677
37	0x3cf84ed0	0.030311018
38	0xbdc5ecd4	-0.09664312
39	0x3d12edb8	0.035871238
40	0xbd58ff84	-0.052978054
41	0x3d94b69a	0.07261391
42	0x3b9e4740	0.004830271
43	0xbde45658	-0.11149281
44	0x3c7b5b30	0.015341565
45	0x3d5d7c9c	0.054073915
46	0x3d3e7c94	0.046505526
47	0x3dca17f8	0.09867853
48	0xbde33110	-0.11093342
49	0x3da69ece	0.08135758
50	0xbdcb72e0	-0.0993402
51	0x3da70a82	0.08156301
52	0x3d9945ac	0.07483992
53	0x3b80c880	0.0039301515
54	0xbc9a7b50	-0.018857628
55	0xbd707fe8	-0.05871573
56	0xbdb3fd16	-0.08788507
57	0xbdd243ac	-0.10266814
58	0xbd1ff26c	-0.03904955
59	0xbd26d110	-0.04072672
60	0x3deafbb0	0.11473787
61	0x3d4186ac	0.047247574
62	0x3d1c0220	0.038087964
63	0x3d0d1c78	0.034450978
64	0x3dacc882	0.08436681
65	0xbdd8f498	-0.105935276
66	0xbd9ea894	-0.077469975
67	0xbd69c884	-0.057075992
68	0x3d8fbff6	0.070190355
69	0xbdbe7614	-0.09299865
70	0x3d904814	0.07044998
71	0xbdb48914	-0.08815208
72	0xbd5b0e0c	-0.053480193
73	0xbdf24a14	-0.118305355
74	0xbcfe81c0	-0.031067729
75	0xbd494d0c	-0.049145743
76	0xbd73d524	-0.05952944
77	0x3c29afb0	0.010356829
78	0xbdcdf60a	-0.10056694
79	0xbd8889c0	-0.06666899
80	0x3da51762	0.080611005
81	0x3dfcbe5e	0.12340997
82	0xbb90a540	-0.0044142306
83	0xbae2cc00	-0.0017303228
84	0xbd7f105c	-0.06227146
85	0xbcef4488	-0.029207483
86	0x3df42d26	0.11922674
87	0x3ccb6290	0.024827272
88	0x3d4c991c	0.049950704
89	0xbd38df1c	-0.04513465
90	0x3de86028	0.11346465
91	0xbd20b348	-0.039233476
92	0x3ddd5aa8	0.10808307
93	0x3c4f8bf0	0.012667641
94	0xbdac8b94	-0.0842506
95	0x3defc26e	0.117070064
96	0x3dc35e52	0.095394745
97	0xbddaa79c	-0.106765
98	0x3db7272e	0.0894302
99	0x3dc60222	0.096683756
100	0xbd0541a4	-0.032533303
101	0xbd545db4	-0.051847175
102	0x3d322694	0.043493822
103	0x3c245750	0.010030583
104	0xbd8f0cb0	-0.06984842
105	0xbc2611a0	-0.010136038
106	0xbdbbc816	-0.09169023
107	0x3df29564	0.118449
108	0x3cf99888	0.03046824
109	0xbcfef928	-0.031124666
110	0xbdf516f6	-0.1196727
111	0x3b3578c0	0.002769038
112	0x3dfd095a	0.12355299
113	0xbdcd8bf4	-0.100364596
114	0x3c79fc80	0.015257955
115	0x3deb38c4	0.114854366
116	0x3cf074d0	0.029352576
117	0x3d3c5be8	0.045986086
118	0x3d33292c	0.043740436
119	0xbd3cb610	-0.046072066
120	0x3dfb9198	0.12283629
121	0xbd79b7a8	-0.060966164
122	0xbd5fc824	-0.05463423
123	0x3d3a1bb8	0.04543659
124	0xbdda3c1e	-0.10655998
125	0xbdbcc5a0	-0.092173815
126	0xbdab2d90	-0.083583
127	0xbdc33ee2	-0.09533478
128	0xbd877f70	-0.06616104
129	0x3de5ccc4	0.112206966
130	0x3df28ba6	0.11843042
131	0xbd8384e4	-0.06421831
132	0x3d96079e	0.073256716
133	0x3bca9720	0.0061825663
134	0x3da3262a	0.079662636
135	0x3d82e438	0.063911855
136	0xbdc22f88	-0.09481722
137	0x3ce87938	0.028378114
138	0x3d1dc63c	0.03851913
139	0xbb9dc780	-0.004815042
140	0xbd5dce1c	-0.05415164
141	0x3dd1582a	0.10221894
142	0xbd8ee364	-0.06976965
143	0x3ce19a58	0.027539417
144	0xbdae0fa4	-0.08499077
145	0xbdac117e	-0.08401774
146	0xbdcc9e30	-0.09991109
147	0xbdfca968	-0.12336999
148	0xbdbf1f3c	-0.09332129
149	0x3dab7c06	0.08373265
150	0x3d6ba1d0	0.057527363
151	0x3df9cbc6	0.1219707
152	0x3da4efe4	0.08053568
153	0xbc2148b0	-0.00984399
154	0x3b1e7600	0.002417922
155	0x3d4e259c	0.050328836
156	0x3db09e28	0.08623916
157	0x3dc0279c	0.09382555
158	0x3cc6f620	0.024287283
159	0x3de9a782	0.11408903
160	0x3b04ad80	0.0020245016
161	0x3df600e0	0.12011886
162	0xbdfde97c	-0.12398049
163	0xbdbf5ca0	-0.09343839
164	0x3db3a802	0.08772279
165	0x3c499240	0.012302935
166	0x3d5496e8	0.051901728
167	0xbbde3420	-0.006781116
168	0x3d9e0f52	0.07717766
169	0x3a48ef00	0.00076650083
170	0x3dad84bc	0.08472583
171	0x3df8514e	0.12124883
172	0x3cd1a818	0.025592849
173	0x3d2317dc	0.039817676
174	0x3dcb0a14	0.099140316
175	0x3d766ca0	0.060162187
176	0x3adf8100	0.0017051995
177	0x3d6eeb94	0.058330134
178	0xbcb21520	-0.021738589
179	0xbc8bb960	-0.017056167
180	0xbdada7ee	-0.08479296
181	0xbdfe35ea	-0.12412627
182	0x3d6b3440	0.057422876
183	0xbc83e298	-0.01609926
184	0xbdf7c1a4	-0.12097481
185	0x3dc4571c	0.09586927
186	0x3d0e1c84	0.034695163
187	0xbd01638c	-0.031589076
188	0x3d7b51fc	0.061357483
189	0xbbd67f40	-0.006545931
190	0xbdfe58d0	-0.124192834
191	0xbd99f1a4	-0.075167924
192	0x3dcf74e2	0.101297155
193	0x3daa5070	0.083161235
194	0x3835b000	4.3317676e-05
195	0xbcfe4eb8	-0.031043395
196	0x3d2138c8	0.03936079
197	0x3d3b3ce8	0.04571238
198	0xbbb08e20	-0.0053880364
199	0x3d400c7c	0.046886906
200	0x3cd7ebf8	0.026357636
201	0x3c224430	0.0099039525
202	0x3dec4930	0.11537397
203	0xbddcb8da	-0.10777445
204	0xbdda0424	-0.10645321
205	0x3df1d736	0.11808626
206	0x3dd58d4e	0.10427342
207	0xbd78e70c	-0.06076722
208	0x3dbcbc70	0.09215629
209	0x3ca12368	0.019670203
210	0xbdccb196	-0.09994809
211	0x3d8ed288	0.069737494
212	0xbdad4c3c	-0.08461806
213	0xbd140340	-0.036135912
214	0x3d46c258	0.048525184
215	0xbdab289a	-0.083573535
216	0xbd451348	-0.04811409
217	0xbdfa59fc	-0.122241944
218	0x3dff6d00	0.12471962
219	0xbdaadf0c	-0.08343324
220	0x3b9c10c0	0.004762739
221	0xbdb31d0c	-0.087457746
222	0x3cde5f60	0.027145088
223	0x3df90314	0.1215879
224	0xbd7d81c0	-0.061891317
225	0x3dd0d71c	0.10197279
226	0x3dc1d022	0.09463526
227	0x3d5c1414	0.053730085
228	0xbd8f3c32	-0.06993903
229	0xbd41881c	-0.047248945
230	0x3dec6246	0.11542182
231	0xbcbaab18	-0.022786662
232	0xbdf7dea4	-0.12103012
233	0xbd969bb6	-0.07353918
234	0x3c03f300	0.008053541
235	0x3db8d95c	0.09025833
236	0x3da9e2cc	0.08295211
237	0x3dd64e78	0.104641855
238	0x3d60c1ec	0.05487244
239	0xbd865398	-0.06558913
240	0xbdea4d5e	-0.11440538
241	0x3d306710	0.043067038
242	0x3c997790	0.01873377
243	0x3cd03288	0.02541472
244	0x3cea2ca8	0.028585747
245	0xbdd347e6	-0.10316448
246	0xbcb9a768	-0.022662833
247	0x3de4c50e	0.11170398
248	0xbdbf110c	-0.09329423
249	0x3dcb8a82	0.09938528
250	0x3df42450	0.119209886
251	0xbdebf71c	-0.11521742
252	0x3dae5394	0.08512035
253	0xbd295eb4	-0.04135008
254	0x3db9fe9e	0.090817675
255	0x3da68170	0.08130157

lstm.weight_ih_l0_reverse f4 [256, 5]
0	0xbda62e16	-0.08114259
1	0xbd1b3bdc	-0.037898883
2	0xbd550a30	-0.05201167
3	0x3cc424f8	0.02394341
4	0x3db9364a	0.09043558
5	0x3d4169c4	0.047220007
6	0xbdb11d18	-0.08648127
7	0x3dae5a62	0.08513333
8	0xbdbd03a2	-0.092292085
9	0xbdd5d18c	-0.104403585
10	0xbdf3eaee	-0.11910044
11	0xbdfe2084	-0.124085456
12	0x3ba7c2a0	0.0051196367
13	0xbd8212aa	-0.06351216
14	0x3d9bc0a6	0.07605104
15	0x3d43e0f4	0.047821954
16	0x3d0d42b0	0.034487426
17	0x3d3cd0a0	0.046097398
18	0x3bc69c20	0.006061092
19	0x3dd3e8ac	0.10347113
20	0x3dbd2b04	0.0923672
21	0xbdba16bc	-0.090863675
22	0xbd870c90	-0.06594193
23	0xbdbe4dc0	-0.092921734
24	0xbc352c20	-0.0110578835
25	0xbde74e32	-0.112942114
26	0x3d57ccb4	0.052685454
27	0x3dcd3bca	0.100211695
28	0xbd8e1b28	-0.069387734
29	0xbdfdf7f4	-0.12400809
30	0xba983f00	-0.0011615455
31	0xbd87969e	-0.06620525
32	0xbd6a9688	-0.057272464
33	0xbcc5d598	-0.024149701
34	0xbdd8f916	-0.10594384
35	0x3ac74500	0.0015203059
36	0x3d86d054	0.06582704
37	0xbdcab4fc	-0.09897801
38	0x3ca0c620	0.019625723
39	0xbd95ae16	-0.07308595
40	0xbde16f02	-0.11007501
41	0x3cbdc820	0.023166716
42	0xbd3a1f6c	-0.045440122
43	0xbc0f0790	-0.00872983
44	0xbcab2f98	-0.020896718
45	0x3cc091f8	0.023507103
46	0x3d403354	0.04692395
47	0x3da818bc	0.08207843
48	0x3c05f650	0.008176401
49	0xbb527680	-0.0032114089
50	0xbc4ea420	-0.012612373
51	0xbd3ef870	-0.046623647
52	0xbd1d0908	-0.03833869
53	0x3dc0c37a	0.09412284
54	0x3cce3890	0.025173455
55	0xbdf71118	-0.12063807
56	0xbdd9f590	-0.106425405
57	0xbc588fd0	-0.013217881
58	0x3da2554a	0.07926424
59	0x3d7966b8	0.060888976
60	0x3df4f918	0.11961573
61	0x3c85d200	0.016335487
62	0xbdcf98a0	-0.10136533
63	0x3de4fb76	0.11180775
64	0x3d566008	0.052337676
65	0x3d3b4b78	0.04572627
66	0xbde82d42	-0.11336757
67	0xbdf0e6f6	-0.11762802
68	0x3bc4b360	0.0060028285
69	0x3dde5212	0.108554974
70	0x3dc753f0	0.09732807
71	0xbd54908c	-0.051895663
72	0xbdbca4c4	-0.09211114
73	0xbdb3a1d8	-0.087711036
74	0x3c85cf40	0.016334176
75	0x3d594384	0.053042904
76	0x3d7ce1b4	0.061738685
77	0xbdd326ae	-0.10310112
78	0xbc57bc90	-0.013167515
79	0x3dbbad04	0.091638595
80	0xbdf47fce	-0.11938439
81	0xbd052a08	-0.032510787
82	0x3d8a2fd6	0.06747405
83	0x3ca61cd0	0.02027741
84	0xbcf50260	-0.029908359
85	0x3df0fb4c	0.11766681
86	0xbdc07334	-0.09396973
87	0x3dff9bae	0.124808654
88	0xbded2632	-0.11579551
89	0x3d189f5c	0.037261352
90	0x3d962652	0.07331528
91	0x3dea3a06	0.11436848
92	0xbcab96c8	-0.020945922
93	0xbcc826f8	-0.024432644
94	0xbc7d2f40	-0.01545316
95	0xbc59aab0	-0.013285324
96	0x3deed2a2	0.11661269
97	0xbdf0e48c	-0.11762342
98	0x3cf832d0	0.030297667
99	0x3c503720	0.012708455
100	0x3c9ae058	0.018905804
101	0x3ca9ad68	0.02071257
102	0xbdedc33a	-0.11609502
103	0x3d4a0e28	0.049329907
104	0xbc85ead8	-0.016347334
105	0x3dc80c96	0.097680256
106	0x3df8b47a	0.12143798
107	0xbd92e6e8	-0.07172948
108	0x3c6d20a0	0.01447311
109	0xbc31d180	-0.010853171
110	0x3d556320	0.052096486
111	0xbdc96404	-0.098335296
112	0xba6bde00	-0.0008997619
113	0xbd950e9c	-0.07278177
114	0xbd459e48	-0.048246652
115	0x3dae077a	0.0849752
116	0xbdfcd4b2	-0.12345256
117	0x3cbaee50	0.022818714
118	0x3d1eb6d4	0.038748577
119	0x3c98fc20	0.01867491
120	0x3d4f83f8	0.050662965
121	0xbd83eb92	-0.06441416
122	0xbd749528	-0.05971256
123	0xbdbc2076	-0.09185879
124	0x3d3a554c	0.0454915
125	0xbc159710	-0.009130254
126	0xbd660f54	-0.05616696
127	0x3da45486	0.08023934
128	0xbd9d39c6	-0.07677035
129	0x3df343ba	0.11878152
130	0xbd842134	-0.064516455
131	0xbdf72e02	-0.12069322
132	0xbdbfe422	-0.09369685
133	0x3d3a176c	0.045432493
134	0xbdb8ac16	-0.09017198
135	0x3df30152	0.11865486
136	0xbc69ddd0	-0.014274076
137	0xbdd8675a	-0.10566588
138	0xbd7d2770	-0.06180519
139	0xbd7a8de8	-0.06117049
140	0xbdc4a26a	-0.096012905
141	0xbde075c2	-0.109599605
142	0x3d0ca024	0.03433241
143	0xbcfa6b78	-0.030568823
144	0xbd434f84	-0.047683254
145	0xbcd5e048	-0.026107922
146	0x3d8f057e	0.069834694
147	0x3d69bf20	0.057067037
148	0x3df08c86	0.11745553
149	0xbd081868	-0.0332264
150	0x3c2dd5d0	0.010610059
151	0x3d6e5b10	0.058192313
152	0x3d6afdd8	0.05737099
153	0xbde46e80	-0.11153889
154	0x3d6b5734	0.05745621
155	0x3da60214	0.08105865
156	0x3d09c9a4	0.033639565
157	0x3da17e62	0.07885434
158	0xbda5dde8	-0.08098966
159	0xbd6a86d4	-0.05725749
160	0xbdad6fbe	-0.08468579
161	0xbd01a970	-0.03165573
162	0x3dec72c6	0.11545329
163	0x3c2844f0	0.010270342
164	0x3da8f8ae	0.08250557
165	0x3d9b939c	0.07596514
166	0x3d558810	0.052131712
167	0xbd8b0464	-0.06787947
168	0x3d8faa0e	0.07014857
169	0x3c9b9d48	0.018995896
170	0x3df63cc6	0.1202331
171	0xbde5a82c	-0.11213717
172	0x3d546f90	0.051864207
173	0x3d839424	0.0642474
174	0x3bd11480	0.0063806176
175	0x3daa012a	0.08301003
176	0xbddaa1f4	-0.10675421
177	0xbda95576	-0.082682535
178	0x3dbff50e	0.09372912
179	0xbd9685d8	-0.073497474
180	0xbd55b4e4	-0.052174464
181	0xbdda8852	-0.10670532
182	0xbc2c7c50	-0.010527685
183	0xbdc577b8	-0.09641975
184	0x3def8dd2	0.11696972
185	0x3ba27960	0.0049583167
186	0xbcce53d8	-0.025186464
187	0x3d1b3648	0.037893564
188	0xbcb98fd0	-0.022651583
189	0x3c8358d0	0.01603356
190	0x3bf89da0	0.0075871497
191	0xbd201e68	-0.039091498
192	0x3d39cfdc	0.045364246
193	0x3df5732c	0.11984858
194	0xbd4088fc	-0.04700564
195	0xbde8aa90	-0.11360657
196	0xbd85c826	-0.06532316
197	0xbb6905c0	-0.0035556406
198	0xbd2bdb10	-0.04195696
199	0x3d6a33dc	0.057178363
200	0xbc5434d0	-0.012952045
201	0xbcf4c300	-0.02987814
202	0x3d234d38	0.039868563
203	0x3b416900	0.0029512048
204	0x3d627cb4	0.055294707
205	0x3d257edc	0.040404186
206	0xbd5a8c4c	-0.053356454
207	0xbd6c44f8	-0.05768296
208	0xbdfe4588	-0.12415606
209	0xbc961b10	-0.018323451
210	0x3d9b60ec	0.07586846
211	0x3da9f6fc	0.08299062
212	0xbdf712de	-0.120641455
213	0x3d635018	0.055496305
214	0x3d80e57c	0.06293771
215	0xbb91f1e0	-0.0044538826
216	0x3d7f165c	0.062277183
217	0x3d6f9648	0.05849293
218	0x3d8225d4	0.063548714
219	0x3db5f3ce	0.08884393
220	0x3d4c8c88	0.04993871
221	0x3c59ff60	0.013305515
222	0xbd2afcfc	-0.04174517
223	0x3bc5eb00	0.006039977
224	0xbd6c885c	-0.05774723
225	0x3d1d60e4	0.03842248
226	0x3dead150	0.114657044
227	0xbde075a0	-0.10959935
228	0xbd4e0c58	-0.05030474
229	0x3dd4ff8c	0.10400304
230	0x3cbd1e00	0.023085594
231	0xbd767308	-0.060168296
232	0xbdfda070	-0.12384117
233	0x3d14e6b0	0.036352813
234	0x3ce94fa0	0.028480351
235	0xbd26c08c	-0.04071097
236	0xbdfab9a6	-0.12242441
237	0x3c543150	0.01295121
238	0xbd9c5eb4	-0.07635251
239	0x3dd02eba	0.101651624
240	0xbdde6892	-0.10859789
241	0xbce2c010	-0.027679473
242	0x3d8c97f2	0.06864919
243	0x3dd94640	0.10609102
244	0x3dfdd4fc	0.12394139
245	0x3db90b46	0.09035353
246	0xbd1738f0	-0.036919534
247	0xbdfc452c	-0.12317881
248	0x3dabebec	0.08394608
249	0xbd349844	-0.044090524
250	0x3de9b464	0.1141136
251	0xbdb6e664	-0.08930662
252	0x3d1aa624	0.0377561
253	0xbc4f84f0	-0.012665972
254	0xbdf461cc	-0.11932716
255	0xbd825b1e	-0.063650355

lstm.weight_hh_l0_reverse f4 [256, 64]
0	0xbd87311e	-0.06601165
1	0x3dbd98c2	0.09257652
2	0xbdca5df8	-0.09881204
3	0x3d81e53c	0.06342551
4	0x3db97358	0.09055203
5	0xbda9545c	-0.082680434
6	0xbdd52338	-0.10407108
7	0xbd2fba0c	-0.042902038
8	0x3d553514	0.052052572
9	0xbc948a48	-0.018132344
10	0x3c12f1c0	0.0089687705
11	0x3cd00c00	0.025396347
12	0x3dec1e52	0.11529221
13	0x3da12d86	0.07870011
14	0xbc43a250	-0.011940554
15	0xbd9ee4c6	-0.07758479
16	0xbd2e823c	-0.04260467
17	0x3db42e4e	0.087978944
18	0xbc834120	-0.016022265
19	0xbdb7d6ec	-0.0897654
20	0xbd9315b6	-0.071818754
21	0x3d25ca44	0.0404761
22	0xbdf36c62	-0.11885907
23	0xbde6775e	-0.11253236
24	0xbdb8557c	-0.0900068
25	0xbdae9312	-0.08524145
26	0xbccdee48	-0.025138035
27	0x3d06e380	0.032931805
28	0x3dcb9264	0.09940031
29	0x3c396940	0.011316597
30	0x3d902a24	0.07039288
31	0xbd8b9c24	-0.06816891
32	0xbdb9bfb8	-0.090697706
33	0x3dfc296c	0.12312588
34	0x3d559508	0.05214408
35	0x3dcb02ea	0.09912665
36	0x3c9fea88	0.019521013
37	0x3d979cca	0.07402952
38	0xbd3e1f24	-0.046416417
39	0x3d681e64	0.056669608
40	0x3ce873e8	0.02837558
41	0xbdcd519c	-0.100253314
42	0x3dc29a7e	0.09502123
43	0xbd8e36a2	-0.06944014
44	0x3d91cf80	0.071196556
45	0x3d7853a0	0.060626626
46	0xbd64687c	-0.055763707
47	0xbda09668	-0.07841188
48	0xbc39d860	-0.011343092
49	0xbd8ae21a	-0.06781407
50	0xbdd25c78	-0.10271543
51	0xbd95b4c6	-0.073098704
52	0x3d8b3776	0.06797688
53	0x3dc27d90	0.094966054
54	0xbd9d5c6e	-0.07683645
55	0xbc6a9bd0	-0.014319375
56	0x3dd8d330	0.10587156
57	0x3d8b7054	0.06808534
58	0xbd500814	-0.050788954
59	0x3dd2fdb8	0.10302299
60	0xbd851e2c	-0.064998955
61	0x3da5ffa4	0.081054
62	0x3dee5426	0.11637144
63	0xbdbf42e2	-0.09338929
64	0xbdc252e4	-0.094884664
65	0x3d0907bc	0.03345464
66	0xbdf14134	-0.11780015
67	0xbd6e9884	-0.05825092
68	0x3d6ec4a4	0.058293
69	0x3d838aee	0.06422983
70	0x3dcbe7ae	0.09956299
71	0x3de06ecc	0.10958633
72	0xbce30f10	-0.027717143
73	0xbdf28b88	-0.1184302
74	0xbdf79cc4	-0.120904475
75	0x3d00076c	0.031257078
76	0xbdf82b28	-0.121176064
77	0xbdaa57da	-0.083175376
78	0xbcfb2090	-0.030655175
79	0x3dc1339c	0.09433672
80	0xbdcb521e	-0.09927772
81	0xbd1bb904	-0.03801824
82	0xbd4dbc50	-0.050228417
83	0x3de84dcc	0.113429636
84	0xbdad46da	-0.084607795
85	0x3d437654	0.04772027
86	0x3de6df3e	0.11273049
87	0xbd4c0a58	-0.049814552
88	0x3dc2a622	0.095043436
89	0x3da0c72c	0.07850489
90	0xbdccc98a	-0.09999378
91	0x3df6160c	0.12015924
92	0xbb918ca0	-0.0044418126
93	0x3cb1a4c0	0.021685004
94	0xbd05c924	-0.032662526
95	0xbdf551aa	-0.11978467
96	0x3df9cf56	0.12197749
97	0xbdb282bc	-0.08716342
98	0x3daeb176	0.08529942
99	0x3d5733f4	0.05253978
100	0x3da0a222	0.078434244
101	0xbdba67ae	-0.091018066
102	0xbabb6880	-0.0014298111
103	0xbdded21a	-0.108799174
104	0xbca7d198	-0.020485684
105	0x3d727ab8	0.059199065
106	0x3d97fa9a	0.07420845
107	0x3dacdfa6	0.08441095
108	0xbcb5b030	-0.02217874
109	0xbd0ae0b8	-0.033905715
110	0xbde7ebec	-0.113242954
111	0xbde7245a	-0.112862304
112	0x3de58afc	0.1120815
113	0xbd6144d0	-0.054997265
114	0x3d8e87e0	0.0695951
115	0xbd288654	-0.04114373
116	0xbd899870	-0.06718528
117	0xbcf7b1f8	-0.03023623
118	0xbba5b920	-0.005057469
119	0xbd2cc704	-0.042181984
120	0x3da2dd82	0.079524055
121	0xbd19f590	-0.037587702
122	0x3cf8f248	0.030388966
123	0x3b9da560	0.004810974
124	0xbddb3134	-0.10702744
125	0x3de53622	0.11191966
126	0xbdd0f57a	-0.10203071
127	0xbd2d2344	-0.04226996
128	0xbcfaf470	-0.030634135
129	0x3df806be	0.12110661
130	0x3deffa40	0.11717653
131	0xbd87b5e0	-0.06626487
132	0xbdcf03b8	-0.10108131
133	0xbd07133c	-0.032977328
134	0x3d33aa04	0.04386331
135	0x3d1f73a4	0.038928643
136	0xbd845a16	-0.06462495
137	0x3d6a62f0	0.05722326
138	0xbda82a8c	-0.0821124
139	0xbd48df84	-0.049041286
140	0xbcc10438	-0.023561582
141	0xbc9480f8	-0.018127903
142	0xbd55fa40	-0.05224061
143	0x3dfed3f8	0.124427736
144	0x3dae3b32	0.08507384
145	0x3d876d70	0.066126704
146	0xbdec5ae0	-0.115407705
147	0xbc0b69a0	-0.00850907
148	0x3cf69260	0.030099094
149	0x3d3a04f0	0.045414865
150	0xbdf3ad30	-0.11898267
151	0x3d856d64	0.06515005
152	0xbd8f2798	-0.06989974
153	0xbc699af0	-0.014258131
154	0x3d464ec0	0.048414946
155	0x3de3f21c	0.11130163
156	0xbd787eb8	-0.060667723
157	0xbd606b5c	-0.054789886
158	0xbdcece1c	-0.10097906
159	0x3daba5ba	0.08381219
160	0x3c4d1270	0.012516603
161	0xbc056810	-0.008142486
162	0xbdb6ba52	-0.089222565
163	0x3de72d64	0.112879544
164	0x3d334450	0.04376632
165	0xbd3dc27c	-0.046328053
166	0x3dda3ff2	0.10656728
167	0xbd94412a	-0.072389916
168	0x3cb61260	0.022225559
169	0x3de414ba	0.11136766
170	0xbd75a64c	-0.059973046
171	0xbdfce904	-0.12349132
172	0xbd9142d6	-0.07092826
173	0x3d288198	0.041139215
174	0x3db29956	0.08720653
175	0xbd8a3108	-0.06747633
176	0x3c9a6140	0.0188452
177	0x3bd67ce0	0.006545648
178	0xbdd86858	-0.10566777
179	0xbcd92208	-0.026505485
180	0xbd443674	-0.047903493
181	0xbcafb638	-0.021449193
182	0x3b39eac0	0.0028368682
183	0x3dccbf8a	0.09997471
184	0x3d120974	0.035653546
185	0x3dba20a4	0.09088257
186	0x3d6e87dc	0.058235034
187	0x3cf26060	0.02958697
188	0xbdfcfeee	-0.123533115
189	0xbd804d68	-0.06264764
190	0xbdfd8a3c	-0.12379882
191	0x3c783860	0.01515016
192	0xbceaba08	-0.02865316
193	0x3d42d2cc	0.047564313
194	0x3d973654	0.07383409
195	0xbd5b5390	-0.05354649
196	0x39b29000	0.00034058094
197	0xbd90e472	-0.070748225
198	0x3df7bade	0.12096189
199	0x3d4477f8	0.047965974
200	0xbdb49052	-0.088165894
201	0x3cec2bd8	0.0288295
202	0xbd04b434	-0.032398418
203	0xbd44ccc4	-0.048046842
204	0x3db073de	0.0861585
205	0xbcb47488	-0.022028223
206	0xbd0ec654	-0.03485711
207	0x3df0911e	0.11746429
208	0xbdc90e60	-0.09817195
209	0xbdc872e8	-0.09787542
210	0xbdc535ca	-0.096294
211	0x3dba87ca	0.09107931
212	0x3c8fcbf0	0.0175533
213	0xbd9a6c4a	-0.07540186
214	0x3c16c330	0.00920181
215	0x3dabc64c	0.083874315
216	0xbd8dd060	-0.0692451
217	0xbdfb23a6	-0.12262659
218	0x3d388954	0.04505284
219	0xbd2df9c8	-0.042474538
220	0xbcc6e138	-0.024277315
221	0x3d048440	0.032352686
222	0x3bd335e0	0.0064456314
223	0x3d80632e	0.06268917
224	0x3ddad8fe	0.10685919
225	0xbd15782c	-0.036491558
226	0xbde29a70	-0.11064613
227	0x3d919a50	0.07109511
228	0xbd518cb4	-0.051159576
229	0xbd30a754	-0.043128327
230	0x3c833188	0.01601483
231	0xba8b3180	-0.001061961
232	0x3d9ac376	0.075568125
233	0xbdb83b0c	-0.08995637
234	0x3d0cb42c	0.034351513
235	0xbd4aa8b0	-0.04947728
236	0xbd86f9fe	-0.06590651
237	0x3d7c2514	0.061558798
238	0xbdb270f6	-0.08712952
239	0x3d8ca51e	0.06867431
240	0x3ce4bde8	0.027922586
241	0xbd1007a8	-0.03516355
242	0xbd96bd2a	-0.07360299
243	0x3d8734d0	0.0660187
244	0xbdd78066	-0.10522537
245	0x3d8c720c	0.0685769
246	0x3c56c040	0.013107359
247	0x3dd84106	0.10559277
248	0xbd37ee78	-0.044905156
249	0x3d9702dc	0.07373592
250	0xbd2b7fb4	-0.041869834
251	0x3dd398d6	0.103318855
252	0xbdf88f2e	-0.12136684
253	0xbd47ca08	-0.048776656
254	0x3ddb89b4	0.10719624
255	0xbd524950	-0.051339447

lstm.bias_ih_l0_reverse f4 [256]
0	0xbd05dd3c	-0.03268169
1	0xbd87eadc	-0.06636593
2	0xbdd8df44	-0.105894595
3	0x3dc3d99c	0.0956299
4	0x3dbfdec6	0.093686625
5	0x3dd61c32	0.104545966
6	0x3d3bbf88	0.045836955
7	0xbdd805ea	-0.10548003
8	0x3c842038	0.016128644
9	0xbbc45f80	-0.00599283
10	0x3d92cfae	0.07168518
11	0xbcc1b280	-0.023644686
12	0xbd79c058	-0.06097445
13	0xbd804b50	-0.06264365
14	0x3dbdd3cc	0.09268913
15	0xbd25915c	-0.04042183
16	0xbd8ff030	-0.07028234
17	0x3ce66208	0.028122917
18	0x3db45cdc	0.08806774
19	0xbcbe3fd8	-0.023223802
20	0xbd2294dc	-0.039692745
21	0x3d8b11ba	0.067904904
22	0x3c975f88	0.01847817
23	0xbc6a25f0	-0.014291272
24	0x3d5c972c	0.053855106
25	0x3de7288a	0.11287029
26	0xbdf63212	-0.12021269
27	0xbd3974f4	-0.04527755
28	0x3def4c0e	0.11684428
29	0x3cf661f0	0.030075997
30	0xbc224c00	-0.009905815
31	0xbde5fa38	-0.11229366
32	0xbdb3726c	-0.087620586
33	0x3db4de18	0.088314235
34	0xbdf60a58	-0.12013692
35	0x3a3e3a00	0.00072565675
36	0xbdb3358c	-0.08750448
37	0x3d53c16c	0.051698133
38	0x3c13f7f0	0.009031281
39	0x3dd0b3ce	0.10190545
40	0xbd7251d8	-0.059160084
41	0x3ce82620	0.028338492
42	0xbdd5ea7e	-0.104451165
43	0x3d5c91c4	0.05384995
44	0x3d73cf18	0.059523672
45	0x3df7a1d4	0.12091413
46	0x3deee4a4	0.116647035
47	0x3ddf0e38	0.10891384
48	0x3b86d460	0.0041146725
49	0xbd04d8f0	-0.03243345
50	0xbdb090ec	-0.08621392
51	0xbdfac284	-0.12244132
52	0x3d0b4a18	0.03400621
53	0xbd084f20	-0.033278584
54	0x3dd8df04	0.10589412
55	0x3df9bfb6	0.12194769
56	0xbdc0316e	-0.09384428
57	0x3dfbae12	0.12289061
58	0xbddbdf2e	-0.107359275
59	0xbda823f6	-0.08209984
60	0x3d051c28	0.032497555
61	0x3cfee1d8	0.03111355
62	0x3dc09772	0.09403886
63	0xbd04ac9c	-0.032391176
64	0x3d23ee08	0.040021926
65	0x3dc1f710	0.094709516
66	0x3c890f70	0.016730994
67	0x3cb648f8	0.022251591
68	0x3dbc760a	0.09202202
69	0x3dcd668e	0.100293264
70	0x3ca687e8	0.020328477
71	0x3dcafc50	0.09911406
72	0xbdf1d4f0	-0.11808193
73	0xbde9aa18	-0.11409396
74	0xbdd80278	-0.10547346
75	0xbdfe649a	-0.12421532
76	0xbd88f06a	-0.0668648
77	0xbc9b6138	-0.018967256
78	0x3da7a648	0.081860125
79	0x3c90c500	0.017672062
80	0xbdcbcd70	-0.099512935
81	0x3d8c3936	0.068468496
82	0xbab94780	-0.0014135689
83	0x3bb017c0	0.005373925
84	0x3b962460	0.004581973
85	0x3d9b996a	0.07597621
86	0x3d84c1d8	0.06482285
87	0xbd1ecab8	-0.038767546
88	0x3a717b00	0.0009211749
89	0x3dff8d18	0.12478083
90	0xbd175d4c	-0.03695421
91	0xbcf7e1a8	-0.030258968
92	0xbd35c444	-0.044376627
93	0x3dc0df76	0.09417622
94	0xbcb548c0	-0.022129416
95	0x3c0cf020	0.008602172
96	0x3db108f2	0.08644284
97	0xbaab9b00	-0.0013092458
98	0x3ca60b58	0.020269081
99	0xbdb7cd7a	-0.089747384
100	0xbdb34278	-0.08752912
101	0x3d43e890	0.04782921
102	0xbced50a0	-0.028969109
103	0xbd200554	-0.03906758
104	0x3d8d620e	0.06903468
105	0x3dd105de	0.10206197
106	0x3bd17920	0.006392613
107	0x3dd2d392	0.1029426
108	0xbc13c430	-0.009018943
109	0x3d9467d0	0.07246363
110	0x3dd5552a	0.104166344
111	0xbb518bc0	-0.0031974167
112	0x3dce2f94	0.100676686
113	0x3df2a8b8	0.11848587
114	0xbd926448	-0.071480334
115	0xbdd8c2ba	-0.10584016
116	0x3d85c3ca	0.065314844
117	0xbcec7c90	-0.02886799
118	0x3d7126a4	0.05887474
119	0x3d95155e	0.07279466
120	0x3d9e2cf8	0.07723421
121	0x3ddc7286	0.10764031
122	0xbcbdb610	-0.023158103
123	0xbd3083d4	-0.04309447
124	0x3d4b3190	0.049607813
125	0xbdd853a4	-0.10562828
126	0xbdd2590e	-0.10270892
127	0x3df84960	0.1212337
128	0x3dac8fc8	0.084258616
129	0xbde4e3d8	-0.1117627
130	0x3debb30c	0.1150876
131	0x3d95434e	0.07288228
132	0xbd752948	-0.059853822
133	0x3ced9598	0.029001996
134	0x3ca36be8	0.019948915
135	0x3a9fea00	0.0012200475
136	0xbdd493b4	-0.10379735
137	0x3cc0c8f0	0.023533314
138	0xbd83851a	-0.064218715
139	0xbcf72088	-0.03016688
140	0x3de1f734	0.110334784
141	0x3dd180da	0.102296546
142	0x3dd1ce78	0.10244459
143	0xbd0dc620	-0.034612775
144	0xbc158010	-0.009124771
145	0x3dff1c06	0.12456517
146	0x3dda708a	0.106659964
147	0x3db74300	0.08948326
148	0x3d4b248c	0.0495954
149	0xbd9df1c8	-0.07712132
150	0xbdaba39a	-0.08380814
151	0xbd732480	-0.05936098
152	0xbc93ae08	-0.01802732
153	0xbd15b680	-0.036551
154	0x3b020540	0.0019839555
155	0xbcdf6b20	-0.02727276
156	0x3d81e8d0	0.063432336
157	0xbc797300	-0.015225172
158	0x3df7a654	0.120922714
159	0xbd8a1da2	-0.06743933
160	0x3d8a455c	0.067515105
161	0xbdf71c44	-0.12065938
162	0xbccc0838	-0.024906263
163	0x3d97d640	0.07413912
164	0xbd52e250	-0.05148536
165	0xbd31ffa8	-0.043456703
166	0x3dd04e60	0.10171199
167	0x3c84b2b8	0.016198501
168	0x3df6ef36	0.120573446
169	0xbc31e760	-0.010858387
170	0xbd32b6ec	-0.04363148
171	0x3d9b7c02	0.07592012
172	0xbd2620f8	-0.040558785
173	0x3db0255c	0.08600876
174	0x3c938ae8	0.018010572
175	0x3d26437c	0.040591702
176	0xbc92e3e8	-0.01793094
177	0xbdaf5cc4	-0.085626155
178	0x3d2a6618	0.04160127
179	0xbbe34ce0	-0.0069366544
180	0xbd02fe00	-0.031980515
181	0x3db84046	0.08996634
182	0x3da5d0ba	0.08096452
183	0xbdaa14b0	-0.08304727
184	0x3dbe7de4	0.093013555
185	0xbdf2775c	-0.11839172
186	0x3d5abafc	0.05340098
187	0xbd64e0f8	-0.05587861
188	0xbd6c6f34	-0.05772324
189	0xbdc897ee	-0.09794603
190	0xbda3dbc6	-0.08000903
191	0xbd1d30d0	-0.03837663
192	0x3dc39566	0.0954998
193	0xbc57ee70	-0.0131794065
194	0x3c6a9f90	0.014320269
195	0xbdb08c2a	-0.08620484
196	0xbcb0cdf8	-0.021582589
197	0xbdd00970	-0.1015805
198	0x3de82cba	0.11336656
199	0xbd4b3a34	-0.049616054
200	0xbd1c7a84	-0.038202778
201	0x3c87f190	0.016594678
202	0xbdd1e3ba	-0.102485135
203	0xb99c8a00	-0.00029857457
204	0x3dae63b2	0.08515109
205	0x3cd1da18	0.02561669
206	0xbd782a38	-0.060587138
207	0x3ddd46bc	0.10804507
208	0x3d8e2e5e	0.069424376
209	0x3d76139c	0.060077295
210	0x3dc58a2c	0.09645495
211	0x3d4f086c	0.05054514
212	0x3d9262c6	0.07147746
213	0x3c6e7800	0.014554977
214	0xbded36f8	-0.1158275
215	0xbc4805e0	-0.012208432
216	0xbdca3776	-0.098738596
217	0x3d6c1d64	0.057645217
218	0xbc88bdc0	-0.016692042
219	0xbce4ea98	-0.027943894
220	0xbdc53b98	-0.09630507
221	0xbda6d88a	-0.0814677
222	0x3ced5dd8	0.028975412
223	0xbd5f798c	-0.054559276
224	0xbda8ce92	-0.08242525
225	0x3d88d2f0	0.06680858
226	0xbdb684c0	-0.08912039
227	0x3d7a0220	0.061037183
228	0xbd90c964	-0.07069662
229	0x3cb4edd8	0.022086069
230	0xbce82308	-0.028337017
231	0x3d9f21be	0.07770108
232	0x3dd08652	0.101818696
233	0xbdd4d828	-0.10392791
234	0xbbcf3d60	-0.006324455
235	0x3db6c894	0.08924976
236	0xbd9f7772	-0.07786454
237	0xbc96af10	-0.018394023
238	0x3daa6f40	0.083220005
239	0xbdec85f2	-0.115489855
240	0x3c494c00	0.012286186
241	0x3d66aff8	0.05632016
242	0xbbeae2c0	-0.007168144
243	0xbd39070c	-0.045172736
244	0x398a5000	0.00026381016
245	0xbdf4c938	-0.11952442
246	0xbdbb6cb2	-0.09151591
247	0x3dcebe48	0.10094887
248	0x3c534f90	0.012897387
249	0x3dcf61bc	0.10126063
250	0xbc4de8f0	-0.012567744
251	0x3ba47560	0.005018875
252	0x3de517ca	0.11186178
253	0xbdd6bd6c	-0.10485348
254	0x3dc52c0c	0.09627542
255	0x3d84f9c0	0.064929485
